figs/optimizer/adam-0.1-mlp/mlp_model_dict.pt (torch, 141967 bytes, 10 tensors)

group.0.weight f4 [100, 100]
0	0xc1eb0ad5	-29.38029
1	0xc1bfe2c1	-23.98572
2	0xc0e5ba3a	-7.1789827
3	0xc109df35	-8.616994
4	0xc14d6671	-12.83751
5	0xc191e0da	-18.23479
6	0xc1bdc666	-23.721874
7	0xc286c0b9	-67.37641
8	0xc019da32	-2.4039426
9	0xc2871556	-67.54167
10	0xc13db053	-11.855548
11	0xc1974a57	-18.911299
12	0xc3050250	-133.00903
13	0xc174731d	-15.278104
14	0xbf9a424b	-1.2051481
15	0xbf260546	-0.64851797
16	0xc3007fb1	-128.4988
17	0xc1184044	-9.51569
18	0xc278d26a	-62.205482
19	0xc01cfb66	-2.4528441
20	0x41166353	9.399249
21	0xc17642d7	-15.391318
22	0xc29a996a	-77.29964
23	0x40b6a690	5.7078323
24	0xc1132613	-9.196795
25	0xc0a4ddcd	-5.1520753
26	0x3d11985a	0.035545684
27	0xc15e9d0a	-13.91334
28	0xbf11f075	-0.57007533
29	0xbf41d7d4	-0.7571995
30	0xc2d5819b	-106.753136
31	0x41057d6d	8.343122
32	0x40cd3722	6.41298
33	0xc17bc3c7	-15.735297
34	0xc183fb20	-16.49762
35	0xc0af528b	-5.478826
36	0x401abbbe	2.4177089
37	0xc0074eab	-2.1141765
38	0xc179748e	-15.590956
39	0xc19f1d58	-19.889328
40	0xbf10602b	-0.5639674
41	0xc2694b97	-58.32382
42	0xc18d0f6f	-17.632536
43	0xbfc2217d	-1.516647
44	0xbff2f39d	-1.8980595
45	0x3fef5d0d	1.8700272
46	0xc18bf0c5	-17.492563
47	0xc2aca88c	-86.32919
48	0xbea64b62	-0.32479388
49	0xc2f24f2d	-121.15464
50	0xbebccd02	-0.3687516
51	0xc0da85a5	-6.828814
52	0x41015d88	8.085335
53	0xbe623f23	-0.22094397
54	0xc10253c8	-8.145454
55	0xc1948e26	-18.569408
56	0xbec556f8	-0.38542914
57	0xc2940a6b	-74.02035
58	0xc16bd038	-14.738335
59	0x411c6e1e	9.776884
60	0xc2f89c47	-124.30523
61	0xc1925656	-18.292156
62	0xc0c2ae3f	-6.0837703
63	0xc116b6f7	-9.419669
64	0xc035a421	-2.8381426
65	0xc287ab73	-67.83486
66	0xc0d829c8	-6.7551003
67	0xbf816a43	-1.0110554
68	0xc10c36cf	-8.763381
69	0xc2473554	-49.80208
70	0xbf16dae6	-0.5892776
71	0x40c4d85e	6.151412
72	0xc12565a4	-10.337315
73	0xc08492cf	-4.142921
74	0xc11caed7	-9.7926855
75	0xc15411ad	-13.254315
76	0xc11e54fa	-9.895746
77	0xc17b7ef2	-15.7184925
78	0x40daa45e	6.8325644
79	0x41191628	9.567909
80	0xc178265e	-15.509367
81	0xc1730aea	-15.190165
82	0xc215e0d3	-37.469555
83	0xc1dbc447	-27.470839
84	0x412e914c	10.910473
85	0xc1222e4b	-10.136302
86	0xc1895a0a	-17.168964
87	0xc141f9b5	-12.123464
88	0xc0549d4b	-3.3221004
89	0xc1082990	-8.510147
90	0xbea1d1f1	-0.31605485
91	0xc17e2285	-15.883428
92	0xc2eaa894	-117.329254
93	0xbfa5a603	-1.2941288
94	0xc03e6a59	-2.975241
95	0xc00c56ba	-2.1927934
96	0xbea80164	-0.3281356
97	0xc0d6dde9	-6.7145886
98	0xbfbcdae8	-1.4754305
99	0xc109fc6c	-8.624126
100	0xc075a0f2	-3.8379483
101	0xbf01111b	-0.50416726
102	0xc1e39e46	-28.452282
103	0xc21f69ff	-39.85351
104	0xc14498a2	-12.287264
105	0xc166fd97	-14.436912
106	0xbff192ac	-1.8872886
107	0xbd2b1ba4	-0.041774407
108	0xc234a261	-45.158573
109	0xbf3ac014	-0.7294934
110	0xc22dacdd	-43.41881
111	0xbcf8290b	-0.030293008
112	0xc2853cc2	-66.61867
113	0xbd1e7a8b	-0.038691085
114	0xbfd1ed13	-1.6400474
115	0xc2971046	-75.531784
116	0xc29dfa20	-78.988525
117	0xc20d6961	-35.35291
118	0xc290b2a9	-72.348946
119	0xbe8956ce	-0.2682404
120	0xc21d060e	-39.255913
121	0xc12f75a1	-10.966218
122	0xc1ae96a9	-21.823565
123	0xc1ec91ce	-29.571194
124	0xc20006d7	-32.00668
125	0x3e066685	0.13125046
126	0xbfc8ae00	-1.56781
127	0x3e02d22c	0.12775487
128	0xbf8f2ff1	-1.1186506
129	0xbf035f0c	-0.51316905
130	0xc197308f	-18.89871
131	0xc1f1e6c7	-30.237684
132	0xc20ce380	-35.222168
133	0x3c5748f1	0.013139949
134	0xc146db48	-12.428535
135	0xc20bfc4b	-34.99638
136	0xc15be05e	-13.742277
137	0xc0c85802	-6.260743
138	0xc14e9058	-12.91024
139	0xc14e37c5	-12.888616
140	0xc074b82a	-3.8237405
141	0xc1f573b8	-30.681503
142	0xc17c4c75	-15.768666
143	0xbfcedc5d	-1.6161
144	0xc0b91a38	-5.7844505
145	0xc0f88bdd	-7.767073
146	0xc14ff0ee	-12.996321
147	0xc188d16b	-17.102255
148	0xbffe552d	-1.9869744
149	0xbeadbab6	-0.33931512
150	0xc084a60a	-4.1452684
151	0x3da7722b	0.08176073
152	0xc20f9ff4	-35.906204
153	0xc15d5184	-13.832401
154	0xc28e79fc	-71.23825
155	0xbdef63ba	-0.11688943
156	0x3de8e32e	0.11371456
157	0xc1848ddd	-16.56927
158	0xc0ca7c17	-6.3276477
159	0xc23e850d	-47.629932
160	0xc08e286c	-4.4424343
161	0xc1a5f648	-20.745255
162	0xc171ddc0	-15.116638
163	0xc22b798a	-42.86869
164	0x3de81f96	0.113341495
165	0xc0d2fe68	-6.5935555
166	0xc0689c27	-3.6345308
167	0xc180fc05	-16.123056
168	0xbd20dd6c	-0.039273664
169	0xc119e84d	-9.619214
170	0x3dfab5b8	0.12241691
171	0xc246fc89	-49.746616
172	0xbf882128	-1.0635118
173	0xc084c223	-4.1486983
174	0xc0a1e767	-5.0594974
175	0xc191be69	-18.217974
176	0xc224faa9	-41.244785
177	0xc13de6e8	-11.868874
178	0xc2035845	-32.8362
179	0xc220d66b	-40.209393
180	0xc1b025ce	-22.01846
181	0xc0d5dfbc	-6.6835613
182	0xc2b58a2a	-90.76985
183	0x3db68e45	0.089138545
184	0xc23f4466	-47.816795
185	0xc11aa4a0	-9.665192
186	0xc1519ed6	-13.101278
187	0xc0e63f10	-7.195198
188	0xc0caecc5	-6.3414025
189	0xc201ce9a	-32.45176
190	0x3e2059fc	0.15659326
191	0xc18c5983	-17.543707
192	0xc15bb6bc	-13.732113
193	0xc14401b2	-12.250414
194	0xbe5e5403	-0.21711735
195	0xbfb160cf	-1.3857669
196	0xbfe5568e	-1.7917039
197	0xc1238732	-10.220507
198	0xc1197953	-9.59212
199	0xc161332c	-14.074993
200	0xc0a99167	-5.2989993
201	0xbe87208e	-0.26392025
202	0xc18c9fb0	-17.577972
203	0xc1e1aa4e	-28.208157
204	0xc0b4ab92	-5.6459436
205	0xc1796069	-15.586038
206	0xbfb515d1	-1.4147283
207	0x3d060248	0.03271702
208	0xc1d662f7	-26.798323
209	0xbf7c7821	-0.986208
210	0xc18f1567	-17.88545
211	0x3cfb8842	0.030704621
212	0xc228f5b7	-42.239956
213	0x3caa6edd	0.020804817
214	0xbf6b39e5	-0.91885215
215	0xc20fa274	-35.908646
216	0xc2231b07	-40.776394
217	0xc1e56cfe	-28.678219
218	0xc1f39545	-30.447886
219	0xbe99aab2	-0.30013043
220	0xc186f695	-16.870401
221	0xc18f5b22	-17.919498
222	0xc11a24f5	-9.634023
223	0xc141242c	-12.071331
224	0xc1577049	-13.464913
225	0xbdad7c96	-0.084710285
226	0xbd760107	-0.060059574
227	0xbdd23457	-0.10263889
228	0xbf2e642a	-0.6812159
229	0xbf553cf5	-0.8329614
230	0xc15422e4	-13.258518
231	0xc16b8c6a	-14.721781
232	0xc16dc794	-14.861225
233	0xbdcbf1f6	-0.0995826
234	0xc0a5df0e	-5.1834784
235	0xc1a5b63f	-20.713987
236	0xc0ec69c1	-7.3879094
237	0xc08d604c	-4.418005
238	0xc1454de1	-12.331513
239	0xc1808e75	-16.06956
240	0xbe9c97e7	-0.30584642
241	0xc1d0b337	-26.087507
242	0xc1632f1b	-14.199
243	0x3f611602	0.87924206
244	0xc1088ce5	-8.534398
245	0xc05152df	-3.270683
246	0xc1859fd3	-16.70304
247	0xc0d2b954	-6.585123
248	0xbff8066d	-1.9376961
249	0xbeb313bb	-0.3497599
250	0xbff28436	-1.8946598
251	0x3c86de28	0.016463354
252	0xc176ce85	-15.42542
253	0xc0f991e1	-7.7990575
254	0xc1f90097	-31.125288
255	0xbcfaf84e	-0.030635979

group.0.bias f4 [100]
0	0xc1aa33c7	-21.275282
1	0xc11e0e0b	-9.878428
2	0xc0d51da9	-6.6598706
3	0xc21247ff	-36.57031
4	0xc2343959	-45.056004
5	0xc21514ec	-37.27043
6	0xc1c4045c	-24.502129
7	0xc1fa1ffa	-31.265614
8	0xc1077754	-8.466633
9	0x439b24db	310.28793
10	0xc11fe0a1	-9.992341
11	0xc280c975	-64.39347
12	0xc2c68dea	-99.277176
13	0xc195e30a	-18.735859
14	0xc01cd5c2	-2.4505467
15	0xc21421b0	-37.032898
16	0xc2d01b97	-104.05389
17	0xc075af0c	-3.838809
18	0xc2b989c8	-92.769104
19	0xc10420f2	-8.258043
20	0xc1b2e051	-22.35953
21	0xc2aa2d48	-85.08844
22	0xc3567a03	-214.47661
23	0xc17e4a8f	-15.893203
24	0xc1e7c434	-28.970802
25	0xc08b9325	-4.361712
26	0xc1076aed	-8.463605
27	0xc0cd883d	-6.4228806
28	0xc0eb7bc1	-7.3588567
29	0xbf583b9f	-0.84465975
30	0xc210f00c	-36.23442
31	0xc1dad91c	-27.35601
32	0xc31caa79	-156.66591
33	0xbe931183	-0.28724298
34	0xc26a163a	-58.521706
35	0xc181a8b0	-16.207367
36	0xc19dc83b	-19.722769
37	0xbf3dee1a	-0.7419144
38	0xbf75f532	-0.96077263
39	0xc2ef6407	-119.695366
40	0xc21a012b	-38.50114
41	0xc1597bf7	-13.592765
42	0xc0b59558	-5.6744804
43	0xc143ad58	-12.22982
44	0xc12fc5c0	-10.985779
45	0xc16829c2	-14.510195
46	0xbf8e76c4	-1.1129994
47	0xc2b499ac	-90.30014
48	0xc0b171dd	-5.5451493
49	0xc3e79084	-463.12903
50	0xc0860e6a	-4.1892595
51	0xbfd9c08b	-1.7011884
52	0xc1b6899b	-22.81719
53	0xc1d3b45d	-26.463068
54	0xc2d41d83	-106.05764
55	0xc09abf41	-4.8358464
56	0xc127d452	-10.489336
57	0xc29a8cbe	-77.27489
58	0xc3f1a77f	-483.30856
59	0xc15da56a	-13.852884
60	0xc33bcc03	-187.79692
61	0xc33ca4d0	-188.6438
62	0xc1ab28c2	-21.394901
63	0xc1e57600	-28.682617
64	0xc1843fcd	-16.531153
65	0xc2a0d5d0	-80.4176
66	0xbe74f938	-0.23923194
67	0xc197d854	-18.980629
68	0xc035ee57	-2.842672
69	0xc320a5a5	-160.64705
70	0xc1a5fd39	-20.748644
71	0xc1e316df	-28.386168
72	0xc0160ecf	-2.3446538
73	0xc3e1f721	-451.9307
74	0xc34e6e72	-206.43143
75	0xc0906c7b	-4.5132422
76	0xc22ed514	-43.708084
77	0xbf42458a	-0.7588736
78	0xc0baec56	-5.8413496
79	0xc10e12ea	-8.879618
80	0xc104396b	-8.264018
81	0xc08e6298	-4.4495354
82	0xc2c1015a	-96.50264
83	0xc318ccfb	-152.8007
84	0xc1bd15d1	-23.635653
85	0xc207523d	-33.83031
86	0xc0989885	-4.768618
87	0xc0d3a879	-6.6143155
88	0xc108ec93	-8.557757
89	0xc2a224a7	-81.07159
90	0xbfe0ac0b	-1.7552503
91	0xc2a3f73c	-81.98288
92	0x43ba670e	372.8051
93	0xc18e92f6	-17.821758
94	0xc113df83	-9.242068
95	0xc16fdc41	-14.991273
96	0xc017e1ee	-2.3731647
97	0xc0018766	-2.023889
98	0xc1244fe5	-10.2695055
99	0xc1730708	-15.189217

fc1.weight f4 [100, 240]
0	0xc3c96802	-402.81256
1	0xc3c9813a	-403.00958
2	0xc3c98fc8	-403.1233
3	0xc3c95b14	-402.71155
4	0xc3c9679c	-402.80945
5	0xc3c92552	-402.29156
6	0x43ca1a6d	404.20645
7	0x43ca1ae7	404.21017
8	0x43ca6857	404.81516
9	0x43ca5350	404.65088
10	0xc3c965cd	-402.79532
11	0xc3c976ab	-402.9271
12	0xc3c98c6e	-403.0971
13	0xc3c93708	-402.42993
14	0xc3c9a467	-403.2844
15	0xc3c9d935	-403.69693
16	0x43c9b5b7	403.41965
17	0xc3c8f560	-401.917
18	0xc3c8e876	-401.8161
19	0xc3c8ecb9	-401.8494
20	0x43c9b8af	403.44284
21	0x43c9f61e	403.9228
22	0x43ca76ec	404.92908
23	0xc3c8d8ee	-401.69476
24	0xc3c8cb9a	-401.59064
25	0xc3c951b4	-402.6383
26	0xc3c967b8	-402.8103
27	0xc3c9b3f8	-403.406
28	0xc3ca4789	-404.55887
29	0xc3ca9a98	-405.20776
30	0xc3c999a5	-403.20035
31	0xc3c97c5b	-402.97153
32	0xc3c9a36c	-403.27673
33	0xc3c9ade7	-403.3586
34	0xc3c8c6f2	-401.55426
35	0x43ca5b2a	404.71222
36	0x43ca81d4	405.01428
37	0x43ca226c	404.26892
38	0xc3c81aa2	-400.20807
39	0xc3c92485	-402.2853
40	0xc3c95b1d	-402.71182
41	0xc3c9327c	-402.3944
42	0xc3c96279	-402.76932
43	0xc3c9e4d5	-403.78775
44	0xc3ca2f89	-404.37137
45	0xc3ca0052	-404.0025
46	0xc3c96222	-402.76666
47	0xc3c8c471	-401.5347
48	0xc3c954ea	-402.6634
49	0xc3c8f219	-401.8914
50	0x43c9c7f8	403.56226
51	0x43c9d104	403.63293
52	0x43ca1087	404.12912
53	0x43ca524b	404.6429
54	0xc3c93974	-402.44885
55	0xc3c975f3	-402.92148
56	0xc3c987f4	-403.06213
57	0xc3c9b681	-403.4258
58	0xc3c9c29e	-403.52045
59	0xc3ca59d6	-404.70184
60	0xc3ca2757	-404.30734
61	0xc3c9b9c9	-403.45145
62	0xc3c90a40	-402.08008
63	0xc3c9052a	-402.04034
64	0xc3c8e735	-401.8063
65	0x43cab03b	405.3768
66	0x43ca732e	404.89984
67	0x43c9c57d	403.54288
68	0xc3c957c6	-402.68573
69	0xc3c95fa5	-402.74722
70	0xc3c97abd	-402.9589
71	0xc3c97cd9	-402.97537
72	0xc3c9486e	-402.56586
73	0xc3c92c06	-402.34393
74	0xc3c9db9d	-403.71573
75	0xc3ca146c	-404.15955
76	0xc3c9a047	-403.25217
77	0xc3c94edd	-402.61612
78	0xc3c97bf7	-402.96848
79	0xc3c9475c	-402.5575
80	0x43c8a86f	401.3159
81	0x43c803d6	400.02997
82	0x43c7ed2a	399.85284
83	0xc3cb8daf	-407.1069
84	0xc3cb9b16	-407.2116
85	0xc3cb5981	-406.69925
86	0xc3cac119	-405.50858
87	0x43c887c5	401.0607
88	0x43c80fdd	400.12393
89	0xc3cba423	-407.28232
90	0xc3cb9bff	-407.21872
91	0xc3cb3a4b	-406.4554
92	0xc3cba7b8	-407.3103
93	0x43c7df1c	399.74304
94	0x43c8dcaa	401.72394
95	0x43c88c19	401.0945
96	0x43c8971e	401.1806
97	0x43c8a39e	401.27826
98	0xc3caafd9	-405.3738
99	0xc3cb5deb	-406.73373
100	0xc3cb8805	-407.06265
101	0xc3cb5541	-406.66605
102	0x43c82dee	400.35883
103	0xc3cb1994	-406.19983
104	0xc3caea81	-405.83206
105	0xc3cb58dd	-406.69424
106	0xc3cb39e5	-406.4523
107	0xc3cb9074	-407.12854
108	0xc3cb7f46	-406.99432
109	0x43c877ed	400.93692
110	0x43c83c76	400.47235
111	0x43c83235	400.39224
112	0xc3cb296b	-406.32358
113	0xc3cb47e0	-406.56152
114	0xc3cb4234	-406.5172
115	0xc3cb6080	-406.7539
116	0xc3cb82ac	-407.02087
117	0x43c84167	400.51096
118	0xc3cb826c	-407.01892
119	0xc3cb4cf2	-406.60114
120	0xc3cb8125	-407.00894
121	0xc3cb8430	-407.0327
122	0xc24e9a69	-51.65079
123	0xc3cac05a	-405.50275
124	0x43c881cb	401.014
125	0x43c86c08	400.844
126	0x43c86190	400.7622
127	0xc3cae416	-405.78192
128	0xc3cb1670	-406.1753
129	0xc3cb4005	-406.50015
130	0xc3cb6ea2	-406.86432
131	0x43c8643f	400.78317
132	0x43c86155	400.7604
133	0xc3cb2d82	-406.35553
134	0xc3cbbefd	-407.4921
135	0xc3cbb6ec	-407.42908
136	0xc3cb6c4c	-406.84607
137	0x43c84de7	400.6086
138	0x43c89390	401.15283
139	0x43c89795	401.18423
140	0x43c85cb4	400.72424
141	0xc3cac4fa	-405.53888
142	0xc3cb5569	-406.66727
143	0xc3cb0a88	-406.08228
144	0xc3cad8a0	-405.69238
145	0xc3cb7c22	-406.9698
146	0x43c85c04	400.71887
147	0x43c86135	400.75943
148	0xc3cb0a1d	-406.079
149	0xc3cba04c	-407.25232
150	0xc3cb19cb	-406.2015
151	0xc3cb085f	-406.0654
152	0x43c7c5a9	399.54422
153	0x43c81b09	400.2112
154	0x43c896da	401.17853
155	0x43c84fe2	400.62408
156	0x43c82849	400.31473
157	0xc3cb324d	-406.39297
158	0xc3cb689f	-406.81735
159	0xc3ca7f74	-404.99573
160	0x43c9994b	403.1976
161	0x43c9d230	403.6421
162	0xc3c977d7	-402.93625
163	0xc3c9b3e7	-403.4055
164	0xc3c9bd3a	-403.47833
165	0x43c97ac5	402.95914
166	0xc3c9afd7	-403.37375
167	0x43c9dbdb	403.71762
168	0xc3c96202	-402.7657
169	0xc3c98488	-403.0354
170	0x43c9b325	403.39957
171	0xc3c9e0f3	-403.75742
172	0x43c97b7f	402.9648
173	0x43c98aa2	403.08307
174	0x43c9a633	403.29843
175	0x43c967c9	402.81082
176	0x43c9d7e6	403.6867
177	0xc3c93a26	-402.45428
178	0xc3c9ccc8	-403.59985
179	0x43c9bd59	403.47928
180	0xc3c9dbd8	-403.71753
181	0x43c948d6	402.56903
182	0x43ca05a8	404.0442
183	0xc3c9c80b	-403.56284
184	0xc3c9e15e	-403.76068
185	0xc3c9e352	-403.77594
186	0x43c9ed6d	403.8549
187	0x43c97951	402.94778
188	0xc3c97803	-402.9376
189	0x43ca1edf	404.24118
190	0x43c9a04b	403.2523
191	0xc3c95255	-402.64322
192	0xc3c9d5c7	-403.67014
193	0xc3c9c689	-403.55106
194	0x43c9922c	403.14197
195	0xc3c9881c	-403.06335
196	0x43ca138e	404.15277
197	0x43c97c1b	402.96957
198	0xc3c9cb21	-403.58694
199	0xc3c9b91b	-403.44614
200	0x43c9c011	403.50052
201	0x43c9d5bb	403.66977
202	0x43c9758a	402.91827
203	0x43c8bd41	401.47855
204	0x43c9708f	402.87936
205	0x43c97343	402.90048
206	0xc3c9d763	-403.6827
207	0xc3c9bcb8	-403.47437
208	0x43c971da	402.88947
209	0x43c9396b	402.44858
210	0xc3c9d378	-403.6521
211	0x43c98c7b	403.0975
212	0xc3c9c2c3	-403.52158
213	0xc3c966a1	-402.8018
214	0xc3c9ae75	-403.36295
215	0x43c9d558	403.66675
216	0x43c9ec86	403.84784
217	0x43c983cf	403.02975
218	0x43c9a225	403.26675
219	0x43c98191	403.01224
220	0x43c99f46	403.24432
221	0x43c9b6e6	403.4289
222	0xc3c9bd3a	-403.47833
223	0x43c9a0ed	403.25723
224	0x43c95fa0	402.74707
225	0xc3ca2639	-404.2986
226	0x43c9c652	403.54938
227	0xc3ca1ae6	-404.21014
228	0xc3c9cf5d	-403.62003
229	0x43c9cd2d	403.60294
230	0x43c9b9e9	403.45242
231	0x43c9a107	403.25803
232	0xc3c96135	-402.75943
233	0x43c9d242	403.64264
234	0x43c98a74	403.08167
235	0xc3c9675a	-402.80743
236	0xc3c98a1e	-403.07904
237	0xc3c9664f	-402.7993
238	0x43c9b85f	403.4404
239	0xc3c9caa3	-403.5831
240	0xc3a3a4ca	-327.2874
241	0xc3a3751f	-326.915
242	0xc3a51296	-330.1452
243	0xc3a634e4	-332.4132
244	0xc3a2b657	-325.42453
245	0x43e04a92	448.58258
246	0xc39f3595	-318.4186
247	0xc39fd308	-319.64868
248	0xc3a16f5c	-322.87
249	0xc3a2eb77	-325.83957
250	0xc3a15031	-322.6265
251	0x43e4b634	457.42346
252	0x43e51d4b	458.22885
253	0x43e48d46	457.1037
254	0x43dfd2af	447.64597
255	0xc3a3b0f9	-327.3826

fc1.bias f4 [100]
0	0x43c8570e	400.6801
1	0xc3f67c8a	-492.97296
2	0xc3a5b287	-331.39474
3	0xc3a7671d	-334.80557
4	0xc3f2db46	-485.71307
5	0x43c098b9	385.19315
6	0xc3f25802	-484.68756
7	0xc3ccc9fc	-409.578
8	0x439b4086	310.5041
9	0x43c8f584	401.9181
10	0x43adaf52	347.3697
11	0xc3ebe1f8	-471.76538
12	0xc3f4c44d	-489.5336
13	0xc3f3474f	-486.5571
14	0xc38ad775	-277.68326
15	0xc3b0e858	-353.8152
16	0x43b6b1aa	365.388
17	0x44006829	513.6275
18	0x4373cc87	243.79893
19	0x4186b771	16.839571
20	0x43bba243	375.26767
21	0xc3f02884	-480.31653
22	0xc3bab875	-373.44107
23	0x43b267d1	356.81107
24	0xc3f06fc5	-480.8732
25	0x438e0120	284.0088
26	0xc3df1bf2	-446.21832
27	0xc3f39b73	-487.21445
28	0x4386178b	268.18393
29	0x43c32d5d	390.3544
30	0x43b9413a	370.50958
31	0x42746191	61.09528
32	0x43e4ce7c	457.61316
33	0xc3e9fd94	-467.98108
34	0xc3f14a6b	-482.5814
35	0xc3a75621	-334.67288
36	0x43fc22ef	504.27292
37	0x43f1d852	483.69
38	0x43b9093e	370.0722
39	0x43bd59e5	378.7023
40	0xc3cc97e1	-409.18655
41	0x43bf3787	382.4338
42	0x43b9128b	370.14487
43	0x43d1968c	419.17615
44	0x43c2ef08	389.86743
45	0x43c935eb	402.42123
46	0x43c66f0a	396.8675
47	0x437f82ee	255.51144
48	0xc3a5ab6e	-331.3393
49	0xc35ba049	-219.62611
50	0x43c56e83	394.86337
51	0x43921e87	292.2385
52	0x43902a78	288.3318
53	0xc3a6b3c7	-333.4045
54	0x4371bd4a	241.73941
55	0xc3f4ea84	-489.83215
56	0x43af3d6a	350.4798
57	0x43b40cc0	360.0996
58	0x43c32752	390.3072
59	0x43e1fce1	451.97562
60	0xc3bc0ee2	-376.11627
61	0x43c6ae08	397.35962
62	0xc3a4c628	-329.5481
63	0xc3a74dc2	-334.60748
64	0x43b2cc3d	357.5956
65	0x43becb8a	381.59015
66	0x43b2780c	356.93787
67	0xc3c6194e	-396.1977
68	0x438ea395	285.27798
69	0xc3b025c9	-352.2952
70	0x439ef25b	317.8934
71	0x438b5bf2	278.71832
72	0x43b5956a	363.1673
73	0x43bafefa	373.992
74	0x43bc4e94	376.6139
75	0x43c0dfcd	385.74844
76	0x43bcdb8d	377.71524
77	0x43bd6714	378.8053
78	0x43f8c18b	497.51205
79	0x43de5037	444.62668
80	0x43bd6f6e	378.87054
81	0x4400d801	515.37506
82	0x43894196	274.5124
83	0x4392a818	293.31323
84	0x43b2635e	356.7763
85	0xc3eefd2c	-477.9779
86	0x43c398d6	391.19403
87	0xc3ef61b0	-478.76318
88	0xc3ac3dfa	-344.4842
89	0xc3c3b627	-391.42307
90	0x43b5fd88	363.9807
91	0x43a4f5b1	329.91946
92	0xc3ae64c0	-348.7871
93	0xc39bb602	-311.42194
94	0x439cdb5d	313.71378
95	0x43c2fc5a	389.9715
96	0xc3b6adca	-365.35773
97	0xc3e9b011	-467.37552
98	0xc3c6c76c	-397.55798
99	0xc3b68446	-365.0334

fc2.0.0.weight f4 [100, 100]
0	0xc1eb0ad5	-29.38029
1	0xc1bfe2c1	-23.98572
2	0xc0e5ba3a	-7.1789827
3	0xc109df35	-8.616994
4	0xc14d6671	-12.83751
5	0xc191e0da	-18.23479
6	0xc1bdc666	-23.721874
7	0xc286c0b9	-67.37641
8	0xc019da32	-2.4039426
9	0xc2871556	-67.54167
10	0xc13db053	-11.855548
11	0xc1974a57	-18.911299
12	0xc3050250	-133.00903
13	0xc174731d	-15.278104
14	0xbf9a424b	-1.2051481
15	0xbf260546	-0.64851797
16	0xc3007fb1	-128.4988
17	0xc1184044	-9.51569
18	0xc278d26a	-62.205482
19	0xc01cfb66	-2.4528441
20	0x41166353	9.399249
21	0xc17642d7	-15.391318
22	0xc29a996a	-77.29964
23	0x40b6a690	5.7078323
24	0xc1132613	-9.196795
25	0xc0a4ddcd	-5.1520753
26	0x3d11985a	0.035545684
27	0xc15e9d0a	-13.91334
28	0xbf11f075	-0.57007533
29	0xbf41d7d4	-0.7571995
30	0xc2d5819b	-106.753136
31	0x41057d6d	8.343122
32	0x40cd3722	6.41298
33	0xc17bc3c7	-15.735297
34	0xc183fb20	-16.49762
35	0xc0af528b	-5.478826
36	0x401abbbe	2.4177089
37	0xc0074eab	-2.1141765
38	0xc179748e	-15.590956
39	0xc19f1d58	-19.889328
40	0xbf10602b	-0.5639674
41	0xc2694b97	-58.32382
42	0xc18d0f6f	-17.632536
43	0xbfc2217d	-1.516647
44	0xbff2f39d	-1.8980595
45	0x3fef5d0d	1.8700272
46	0xc18bf0c5	-17.492563
47	0xc2aca88c	-86.32919
48	0xbea64b62	-0.32479388
49	0xc2f24f2d	-121.15464
50	0xbebccd02	-0.3687516
51	0xc0da85a5	-6.828814
52	0x41015d88	8.085335
53	0xbe623f23	-0.22094397
54	0xc10253c8	-8.145454
55	0xc1948e26	-18.569408
56	0xbec556f8	-0.38542914
57	0xc2940a6b	-74.02035
58	0xc16bd038	-14.738335
59	0x411c6e1e	9.776884
60	0xc2f89c47	-124.30523
61	0xc1925656	-18.292156
62	0xc0c2ae3f	-6.0837703
63	0xc116b6f7	-9.419669
64	0xc035a421	-2.8381426
65	0xc287ab73	-67.83486
66	0xc0d829c8	-6.7551003
67	0xbf816a43	-1.0110554
68	0xc10c36cf	-8.763381
69	0xc2473554	-49.80208
70	0xbf16dae6	-0.5892776
71	0x40c4d85e	6.151412
72	0xc12565a4	-10.337315
73	0xc08492cf	-4.142921
74	0xc11caed7	-9.7926855
75	0xc15411ad	-13.254315
76	0xc11e54fa	-9.895746
77	0xc17b7ef2	-15.7184925
78	0x40daa45e	6.8325644
79	0x41191628	9.567909
80	0xc178265e	-15.509367
81	0xc1730aea	-15.190165
82	0xc215e0d3	-37.469555
83	0xc1dbc447	-27.470839
84	0x412e914c	10.910473
85	0xc1222e4b	-10.136302
86	0xc1895a0a	-17.168964
87	0xc141f9b5	-12.123464
88	0xc0549d4b	-3.3221004
89	0xc1082990	-8.510147
90	0xbea1d1f1	-0.31605485
91	0xc17e2285	-15.883428
92	0xc2eaa894	-117.329254
93	0xbfa5a603	-1.2941288
94	0xc03e6a59	-2.975241
95	0xc00c56ba	-2.1927934
96	0xbea80164	-0.3281356
97	0xc0d6dde9	-6.7145886
98	0xbfbcdae8	-1.4754305
99	0xc109fc6c	-8.624126
100	0xc075a0f2	-3.8379483
101	0xbf01111b	-0.50416726
102	0xc1e39e46	-28.452282
103	0xc21f69ff	-39.85351
104	0xc14498a2	-12.287264
105	0xc166fd97	-14.436912
106	0xbff192ac	-1.8872886
107	0xbd2b1ba4	-0.041774407
108	0xc234a261	-45.158573
109	0xbf3ac014	-0.7294934
110	0xc22dacdd	-43.41881
111	0xbcf8290b	-0.030293008
112	0xc2853cc2	-66.61867
113	0xbd1e7a8b	-0.038691085
114	0xbfd1ed13	-1.6400474
115	0xc2971046	-75.531784
116	0xc29dfa20	-78.988525
117	0xc20d6961	-35.35291
118	0xc290b2a9	-72.348946
119	0xbe8956ce	-0.2682404
120	0xc21d060e	-39.255913
121	0xc12f75a1	-10.966218
122	0xc1ae96a9	-21.823565
123	0xc1ec91ce	-29.571194
124	0xc20006d7	-32.00668
125	0x3e066685	0.13125046
126	0xbfc8ae00	-1.56781
127	0x3e02d22c	0.12775487
128	0xbf8f2ff1	-1.1186506
129	0xbf035f0c	-0.51316905
130	0xc197308f	-18.89871
131	0xc1f1e6c7	-30.237684
132	0xc20ce380	-35.222168
133	0x3c5748f1	0.013139949
134	0xc146db48	-12.428535
135	0xc20bfc4b	-34.99638
136	0xc15be05e	-13.742277
137	0xc0c85802	-6.260743
138	0xc14e9058	-12.91024
139	0xc14e37c5	-12.888616
140	0xc074b82a	-3.8237405
141	0xc1f573b8	-30.681503
142	0xc17c4c75	-15.768666
143	0xbfcedc5d	-1.6161
144	0xc0b91a38	-5.7844505
145	0xc0f88bdd	-7.767073
146	0xc14ff0ee	-12.996321
147	0xc188d16b	-17.102255
148	0xbffe552d	-1.9869744
149	0xbeadbab6	-0.33931512
150	0xc084a60a	-4.1452684
151	0x3da7722b	0.08176073
152	0xc20f9ff4	-35.906204
153	0xc15d5184	-13.832401
154	0xc28e79fc	-71.23825
155	0xbdef63ba	-0.11688943
156	0x3de8e32e	0.11371456
157	0xc1848ddd	-16.56927
158	0xc0ca7c17	-6.3276477
159	0xc23e850d	-47.629932
160	0xc08e286c	-4.4424343
161	0xc1a5f648	-20.745255
162	0xc171ddc0	-15.116638
163	0xc22b798a	-42.86869
164	0x3de81f96	0.113341495
165	0xc0d2fe68	-6.5935555
166	0xc0689c27	-3.6345308
167	0xc180fc05	-16.123056
168	0xbd20dd6c	-0.039273664
169	0xc119e84d	-9.619214
170	0x3dfab5b8	0.12241691
171	0xc246fc89	-49.746616
172	0xbf882128	-1.0635118
173	0xc084c223	-4.1486983
174	0xc0a1e767	-5.0594974
175	0xc191be69	-18.217974
176	0xc224faa9	-41.244785
177	0xc13de6e8	-11.868874
178	0xc2035845	-32.8362
179	0xc220d66b	-40.209393
180	0xc1b025ce	-22.01846
181	0xc0d5dfbc	-6.6835613
182	0xc2b58a2a	-90.76985
183	0x3db68e45	0.089138545
184	0xc23f4466	-47.816795
185	0xc11aa4a0	-9.665192
186	0xc1519ed6	-13.101278
187	0xc0e63f10	-7.195198
188	0xc0caecc5	-6.3414025
189	0xc201ce9a	-32.45176
190	0x3e2059fc	0.15659326
191	0xc18c5983	-17.543707
192	0xc15bb6bc	-13.732113
193	0xc14401b2	-12.250414
194	0xbe5e5403	-0.21711735
195	0xbfb160cf	-1.3857669
196	0xbfe5568e	-1.7917039
197	0xc1238732	-10.220507
198	0xc1197953	-9.59212
199	0xc161332c	-14.074993
200	0xc0a99167	-5.2989993
201	0xbe87208e	-0.26392025
202	0xc18c9fb0	-17.577972
203	0xc1e1aa4e	-28.208157
204	0xc0b4ab92	-5.6459436
205	0xc1796069	-15.586038
206	0xbfb515d1	-1.4147283
207	0x3d060248	0.03271702
208	0xc1d662f7	-26.798323
209	0xbf7c7821	-0.986208
210	0xc18f1567	-17.88545
211	0x3cfb8842	0.030704621
212	0xc228f5b7	-42.239956
213	0x3caa6edd	0.020804817
214	0xbf6b39e5	-0.91885215
215	0xc20fa274	-35.908646
216	0xc2231b07	-40.776394
217	0xc1e56cfe	-28.678219
218	0xc1f39545	-30.447886
219	0xbe99aab2	-0.30013043
220	0xc186f695	-16.870401
221	0xc18f5b22	-17.919498
222	0xc11a24f5	-9.634023
223	0xc141242c	-12.071331
224	0xc1577049	-13.464913
225	0xbdad7c96	-0.084710285
226	0xbd760107	-0.060059574
227	0xbdd23457	-0.10263889
228	0xbf2e642a	-0.6812159
229	0xbf553cf5	-0.8329614
230	0xc15422e4	-13.258518
231	0xc16b8c6a	-14.721781
232	0xc16dc794	-14.861225
233	0xbdcbf1f6	-0.0995826
234	0xc0a5df0e	-5.1834784
235	0xc1a5b63f	-20.713987
236	0xc0ec69c1	-7.3879094
237	0xc08d604c	-4.418005
238	0xc1454de1	-12.331513
239	0xc1808e75	-16.06956
240	0xbe9c97e7	-0.30584642
241	0xc1d0b337	-26.087507
242	0xc1632f1b	-14.199
243	0x3f611602	0.87924206
244	0xc1088ce5	-8.534398
245	0xc05152df	-3.270683
246	0xc1859fd3	-16.70304
247	0xc0d2b954	-6.585123
248	0xbff8066d	-1.9376961
249	0xbeb313bb	-0.3497599
250	0xbff28436	-1.8946598
251	0x3c86de28	0.016463354
252	0xc176ce85	-15.42542
253	0xc0f991e1	-7.7990575
254	0xc1f90097	-31.125288
255	0xbcfaf84e	-0.030635979

fc2.0.0.bias f4 [100]
0	0xc1aa33c7	-21.275282
1	0xc11e0e0b	-9.878428
2	0xc0d51da9	-6.6598706
3	0xc21247ff	-36.57031
4	0xc2343959	-45.056004
5	0xc21514ec	-37.27043
6	0xc1c4045c	-24.502129
7	0xc1fa1ffa	-31.265614
8	0xc1077754	-8.466633
9	0x439b24db	310.28793
10	0xc11fe0a1	-9.992341
11	0xc280c975	-64.39347
12	0xc2c68dea	-99.277176
13	0xc195e30a	-18.735859
14	0xc01cd5c2	-2.4505467
15	0xc21421b0	-37.032898
16	0xc2d01b97	-104.05389
17	0xc075af0c	-3.838809
18	0xc2b989c8	-92.769104
19	0xc10420f2	-8.258043
20	0xc1b2e051	-22.35953
21	0xc2aa2d48	-85.08844
22	0xc3567a03	-214.47661
23	0xc17e4a8f	-15.893203
24	0xc1e7c434	-28.970802
25	0xc08b9325	-4.361712
26	0xc1076aed	-8.463605
27	0xc0cd883d	-6.4228806
28	0xc0eb7bc1	-7.3588567
29	0xbf583b9f	-0.84465975
30	0xc210f00c	-36.23442
31	0xc1dad91c	-27.35601
32	0xc31caa79	-156.66591
33	0xbe931183	-0.28724298
34	0xc26a163a	-58.521706
35	0xc181a8b0	-16.207367
36	0xc19dc83b	-19.722769
37	0xbf3dee1a	-0.7419144
38	0xbf75f532	-0.96077263
39	0xc2ef6407	-119.695366
40	0xc21a012b	-38.50114
41	0xc1597bf7	-13.592765
42	0xc0b59558	-5.6744804
43	0xc143ad58	-12.22982
44	0xc12fc5c0	-10.985779
45	0xc16829c2	-14.510195
46	0xbf8e76c4	-1.1129994
47	0xc2b499ac	-90.30014
48	0xc0b171dd	-5.5451493
49	0xc3e79084	-463.12903
50	0xc0860e6a	-4.1892595
51	0xbfd9c08b	-1.7011884
52	0xc1b6899b	-22.81719
53	0xc1d3b45d	-26.463068
54	0xc2d41d83	-106.05764
55	0xc09abf41	-4.8358464
56	0xc127d452	-10.489336
57	0xc29a8cbe	-77.27489
58	0xc3f1a77f	-483.30856
59	0xc15da56a	-13.852884
60	0xc33bcc03	-187.79692
61	0xc33ca4d0	-188.6438
62	0xc1ab28c2	-21.394901
63	0xc1e57600	-28.682617
64	0xc1843fcd	-16.531153
65	0xc2a0d5d0	-80.4176
66	0xbe74f938	-0.23923194
67	0xc197d854	-18.980629
68	0xc035ee57	-2.842672
69	0xc320a5a5	-160.64705
70	0xc1a5fd39	-20.748644
71	0xc1e316df	-28.386168
72	0xc0160ecf	-2.3446538
73	0xc3e1f721	-451.9307
74	0xc34e6e72	-206.43143
75	0xc0906c7b	-4.5132422
76	0xc22ed514	-43.708084
77	0xbf42458a	-0.7588736
78	0xc0baec56	-5.8413496
79	0xc10e12ea	-8.879618
80	0xc104396b	-8.264018
81	0xc08e6298	-4.4495354
82	0xc2c1015a	-96.50264
83	0xc318ccfb	-152.8007
84	0xc1bd15d1	-23.635653
85	0xc207523d	-33.83031
86	0xc0989885	-4.768618
87	0xc0d3a879	-6.6143155
88	0xc108ec93	-8.557757
89	0xc2a224a7	-81.07159
90	0xbfe0ac0b	-1.7552503
91	0xc2a3f73c	-81.98288
92	0x43ba670e	372.8051
93	0xc18e92f6	-17.821758
94	0xc113df83	-9.242068
95	0xc16fdc41	-14.991273
96	0xc017e1ee	-2.3731647
97	0xc0018766	-2.023889
98	0xc1244fe5	-10.2695055
99	0xc1730708	-15.189217

fc2.1.0.weight f4 [100, 100]
0	0xc1eb0ad5	-29.38029
1	0xc1bfe2c1	-23.98572
2	0xc0e5ba3a	-7.1789827
3	0xc109df35	-8.616994
4	0xc14d6671	-12.83751
5	0xc191e0da	-18.23479
6	0xc1bdc666	-23.721874
7	0xc286c0b9	-67.37641
8	0xc019da32	-2.4039426
9	0xc2871556	-67.54167
10	0xc13db053	-11.855548
11	0xc1974a57	-18.911299
12	0xc3050250	-133.00903
13	0xc174731d	-15.278104
14	0xbf9a424b	-1.2051481
15	0xbf260546	-0.64851797
16	0xc3007fb1	-128.4988
17	0xc1184044	-9.51569
18	0xc278d26a	-62.205482
19	0xc01cfb66	-2.4528441
20	0x41166353	9.399249
21	0xc17642d7	-15.391318
22	0xc29a996a	-77.29964
23	0x40b6a690	5.7078323
24	0xc1132613	-9.196795
25	0xc0a4ddcd	-5.1520753
26	0x3d11985a	0.035545684
27	0xc15e9d0a	-13.91334
28	0xbf11f075	-0.57007533
29	0xbf41d7d4	-0.7571995
30	0xc2d5819b	-106.753136
31	0x41057d6d	8.343122
32	0x40cd3722	6.41298
33	0xc17bc3c7	-15.735297
34	0xc183fb20	-16.49762
35	0xc0af528b	-5.478826
36	0x401abbbe	2.4177089
37	0xc0074eab	-2.1141765
38	0xc179748e	-15.590956
39	0xc19f1d58	-19.889328
40	0xbf10602b	-0.5639674
41	0xc2694b97	-58.32382
42	0xc18d0f6f	-17.632536
43	0xbfc2217d	-1.516647
44	0xbff2f39d	-1.8980595
45	0x3fef5d0d	1.8700272
46	0xc18bf0c5	-17.492563
47	0xc2aca88c	-86.32919
48	0xbea64b62	-0.32479388
49	0xc2f24f2d	-121.15464
50	0xbebccd02	-0.3687516
51	0xc0da85a5	-6.828814
52	0x41015d88	8.085335
53	0xbe623f23	-0.22094397
54	0xc10253c8	-8.145454
55	0xc1948e26	-18.569408
56	0xbec556f8	-0.38542914
57	0xc2940a6b	-74.02035
58	0xc16bd038	-14.738335
59	0x411c6e1e	9.776884
60	0xc2f89c47	-124.30523
61	0xc1925656	-18.292156
62	0xc0c2ae3f	-6.0837703
63	0xc116b6f7	-9.419669
64	0xc035a421	-2.8381426
65	0xc287ab73	-67.83486
66	0xc0d829c8	-6.7551003
67	0xbf816a43	-1.0110554
68	0xc10c36cf	-8.763381
69	0xc2473554	-49.80208
70	0xbf16dae6	-0.5892776
71	0x40c4d85e	6.151412
72	0xc12565a4	-10.337315
73	0xc08492cf	-4.142921
74	0xc11caed7	-9.7926855
75	0xc15411ad	-13.254315
76	0xc11e54fa	-9.895746
77	0xc17b7ef2	-15.7184925
78	0x40daa45e	6.8325644
79	0x41191628	9.567909
80	0xc178265e	-15.509367
81	0xc1730aea	-15.190165
82	0xc215e0d3	-37.469555
83	0xc1dbc447	-27.470839
84	0x412e914c	10.910473
85	0xc1222e4b	-10.136302
86	0xc1895a0a	-17.168964
87	0xc141f9b5	-12.123464
88	0xc0549d4b	-3.3221004
89	0xc1082990	-8.510147
90	0xbea1d1f1	-0.31605485
91	0xc17e2285	-15.883428
92	0xc2eaa894	-117.329254
93	0xbfa5a603	-1.2941288
94	0xc03e6a59	-2.975241
95	0xc00c56ba	-2.1927934
96	0xbea80164	-0.3281356
97	0xc0d6dde9	-6.7145886
98	0xbfbcdae8	-1.4754305
99	0xc109fc6c	-8.624126
100	0xc075a0f2	-3.8379483
101	0xbf01111b	-0.50416726
102	0xc1e39e46	-28.452282
103	0xc21f69ff	-39.85351
104	0xc14498a2	-12.287264
105	0xc166fd97	-14.436912
106	0xbff192ac	-1.8872886
107	0xbd2b1ba4	-0.041774407
108	0xc234a261	-45.158573
109	0xbf3ac014	-0.7294934
110	0xc22dacdd	-43.41881
111	0xbcf8290b	-0.030293008
112	0xc2853cc2	-66.61867
113	0xbd1e7a8b	-0.038691085
114	0xbfd1ed13	-1.6400474
115	0xc2971046	-75.531784
116	0xc29dfa20	-78.988525
117	0xc20d6961	-35.35291
118	0xc290b2a9	-72.348946
119	0xbe8956ce	-0.2682404
120	0xc21d060e	-39.255913
121	0xc12f75a1	-10.966218
122	0xc1ae96a9	-21.823565
123	0xc1ec91ce	-29.571194
124	0xc20006d7	-32.00668
125	0x3e066685	0.13125046
126	0xbfc8ae00	-1.56781
127	0x3e02d22c	0.12775487
128	0xbf8f2ff1	-1.1186506
129	0xbf035f0c	-0.51316905
130	0xc197308f	-18.89871
131	0xc1f1e6c7	-30.237684
132	0xc20ce380	-35.222168
133	0x3c5748f1	0.013139949
134	0xc146db48	-12.428535
135	0xc20bfc4b	-34.99638
136	0xc15be05e	-13.742277
137	0xc0c85802	-6.260743
138	0xc14e9058	-12.91024
139	0xc14e37c5	-12.888616
140	0xc074b82a	-3.8237405
141	0xc1f573b8	-30.681503
142	0xc17c4c75	-15.768666
143	0xbfcedc5d	-1.6161
144	0xc0b91a38	-5.7844505
145	0xc0f88bdd	-7.767073
146	0xc14ff0ee	-12.996321
147	0xc188d16b	-17.102255
148	0xbffe552d	-1.9869744
149	0xbeadbab6	-0.33931512
150	0xc084a60a	-4.1452684
151	0x3da7722b	0.08176073
152	0xc20f9ff4	-35.906204
153	0xc15d5184	-13.832401
154	0xc28e79fc	-71.23825
155	0xbdef63ba	-0.11688943
156	0x3de8e32e	0.11371456
157	0xc1848ddd	-16.56927
158	0xc0ca7c17	-6.3276477
159	0xc23e850d	-47.629932
160	0xc08e286c	-4.4424343
161	0xc1a5f648	-20.745255
162	0xc171ddc0	-15.116638
163	0xc22b798a	-42.86869
164	0x3de81f96	0.113341495
165	0xc0d2fe68	-6.5935555
166	0xc0689c27	-3.6345308
167	0xc180fc05	-16.123056
168	0xbd20dd6c	-0.039273664
169	0xc119e84d	-9.619214
170	0x3dfab5b8	0.12241691
171	0xc246fc89	-49.746616
172	0xbf882128	-1.0635118
173	0xc084c223	-4.1486983
174	0xc0a1e767	-5.0594974
175	0xc191be69	-18.217974
176	0xc224faa9	-41.244785
177	0xc13de6e8	-11.868874
178	0xc2035845	-32.8362
179	0xc220d66b	-40.209393
180	0xc1b025ce	-22.01846
181	0xc0d5dfbc	-6.6835613
182	0xc2b58a2a	-90.76985
183	0x3db68e45	0.089138545
184	0xc23f4466	-47.816795
185	0xc11aa4a0	-9.665192
186	0xc1519ed6	-13.101278
187	0xc0e63f10	-7.195198
188	0xc0caecc5	-6.3414025
189	0xc201ce9a	-32.45176
190	0x3e2059fc	0.15659326
191	0xc18c5983	-17.543707
192	0xc15bb6bc	-13.732113
193	0xc14401b2	-12.250414
194	0xbe5e5403	-0.21711735
195	0xbfb160cf	-1.3857669
196	0xbfe5568e	-1.7917039
197	0xc1238732	-10.220507
198	0xc1197953	-9.59212
199	0xc161332c	-14.074993
200	0xc0a99167	-5.2989993
201	0xbe87208e	-0.26392025
202	0xc18c9fb0	-17.577972
203	0xc1e1aa4e	-28.208157
204	0xc0b4ab92	-5.6459436
205	0xc1796069	-15.586038
206	0xbfb515d1	-1.4147283
207	0x3d060248	0.03271702
208	0xc1d662f7	-26.798323
209	0xbf7c7821	-0.986208
210	0xc18f1567	-17.88545
211	0x3cfb8842	0.030704621
212	0xc228f5b7	-42.239956
213	0x3caa6edd	0.020804817
214	0xbf6b39e5	-0.91885215
215	0xc20fa274	-35.908646
216	0xc2231b07	-40.776394
217	0xc1e56cfe	-28.678219
218	0xc1f39545	-30.447886
219	0xbe99aab2	-0.30013043
220	0xc186f695	-16.870401
221	0xc18f5b22	-17.919498
222	0xc11a24f5	-9.634023
223	0xc141242c	-12.071331
224	0xc1577049	-13.464913
225	0xbdad7c96	-0.084710285
226	0xbd760107	-0.060059574
227	0xbdd23457	-0.10263889
228	0xbf2e642a	-0.6812159
229	0xbf553cf5	-0.8329614
230	0xc15422e4	-13.258518
231	0xc16b8c6a	-14.721781
232	0xc16dc794	-14.861225
233	0xbdcbf1f6	-0.0995826
234	0xc0a5df0e	-5.1834784
235	0xc1a5b63f	-20.713987
236	0xc0ec69c1	-7.3879094
237	0xc08d604c	-4.418005
238	0xc1454de1	-12.331513
239	0xc1808e75	-16.06956
240	0xbe9c97e7	-0.30584642
241	0xc1d0b337	-26.087507
242	0xc1632f1b	-14.199
243	0x3f611602	0.87924206
244	0xc1088ce5	-8.534398
245	0xc05152df	-3.270683
246	0xc1859fd3	-16.70304
247	0xc0d2b954	-6.585123
248	0xbff8066d	-1.9376961
249	0xbeb313bb	-0.3497599
250	0xbff28436	-1.8946598
251	0x3c86de28	0.016463354
252	0xc176ce85	-15.42542
253	0xc0f991e1	-7.7990575
254	0xc1f90097	-31.125288
255	0xbcfaf84e	-0.030635979

fc2.1.0.bias f4 [100]
0	0xc1aa33c7	-21.275282
1	0xc11e0e0b	-9.878428
2	0xc0d51da9	-6.6598706
3	0xc21247ff	-36.57031
4	0xc2343959	-45.056004
5	0xc21514ec	-37.27043
6	0xc1c4045c	-24.502129
7	0xc1fa1ffa	-31.265614
8	0xc1077754	-8.466633
9	0x439b24db	310.28793
10	0xc11fe0a1	-9.992341
11	0xc280c975	-64.39347
12	0xc2c68dea	-99.277176
13	0xc195e30a	-18.735859
14	0xc01cd5c2	-2.4505467
15	0xc21421b0	-37.032898
16	0xc2d01b97	-104.05389
17	0xc075af0c	-3.838809
18	0xc2b989c8	-92.769104
19	0xc10420f2	-8.258043
20	0xc1b2e051	-22.35953
21	0xc2aa2d48	-85.08844
22	0xc3567a03	-214.47661
23	0xc17e4a8f	-15.893203
24	0xc1e7c434	-28.970802
25	0xc08b9325	-4.361712
26	0xc1076aed	-8.463605
27	0xc0cd883d	-6.4228806
28	0xc0eb7bc1	-7.3588567
29	0xbf583b9f	-0.84465975
30	0xc210f00c	-36.23442
31	0xc1dad91c	-27.35601
32	0xc31caa79	-156.66591
33	0xbe931183	-0.28724298
34	0xc26a163a	-58.521706
35	0xc181a8b0	-16.207367
36	0xc19dc83b	-19.722769
37	0xbf3dee1a	-0.7419144
38	0xbf75f532	-0.96077263
39	0xc2ef6407	-119.695366
40	0xc21a012b	-38.50114
41	0xc1597bf7	-13.592765
42	0xc0b59558	-5.6744804
43	0xc143ad58	-12.22982
44	0xc12fc5c0	-10.985779
45	0xc16829c2	-14.510195
46	0xbf8e76c4	-1.1129994
47	0xc2b499ac	-90.30014
48	0xc0b171dd	-5.5451493
49	0xc3e79084	-463.12903
50	0xc0860e6a	-4.1892595
51	0xbfd9c08b	-1.7011884
52	0xc1b6899b	-22.81719
53	0xc1d3b45d	-26.463068
54	0xc2d41d83	-106.05764
55	0xc09abf41	-4.8358464
56	0xc127d452	-10.489336
57	0xc29a8cbe	-77.27489
58	0xc3f1a77f	-483.30856
59	0xc15da56a	-13.852884
60	0xc33bcc03	-187.79692
61	0xc33ca4d0	-188.6438
62	0xc1ab28c2	-21.394901
63	0xc1e57600	-28.682617
64	0xc1843fcd	-16.531153
65	0xc2a0d5d0	-80.4176
66	0xbe74f938	-0.23923194
67	0xc197d854	-18.980629
68	0xc035ee57	-2.842672
69	0xc320a5a5	-160.64705
70	0xc1a5fd39	-20.748644
71	0xc1e316df	-28.386168
72	0xc0160ecf	-2.3446538
73	0xc3e1f721	-451.9307
74	0xc34e6e72	-206.43143
75	0xc0906c7b	-4.5132422
76	0xc22ed514	-43.708084
77	0xbf42458a	-0.7588736
78	0xc0baec56	-5.8413496
79	0xc10e12ea	-8.879618
80	0xc104396b	-8.264018
81	0xc08e6298	-4.4495354
82	0xc2c1015a	-96.50264
83	0xc318ccfb	-152.8007
84	0xc1bd15d1	-23.635653
85	0xc207523d	-33.83031
86	0xc0989885	-4.768618
87	0xc0d3a879	-6.6143155
88	0xc108ec93	-8.557757
89	0xc2a224a7	-81.07159
90	0xbfe0ac0b	-1.7552503
91	0xc2a3f73c	-81.98288
92	0x43ba670e	372.8051
93	0xc18e92f6	-17.821758
94	0xc113df83	-9.242068
95	0xc16fdc41	-14.991273
96	0xc017e1ee	-2.3731647
97	0xc0018766	-2.023889
98	0xc1244fe5	-10.2695055
99	0xc1730708	-15.189217

fc4.weight f4 [6, 100]
0	0x4135f98a	11.373423
1	0x3fe3c5ce	1.779474
2	0x426f294f	59.79034
3	0x42baea57	93.457695
4	0x42377887	45.867702
5	0xc3ca9762	-405.18268
6	0x41f7a2d3	30.954504
7	0xc1e17e71	-28.186739
8	0x42927d7f	73.24511
9	0x4276021c	61.50206
10	0x42cbf984	101.987335
11	0xc3cd3990	-410.4497
12	0x433ac8cc	186.78436
13	0xbe44a11d	-0.19202085
14	0x3edace50	0.4273553
15	0x42f810e9	124.03303
16	0x4338dce8	184.86292
17	0x42aa266b	85.075035
18	0x43652ac5	229.16707
19	0x41f5031f	30.626524
20	0x4256fdd8	53.747894
21	0xbed2b29d	-0.41151896
22	0xc3c712b2	-398.14606
23	0x42d35942	105.67433
24	0x43122bf7	146.17174
25	0x410848a7	8.517737
26	0x41bcc6f6	23.597149
27	0xbf210b0b	-0.62907475
28	0xafa19528	-2.939171e-10
29	0xbc3f7a5a	-0.011686886
30	0x416eb91e	14.920195
31	0x42dd6973	110.705956
32	0x42aa7123	85.22097
33	0x339e6933	7.376584e-08
34	0x3fdfb211	1.7476217
35	0x42ea0546	117.0103
36	0x40faa75c	7.8329296
37	0x413b0363	11.688327
38	0x3dec2e35	0.11532251
39	0xc114e046	-9.304754
40	0x413259d6	11.146933
41	0x4251867f	52.381344
42	0xaf3feb25	-1.7454889e-10
43	0x41a337ad	20.402185
44	0xbd4a4dcc	-0.0493906
45	0x41591464	13.567478
46	0xbffb7749	-1.9645778
47	0x41f3c97e	30.473385
48	0xbe7c425e	-0.24634692
49	0xc3c85594	-400.66858
50	0x3e1babbe	0.15202233
51	0xbbc22e49	-0.005925928
52	0x425a4003	54.56251
53	0x42945618	74.16815
54	0x431cc86a	156.78287
55	0xb78d6fbe	-1.6860544e-05
56	0xbef7bf4c	-0.48388135
57	0x4218eb35	38.229694
58	0xc3be73f6	-380.90594
59	0x42f01799	120.04609
60	0x4246e41a	49.722755
61	0xbecef8fb	-0.40424332
62	0x40df97c0	6.987274
63	0x42a97f0d	84.748146
64	0x413f90d9	11.972863
65	0x42270fe2	41.76551
66	0x2fc4018b	3.565329e-10
67	0x401345db	2.3011386
68	0xbc105012	-0.008808153
69	0xc3c5ea42	-395.83014
70	0x4196219a	18.766407
71	0x432a21bb	170.13176
72	0xbdbb9c15	-0.0916063
73	0xc3af94e9	-351.16336
74	0xbe9a1ae5	-0.30098644
75	0xaaccb371	-3.6362192e-13
76	0x42d033a4	104.10086
77	0xc2eee022	-119.43776
78	0x428ca3d4	70.31998
79	0x4281df35	64.93595
80	0x2edf1b6b	1.0145736e-10
81	0x421d0101	39.25098
82	0x437ac90b	250.78532
83	0xc3ccef5d	-409.87003
84	0x42cddd2c	102.93198
85	0x424dbdcf	51.43536
86	0xbea81a25	-0.32832447
87	0xb5a02069	-1.1930362e-06
88	0x421e605a	39.594093
89	0x42f60780	123.01465
90	0xba2d6c27	-0.0006615542
91	0x413834f7	11.512931
92	0xc3c7762d	-398.92325
93	0x420c27d7	35.038906
94	0xbdda4b16	-0.10658853
95	0x421e209f	39.531857
96	0x386194a9	5.378263e-05
97	0xb49327aa	-2.7409743e-07
98	0x2d297a82	9.63374e-12
99	0x426dfc3d	59.496326
100	0xc38bf168	-279.886
101	0x4021bff2	2.5273404
102	0x42c0f1ec	96.4725
103	0x43286486	168.39267
104	0x42901794	72.04605
105	0x43cae9ae	405.82562
106	0x4253bbac	52.933273
107	0xc231c3d1	-44.441227
108	0x42f9e876	124.954025
109	0x438a180f	276.18796
110	0x432b6107	171.37901
111	0x43cc658c	408.79333
112	0x438f3dcd	286.48282
113	0x402a7581	2.6634219
114	0xbe68099c	-0.22659916
115	0x43558592	213.52176
116	0xc31f2c65	-159.17342
117	0x430fa8b8	143.65906
118	0x43a02943	320.32236
119	0x42410795	48.257404
120	0x42b69e34	91.30899
121	0x439c9a0c	313.2035
122	0x43c31e37	390.23605
123	0x4336803b	182.5009
124	0x437041e1	240.25734
125	0x419a22ac	19.26693
126	0x4231d4c7	44.45779
127	0xc1e5be3d	-28.71789
128	0xba969f8a	-0.0011491638
129	0xbc34f2c3	-0.011044207
130	0xc39ed14e	-317.6352
131	0x43424b2e	194.29367
132	0xc3820386	-260.02753
133	0xb6ad0a35	-5.15699e-06
134	0xc359cfe0	-217.81201
135	0x4346ee51	198.93092
136	0x41729be4	15.163059
137	0x41b55193	22.664831
138	0xbd87aa7e	-0.06624316
139	0xc3491720	-201.09033
140	0x41b7bd45	22.967417
141	0x4292ff74	73.49893
142	0xb1f348e7	-7.080519e-09
143	0x420b2b73	34.79243
144	0xbeae30b2	-0.34021527
145	0x41d0640d	26.048853
146	0x421a0bc9	38.51151
147	0xc36ec985	-238.78719
148	0xbe21d2c6	-0.1580306
149	0xc3a3fda0	-327.98145
150	0xbd81df61	-0.06341434
151	0x3d7b20a6	0.061310433
152	0x42b85e32	92.183975
153	0x4300c830	128.78198
154	0x437f57e4	255.34332
155	0x40c572eb	6.170278
156	0xbf09b2fc	-0.53788733
157	0x426ef9d6	59.74398
158	0x43b9440a	370.53156
159	0x434c9700	204.58984
160	0xc3972bf4	-302.34338
161	0xbeac43f4	-0.33645594
162	0x418249d6	16.286053
163	0x4311e1a0	145.88135
164	0xc215ce93	-37.451733
165	0xc33bb2c2	-187.69827
166	0x3b46b9fa	0.0030323253
167	0x40f9f220	7.8108063
168	0xbc84806b	-0.016174516
169	0x43bc80c5	377.006
170	0x4188ddf1	17.10837
171	0x4386b61e	269.4228
172	0x4020065c	2.5003881
173	0xc3a86d2e	-336.85297
174	0x43a97491	338.91068
175	0xab4c1627	-7.25061e-13
176	0x4334fc33	180.98515
177	0x42eee021	119.43775
178	0x42e83410	116.101685
179	0x42dafb4c	109.490814
180	0xab4c8be7	-7.266951e-13
181	0x4277ba7b	61.93211
182	0x43a77445	334.90836
183	0x43cc83f5	409.0309
184	0x432cd5ce	172.83517
185	0x42b17e6f	88.74694
186	0xbe0aed1e	-0.13567016
187	0xa3048957	-7.184817e-18
188	0x428a8887	69.266655
189	0xc0799c5c	-3.9001684
190	0xba22e27c	-0.00062135584
191	0x418ca747	17.581678
192	0x439aa6ce	309.30316
193	0x42736a4a	60.853798
194	0x3e8d3f68	0.27587438
195	0x427f33c6	63.80056
196	0x401fcabc	2.496749
197	0xad39ac18	-1.0554245e-11
198	0x312c6217	2.5085052e-09
199	0x42c32d84	97.5889
200	0x42e9b464	116.852325
201	0x3dc00d24	0.093775064
202	0x3ab4460f	0.0013753789
203	0xbefb8781	-0.4912682
204	0xbe789d3f	-0.24278735
205	0x4341c730	193.77808
206	0x3b2cd884	0.002637417
207	0x4256a04d	53.656544
208	0x32093765	7.987045e-09
209	0x43503627	208.21153
210	0xb24288a8	-1.1323358e-08
211	0x439fa10a	319.25812
212	0xc0c5f120	-6.185684
213	0xbe8da3f4	-0.2766415
214	0xbdf53a38	-0.11973995
215	0xbe90ac62	-0.28256518
216	0x432eaec5	174.6827
217	0xbafa1835	-0.0019080701
218	0xbebb4954	-0.36579382
219	0xaf26523b	-1.5126826e-10
220	0xbe3c231f	-0.18372773
221	0xbec9a9b4	-0.39387286
222	0x438e3d92	284.48102
223	0xbf3c207a	-0.73487055
224	0xbed94926	-0.4243862
225	0xb6d51864	-6.350734e-06
226	0xbc064ad6	-0.008196553
227	0xbeb50a32	-0.3535934
228	0xaab584d0	-3.2244216e-13
229	0xbc3b93b1	-0.011448787
230	0x4313d4f5	147.83186
231	0xbe47c26c	-0.1950776
232	0xbf1c1b7a	-0.60979426
233	0x301a8560	5.621441e-10
234	0x42b4aff7	90.34368
235	0x3dfa3672	0.12217416
236	0x3d663d14	0.056210592
237	0xab9bd80c	-1.1073377e-12
238	0xba613234	-0.00085905497
239	0xc128f34c	-10.559399
240	0xbd34615e	-0.04403817
241	0xc09d77d1	-4.920876
242	0x290620c9	2.9782414e-14
243	0xbf2da195	-0.6782468
244	0xbd80d84f	-0.062912576
245	0xbe9ab243	-0.30214128
246	0xc05f2416	-3.4865775
247	0x42d1da08	104.92584
248	0xbf36f26b	-0.7146365
249	0x43a5eb11	331.83646
250	0xbd6fcd00	-0.058545113
251	0xbc8d53d2	-0.017251883
252	0xbd52b404	-0.051441208
253	0xbf136adb	-0.57584924
254	0xbf69f04a	-0.91382277
255	0x313c0a1b	2.7363345e-09

fc4.bias f4 [6]
0	0x420c97b6	35.148155
1	0x426b42ab	58.815105
2	0x407ef038	3.9834118
3	0xc2b5322c	-90.59799
4	0xc22970aa	-42.360023
5	0x42978c68	75.77423
