figs/diff_activation_functions/mlp_tanh/mlp_model_dict.pt (torch, 182421 bytes, 8 tensors)

fc1.weight f4 [100, 240]
0	0x3e2ff550	0.17183423
1	0xbea59c2b	-0.3234571
2	0xbeed90a8	-0.46399426
3	0xbedfb764	-0.43694603
4	0xbe8a5ee1	-0.27025512
5	0x3ec42984	0.38312924
6	0x3ea31b71	0.31856874
7	0x3ec63575	0.3871266
8	0x3e9dbc12	0.3080755
9	0xbe9dc66a	-0.3081544
10	0xbeaba28d	-0.33522454
11	0xbeaa7ba5	-0.33297458
12	0xbe90372c	-0.28167093
13	0x3e91d9fb	0.28486618
14	0x3e9c47a5	0.3052341
15	0x3e84f182	0.25965506
16	0xbdaaf564	-0.08347586
17	0xbe9d1afa	-0.30684644
18	0xbda50eec	-0.08059487
19	0xbe9ead84	-0.30991757
20	0xbeade630	-0.33964682
21	0x3e8e6bc3	0.2781659
22	0x3ee88f09	0.45421627
23	0x3ec1d498	0.3785751
24	0x3d0afc32	0.03393192
25	0xbe350e3c	-0.17681211
26	0xbed26d24	-0.41098893
27	0xbe5182e0	-0.20460081
28	0x3e0536a5	0.13009126
29	0x3e177b5f	0.14793156
30	0x3e8798af	0.26483676
31	0xbe802c82	-0.25033957
32	0xbed5a9a8	-0.41731
33	0xbeba9e42	-0.36448866
34	0xbec730bf	-0.38904378
35	0x3ed40762	0.41411883
36	0x3e8a5aa4	0.27022278
37	0x3e990e6b	0.29893813
38	0x3e94dc93	0.29074535
39	0x3e9cff7c	0.3066367
40	0x3e52db05	0.20591362
41	0xbe693ffd	-0.22778316
42	0xbde2cf89	-0.110747404
43	0x3eaba19e	0.33521742
44	0x3e97bf03	0.29637918
45	0x3ea8f0f5	0.32996336
46	0x3d027875	0.031853158
47	0xbdddaa7d	-0.10823534
48	0xbe6647e7	-0.22488366
49	0xbd680edf	-0.056654807
50	0x3e87a37f	0.26491925
51	0x3e6c2513	0.23061018
52	0x3eab31b9	0.33436373
53	0x3dc0562c	0.09391436
54	0x3e7d6d34	0.24748689
55	0x3ea4a2d9	0.32155493
56	0xbe2287b9	-0.15872087
57	0x3d914937	0.07094043
58	0x3ef1ac94	0.4720198
59	0x3e9bf9f8	0.3046415
60	0xbe317c71	-0.17332627
61	0xbd9e20d6	-0.07721107
62	0xbeeecd4f	-0.46641013
63	0xbeb5dcf1	-0.35520127
64	0x3e133e38	0.14379203
65	0x3eedee0b	0.46470675
66	0x3eba55d6	0.36393613
67	0x3d365a22	0.04451955
68	0x3da18418	0.07886523
69	0xbe08198f	-0.13291
70	0x3e90c3bb	0.2827433
71	0x3e52b866	0.20578155
72	0x3e9b64f0	0.30350447
73	0x3ebd897a	0.3701895
74	0x3ead8cc1	0.3389645
75	0x3e3be06b	0.18347327
76	0xbeb11fe4	-0.34594643
77	0xbef33aa4	-0.47505677
78	0xbf02d529	-0.51106507
79	0xbe0d67cb	-0.13809125
80	0xbef45ec0	-0.4772854
81	0xbec89464	-0.39175713
82	0xbee9dd5b	-0.45676693
83	0xbef548c1	-0.4790707
84	0xbf00e3c9	-0.5034757
85	0xbed3f41b	-0.41397175
86	0xbecc529b	-0.39906773
87	0xbee71eea	-0.45140773
88	0xbefea9f8	-0.4973905
89	0xbee644b7	-0.449743
90	0xbecb626c	-0.39723527
91	0xbf01106b	-0.50415677
92	0xbefa4cbd	-0.48886672
93	0xbf033352	-0.51250184
94	0xbefcfd9a	-0.49412233
95	0xbebd201f	-0.3693857
96	0xbecbe652	-0.39824158
97	0xbeee79ec	-0.46577394
98	0xbed0a6a9	-0.40752152
99	0xbf032862	-0.51233494
100	0xbef96d44	-0.48716176
101	0xbec81afd	-0.3908309
102	0xbef2f495	-0.47452226
103	0xbeeb1c20	-0.45919895
104	0xbec8e100	-0.3923416
105	0xbed5a798	-0.41729426
106	0xbf02437f	-0.5088424
107	0xbecc4557	-0.39896652
108	0xbeffeaea	-0.49983913
109	0xbed90cd9	-0.42392614
110	0xbede9c33	-0.43478546
111	0xbee04ce5	-0.43808666
112	0xbef3ea8a	-0.47639877
113	0xbecb5117	-0.39710304
114	0xbf00e54b	-0.50349873
115	0xbef132d9	-0.47109106
116	0xbed27a1c	-0.41108787
117	0xbecc5152	-0.39905792
118	0xbef4c45b	-0.47806057
119	0xbee6fe9e	-0.45116132
120	0xbecbde4f	-0.39818045
121	0xbee077a1	-0.4384127
122	0xbecdef83	-0.40221795
123	0xbef371bb	-0.47547707
124	0xbef7dc7a	-0.48410398
125	0xbec9f6ef	-0.39446208
126	0xbeea1a7b	-0.45723328
127	0xbf015c2f	-0.50531286
128	0xbecebf2f	-0.40380237
129	0xbef1be78	-0.4721563
130	0xbecaf147	-0.39637205
131	0xbedafbdb	-0.42770275
132	0xbecb3e0a	-0.3969577
133	0xbf020e8e	-0.5080346
134	0xbed04f72	-0.40685612
135	0xbef7c10b	-0.48389468
136	0xbef6e130	-0.4821868
137	0xbf013206	-0.50466955
138	0xbed61d28	-0.4181912
139	0xbf033c68	-0.5126405
140	0xbf011dca	-0.5043608
141	0xbee7dbf6	-0.45285004
142	0xbec6c284	-0.3882028
143	0xbeff191a	-0.49823838
144	0xbed33b37	-0.41256115
145	0xbeea80b2	-0.45801312
146	0xbed2b9a0	-0.41157246
147	0xbee08cc5	-0.438574
148	0xbef9a0fc	-0.48755634
149	0xbef1b5bb	-0.47208962
150	0xbef05a6b	-0.46943983
151	0xbec9ca4e	-0.3941216
152	0xbee24fc0	-0.4420147
153	0xbee58484	-0.44827664
154	0xbed24faf	-0.4107642
155	0xbef36328	-0.47536588
156	0xbeea83ae	-0.4580359
157	0xbf0162df	-0.5054149
158	0xbee65cdf	-0.4499273
159	0xbec12b64	-0.37728417
160	0xbece6bf4	-0.40316737
161	0xbebb5f85	-0.36596313
162	0xbeb5c079	-0.35498407
163	0xbec77e7a	-0.3896368
164	0xbec85d6a	-0.3913377
165	0xbedb6259	-0.4284847
166	0xbee25012	-0.44201714
167	0xbeff512b	-0.49866614
168	0xbee5e546	-0.44901484
169	0xbee44bd0	-0.4458909
170	0xbed6e2ad	-0.41969815
171	0xbef8def9	-0.48607615
172	0xbefbb26f	-0.49159572
173	0xbee74942	-0.4517308
174	0xbeca90fd	-0.39563742
175	0xbea48e99	-0.32140043
176	0xbed0c137	-0.4077241
177	0xbeda28f8	-0.42609382
178	0xbed6033a	-0.41799337
179	0xbed4f04f	-0.4158959
180	0xbec4f26b	-0.384662
181	0xbf036220	-0.513216
182	0xbee3e0b6	-0.44507378
183	0xbeec24f4	-0.46121943
184	0xbee603c4	-0.44924748
185	0xbed07301	-0.4071274
186	0xbf0149be	-0.50503147
187	0xbef72db0	-0.48277044
188	0xbee4cbe9	-0.4468682
189	0xbed51c23	-0.4162303
190	0xbebf66c1	-0.37383083
191	0xbebae47c	-0.36502445
192	0xbecb1a61	-0.39668563
193	0xbec7db9d	-0.3903474
194	0xbeae72bc	-0.3407191
195	0xbeb8ab04	-0.36067975
196	0xbef19982	-0.4718743
197	0xbee232d1	-0.44179395
198	0xbed81436	-0.4220292
199	0xbed1855f	-0.40922067
200	0xbf011bfa	-0.50433314
201	0xbecdc37e	-0.4018821
202	0xbed8f1d9	-0.42372015
203	0xbeefd694	-0.46843398
204	0xbeecf766	-0.462825
205	0xbebeea34	-0.37288058
206	0xbefc7651	-0.49309018
207	0xbede544b	-0.43423685
208	0xbea9b586	-0.33146304
209	0xbec55bb0	-0.38546515
210	0xbeb12cc1	-0.34604457
211	0xbef16b45	-0.47152153
212	0xbeee7330	-0.46572256
213	0xbeb2d046	-0.34924525
214	0xbed76ef6	-0.42076844
215	0xbef3ed22	-0.47641855
216	0xbeb8fa15	-0.36128297
217	0xbef39cf8	-0.47580695
218	0xbed142cd	-0.40871277
219	0xbee6a8ce	-0.45050663
220	0xbeb89999	-0.36054686
221	0xbef4ca13	-0.4781042
222	0xbed8890a	-0.42292053
223	0xbeb66a81	-0.3562813
224	0xbed1ea97	-0.4099929
225	0xbedbd06d	-0.42932454
226	0xbed69c70	-0.41916227
227	0xbee37eb7	-0.44432613
228	0xbefcb193	-0.49354228
229	0xbec6ba37	-0.38813946
230	0xbeebe979	-0.46076563
231	0xbeec6803	-0.46173105
232	0xbecb639c	-0.39724433
233	0xbedb5f94	-0.42846358
234	0xbec324a1	-0.38113883
235	0xbecef968	-0.40424657
236	0xbed39f57	-0.41332504
237	0xbec297b0	-0.38006353
238	0xbebd6e4b	-0.3699821
239	0xbecaa5f7	-0.39579746
240	0xbecd34d1	-0.40079358
241	0xbeb7cd2b	-0.35898718
242	0xbdd76df2	-0.10519017
243	0xbec33d77	-0.3813283
244	0xbdd0b01c	-0.1018984
245	0xbdfa9ca6	-0.122369096
246	0xbec1ad45	-0.37827507
247	0xbedb12c8	-0.42787766
248	0xbecefbdd	-0.4042653
249	0xbee8d6cf	-0.45476386
250	0xbefa0120	-0.48828983
251	0xbe1e756c	-0.1547448
252	0x3c6e022d	0.014526886
253	0xbebb2ded	-0.36558476
254	0xbee60b43	-0.44930467
255	0xbe9ce1a9	-0.30640915

fc1.bias f4 [100]
0	0xbeecd6bf	-0.46257588
1	0x3eef3d24	0.46726334
2	0xbf058e77	-0.5217051
3	0x3f04668f	0.5171899
4	0xbf12acef	-0.57295126
5	0xbeefcdc5	-0.46836677
6	0x3f04e2be	0.5190848
7	0x3f163f96	0.58690774
8	0xbf1e6138	-0.61867094
9	0x3eea60b1	0.45776895
10	0xbf10ea53	-0.5660755
11	0x3f0e6565	0.55623466
12	0xbef3de82	-0.47630697
13	0x3ef0716e	0.4696154
14	0xbf12816a	-0.5722872
15	0x3ee95636	0.45573586
16	0xbeb53feb	-0.35400328
17	0xbefa3238	-0.4886644
18	0x3ec59cf5	0.3859631
19	0x3ef71b08	0.4826281
20	0x3f0c576c	0.54820895
21	0x3f14baad	0.58097345
22	0xbd64ca71	-0.055857126
23	0xbf135628	-0.5755334
24	0xbf15b39c	-0.5847719
25	0xbece4407	-0.40286276
26	0xbf090bb4	-0.5353348
27	0xbf00d816	-0.5032972
28	0x3f139f13	0.57664603
29	0xbf1941d8	-0.59866095
30	0xbf04744d	-0.5173996
31	0xbef51018	-0.4786384
32	0x3eeea4ec	0.466102
33	0x3eaec219	0.3413246
34	0x3f13b11f	0.5769214
35	0xbed2cf1d	-0.4117364
36	0x3e8a2f62	0.26989275
37	0x3eae59d6	0.34052914
38	0xbedc332b	-0.43007788
39	0xbf0ec350	-0.55766773
40	0xbf00c5a4	-0.50301576
41	0xbf0f7acb	-0.5604674
42	0x3d98a9a2	0.0745423
43	0xbf243012	-0.6413585
44	0xbf106bd9	-0.5641456
45	0xbef34d41	-0.47519878
46	0x3f163795	0.5867856
47	0xbf12b80f	-0.573121
48	0xbf240d1d	-0.6408251
49	0xbf0471f9	-0.5173641
50	0xbf065861	-0.52478606
51	0x3e72e0b0	0.23718524
52	0xbf20d673	-0.62827224
53	0xbf1ab37d	-0.6043013
54	0xbef6ce42	-0.48204237
55	0x3f12c7a5	0.57335883
56	0xbeef591f	-0.46747681
57	0xbf21460b	-0.629975
58	0x3ee9266e	0.45537132
59	0x3ef5fa0c	0.48042333
60	0x3f0db72d	0.5535763
61	0x3ecd0823	0.4004527
62	0x3f119a54	0.5687611
63	0x3f2a7aa0	0.6659336
64	0xbf17f87f	-0.5936355
65	0xbefdd5e5	-0.4957725
66	0x3f16555f	0.58724016
67	0xbf1d4f0e	-0.6144875
68	0xbf1960de	-0.5991343
69	0xbe571c27	-0.21006833
70	0xbef67306	-0.4813463
71	0xbef62ff2	-0.48083454
72	0xbf1bf60d	-0.6092232
73	0x3f1a2c28	0.6022363
74	0xbf169c21	-0.58831984
75	0x3f15c87b	0.58509034
76	0xbf1d5f79	-0.61473805
77	0x3f04f9c4	0.5194361
78	0x3ee21b92	0.4416166
79	0xbf03e4eb	-0.51521176
80	0x3f00ea96	0.5035795
81	0x3f124ca9	0.57148224
82	0x3f088116	0.5332197
83	0xbece60e9	-0.40308312
84	0x3f147af9	0.5800014
85	0xbe795ad5	-0.24351056
86	0xbe06d511	-0.13167216
87	0x3dfc8182	0.12329389
88	0xbf183bff	-0.59466547
89	0x3f220762	0.63292515
90	0x3ef624de	0.48075002
91	0x3f020e08	0.5080266
92	0xbf1257e0	-0.57165337
93	0xbe2be582	-0.16786769
94	0x3f167cb8	0.58784056
95	0xbc9425d9	-0.018084453
96	0xbdf9a2d4	-0.1218926
97	0xbee03541	-0.4379063
98	0x3efbb280	0.49159622
99	0x3f21050a	0.62898314

fc2.weight f4 [100, 100]
0	0x3ec8694f	0.39142844
1	0xbdf54fe4	-0.119781286
2	0x3e7ae37b	0.2450084
3	0x3e57282c	0.21011418
4	0x3e8610ec	0.26184785
5	0x3c56acbd	0.013102707
6	0xbd6fb7ba	-0.058524825
7	0xbf033501	-0.5125275
8	0x3ea0bf3d	0.31395903
9	0xbda7c4d1	-0.081918366
10	0x3ec489de	0.38386434
11	0x3e12a49e	0.14320609
12	0xbebab246	-0.36464137
13	0x3dd0eb6b	0.102011524
14	0x3ed1c4fe	0.40970606
15	0xbe8951ce	-0.26820225
16	0x3ec4423e	0.3833179
17	0x3f09eb11	0.5387431
18	0xbd8d136a	-0.068884686
19	0xbe7cf95d	-0.247045
20	0xbed03401	-0.40664676
21	0xbf0356a9	-0.5130411
22	0x3ea5582a	0.32293826
23	0x3e82577b	0.25457367
24	0x3ec7ae15	0.39000002
25	0x3e6edb2b	0.23325793
26	0xbde52c33	-0.11190071
27	0x3ed573c1	0.41689876
28	0x3e392ed8	0.18084276
29	0x3eea6290	0.45778322
30	0x3eebd2fb	0.46059403
31	0x3efbf013	0.492066
32	0xbefe193a	-0.4962862
33	0x3e3ab56f	0.18233274
34	0x3e551438	0.20808494
35	0x3d3cf1b9	0.046128962
36	0x3ea85ed7	0.32884857
37	0xbec9b31d	-0.39394465
38	0x3e2d76a1	0.16939785
39	0xbd893cac	-0.06701025
40	0x3e025e59	0.12731303
41	0x3e9821b5	0.29713216
42	0x3cf64820	0.030063689
43	0xbcd74453	-0.026277697
44	0x3e5c1779	0.21493329
45	0xbe86d3b0	-0.2633338
46	0xbee32f8d	-0.44372216
47	0x3eb98cb3	0.36240157
48	0x3f149d26	0.5805229
49	0x3e7772a8	0.24164832
50	0xbdd819a0	-0.105517626
51	0x3eb101e8	0.34571767
52	0xbe375a93	-0.17905645
53	0x3f096e5e	0.5368403
54	0x3f033dcc	0.5126617
55	0xbf143b99	-0.5790344
56	0xbc9b5147	-0.018959654
57	0x3eeb6ba7	0.4598057
58	0xbf0f9cf0	-0.5609884
59	0xbdfe436e	-0.12415205
60	0x3ea46ce6	0.32114333
61	0xbe9def37	-0.3084657
62	0xbee77500	-0.4520645
63	0xbd4d3ff7	-0.05010983
64	0xbd080dca	-0.033216275
65	0x3e66a468	0.22523654
66	0xbe8767e5	-0.26446453
67	0x3ee7b67a	0.45256406
68	0x3ede38f1	0.43402818
69	0x3f02f3a6	0.5115303
70	0xbd59c8d5	-0.053170044
71	0x3eed46c0	0.4634304
72	0x3efc0eef	0.49230143
73	0xbf089d76	-0.53365266
74	0x3ededf60	0.43529797
75	0x3d7918cd	0.060814667
76	0x3f13751e	0.5760058
77	0xbedfb487	-0.4369242
78	0x3ecd9933	0.40155944
79	0xbf00985e	-0.50232494
80	0xbc0674f5	-0.008206596
81	0x3d73c64b	0.05951528
82	0xbd0642b3	-0.032778453
83	0xbd03d369	-0.03218404
84	0xbe811518	-0.25211406
85	0xbeeeba87	-0.46626684
86	0x3d560ec6	0.052260183
87	0x3d03ae44	0.032148615
88	0xbc6ce95e	-0.014459936
89	0xbd5abe23	-0.053403985
90	0x3c9aa4dc	0.01887744
91	0xbd91fa6f	-0.071278445
92	0x3cb79b2f	0.022412864
93	0xbe45c2fb	-0.1931266
94	0xbee775ee	-0.4520716
95	0x3e46fb47	0.19431792
96	0x3eb3bde7	0.35105821
97	0xbe40adad	-0.18816252
98	0xbebc5c55	-0.36789194
99	0xbe5903bb	-0.2119283
100	0x3e7569cb	0.23966138
101	0xbf06d774	-0.52672505
102	0xbf034944	-0.5128367
103	0xbecd9f92	-0.40160805
104	0x3ef7f756	0.4843089
105	0xbe2b4cfa	-0.16728583
106	0xbef8d240	-0.48597908
107	0xbeb995c1	-0.36247066
108	0xbee237c7	-0.4418318
109	0x3f065ac9	0.5248228
110	0xbed3a1e5	-0.41334453
111	0x3ef6bc7c	0.48190677
112	0x3e952e46	0.29136866
113	0xbeebe310	-0.46071672
114	0x3edd0a09	0.4317172
115	0x3eca8848	0.395571
116	0xbef69e9a	-0.48167878
117	0xbee2bd7a	-0.44285184
118	0xbf0a1b03	-0.53947467
119	0x3ef9eceb	0.48813567
120	0x3ed784de	0.42093557
121	0x3f06cd5d	0.5265711
122	0x3f094514	0.5362103
123	0x3eae8034	0.34082186
124	0xbdf37655	-0.118878044
125	0x3f0c5d19	0.54829556
126	0xbed82b8b	-0.4222072
127	0xbc32408b	-0.010879646
128	0x3ea83064	0.3284942
129	0x3f004320	0.50102425
130	0x3eae06a6	0.33989447
131	0x3ee02c7b	0.43783936
132	0xbf0197a7	-0.5062203
133	0xbefd61f6	-0.494888
134	0x3ef9a094	0.48755324
135	0x3edba955	0.42902628
136	0x3ec625fc	0.38700855
137	0x3ee35198	0.4439819
138	0x3e9ecc43	0.31015214
139	0x3f16368b	0.58676976
140	0x3f0c3cc0	0.547802
141	0x3f02715e	0.50954235
142	0xbf032740	-0.51231766
143	0x3e425df6	0.18981156
144	0x3f03e641	0.51523215
145	0x3d8511ed	0.0649756
146	0xbebeeb09	-0.37288693
147	0x3edb1276	0.42787522
148	0xbe717ea1	-0.23583461
149	0x3f119510	0.56868076
150	0xbc3e6e99	-0.011623048
151	0xbf0213ff	-0.5081176
152	0x3e86a431	0.26297143
153	0x3f0f6e50	0.560277
154	0xbf05a8cd	-0.52210695
155	0xbcf36ac1	-0.02971399
156	0xbe0f7550	-0.14009595
157	0xbec020f2	-0.37525135
158	0x3f0d382f	0.55163854
159	0xbf026958	-0.5094199
160	0xbf09ac08	-0.53778124
161	0xbec3adff	-0.38218686
162	0x3eb08586	0.3447687
163	0x3dbb89f4	0.09157172
164	0xbdba627b	-0.09100815
165	0x3e194c44	0.149705
166	0x3db2a29d	0.08722422
167	0xbeb7e349	-0.35915592
168	0x3ec710e8	0.38880086
169	0xbee6ced0	-0.4507966
170	0x3f05f0c2	0.5232049
171	0xbe0532f8	-0.13007724
172	0x3f0a9a11	0.54141337
173	0xbedf6fca	-0.43639976
174	0x3f10a645	0.5650371
175	0xbdd30acc	-0.10304794
176	0xbe9a8f13	-0.30187282
177	0x3eca3325	0.39492145
178	0xbd6e3371	-0.058154527
179	0x3effb7a1	0.49944785
180	0xbed31381	-0.41225818
181	0x3ec74f30	0.38927603
182	0xbf011c0a	-0.5043341
183	0xbe9f90c2	-0.3116513
184	0xbee4da1d	-0.44697657
185	0x3ef91b01	0.48653415
186	0x3eff56ff	0.4987106
187	0x3eac0d67	0.33603975
188	0xbf026616	-0.5093702
189	0x3e8b374e	0.27190632
190	0xbe9a837f	-0.3017845
191	0x3e5789c1	0.21048643
192	0xbaa8a920	-0.0012867786
193	0x3ec7d6c9	0.39031056
194	0xbedc50a3	-0.4303027
195	0x3e6556df	0.2239642
196	0x3eb39b35	0.3507935
197	0xbf0b9ba3	-0.5453436
198	0xbf0576dd	-0.52134496
199	0xbee0cd5e	-0.43906683
200	0xbc80367e	-0.015650984
201	0x3e1d7f3c	0.15380567
202	0xbd9069e2	-0.070514455
203	0x3e935c69	0.2878144
204	0xbe6311cb	-0.22174756
205	0xbe3c8258	-0.18409097
206	0xbb9c2552	-0.004765191
207	0x3ecbcd46	0.3980505
208	0xbefa10b0	-0.48840857
209	0x3e1fa10e	0.15588781
210	0xbef77f63	-0.48339376
211	0x3e86e03a	0.26342946
212	0xbe855eb4	-0.26048815
213	0x3eaa081e	0.33209318
214	0xbecefa32	-0.4042526
215	0x3e15defe	0.14635846
216	0xbb41c8d5	-0.0029569168
217	0xbebf7cd2	-0.37399918
218	0xbd748d8b	-0.0597053
219	0x3dbc2006	0.091857955
220	0x3ea0f7a7	0.31438944
221	0x3f09dcc0	0.5385246
222	0xbe99f780	-0.3007164
223	0xbe8322a4	-0.25612366
224	0xbe74eacb	-0.23917691
225	0xbda6c11d	-0.08142302
226	0x3dacecd2	0.084436074
227	0xbc6adf6c	-0.0143354945
228	0xbca884d1	-0.020571144
229	0xbed11f98	-0.40844417
230	0xbeed7584	-0.4637872
231	0xbe9fb1f5	-0.31190458
232	0x3eb7355f	0.35782906
233	0x3e6b2ae7	0.22965585
234	0xbdbc8756	-0.09205501
235	0x3c1fe79e	0.009759812
236	0xbdeafc96	-0.11473958
237	0xbdb6aa51	-0.08919204
238	0xbd2a6a4c	-0.04160528
239	0x3cadcb96	0.021215241
240	0xbd06f462	-0.032947905
241	0xbe74828e	-0.23877928
242	0x3e405650	0.18782926
243	0xbeb9c368	-0.36281896
244	0xbe29413e	-0.16528794
245	0xbce85853	-0.028362429
246	0x3ea71380	0.32632065
247	0xbeba1416	-0.3634345
248	0xbf0e76bd	-0.5564993
249	0xbe1e469a	-0.1545662
250	0x3e448397	0.19190823
251	0xbcbc35be	-0.022974845
252	0xbf11cba8	-0.5695138
253	0xbf08a128	-0.53370905
254	0xbe5239a7	-0.20529805
255	0x3edd3e5a	0.43211633

fc2.bias f4 [100]
0	0xbf276eb6	-0.65403306
1	0xbefd2ee8	-0.4944985
2	0x3f26fa05	0.6522525
3	0xbf064e21	-0.52462965
4	0x3f19d9d9	0.60098034
5	0xbf05fdc9	-0.5234037
6	0x3eef95af	0.46793887
7	0x3f21056f	0.62898916
8	0x3e62ca97	0.22147594
9	0xbf0f951e	-0.5608691
10	0xbee4984c	-0.44647443
11	0xbf0eb242	-0.5574075
12	0x3f2c1de4	0.6723311
13	0x3ef3c26d	0.47609273
14	0xbf0d802a	-0.5527369
15	0xbef59446	-0.47964686
16	0xbf10c17e	-0.56545246
17	0x3eefc797	0.46831962
18	0xbeebbe55	-0.4604365
19	0x3f1ef68b	0.62094945
20	0x3f1d5418	0.6145644
21	0x3f195797	0.59899276
22	0xbf0bd034	-0.5461457
23	0x3f197e26	0.5995811
24	0x3f1ec41e	0.62018
25	0x3f140994	0.57827115
26	0x3ea2aa05	0.3177034
27	0xbf0715e6	-0.5276779
28	0x3f1f1587	0.62142223
29	0x3f110f36	0.56663835
30	0x3ef3265e	0.4749021
31	0xbf0b727f	-0.5447158
32	0xbf08027c	-0.5312879
33	0x3ed9abb8	0.42513824
34	0xbf0acd66	-0.54219663
35	0xbf15c535	-0.5850404
36	0xbf28d61b	-0.659517
37	0x3e82b318	0.25527263
38	0x3f0503c5	0.51958877
39	0x3ee059a6	0.43818396
40	0x3ef2aba4	0.47396576
41	0xbefee1cf	-0.49781653
42	0xbf07020f	-0.52737516
43	0x3ebf6596	0.3738219
44	0x3ef5664a	0.47929603
45	0x3f21fc94	0.6327603
46	0x3f0c0707	0.5469822
47	0x3f0c19e2	0.54726994
48	0x3f2d9f8f	0.6782159
49	0x3eed1935	0.46308294
50	0x3f084044	0.5322306
51	0x3f1c18e7	0.609755
52	0xbf08647e	-0.5327834
53	0x3e804b7f	0.250576
54	0x3ee806ca	0.4531768
55	0xbf158f3e	-0.58421695
56	0x3f129f24	0.5727408
57	0x3edfb46f	0.43692347
58	0xbf0640d2	-0.5244266
59	0x3f0b149e	0.54328334
60	0x3f145ba1	0.57952315
61	0xbf1b85cc	-0.6075103
62	0xbf23de49	-0.64011055
63	0x3ecef6df	0.40422723
64	0xbf13363c	-0.5750463
65	0x3f2f9585	0.68587524
66	0x3f1eb38b	0.6199271
67	0xbf04a53e	-0.5181464
68	0x3f071950	0.52773
69	0x3ea5b757	0.3236644
70	0xbf0dcc67	-0.5539002
71	0xbf19135f	-0.5979518
72	0xbeca4ba4	-0.39510834
73	0x3de71f09	0.11285216
74	0x3ebf4d68	0.37363744
75	0xbf1adf3a	-0.60496867
76	0xbf284d9a	-0.6574341
77	0x3eca4f21	0.39513496
78	0x3eccc060	0.3999052
79	0x3f1b5eef	0.6069173
80	0x3f13f6d0	0.5779848
81	0xbedf2b29	-0.43587616
82	0x3f10694a	0.5641066
83	0x3e8ea218	0.27858043
84	0x3f27863b	0.65439194
85	0x3f15ef7f	0.5856857
86	0xbe8fd62d	-0.2809309
87	0xbf0560e4	-0.5210097
88	0x3f075eb2	0.5287887
89	0x3f07f10f	0.531022
90	0xbf1c05f2	-0.6094657
91	0x3f0270d9	0.5095344
92	0x3efbe733	0.49199829
93	0x3ee92233	0.45533904
94	0xbf14a063	-0.5805723
95	0x3ede35da	0.4340046
96	0xbf0ff039	-0.56225926
97	0x3f2227d7	0.6334204
98	0x3f1517a5	0.58239204
99	0xbf2366ba	-0.63828623

fc3.weight f4 [100, 100]
0	0xbe9ae533	-0.3025299
1	0xbe1dcc82	-0.15410045
2	0x3f192cb9	0.59833866
3	0xbee69ac4	-0.45039952
4	0x3ee3572a	0.44402438
5	0x3e8866c6	0.2664091
6	0xbea52081	-0.3225136
7	0x3f0080fb	0.5019681
8	0xbe4c8e02	-0.19976047
9	0xbe68bf54	-0.22729236
10	0xbf0c33bb	-0.54766434
11	0xbc8647dd	-0.016391689
12	0xbe3dffa8	-0.18554556
13	0xbdac7507	-0.08420759
14	0xbefdff65	-0.49608913
15	0xbf1bcf5d	-0.60863286
16	0x3ec4c744	0.38433278
17	0xbebbfeda	-0.36717874
18	0xbe9bb1cc	-0.30409086
19	0x3e4fe7bb	0.20303242
20	0x3ebdc453	0.37063846
21	0xbf11f030	-0.5700712
22	0x3dea2688	0.114331305
23	0x3ec3fed1	0.38280347
24	0x3eb7308a	0.3577922
25	0xbefb0a91	-0.490315
26	0xbea93609	-0.33049038
27	0x3e91fea4	0.28514588
28	0x3ebdff74	0.37108958
29	0xbeebde9d	-0.46068278
30	0x3efa99ca	0.48945457
31	0xbed78fd0	-0.42101908
32	0xbe9e6389	-0.30935314
33	0x3f070b4b	0.52751607
34	0xbe854a68	-0.2603333
35	0xbeb4549c	-0.35220802
36	0xbf1a23d9	-0.6021095
37	0xbecd10e5	-0.40051952
38	0x3e8bd008	0.27307153
39	0x3e9858f7	0.29755375
40	0x3e8d1c18	0.27560496
41	0x3eacc072	0.33740574
42	0x3ea59f30	0.32348013
43	0xbea406fa	-0.32036573
44	0xbdf8ed5b	-0.12154647
45	0xbe06b4c5	-0.13154896
46	0x3ec51c46	0.38498133
47	0xbddf370f	-0.108991735
48	0x3e9498ea	0.29022914
49	0x3d6c85b4	0.057744697
50	0xbdc34eb1	-0.095364936
51	0x3e457577	0.1928309
52	0x3da52ffc	0.08065793
53	0xbe2ee491	-0.17079379
54	0xbe843d78	-0.25828147
55	0xbe61a611	-0.22036006
56	0x3ee8ec19	0.45492628
57	0xbf098e2d	-0.5373257
58	0xbf075bb3	-0.52874297
59	0xbe4c33fe	-0.19941708
60	0x3ef95fc4	0.48705876
61	0xbeceefd8	-0.4041736
62	0xbee00cb4	-0.43759692
63	0x3f046cf7	0.5172877
64	0xbe4764ac	-0.19471997
65	0x3efa1560	0.48844433
66	0x3edc2df8	0.4300382
67	0x3e2bc418	0.16774023
68	0xbede7ca8	-0.4345448
69	0x3e68c0c5	0.22729786
70	0xbee5fb82	-0.44918448
71	0x3e90c100	0.28272247
72	0x3edb2ff5	0.42810026
73	0xbf1be054	-0.6088917
74	0x3e710253	0.23536043
75	0xbeae54ef	-0.34049174
76	0xbef4ee9c	-0.47838295
77	0x3ebfb2b3	0.37441024
78	0xbd860af1	-0.06545056
79	0xbe96cb88	-0.29452157
80	0x3c60c7d6	0.01371952
81	0xbecc16f7	-0.3986127
82	0xbe17d2eb	-0.14826553
83	0xbeb58c00	-0.35458374
84	0xbe5787f8	-0.21047962
85	0x3ebef771	0.37298158
86	0xbf02ab9e	-0.5104312
87	0x3e448f96	0.19195399
88	0xbf0d9fb0	-0.5532179
89	0xbee99482	-0.45621115
90	0x3c1a4cdf	0.009417742
91	0xbe03f053	-0.12884645
92	0xbeccfb54	-0.40035498
93	0xbef58a58	-0.4795711
94	0x3dbf8164	0.09350851
95	0xbea174dd	-0.31534472
96	0xbf259a4b	-0.6468856
97	0x3ed5f3a0	0.41787434
98	0x3e433a62	0.1906524
99	0xbd856572	-0.0651349
100	0xbea3129c	-0.31850135
101	0xbe7df0e1	-0.2479892
102	0xbf1f6825	-0.62268287
103	0x3eb7d303	0.35903177
104	0xbef8c7b0	-0.4858985
105	0x3efbb811	0.4916387
106	0xbf00f452	-0.50372803
107	0xbf09f4a4	-0.53888917
108	0xbe2a065b	-0.16603987
109	0x3ea03276	0.312885
110	0x3eefc4a3	0.4682971
111	0xbe72cc24	-0.23710686
112	0x3e9b8efc	0.30382526
113	0x3eb95c6c	0.36203325
114	0x3f004f8c	0.5012138
115	0x3ee302cb	0.44338068
116	0x3b4ed81b	0.0031561914
117	0x3ebd2a30	0.3694625
118	0x3ea81934	0.32831728
119	0x3e913837	0.283632
120	0xbe99fc4f	-0.3007531
121	0x3e9f5a0d	0.3112339
122	0x3efa0a1b	0.48835835
123	0xbee5eb4e	-0.44906086
124	0xbf05d068	-0.5227113
125	0xbec4ee9d	-0.38463297
126	0x3ecdb6a6	0.40178412
127	0x3e81bc5f	0.25339028
128	0xbee28ecb	-0.44249567
129	0x3e8de474	0.27713358
130	0xbc412d6f	-0.011790617
131	0xbeaec1c3	-0.34132203
132	0xbe3c0bde	-0.18363902
133	0xbed80c50	-0.42196894
134	0xbec119d2	-0.37715012
135	0x3efd5edc	0.49486434
136	0x3f1caeaf	0.61204046
137	0x3ec1f0be	0.37878984
138	0xbeef6158	-0.46753955
139	0xbe96a72c	-0.29424417
140	0xbedccad8	-0.43123507
141	0xbec9cd59	-0.3941448
142	0x3f130a1c	0.574373
143	0x3e28f7e9	0.1650082
144	0x3eaf8c08	0.34286523
145	0xbea6e62b	-0.3259748
146	0xbe901291	-0.28139165
147	0x3e2a10da	0.16607991
148	0xbef5e6e3	-0.48027715
149	0x3ed93643	0.4242421
150	0x3eb74e88	0.35802102
151	0xbef974f8	-0.48722053
152	0xbe9943ef	-0.29934642
153	0x3e7325d9	0.23744906
154	0x3eb3acdf	0.35092828
155	0xbe01d3eb	-0.12678497
156	0xbec41e5e	-0.38304418
157	0x3eb8c40b	0.3608707
158	0x3edcc3e8	0.43118215
159	0xbec34dd4	-0.38145316
160	0xbea883b7	-0.3291299
161	0x3f1424cc	0.5786865
162	0x3ebbe92d	0.36701337
163	0xbeb798f2	-0.35858876
164	0x3ee5b803	0.44866952
165	0xbf098eae	-0.53733337
166	0xbea773fd	-0.3270568
167	0xbe9af541	-0.3026524
168	0xbee9fd4a	-0.45701057
169	0xbed4bb41	-0.41549113
170	0x3ef7b2ad	0.48378506
171	0x3eaab4f5	0.33341184
172	0x3ed06e2a	0.40709049
173	0x3ecda308	0.40163445
174	0xbeb6974e	-0.3566231
175	0x3f140adf	0.5782909
176	0x3ed3a1f1	0.4133449
177	0xbf0055c2	-0.50130856
178	0x3ba6002b	0.005065938
179	0xbef46886	-0.47735995
180	0x3e6b6fc1	0.2299185
181	0x3ed77810	0.42083788
182	0xbe75aabf	-0.23990916
183	0x3e5fe509	0.21864714
184	0x3eb31956	0.34980267
185	0x3e9d2f7f	0.307003
186	0x3e688d4c	0.2271015
187	0xbea0ec62	-0.31430346
188	0x3e8f6484	0.28006375
189	0xbeda601f	-0.4265146
190	0xbec15a79	-0.37764338
191	0x3e59132d	0.21198721
192	0xbeb0c360	-0.3452406
193	0x3e901ff0	0.28149366
194	0xbe81e0ba	-0.25366765
195	0xbf060105	-0.52345306
196	0x3f0e9176	0.55690706
197	0xbee70275	-0.45119062
198	0x3e93fca6	0.28903693
199	0xbe3b08ab	-0.18265025
200	0xbf006828	-0.5015893
201	0xbe28364c	-0.16426963
202	0x3f15b19b	0.5847413
203	0xbe62717a	-0.221136
204	0x3ebbae52	0.36656433
205	0xbdc04d12	-0.093897
206	0xbec32092	-0.38110787
207	0x3ef42b7a	0.4768942
208	0xbe9998c6	-0.2999937
209	0xbe239f4b	-0.15978734
210	0xbe86e206	-0.26344317
211	0x3d6cfb38	0.05785677
212	0x3ec49083	0.38391504
213	0x3ecc7714	0.399346
214	0xbf14e942	-0.58168423
215	0xbed2d303	-0.41176614
216	0xbe907359	-0.28213003
217	0xbdb417b9	-0.08793587
218	0xbe930633	-0.28715667
219	0x3d62866a	0.05530397
220	0x3e76e962	0.24112466
221	0x3e575fc4	0.21032625
222	0xbea8e0dd	-0.32984057
223	0x3f0e15f0	0.55502224
224	0x3ec31ccf	0.38107917
225	0xbd5924b7	-0.05301353
226	0xbe73351f	-0.23750733
227	0xbeabe134	-0.33570254
228	0x3dfe1c20	0.12407708
229	0x3b42e4c0	0.0029738396
230	0xbc6dab39	-0.014506155
231	0xbd69ceb7	-0.057081904
232	0xbe38e8d6	-0.1805757
233	0x3e99b070	0.30017424
234	0xbdf1fb41	-0.11815501
235	0xbf156a9e	-0.5836581
236	0xbf0e5c4d	-0.5560959
237	0xbf097f0c	-0.53709483
238	0xbe933ac2	-0.28755766
239	0xbec2bc7e	-0.38034433
240	0x3e8850e4	0.26624215
241	0x3eb2e7c4	0.34942448
242	0x3e66187c	0.22470278
243	0xbe6b15f2	-0.2295759
244	0xbd12aa40	-0.035806894
245	0x3f0c0906	0.5470127
246	0x3d9febf1	0.07808674
247	0xbe3aabfa	-0.18229666
248	0x3ee37a45	0.44429222
249	0x3f00ee81	0.5036393
250	0xbd7b8f28	-0.06141582
251	0x3ebea9d0	0.37238932
252	0x3e1c596a	0.15268484
253	0xbd9f3ca3	-0.077752374
254	0xbe1fc4d7	-0.15602432
255	0xbe275080	-0.16339302

fc3.bias f4 [100]
0	0x3ee2e34c	0.4431404
1	0xbf03aaba	-0.51432383
2	0x3f1d84a8	0.6153054
3	0x3f1b4941	0.6065865
4	0xbed36e0c	-0.41294897
5	0xbe5ad5d7	-0.21370636
6	0xbf130c0e	-0.5744027
7	0xbec535f3	-0.38517722
8	0x3e58cdfb	0.21172325
9	0x3edbad32	0.42905575
10	0xbf1a1c26	-0.601992
11	0x3ef53798	0.47893977
12	0x3efa96b8	0.48943114
13	0x3f07f7f3	0.53112715
14	0x3e9e8432	0.30960232
15	0x3f18c625	0.59677345
16	0x3f169964	0.58827806
17	0x3eef6633	0.4675766
18	0xbf16b02c	-0.58862567
19	0xbf0ecb57	-0.5577902
20	0x3e1d02c6	0.15333089
21	0x3f2579e9	0.64639145
22	0x3ebc9b92	0.3683744
23	0xbf1b8f8b	-0.60765904
24	0x3ed9f5a4	0.4257022
25	0x3f1ee7e6	0.620726
26	0x3f215bd3	0.6303074
27	0xbee53bc3	-0.44772157
28	0x3f0a1a55	0.5394643
29	0x3eb042a0	0.3442583
30	0xbf0cc893	-0.5499355
31	0xbf1abe23	-0.60446376
32	0x3f102170	0.5630102
33	0x3f1518aa	0.5824076
34	0x3f18bd81	0.5966416
35	0x3f2842e0	0.65727043
36	0xbee6c777	-0.45074055
37	0x3f1085fb	0.5645444
38	0x3eb406d3	0.35161456
39	0x3ef4b1ea	0.47791988
40	0x3f010e07	0.5041203
41	0x3e5f62ce	0.21815035
42	0x3f057ef1	0.5214682
43	0xbf18561c	-0.5950639
44	0xbf2395ea	-0.63900626
45	0xbe48d6cd	-0.1961319
46	0x3ed673dd	0.41885272
47	0x3f0a84ef	0.5410909
48	0x3f062a1c	0.52408004
49	0x3d5b7494	0.053577974
50	0xbf0d85bb	-0.5528218
51	0x3f031794	0.5120785
52	0xbf232107	-0.6372227
53	0x3e3d4726	0.18484172
54	0xbefa0379	-0.48830774
55	0xbe769441	-0.24079992
56	0x3f1a4975	0.60268337
57	0x3eb974f7	0.3622205
58	0xbf1e114d	-0.6174515
59	0xbf17dfde	-0.5932597
60	0x3f1c0fcd	0.6096161
61	0x3ee02068	0.43774724
62	0xbe9638cb	-0.29340205
63	0x3f022d30	0.508502
64	0x3ed08d0a	0.40732604
65	0xbedf3f12	-0.43602806
66	0x3f13c7ba	0.57726634
67	0xbef979f9	-0.4872587
68	0xbf1bee7c	-0.60910773
69	0xbf004988	-0.501122
70	0x3f24600e	0.6420907
71	0xbebeccc7	-0.37265608
72	0xbef61851	-0.48065427
73	0x3f04594c	0.51698756
74	0x3f05b508	0.52229357
75	0x3f2034ea	0.6258074
76	0xbf1b6898	-0.6070647
77	0x3f09c8b9	0.53821903
78	0xbde3ef39	-0.111296125
79	0x3f021027	0.50805897
80	0x3ee3bf2f	0.444818
81	0x3f0b50f7	0.5442042
82	0xbed87801	-0.42279056
83	0x3ef99256	0.48744458
84	0xbebc25d5	-0.36747614
85	0x3f166324	0.58745027
86	0xbf170ab5	-0.5900071
87	0xbeedf2c8	-0.4647429
88	0x3efd6fe1	0.4949942
89	0xbf110c1d	-0.5665911
90	0x3f0b584d	0.5443161
91	0xbf02790b	-0.50965947
92	0xbf1778c2	-0.59168637
93	0xbf1888ea	-0.59583914
94	0x3f0f9048	0.5607953
95	0xbf1efb37	-0.62102073
96	0xbf262d5b	-0.64912957
97	0x3f22b4e9	0.63557297
98	0x3efcbfff	0.4936523
99	0x3ebce5e3	0.3689414

fc4.weight f4 [6, 100]
0	0x3e83fe47	0.25779936
1	0xbd53e32f	-0.05173033
2	0x3db167cb	0.08662375
3	0x3e1aa42b	0.15101688
4	0x3e379d3f	0.17931078
5	0x3e1f0545	0.15529354
6	0x3e0c6106	0.13708887
7	0xbdda36a7	-0.10654955
8	0x3d6eb0d7	0.058274116
9	0x3e1b6ed8	0.15179002
10	0xbbf1798a	-0.007369225
11	0xbe595671	-0.21224381
12	0x3e89cc4f	0.26913688
13	0x3dd9ac1b	0.1062853
14	0xbea9f2b7	-0.3319299
15	0xbe4248e3	-0.18973117
16	0xbdbd2865	-0.0923622
17	0xbe900a25	-0.2813274
18	0x3e5b0139	0.21387185
19	0x3dd77726	0.10520773
20	0xbdc7023c	-0.09717223
21	0xbdb0a9cc	-0.08626136
22	0xbe878a0b	-0.26472506
23	0xbe981252	-0.29701477
24	0x3dabfefc	0.08398244
25	0xbdb5d80b	-0.088790976
26	0xbda4733b	-0.08029791
27	0xbe33e57b	-0.17568009
28	0xbe000490	-0.1250174
29	0xbe1a641c	-0.15077251
30	0x3ddb7235	0.10715143
31	0x3e562558	0.20912683
32	0x3e0c9ee4	0.13732487
33	0xbe16a572	-0.1471155
34	0x3e118307	0.14210139
35	0xbd39f01a	-0.045394994
36	0x3d28e49f	0.041233655
37	0xbdddaa9e	-0.10823558
38	0xbdfdddc5	-0.12395815
39	0xbe62807c	-0.22119325
40	0x3ec90e90	0.39268923
41	0x3da9b31d	0.08286116
42	0xbe93a02a	-0.28833133
43	0xbdcd1da6	-0.100154206
44	0x3c3bdcf7	0.011466256
45	0x3e3707f9	0.17874135
46	0xbd8b7529	-0.06809456
47	0xbd43c6c2	-0.047796972
48	0xbe9d0eb1	-0.3067527
49	0xbd09596d	-0.03353255
50	0x3e665bd3	0.22495966
51	0x3e717b0d	0.23582096
52	0xbe232374	-0.15931493
53	0xbd88d742	-0.06681682
54	0x3e5c3ef3	0.21508388
55	0xbdb450f8	-0.08804506
56	0xbd92dc08	-0.07170874
57	0x3d1ea8f3	0.03873534
58	0xbc210915	-0.0098288255
59	0x3e1d028e	0.15333006
60	0xbde7dbec	-0.11321244
61	0xbd8e77ce	-0.06956445
62	0xbea58509	-0.3232806
63	0xbe3f8c6b	-0.18705909
64	0x3d75e690	0.060034335
65	0xbe59219b	-0.21204226
66	0xbe29504e	-0.1653454
67	0xbd0bceb6	-0.03413268
68	0x3e63888d	0.22220059
69	0x3d04d420	0.03242886
70	0xbeb66f88	-0.35631967
71	0x3e80e3a9	0.2517369
72	0x3dcdbcba	0.10045762
73	0x3e3df750	0.18551373
74	0x3e393e6c	0.18090218
75	0xbe86369f	-0.26213548
76	0x3e35d0e9	0.17755474
77	0x3da731aa	0.081637695
78	0x3d5c97bd	0.053855646
79	0x3e0b56c3	0.13607316
80	0x3e14e439	0.14540185
81	0x3d241001	0.040054325
82	0xbe184557	-0.14870201
83	0xbd3080aa	-0.043091454
84	0xbdd8480a	-0.10560615
85	0xbd7621f3	-0.06009097
86	0xbe0cf7aa	-0.13766351
87	0xbda8fee6	-0.08251743
88	0xbe7ab9e2	-0.24484971
89	0xbe55f328	-0.20893538
90	0x3e5fc0cf	0.21850894
91	0xbd9597d8	-0.073043525
92	0xbc311b62	-0.010809751
93	0xbe2ecd05	-0.17070396
94	0xbe4e8fd2	-0.2017205
95	0xbe631a08	-0.22177899
96	0x3e52b2f6	0.2057608
97	0xbccea261	-0.025223913
98	0x3bf2f0bd	0.007413952
99	0x3cba3f6c	0.02273532
100	0x3e14fcb9	0.14549531
101	0xbd8860d5	-0.06659094
102	0x3e9d2515	0.30692354
103	0xbd40601c	-0.046966657
104	0xbde4e54f	-0.1117655
105	0xbe28d2a8	-0.16486609
106	0xbe822c3a	-0.25424367
107	0xbe4378d8	-0.19089067
108	0x3ea86ade	0.32894033
109	0xbcffd056	-0.031227272
110	0xbdeb532a	-0.11490472
111	0x3e8a775e	0.27044195
112	0x3dfa9500	0.12235451
113	0xbd096a98	-0.03354892
114	0x3b1ba400	0.0023748875
115	0xbc3f5f4c	-0.011680435
116	0x3dadce68	0.084866345
117	0x3c10ed60	0.008845657
118	0xbe364ce1	-0.17802764
119	0x3dc4f5ce	0.09617196
120	0xbe41dbba	-0.18931475
121	0x3e9b8616	0.30375737
122	0x3ebf7b5f	0.37398812
123	0x3dcb1642	0.09916355
124	0x3e502bb6	0.20329174
125	0x3df8f9b4	0.12157002
126	0x3f00e6df	0.5035228
127	0xbe949f25	-0.29027668
128	0x3d6390fe	0.055558197
129	0x3ddf518c	0.10904226
130	0xbe158ebf	-0.14605235
131	0xbebe2830	-0.37140036
132	0xbd41aeb7	-0.04728576
133	0x3eb0ca9e	0.34529585
134	0x3e881173	0.26575813
135	0x3eba1d91	0.36350682
136	0xbe018963	-0.12650065
137	0x3d6ef1ac	0.058335945
138	0xbdea97d0	-0.11454737
139	0x3ecbc1af	0.39796206
140	0x3e1a775c	0.15084594
141	0xbe1e3df8	-0.15453327
142	0xbe3d7bc6	-0.18504247
143	0xbdf190b7	-0.1179518
144	0xbcd7d76a	-0.026347835
145	0x3bfd2566	0.0077254055
146	0x3d964867	0.073380284
147	0x3e884b68	0.2662003
148	0x3e8e3c4d	0.2778038
149	0x3dd89a36	0.105762884
150	0xbe65d73d	-0.22445388
151	0x3dd32dc4	0.103114635
152	0xbe19a571	-0.15004517
153	0x3c29f692	0.010373728
154	0xbe43d008	-0.19122326
155	0x3e30e25b	0.17273848
156	0x3efb20f4	0.4904858
157	0x3e714cc4	0.2356444
158	0xbeed36cf	-0.46330878
159	0x3e1826b3	0.14858513
160	0x3dd34a61	0.10316921
161	0x3dac6b03	0.08418848
162	0x3cd22f67	0.025657369
163	0x3ec8101f	0.390748
164	0x3dcc443e	0.09973954
165	0xbe0a3f66	-0.13500747
166	0x3e776234	0.24158555
167	0xbe5ce9cc	-0.21573561
168	0xbeaac25f	-0.33351418
169	0xbd9c0bd6	-0.07619445
170	0xbe4e321a	-0.201363
171	0xbe5442c4	-0.20728594
172	0xbebadfc5	-0.36498848
173	0x3e23eec4	0.1600905
174	0x3e757ae8	0.23972666
175	0x3d08e141	0.033417944
176	0xbe8f7fab	-0.2802709
177	0x3ee8ae32	0.454454
178	0x3dad0029	0.08447296
179	0x3cdc10dd	0.02686351
180	0x3ece6269	0.40309456
181	0x3e810318	0.25197673
182	0x3e8523e6	0.2600395
183	0x3e247aac	0.1606242
184	0xbe0fcdc3	-0.14043336
185	0x3eb2f3da	0.3495167
186	0xbea187bf	-0.3154888
187	0xbd836b8c	-0.06416997
188	0x3dbe66d2	0.09296955
189	0xbefea652	-0.49736267
190	0x3e854cb4	0.26035082
191	0xbebd5e91	-0.3698621
192	0xbe2fd8b8	-0.17172515
193	0xbec806f0	-0.39067793
194	0x3eb286a2	0.34868342
195	0xbe6d3795	-0.23165734
196	0x3c19c76a	0.009385923
197	0x3eb2ac71	0.34897187
198	0x3e5bf38d	0.21479626
199	0x3d88fe95	0.06689183
200	0xbe714f66	-0.23565444
201	0x3ea5d6b4	0.32390368
202	0xbd0e0e14	-0.034681395
203	0xbeca8b51	-0.39559415
204	0xbe046eb4	-0.12932855
205	0xbe803aaa	-0.25044757
206	0xbebc0222	-0.36720377
207	0x3df20883	0.1181803
208	0xbeb04570	-0.34427977
209	0x3c86d4ab	0.01645883
210	0xbe5e2de5	-0.21697195
211	0x3edc4ca2	0.43027216
212	0xbe8de979	-0.27717188
213	0xbec403ef	-0.3828425
214	0xbdd4e948	-0.10396057
215	0xbca70e11	-0.02039245
216	0xbec08fab	-0.3760961
217	0x3ed33757	0.41253158
218	0x3eda1c68	0.42599797
219	0x3eaafef7	0.33397648
220	0x3ec82e68	0.39097905
221	0xbef9ba00	-0.4877472
222	0x3ecbcaf8	0.3980329
223	0x3ee09ea1	0.43871024
224	0x3e6f42fe	0.23365399
225	0xbee67158	-0.4500835
226	0x3e7b518d	0.24542828
227	0x3eae761d	0.34074488
228	0xbddf778d	-0.109114744
229	0x3e4bda21	0.19907428
230	0xbc4e82f7	-0.012604467
231	0xbc3e6f46	-0.011623209
232	0xbed72f5a	-0.42028314
233	0xbe4e5a00	-0.2015152
234	0xbea08ce4	-0.3135749
235	0xbea2894a	-0.31745368
236	0xbe8d77f0	-0.27630568
237	0xbac044b5	-0.0014668914
238	0xbe0d5270	-0.13800979
239	0xbeb0feeb	-0.34569487
240	0xbe28354d	-0.16426583
241	0xbeb18dee	-0.34678596
242	0x3d1b5de6	0.037931345
243	0x3e02947c	0.12751955
244	0x3ede2e39	0.4339464
245	0xbeded5f4	-0.43522608
246	0x3efe8a36	0.49714822
247	0xbe07b72b	-0.13253467
248	0x3e536a26	0.20645961
249	0x3d9e0589	0.077158995
250	0x3d2f3ee3	0.042784583
251	0xbe01d7e5	-0.12680013
252	0xbe76dadf	-0.2410693
253	0xbe961b78	-0.29317832
254	0xbec0a0d0	-0.3762269
255	0x3e5a0bff	0.21293639

fc4.bias f4 [6]
0	0xbee678b5	-0.45013967
1	0x3f128773	0.5723793
2	0xbeedb1fd	-0.46424857
3	0xbf0c86ff	-0.5489349
4	0xbeda15d1	-0.4259477
5	0x3e99f803	0.3007203
