figs/diff_hiddenlayers/64/mlp_model_dict.pt (torch, 160015 bytes, 134 tensors)

group.0.weight f4 [100, 100]
000000 40 bc 45 be db 25 67 be 0d cd fc 3d 02 6a ac 3e
       -0.19310093 -0.22573034 0.12343798 0.33674628
000010 9c b6 40 3e ff fb 56 be d4 41 a7 3e 6c 4f 34 be
       0.1881966 -0.20994566 0.3266741 -0.17608422
000020 03 5c 9a 3d 6e de 85 be 23 72 86 3e 26 7b 8f bd
       0.07537081 -0.26146263 0.26258954 -0.070059106
000030 d5 84 8b 3e fd 38 67 be 7b d1 d0 bd ef 01 53 3e
       0.2724978 -0.22580333 -0.10196205 0.20606206
000040 5b 11 d7 be da 60 3d be 21 56 cc be 4d e4 7c bd
       -0.4200543 -0.18493977 -0.3990946 -0.061741162
000050 4d 33 62 be c6 2b 3c be b4 bb 29 3e 31 76 5a 3e
       -0.22089882 -0.18376073 0.1657551 0.21334149
000060 6b 62 8c be 42 ac d2 bd 7c 16 65 3e e4 f2 5d 3e
       -0.27418837 -0.10286762 0.22371858 0.21674687
000070 a7 bd 9d 3e 34 7d 94 3e 83 56 0b 3d 83 2e 3f 3e
       0.30808756 0.29001772 0.03401805 0.18670087
000080 78 e1 3c 3e 1a 37 39 3e 3f 9c 7e bd 18 e6 07 3e
       0.18445385 0.18087426 -0.062160727 0.13271368
000090 9e 1d 9c 3d 1b 81 01 3d 33 1d bc 3c 58 e8 aa bd
       0.076228365 0.031617265 0.022963142 -0.08345097
0000a0 2d 74 2d be 3b 22 e3 3c f6 e5 07 3e ed c3 ff bc
       -0.16938849 0.027726283 0.13271317 -0.031221354
0000b0 6c 56 62 be 8e fd 75 3e 3c aa 61 3d 5d c4 1f bd
       -0.2210328 0.24022505 0.05509399 -0.039005626
0000c0 79 a7 61 3e 66 e0 ae 3d 62 2b 8b 3e b1 88 cc be
       0.22036542 0.08538894 0.27181536 -0.39948037
0000d0 df 77 a6 bd 8a 1b a0 3d 32 cc 83 3e 07 57 75 3e
       -0.08128332 0.07817753 0.25741726 0.2395898
0000e0 de 8a a6 3e 0c c0 37 3e 6d cc a0 3c 8e 49 15 3d
       0.32527822 0.17944354 0.019628728 0.0364471
0000f0 34 0d 32 bd b1 ae 87 3e 57 5c fc bc 6c c8 16 3d
       -0.043469623 0.26500466 -0.03080575 0.03681223
000100 1d 16 ad bd 9b ee 91 be 7e 80 2a 3c db 2a fe bd
       -0.084514834 -0.28502354 0.0104066115 -0.12410518
000110 59 ae a1 3e 0c 01 94 3e 11 fd 45 be 11 f3 3d 3d
       0.3157833 0.2890705 -0.19334818 0.046374384
000120 5e 1a 91 3d 33 74 89 3d 09 f6 03 3e 96 f3 9a 3e
       0.07085107 0.06711616 0.12886824 0.30263966
000130 df b1 b6 be db 14 51 be c8 ac 48 3e a4 2d ca 3d
       -0.3568258 -0.20418112 0.19597161 0.098719865
000140 29 80 9f 3d dc 5f 28 bd bf e0 8c bd 43 23 81 bd
       0.077881165 -0.041107044 -0.068788044 -0.06305554
000150 68 e5 f8 3d ca 05 ad 3d f0 b8 69 3e d0 ea 15 be
       0.12153131 0.0844837 0.22824454 -0.14640355
000160 25 dc 04 be 6a b1 0b be 24 e1 cd bd 80 24 80 be
       -0.12974603 -0.13641897 -0.10052708 -0.25027847
000170 ca 4e 89 3e a5 29 76 be 77 dd 49 3e 5a 48 93 bd
       0.26817924 -0.24039324 0.19713388 -0.07191534
000180 c3 fe 79 3e 0c ea 33 3e e6 fc 9a 3d 70 23 13 3e
       0.2441359 0.1756975 0.07567768 0.14368987
000190 80 ef 8c bd d1 47 3f bd 45 1b 52 3e ad fb 23 be
       -0.068816185 -0.04669935 0.20518215 -0.16013975
0001a0 65 a2 29 3e cc bf f3 bd 08 78 ab bd 4e cf cf bd
       0.16565855 -0.11901817 -0.083725035 -0.10146962
0001b0 a1 49 ff 3c 6c 8c f5 bd f8 72 7c 3e e8 66 48 be
       0.031163039 -0.11989674 0.24653232 -0.19570506
0001c0 0b 61 32 3d 0b b9 02 be 8b 3c 21 be 98 2d 87 be
       0.04354958 -0.12765901 -0.15745752 -0.26401973
0001d0 3f c1 b8 3d 4f 82 22 bd 29 78 7f be e4 ca fd bd
       0.09021234 -0.039675053 -0.24948181 -0.12392214
0001e0 20 98 81 be 01 20 93 bd 79 db 59 3e d9 6f ef bd
       -0.25311375 -0.07183839 0.21275128 -0.11691255
0001f0 3d 28 71 be a9 ca 6a bd cf 19 d1 bd a7 eb 60 3d
       -0.23550506 -0.057322178 -0.10210001 0.054912236
000200 9a bb 56 bd aa c7 0d be 95 b3 41 be e1 7e 60 be
       -0.052425005 -0.13845697 -0.18916161 -0.219234
000210 60 a2 ff bd 4e f7 b3 3d ed c4 72 be 7a c8 2d 3e
       -0.124821424 0.08787404 -0.23707934 0.16971007
000220 8e 24 97 3e 8e dc a8 bd 41 be 20 be f2 49 19 be
       0.29520077 -0.082451925 -0.15697576 -0.14969614
000230 53 30 8f be c0 fb 8e bb 03 ea a4 3d e8 5a 7f 3b
       -0.27966556 -0.004363507 0.08052447 0.0038964096
000240 99 7a 06 bd 1f f5 6e be 54 b9 bc 3c 90 e9 54 3d
       -0.032831762 -0.23335694 0.02303759 0.051980555
000250 d0 c4 ae 3c 9c 63 79 bd 5e 23 18 3e a4 96 b5 bc
       0.021334082 -0.06088601 0.14857242 -0.022166558
000260 84 be 45 be 49 5a 6e 3e 69 9e db 3a 6f fd cf bc
       -0.19310957 0.23276629 0.0016755584 -0.025389401
000270 3c 35 59 3e 58 94 91 3e 8a c2 09 be f3 ab ae 3d
       0.21211714 0.2843349 -0.13453117 0.085288905
000280 24 da 7e bd 78 e7 55 3e b6 6c 46 3e 02 79 e3 3c
       -0.062219754 0.2088908 0.19377407 0.027767662
000290 7a 9f eb bd bb df ae be d1 df 25 be 56 09 80 3d
       -0.11505027 -0.34155068 -0.1619866 0.06251781
0002a0 62 ab 13 3d 03 e0 bf bd 9f e0 37 3e 13 a0 fa 3d
       0.036052115 -0.09368899 0.1795678 0.12237563
0002b0 fc b8 ec 3d cd c1 44 be c8 43 14 be 20 ec 33 be
       0.115587205 -0.19214554 -0.14478981 -0.17570543
0002c0 ab 2a 9b be 2b 6f c6 bd d9 bc 27 3e 02 c3 6a 3e
       -0.3030599 -0.09689172 0.16380633 0.22925952
0002d0 d8 14 db bb 76 5c 15 3d 6c 86 40 3d 06 2b 2f 3d
       -0.0066858344 0.03646513 0.047003195 0.04276564
0002e0 12 f0 8d 3e 1a 6b 07 3e c1 4b 56 3e e0 f8 8e bd
       0.27722222 0.1322445 0.20927335 -0.06981063
0002f0 24 46 b7 3c 5c 3d 0f 3a e8 c8 d7 3c 7a 20 38 3d
       0.022372313 0.00054641603 0.026340917 0.044952847
000300 08 00 c2 3d 6c e3 00 3e d4 76 0e be 8a 98 4f be
       0.09472662 0.12586755 -0.13912517 -0.20273033
000310 9f 4f 2d 3e 44 fb ad bd 9d 59 89 3d a2 45 29 3e
       0.16924904 -0.08495191 0.067065455 0.16530469
000320 11 d2 b0 be bf f5 4f 3e b4 8a 71 be 54 c5 c1 bd
       -0.34535268 0.20308588 -0.23588067 -0.094614655
000330 f8 33 9b bd 2a 3c 24 be 42 98 e1 bd 42 b9 7d bd
       -0.075782716 -0.16038576 -0.11015369 -0.061944254
000340 9c cb 34 be 14 34 a0 be b1 27 f4 bd 7f fc 16 be
       -0.17655796 -0.31289732 -0.11921633 -0.14744757
000350 40 14 15 be 0f 9e 8f 3e be 05 87 be d6 eb 88 be
       -0.14558506 0.28050277 -0.26371568 -0.2674243
000360 91 8c 8a be 4c 14 2c be c3 c3 03 3e 52 b1 3a be
       -0.2706037 -0.16804618 0.12867646 -0.18231705
000370 04 dd 25 3e c8 56 8d be 59 a0 8e be eb c7 04 be
       0.16197592 -0.2760527 -0.2785671 -0.12966888
000380 c3 e4 26 be 66 b7 83 3e 37 d8 84 be 7f 0b 5c be
       -0.16298203 0.2572586 -0.2594621 -0.2148876
000390 6d b0 30 be 87 1f 5a be 8a 01 2b be 49 bb 30 be
       -0.17254801 -0.21301089 -0.16699806 -0.17258944
0003a0 cd 88 81 be d2 93 27 be 71 32 91 be 48 ae 17 be
       -0.25299683 -0.16364983 -0.28358796 -0.14812577
0003b0 a8 a9 5f bd b4 65 62 bd 42 f6 62 3e 09 4a d7 bd
       -0.054605156 -0.055272773 0.22164252 -0.10512168
0003c0 ba 6a 6d 3e 29 0c 6c 3d 05 0a 00 be 7a da 7f be
       0.23185244 0.057628784 -0.12503822 -0.24985686
0003d0 b9 61 44 3e e3 f1 2a be 28 49 15 3e 2a 3b 87 be
       0.19177903 -0.16693835 0.14578688 -0.26412326
0003e0 97 fa 23 be 50 0b 33 3e 54 ba 96 be 6a ab f3 bd
       -0.16013561 0.17484784 -0.29439032 -0.11897929
0003f0 76 9b 1a be fc 46 4c be f7 80 4c be 68 a7 5b be
       -0.15098366 -0.19948953 -0.19971071 -0.21450579

group.0.bias f4 [100]
000000 10 34 45 bd d1 e7 8b 3e 8d aa ac 3e 8f 14 6b be
       -0.048145354 0.273253 0.3372387 -0.22957061
000010 7b e9 32 3e 2a 87 87 be e7 34 4c 3e 32 ec 83 be
       0.17471878 -0.2647031 0.19942056 -0.2576614
000020 22 76 af be 17 d7 86 be bf ed 42 3e 6f bd 9a be
       -0.34269816 -0.26335976 0.19036005 -0.3022265
000030 19 99 aa 3e c1 b4 4c be 90 cd a7 be 75 28 34 3e
       0.3331993 -0.19990827 -0.3277402 0.17593558
000040 20 b2 16 be 3e 6b 3d be be cb 91 be d6 19 86 be
       -0.14716387 -0.18497941 -0.28475755 -0.26191586
000050 7a a8 5e be 8d 15 7d be fc ef 45 be 2b 0b 98 3e
       -0.21743956 -0.24715252 -0.19329828 0.2969602
000060 ba a4 d2 bd d4 a6 0c be 2c e8 96 3e d7 1b 8e 3e
       -0.10285325 -0.13735515 0.29474008 0.27755615
000070 ec cd 4e 3d 95 7f 9c be 6d 75 7d 3e b8 6a 97 3e
       0.05048935 -0.30566087 0.24751826 0.29573607
000080 c0 28 81 3e 54 dd 7d 3e 4c 64 0a be 9e 22 9d 3e
       0.25226402 0.24791461 -0.13514823 0.30690473
000090 59 64 9b 3e 40 e4 a8 3e 2f 08 40 be 28 a4 75 be
       0.30349997 0.3298664 -0.18753122 -0.23988402
0000a0 fb 16 24 be 13 c2 61 be 46 ff b2 3e 91 18 7d be
       -0.16024391 -0.2204669 0.34960383 -0.24716403
0000b0 da d1 a3 3e 48 ee af bd e2 d0 51 be d1 1a 4d 3e
       0.31996042 -0.085903704 -0.20489839 0.20029761
0000c0 9b d9 61 3e 84 bb 3d be 33 25 7a be 7a 2c 89 be
       0.22055666 -0.18528563 -0.24428253 -0.26791745
0000d0 d6 f6 ab be 49 ca 45 3a 90 ca a0 3e dd 3b 92 be
       -0.33586758 0.00075450965 0.31404543 -0.28561297
0000e0 3b ae 8d 3e 23 ac b2 be 45 fd aa be 27 a3 69 3e
       0.2767199 -0.34896955 -0.33396354 0.22816144
0000f0 1c cc 8c 3e 31 71 35 be 2a 04 7b be ab 79 f2 bd
       0.27499473 -0.1771896 -0.24513307 -0.118396126
000100 5d 04 91 3e bb 37 90 be d6 42 93 be 1b f3 9a be
       0.2832364 -0.2816752 -0.2876193 -0.302636
000110 0a 96 38 3e 0f 0f 36 be 87 60 72 be 98 73 b2 3e
       0.18025985 -0.17779182 -0.23669635 0.34853816
000120 d7 5b 84 3e f9 ff 61 be 19 f5 36 3e b8 a3 7b be
       0.25851318 -0.22070302 0.17866935 -0.24574172
000130 9b 09 95 be 21 90 37 be 05 03 5d 3e 2d 01 99 be
       -0.2910889 -0.17926075 0.21583183 -0.2988371
000140 dc d0 83 3e fe 98 b8 3e e1 42 b3 3e e0 3d b4 3e
       0.25745285 0.36054224 0.35011962 0.35203457
000150 18 31 9e be ae c4 7e bc 0b e4 b4 3e 4e de 57 be
       -0.3089683 -0.015549822 0.35330233 -0.21080896
000160 75 10 8f be eb 3c 32 be 1c f2 83 be ca b3 85 be
       -0.27942243 -0.17406051 -0.25770652 -0.2611373
000170 a2 9d 8c 3e 0e 52 93 be 50 78 38 be 06 d6 40 3e
       0.27464014 -0.2877354 -0.18014646 0.18831643
000180 3c d2 8a 3e 18 69 5a be fc bc 83 be eb 3d 80 3e
       0.2711352 -0.21329153 -0.2573012 0.2504724

fc1.weight f4 [100, 240]
000000 b8 b5 89 bd 35 07 a2 3e b3 63 61 3d 15 ef a1 bd
       -0.06724113 0.31646124 0.05502672 -0.079069294
000010 75 f5 cb bd c3 2d 66 3e 6a 5a 7e 3e 86 65 23 3d
       -0.099589266 0.22478394 0.24839178 0.039891742
000020 b6 c3 bb bb 46 5f 99 3e 64 91 73 3c 77 dd ca bb
       -0.0057301177 0.299555 0.014866207 -0.0061909514
000030 9e 69 7b be 38 29 cd 3d 73 38 a8 3e 8a 7e 38 3e
       -0.24552009 0.100176275 0.32855567 0.18017021
000040 76 fd 17 3d 48 cf 1b 3d 89 01 1d bd 95 30 88 bd
       0.037106954 0.038039476 -0.038331542 -0.06649891
000050 85 f2 1c 3e 00 7f 7f 3e d5 3d 4c 3c b4 54 29 bb
       0.15326889 0.2495079 0.012465914 -0.002583784
000060 1c 10 eb 3d 96 5c 98 3e 2d 3f 91 3d 81 65 45 be
       0.11477682 0.29758137 0.07092128 -0.19277002
000070 e8 cd c4 3d 55 8a 99 3e 8a 78 27 3e 54 7d 04 3e
       0.09609586 0.2998835 0.16354576 0.12938434
000080 a4 c0 d0 3d 29 73 ee bd b3 79 cd bc e0 b6 79 3e
       0.10192993 -0.11643059 -0.025082445 0.24386168
000090 b9 ed ac 3e 5c 46 a7 3e a8 28 53 3d 9d 00 ee 3c
       0.33775118 0.32670867 0.051552445 0.029053027
0000a0 ac d8 10 3e c3 ac a5 bd b3 2a a5 3d 17 22 b5 3e
       0.14145154 -0.08089592 0.08064785 0.3537757
0000b0 16 b2 f4 bd 31 25 8d 3e 6a fd f1 3d 44 9b c4 3c
       -0.1194803 0.27567437 0.11815913 0.023999818
0000c0 5c 02 2b 3c 1a 7d 0a 3e bf 37 97 3d 5f 72 12 3e
       0.010437574 0.13524285 0.073836796 0.14301442
0000d0 ba 3b 64 3d a3 3d ad 3c 28 58 12 3d 34 94 ef 3d
       0.055721022 0.021147555 0.035728604 0.116981894
0000e0 fb c0 b7 3d d0 be 92 3e 59 ec 69 3e da 80 89 be
       0.08972355 0.28661203 0.22844066 -0.26856118
0000f0 60 f0 5b be 0c 49 2d be c5 72 83 3d 87 23 7d 3e
       -0.21478415 -0.16922396 0.06418375 0.24720584
000100 3e ed 77 3e 80 11 ac 3d 5b 4c 67 3d b6 7b e1 3d
       0.24211594 0.08401775 0.056469303 0.11009924
000110 ae 5d eb bd a0 87 ae 3d 42 12 18 3e 1d 34 e1 3d
       -0.11492477 0.08521962 0.14850715 0.10996268
000120 6e 01 12 3e a1 d2 dc bd 8e b3 b8 bd a4 a1 66 3e
       0.14258358 -0.10782362 -0.09018622 0.22522599
000130 b8 bc 33 3e 19 b2 8d 3d ad b6 8c 3e c6 4b 2c 3e
       0.17552459 0.06918735 0.2748312 0.1682578
000140 d2 f8 cd 3d 64 8f ed 3d 7b e1 26 3d 9f f7 51 3d
       0.10057224 0.11599615 0.04074238 0.05126154
000150 7c 17 5b 3d 91 27 d2 3d 38 66 e5 3d 07 87 82 3d
       0.053489193 0.10261453 0.11201137 0.06373411
000160 eb 92 c4 3d b5 cf 87 3c 71 2b ed bd 00 ee a5 3c
       0.09598335 0.016578535 -0.115805514 0.020255089
000170 aa 74 02 bd 93 c4 0d 3e 0a 43 b4 3d 6f 22 c1 3d
       -0.03184954 0.13844518 0.08801849 0.09430396
000180 62 08 f6 3c 3b 66 e8 bd b6 7f 68 be 63 0b 92 be
       0.030033294 -0.11347624 -0.22704968 -0.28524312
000190 45 84 b7 3d 61 b6 b0 3c 35 d5 f8 bd 8c 9b 9f 3c
       0.08960775 0.02157134 -0.12150041 0.01948335
0001a0 48 79 07 bb f6 74 56 3d ae 2c f5 bd fc d0 b0 3d
       -0.0020671654 0.052357636 -0.119714126 0.086336106
0001b0 26 05 3f 3d e7 79 46 3d ca 91 07 3e 55 d7 83 3d
       0.04663577 0.0484561 0.13239208 0.06437556
0001c0 e2 ee 77 3d 4c c0 61 3d 51 0b fe 3d 48 39 02 3e
       0.06053055 0.05511503 0.12404502 0.12717164
0001d0 6d ec 3f 3d ea 1a 2a 3d c5 28 2e be 4b 4d ad be
       0.046856333 0.041529574 -0.1700774 -0.33848032
0001e0 c6 89 8c be 80 cd 87 3d 54 6c fc 3d f2 b7 3b be
       -0.27448863 0.06630993 0.123253495 -0.18331888
0001f0 37 b3 6a bc fa 0b c8 3d 6e 08 9a 3d e3 80 f3 3c
       -0.014324955 0.09767909 0.07521139 0.029724544
000200 6c 5d d7 3c fa 1e e2 3d d5 af 7b 3d d9 28 60 3d
       0.026289664 0.110410646 0.061446983 0.054726455
000210 30 79 ca 3d 2e 12 7e 3a 0c 50 1a 3c 3f 6a 99 3d
       0.09886396 0.000969204 0.009418499 0.07490968
000220 16 50 97 3d 4b c5 fc 3c cd 0f 73 be e8 13 b5 be
       0.07388322 0.030855795 -0.23736496 -0.3536675
000230 82 d4 82 be 64 fe bd 3d 18 b5 dd 3d 93 1b 5b 3d
       -0.25552756 0.09277037 0.108255565 0.053493094
000240 cf 84 1d be 04 b6 08 3e 77 23 03 3d 4f 54 a0 3d
       -0.15382694 0.13350683 0.032016244 0.078285806
000250 ce b3 e5 3c 5a 79 f0 3d cc f1 d1 bc 39 a5 8d 3d
       0.02803984 0.11741896 -0.025627993 0.06916279
000260 73 7e ff 3c 4c 6d 7a bb a5 8a 2c bd da f5 e9 bc
       0.031188225 -0.0038212119 -0.04212441 -0.028559614
000270 83 30 c1 3d 04 41 8b 3d 66 43 d5 3d fa 2f 5c bb
       0.09433081 0.0679951 0.10413246 -0.0033597932
000280 23 73 93 3e ed 6f 87 3e fd fe 71 3e 9b f8 0f 3e
       0.2879878 0.2645258 0.23632427 0.14059679
000290 f5 76 8d 3e 63 b4 72 3e 75 f6 42 3e 9e 02 64 3e
       0.2762982 0.23701625 0.19039328 0.22266623
0002a0 e0 81 6c 3e 6a 55 6d 3e ae 12 2d 3e 6f ca 41 3e
       0.23096418 0.23177114 0.16901657 0.18924879
0002b0 87 b1 90 3e 6b 84 8e 3e 8b 4d 0d 3e ca 49 6f 3e
       0.28260443 0.27835402 0.13799112 0.23367992
0002c0 71 3c 95 3e e0 0c a3 3e bd 56 44 3e 82 b3 6a 3e
       0.29147676 0.3184576 0.19173713 0.2292004
0002d0 5f af 86 3e ba e1 81 3e 1a e9 9a 3e 5f 1f 3d 3e
       0.26305673 0.25367528 0.30255967 0.18468998
0002e0 db 58 bc 3d 4f 28 d5 3d ea 05 cd 3d b3 90 b0 3d
       0.09196635 0.10408079 0.10010894 0.08621349
0002f0 8e 4f 96 3e 13 cd 84 3e ad 30 a4 3e 61 ac a4 3e
       0.2935757 0.2593771 0.32068387 0.32162765
000300 b0 77 b0 3e 56 f9 7a 3e a8 44 25 3e 5d 2c 9d 3e
       0.34466314 0.24509177 0.16139472 0.3069791
000310 8b 39 90 3e ef 75 af 3e 7f 81 bd 3d 35 42 97 3e
       0.28168902 0.34269664 0.09253215 0.295427
000320 e8 77 94 3e 3c 66 92 3e f7 d0 7a 3e ab 69 9a 3e
       0.2899773 0.28593624 0.24493776 0.30158743
000330 54 15 5b 3e 76 9e 54 3d 62 2f 8e 3e bb e5 5f 3e
       0.21394855 0.051908933 0.27770525 0.21864979
000340 58 08 89 3e 5e 7f 45 3e 4a c2 55 3e 72 9b 23 3e
       0.26764178 0.19286868 0.20874897 0.15977266
000350 c5 51 95 3e f9 27 92 3e d7 c7 8f 3e bc bc 0d 3e
       0.29163948 0.28546122 0.28082153 0.13841528
000360 be fe 8c 3e d4 69 da 3d 19 32 3d 3e df 86 7a 3e
       0.27538103 0.10664716 0.18476142 0.24465512
000370 c4 ad 39 3e 2f 26 49 3e fc c2 88 3e 81 ed ab 3e
       0.18132693 0.19643472 0.2671126 0.3357964
000380 44 9d a9 3e c2 1e aa 3e 47 53 35 3e a6 36 ce 3c
       0.33127797 0.3322659 0.17707549 0.025172543
000390 5a 98 2d 3e 75 48 90 3e c6 26 8c 3e 1b a4 6a 3e
       0.16952649 0.2818028 0.27373332 0.22914164
0003a0 0a 8e a2 3d f3 45 2b 3e 38 1a 56 3e 55 b0 32 3e
       0.07937248 0.16725902 0.20908439 0.17450078
0003b0 38 9a 7a 3e f6 24 2e 3e 9e 36 ac 3e 00 a9 9a 3e
       0.24472892 0.17006287 0.3363542 0.30207062
0003c0 5d 92 ac be ba d6 97 be 84 94 ad be e6 96 8f be
       -0.33705416 -0.2965601 -0.3390237 -0.28044814
0003d0 9f c2 8f be 62 1a 9a be c7 88 39 be 5f c4 87 bd
       -0.28078172 -0.30098253 -0.18118583 -0.06629252
0003e0 c7 73 0d 3c 2b d5 06 bd 39 7a 60 bc 6f 85 11 bd
       0.0086335605 -0.032918137 -0.013701015 -0.035527643
0003f0 02 db 0d be c3 83 83 be ed 39 8b be 31 67 53 be
       -0.13853076 -0.25686464 -0.2719263 -0.20644833

fc1.bias f4 [100]
000000 77 0d 92 3b ef 96 ff bd e3 e8 14 be 94 9d f5 3d
       0.0044571715 -0.1247996 -0.14541964 0.11992946
000010 38 29 cc 3c 32 7f 92 be 4f 47 dc bd 08 b9 2e 3c
       0.024921998 -0.28612667 -0.107557885 0.010664232
000020 40 8b a8 be 7b 74 35 be 1a 80 12 3e ee d4 e9 bc
       -0.3291874 -0.17720215 0.1430668 -0.028543916
000030 60 f5 84 bd 9e ce ac bd ca 4f 60 be ec 97 28 be
       -0.06492114 -0.084378466 -0.21905437 -0.16464204
000040 b9 29 69 bd 26 ed 9d 3c 6a 7c 77 be 1b e2 66 be
       -0.056924555 0.01927812 -0.24168554 -0.2254719
000050 45 95 c4 bc 28 ed 4d bd 54 36 84 be 62 66 46 be
       -0.023996959 -0.050274998 -0.258227 -0.19374993
000060 28 a1 5d 3d 7f 44 0a be 9d 47 ee bd 06 d6 e2 bd
       0.05410877 -0.13502692 -0.11634753 -0.11075978
000070 83 1a 60 be 7a 8f 92 be 07 53 e8 bd 80 83 9c bd
       -0.21885113 -0.2862509 -0.11343961 -0.07642269
000080 1e 5e f3 bd d9 39 96 bd 4e 22 cf 3c 4c ed 4e bd
       -0.11883186 -0.07335252 0.025284912 -0.050519273
000090 f1 da f9 bd a0 8e fd bd 85 cf 2c be e1 c0 f0 bc
       -0.12199963 -0.12380719 -0.16876037 -0.029388847
0000a0 58 62 0a be f5 97 e1 bb cc 57 e3 bc 5c 50 42 3d
       -0.13514078 -0.00688457 -0.027751826 0.047439918
0000b0 09 58 1e 3e 84 4a 7c be 6b 00 78 3d 5e d6 37 3e
       0.1546327 -0.246378 0.060547274 0.17952868
0000c0 7c 02 4c bd b9 02 13 be 1d 5a b8 be cc f7 62 3d
       -0.049807057 -0.14356507 -0.3600625 0.0554121
0000d0 9a 34 8c be 1d cb 6e be 59 4d c9 bc 76 39 8d be
       -0.27383882 -0.23319669 -0.024573015 -0.27582902
0000e0 f0 70 6f be a7 06 31 be 91 ad 81 bc 08 47 59 bd
       -0.23382926 -0.17287694 -0.015829833 -0.053046256
0000f0 14 1d c6 bd 3f 25 c8 be 80 03 e1 3d 04 d9 46 3e
       -0.09673515 -0.39090917 0.10986996 0.19418722
000100 f8 3a 19 be 3f 1b cd bd 84 bb 38 be d0 04 6a 3d
       -0.14963901 -0.100149624 -0.18040282 0.057133496
000110 95 13 f8 bc 9f f6 aa be ae 08 91 be 6a d4 a4 bd
       -0.030282775 -0.33391282 -0.28326935 -0.08048327
000120 2c 16 66 be 38 d8 a3 be e5 21 78 be a5 84 aa be
       -0.22469395 -0.320009 -0.2423168 -0.33304325
000130 f5 cc 44 3d 65 6e bf bd 9c 3e 7c be 0e c4 3d 3e
       0.048047025 -0.09347228 -0.24633259 0.1853182
000140 41 b3 5e be eb 3f 5e 3d 8e 12 d3 bd ed 84 22 be
       -0.21748067 0.054260176 -0.103062734 -0.1587102
000150 ff 93 7e bc 18 30 a2 3d 0c 04 d7 3c c0 90 01 be
       -0.015538215 0.079193294 0.026247047 -0.12652874
000160 e1 e9 a8 bd 9f 38 42 bc 5a 15 b2 bb 37 d2 7f 3d
       -0.08247734 -0.01185432 -0.005434674 0.062456336
000170 47 2e aa be ed 0f 00 3e a6 34 7e be c7 c0 69 be
       -0.33238432 0.12506075 -0.24824771 -0.22827445
000180 c6 96 91 be 93 b1 65 3e 66 f9 47 3c 3f a2 43 be
       -0.28435344 0.2243102 0.012205457 -0.1910486

fc2.0.0.weight f4 [100, 100]
000000 40 bc 45 be db 25 67 be 0d cd fc 3d 02 6a ac 3e
       -0.19310093 -0.22573034 0.12343798 0.33674628
000010 9c b6 40 3e ff fb 56 be d4 41 a7 3e 6c 4f 34 be
       0.1881966 -0.20994566 0.3266741 -0.17608422
000020 03 5c 9a 3d 6e de 85 be 23 72 86 3e 26 7b 8f bd
       0.07537081 -0.26146263 0.26258954 -0.070059106
000030 d5 84 8b 3e fd 38 67 be 7b d1 d0 bd ef 01 53 3e
       0.2724978 -0.22580333 -0.10196205 0.20606206
000040 5b 11 d7 be da 60 3d be 21 56 cc be 4d e4 7c bd
       -0.4200543 -0.18493977 -0.3990946 -0.061741162
000050 4d 33 62 be c6 2b 3c be b4 bb 29 3e 31 76 5a 3e
       -0.22089882 -0.18376073 0.1657551 0.21334149
000060 6b 62 8c be 42 ac d2 bd 7c 16 65 3e e4 f2 5d 3e
       -0.27418837 -0.10286762 0.22371858 0.21674687
000070 a7 bd 9d 3e 34 7d 94 3e 83 56 0b 3d 83 2e 3f 3e
       0.30808756 0.29001772 0.03401805 0.18670087
000080 78 e1 3c 3e 1a 37 39 3e 3f 9c 7e bd 18 e6 07 3e
       0.18445385 0.18087426 -0.062160727 0.13271368
000090 9e 1d 9c 3d 1b 81 01 3d 33 1d bc 3c 58 e8 aa bd
       0.076228365 0.031617265 0.022963142 -0.08345097
0000a0 2d 74 2d be 3b 22 e3 3c f6 e5 07 3e ed c3 ff bc
       -0.16938849 0.027726283 0.13271317 -0.031221354
0000b0 6c 56 62 be 8e fd 75 3e 3c aa 61 3d 5d c4 1f bd
       -0.2210328 0.24022505 0.05509399 -0.039005626
0000c0 79 a7 61 3e 66 e0 ae 3d 62 2b 8b 3e b1 88 cc be
       0.22036542 0.08538894 0.27181536 -0.39948037
0000d0 df 77 a6 bd 8a 1b a0 3d 32 cc 83 3e 07 57 75 3e
       -0.08128332 0.07817753 0.25741726 0.2395898
0000e0 de 8a a6 3e 0c c0 37 3e 6d cc a0 3c 8e 49 15 3d
       0.32527822 0.17944354 0.019628728 0.0364471
0000f0 34 0d 32 bd b1 ae 87 3e 57 5c fc bc 6c c8 16 3d
       -0.043469623 0.26500466 -0.03080575 0.03681223
000100 1d 16 ad bd 9b ee 91 be 7e 80 2a 3c db 2a fe bd
       -0.084514834 -0.28502354 0.0104066115 -0.12410518
000110 59 ae a1 3e 0c 01 94 3e 11 fd 45 be 11 f3 3d 3d
       0.3157833 0.2890705 -0.19334818 0.046374384
000120 5e 1a 91 3d 33 74 89 3d 09 f6 03 3e 96 f3 9a 3e
       0.07085107 0.06711616 0.12886824 0.30263966
000130 df b1 b6 be db 14 51 be c8 ac 48 3e a4 2d ca 3d
       -0.3568258 -0.20418112 0.19597161 0.098719865
000140 29 80 9f 3d dc 5f 28 bd bf e0 8c bd 43 23 81 bd
       0.077881165 -0.041107044 -0.068788044 -0.06305554
000150 68 e5 f8 3d ca 05 ad 3d f0 b8 69 3e d0 ea 15 be
       0.12153131 0.0844837 0.22824454 -0.14640355
000160 25 dc 04 be 6a b1 0b be 24 e1 cd bd 80 24 80 be
       -0.12974603 -0.13641897 -0.10052708 -0.25027847
000170 ca 4e 89 3e a5 29 76 be 77 dd 49 3e 5a 48 93 bd
       0.26817924 -0.24039324 0.19713388 -0.07191534
000180 c3 fe 79 3e 0c ea 33 3e e6 fc 9a 3d 70 23 13 3e
       0.2441359 0.1756975 0.07567768 0.14368987
000190 80 ef 8c bd d1 47 3f bd 45 1b 52 3e ad fb 23 be
       -0.068816185 -0.04669935 0.20518215 -0.16013975
0001a0 65 a2 29 3e cc bf f3 bd 08 78 ab bd 4e cf cf bd
       0.16565855 -0.11901817 -0.083725035 -0.10146962
0001b0 a1 49 ff 3c 6c 8c f5 bd f8 72 7c 3e e8 66 48 be
       0.031163039 -0.11989674 0.24653232 -0.19570506
0001c0 0b 61 32 3d 0b b9 02 be 8b 3c 21 be 98 2d 87 be
       0.04354958 -0.12765901 -0.15745752 -0.26401973
0001d0 3f c1 b8 3d 4f 82 22 bd 29 78 7f be e4 ca fd bd
       0.09021234 -0.039675053 -0.24948181 -0.12392214
0001e0 20 98 81 be 01 20 93 bd 79 db 59 3e d9 6f ef bd
       -0.25311375 -0.07183839 0.21275128 -0.11691255
0001f0 3d 28 71 be a9 ca 6a bd cf 19 d1 bd a7 eb 60 3d
       -0.23550506 -0.057322178 -0.10210001 0.054912236
000200 9a bb 56 bd aa c7 0d be 95 b3 41 be e1 7e 60 be
       -0.052425005 -0.13845697 -0.18916161 -0.219234
000210 60 a2 ff bd 4e f7 b3 3d ed c4 72 be 7a c8 2d 3e
       -0.124821424 0.08787404 -0.23707934 0.16971007
000220 8e 24 97 3e 8e dc a8 bd 41 be 20 be f2 49 19 be
       0.29520077 -0.082451925 -0.15697576 -0.14969614
000230 53 30 8f be c0 fb 8e bb 03 ea a4 3d e8 5a 7f 3b
       -0.27966556 -0.004363507 0.08052447 0.0038964096
000240 99 7a 06 bd 1f f5 6e be 54 b9 bc 3c 90 e9 54 3d
       -0.032831762 -0.23335694 0.02303759 0.051980555
000250 d0 c4 ae 3c 9c 63 79 bd 5e 23 18 3e a4 96 b5 bc
       0.021334082 -0.06088601 0.14857242 -0.022166558
000260 84 be 45 be 49 5a 6e 3e 69 9e db 3a 6f fd cf bc
       -0.19310957 0.23276629 0.0016755584 -0.025389401
000270 3c 35 59 3e 58 94 91 3e 8a c2 09 be f3 ab ae 3d
       0.21211714 0.2843349 -0.13453117 0.085288905
000280 24 da 7e bd 78 e7 55 3e b6 6c 46 3e 02 79 e3 3c
       -0.062219754 0.2088908 0.19377407 0.027767662
000290 7a 9f eb bd bb df ae be d1 df 25 be 56 09 80 3d
       -0.11505027 -0.34155068 -0.1619866 0.06251781
0002a0 62 ab 13 3d 03 e0 bf bd 9f e0 37 3e 13 a0 fa 3d
       0.036052115 -0.09368899 0.1795678 0.12237563
0002b0 fc b8 ec 3d cd c1 44 be c8 43 14 be 20 ec 33 be
       0.115587205 -0.19214554 -0.14478981 -0.17570543
0002c0 ab 2a 9b be 2b 6f c6 bd d9 bc 27 3e 02 c3 6a 3e
       -0.3030599 -0.09689172 0.16380633 0.22925952
0002d0 d8 14 db bb 76 5c 15 3d 6c 86 40 3d 06 2b 2f 3d
       -0.0066858344 0.03646513 0.047003195 0.04276564
0002e0 12 f0 8d 3e 1a 6b 07 3e c1 4b 56 3e e0 f8 8e bd
       0.27722222 0.1322445 0.20927335 -0.06981063
0002f0 24 46 b7 3c 5c 3d 0f 3a e8 c8 d7 3c 7a 20 38 3d
       0.022372313 0.00054641603 0.026340917 0.044952847
000300 08 00 c2 3d 6c e3 00 3e d4 76 0e be 8a 98 4f be
       0.09472662 0.12586755 -0.13912517 -0.20273033
000310 9f 4f 2d 3e 44 fb ad bd 9d 59 89 3d a2 45 29 3e
       0.16924904 -0.08495191 0.067065455 0.16530469
000320 11 d2 b0 be bf f5 4f 3e b4 8a 71 be 54 c5 c1 bd
       -0.34535268 0.20308588 -0.23588067 -0.094614655
000330 f8 33 9b bd 2a 3c 24 be 42 98 e1 bd 42 b9 7d bd
       -0.075782716 -0.16038576 -0.11015369 -0.061944254
000340 9c cb 34 be 14 34 a0 be b1 27 f4 bd 7f fc 16 be
       -0.17655796 -0.31289732 -0.11921633 -0.14744757
000350 40 14 15 be 0f 9e 8f 3e be 05 87 be d6 eb 88 be
       -0.14558506 0.28050277 -0.26371568 -0.2674243
000360 91 8c 8a be 4c 14 2c be c3 c3 03 3e 52 b1 3a be
       -0.2706037 -0.16804618 0.12867646 -0.18231705
000370 04 dd 25 3e c8 56 8d be 59 a0 8e be eb c7 04 be
       0.16197592 -0.2760527 -0.2785671 -0.12966888
000380 c3 e4 26 be 66 b7 83 3e 37 d8 84 be 7f 0b 5c be
       -0.16298203 0.2572586 -0.2594621 -0.2148876
000390 6d b0 30 be 87 1f 5a be 8a 01 2b be 49 bb 30 be
       -0.17254801 -0.21301089 -0.16699806 -0.17258944
0003a0 cd 88 81 be d2 93 27 be 71 32 91 be 48 ae 17 be
       -0.25299683 -0.16364983 -0.28358796 -0.14812577
0003b0 a8 a9 5f bd b4 65 62 bd 42 f6 62 3e 09 4a d7 bd
       -0.054605156 -0.055272773 0.22164252 -0.10512168
0003c0 ba 6a 6d 3e 29 0c 6c 3d 05 0a 00 be 7a da 7f be
       0.23185244 0.057628784 -0.12503822 -0.24985686
0003d0 b9 61 44 3e e3 f1 2a be 28 49 15 3e 2a 3b 87 be
       0.19177903 -0.16693835 0.14578688 -0.26412326
0003e0 97 fa 23 be 50 0b 33 3e 54 ba 96 be 6a ab f3 bd
       -0.16013561 0.17484784 -0.29439032 -0.11897929
0003f0 76 9b 1a be fc 46 4c be f7 80 4c be 68 a7 5b be
       -0.15098366 -0.19948953 -0.19971071 -0.21450579

fc2.0.0.bias f4 [100]
000000 10 34 45 bd d1 e7 8b 3e 8d aa ac 3e 8f 14 6b be
       -0.048145354 0.273253 0.3372387 -0.22957061
000010 7b e9 32 3e 2a 87 87 be e7 34 4c 3e 32 ec 83 be
       0.17471878 -0.2647031 0.19942056 -0.2576614
000020 22 76 af be 17 d7 86 be bf ed 42 3e 6f bd 9a be
       -0.34269816 -0.26335976 0.19036005 -0.3022265
000030 19 99 aa 3e c1 b4 4c be 90 cd a7 be 75 28 34 3e
       0.3331993 -0.19990827 -0.3277402 0.17593558
000040 20 b2 16 be 3e 6b 3d be be cb 91 be d6 19 86 be
       -0.14716387 -0.18497941 -0.28475755 -0.26191586
000050 7a a8 5e be 8d 15 7d be fc ef 45 be 2b 0b 98 3e
       -0.21743956 -0.24715252 -0.19329828 0.2969602
000060 ba a4 d2 bd d4 a6 0c be 2c e8 96 3e d7 1b 8e 3e
       -0.10285325 -0.13735515 0.29474008 0.27755615
000070 ec cd 4e 3d 95 7f 9c be 6d 75 7d 3e b8 6a 97 3e
       0.05048935 -0.30566087 0.24751826 0.29573607
000080 c0 28 81 3e 54 dd 7d 3e 4c 64 0a be 9e 22 9d 3e
       0.25226402 0.24791461 -0.13514823 0.30690473
000090 59 64 9b 3e 40 e4 a8 3e 2f 08 40 be 28 a4 75 be
       0.30349997 0.3298664 -0.18753122 -0.23988402
0000a0 fb 16 24 be 13 c2 61 be 46 ff b2 3e 91 18 7d be
       -0.16024391 -0.2204669 0.34960383 -0.24716403
0000b0 da d1 a3 3e 48 ee af bd e2 d0 51 be d1 1a 4d 3e
       0.31996042 -0.085903704 -0.20489839 0.20029761
0000c0 9b d9 61 3e 84 bb 3d be 33 25 7a be 7a 2c 89 be
       0.22055666 -0.18528563 -0.24428253 -0.26791745
0000d0 d6 f6 ab be 49 ca 45 3a 90 ca a0 3e dd 3b 92 be
       -0.33586758 0.00075450965 0.31404543 -0.28561297
0000e0 3b ae 8d 3e 23 ac b2 be 45 fd aa be 27 a3 69 3e
       0.2767199 -0.34896955 -0.33396354 0.22816144
0000f0 1c cc 8c 3e 31 71 35 be 2a 04 7b be ab 79 f2 bd
       0.27499473 -0.1771896 -0.24513307 -0.118396126
000100 5d 04 91 3e bb 37 90 be d6 42 93 be 1b f3 9a be
       0.2832364 -0.2816752 -0.2876193 -0.302636
000110 0a 96 38 3e 0f 0f 36 be 87 60 72 be 98 73 b2 3e
       0.18025985 -0.17779182 -0.23669635 0.34853816
000120 d7 5b 84 3e f9 ff 61 be 19 f5 36 3e b8 a3 7b be
       0.25851318 -0.22070302 0.17866935 -0.24574172
000130 9b 09 95 be 21 90 37 be 05 03 5d 3e 2d 01 99 be
       -0.2910889 -0.17926075 0.21583183 -0.2988371
000140 dc d0 83 3e fe 98 b8 3e e1 42 b3 3e e0 3d b4 3e
       0.25745285 0.36054224 0.35011962 0.35203457
000150 18 31 9e be ae c4 7e bc 0b e4 b4 3e 4e de 57 be
       -0.3089683 -0.015549822 0.35330233 -0.21080896
000160 75 10 8f be eb 3c 32 be 1c f2 83 be ca b3 85 be
       -0.27942243 -0.17406051 -0.25770652 -0.2611373
000170 a2 9d 8c 3e 0e 52 93 be 50 78 38 be 06 d6 40 3e
       0.27464014 -0.2877354 -0.18014646 0.18831643
000180 3c d2 8a 3e 18 69 5a be fc bc 83 be eb 3d 80 3e
       0.2711352 -0.21329153 -0.2573012 0.2504724

fc2.1.0.weight f4 [100, 100]
000000 40 bc 45 be db 25 67 be 0d cd fc 3d 02 6a ac 3e
       -0.19310093 -0.22573034 0.12343798 0.33674628
000010 9c b6 40 3e ff fb 56 be d4 41 a7 3e 6c 4f 34 be
       0.1881966 -0.20994566 0.3266741 -0.17608422
000020 03 5c 9a 3d 6e de 85 be 23 72 86 3e 26 7b 8f bd
       0.07537081 -0.26146263 0.26258954 -0.070059106
000030 d5 84 8b 3e fd 38 67 be 7b d1 d0 bd ef 01 53 3e
       0.2724978 -0.22580333 -0.10196205 0.20606206
000040 5b 11 d7 be da 60 3d be 21 56 cc be 4d e4 7c bd
       -0.4200543 -0.18493977 -0.3990946 -0.061741162
000050 4d 33 62 be c6 2b 3c be b4 bb 29 3e 31 76 5a 3e
       -0.22089882 -0.18376073 0.1657551 0.21334149
000060 6b 62 8c be 42 ac d2 bd 7c 16 65 3e e4 f2 5d 3e
       -0.27418837 -0.10286762 0.22371858 0.21674687
000070 a7 bd 9d 3e 34 7d 94 3e 83 56 0b 3d 83 2e 3f 3e
       0.30808756 0.29001772 0.03401805 0.18670087
000080 78 e1 3c 3e 1a 37 39 3e 3f 9c 7e bd 18 e6 07 3e
       0.18445385 0.18087426 -0.062160727 0.13271368
000090 9e 1d 9c 3d 1b 81 01 3d 33 1d bc 3c 58 e8 aa bd
       0.076228365 0.031617265 0.022963142 -0.08345097
0000a0 2d 74 2d be 3b 22 e3 3c f6 e5 07 3e ed c3 ff bc
       -0.16938849 0.027726283 0.13271317 -0.031221354
0000b0 6c 56 62 be 8e fd 75 3e 3c aa 61 3d 5d c4 1f bd
       -0.2210328 0.24022505 0.05509399 -0.039005626
0000c0 79 a7 61 3e 66 e0 ae 3d 62 2b 8b 3e b1 88 cc be
       0.22036542 0.08538894 0.27181536 -0.39948037
0000d0 df 77 a6 bd 8a 1b a0 3d 32 cc 83 3e 07 57 75 3e
       -0.08128332 0.07817753 0.25741726 0.2395898
0000e0 de 8a a6 3e 0c c0 37 3e 6d cc a0 3c 8e 49 15 3d
       0.32527822 0.17944354 0.019628728 0.0364471
0000f0 34 0d 32 bd b1 ae 87 3e 57 5c fc bc 6c c8 16 3d
       -0.043469623 0.26500466 -0.03080575 0.03681223
000100 1d 16 ad bd 9b ee 91 be 7e 80 2a 3c db 2a fe bd
       -0.084514834 -0.28502354 0.0104066115 -0.12410518
000110 59 ae a1 3e 0c 01 94 3e 11 fd 45 be 11 f3 3d 3d
       0.3157833 0.2890705 -0.19334818 0.046374384
000120 5e 1a 91 3d 33 74 89 3d 09 f6 03 3e 96 f3 9a 3e
       0.07085107 0.06711616 0.12886824 0.30263966
000130 df b1 b6 be db 14 51 be c8 ac 48 3e a4 2d ca 3d
       -0.3568258 -0.20418112 0.19597161 0.098719865
000140 29 80 9f 3d dc 5f 28 bd bf e0 8c bd 43 23 81 bd
       0.077881165 -0.041107044 -0.068788044 -0.06305554
000150 68 e5 f8 3d ca 05 ad 3d f0 b8 69 3e d0 ea 15 be
       0.12153131 0.0844837 0.22824454 -0.14640355
000160 25 dc 04 be 6a b1 0b be 24 e1 cd bd 80 24 80 be
       -0.12974603 -0.13641897 -0.10052708 -0.25027847
000170 ca 4e 89 3e a5 29 76 be 77 dd 49 3e 5a 48 93 bd
       0.26817924 -0.24039324 0.19713388 -0.07191534
000180 c3 fe 79 3e 0c ea 33 3e e6 fc 9a 3d 70 23 13 3e
       0.2441359 0.1756975 0.07567768 0.14368987
000190 80 ef 8c bd d1 47 3f bd 45 1b 52 3e ad fb 23 be
       -0.068816185 -0.04669935 0.20518215 -0.16013975
0001a0 65 a2 29 3e cc bf f3 bd 08 78 ab bd 4e cf cf bd
       0.16565855 -0.11901817 -0.083725035 -0.10146962
0001b0 a1 49 ff 3c 6c 8c f5 bd f8 72 7c 3e e8 66 48 be
       0.031163039 -0.11989674 0.24653232 -0.19570506
0001c0 0b 61 32 3d 0b b9 02 be 8b 3c 21 be 98 2d 87 be
       0.04354958 -0.12765901 -0.15745752 -0.26401973
0001d0 3f c1 b8 3d 4f 82 22 bd 29 78 7f be e4 ca fd bd
       0.09021234 -0.039675053 -0.24948181 -0.12392214
0001e0 20 98 81 be 01 20 93 bd 79 db 59 3e d9 6f ef bd
       -0.25311375 -0.07183839 0.21275128 -0.11691255
0001f0 3d 28 71 be a9 ca 6a bd cf 19 d1 bd a7 eb 60 3d
       -0.23550506 -0.057322178 -0.10210001 0.054912236
000200 9a bb 56 bd aa c7 0d be 95 b3 41 be e1 7e 60 be
       -0.052425005 -0.13845697 -0.18916161 -0.219234
000210 60 a2 ff bd 4e f7 b3 3d ed c4 72 be 7a c8 2d 3e
       -0.124821424 0.08787404 -0.23707934 0.16971007
000220 8e 24 97 3e 8e dc a8 bd 41 be 20 be f2 49 19 be
       0.29520077 -0.082451925 -0.15697576 -0.14969614
000230 53 30 8f be c0 fb 8e bb 03 ea a4 3d e8 5a 7f 3b
       -0.27966556 -0.004363507 0.08052447 0.0038964096
000240 99 7a 06 bd 1f f5 6e be 54 b9 bc 3c 90 e9 54 3d
       -0.032831762 -0.23335694 0.02303759 0.051980555
000250 d0 c4 ae 3c 9c 63 79 bd 5e 23 18 3e a4 96 b5 bc
       0.021334082 -0.06088601 0.14857242 -0.022166558
000260 84 be 45 be 49 5a 6e 3e 69 9e db 3a 6f fd cf bc
       -0.19310957 0.23276629 0.0016755584 -0.025389401
000270 3c 35 59 3e 58 94 91 3e 8a c2 09 be f3 ab ae 3d
       0.21211714 0.2843349 -0.13453117 0.085288905
000280 24 da 7e bd 78 e7 55 3e b6 6c 46 3e 02 79 e3 3c
       -0.062219754 0.2088908 0.19377407 0.027767662
000290 7a 9f eb bd bb df ae be d1 df 25 be 56 09 80 3d
       -0.11505027 -0.34155068 -0.1619866 0.06251781
0002a0 62 ab 13 3d 03 e0 bf bd 9f e0 37 3e 13 a0 fa 3d
       0.036052115 -0.09368899 0.1795678 0.12237563
0002b0 fc b8 ec 3d cd c1 44 be c8 43 14 be 20 ec 33 be
       0.115587205 -0.19214554 -0.14478981 -0.17570543
0002c0 ab 2a 9b be 2b 6f c6 bd d9 bc 27 3e 02 c3 6a 3e
       -0.3030599 -0.09689172 0.16380633 0.22925952
0002d0 d8 14 db bb 76 5c 15 3d 6c 86 40 3d 06 2b 2f 3d
       -0.0066858344 0.03646513 0.047003195 0.04276564
0002e0 12 f0 8d 3e 1a 6b 07 3e c1 4b 56 3e e0 f8 8e bd
       0.27722222 0.1322445 0.20927335 -0.06981063
0002f0 24 46 b7 3c 5c 3d 0f 3a e8 c8 d7 3c 7a 20 38 3d
       0.022372313 0.00054641603 0.026340917 0.044952847
000300 08 00 c2 3d 6c e3 00 3e d4 76 0e be 8a 98 4f be
       0.09472662 0.12586755 -0.13912517 -0.20273033
000310 9f 4f 2d 3e 44 fb ad bd 9d 59 89 3d a2 45 29 3e
       0.16924904 -0.08495191 0.067065455 0.16530469
000320 11 d2 b0 be bf f5 4f 3e b4 8a 71 be 54 c5 c1 bd
       -0.34535268 0.20308588 -0.23588067 -0.094614655
000330 f8 33 9b bd 2a 3c 24 be 42 98 e1 bd 42 b9 7d bd
       -0.075782716 -0.16038576 -0.11015369 -0.061944254
000340 9c cb 34 be 14 34 a0 be b1 27 f4 bd 7f fc 16 be
       -0.17655796 -0.31289732 -0.11921633 -0.14744757
000350 40 14 15 be 0f 9e 8f 3e be 05 87 be d6 eb 88 be
       -0.14558506 0.28050277 -0.26371568 -0.2674243
000360 91 8c 8a be 4c 14 2c be c3 c3 03 3e 52 b1 3a be
       -0.2706037 -0.16804618 0.12867646 -0.18231705
000370 04 dd 25 3e c8 56 8d be 59 a0 8e be eb c7 04 be
       0.16197592 -0.2760527 -0.2785671 -0.12966888
000380 c3 e4 26 be 66 b7 83 3e 37 d8 84 be 7f 0b 5c be
       -0.16298203 0.2572586 -0.2594621 -0.2148876
000390 6d b0 30 be 87 1f 5a be 8a 01 2b be 49 bb 30 be
       -0.17254801 -0.21301089 -0.16699806 -0.17258944
0003a0 cd 88 81 be d2 93 27 be 71 32 91 be 48 ae 17 be
       -0.25299683 -0.16364983 -0.28358796 -0.14812577
0003b0 a8 a9 5f bd b4 65 62 bd 42 f6 62 3e 09 4a d7 bd
       -0.054605156 -0.055272773 0.22164252 -0.10512168
0003c0 ba 6a 6d 3e 29 0c 6c 3d 05 0a 00 be 7a da 7f be
       0.23185244 0.057628784 -0.12503822 -0.24985686
0003d0 b9 61 44 3e e3 f1 2a be 28 49 15 3e 2a 3b 87 be
       0.19177903 -0.16693835 0.14578688 -0.26412326
0003e0 97 fa 23 be 50 0b 33 3e 54 ba 96 be 6a ab f3 bd
       -0.16013561 0.17484784 -0.29439032 -0.11897929
0003f0 76 9b 1a be fc 46 4c be f7 80 4c be 68 a7 5b be
       -0.15098366 -0.19948953 -0.19971071 -0.21450579

fc2.1.0.bias f4 [100]
000000 10 34 45 bd d1 e7 8b 3e 8d aa ac 3e 8f 14 6b be
       -0.048145354 0.273253 0.3372387 -0.22957061
000010 7b e9 32 3e 2a 87 87 be e7 34 4c 3e 32 ec 83 be
       0.17471878 -0.2647031 0.19942056 -0.2576614
000020 22 76 af be 17 d7 86 be bf ed 42 3e 6f bd 9a be
       -0.34269816 -0.26335976 0.19036005 -0.3022265
000030 19 99 aa 3e c1 b4 4c be 90 cd a7 be 75 28 34 3e
       0.3331993 -0.19990827 -0.3277402 0.17593558
000040 20 b2 16 be 3e 6b 3d be be cb 91 be d6 19 86 be
       -0.14716387 -0.18497941 -0.28475755 -0.26191586
000050 7a a8 5e be 8d 15 7d be fc ef 45 be 2b 0b 98 3e
       -0.21743956 -0.24715252 -0.19329828 0.2969602
000060 ba a4 d2 bd d4 a6 0c be 2c e8 96 3e d7 1b 8e 3e
       -0.10285325 -0.13735515 0.29474008 0.27755615
000070 ec cd 4e 3d 95 7f 9c be 6d 75 7d 3e b8 6a 97 3e
       0.05048935 -0.30566087 0.24751826 0.29573607
000080 c0 28 81 3e 54 dd 7d 3e 4c 64 0a be 9e 22 9d 3e
       0.25226402 0.24791461 -0.13514823 0.30690473
000090 59 64 9b 3e 40 e4 a8 3e 2f 08 40 be 28 a4 75 be
       0.30349997 0.3298664 -0.18753122 -0.23988402
0000a0 fb 16 24 be 13 c2 61 be 46 ff b2 3e 91 18 7d be
       -0.16024391 -0.2204669 0.34960383 -0.24716403
0000b0 da d1 a3 3e 48 ee af bd e2 d0 51 be d1 1a 4d 3e
       0.31996042 -0.085903704 -0.20489839 0.20029761
0000c0 9b d9 61 3e 84 bb 3d be 33 25 7a be 7a 2c 89 be
       0.22055666 -0.18528563 -0.24428253 -0.26791745
0000d0 d6 f6 ab be 49 ca 45 3a 90 ca a0 3e dd 3b 92 be
       -0.33586758 0.00075450965 0.31404543 -0.28561297
0000e0 3b ae 8d 3e 23 ac b2 be 45 fd aa be 27 a3 69 3e
       0.2767199 -0.34896955 -0.33396354 0.22816144
0000f0 1c cc 8c 3e 31 71 35 be 2a 04 7b be ab 79 f2 bd
       0.27499473 -0.1771896 -0.24513307 -0.118396126
000100 5d 04 91 3e bb 37 90 be d6 42 93 be 1b f3 9a be
       0.2832364 -0.2816752 -0.2876193 -0.302636
000110 0a 96 38 3e 0f 0f 36 be 87 60 72 be 98 73 b2 3e
       0.18025985 -0.17779182 -0.23669635 0.34853816
000120 d7 5b 84 3e f9 ff 61 be 19 f5 36 3e b8 a3 7b be
       0.25851318 -0.22070302 0.17866935 -0.24574172
000130 9b 09 95 be 21 90 37 be 05 03 5d 3e 2d 01 99 be
       -0.2910889 -0.17926075 0.21583183 -0.2988371
000140 dc d0 83 3e fe 98 b8 3e e1 42 b3 3e e0 3d b4 3e
       0.25745285 0.36054224 0.35011962 0.35203457
000150 18 31 9e be ae c4 7e bc 0b e4 b4 3e 4e de 57 be
       -0.3089683 -0.015549822 0.35330233 -0.21080896
000160 75 10 8f be eb 3c 32 be 1c f2 83 be ca b3 85 be
       -0.27942243 -0.17406051 -0.25770652 -0.2611373
000170 a2 9d 8c 3e 0e 52 93 be 50 78 38 be 06 d6 40 3e
       0.27464014 -0.2877354 -0.18014646 0.18831643
000180 3c d2 8a 3e 18 69 5a be fc bc 83 be eb 3d 80 3e
       0.2711352 -0.21329153 -0.2573012 0.2504724

fc2.2.0.weight f4 [100, 100]
000000 40 bc 45 be db 25 67 be 0d cd fc 3d 02 6a ac 3e
       -0.19310093 -0.22573034 0.12343798 0.33674628
000010 9c b6 40 3e ff fb 56 be d4 41 a7 3e 6c 4f 34 be
       0.1881966 -0.20994566 0.3266741 -0.17608422
000020 03 5c 9a 3d 6e de 85 be 23 72 86 3e 26 7b 8f bd
       0.07537081 -0.26146263 0.26258954 -0.070059106
000030 d5 84 8b 3e fd 38 67 be 7b d1 d0 bd ef 01 53 3e
       0.2724978 -0.22580333 -0.10196205 0.20606206
000040 5b 11 d7 be da 60 3d be 21 56 cc be 4d e4 7c bd
       -0.4200543 -0.18493977 -0.3990946 -0.061741162
000050 4d 33 62 be c6 2b 3c be b4 bb 29 3e 31 76 5a 3e
       -0.22089882 -0.18376073 0.1657551 0.21334149
000060 6b 62 8c be 42 ac d2 bd 7c 16 65 3e e4 f2 5d 3e
       -0.27418837 -0.10286762 0.22371858 0.21674687
000070 a7 bd 9d 3e 34 7d 94 3e 83 56 0b 3d 83 2e 3f 3e
       0.30808756 0.29001772 0.03401805 0.18670087
000080 78 e1 3c 3e 1a 37 39 3e 3f 9c 7e bd 18 e6 07 3e
       0.18445385 0.18087426 -0.062160727 0.13271368
000090 9e 1d 9c 3d 1b 81 01 3d 33 1d bc 3c 58 e8 aa bd
       0.076228365 0.031617265 0.022963142 -0.08345097
0000a0 2d 74 2d be 3b 22 e3 3c f6 e5 07 3e ed c3 ff bc
       -0.16938849 0.027726283 0.13271317 -0.031221354
0000b0 6c 56 62 be 8e fd 75 3e 3c aa 61 3d 5d c4 1f bd
       -0.2210328 0.24022505 0.05509399 -0.039005626
0000c0 79 a7 61 3e 66 e0 ae 3d 62 2b 8b 3e b1 88 cc be
       0.22036542 0.08538894 0.27181536 -0.39948037
0000d0 df 77 a6 bd 8a 1b a0 3d 32 cc 83 3e 07 57 75 3e
       -0.08128332 0.07817753 0.25741726 0.2395898
0000e0 de 8a a6 3e 0c c0 37 3e 6d cc a0 3c 8e 49 15 3d
       0.32527822 0.17944354 0.019628728 0.0364471
0000f0 34 0d 32 bd b1 ae 87 3e 57 5c fc bc 6c c8 16 3d
       -0.043469623 0.26500466 -0.03080575 0.03681223
000100 1d 16 ad bd 9b ee 91 be 7e 80 2a 3c db 2a fe bd
       -0.084514834 -0.28502354 0.0104066115 -0.12410518
000110 59 ae a1 3e 0c 01 94 3e 11 fd 45 be 11 f3 3d 3d
       0.3157833 0.2890705 -0.19334818 0.046374384
000120 5e 1a 91 3d 33 74 89 3d 09 f6 03 3e 96 f3 9a 3e
       0.07085107 0.06711616 0.12886824 0.30263966
000130 df b1 b6 be db 14 51 be c8 ac 48 3e a4 2d ca 3d
       -0.3568258 -0.20418112 0.19597161 0.098719865
000140 29 80 9f 3d dc 5f 28 bd bf e0 8c bd 43 23 81 bd
       0.077881165 -0.041107044 -0.068788044 -0.06305554
000150 68 e5 f8 3d ca 05 ad 3d f0 b8 69 3e d0 ea 15 be
       0.12153131 0.0844837 0.22824454 -0.14640355
000160 25 dc 04 be 6a b1 0b be 24 e1 cd bd 80 24 80 be
       -0.12974603 -0.13641897 -0.10052708 -0.25027847
000170 ca 4e 89 3e a5 29 76 be 77 dd 49 3e 5a 48 93 bd
       0.26817924 -0.24039324 0.19713388 -0.07191534
000180 c3 fe 79 3e 0c ea 33 3e e6 fc 9a 3d 70 23 13 3e
       0.2441359 0.1756975 0.07567768 0.14368987
000190 80 ef 8c bd d1 47 3f bd 45 1b 52 3e ad fb 23 be
       -0.068816185 -0.04669935 0.20518215 -0.16013975
0001a0 65 a2 29 3e cc bf f3 bd 08 78 ab bd 4e cf cf bd
       0.16565855 -0.11901817 -0.083725035 -0.10146962
0001b0 a1 49 ff 3c 6c 8c f5 bd f8 72 7c 3e e8 66 48 be
       0.031163039 -0.11989674 0.24653232 -0.19570506
0001c0 0b 61 32 3d 0b b9 02 be 8b 3c 21 be 98 2d 87 be
       0.04354958 -0.12765901 -0.15745752 -0.26401973
0001d0 3f c1 b8 3d 4f 82 22 bd 29 78 7f be e4 ca fd bd
       0.09021234 -0.039675053 -0.24948181 -0.12392214
0001e0 20 98 81 be 01 20 93 bd 79 db 59 3e d9 6f ef bd
       -0.25311375 -0.07183839 0.21275128 -0.11691255
0001f0 3d 28 71 be a9 ca 6a bd cf 19 d1 bd a7 eb 60 3d
       -0.23550506 -0.057322178 -0.10210001 0.054912236
000200 9a bb 56 bd aa c7 0d be 95 b3 41 be e1 7e 60 be
       -0.052425005 -0.13845697 -0.18916161 -0.219234
000210 60 a2 ff bd 4e f7 b3 3d ed c4 72 be 7a c8 2d 3e
       -0.124821424 0.08787404 -0.23707934 0.16971007
000220 8e 24 97 3e 8e dc a8 bd 41 be 20 be f2 49 19 be
       0.29520077 -0.082451925 -0.15697576 -0.14969614
000230 53 30 8f be c0 fb 8e bb 03 ea a4 3d e8 5a 7f 3b
       -0.27966556 -0.004363507 0.08052447 0.0038964096
000240 99 7a 06 bd 1f f5 6e be 54 b9 bc 3c 90 e9 54 3d
       -0.032831762 -0.23335694 0.02303759 0.051980555
000250 d0 c4 ae 3c 9c 63 79 bd 5e 23 18 3e a4 96 b5 bc
       0.021334082 -0.06088601 0.14857242 -0.022166558
000260 84 be 45 be 49 5a 6e 3e 69 9e db 3a 6f fd cf bc
       -0.19310957 0.23276629 0.0016755584 -0.025389401
000270 3c 35 59 3e 58 94 91 3e 8a c2 09 be f3 ab ae 3d
       0.21211714 0.2843349 -0.13453117 0.085288905
000280 24 da 7e bd 78 e7 55 3e b6 6c 46 3e 02 79 e3 3c
       -0.062219754 0.2088908 0.19377407 0.027767662
000290 7a 9f eb bd bb df ae be d1 df 25 be 56 09 80 3d
       -0.11505027 -0.34155068 -0.1619866 0.06251781
0002a0 62 ab 13 3d 03 e0 bf bd 9f e0 37 3e 13 a0 fa 3d
       0.036052115 -0.09368899 0.1795678 0.12237563
0002b0 fc b8 ec 3d cd c1 44 be c8 43 14 be 20 ec 33 be
       0.115587205 -0.19214554 -0.14478981 -0.17570543
0002c0 ab 2a 9b be 2b 6f c6 bd d9 bc 27 3e 02 c3 6a 3e
       -0.3030599 -0.09689172 0.16380633 0.22925952
0002d0 d8 14 db bb 76 5c 15 3d 6c 86 40 3d 06 2b 2f 3d
       -0.0066858344 0.03646513 0.047003195 0.04276564
0002e0 12 f0 8d 3e 1a 6b 07 3e c1 4b 56 3e e0 f8 8e bd
       0.27722222 0.1322445 0.20927335 -0.06981063
0002f0 24 46 b7 3c 5c 3d 0f 3a e8 c8 d7 3c 7a 20 38 3d
       0.022372313 0.00054641603 0.026340917 0.044952847
000300 08 00 c2 3d 6c e3 00 3e d4 76 0e be 8a 98 4f be
       0.09472662 0.12586755 -0.13912517 -0.20273033
000310 9f 4f 2d 3e 44 fb ad bd 9d 59 89 3d a2 45 29 3e
       0.16924904 -0.08495191 0.067065455 0.16530469
000320 11 d2 b0 be bf f5 4f 3e b4 8a 71 be 54 c5 c1 bd
       -0.34535268 0.20308588 -0.23588067 -0.094614655
000330 f8 33 9b bd 2a 3c 24 be 42 98 e1 bd 42 b9 7d bd
       -0.075782716 -0.16038576 -0.11015369 -0.061944254
000340 9c cb 34 be 14 34 a0 be b1 27 f4 bd 7f fc 16 be
       -0.17655796 -0.31289732 -0.11921633 -0.14744757
000350 40 14 15 be 0f 9e 8f 3e be 05 87 be d6 eb 88 be
       -0.14558506 0.28050277 -0.26371568 -0.2674243
000360 91 8c 8a be 4c 14 2c be c3 c3 03 3e 52 b1 3a be
       -0.2706037 -0.16804618 0.12867646 -0.18231705
000370 04 dd 25 3e c8 56 8d be 59 a0 8e be eb c7 04 be
       0.16197592 -0.2760527 -0.2785671 -0.12966888
000380 c3 e4 26 be 66 b7 83 3e 37 d8 84 be 7f 0b 5c be
       -0.16298203 0.2572586 -0.2594621 -0.2148876
000390 6d b0 30 be 87 1f 5a be 8a 01 2b be 49 bb 30 be
       -0.17254801 -0.21301089 -0.16699806 -0.17258944
0003a0 cd 88 81 be d2 93 27 be 71 32 91 be 48 ae 17 be
       -0.25299683 -0.16364983 -0.28358796 -0.14812577
0003b0 a8 a9 5f bd b4 65 62 bd 42 f6 62 3e 09 4a d7 bd
       -0.054605156 -0.055272773 0.22164252 -0.10512168
0003c0 ba 6a 6d 3e 29 0c 6c 3d 05 0a 00 be 7a da 7f be
       0.23185244 0.057628784 -0.12503822 -0.24985686
0003d0 b9 61 44 3e e3 f1 2a be 28 49 15 3e 2a 3b 87 be
       0.19177903 -0.16693835 0.14578688 -0.26412326
0003e0 97 fa 23 be 50 0b 33 3e 54 ba 96 be 6a ab f3 bd
       -0.16013561 0.17484784 -0.29439032 -0.11897929
0003f0 76 9b 1a be fc 46 4c be f7 80 4c be 68 a7 5b be
       -0.15098366 -0.19948953 -0.19971071 -0.21450579

fc2.2.0.bias f4 [100]
000000 10 34 45 bd d1 e7 8b 3e 8d aa ac 3e 8f 14 6b be
       -0.048145354 0.273253 0.3372387 -0.22957061
000010 7b e9 32 3e 2a 87 87 be e7 34 4c 3e 32 ec 83 be
       0.17471878 -0.2647031 0.19942056 -0.2576614
000020 22 76 af be 17 d7 86 be bf ed 42 3e 6f bd 9a be
       -0.34269816 -0.26335976 0.19036005 -0.3022265
000030 19 99 aa 3e c1 b4 4c be 90 cd a7 be 75 28 34 3e
       0.3331993 -0.19990827 -0.3277402 0.17593558
000040 20 b2 16 be 3e 6b 3d be be cb 91 be d6 19 86 be
       -0.14716387 -0.18497941 -0.28475755 -0.26191586
000050 7a a8 5e be 8d 15 7d be fc ef 45 be 2b 0b 98 3e
       -0.21743956 -0.24715252 -0.19329828 0.2969602
000060 ba a4 d2 bd d4 a6 0c be 2c e8 96 3e d7 1b 8e 3e
       -0.10285325 -0.13735515 0.29474008 0.27755615
000070 ec cd 4e 3d 95 7f 9c be 6d 75 7d 3e b8 6a 97 3e
       0.05048935 -0.30566087 0.24751826 0.29573607
000080 c0 28 81 3e 54 dd 7d 3e 4c 64 0a be 9e 22 9d 3e
       0.25226402 0.24791461 -0.13514823 0.30690473
000090 59 64 9b 3e 40 e4 a8 3e 2f 08 40 be 28 a4 75 be
       0.30349997 0.3298664 -0.18753122 -0.23988402
0000a0 fb 16 24 be 13 c2 61 be 46 ff b2 3e 91 18 7d be
       -0.16024391 -0.2204669 0.34960383 -0.24716403
0000b0 da d1 a3 3e 48 ee af bd e2 d0 51 be d1 1a 4d 3e
       0.31996042 -0.085903704 -0.20489839 0.20029761
0000c0 9b d9 61 3e 84 bb 3d be 33 25 7a be 7a 2c 89 be
       0.22055666 -0.18528563 -0.24428253 -0.26791745
0000d0 d6 f6 ab be 49 ca 45 3a 90 ca a0 3e dd 3b 92 be
       -0.33586758 0.00075450965 0.31404543 -0.28561297
0000e0 3b ae 8d 3e 23 ac b2 be 45 fd aa be 27 a3 69 3e
       0.2767199 -0.34896955 -0.33396354 0.22816144
0000f0 1c cc 8c 3e 31 71 35 be 2a 04 7b be ab 79 f2 bd
       0.27499473 -0.1771896 -0.24513307 -0.118396126
000100 5d 04 91 3e bb 37 90 be d6 42 93 be 1b f3 9a be
       0.2832364 -0.2816752 -0.2876193 -0.302636
000110 0a 96 38 3e 0f 0f 36 be 87 60 72 be 98 73 b2 3e
       0.18025985 -0.17779182 -0.23669635 0.34853816
000120 d7 5b 84 3e f9 ff 61 be 19 f5 36 3e b8 a3 7b be
       0.25851318 -0.22070302 0.17866935 -0.24574172
000130 9b 09 95 be 21 90 37 be 05 03 5d 3e 2d 01 99 be
       -0.2910889 -0.17926075 0.21583183 -0.2988371
000140 dc d0 83 3e fe 98 b8 3e e1 42 b3 3e e0 3d b4 3e
       0.25745285 0.36054224 0.35011962 0.35203457
000150 18 31 9e be ae c4 7e bc 0b e4 b4 3e 4e de 57 be
       -0.3089683 -0.015549822 0.35330233 -0.21080896
000160 75 10 8f be eb 3c 32 be 1c f2 83 be ca b3 85 be
       -0.27942243 -0.17406051 -0.25770652 -0.2611373
000170 a2 9d 8c 3e 0e 52 93 be 50 78 38 be 06 d6 40 3e
       0.27464014 -0.2877354 -0.18014646 0.18831643
000180 3c d2 8a 3e 18 69 5a be fc bc 83 be eb 3d 80 3e
       0.2711352 -0.21329153 -0.2573012 0.2504724
