figs/model-downscaled/dropout/cnn0.3/cnn_model_dict.pt (torch, 163035 bytes, 10 tensors)

conv1.weight f4 [50, 3, 3]
0	0xc01ac421	-2.4182208
1	0xc03cf500	-2.9524536
2	0xbfba880c	-1.4572768
3	0x3fcf7475	1.6207415
4	0x4034f7fd	2.827636
5	0xbec1ff13	-0.3788992
6	0xbf75b63a	-0.9598118
7	0x3f17ea29	0.59341675
8	0x3ffde09a	1.9834168
9	0x3fee260b	1.860536
10	0x3fa7344c	1.3062835
11	0x3f377602	0.7166444
12	0xbf8d1853	-1.1023048
13	0xbfeff0cc	-1.874536
14	0xc025d6ca	-2.5912347
15	0x3f6d004c	0.9257858
16	0x3fccd3e9	1.600217
17	0xbfc3967c	-1.5280299
18	0xc01c9eb6	-2.447187
19	0xc0246b51	-2.56905
20	0xc02163ba	-2.5217118
21	0x4000eb75	2.0143712
22	0x4025c3b0	2.5900688
23	0x3f8fdf48	1.1240015
24	0xbf1ed4ae	-0.62043273
25	0xbe333bdf	-0.17503308
26	0x3e4c7a44	0.19968516
27	0x40118a7f	2.2740781
28	0x3fe3fb6e	1.7811105
29	0x3ff6176f	1.9225901
30	0xc0253faa	-2.5820107
31	0xc03fdcff	-2.9978635
32	0xc024f198	-2.5772457
33	0x3ff93b2f	1.9471186
34	0x3fce985b	1.6140245
35	0x40004f35	2.0048344
36	0x40207a90	2.5074806
37	0x4022dd70	2.5447655
38	0x402a1bc7	2.6579454
39	0xbee32b98	-0.44369197
40	0x3fd4059a	1.656421
41	0x3e18db70	0.14927459
42	0xbfb15bd5	-1.385615
43	0xbd9883bc	-0.07447001
44	0x3fffa459	1.997203
45	0x4006a92c	2.1040754
46	0x3fe7e892	1.811785
47	0x3f96e95b	1.1789964
48	0x40244a33	2.5670288
49	0xc05293d5	-3.290273
50	0xc0422a6d	-3.0338395
51	0x40011f03	2.0175178
52	0x3fe24a05	1.7678839
53	0x3fe5a65d	1.7941395
54	0x3f9b4dd1	1.2133123
55	0xbf4fa4e8	-0.81111
56	0xbfcab698	-1.5836973
57	0xc00aaa57	-2.1666467
58	0xbfa8daa4	-1.3191724
59	0xbfeda8bd	-1.856712
60	0xbf4278b0	-0.75965405
61	0x3f502be7	0.8131699
62	0x3fa0a6fc	1.255096
63	0x3fbe2000	1.4853516
64	0x3f9e9f49	1.239236
65	0x3fd76683	1.6828159
66	0xc02e5a3e	-2.724258
67	0xc0319713	-2.7748458
68	0xc0003c67	-2.0036867
69	0xc01182a0	-2.2735977
70	0xbded885e	-0.115982756
71	0xc0208b9f	-2.5085218
72	0xc0099d72	-2.1502347
73	0xbffb01d8	-1.9609938
74	0xbfecf00a	-1.8510754
75	0x3ec698b0	0.38788366
76	0x3ea386a6	0.31938666
77	0xbc983d76	-0.018583994
78	0xc02c3c78	-2.6911907
79	0xbfe23459	-1.7672225
80	0xbfc11297	-1.5083798
81	0x40300445	2.7502606
82	0x4027bb48	2.6208057
83	0x402e660d	2.7249787
84	0x3df41561	0.1191814
85	0x400d86d4	2.2113543
86	0x3edbd391	0.4293485
87	0xc006d11b	-2.1065128
88	0xbfa685da	-1.3009598
89	0x40079a5b	2.118796
90	0xbf0ba478	-0.54547834
91	0xbed33c6a	-0.4125703
92	0xbe13b001	-0.14422609
93	0xc00ddd0c	-2.2166166
94	0xbffd420d	-1.9785782
95	0xc023c9f1	-2.5592005
96	0xc002ebdc	-2.0456457
97	0xbfef4718	-1.8693571
98	0xbfeab14b	-1.8335356
99	0x3fb49960	1.4109306
100	0x3c82fa36	0.01598845
101	0xbf8634d8	-1.0484877
102	0x402f1ffe	2.7363276
103	0xc02bbb36	-2.6833014
104	0xc03d40a4	-2.9570704
105	0xbe039ba2	-0.12852338
106	0xc02df2d3	-2.7179458
107	0xc0155166	-2.3330932
108	0xbfa2d024	-1.271977
109	0xbfe07a4b	-1.7537321
110	0xbf0f74b7	-0.5603747
111	0x3ddd04eb	0.10791954
112	0xbf14ea94	-0.5817044
113	0xbe422889	-0.18960775
114	0xc02c132b	-2.68867
115	0xbf827bbc	-1.0194011
116	0xbfc62adc	-1.548183
117	0x4037ecbc	2.8738241
118	0x401dca2b	2.4654644
119	0x4027623b	2.6153705
120	0x3f398bd8	0.7247901
121	0x4011c4b1	2.27763
122	0x3fa75dfd	1.3075558
123	0xc008fd58	-2.1404629
124	0xbf9b2f55	-1.212382
125	0x3fe38b68	1.7776918
126	0x3ef7d49b	0.48404393
127	0xbfd2049d	-1.6407658
128	0xbff252d0	-1.8931522
129	0xbfdc3c9b	-1.7205995
130	0xbfef01be	-1.8672407
131	0xc011f20f	-2.280399
132	0xbffc9d2e	-1.9735467
133	0xbecc93a5	-0.39956394
134	0xbfaa249b	-1.3292421
135	0xbfc25a9a	-1.5183899
136	0xbf34bdc4	-0.7060206
137	0xbf1008bf	-0.56263345
138	0xc02ebcbb	-2.7302692
139	0xc012cdfa	-2.2938218
140	0x4037804b	2.8672054
141	0xc02e8130	-2.726635
142	0xc0228677	-2.539457
143	0xc012def3	-2.2948577
144	0xbfba066d	-1.4533211
145	0xbfc57288	-1.5425577
146	0x3f919b55	1.1375529
147	0xbfcd61bc	-1.6045451
148	0xc0362509	-2.8460104
149	0xc0317a61	-2.7730944
150	0xbfe4a6b3	-1.7863373
151	0xc04581ba	-3.086043
152	0xbf8a4538	-1.0802374
153	0x3f38a926	0.721331
154	0x3fb8f2f5	1.4449145
155	0x3fd5f21a	1.6714509
156	0xc0328816	-2.789556
157	0xc03524b9	-2.8303664
158	0xbf609d66	-0.8774017
159	0xbf16db56	-0.5892843
160	0xbf3c566c	-0.7356937
161	0xc02569be	-2.584579
162	0x3ff189f5	1.8870226
163	0xbf8c6ff0	-1.0971661
164	0xbfa027ac	-1.2512107
165	0xbffb8201	-1.9649049
166	0xc0123d99	-2.2850096
167	0xc03bd16f	-2.9346578
168	0x40224bf5	2.535886
169	0xc0346957	-2.8189294
170	0xc0437d88	-3.0545368
171	0xbfdf2a1d	-1.7434727
172	0xbf411ea7	-0.75437397
173	0xc017d45c	-2.3723364
174	0xbf79dcb7	-0.9760241
175	0x40043da2	2.0662618
176	0x400e0b62	2.2194448
177	0x3fd260d2	1.6435797
178	0x3f68656f	0.90779775
179	0x3c57f312	0.013180511
180	0xbef5f14f	-0.48035666
181	0xbfaa7092	-1.3315604
182	0xbf15d6d9	-0.58530957
183	0x3fe3462c	1.775579
184	0xc0147c9d	-2.3201058
185	0xbf192f4e	-0.59837806
186	0xc006e300	-2.107605
187	0xc012f9a2	-2.2964864
188	0xc037efa6	-2.874002
189	0x4036eebc	2.8583212
190	0x4032f31d	2.7960885
191	0x40257b05	2.5856335
192	0xbf0d2914	-0.55140805
193	0x4020746b	2.5071056
194	0x3fd6ebcc	1.679071
195	0xbfc50d28	-1.539464
196	0xbe3f1156	-0.18658957
197	0x403f2a1b	2.986945
198	0x40197a64	2.3980951
199	0x40419ce1	3.0252001
200	0x403013a7	2.7511995
201	0x3fb82d8d	1.4388901
202	0x400abb05	2.1676648
203	0x400146e9	2.019953
204	0xbfaa6321	-1.3311502
205	0xbff34fda	-1.9008744
206	0xbf8884b3	-1.0665497
207	0xbb0fb287	-0.002192648
208	0xbf1bbe9e	-0.60837734
209	0xbe16d704	-0.1473046
210	0xbf6dd58e	-0.92903984
211	0xc02c6c2c	-2.6941023
212	0xc022d3e5	-2.544183
213	0xbe08ec07	-0.13371287
214	0xbf03f73e	-0.51549137
215	0xbfacb2f6	-1.3492115
216	0xc01fd649	-2.497454
217	0xbfd78f14	-1.6840539
218	0xc00aa9d5	-2.1666157
219	0xbe576948	-0.21036255
220	0xbeeb2873	-0.45929298
221	0x3fd33a55	1.6502177
222	0xc00091fd	-2.0089104
223	0xc0103fff	-2.253906
224	0xbfcfec5c	-1.6244006
225	0xbfbaff47	-1.4609154
226	0x3fa6d3e5	1.3033415
227	0x4022d8b7	2.5444772
228	0xc03819e7	-2.876581
229	0xc027602c	-2.6152449
230	0x3f46d231	0.77664477
231	0x3ff7efc2	1.9370043
232	0x3fbd1bf3	1.4774154
233	0x3f84a1b8	1.0361853
234	0x4006c9b4	2.106061
235	0x3fd327b4	1.6496491
236	0x3fd4fc1c	1.6639438
237	0x40354529	2.8323462
238	0xc0441411	-3.0637248
239	0xc0440003	-3.0625007
240	0x3ffc4c80	1.9710846
241	0x3f8420f6	1.0322559
242	0x4003922d	2.0557969
243	0x3fd38b3d	1.6526867
244	0x3fb0a03b	1.3798898
245	0x400c3358	2.1906338
246	0xc011a9b9	-2.275984
247	0xc03cc4f8	-2.949522
248	0xc0403546	-3.0032516
249	0x3fc2197b	1.5164026
250	0x3fc67804	1.5505376
251	0x3ff89837	1.9421452
252	0x3e96fe41	0.29490855
253	0xbd2c827a	-0.04211662
254	0x3f874c65	1.0570189
255	0xbecec080	-0.4038124

conv1.bias f4 [50]
0	0xbe8ff668	-0.2811768
1	0xc01674f8	-2.3508892
2	0x4006b25d	2.1046364
3	0xc00a331a	-2.159369
4	0xbf5cc466	-0.8623718
5	0xbffa8677	-1.9572285
6	0xc018315d	-2.378013
7	0x3fa321d7	1.2744702
8	0xc021dca0	-2.529091
9	0xbe4ca01f	-0.19982956
10	0x3f8fec17	1.1243924
11	0xbfb70fd8	-1.430171
12	0xc0208ace	-2.508472
13	0xbeadc478	-0.33938956
14	0xbfeeb9bd	-1.8650433
15	0xbfea50b2	-1.8305876
16	0xbfc3efa1	-1.5307504
17	0x3fb67ad6	1.4256237
18	0xbf802e28	-1.0014086
19	0x403633c7	2.8469102
20	0xc0013d6b	-2.0193737
21	0xbf3f3609	-0.74691826
22	0xbedc56aa	-0.4303487
23	0xc0209b5e	-2.5094829
24	0xc0183061	-2.3779528
25	0xc0120469	-2.2815192
26	0xbfde05af	-1.7345484
27	0xbff79f1e	-1.9345434
28	0xc01974f5	-2.3977635
29	0x3fc1d44b	1.5142912
30	0x3f65d69f	0.8978061
31	0xc013a20f	-2.3067663
32	0xbf9ef83c	-1.2419505
33	0xc00b59fc	-2.1773672
34	0xc01fb722	-2.4955525
35	0xc0195215	-2.395635
36	0xc00f948b	-2.2434413
37	0xbf6f4bcb	-0.93475026
38	0xc026294f	-2.5962713
39	0xbf79376c	-0.9735019
40	0x402e3078	2.7217083
41	0x3eb2b8de	0.34906667
42	0xc0189c2f	-2.3845327
43	0xc01d32a6	-2.4562163
44	0x3e62790b	0.22116487
45	0xc0301607	-2.7513444
46	0xbd241ad2	-0.04006464
47	0x3f96e128	1.1787462
48	0xc024b5e0	-2.5736008
49	0xbfc7e4f5	-1.5616747

conv2.weight f4 [50, 50, 3]
0	0xc01f4730	-2.48872
1	0xc0219999	-2.5249999
2	0xc0047435	-2.0695927
3	0xbfe2df8e	-1.7724473
4	0xbfd19a84	-1.637528
5	0xbfd380b3	-1.6523651
6	0xbfff1d1c	-1.9930758
7	0xc007e759	-2.1234953
8	0xc00c41d2	-2.1915174
9	0xbfe9574e	-1.8229768
10	0xbfe0e846	-1.7570884
11	0xc003ecdf	-2.0613325
12	0xc001f33a	-2.0304704
13	0xc001cf55	-2.0282795
14	0xbffe5289	-1.9868938
15	0xc004ff48	-2.0780811
16	0xbffca54b	-1.9737943
17	0xc0019dd4	-2.025258
18	0xc000e710	-2.014103
19	0xc00516de	-2.0795207
20	0xc0084642	-2.1292882
21	0xc0089894	-2.1343126
22	0xc00530c4	-2.0811014
23	0xc0069198	-2.1026363
24	0xbfff27f6	-1.993407
25	0xc0048f60	-2.071251
26	0xc007a5c3	-2.1194923
27	0xc002e9f2	-2.045529
28	0xc00362e0	-2.0529099
29	0xc0030624	-2.0472498
30	0xbfff1229	-1.9927417
31	0xc0031190	-2.047947
32	0xc0075f78	-2.115202
33	0xc000634b	-2.0060604
34	0xc003cf16	-2.0595145
35	0xc007175f	-2.1108015
36	0xc00afda8	-2.171732
37	0xc009644d	-2.1467469
38	0xc00513b4	-2.0793276
39	0xc00670ef	-2.100643
40	0xc004d8e2	-2.0757375
41	0xbffdd5b3	-1.9830841
42	0xc002795b	-2.038657
43	0xc001af43	-2.0263221
44	0xc007f50f	-2.1243322
45	0xc008bd72	-2.1365628
46	0xc000e7fd	-2.0141594
47	0xc0085dbb	-2.1307209
48	0x3fdc0371	1.718855
49	0x40092d96	2.1434073
50	0x400abbc8	2.1677113
51	0xc0032e38	-2.049696
52	0xc001071b	-2.0160587
53	0xc004fca1	-2.0779192
54	0xc001394f	-2.0191228
55	0xc000bc18	-2.0114803
56	0xbffc487d	-1.9709622
57	0xc005283d	-2.080581
58	0xc0072816	-2.1118217
59	0xc005a579	-2.0882246
60	0xc009255c	-2.1429052
61	0xc009276c	-2.1430311
62	0xc002f81f	-2.046394
63	0xbffdb21c	-1.981998
64	0xc00410f0	-2.0635338
65	0xc001072e	-2.0160632
66	0xbffbf27a	-1.9683373
67	0xbffe1376	-1.9849689
68	0xc000151b	-2.0012882
69	0xbfe16fc6	-1.7612236
70	0xc0004941	-2.004471
71	0xc00a60d5	-2.1621602
72	0xc00813fc	-2.1262197
73	0xc004c07a	-2.0742478
74	0xc006d543	-2.1067665
75	0xbfecb630	-1.8493099
76	0xc002dafa	-2.0446153
77	0x40003d96	2.003759
78	0xc0002743	-2.0023963
79	0xbffd4600	-1.9786987
80	0xbfff24a8	-1.9933062
81	0xc002dafa	-2.0446153
82	0xbffa1383	-1.9537205
83	0xbff67d7d	-1.9257046
84	0xc0093c7a	-2.1443162
85	0xc000e5c3	-2.0140235
86	0xc0015172	-2.020596
87	0xbffd5ec5	-1.9794546
88	0xc004971b	-2.0717227
89	0xbffc88c9	-1.9729244
90	0xc0026749	-2.037554
91	0xc001d885	-2.0288403
92	0xc00e021c	-2.2188787
93	0x4008cda5	2.1375515
94	0x4000eafd	2.0143425
95	0x3ffd8031	1.9804746
96	0xc000d7d1	-2.0131724
97	0xbffc676c	-1.9719062
98	0xc003d6f3	-2.0599945
99	0xc004ddb1	-2.076031
100	0xc007b8f5	-2.120664
101	0xc002329d	-2.0343392
102	0xc003c1e2	-2.0587087
103	0xbff3dbf9	-1.9051505
104	0xc0006c94	-2.006627
105	0xc004d22c	-2.0753279
106	0xbffe3902	-1.9861147
107	0xc000c1e5	-2.0118344
108	0xc0065b3f	-2.0993192
109	0xc00786b7	-2.1175973
110	0xc0086d08	-2.1316547
111	0xc0055b13	-2.0836837
112	0xbffe51da	-1.9868729
113	0xc0046758	-2.0688076
114	0xc000eb7c	-2.0143728
115	0xc008e93b	-2.1392353
116	0xc00404a9	-2.0627844
117	0xbffed03d	-1.9907299
118	0xc00617c4	-2.0952005
119	0xc0062b07	-2.0963762
120	0xc004fc40	-2.077896
121	0xbffeb81e	-1.9899938
122	0xc00090cb	-2.0088375
123	0xc0083104	-2.1279917
124	0xc00584f5	-2.08624
125	0xc00655ea	-2.0989938
126	0xc00428d9	-2.0649931
127	0xc0034d4c	-2.0515928
128	0xc00839b0	-2.128521
129	0x400cab0f	2.1979406
130	0x40087807	2.132326
131	0x40059709	2.0873435
132	0xc002c017	-2.0429742
133	0xbfffb565	-1.9977232
134	0xc0074024	-2.1132898
135	0x40117bc6	2.2731795
136	0xbe10b2a5	-0.14130647
137	0xbfd98ef1	-1.6996747
138	0xc0052994	-2.0806627
139	0xbffbd91b	-1.967563
140	0xc0057a1a	-2.0855775
141	0xc0052422	-2.0803304
142	0xc00822db	-2.1271274
143	0xc00050d0	-2.0049324
144	0x3ffef7e9	1.9919406
145	0x3fed00bd	1.851585
146	0x3fed706c	1.8549933
147	0xc004498f	-2.0669897
148	0xbffedcd7	-1.9911145
149	0xbffa1193	-1.9536613
150	0xc0089bcf	-2.1345098
151	0xc00395b8	-2.056013
152	0xc006d4cc	-2.106738
153	0x3fffd303	1.9986271
154	0x400394cc	2.0559568
155	0xbfe51787	-1.7897805
156	0xc00e233a	-2.2209
157	0xc0092383	-2.1427925
158	0xc00f5bc8	-2.239977
159	0xbffa5407	-1.9556893
160	0xc000ab34	-2.0104494
161	0xc0026f08	-2.0380268
162	0xc00bbdf9	-2.18347
163	0xc010b51a	-2.2610536
164	0xc00e1fb7	-2.2206857
165	0xbff41878	-1.9069967
166	0xc008041a	-2.1252503
167	0xc0057535	-2.0852787
168	0xc007ca49	-2.1217215
169	0xc00e548b	-2.22391
170	0xc009b4dc	-2.1516638
171	0xc009dca3	-2.1540916
172	0xc006eaea	-2.108088
173	0xc00d9fc3	-2.212876
174	0xc0082170	-2.1270409
175	0xc0096b49	-2.1471732
176	0xc0036140	-2.0528107
177	0xc010398d	-2.2535126
178	0xc00c2cb2	-2.190228
179	0xc006a19b	-2.1036136
180	0xc00fd7ad	-2.2475388
181	0xc0078d50	-2.118
182	0xc00cd294	-2.2003527
183	0xc004d6da	-2.0756135
184	0xc0012196	-2.017675
185	0xc005d1b8	-2.0909252
186	0xc0029669	-2.0404303
187	0xc00b1b83	-2.1735542
188	0xc0062f51	-2.096638
189	0xc00951bc	-2.1456137
190	0xc00c36e9	-2.1908514
191	0xc0098312	-2.148625
192	0xc007fbdd	-2.1247475
193	0xc0084c44	-2.129655
194	0xc006c953	-2.1060379
195	0xbff62ed5	-1.9233042
196	0xbfebfca8	-1.843648
197	0xbff5e035	-1.9209048
198	0xbfebab99	-1.8411742
199	0xbff9a947	-1.9504784
200	0xbfe4f511	-1.7887288
201	0xc0077fbb	-2.117171
202	0xc0076df5	-2.1160862
203	0xc0074102	-2.1133428
204	0xc0022770	-2.033657
205	0xbff90023	-1.9453167
206	0xc0080a0b	-2.125613
207	0xc008be70	-2.1366234
208	0xc00fc7eb	-2.246577
209	0xc006768d	-2.1009858
210	0xc001f2ad	-2.0304368
211	0xc006cf34	-2.1063967
212	0xc006d928	-2.1070042
213	0xc00c7b50	-2.1950264
214	0xc00522bc	-2.080245
215	0xc0043b42	-2.0661168
216	0xc000ff8f	-2.015598
217	0xc0010af4	-2.0162935
218	0xbfe7bfc2	-1.8105395
219	0xc0016525	-2.0217984
220	0xbffe9f70	-1.9892406
221	0xc00298b8	-2.0405712
222	0xc0052679	-2.0804732
223	0xc00ab438	-2.1672497
224	0xc00456ca	-2.0677972
225	0xc0004a7e	-2.0045466
226	0xbff89b76	-1.9422443
227	0xbfd83a2a	-1.689275
228	0xbff9667a	-1.9484398
229	0xc00521f9	-2.0801985
230	0xc0042c35	-2.0651982
231	0xc0020f0c	-2.0321684
232	0xbfff4c5c	-1.9945178
233	0xc00393ed	-2.0559037
234	0xc008e1a3	-2.1387718
235	0xc00258f9	-2.0366805
236	0xc0075703	-2.1146858
237	0xc007a482	-2.1194158
238	0xc006458d	-2.097995
239	0xc007f5ec	-2.1243849
240	0xc0115540	-2.2708282
241	0xc00e2b7d	-2.2214043
242	0xc00f3668	-2.2376957
243	0xbfed8291	-1.8555471
244	0xc000b9cb	-2.01134
245	0x3f6725a7	0.9029183
246	0xc00f15bb	-2.2357013
247	0xc00e1916	-2.2202811
248	0xc00eef3b	-2.2333515
249	0xbff51c06	-1.9149177
250	0xc002c979	-2.043547
251	0xc003f397	-2.0617425
252	0xbff8abf8	-1.9427481
253	0xc001900e	-2.0244174
254	0xc0001d7d	-2.0017998
255	0xbff9a62e	-1.9503839

conv2.bias f4 [50]
0	0xc00c048f	-2.1877782
1	0xc0082977	-2.1275308
2	0xc00b0da8	-2.1727085
3	0xc00b6591	-2.1780741
4	0xc008de2d	-2.1385605
5	0xc00f13af	-2.2355764
6	0xc005592f	-2.0835683
7	0xc0047688	-2.0697346
8	0xc00462fa	-2.068541
9	0xc0115661	-2.2708972
10	0xc00478a6	-2.0698638
11	0xc006420f	-2.097782
12	0xc009a5d4	-2.1507463
13	0xc00d6473	-2.209256
14	0xc0059adf	-2.0875776
15	0xc00aaddd	-2.1668618
16	0xc0057e41	-2.085831
17	0xc00b9769	-2.1811163
18	0xc00e785d	-2.2260964
19	0xc00a7c8a	-2.1638513
20	0xc00d2196	-2.205175
21	0xc0083655	-2.1283162
22	0xc0064101	-2.0977175
23	0xc00d101b	-2.204108
24	0xc00ba481	-2.1819155
25	0xc00c478d	-2.191867
26	0xc0096da8	-2.147318
27	0xc00261d0	-2.03722
28	0xc00d76af	-2.2103689
29	0xc002f156	-2.04598
30	0xc00654c9	-2.0989249
31	0xc0080c2c	-2.125743
32	0xc00767d5	-2.1157124
33	0xc000d74d	-2.013141
34	0xc007ba41	-2.120743
35	0xc00745da	-2.1136384
36	0xc0065e90	-2.0995216
37	0xc007530d	-2.114444
38	0xc008ad08	-2.135561
39	0xc00a6cea	-2.1628976
40	0xc00158bf	-2.0210416
41	0xbfff387a	-1.993911
42	0xc0093579	-2.1438887
43	0xc00e7644	-2.2259684
44	0xc00f3dc5	-2.238145
45	0xc007f406	-2.124269
46	0xc0088c82	-2.133576
47	0xc008a54e	-2.1350894
48	0xc00c880d	-2.1958039
49	0xc030df78	-2.7636395

conv3.weight f4 [80, 50, 3]
0	0x3fef4775	1.8693682
1	0x3fef64fe	1.8702695
2	0x3fe2e7fe	1.7727048
3	0xc002d619	-2.0443175
4	0xc0027cdd	-2.038871
5	0xc002bb07	-2.0426652
6	0xc0001495	-2.0012562
7	0xbff83407	-1.9390877
8	0xbff2c58f	-1.896654
9	0x40004cce	2.0046878
10	0x3ff1265b	1.883983
11	0x4001b38d	2.026584
12	0xbfe8aea4	-1.8178296
13	0xbfed96f0	-1.8561687
14	0xbff59b2c	-1.918798
15	0xbff5eabe	-1.9212263
16	0xbff54215	-1.9160792
17	0xbffafe16	-1.9608791
18	0x400464c7	2.068651
19	0x4000ba26	2.0113616
20	0x4005d9f8	2.0914288
21	0x40016a9c	2.022132
22	0x40022ea0	2.0340958
23	0x40083c85	2.1286938
24	0x4005f86a	2.093287
25	0x40061ff7	2.095701
26	0x40050459	2.0783904
27	0xbff8bdf7	-1.9432973
28	0xbfff1cc4	-1.9930654
29	0xbffbc069	-1.9668094
30	0x400542ed	2.0822098
31	0x40017d49	2.0232718
32	0x4004550c	2.0676908
33	0x4003d073	2.0595977
34	0x4000e209	2.013796
35	0x400788cb	2.1177242
36	0x3c55062e	0.013001962
37	0x3d8b6e9e	0.06808208
38	0xbce9ab23	-0.028523987
39	0xc007993d	-2.118728
40	0xc0024772	-2.0356107
41	0xc005b0bf	-2.0889127
42	0xc003e5ba	-2.0608964
43	0xc005feb7	-2.0936716
44	0xc006ea25	-2.108041
45	0xc0238789	-2.5551474
46	0xc019b8e1	-2.401909
47	0xc022a932	-2.5415769
48	0x400c4712	2.1918378
49	0x400d4c92	2.2077985
50	0x4007c015	2.1210988
51	0xbffc242f	-1.9698542
52	0xbff96cd4	-1.9486337
53	0xbfffa9dc	-1.9973712
54	0xbf330d97	-0.6994261
55	0xbf196410	-0.5991831
56	0xbf261275	-0.64871913
57	0x3fbb1a7e	1.461746
58	0x3fcbd48e	1.5924242
59	0x3fbdc78f	1.4826525
60	0xbffab69b	-1.9586977
61	0xc000bc95	-2.0115101
62	0xbffbc907	-1.9670724
63	0x400be71e	2.1859813
64	0x400ab063	2.1670158
65	0x400a50e1	2.1611865
66	0x400b44ba	2.1760697
67	0x4005b1c8	2.088976
68	0x40085044	2.129899
69	0xbff86375	-1.9405352
70	0xbff95768	-1.9479799
71	0xbff48a17	-1.9104642
72	0xbfe3930e	-1.7779253
73	0xbfe6e029	-1.8037158
74	0xbfee7f18	-1.8632536
75	0xbff386db	-1.902553
76	0xc0013615	-2.018926
77	0xbff51b2c	-1.9148917
78	0xbffbbc2b	-1.9666799
79	0xbff4599d	-1.9089848
80	0xbfec040e	-1.8438737
81	0x3ffcc8d3	1.9748787
82	0x3fc3b968	1.5290956
83	0xbf238ed8	-0.6388984
84	0xbff7ccc4	-1.9359365
85	0xbfff6af8	-1.9954519
86	0xc001cb07	-2.0280168
87	0xc0061c75	-2.0954869
88	0xc003a3d0	-2.0568733
89	0xc003ee1f	-2.0614088
90	0xc00538a5	-2.0815823
91	0xc0066a7a	-2.1002488
92	0xc0085c14	-2.13062
93	0x40057e05	2.0858166
94	0x400b4a29	2.1764014
95	0x40052bdb	2.0808017
96	0x3ffb1470	1.9615612
97	0x3ffa06cc	1.9533324
98	0x3ffd0dab	1.9769796
99	0x40016818	2.0219784
100	0x40066c1a	2.100348
101	0x3ffd18b2	1.9773161
102	0x4000e193	2.013768
103	0x3fff12b0	1.9927578
104	0x4004bb83	2.0739448
105	0x4008bbf9	2.136473
106	0x4005fcfe	2.0935664
107	0x40034ece	2.0516849
108	0x40024cbe	2.035934
109	0x4006f375	2.1086094
110	0x40086195	2.130956
111	0xc0011fe8	-2.0175724
112	0xc0063442	-2.0969396
113	0xc0034eb9	-2.0516798
114	0xbffe08fb	-1.9846491
115	0xbff46835	-1.9094301
116	0xbffde8ee	-1.983671
117	0xbffca1ae	-1.9736841
118	0xc0061983	-2.095307
119	0xbffbe2ea	-1.9678624
120	0xbff939a6	-1.9470718
121	0xbfeeb82c	-1.8649955
122	0xbfcc0c9f	-1.5941352
123	0xc0089b13	-2.134465
124	0xbffe4af2	-1.9866621
125	0xbfff44df	-1.9942893
126	0xc0085d02	-2.1306767
127	0xc0051ffb	-2.080077
128	0x3ffdc820	1.9826698
129	0xbff73cd7	-1.9315442
130	0xbff463c1	-1.9092942
131	0xbfeb74a3	-1.839497
132	0xbfffb018	-1.9975615
133	0xc002bf08	-2.0429096
134	0xc003824d	-2.054828
135	0xbfff34b4	-1.9937959
136	0xc007ef3f	-2.1239774
137	0xc000eb18	-2.014349
138	0x40020daa	2.032084
139	0x40037db7	2.054548
140	0x400102bc	2.015792
141	0x40047953	2.069905
142	0x40039a63	2.056298
143	0x40088c02	2.1335454
144	0x3ce494b7	0.027902944
145	0x3e327267	0.17426454
146	0xbf4f769f	-0.81040376
147	0xbee3ee40	-0.44517708
148	0xbee2dd1e	-0.44309324
149	0x3d17dcbe	0.03707575
150	0xbfffeaf8	-1.9993582
151	0xc001deee	-2.0292315
152	0xc0019a27	-2.0250337
153	0xc0093346	-2.1437545
154	0xc008053e	-2.12532
155	0xbfffcf49	-1.9985133
156	0xc007979f	-2.1186292
157	0xc007f8b9	-2.1245558
158	0xc0044e16	-2.067266
159	0xc00897c0	-2.134262
160	0xc0087173	-2.1319244
161	0xc0070936	-2.1099372
162	0xc0043f97	-2.0663812
163	0xc0000a9b	-2.0006473
164	0xc00083fd	-2.008056
165	0xbfffe7a5	-1.9992567
166	0xc000f25b	-2.0147922
167	0xc0060f9c	-2.0947027
168	0xc0078fc6	-2.1181502
169	0xc0093951	-2.1441233
170	0xbffe47e4	-1.9865689
171	0xc00765b9	-2.1155837
172	0xc0055ff9	-2.0839827
173	0xc0082e0b	-2.1278102
174	0xc0066735	-2.1000493
175	0xbfffb5ee	-1.9977396
176	0xc003c6c8	-2.0590076
177	0x3d368b2c	0.04456632
178	0xc002ce4d	-2.0438416
179	0xbcfbe0e3	-0.030746883
180	0xc007e008	-2.1230488
181	0xc001b817	-2.026861
182	0xc0084c77	-2.129667
183	0x3c89c9eb	0.016819915
184	0xbff63f40	-1.9238052
185	0xc0048546	-2.0706344
186	0xc006062b	-2.0941265
187	0xc00457b1	-2.0678523
188	0xc006a7fd	-2.1040032
189	0xc002c9ee	-2.0435748
190	0xc00949b5	-2.1451237
191	0xc001bb37	-2.0270517
192	0xc0067b9e	-2.101295
193	0xbffe9ab4	-1.9890962
194	0xc0074c3e	-2.1140285
195	0xc008d19c	-2.1377935
196	0xc0034096	-2.050817
197	0xc000ea6d	-2.0143082
198	0xc00677cf	-2.1010625
199	0xbfff5d3a	-1.9950325
200	0xbffe6334	-1.9874024
201	0xc000df30	-2.0136223
202	0xc0045ff6	-2.068357
203	0xc0004634	-2.0042849
204	0xbfeffb39	-1.8748542
205	0x3ffa9dfa	1.9579461
206	0xc00342bd	-2.0509484
207	0xc003427d	-2.0509331
208	0xc0013a24	-2.0191736
209	0xc004903d	-2.0713036
210	0xc001b2c9	-2.0265372
211	0xc00295f0	-2.0404015
212	0xc006de85	-2.1073315
213	0xc0005768	-2.0053349
214	0xbffef379	-1.9918052
215	0xc002b166	-2.0420775
216	0xc004aace	-2.072925
217	0xc008575a	-2.1303315
218	0xc001a11c	-2.0254583
219	0xc00046d7	-2.0043237
220	0xc007287b	-2.1118457
221	0xc0048015	-2.0703175
222	0xbfffebb2	-1.9993804
223	0xc0089643	-2.1341712
224	0xc0077667	-2.1166017
225	0xc0037d7f	-2.0545347
226	0xc006d12c	-2.1065168
227	0xc0083d1b	-2.1287296
228	0xc00214af	-2.0325124
229	0xbfffa9b0	-1.997366
230	0xc0089aa3	-2.1344383
231	0xc0001182	-2.0010686
232	0xc004a07c	-2.0722952
233	0xc00209b2	-2.0318418
234	0xc0052ea8	-2.0809727
235	0xbfd043a5	-1.6270643
236	0xc0059016	-2.0869193
237	0xc00624e5	-2.0960019
238	0x40032456	2.0490928
239	0xc006bbe1	-2.1052172
240	0xc00715f1	-2.1107142
241	0xc0067906	-2.1011367
242	0xc005aab7	-2.0885446
243	0xc003c7c1	-2.059067
244	0xc0031ab4	-2.0485048
245	0xc002bc2b	-2.0427349
246	0xc0014c6f	-2.0202901
247	0xc002bc9d	-2.042762
248	0xc003f4ea	-2.0618234
249	0xc0052ad2	-2.0807385
250	0xc0020a03	-2.031861
251	0xc0035902	-2.0523076
252	0xbd06ec04	-0.032939926
253	0x3d568c96	0.052380167
254	0xc0028d35	-2.0398686
255	0xc002cdb4	-2.0438051

conv3.bias f4 [80]
0	0xc0052879	-2.0805953
1	0xc006f256	-2.108541
2	0xc009e0bb	-2.1543415
3	0xc0072817	-2.111822
4	0xc0060965	-2.0943234
5	0xc0072760	-2.1117783
6	0xc0058b39	-2.0866225
7	0xc0047f35	-2.070264
8	0xbff8de7c	-1.9442897
9	0xc005710b	-2.0850246
10	0xc001f1b7	-2.030378
11	0xc0003285	-2.0030835
12	0xbffdd704	-1.9831243
13	0xc0048937	-2.070875
14	0xc006f76e	-2.108852
15	0xc0020fe4	-2.03222
16	0xc004a0bf	-2.0723112
17	0xc00933c2	-2.143784
18	0xc0051908	-2.0796528
19	0xbf7ba5ba	-0.98299754
20	0xc0088f0e	-2.1337314
21	0xc001f899	-2.0307982
22	0xc0082416	-2.1272025
23	0xc003e929	-2.061106
24	0xc004da14	-2.0758104
25	0xc006a685	-2.1039135
26	0xc0045e03	-2.068238
27	0xc007733e	-2.1164088
28	0x4004b963	2.073815
29	0xc0071b44	-2.1110392
30	0xbfff89c1	-1.9963914
31	0xc006ef90	-2.1083717
32	0xc0073bab	-2.1130168
33	0xc002c2ac	-2.0431318
34	0xc00dfb66	-2.2184691
35	0xc003e543	-2.060868
36	0xc00206b6	-2.0316596
37	0xc00694f0	-2.1028404
38	0xc0095cb7	-2.1462839
39	0xc006fed3	-2.1093032
40	0xc00480ce	-2.0703616
41	0xc0061f19	-2.095648
42	0xbffc7af8	-1.9725027
43	0xc0046525	-2.0686734
44	0xc0043c47	-2.066179
45	0xc0001ff0	-2.0019493
46	0xc0055b7c	-2.0837088
47	0xc007cdb6	-2.1219306
48	0xc0075e46	-2.115129
49	0xc0051fca	-2.0800653
50	0xc0034ce8	-2.051569
51	0xc00743db	-2.1135166
52	0xc004d3cc	-2.075427
53	0xbffff4de	-1.9996603
54	0xc00a1d00	-2.15802
55	0xc006d676	-2.1068397
56	0xc007ab64	-2.1198359
57	0xc0035adc	-2.0524206
58	0xc0047841	-2.0698397
59	0xc006bf08	-2.1054096
60	0xbfe34c73	-1.7757705
61	0xc00c029b	-2.187659
62	0xc007b42c	-2.1203718
63	0xc0068455	-2.101827
64	0xc006ae54	-2.1043901
65	0xc009e27f	-2.1544492
66	0xc00351f6	-2.0518775
67	0xc00730d0	-2.1123543
68	0xc00962b9	-2.1466506
69	0xc006a1a7	-2.1036165
70	0xc003ab56	-2.0573325
71	0xc0017293	-2.022618
72	0xc0089013	-2.1337936
73	0xc0083860	-2.1284409
74	0xc0004963	-2.0044792
75	0xc0051c0c	-2.0798368
76	0xc0086285	-2.1310132
77	0xc0042a58	-2.0650845
78	0xbfe42164	-1.782269
79	0xc00012c4	-2.0011454

conv4.weight f4 [80, 80, 3]
0	0xc00b12c8	-2.1730213
1	0xc00780b0	-2.1172295
2	0xc0046e0e	-2.0692172
3	0x3d1d6a9b	0.038431745
4	0xbc2bd0ef	-0.010486825
5	0x3cb40db6	0.021979194
6	0x3c69d0bf	0.01427096
7	0xbd7f655c	-0.062352523
8	0xc008c34e	-2.1369205
9	0xbc2ce45c	-0.010552492
10	0x3d1b87ed	0.037971426
11	0x3cc8e764	0.024524398
12	0xbd32538c	-0.043536708
13	0x3d4dda79	0.05025718
14	0xbd1a8ddc	-0.037732944
15	0xbd1cf3fa	-0.03831861
16	0xbaec8086	-0.0018043674
17	0xbd335809	-0.04378513
18	0x3d6f86f3	0.058478307
19	0x3d1eb5f6	0.03874775
20	0x3d076e71	0.03306431
21	0xbc61d166	-0.013782835
22	0x3d3ed803	0.046592724
23	0xbd555b1b	-0.052088838
24	0xbd0c4e0a	-0.03425411
25	0xbc93a119	-0.018021153
26	0x3c643241	0.013927997
27	0xc009f0d7	-2.1553247
28	0x3c957c5e	0.01824778
29	0xbc079f79	-0.008277767
30	0x3d0a608d	0.033783484
31	0x3d09ed4f	0.03367358
32	0xbb5fdfff	-0.0034160612
33	0x3c8450a3	0.016151732
34	0xbcdb704e	-0.02678695
35	0x3d12fd50	0.03588611
36	0xbb540f47	-0.0032357739
37	0x3d717067	0.058945086
38	0x3c8a086e	0.016849723
39	0xc0044533	-2.0667236
40	0xc00b6eda	-2.1786408
41	0x3a5db92d	0.00084580743
42	0x3d2aafd8	0.041671604
43	0xbd708dae	-0.058728866
44	0xbd4ac555	-0.049504597
45	0x3c44593f	0.011984169
46	0x3cfb5abc	0.030682914
47	0x3c8ac7ce	0.016940977
48	0xc0044124	-2.0664759
49	0xbce8759c	-0.028376393
50	0xbd37a1da	-0.044832088
51	0xbd651ef0	-0.055937707
52	0xbb2b81f8	-0.0026169997
53	0x3bdd929a	0.006761861
54	0xbc8cf23e	-0.017205354
55	0x3d0d1f47	0.034453657
56	0x3cc5281f	0.024066983
57	0xbd43f4e5	-0.04784097
58	0xbd255df9	-0.040372822
59	0xbd134515	-0.035954554
60	0x3ca1c249	0.019745963
61	0x3cc63656	0.024195831
62	0xbcf1b9ee	-0.029507603
63	0x3d4f7c53	0.050655674
64	0x3c1ff362	0.009762617
65	0xbcb41090	-0.021980554
66	0xbd1fa083	-0.038971435
67	0x3d4ed9b8	0.0505006
68	0xbca5a191	-0.020218642
69	0xbd19decc	-0.03756599
70	0x3d1b8f9c	0.037978753
71	0xbd7fae46	-0.06242206
72	0xc0069ee4	-2.103448
73	0xc00a3ed9	-2.160086
74	0xbd3639de	-0.04448878
75	0xbd707bdf	-0.058711883
76	0xbb9f2665	-0.004856872
77	0x3bcbef37	0.006223585
78	0x3c5d7d00	0.013518572
79	0x3c8af741	0.016963603
80	0x3b85f15e	0.004087611
81	0x3c94b2cb	0.018151661
82	0x3d22b592	0.03972394
83	0xbc8d8380	-0.017274618
84	0x3d1ac53a	0.037785746
85	0xbc68f155	-0.014217694
86	0xbca700a1	-0.020386042
87	0xc0059ecf	-2.087818
88	0xc0085f2a	-2.1308084
89	0xbc428bcd	-0.011874151
90	0xc004b871	-2.0737574
91	0xc00b9898	-2.1811886
92	0xc00a4fee	-2.1611285
93	0xc0057e39	-2.085829
94	0xc00982fb	-2.1486194
95	0x3c4c4071	0.012466536
96	0xbb770984	-0.003769488
97	0x3cb589d4	0.022160448
98	0x3ca8f546	0.020624768
99	0x3cda4bae	0.026647415
100	0xbcfd33f4	-0.030908562
101	0xbd70d47e	-0.0587964
102	0xbd6f80ad	-0.058472324
103	0xbc4154bc	-0.011799987
104	0xbd0790a5	-0.03309693
105	0xc0097ebb	-2.14836
106	0xc00b26d0	-2.174244
107	0xc00611b2	-2.09483
108	0xbbb5fb15	-0.005553613
109	0x3cafc18d	0.021454597
110	0x3c05a62b	0.008157293
111	0xc0051911	-2.079655
112	0x3d07617b	0.03305195
113	0x3cb092ab	0.021554312
114	0x3bb6ee01	0.0055825715
115	0x3cb757dd	0.022380764
116	0xbcb19a7e	-0.021680113
117	0xbc0232ae	-0.007946653
118	0x3d1574f7	0.0364885
119	0xbca4c44d	-0.020113135
120	0x3c8e10e4	0.017342038
121	0x3bd759e0	0.006571993
122	0xbd13fc11	-0.03612906
123	0xc0045c18	-2.068121
124	0xc00afd94	-2.1717272
125	0x3d6feb50	0.05857402
126	0xba9b8d98	-0.001186776
127	0xbd3c7d2c	-0.04601781
128	0x3be13f90	0.0068740323
129	0xbc2daa57	-0.010599694
130	0x3c9b4c7a	0.018957365
131	0x3c74e091	0.014946119
132	0xbc9518a0	-0.018200219
133	0xbc6fc3ca	-0.014634082
134	0xbcc08f99	-0.023505973
135	0xc007c7f6	-2.1215796
136	0xbc5cd4de	-0.013478486
137	0x3c8db656	0.017298859
138	0xbc445a28	-0.011984386
139	0x3d030572	0.031987615
140	0x3d292d91	0.04130322
141	0xbd72cda5	-0.05927815
142	0xbd779bca	-0.060451306
143	0x3b96c027	0.004600543
144	0xbc5c181b	-0.013433482
145	0x3d550091	0.052002493
146	0xbcf777d1	-0.0302085
147	0xbd3b0dfc	-0.045667633
148	0x3d110966	0.035409354
149	0x3c57a7d7	0.013162575
150	0xbcaa4efc	-0.020789616
151	0xbba48295	-0.0050204494
152	0xbc3fdadf	-0.011709898
153	0x3d43e851	0.047828976
154	0xbc858101	-0.016296865
155	0xbd2676de	-0.040640704
156	0xc005a02c	-2.087901
157	0xc007ebd7	-2.1237695
158	0x3d47d867	0.04879036
159	0xbaf36e0b	-0.0018572224
160	0xbccd5492	-0.02506474
161	0x3c331238	0.010929637
162	0xbd06482c	-0.032783672
163	0xbd438de7	-0.04774275
164	0xbc5dd4a0	-0.013539463
165	0xbc9dce8f	-0.019263534
166	0xbd34e66a	-0.044165052
167	0xbcbb87bc	-0.022891872
168	0xc007673d	-2.1156762
169	0xbcc4135a	-0.023935009
170	0xbd64c946	-0.05585601
171	0x3b8d8e62	0.004319952
172	0xbd6e022e	-0.058107547
173	0xbaa2cf7a	-0.0012421452
174	0xc00a49d9	-2.1607573
175	0xbd1e4d5f	-0.038648006
176	0xbc83a838	-0.016071424
177	0x3d09dcf6	0.03365799
178	0x3d3367ca	0.043800153
179	0x3c8cd8b8	0.017193183
180	0x3d151495	0.03639658
181	0x3d7b2c95	0.061321814
182	0xbd6badab	-0.05753867
183	0xbd25fa6c	-0.040522024
184	0x3d201342	0.039080866
185	0x3d10629c	0.03525029
186	0x3d1f4cf1	0.038891736
187	0x3d12c55a	0.03583274
188	0xbd771305	-0.060320873
189	0xc00a7066	-2.1631103
190	0x3d3d2305	0.046175975
191	0x3bc1b6bc	0.005911676
192	0xc007bf48	-2.12105
193	0x3c37b143	0.011211696
194	0x3d53c6f3	0.051703405
195	0xc0071857	-2.1108606
196	0xc0087aa4	-2.1324854
197	0xc006a7c3	-2.1039894
198	0xbd10a67b	-0.03531502
199	0xbcb2b37f	-0.021814106
200	0xbbf76944	-0.0075503904
201	0xc007100a	-2.110354
202	0xbbe41ac6	-0.0069611995
203	0xbd204540	-0.039128542
204	0x3d429d76	0.047513448
205	0xbc8adac9	-0.016950028
206	0xbb25040a	-0.002517941
207	0xc008f9d7	-2.140249
208	0xbd62ca68	-0.05536881
209	0xbd2f7e07	-0.0428448
210	0x3bea5a58	0.007151883
211	0x3d71b950	0.05901462
212	0xbd6db120	-0.058030248
213	0xbaf68404	-0.0018807654
214	0xbd759243	-0.05995394
215	0xbd18585c	-0.03719364
216	0xc00505fa	-2.0784898
217	0xc00835f0	-2.128292
218	0xc0070d21	-2.1101763
219	0xbd1ecc49	-0.03876904
220	0x3d53e53f	0.051732298
221	0xbc420e4a	-0.011844227
222	0xbd29ea6a	-0.04148332
223	0x3d5c4c59	0.05378375
224	0x3ba96124	0.005169051
225	0xbcb2674c	-0.021777771
226	0xbd3e5c1e	-0.04647457
227	0x3d7bdc88	0.061489612
228	0xbc84a34c	-0.016191147
229	0xbd738ddc	-0.05946146
230	0x3d670af6	0.056406938
231	0xc004dfd4	-2.0761614
232	0xc004b15e	-2.0733256
233	0xbd34fa0b	-0.044183772
234	0xbd2924d5	-0.04129489
235	0xc0088335	-2.1330082
236	0xb8f7e97b	-0.00011821367
237	0xbd371003	-0.044693004
238	0x3bce68fb	0.0062991357
239	0xbd4c28c4	-0.049843565
240	0xc0042d39	-2.0652602
241	0xc0046ba8	-2.0690708
242	0xc0069e75	-2.1034214
243	0xc0022733	-2.0336425
244	0xbffd7415	-1.980105
245	0xbffa5568	-1.9557314
246	0xbfff13fd	-1.9927975
247	0xbffff209	-1.9995738
248	0xc002e96f	-2.0454977
249	0xc001497d	-2.0201104
250	0xc0042e5f	-2.0653303
251	0xc00132aa	-2.0187173
252	0xc006e11c	-2.1074896
253	0xc0040e35	-2.0633671
254	0xc001e7ba	-2.0297685
255	0xc0064789	-2.0981162

conv4.bias f4 [80]
0	0xc00ac625	-2.1683438
1	0xbf8b196e	-1.0867136
2	0xbff3ca52	-1.9046118
3	0xc0137723	-2.3041465
4	0xbfb9568b	-1.4479536
5	0xbfb0134c	-1.3755889
6	0xc00a1033	-2.1572387
7	0xc00aa074	-2.1660433
8	0x3fde4efc	1.7367854
9	0xc0112161	-2.2676623
10	0xc0045ee2	-2.0682912
11	0xc002e7aa	-2.0453897
12	0xc009a9bc	-2.1509848
13	0xc00ad7fa	-2.1694322
14	0x3fb7cfce	1.4360292
15	0xc0053c8c	-2.0818205
16	0xbfbac697	-1.4591855
17	0xc0021223	-2.032357
18	0x4000cea0	2.0126114
19	0xc001e779	-2.029753
20	0xc0031a3a	-2.0484757
21	0xbfc57923	-1.5427593
22	0xc00246e6	-2.0355773
23	0xc01878a0	-2.3823624
24	0xbfb1b8ef	-1.3884562
25	0xc00ba693	-2.182042
26	0xc0082176	-2.1270423
27	0xc0005c28	-2.0056248
28	0x3ec05756	0.37566632
29	0xc00704d4	-2.1096697
30	0xbfe6ae3e	-1.8021924
31	0xbff15b9f	-1.8856086
32	0xc00ac1d2	-2.1680799
33	0xc0070ef7	-2.1102884
34	0xc007b1de	-2.1202312
35	0xbf026274	-0.5093148
36	0x3f82d080	1.0219879
37	0xc002f42a	-2.0461526
38	0xbffa1e21	-1.9540445
39	0xc0043944	-2.0659952
40	0x3ff7274e	1.930887
41	0xc00acabd	-2.1686242
42	0xc00aff2b	-2.1718242
43	0xc00365d7	-2.0530908
44	0x3e37931f	0.17927216
45	0xbf9ac098	-1.2090025
46	0xc009d80b	-2.1538112
47	0xc0092acb	-2.1432369
48	0xbfb2daa9	-1.397298
49	0xc0018ca9	-2.0242102
50	0xc003c290	-2.0587502
51	0xbfa23574	-1.2672563
52	0xbfdc5484	-1.7213292
53	0xc0053c0c	-2.08179
54	0xc00af134	-2.1709719
55	0xc001bfd1	-2.0273325
56	0xc007b4a7	-2.1204011
57	0xc00d1eed	-2.2050126
58	0xc002dca2	-2.0447164
59	0xc01188ec	-2.273982
60	0xbfc299e1	-1.520321
61	0xc0077fd2	-2.1171765
62	0xbfbea18b	-1.4893049
63	0xbd6de3d5	-0.058078606
64	0x3f4751f8	0.7785945
65	0xbffcf086	-1.9760902
66	0xc0116000	-2.2714844
67	0xc00a8d57	-2.1648767
68	0xc0080627	-2.1253755
69	0xc007bb54	-2.1208086
70	0xc0091c0e	-2.1423373
71	0xbfdd48be	-1.7287824
72	0xbfaef5cd	-1.3668762
73	0xc00f43c5	-2.2385113
74	0xbfb0d889	-1.3816081
75	0xbfdfed38	-1.7494268
76	0xc004cb35	-2.0749028
77	0xc0092d76	-2.1433997
78	0xc0091586	-2.1419387
79	0xc00fda62	-2.247704

linear.weight f4 [6, 80]
0	0xc003ca77	-2.0592325
1	0x3fe37ca9	1.7772418
2	0x40091072	2.1416287
3	0x4008dad4	2.1383562
4	0x3f676ec0	0.90403366
5	0xbfab8b42	-1.3401873
6	0x3fe7ecfe	1.8119199
7	0x3ff44fc3	1.9086841
8	0xbf98f65f	-1.1950186
9	0xc00900bc	-2.1406698
10	0xc007a718	-2.1195736
11	0xc0036fe0	-2.0537033
12	0xc00d336c	-2.2062635
13	0x4001342d	2.0188096
14	0xbf9c660b	-1.2218641
15	0xc00cc8ec	-2.1997633
16	0x3fdbac28	1.7161913
17	0x3fd4cf90	1.6625843
18	0x3fb22f4e	1.3920686
19	0xc0088ad6	-2.1334739
20	0xbffe4c52	-1.9867041
21	0x3fbb22aa	1.4619954
22	0xc00b389e	-2.1753306
23	0x3f092090	0.5356531
24	0xbfcfe4b6	-1.6241672
25	0x3f42edf0	0.76144314
26	0xbff3f9a0	-1.9060555
27	0xc005186d	-2.0796158
28	0xbf212493	-0.6294643
29	0xc0065b0b	-2.0993068
30	0xbfae2888	-1.3606119
31	0xbfd646a3	-1.6740307
32	0x3fe6f026	1.8042037
33	0xc005fbd1	-2.0934947
34	0xc003cb3c	-2.0592794
35	0x3f825d6a	1.0184758
36	0x3e07eaa6	0.13273105
37	0xc007f5bf	-2.1243742
38	0xc000fa9c	-2.015296
39	0x3ff80c62	1.9378779
40	0x3fb8902f	1.4419001
41	0xc000b7e9	-2.011225
42	0xbfeaa94d	-1.8332916
43	0x40022dc8	2.0340443
44	0xbf9eb867	-1.2400025
45	0x3f064b66	0.524588
46	0xbfffd566	-1.9986999
47	0x40066c24	2.1003504
48	0xbffc005b	-1.9687608
49	0xc00a0cb3	-2.157025
50	0xc0083456	-2.1281943
51	0xbfb56fd0	-1.4174747
52	0xc009517b	-2.1455982
53	0xc001e836	-2.029798
54	0x3fc34544	1.5255513
55	0x3ffc2cfd	1.9701229
56	0xc0057299	-2.0851195
57	0x40039fec	2.0566359
58	0xc001972c	-2.0248518
59	0xc004281c	-2.064948
60	0xbfb28146	-1.3945701
61	0xc00d1dcf	-2.2049444
62	0xc008d30c	-2.1378813
63	0x40023285	2.0343335
64	0x3e9b66b3	0.3035179
65	0xc00742c6	-2.1134505
66	0xc00dd908	-2.2163715
67	0xc00d0fe1	-2.2040942
68	0xc0013903	-2.0191047
69	0xc0066a14	-2.1002245
70	0xc0020c49	-2.0319998
71	0xbf9ec75c	-1.240459
72	0xbffd18a0	-1.977314
73	0xc009086b	-2.1411388
74	0x3ffef35e	1.991802
75	0xc01c52c2	-2.4425511
76	0xc005c1ff	-2.0899656
77	0xbfe25045	-1.7680746
78	0xc007e7ec	-2.1235304
79	0xbfced09f	-1.6157416
80	0x4002d429	2.0441992
81	0x3ff57a7c	1.9178004
82	0xbf95a3ee	-1.1690652
83	0xc02eb5d2	-2.7298474
84	0x3f87b23c	1.0601268
85	0x400ab0aa	2.1670327
86	0xbff63ac4	-1.9236684
87	0x4003e4be	2.0608363
88	0x3ffe5e19	1.9872466
89	0x400c6014	2.1933641
90	0xc0042ba8	-2.0651646
91	0xc008d6da	-2.1381135
92	0xc009093a	-2.1411881
93	0xbfa84b1b	-1.314792
94	0x3ffff35d	1.9996144
95	0xc0031c55	-2.0486042
96	0xc0089e96	-2.1346793
97	0x400c4f46	2.1923385
98	0x40062e5b	2.0965793
99	0x40036bdc	2.0534582
100	0x400219b5	2.032819
101	0x400e3885	2.2221997
102	0x3ffdbcb0	1.9823208
103	0x400cee11	2.2020304
104	0x3ffbbe0e	1.9667375
105	0x400db494	2.2141466
106	0x400bc08b	2.183627
107	0x40035274	2.0519075
108	0x400464e9	2.068659
109	0x40012350	2.0177803
110	0x40050155	2.0782063
111	0xbfc93f15	-1.5722376
112	0x4004929b	2.071448
113	0xc009556a	-2.1458383
114	0x4002eeea	2.0458322
115	0x401077dd	2.2573159
116	0x401b8b89	2.4303916
117	0x40020ca8	2.0320225
118	0x3ffe1082	1.9848788
119	0x3ffd185e	1.9773061
120	0x3ffe9ada	1.9891007
121	0x40061b32	2.0954099
122	0xbfe26897	-1.7688168
123	0xbfd98bd9	-1.6995803
124	0x3fcc69c7	1.5969781
125	0x4004b860	2.0737534
126	0x40098991	2.1490214
127	0xc00b5648	-2.1771412
128	0x400c63b1	2.1935847
129	0x400465fe	2.068725
130	0x40015f7c	2.021453
131	0x3ffd7674	1.9801774
132	0x4010dfc9	2.2636588
133	0x3ffba349	1.9659206
134	0x4005ad23	2.0886924
135	0xc004bdda	-2.0740876
136	0x4002e0b6	2.0449653
137	0x40071308	2.1105366
138	0xc00af23e	-2.1710353
139	0x4010390d	2.253482
140	0x3fc33b12	1.5252402
141	0x4005e887	2.0923173
142	0x4002b880	2.042511
143	0x3ff9c661	1.9513665
144	0x4019670a	2.396914
145	0x40114c68	2.2702885
146	0xc005aa5a	-2.0885224
147	0xc007853b	-2.1175067
148	0x4003b1c9	2.0577261
149	0x400213a5	2.032449
150	0x3ff4109e	1.9067571
151	0x400afc04	2.1716318
152	0x400fbe9f	2.2460096
153	0xc004659e	-2.0687022
154	0xc013223b	-2.2989643
155	0x400db150	2.2139473
156	0x4000efb0	2.0146294
157	0x3fae981e	1.3640172
158	0x40013088	2.018587
159	0x400550f1	2.0830653
160	0xc005da13	-2.0914352
161	0xbfc7c8de	-1.5608175
162	0xc000877b	-2.008269
163	0x4001c75b	2.0277927
164	0xc00e20f7	-2.220762
165	0x3f903713	1.1266807
166	0xbff6bde2	-1.9276698
167	0x400351ec	2.051875
168	0x400208d1	2.031788
169	0x400a2e04	2.1590586
170	0xc005ee81	-2.0926821
171	0xc0035ff3	-2.0527313
172	0x3ffaddbb	1.9598917
173	0x4000fca9	2.0154212
174	0x40063121	2.0967486
175	0x3ffd0b4b	1.9769071
176	0x3f6dd12c	0.92897296
177	0xbf192254	-0.59818006
178	0x4004f33d	2.077346
179	0xc001e719	-2.02973
180	0xc0008562	-2.008141
181	0xbfced9d7	-1.616023
182	0xc002f80d	-2.0463898
183	0x401b5ec7	2.4276597
184	0xbffb7b78	-1.9647055
185	0x3fe1aa32	1.7630064
186	0x3ff3ac3e	1.9036939
187	0xbffef3bc	-1.9918132
188	0xbf017ff9	-0.50585896
189	0xc00aef81	-2.1708682
190	0x3fef630d	1.8702103
191	0xc00493d9	-2.071524
192	0x400dc9a1	2.2154315
193	0xbffc4566	-1.9708679
194	0xc005c408	-2.0900898
195	0x3ee53eb3	0.44774398
196	0x3e765c17	0.24058567
197	0xc001f930	-2.0308342
198	0xc0098f76	-2.1493812
199	0x40094607	2.1448991
200	0x3fe3ae53	1.7787575
201	0xc0011ba4	-2.017312
202	0xbf93de74	-1.1552262
203	0xc00c2aa4	-2.1901026
204	0xbef24e83	-0.47325525
205	0x3fcfb29a	1.622638
206	0x3ffe03c0	1.9844894
207	0xc007426c	-2.113429
208	0x3fd91fe1	1.6962854
209	0x4001125e	2.016746
210	0xc008aeb3	-2.1356628
211	0x3fe82094	1.8134942
212	0x3fd2c75b	1.6467088
213	0xc003b1e7	-2.0577333
214	0x3ff9d3b5	1.9517733
215	0x3f73b446	0.9519695
216	0xc0012fe5	-2.0185483
217	0x4002f2e2	2.0460744
218	0x3ffa0e65	1.9535643
219	0x400d1e68	2.2049809
220	0xc008974e	-2.134235
221	0xc0064858	-2.0981655
222	0xbfd4c471	-1.6622449
223	0xbfc7be77	-1.5605
224	0x3f64fbc4	0.89446664
225	0x40073c10	2.113041
226	0xc00c5c6f	-2.1931417
227	0x3ff7d92a	1.9363148
228	0xc0013f09	-2.0194724
229	0xc0079fc5	-2.1191266
230	0xc0072ccd	-2.1121094
231	0x3fbf4768	1.4943666
232	0x3fef270c	1.8683791
233	0x4008c8fb	2.1372669
234	0x3fa7205c	1.305675
235	0x3fc1d0b0	1.5141811
236	0xc002e02d	-2.0449326
237	0xc00445e4	-2.0667658
238	0xbffdd53b	-1.9830698
239	0x40068695	2.1019642
240	0xc0097be5	-2.148187
241	0xc00bb807	-2.1831071
242	0x3ff53d61	1.9159356
243	0xbfb9008f	-1.4453295
244	0xc0060e2c	-2.094615
245	0xc00c1e3e	-2.1893458
246	0xbf7f5659	-0.9974113
247	0xc0081a00	-2.126587
248	0xc00df1aa	-2.217875
249	0xc00d7f0d	-2.2108796
250	0xc004cde4	-2.0750666
251	0xbfff4ad9	-1.9944717
252	0xc00c7c59	-2.1950896
253	0xbff14ca7	-1.8851517
254	0xc00f3b97	-2.238012
255	0xc0036a74	-2.0533724

linear.bias f4 [6]
0	0x3e4ac2bd	0.1980085
1	0xbfe5e4ae	-1.7960413
2	0xbfe268cb	-1.768823
3	0xbf2a7c55	-0.66595966
4	0x3f211cb8	0.62934446
5	0x3fce1990	1.6101551
