figs/augmentation/gaussian-noise/mlp-no-gaussian/mlp_model_dict.pt (torch, 141967 bytes, 10 tensors)

group.0.weight f4 [100, 100]
0	0x40447280	3.0694885
1	0xbf4dd106	-0.8039707
2	0xc0411af5	-3.0172703
3	0xc03c6e48	-2.944231
4	0xc03f44eb	-2.9885814
5	0xc04b0407	-3.1721208
6	0xc046efe7	-3.1083925
7	0xc049f5d2	-3.1556287
8	0xc04e078d	-3.2192109
9	0xc03c46fc	-2.9418325
10	0xc0477922	-3.1167684
11	0xc0433c67	-3.0505617
12	0xc03bc78d	-2.9340546
13	0xc04392e2	-3.05584
14	0xc044ab4a	-3.0729547
15	0xc0400df9	-3.0008528
16	0xc0482ac1	-3.1276095
17	0xc049982e	-3.1499133
18	0x4047a021	3.1191485
19	0xc048b672	-3.1361356
20	0xc0411b5e	-3.0172954
21	0xc03a71c6	-2.9131942
22	0xc03b361f	-2.9251783
23	0xc04abb36	-3.1676764
24	0xc04624e1	-3.096001
25	0xbf359073	-0.70923537
26	0xc0447353	-3.0695388
27	0xc0486744	-3.1313028
28	0xc04ae93b	-3.1704853
29	0xc0412c36	-3.0183234
30	0xc04159eb	-3.0211132
31	0xc0402eb5	-3.0028508
32	0xc046efe5	-3.108392
33	0xc04bcb40	-3.1842804
34	0xc046a296	-3.1036735
35	0xc0460960	-3.0943222
36	0xc03f7587	-2.9915483
37	0xc04132e8	-3.018732
38	0xc04504bc	-3.078414
39	0xc044caa2	-3.0748677
40	0xc046a9ac	-3.104106
41	0xc0368b76	-2.852262
42	0xc03f3f26	-2.9882293
43	0x4045a7d9	3.0883696
44	0xc0463160	-3.0967636
45	0xc0398736	-2.8988776
46	0xc0411bee	-3.0173297
47	0xc04c546f	-3.1926534
48	0xc042ec97	-3.0456903
49	0xc0416a1b	-3.0221012
50	0xc03d5d87	-2.9588335
51	0xc04a40cd	-3.1602051
52	0xc0464a23	-3.098275
53	0xc0471014	-3.1103563
54	0xc02b58e7	-2.6773012
55	0xc03af8ee	-2.9214435
56	0xc046ef1c	-3.108344
57	0xc04395ab	-3.05601
58	0xc043c2f3	-3.0587738
59	0xc04885cd	-3.1331666
60	0xc04e13a5	-3.219949
61	0xc0470096	-3.1094108
62	0xc0456c40	-3.084732
63	0xc04b9801	-3.1811526
64	0xc042dfe2	-3.0449147
65	0xc044b555	-3.0735676
66	0xc04c423f	-3.1915433
67	0xc03f9fdf	-2.9941328
68	0xc02d6743	-2.7094276
69	0x401e4982	2.4732366
70	0xc04a3dc3	-3.1600196
71	0xc04346c4	-3.0511942
72	0xc03d2254	-2.9552202
73	0xc045169c	-3.079505
74	0xc040939c	-3.0090094
75	0xc04ff7cf	-3.2495
76	0x40484905	3.1294568
77	0xc03eec11	-2.9831583
78	0xc04274d9	-3.0383818
79	0xc03d7ead	-2.9608567
80	0xc043d862	-3.060082
81	0x4039a839	2.9008925
82	0xc041be83	-3.027253
83	0xc0185ff1	-2.3808558
84	0xc035cd72	-2.8406644
85	0xc03b52c1	-2.926926
86	0xc03c0df5	-2.9383519
87	0xc045927a	-3.0870652
88	0xc04d716b	-3.2100475
89	0xc03d7de5	-2.960809
90	0xc0443ec9	-3.066332
91	0xc049f40b	-3.1555202
92	0xc0447744	-3.0697794
93	0xc041fd14	-3.0310717
94	0xc0437889	-3.054232
95	0xc04dbce9	-3.2146552
96	0xc050e297	-3.26383
97	0xc0432b0f	-3.049503
98	0xc040f305	-3.0148327
99	0x403946ad	2.8949387
100	0xc03c0557	-2.937826
101	0xc0182a71	-2.3775904
102	0x3f31e6dd	0.69492894
103	0xc0109fee	-2.2597613
104	0xc0468255	-3.1017048
105	0xc03f86eb	-2.9926097
106	0xc03f9c55	-2.9939167
107	0xc044f9c5	-3.0777447
108	0x3df73390	0.12070382
109	0xbf8110bb	-1.0083231
110	0xc04da08d	-3.2129242
111	0x3d573a99	0.052546117
112	0xc045952a	-3.0872293
113	0xc048a3cc	-3.1349974
114	0xc0458dc5	-3.086778
115	0xc0488e10	-3.1336708
116	0xc0432777	-3.0492837
117	0xc03fc18b	-2.996188
118	0xbf40502d	-0.7512234
119	0x4027e932	2.623608
120	0xc044e398	-3.0763912
121	0xc00ba8a6	-2.1821685
122	0xc03f5237	-2.989393
123	0xc0483bf2	-3.1286588
124	0xbf5c0021	-0.85937697
125	0xc0449911	-3.0718424
126	0xbf992beb	-1.1966528
127	0xbe7214b5	-0.23640712
128	0x3d5d5b30	0.05404204
129	0x3fc9a2c3	1.5752796
130	0x3e571e79	0.21007718
131	0xc0473161	-3.1123888
132	0xbf48ab41	-0.7838631
133	0xbf9f6225	-1.2451826
134	0xbf8a422c	-1.0801444
135	0xc04c7482	-3.194611
136	0xc0424af3	-3.0358245
137	0xc044c3da	-3.0744538
138	0xc04d2be2	-3.2058034
139	0xc03cc971	-2.949795
140	0xbfb419ee	-1.4070413
141	0x40444829	3.0669043
142	0xc0234a14	-2.5513964
143	0xc04c3c80	-3.1911926
144	0xc04ad16e	-3.1690326
145	0x3ea96154	0.33082068
146	0x3e16c03b	0.14721768
147	0xbf922383	-1.1417087
148	0x3fb0667b	1.3781275
149	0xc0461172	-3.0948148
150	0xbe12692e	-0.14297935
151	0xc012dd0e	-2.294742
152	0x3eba5779	0.3639486
153	0xc0467507	-3.1008928
154	0xc03e6544	-2.9749308
155	0xc045a0fc	-3.0879507
156	0xc02e16a6	-2.7201324
157	0x3ff196ec	1.8874183
158	0x3df503f4	0.119636446
159	0xbf92a375	-1.1456133
160	0xc04f40c6	-3.2383285
161	0xc04164ed	-3.021785
162	0xc038d69c	-2.8880987
163	0x3f7f2820	0.996706
164	0xbf820e94	-1.0160699
165	0xc04a07aa	-3.1567178
166	0xc00f878d	-2.2426484
167	0xc04c9fe5	-3.1972592
168	0x3e8756b1	0.26433328
169	0x403c282a	2.9399514
170	0xbf21bc6f	-0.6317815
171	0xbfa79e80	-1.3095245
172	0x3f5b79d6	0.8573278
173	0x3fb17696	1.3864315
174	0xc047d90d	-3.1226227
175	0xbeb20d95	-0.34775987
176	0xbfa0d9b4	-1.2566438
177	0xc04b40c1	-3.1758273
178	0xc01adfcd	-2.4199097
179	0xc036ad92	-2.854344
180	0xc047e63f	-3.123428
181	0xc02d7834	-2.7104616
182	0xc04a68f0	-3.1626549
183	0xc013feb3	-2.3124206
184	0x3fdfc6e7	1.7482575
185	0xbf256c73	-0.64618605
186	0xc0461308	-3.0949116
187	0xc038243d	-2.8772118
188	0x3fc1c06a	1.5136845
189	0xc042c628	-3.0433445
190	0xc03e33e3	-2.971917
191	0x40175d5c	2.3650732
192	0xbfa4e6c0	-1.2882919
193	0xc04a2faa	-3.1591592
194	0xc04a551e	-3.1614451
195	0xc04745e3	-3.1136405
196	0xbffa09b2	-1.9534209
197	0xc0335181	-2.8018496
198	0xc0430832	-3.0473752
199	0xc04e3511	-3.221989
200	0xc0443522	-3.065743
201	0xc002f1f0	-2.0460167
202	0xc0489214	-3.133916
203	0xc047d7c7	-3.122545
204	0xc00f634e	-2.240436
205	0xc043101c	-3.0478582
206	0xc039eb24	-2.9049768
207	0xc03d56b3	-2.9584167
208	0xc03e008c	-2.9687834
209	0xc043fc8b	-3.062289
210	0xc0383ed2	-2.8788342
211	0x402b3579	2.6751387
212	0xc04a4cea	-3.1609445
213	0xc04466e3	-3.0687797
214	0xc0487ece	-3.1327395
215	0xc03f7415	-2.99146
216	0xc04219eb	-3.032832
217	0xc0322d49	-2.784014
218	0xc04a4188	-3.1602497
219	0xbf8cd433	-1.1002258
220	0xc0474f1c	-3.1142035
221	0xc03a3318	-2.9093685
222	0xc049347b	-3.1438282
223	0xc044c13a	-3.0742936
224	0xc04829f1	-3.12756
225	0xc03e5685	-2.9740307
226	0xc03d1e68	-2.9549809
227	0xc03e8db8	-2.9773998
228	0xc03b4137	-2.9258554
229	0xc04c8d31	-3.1961176
230	0x40357948	2.8355274
231	0x40201d1b	2.5017765
232	0xc03b7ac0	-2.929367
233	0x40394b15	2.8952076
234	0xc0219407	-2.5246599
235	0xc0431e95	-3.0487416
236	0xc042b927	-3.0425508
237	0xc045b8b7	-3.089399
238	0xc0448cd6	-3.071096
239	0x403d20c1	2.9551241
240	0xc04ef1a3	-3.2334983
241	0x3fc676ef	1.5505046
242	0xc041cc51	-3.0280955
243	0xc04cf635	-3.2025273
244	0xc04b1e79	-3.173735
245	0xc040900d	-3.0087922
246	0xc03d6031	-2.958996
247	0xc03c5bc1	-2.9431002
248	0xc03e1e8f	-2.9706151
249	0xc03ab2fb	-2.917174
250	0xc03872c0	-2.8820038
251	0xc049eae5	-3.1549618
252	0xc035bcff	-2.8396604
253	0xc03fea42	-2.998673
254	0xc03e3511	-2.971989
255	0xc04cc1b4	-3.1993227

group.0.bias f4 [100]
0	0xc0500bf1	-3.2507288
1	0xbf77c56f	-0.96785635
2	0xc03b3e9d	-2.9256966
3	0xbffbf18a	-1.9683087
4	0xc0453c38	-3.0818005
5	0xbe8f6378	-0.28005576
6	0xc054d906	-3.325746
7	0xc02eb56b	-2.7298229
8	0xc0160434	-2.3440065
9	0xc0425858	-3.036642
10	0xc049fadc	-3.1559362
11	0xc04c842b	-3.195567
12	0xc054c64f	-3.3246038
13	0xc012bb57	-2.2926843
14	0xc0411982	-3.0171819
15	0xc0455c87	-3.0837724
16	0xc04826f7	-3.1273782
17	0xc007658f	-2.1155736
18	0xc04ee805	-3.2329113
19	0xc02c0967	-2.6880739
20	0xc04b9065	-3.1806881
21	0xc0383df3	-2.878781
22	0xc0551094	-3.3291368
23	0xc00bb0e0	-2.1826706
24	0xc032d2de	-2.7941203
25	0xc0538878	-3.3052044
26	0xc02f75f5	-2.7415745
27	0xc011a793	-2.275853
28	0xbfc698c5	-1.5515372
29	0xc021822e	-2.5235705
30	0xc029f27a	-2.6554246
31	0xc044fd89	-3.0779746
32	0xc03b01c2	-2.9219823
33	0xc024af20	-2.5731888
34	0xbf4032fc	-0.75077796
35	0xc0274303	-2.613465
36	0xc0469af0	-3.1032066
37	0xc0486b72	-3.131558
38	0xbfce1111	-1.6098958
39	0xc043197b	-3.0484302
40	0xc04363d6	-3.0529685
41	0xbfec81fa	-1.8477166
42	0xbf6ee312	-0.9331523
43	0xc04a80f4	-3.1641207
44	0xc040aa5a	-3.0103974
45	0xc034eb1d	-2.8268502
46	0xbf6fb938	-0.93641996
47	0xbff99270	-1.9497814
48	0xc0201b68	-2.5016727
49	0xc04ad52a	-3.1692605
50	0xc03b67a9	-2.928202
51	0xbf8c9a3e	-1.0984571
52	0xc043922f	-3.0557973
53	0xc04a951e	-3.1653514
54	0xc0497728	-3.1478977
55	0xc0335bb6	-2.8024726
56	0xbfc90bd9	-1.5706741
57	0xbfd288f9	-1.6448051
58	0x40485856	3.1303916
59	0xbfdd089d	-1.7268254
60	0xc01db4d1	-2.4641612
61	0xc04921cd	-3.142688
62	0xc03d76a7	-2.960367
63	0xc0396e77	-2.8973672
64	0xc0390b74	-2.891324
65	0xc04d39f6	-3.2066627
66	0xc0154f4f	-2.3329656
67	0xc05200dc	-3.2813025
68	0xc04011ce	-3.0010867
69	0xc0493d98	-3.1443844
70	0xbed55c45	-0.4167196
71	0xc003f80b	-2.0620143
72	0xc048409b	-3.1289432
73	0xbfbae6c6	-1.4601676
74	0xbefe3f4f	-0.49657676
75	0xbfa341c0	-1.275444
76	0xc03f7ea8	-2.9921055
77	0x3df85a0f	0.12126552
78	0xc0527376	-3.2882972
79	0x3f564c5f	0.83710283
80	0xc0431a16	-3.0484672
81	0x3f973108	1.1811838
82	0xc0490e18	-3.1414852
83	0xc0416b05	-3.022157
84	0xc02ec432	-2.7307248
85	0xc017fe46	-2.3748946
86	0xc047c4a7	-3.1213777
87	0xbf9c1b20	-1.2195778
88	0x3fa7e45b	1.3116564
89	0xc0542d07	-3.3152483
90	0xc03dc579	-2.9651778
91	0x4008ef03	2.139588
92	0xc004cf9b	-2.0751712
93	0xc03193c0	-2.774643
94	0xc04917ac	-3.1420698
95	0xc029ba84	-2.652009
96	0xbffd6406	-1.979615
97	0xc0464a6a	-3.0982919
98	0xc0304183	-2.7539985
99	0xc042d245	-3.0440838

fc1.weight f4 [100, 240]
0	0xc02d9bcd	-2.7126343
1	0xc0056372	-2.0841947
2	0xc0270254	-2.609517
3	0xbfa2e717	-1.2726773
4	0xbfd4ee82	-1.6635287
5	0xc00c6b94	-2.194066
6	0xc02a87fb	-2.6645496
7	0xc00f6096	-2.2402701
8	0xbf6b9eee	-0.9203938
9	0xbf1a64d2	-0.6031009
10	0x3eb9acb5	0.36264578
11	0xbfae8b2a	-1.363622
12	0xbf903df1	-1.1268903
13	0xbfacfd41	-1.3514787
14	0xc04179c5	-3.0230572
15	0xc03dede9	-2.967646
16	0xbffd120c	-1.9771132
17	0x400b67a6	2.1782012
18	0x3f33fc8b	0.70307225
19	0xbf899b63	-1.0750545
20	0xc010d706	-2.263124
21	0xc03ad243	-2.9190834
22	0xbe871fc0	-0.2639141
23	0x4000c8a8	2.012247
24	0xbf7f74b0	-0.99787426
25	0xbf8a3bb4	-1.079947
26	0xc0099428	-2.1496677
27	0xc009a19f	-2.1504896
28	0xbfbbe25f	-1.4678458
29	0xc019cddd	-2.40319
30	0xc0371fc0	-2.8613129
31	0x3ed713d2	0.4200731
32	0x3f3cb434	0.7371247
33	0x3fa647e9	1.2990695
34	0xbff6463e	-1.9240186
35	0xc0357e33	-2.8358276
36	0xc03a6495	-2.912389
37	0xc0310c4c	-2.7663755
38	0xbfa228ad	-1.2668663
39	0x3f5a9ca1	0.85395247
40	0x4009e0e8	2.1543522
41	0x402e5eed	2.7245438
42	0xbfc47e4a	-1.535104
43	0xc03c5243	-2.9425209
44	0xc039488b	-2.8950527
45	0xc0498a1d	-3.1490548
46	0xc025300d	-2.5810578
47	0x3e4a58ca	0.19760433
48	0xc027388e	-2.6128268
49	0xbf818857	-1.0119733
50	0xbfcad185	-1.584519
51	0x3f10cc45	0.5656169
52	0x3fd19e70	1.6376476
53	0x3ff54800	1.9162598
54	0x3f115469	0.56769425
55	0xbf5570fe	-0.8337554
56	0xbff8d418	-1.9439726
57	0xc01f9f23	-2.494088
58	0xc01f2e3c	-2.487197
59	0xbf6fa3ac	-0.9360912
60	0xc018be23	-2.386605
61	0xbf9f45e8	-1.2443209
62	0xbe66dbff	-0.2254486
63	0xbfcecf81	-1.6157075
64	0xc014502c	-2.3173933
65	0xbf694a22	-0.9112874
66	0xbfc393f9	-1.5279533
67	0xc001f77e	-2.0307307
68	0xbd11ec68	-0.035625845
69	0xc0122bf7	-2.2839334
70	0xbfd16b28	-1.6360826
71	0xbfe3f95f	-1.7810477
72	0xc014948b	-2.3215663
73	0x4030a3f8	2.7600079
74	0xbecc38a3	-0.3988696
75	0xc013837d	-2.3049004
76	0x40075ae6	2.114923
77	0x3dd94848	0.1060949
78	0xbfd054bd	-1.627586
79	0xbfe4ef9a	-1.788562
80	0x3fc23e16	1.5175197
81	0xbf2d1ad4	-0.6761906
82	0xc03b9acb	-2.9313228
83	0xc0444dec	-3.067256
84	0xc030a7dd	-2.7602456
85	0xc01cb0e0	-2.4482956
86	0x402ef286	2.7335525
87	0xbfcf5934	-1.6199098
88	0xbfce2158	-1.6103926
89	0xbfdbcd35	-1.7171999
90	0x3eae7d47	0.34079954
91	0xbfffa9cb	-1.9973692
92	0xc030e702	-2.7640996
93	0xc01befa3	-2.4365013
94	0xbf11615d	-0.5678919
95	0xc03939b7	-2.8941476
96	0xbff18838	-1.8869696
97	0xc01134e3	-2.268853
98	0xc013d5eb	-2.3099315
99	0x3fb883b3	1.4415191
100	0x3fabae5f	1.3412589
101	0xbff60208	-1.921937
102	0xbfe332fc	-1.7749934
103	0x3f72d52a	0.9485651
104	0x400de49c	2.2170782
105	0x4006302b	2.09669
106	0x3ef80408	0.48440576
107	0xc01662a1	-2.3497698
108	0xc011bbba	-2.277083
109	0xc013b78d	-2.308078
110	0xc004615a	-2.0684419
111	0xbf6ec1ae	-0.9326428
112	0x3fc4c999	1.5374023
113	0x402a1a44	2.6578531
114	0x3feac764	1.8342099
115	0xc00fd640	-2.2474518
116	0x3fcdf1f4	1.6089463
117	0xc01234dc	-2.2844763
118	0xc03f5c37	-2.9900033
119	0xbfa72abc	-1.3059916
120	0xbfb4feaf	-1.4140223
121	0x400a02db	2.1564243
122	0x40011e8b	2.0174892
123	0xbff13eb3	-1.8847259
124	0xbff50459	-1.9141952
125	0xbffe1f86	-1.985337
126	0xc00b161d	-2.1732247
127	0x3f9bf118	1.2182951
128	0xc01f7419	-2.491461
129	0xc04552d7	-3.0831811
130	0x3f3ab663	0.7293455
131	0x3fa0eb70	1.257185
132	0x403ed1ae	2.9815478
133	0x40221bfd	2.5329583
134	0xc018dc89	-2.3884604
135	0xc02289ee	-2.5396686
136	0xc0499301	-3.1495974
137	0xc040b20d	-3.0108674
138	0x401d5672	2.4584012
139	0xbf49a40c	-0.7876594
140	0xbf537e37	-0.82614464
141	0xbff97e19	-1.9491607
142	0x3fcd6b95	1.6048456
143	0x400a8e73	2.1649444
144	0x4008fed5	2.1405537
145	0x3fe48b05	1.7854925
146	0xc03227ca	-2.7836785
147	0x3f6407e2	0.8907453
148	0xbf8cd05f	-1.100109
149	0xbfc4b9e0	-1.5369225
150	0xc01b812e	-2.4297595
151	0xbfe1ebb0	-1.7650051
152	0xbf04d379	-0.5188518
153	0x3fc15825	1.5105025
154	0xbfc585c0	-1.5431442
155	0xbf7a80be	-0.97852695
156	0x401c1e82	2.439362
157	0xbf95fb80	-1.1717377
158	0x40131f00	2.298767
159	0x3f742e73	0.95383376
160	0x3fb1a709	1.38791
161	0x4025f96c	2.5933485
162	0xc047485b	-3.1137912
163	0xbfa8dca3	-1.3192333
164	0xc043103c	-3.0478659
165	0xbea32c81	-0.3186989
166	0x3e020d11	0.12700297
167	0xc044b8aa	-3.073771
168	0xc03c5005	-2.942384
169	0xc0126c75	-2.2878697
170	0xbe060508	-0.13087857
171	0x4013a4d8	2.3069363
172	0xc0217965	-2.5230343
173	0xc0055d52	-2.0838208
174	0x3fb0fd47	1.3827294
175	0x3fd1f189	1.6401836
176	0x4001cc81	2.028107
177	0x3fbb8318	1.4649382
178	0xc04b97d6	-3.1811423
179	0xc03a809d	-2.9141
180	0xbf839926	-1.0281112
181	0xbf5c5b4a	-0.86076796
182	0x3fcaa28c	1.5830855
183	0xc00bd6cd	-2.1849854
184	0xbc260427	-0.010132826
185	0x3fe495b6	1.7858188
186	0xbfcdb84f	-1.6071872
187	0xc04fb83c	-3.2456198
188	0xc0483d5e	-3.1287456
189	0xc024ee68	-2.5770512
190	0x402d77c1	2.7104342
191	0x4000c39b	2.0119388
192	0xbf94335d	-1.1578175
193	0x3f5e1881	0.8675614
194	0xc04781b3	-3.1172912
195	0x40099fd2	2.1503797
196	0x3e930d4a	0.28721076
197	0x40141cc9	2.314257
198	0xc040b2dc	-3.0109167
199	0x3fb5e2ab	1.4209799
200	0x40273152	2.6123853
201	0x40332b2a	2.7995095
202	0xc03693b1	-2.8527644
203	0xc0318013	-2.773442
204	0xbff2f631	-1.8981382
205	0xbfb8239c	-1.4385867
206	0xbfda7875	-1.706801
207	0x401431f7	2.3155496
208	0x40352278	2.8302288
209	0x40422a5c	3.0338354
210	0x3f41f743	0.75767916
211	0xc00e65c6	-2.2249618
212	0xbfba1ec8	-1.4540644
213	0xbf967256	-1.1753643
214	0xbf85583e	-1.0417554
215	0xbfa2ea52	-1.2727759
216	0xbcd12d2e	-0.025534239
217	0x3fced152	1.615763
218	0xbe338ed8	-0.1753496
219	0xc026de82	-2.6073308
220	0xc0460085	-3.0937817
221	0x3f8a1bfa	1.0789788
222	0x3e0538fe	0.13010022
223	0x3ec45f8c	0.38354146
224	0xc0241a32	-2.5640988
225	0xc020f916	-2.515203
226	0xc0311aa4	-2.767251
227	0x3f2fc8f3	0.68666
228	0x400af336	2.1710944
229	0x4025fd66	2.5935912
230	0x4009f6db	2.1556919
231	0xbf079294	-0.52958035
232	0x3f386987	0.7203602
233	0xbfe6f33d	-1.804298
234	0xbff29f6f	-1.8954905
235	0x40244ab5	2.5670598
236	0x3ed29eb6	0.41136712
237	0x3e532d9c	0.20622867
238	0xc02781d2	-2.6172986
239	0xc03406c6	-2.8129134
240	0x3faaee35	1.3353945
241	0x3fd776fd	1.6833187
242	0x4006528d	2.0987885
243	0x40433b58	3.050497
244	0x3fc3a754	1.528544
245	0xbe8fcb09	-0.2808459
246	0xbff911e3	-1.9458584
247	0xc02af97f	-2.671478
248	0xc02b80cb	-2.679736
249	0xbdc2334f	-0.094824426
250	0x3e583e0c	0.21117419
251	0x3fb10f0e	1.3832719
252	0xbe28d861	-0.16488792
253	0x402944c8	2.644823
254	0x4031d9e4	2.778924
255	0x4004c476	2.074491

fc1.bias f4 [100]
0	0xc04d7de9	-3.21081
1	0xbfdee346	-1.7413108
2	0xc04a7e54	-3.1639605
3	0xc0161cea	-2.3455148
4	0xc03a4f5f	-2.9110944
5	0xc01c64d9	-2.4436553
6	0xc04cc8e4	-3.1997614
7	0xc0428bb8	-3.0397778
8	0xc00b2c76	-2.1745887
9	0xc0495e7d	-3.146392
10	0xc0315112	-2.7705731
11	0xc02a2636	-2.6585822
12	0xc040d8ab	-3.0132244
13	0xc0394f9a	-2.8954835
14	0xc03ae938	-2.9204845
15	0xc044c1ae	-3.0743213
16	0xc0279ec8	-2.6190662
17	0xc046dabf	-3.1071012
18	0xc042f6f5	-3.046323
19	0xc04135ba	-3.0189042
20	0xc051a39b	-3.2756107
21	0xc0454448	-3.0822926
22	0xc01f1d19	-2.486151
23	0xc0336de5	-2.8035824
24	0xc04cac99	-3.1980345
25	0x3fa96c81	1.3236238
26	0xc04d4a7c	-3.2076712
27	0x3e4a23d6	0.19740233
28	0xc046aec4	-3.1044168
29	0xc04a2419	-3.1584532
30	0xc04030a9	-3.00297
31	0xc045b6e9	-3.089289
32	0xbf198f86	-0.59984624
33	0xc03c7425	-2.944589
34	0xc046a65c	-3.1039038
35	0xc0442c41	-3.065201
36	0xc04474b2	-3.0696225
37	0xc04ecf15	-3.2313893
38	0xbfeba0c4	-1.8408437
39	0xc042018e	-3.031345
40	0xc04f04cd	-3.234668
41	0xbfc5bfe3	-1.5449184
42	0xc00fd9b2	-2.247662
43	0xc04f2988	-3.2369099
44	0xbec80777	-0.39068195
45	0xc03db862	-2.9643788
46	0xbfedab15	-1.8567835
47	0xc02e7dbe	-2.7264247
48	0xc053ab6f	-3.3073385
49	0xc046f6e3	-3.1088188
50	0xc03d6e33	-2.959851
51	0xc0445f70	-3.068325
52	0xc04a50bf	-3.1611784
53	0xc0505d1a	-3.2556825
54	0xc04155b9	-3.020857
55	0xc03aa385	-2.9162304
56	0xc0462fd2	-3.0966687
57	0xc0472db4	-3.1121645
58	0xc03a60b6	-2.9121528
59	0xc04a4329	-3.1603491
60	0xc04ed82e	-3.2319446
61	0xc034387b	-2.8159473
62	0xc04b6cef	-3.1785238
63	0xc005ccd3	-2.0906265
64	0xc03361d6	-2.8028464
65	0xc047b9a2	-3.1207051
66	0xbe1e9b91	-0.15489031
67	0xc0453804	-3.081544
68	0xc04ba672	-3.182034
69	0xbeaf973d	-0.34295073
70	0xc0536d72	-3.303555
71	0xc03dee6d	-2.9676774
72	0xc038df75	-2.8886387
73	0xc05151a1	-3.2706072
74	0xbfe8cccb	-1.8187498
75	0xbec6ed7b	-0.38853058
76	0xc047a9cc	-3.1197386
77	0xbf85714a	-1.0425198
78	0xc02e5a10	-2.724247
79	0xbfb8a0d2	-1.4424078
80	0xc04d304f	-3.2060735
81	0xc04a5f9b	-3.1620853
82	0xc04caef1	-3.1981776
83	0xc01ef217	-2.483526
84	0xc047c415	-3.121343
85	0xbff7aff5	-1.9350573
86	0xc046910d	-3.1026032
87	0xc040978a	-3.0092492
88	0xc0542953	-3.3150222
89	0xc0415c9c	-3.0212774
90	0xc01a6b7f	-2.412811
91	0xc0540a06	-3.3131118
92	0xc0542ec3	-3.315354
93	0xc0247bda	-2.5700593
94	0xc047b50d	-3.1204255
95	0x3d904114	0.07043663
96	0xc04aeb5e	-3.1706157
97	0xc023b134	-2.5576906
98	0xc03cc419	-2.9494689
99	0xc0452b93	-3.0807846

fc2.0.0.weight f4 [100, 100]
0	0x40447280	3.0694885
1	0xbf4dd106	-0.8039707
2	0xc0411af5	-3.0172703
3	0xc03c6e48	-2.944231
4	0xc03f44eb	-2.9885814
5	0xc04b0407	-3.1721208
6	0xc046efe7	-3.1083925
7	0xc049f5d2	-3.1556287
8	0xc04e078d	-3.2192109
9	0xc03c46fc	-2.9418325
10	0xc0477922	-3.1167684
11	0xc0433c67	-3.0505617
12	0xc03bc78d	-2.9340546
13	0xc04392e2	-3.05584
14	0xc044ab4a	-3.0729547
15	0xc0400df9	-3.0008528
16	0xc0482ac1	-3.1276095
17	0xc049982e	-3.1499133
18	0x4047a021	3.1191485
19	0xc048b672	-3.1361356
20	0xc0411b5e	-3.0172954
21	0xc03a71c6	-2.9131942
22	0xc03b361f	-2.9251783
23	0xc04abb36	-3.1676764
24	0xc04624e1	-3.096001
25	0xbf359073	-0.70923537
26	0xc0447353	-3.0695388
27	0xc0486744	-3.1313028
28	0xc04ae93b	-3.1704853
29	0xc0412c36	-3.0183234
30	0xc04159eb	-3.0211132
31	0xc0402eb5	-3.0028508
32	0xc046efe5	-3.108392
33	0xc04bcb40	-3.1842804
34	0xc046a296	-3.1036735
35	0xc0460960	-3.0943222
36	0xc03f7587	-2.9915483
37	0xc04132e8	-3.018732
38	0xc04504bc	-3.078414
39	0xc044caa2	-3.0748677
40	0xc046a9ac	-3.104106
41	0xc0368b76	-2.852262
42	0xc03f3f26	-2.9882293
43	0x4045a7d9	3.0883696
44	0xc0463160	-3.0967636
45	0xc0398736	-2.8988776
46	0xc0411bee	-3.0173297
47	0xc04c546f	-3.1926534
48	0xc042ec97	-3.0456903
49	0xc0416a1b	-3.0221012
50	0xc03d5d87	-2.9588335
51	0xc04a40cd	-3.1602051
52	0xc0464a23	-3.098275
53	0xc0471014	-3.1103563
54	0xc02b58e7	-2.6773012
55	0xc03af8ee	-2.9214435
56	0xc046ef1c	-3.108344
57	0xc04395ab	-3.05601
58	0xc043c2f3	-3.0587738
59	0xc04885cd	-3.1331666
60	0xc04e13a5	-3.219949
61	0xc0470096	-3.1094108
62	0xc0456c40	-3.084732
63	0xc04b9801	-3.1811526
64	0xc042dfe2	-3.0449147
65	0xc044b555	-3.0735676
66	0xc04c423f	-3.1915433
67	0xc03f9fdf	-2.9941328
68	0xc02d6743	-2.7094276
69	0x401e4982	2.4732366
70	0xc04a3dc3	-3.1600196
71	0xc04346c4	-3.0511942
72	0xc03d2254	-2.9552202
73	0xc045169c	-3.079505
74	0xc040939c	-3.0090094
75	0xc04ff7cf	-3.2495
76	0x40484905	3.1294568
77	0xc03eec11	-2.9831583
78	0xc04274d9	-3.0383818
79	0xc03d7ead	-2.9608567
80	0xc043d862	-3.060082
81	0x4039a839	2.9008925
82	0xc041be83	-3.027253
83	0xc0185ff1	-2.3808558
84	0xc035cd72	-2.8406644
85	0xc03b52c1	-2.926926
86	0xc03c0df5	-2.9383519
87	0xc045927a	-3.0870652
88	0xc04d716b	-3.2100475
89	0xc03d7de5	-2.960809
90	0xc0443ec9	-3.066332
91	0xc049f40b	-3.1555202
92	0xc0447744	-3.0697794
93	0xc041fd14	-3.0310717
94	0xc0437889	-3.054232
95	0xc04dbce9	-3.2146552
96	0xc050e297	-3.26383
97	0xc0432b0f	-3.049503
98	0xc040f305	-3.0148327
99	0x403946ad	2.8949387
100	0xc03c0557	-2.937826
101	0xc0182a71	-2.3775904
102	0x3f31e6dd	0.69492894
103	0xc0109fee	-2.2597613
104	0xc0468255	-3.1017048
105	0xc03f86eb	-2.9926097
106	0xc03f9c55	-2.9939167
107	0xc044f9c5	-3.0777447
108	0x3df73390	0.12070382
109	0xbf8110bb	-1.0083231
110	0xc04da08d	-3.2129242
111	0x3d573a99	0.052546117
112	0xc045952a	-3.0872293
113	0xc048a3cc	-3.1349974
114	0xc0458dc5	-3.086778
115	0xc0488e10	-3.1336708
116	0xc0432777	-3.0492837
117	0xc03fc18b	-2.996188
118	0xbf40502d	-0.7512234
119	0x4027e932	2.623608
120	0xc044e398	-3.0763912
121	0xc00ba8a6	-2.1821685
122	0xc03f5237	-2.989393
123	0xc0483bf2	-3.1286588
124	0xbf5c0021	-0.85937697
125	0xc0449911	-3.0718424
126	0xbf992beb	-1.1966528
127	0xbe7214b5	-0.23640712
128	0x3d5d5b30	0.05404204
129	0x3fc9a2c3	1.5752796
130	0x3e571e79	0.21007718
131	0xc0473161	-3.1123888
132	0xbf48ab41	-0.7838631
133	0xbf9f6225	-1.2451826
134	0xbf8a422c	-1.0801444
135	0xc04c7482	-3.194611
136	0xc0424af3	-3.0358245
137	0xc044c3da	-3.0744538
138	0xc04d2be2	-3.2058034
139	0xc03cc971	-2.949795
140	0xbfb419ee	-1.4070413
141	0x40444829	3.0669043
142	0xc0234a14	-2.5513964
143	0xc04c3c80	-3.1911926
144	0xc04ad16e	-3.1690326
145	0x3ea96154	0.33082068
146	0x3e16c03b	0.14721768
147	0xbf922383	-1.1417087
148	0x3fb0667b	1.3781275
149	0xc0461172	-3.0948148
150	0xbe12692e	-0.14297935
151	0xc012dd0e	-2.294742
152	0x3eba5779	0.3639486
153	0xc0467507	-3.1008928
154	0xc03e6544	-2.9749308
155	0xc045a0fc	-3.0879507
156	0xc02e16a6	-2.7201324
157	0x3ff196ec	1.8874183
158	0x3df503f4	0.119636446
159	0xbf92a375	-1.1456133
160	0xc04f40c6	-3.2383285
161	0xc04164ed	-3.021785
162	0xc038d69c	-2.8880987
163	0x3f7f2820	0.996706
164	0xbf820e94	-1.0160699
165	0xc04a07aa	-3.1567178
166	0xc00f878d	-2.2426484
167	0xc04c9fe5	-3.1972592
168	0x3e8756b1	0.26433328
169	0x403c282a	2.9399514
170	0xbf21bc6f	-0.6317815
171	0xbfa79e80	-1.3095245
172	0x3f5b79d6	0.8573278
173	0x3fb17696	1.3864315
174	0xc047d90d	-3.1226227
175	0xbeb20d95	-0.34775987
176	0xbfa0d9b4	-1.2566438
177	0xc04b40c1	-3.1758273
178	0xc01adfcd	-2.4199097
179	0xc036ad92	-2.854344
180	0xc047e63f	-3.123428
181	0xc02d7834	-2.7104616
182	0xc04a68f0	-3.1626549
183	0xc013feb3	-2.3124206
184	0x3fdfc6e7	1.7482575
185	0xbf256c73	-0.64618605
186	0xc0461308	-3.0949116
187	0xc038243d	-2.8772118
188	0x3fc1c06a	1.5136845
189	0xc042c628	-3.0433445
190	0xc03e33e3	-2.971917
191	0x40175d5c	2.3650732
192	0xbfa4e6c0	-1.2882919
193	0xc04a2faa	-3.1591592
194	0xc04a551e	-3.1614451
195	0xc04745e3	-3.1136405
196	0xbffa09b2	-1.9534209
197	0xc0335181	-2.8018496
198	0xc0430832	-3.0473752
199	0xc04e3511	-3.221989
200	0xc0443522	-3.065743
201	0xc002f1f0	-2.0460167
202	0xc0489214	-3.133916
203	0xc047d7c7	-3.122545
204	0xc00f634e	-2.240436
205	0xc043101c	-3.0478582
206	0xc039eb24	-2.9049768
207	0xc03d56b3	-2.9584167
208	0xc03e008c	-2.9687834
209	0xc043fc8b	-3.062289
210	0xc0383ed2	-2.8788342
211	0x402b3579	2.6751387
212	0xc04a4cea	-3.1609445
213	0xc04466e3	-3.0687797
214	0xc0487ece	-3.1327395
215	0xc03f7415	-2.99146
216	0xc04219eb	-3.032832
217	0xc0322d49	-2.784014
218	0xc04a4188	-3.1602497
219	0xbf8cd433	-1.1002258
220	0xc0474f1c	-3.1142035
221	0xc03a3318	-2.9093685
222	0xc049347b	-3.1438282
223	0xc044c13a	-3.0742936
224	0xc04829f1	-3.12756
225	0xc03e5685	-2.9740307
226	0xc03d1e68	-2.9549809
227	0xc03e8db8	-2.9773998
228	0xc03b4137	-2.9258554
229	0xc04c8d31	-3.1961176
230	0x40357948	2.8355274
231	0x40201d1b	2.5017765
232	0xc03b7ac0	-2.929367
233	0x40394b15	2.8952076
234	0xc0219407	-2.5246599
235	0xc0431e95	-3.0487416
236	0xc042b927	-3.0425508
237	0xc045b8b7	-3.089399
238	0xc0448cd6	-3.071096
239	0x403d20c1	2.9551241
240	0xc04ef1a3	-3.2334983
241	0x3fc676ef	1.5505046
242	0xc041cc51	-3.0280955
243	0xc04cf635	-3.2025273
244	0xc04b1e79	-3.173735
245	0xc040900d	-3.0087922
246	0xc03d6031	-2.958996
247	0xc03c5bc1	-2.9431002
248	0xc03e1e8f	-2.9706151
249	0xc03ab2fb	-2.917174
250	0xc03872c0	-2.8820038
251	0xc049eae5	-3.1549618
252	0xc035bcff	-2.8396604
253	0xc03fea42	-2.998673
254	0xc03e3511	-2.971989
255	0xc04cc1b4	-3.1993227

fc2.0.0.bias f4 [100]
0	0xc0500bf1	-3.2507288
1	0xbf77c56f	-0.96785635
2	0xc03b3e9d	-2.9256966
3	0xbffbf18a	-1.9683087
4	0xc0453c38	-3.0818005
5	0xbe8f6378	-0.28005576
6	0xc054d906	-3.325746
7	0xc02eb56b	-2.7298229
8	0xc0160434	-2.3440065
9	0xc0425858	-3.036642
10	0xc049fadc	-3.1559362
11	0xc04c842b	-3.195567
12	0xc054c64f	-3.3246038
13	0xc012bb57	-2.2926843
14	0xc0411982	-3.0171819
15	0xc0455c87	-3.0837724
16	0xc04826f7	-3.1273782
17	0xc007658f	-2.1155736
18	0xc04ee805	-3.2329113
19	0xc02c0967	-2.6880739
20	0xc04b9065	-3.1806881
21	0xc0383df3	-2.878781
22	0xc0551094	-3.3291368
23	0xc00bb0e0	-2.1826706
24	0xc032d2de	-2.7941203
25	0xc0538878	-3.3052044
26	0xc02f75f5	-2.7415745
27	0xc011a793	-2.275853
28	0xbfc698c5	-1.5515372
29	0xc021822e	-2.5235705
30	0xc029f27a	-2.6554246
31	0xc044fd89	-3.0779746
32	0xc03b01c2	-2.9219823
33	0xc024af20	-2.5731888
34	0xbf4032fc	-0.75077796
35	0xc0274303	-2.613465
36	0xc0469af0	-3.1032066
37	0xc0486b72	-3.131558
38	0xbfce1111	-1.6098958
39	0xc043197b	-3.0484302
40	0xc04363d6	-3.0529685
41	0xbfec81fa	-1.8477166
42	0xbf6ee312	-0.9331523
43	0xc04a80f4	-3.1641207
44	0xc040aa5a	-3.0103974
45	0xc034eb1d	-2.8268502
46	0xbf6fb938	-0.93641996
47	0xbff99270	-1.9497814
48	0xc0201b68	-2.5016727
49	0xc04ad52a	-3.1692605
50	0xc03b67a9	-2.928202
51	0xbf8c9a3e	-1.0984571
52	0xc043922f	-3.0557973
53	0xc04a951e	-3.1653514
54	0xc0497728	-3.1478977
55	0xc0335bb6	-2.8024726
56	0xbfc90bd9	-1.5706741
57	0xbfd288f9	-1.6448051
58	0x40485856	3.1303916
59	0xbfdd089d	-1.7268254
60	0xc01db4d1	-2.4641612
61	0xc04921cd	-3.142688
62	0xc03d76a7	-2.960367
63	0xc0396e77	-2.8973672
64	0xc0390b74	-2.891324
65	0xc04d39f6	-3.2066627
66	0xc0154f4f	-2.3329656
67	0xc05200dc	-3.2813025
68	0xc04011ce	-3.0010867
69	0xc0493d98	-3.1443844
70	0xbed55c45	-0.4167196
71	0xc003f80b	-2.0620143
72	0xc048409b	-3.1289432
73	0xbfbae6c6	-1.4601676
74	0xbefe3f4f	-0.49657676
75	0xbfa341c0	-1.275444
76	0xc03f7ea8	-2.9921055
77	0x3df85a0f	0.12126552
78	0xc0527376	-3.2882972
79	0x3f564c5f	0.83710283
80	0xc0431a16	-3.0484672
81	0x3f973108	1.1811838
82	0xc0490e18	-3.1414852
83	0xc0416b05	-3.022157
84	0xc02ec432	-2.7307248
85	0xc017fe46	-2.3748946
86	0xc047c4a7	-3.1213777
87	0xbf9c1b20	-1.2195778
88	0x3fa7e45b	1.3116564
89	0xc0542d07	-3.3152483
90	0xc03dc579	-2.9651778
91	0x4008ef03	2.139588
92	0xc004cf9b	-2.0751712
93	0xc03193c0	-2.774643
94	0xc04917ac	-3.1420698
95	0xc029ba84	-2.652009
96	0xbffd6406	-1.979615
97	0xc0464a6a	-3.0982919
98	0xc0304183	-2.7539985
99	0xc042d245	-3.0440838

fc2.1.0.weight f4 [100, 100]
0	0x40447280	3.0694885
1	0xbf4dd106	-0.8039707
2	0xc0411af5	-3.0172703
3	0xc03c6e48	-2.944231
4	0xc03f44eb	-2.9885814
5	0xc04b0407	-3.1721208
6	0xc046efe7	-3.1083925
7	0xc049f5d2	-3.1556287
8	0xc04e078d	-3.2192109
9	0xc03c46fc	-2.9418325
10	0xc0477922	-3.1167684
11	0xc0433c67	-3.0505617
12	0xc03bc78d	-2.9340546
13	0xc04392e2	-3.05584
14	0xc044ab4a	-3.0729547
15	0xc0400df9	-3.0008528
16	0xc0482ac1	-3.1276095
17	0xc049982e	-3.1499133
18	0x4047a021	3.1191485
19	0xc048b672	-3.1361356
20	0xc0411b5e	-3.0172954
21	0xc03a71c6	-2.9131942
22	0xc03b361f	-2.9251783
23	0xc04abb36	-3.1676764
24	0xc04624e1	-3.096001
25	0xbf359073	-0.70923537
26	0xc0447353	-3.0695388
27	0xc0486744	-3.1313028
28	0xc04ae93b	-3.1704853
29	0xc0412c36	-3.0183234
30	0xc04159eb	-3.0211132
31	0xc0402eb5	-3.0028508
32	0xc046efe5	-3.108392
33	0xc04bcb40	-3.1842804
34	0xc046a296	-3.1036735
35	0xc0460960	-3.0943222
36	0xc03f7587	-2.9915483
37	0xc04132e8	-3.018732
38	0xc04504bc	-3.078414
39	0xc044caa2	-3.0748677
40	0xc046a9ac	-3.104106
41	0xc0368b76	-2.852262
42	0xc03f3f26	-2.9882293
43	0x4045a7d9	3.0883696
44	0xc0463160	-3.0967636
45	0xc0398736	-2.8988776
46	0xc0411bee	-3.0173297
47	0xc04c546f	-3.1926534
48	0xc042ec97	-3.0456903
49	0xc0416a1b	-3.0221012
50	0xc03d5d87	-2.9588335
51	0xc04a40cd	-3.1602051
52	0xc0464a23	-3.098275
53	0xc0471014	-3.1103563
54	0xc02b58e7	-2.6773012
55	0xc03af8ee	-2.9214435
56	0xc046ef1c	-3.108344
57	0xc04395ab	-3.05601
58	0xc043c2f3	-3.0587738
59	0xc04885cd	-3.1331666
60	0xc04e13a5	-3.219949
61	0xc0470096	-3.1094108
62	0xc0456c40	-3.084732
63	0xc04b9801	-3.1811526
64	0xc042dfe2	-3.0449147
65	0xc044b555	-3.0735676
66	0xc04c423f	-3.1915433
67	0xc03f9fdf	-2.9941328
68	0xc02d6743	-2.7094276
69	0x401e4982	2.4732366
70	0xc04a3dc3	-3.1600196
71	0xc04346c4	-3.0511942
72	0xc03d2254	-2.9552202
73	0xc045169c	-3.079505
74	0xc040939c	-3.0090094
75	0xc04ff7cf	-3.2495
76	0x40484905	3.1294568
77	0xc03eec11	-2.9831583
78	0xc04274d9	-3.0383818
79	0xc03d7ead	-2.9608567
80	0xc043d862	-3.060082
81	0x4039a839	2.9008925
82	0xc041be83	-3.027253
83	0xc0185ff1	-2.3808558
84	0xc035cd72	-2.8406644
85	0xc03b52c1	-2.926926
86	0xc03c0df5	-2.9383519
87	0xc045927a	-3.0870652
88	0xc04d716b	-3.2100475
89	0xc03d7de5	-2.960809
90	0xc0443ec9	-3.066332
91	0xc049f40b	-3.1555202
92	0xc0447744	-3.0697794
93	0xc041fd14	-3.0310717
94	0xc0437889	-3.054232
95	0xc04dbce9	-3.2146552
96	0xc050e297	-3.26383
97	0xc0432b0f	-3.049503
98	0xc040f305	-3.0148327
99	0x403946ad	2.8949387
100	0xc03c0557	-2.937826
101	0xc0182a71	-2.3775904
102	0x3f31e6dd	0.69492894
103	0xc0109fee	-2.2597613
104	0xc0468255	-3.1017048
105	0xc03f86eb	-2.9926097
106	0xc03f9c55	-2.9939167
107	0xc044f9c5	-3.0777447
108	0x3df73390	0.12070382
109	0xbf8110bb	-1.0083231
110	0xc04da08d	-3.2129242
111	0x3d573a99	0.052546117
112	0xc045952a	-3.0872293
113	0xc048a3cc	-3.1349974
114	0xc0458dc5	-3.086778
115	0xc0488e10	-3.1336708
116	0xc0432777	-3.0492837
117	0xc03fc18b	-2.996188
118	0xbf40502d	-0.7512234
119	0x4027e932	2.623608
120	0xc044e398	-3.0763912
121	0xc00ba8a6	-2.1821685
122	0xc03f5237	-2.989393
123	0xc0483bf2	-3.1286588
124	0xbf5c0021	-0.85937697
125	0xc0449911	-3.0718424
126	0xbf992beb	-1.1966528
127	0xbe7214b5	-0.23640712
128	0x3d5d5b30	0.05404204
129	0x3fc9a2c3	1.5752796
130	0x3e571e79	0.21007718
131	0xc0473161	-3.1123888
132	0xbf48ab41	-0.7838631
133	0xbf9f6225	-1.2451826
134	0xbf8a422c	-1.0801444
135	0xc04c7482	-3.194611
136	0xc0424af3	-3.0358245
137	0xc044c3da	-3.0744538
138	0xc04d2be2	-3.2058034
139	0xc03cc971	-2.949795
140	0xbfb419ee	-1.4070413
141	0x40444829	3.0669043
142	0xc0234a14	-2.5513964
143	0xc04c3c80	-3.1911926
144	0xc04ad16e	-3.1690326
145	0x3ea96154	0.33082068
146	0x3e16c03b	0.14721768
147	0xbf922383	-1.1417087
148	0x3fb0667b	1.3781275
149	0xc0461172	-3.0948148
150	0xbe12692e	-0.14297935
151	0xc012dd0e	-2.294742
152	0x3eba5779	0.3639486
153	0xc0467507	-3.1008928
154	0xc03e6544	-2.9749308
155	0xc045a0fc	-3.0879507
156	0xc02e16a6	-2.7201324
157	0x3ff196ec	1.8874183
158	0x3df503f4	0.119636446
159	0xbf92a375	-1.1456133
160	0xc04f40c6	-3.2383285
161	0xc04164ed	-3.021785
162	0xc038d69c	-2.8880987
163	0x3f7f2820	0.996706
164	0xbf820e94	-1.0160699
165	0xc04a07aa	-3.1567178
166	0xc00f878d	-2.2426484
167	0xc04c9fe5	-3.1972592
168	0x3e8756b1	0.26433328
169	0x403c282a	2.9399514
170	0xbf21bc6f	-0.6317815
171	0xbfa79e80	-1.3095245
172	0x3f5b79d6	0.8573278
173	0x3fb17696	1.3864315
174	0xc047d90d	-3.1226227
175	0xbeb20d95	-0.34775987
176	0xbfa0d9b4	-1.2566438
177	0xc04b40c1	-3.1758273
178	0xc01adfcd	-2.4199097
179	0xc036ad92	-2.854344
180	0xc047e63f	-3.123428
181	0xc02d7834	-2.7104616
182	0xc04a68f0	-3.1626549
183	0xc013feb3	-2.3124206
184	0x3fdfc6e7	1.7482575
185	0xbf256c73	-0.64618605
186	0xc0461308	-3.0949116
187	0xc038243d	-2.8772118
188	0x3fc1c06a	1.5136845
189	0xc042c628	-3.0433445
190	0xc03e33e3	-2.971917
191	0x40175d5c	2.3650732
192	0xbfa4e6c0	-1.2882919
193	0xc04a2faa	-3.1591592
194	0xc04a551e	-3.1614451
195	0xc04745e3	-3.1136405
196	0xbffa09b2	-1.9534209
197	0xc0335181	-2.8018496
198	0xc0430832	-3.0473752
199	0xc04e3511	-3.221989
200	0xc0443522	-3.065743
201	0xc002f1f0	-2.0460167
202	0xc0489214	-3.133916
203	0xc047d7c7	-3.122545
204	0xc00f634e	-2.240436
205	0xc043101c	-3.0478582
206	0xc039eb24	-2.9049768
207	0xc03d56b3	-2.9584167
208	0xc03e008c	-2.9687834
209	0xc043fc8b	-3.062289
210	0xc0383ed2	-2.8788342
211	0x402b3579	2.6751387
212	0xc04a4cea	-3.1609445
213	0xc04466e3	-3.0687797
214	0xc0487ece	-3.1327395
215	0xc03f7415	-2.99146
216	0xc04219eb	-3.032832
217	0xc0322d49	-2.784014
218	0xc04a4188	-3.1602497
219	0xbf8cd433	-1.1002258
220	0xc0474f1c	-3.1142035
221	0xc03a3318	-2.9093685
222	0xc049347b	-3.1438282
223	0xc044c13a	-3.0742936
224	0xc04829f1	-3.12756
225	0xc03e5685	-2.9740307
226	0xc03d1e68	-2.9549809
227	0xc03e8db8	-2.9773998
228	0xc03b4137	-2.9258554
229	0xc04c8d31	-3.1961176
230	0x40357948	2.8355274
231	0x40201d1b	2.5017765
232	0xc03b7ac0	-2.929367
233	0x40394b15	2.8952076
234	0xc0219407	-2.5246599
235	0xc0431e95	-3.0487416
236	0xc042b927	-3.0425508
237	0xc045b8b7	-3.089399
238	0xc0448cd6	-3.071096
239	0x403d20c1	2.9551241
240	0xc04ef1a3	-3.2334983
241	0x3fc676ef	1.5505046
242	0xc041cc51	-3.0280955
243	0xc04cf635	-3.2025273
244	0xc04b1e79	-3.173735
245	0xc040900d	-3.0087922
246	0xc03d6031	-2.958996
247	0xc03c5bc1	-2.9431002
248	0xc03e1e8f	-2.9706151
249	0xc03ab2fb	-2.917174
250	0xc03872c0	-2.8820038
251	0xc049eae5	-3.1549618
252	0xc035bcff	-2.8396604
253	0xc03fea42	-2.998673
254	0xc03e3511	-2.971989
255	0xc04cc1b4	-3.1993227

fc2.1.0.bias f4 [100]
0	0xc0500bf1	-3.2507288
1	0xbf77c56f	-0.96785635
2	0xc03b3e9d	-2.9256966
3	0xbffbf18a	-1.9683087
4	0xc0453c38	-3.0818005
5	0xbe8f6378	-0.28005576
6	0xc054d906	-3.325746
7	0xc02eb56b	-2.7298229
8	0xc0160434	-2.3440065
9	0xc0425858	-3.036642
10	0xc049fadc	-3.1559362
11	0xc04c842b	-3.195567
12	0xc054c64f	-3.3246038
13	0xc012bb57	-2.2926843
14	0xc0411982	-3.0171819
15	0xc0455c87	-3.0837724
16	0xc04826f7	-3.1273782
17	0xc007658f	-2.1155736
18	0xc04ee805	-3.2329113
19	0xc02c0967	-2.6880739
20	0xc04b9065	-3.1806881
21	0xc0383df3	-2.878781
22	0xc0551094	-3.3291368
23	0xc00bb0e0	-2.1826706
24	0xc032d2de	-2.7941203
25	0xc0538878	-3.3052044
26	0xc02f75f5	-2.7415745
27	0xc011a793	-2.275853
28	0xbfc698c5	-1.5515372
29	0xc021822e	-2.5235705
30	0xc029f27a	-2.6554246
31	0xc044fd89	-3.0779746
32	0xc03b01c2	-2.9219823
33	0xc024af20	-2.5731888
34	0xbf4032fc	-0.75077796
35	0xc0274303	-2.613465
36	0xc0469af0	-3.1032066
37	0xc0486b72	-3.131558
38	0xbfce1111	-1.6098958
39	0xc043197b	-3.0484302
40	0xc04363d6	-3.0529685
41	0xbfec81fa	-1.8477166
42	0xbf6ee312	-0.9331523
43	0xc04a80f4	-3.1641207
44	0xc040aa5a	-3.0103974
45	0xc034eb1d	-2.8268502
46	0xbf6fb938	-0.93641996
47	0xbff99270	-1.9497814
48	0xc0201b68	-2.5016727
49	0xc04ad52a	-3.1692605
50	0xc03b67a9	-2.928202
51	0xbf8c9a3e	-1.0984571
52	0xc043922f	-3.0557973
53	0xc04a951e	-3.1653514
54	0xc0497728	-3.1478977
55	0xc0335bb6	-2.8024726
56	0xbfc90bd9	-1.5706741
57	0xbfd288f9	-1.6448051
58	0x40485856	3.1303916
59	0xbfdd089d	-1.7268254
60	0xc01db4d1	-2.4641612
61	0xc04921cd	-3.142688
62	0xc03d76a7	-2.960367
63	0xc0396e77	-2.8973672
64	0xc0390b74	-2.891324
65	0xc04d39f6	-3.2066627
66	0xc0154f4f	-2.3329656
67	0xc05200dc	-3.2813025
68	0xc04011ce	-3.0010867
69	0xc0493d98	-3.1443844
70	0xbed55c45	-0.4167196
71	0xc003f80b	-2.0620143
72	0xc048409b	-3.1289432
73	0xbfbae6c6	-1.4601676
74	0xbefe3f4f	-0.49657676
75	0xbfa341c0	-1.275444
76	0xc03f7ea8	-2.9921055
77	0x3df85a0f	0.12126552
78	0xc0527376	-3.2882972
79	0x3f564c5f	0.83710283
80	0xc0431a16	-3.0484672
81	0x3f973108	1.1811838
82	0xc0490e18	-3.1414852
83	0xc0416b05	-3.022157
84	0xc02ec432	-2.7307248
85	0xc017fe46	-2.3748946
86	0xc047c4a7	-3.1213777
87	0xbf9c1b20	-1.2195778
88	0x3fa7e45b	1.3116564
89	0xc0542d07	-3.3152483
90	0xc03dc579	-2.9651778
91	0x4008ef03	2.139588
92	0xc004cf9b	-2.0751712
93	0xc03193c0	-2.774643
94	0xc04917ac	-3.1420698
95	0xc029ba84	-2.652009
96	0xbffd6406	-1.979615
97	0xc0464a6a	-3.0982919
98	0xc0304183	-2.7539985
99	0xc042d245	-3.0440838

fc4.weight f4 [6, 100]
0	0xbf8dea38	-1.1087103
1	0x3e318aaa	0.17338052
2	0x403abff6	2.9179664
3	0x3f26b442	0.651188
4	0xc043ba84	-3.058259
5	0xc03d11fc	-2.9542227
6	0xc014fbad	-2.327861
7	0xc03c3d94	-2.9412584
8	0x40210461	2.5158923
9	0x3fc8cee8	1.5688143
10	0x3d98b063	0.07455518
11	0xc0072e16	-2.1121879
12	0xbf838b19	-1.0276824
13	0x403a480a	2.910647
14	0xc04e0da7	-3.2195833
15	0xc0470066	-3.1093993
16	0x401dbed5	2.4647725
17	0x40042edd	2.0653603
18	0x40006c79	2.0066206
19	0xbfa3a5b1	-1.278494
20	0xbd3d1465	-0.046162028
21	0x4034cc95	2.8249867
22	0x400ef318	2.2335873
23	0x40495e52	3.1463819
24	0x3f15f67c	0.5857923
25	0xc03f0bd7	-2.9850976
26	0x403e99a5	2.9781277
27	0x3fe136f2	1.7594893
28	0xc01acf61	-2.4189074
29	0xc0180181	-2.3750918
30	0x40424f70	3.0360985
31	0xbef0ed8c	-0.47056234
32	0x4041e8d6	3.0298362
33	0x40078bc0	2.1179047
34	0x4009c4bd	2.152633
35	0x3fd2a83d	1.6457592
36	0x3fcd1caa	1.6024373
37	0xbf9f3bd7	-1.2440137
38	0x3ef34b0c	0.47518194
39	0xc041691f	-3.022041
40	0x4041bab6	3.027021
41	0x402d3fe1	2.7070239
42	0x3fb7513f	1.4321669
43	0x3c103666	0.008802032
44	0xc049fa29	-3.1558936
45	0xc00ad6d2	-2.1693616
46	0xbfca30dc	-1.5796161
47	0xbf87709b	-1.058124
48	0xbf7935cd	-0.9734772
49	0x3cd519ca	0.026013274
50	0xbf7b43a1	-0.9815007
51	0xbf9e1e70	-1.2353039
52	0x3f167c58	0.58783484
53	0xbd9d7c80	-0.07689762
54	0x402f261d	2.7367013
55	0x4041984e	3.024921
56	0xbf8b6077	-1.0888814
57	0x3fd12fb5	1.6342684
58	0xbdca59a8	-0.09880382
59	0x400de999	2.2173827
60	0xbfe00d73	-1.7504104
61	0x3d33811b	0.043824296
62	0x403c6948	2.9439259
63	0xc02c5515	-2.692693
64	0x40484586	3.1292434
65	0x403c2edb	2.9403598
66	0x3f1ac76c	0.60460544
67	0xc00c9c29	-2.1970313
68	0xc037a641	-2.8695223
69	0x40452d09	3.0808737
70	0xbf8f0801	-1.1174318
71	0xc01d9d6f	-2.462734
72	0xc0296baf	-2.6471975
73	0x3dd1ae0f	0.10238277
74	0x3ff02a10	1.8762836
75	0x3e898292	0.2685743
76	0xc03798f1	-2.8687098
77	0xc0442f76	-3.0653968
78	0xc047936c	-3.118373
79	0xc008b32b	-2.1359355
80	0xc04aa97d	-3.1665947
81	0xbdbab541	-0.09116603
82	0xc0415a92	-3.021153
83	0xc046e9fd	-3.1080315
84	0xbf9e1cfe	-1.2352598
85	0xc00fda16	-2.247686
86	0x3d78b543	0.06071974
87	0xbfdb1277	-1.711501
88	0x3f9d9757	1.231181
89	0xc04584d0	-3.0862312
90	0x4026a57e	2.6038508
91	0x3f126b4d	0.5719498
92	0xbfc404c1	-1.5313951
93	0x404356ca	3.0521722
94	0xc049da61	-3.1539538
95	0x4047ad71	3.119961
96	0xbf9cf082	-1.2260897
97	0xc046a4b2	-3.1038022
98	0x40431330	3.048046
99	0xc044ac18	-3.0730038
100	0x40380793	2.8754623
101	0x3f2070cf	0.6267213
102	0x4036f256	2.858541
103	0x3f7a9328	0.9788079
104	0x40443734	3.0658693
105	0xbe4571ff	-0.19281767
106	0x3e068d7b	0.13139908
107	0x3e24db84	0.16099364
108	0xc04954d3	-3.1458023
109	0x3f1d3848	0.61414003
110	0x3d524ebc	0.05134462
111	0x4044b5bf	3.073593
112	0xc01b30f4	-2.4248629
113	0xc03cc8d0	-2.9497566
114	0x40403b86	3.003633
115	0x40482926	3.1275115
116	0xc006a4d1	-2.1038096
117	0x4021a50e	2.5256991
118	0x3fd2c11a	1.646518
119	0xc03fe669	-2.9984381
120	0x3c1fab37	0.009745411
121	0xc03e2dfe	-2.9715571
122	0xbee94734	-0.45562136
123	0xc03f501b	-2.9892642
124	0xbec49740	-0.38396645
125	0x402920ba	2.6426225
126	0xc042adb0	-3.041851
127	0x3ffddc3c	1.9832835
128	0x40372f88	2.862276
129	0xc03fbe7e	-2.9960017
130	0xc038f4a5	-2.889932
131	0x3fba3002	1.4545901
132	0xc0388a32	-2.8834348
133	0x3fb8f397	1.4449338
134	0xbf721daa	-0.94576514
135	0x3e07469c	0.13210529
136	0x40405b45	3.0055707
137	0x3ece2bec	0.40267885
138	0xbf13dabd	-0.57755643
139	0x4043a31b	3.0568302
140	0xc02a73c0	-2.6633148
141	0xc047071f	-3.1098096
142	0x40095d5d	2.1463234
143	0x3daf86e4	0.0857065
144	0x40401c58	3.00173
145	0xbf7859a0	-0.97011757
146	0x3febcca9	1.8421832
147	0x3f72e5b0	0.94881725
148	0x401788e2	2.3677297
149	0x3b381489	0.0028088412
150	0xc03b37bd	-2.925277
151	0xbfe0ddb3	-1.7567657
152	0xc03b1097	-2.9228876
153	0x3d4ad90e	0.049523406
154	0xc026bab8	-2.6051464
155	0xc03f3add	-2.9879677
156	0xc03c68a9	-2.943888
157	0xbfe5b81c	-1.7946811
158	0x40026280	2.037262
159	0x4016e645	2.3578045
160	0xbe0b973b	-0.13631909
161	0x3d5cf863	0.053947818
162	0x401359d4	2.3023577
163	0xbfd96eb5	-1.698691
164	0xc0429499	-3.0403197
165	0xbffe8a4f	-1.9885958
166	0xbf6e48cc	-0.9307983
167	0x4041e412	3.0295453
168	0x4041529d	3.0206673
169	0xc03f6798	-2.9906979
170	0x3fc33f4e	1.5253694
171	0x402f6d18	2.7410336
172	0x4036f478	2.8586712
173	0xbf8a90ff	-1.0825499
174	0x3ff8eea2	1.9447825
175	0xbe09132c	-0.1338622
176	0x4044b84d	3.0737488
177	0x3f50ef8b	0.81615514
178	0x403fbcda	2.9959016
179	0x401b7e28	2.429575
180	0x4040da28	3.0133152
181	0x3e84fcb1	0.25974038
182	0x403fa956	2.9947104
183	0x4041b3ea	3.026606
184	0x3fd22ccc	1.6419921
185	0x4017f49f	2.3743055
186	0xbd8aec39	-0.06783337
187	0x3fb5a198	1.418994
188	0xc03565f4	-2.8343477
189	0xbf99ac32	-1.2005675
190	0x3fcbe6cb	1.5929807
191	0xbf9b9c04	-1.2156987
192	0x4036dda1	2.8572772
193	0xc042adfb	-3.041869
194	0x4042e59d	3.0452645
195	0xc03ae3e1	-2.9201586
196	0xc03e80b3	-2.9766052
197	0x40423cd2	3.0349622
198	0xc03fbe02	-2.9959722
199	0x404171f5	3.0225804
200	0xc044d4b6	-3.0754828
201	0xbe619e29	-0.2203299
202	0xc038070c	-2.87543
203	0xc01ea071	-2.4785426
204	0xc041d321	-3.0285113
205	0x40352a37	2.8307016
206	0xbf8ac842	-1.0842364
207	0x4039702f	2.8974721
208	0x4039ecba	2.9050736
209	0xc03f6d4a	-2.9910455
210	0xbd6ee990	-0.05832821
211	0x3ff70659	1.9298812
212	0xc023f6f3	-2.5619476
213	0x404993e0	3.1496506
214	0x40484b51	3.129597
215	0xc0407ca9	-3.0076087
216	0xc03700ca	-2.8594232
217	0x40214520	2.519844
218	0x3fc6bac0	1.5525742
219	0x4041d30e	3.0285068
220	0xbd129066	-0.03578224
221	0xc04415ed	-3.0638382
222	0xc046b497	-3.1047723
223	0xc04317f9	-3.0483382
224	0x3fb1b1f3	1.3882431
225	0xc04187e7	-3.0239198
226	0xc046a389	-3.1037314
227	0xc01e75ba	-2.4759355
228	0x4009ccfe	2.1531367
229	0x40451727	3.079538
230	0xc04039b2	-3.0035214
231	0x3eaf343e	0.34219545
232	0xc046bda4	-3.1053247
233	0x40042a8a	2.0650964
234	0x4008bd92	2.1365705
235	0xbee7f7ce	-0.45306247
236	0xc0046e10	-2.0692177
237	0xc04261df	-3.0372236
238	0xbfebf1dd	-1.8433186
239	0xc0462659	-3.0960906
240	0xc03e57a7	-2.9740999
241	0x400565a1	2.084328
242	0xc0047bb9	-2.0700514
243	0x3d47dc73	0.04879422
244	0xc04a1dba	-3.1580644
245	0xc01e23be	-2.4709315
246	0xc006b0f0	-2.1045494
247	0xbf4737e1	-0.7781964
248	0xc045adef	-3.088741
249	0xbd783985	-0.06060173
250	0xc04450e5	-3.0674374
251	0x401c9c71	2.4470484
252	0xc0374dde	-2.8641276
253	0xbd5a6449	-0.053318296
254	0x4025375f	2.5815046
255	0xc04a186d	-3.1577408

fc4.bias f4 [6]
0	0xbdd1793e	-0.10228203
1	0x3fb1d3af	1.3892726
2	0xbfc694e7	-1.5514191
3	0xc036790e	-2.8511386
4	0x3f17e2c7	0.5933041
5	0xbc5d2094	-0.013496537
