figs/default/mlp_model_dict.pt (torch, 182357 bytes, 8 tensors)

fc1.weight f4 [100, 240]
00000000: bc75 1f3f bf96 693e 3ad5 d9be 7563 2fbf
00000010: ee42 51bf fc7a 2abf 0fe0 603e bbb8 2d3f
00000020: 7a92 3f3f 26f0 cf3e 479c 7d3e 6e42 c7be
00000030: b8c5 30bf 8987 4ebf 0db8 12bf e136 173f
00000040: 951a 2f3f 93df 453f dc67 d33e fb14 35bf
00000050: b5f0 53bf 27da 44bf 1203 0abf 79b7 153e
00000060: 17db 303f bc3a 323f 5f6a 153f 28c6 39be
00000070: 4fdc 32bf 3f9c 5bbf 1b4b 4cbf 3082 b0be
00000080: 1a06 963e 8f0e 363f 2eb8 84be 3f5c 853d
00000090: 3ae9 d9be a7e5 c6bd e22a ebbe eab8 0e3f
000000a0: 5fdc ca3e b06a b83e 7d89 533d b0be 24be
000000b0: 49f1 40bf 71dc 40bf c5c9 3abf b801 17bf
000000c0: 69e9 15bf 97f6 f0be 7203 3dbe 8e8f ec3e
000000d0: 5e6c 033f ba0e 2b3f 8313 8abe 4b90 2ebf
000000e0: ff3b 30bf 1620 3abe 1c18 103c ea9f b43e
000000f0: e1b6 a03e 6826 9cbd 04bf 10bf 9298 3abf
00000100: c9e9 5abf b3ff 43bd 3d5a 103f 6a49 3f3f
00000110: b83a 2a3f 3ef7 ba3b 3190 19bf 0e18 4abf
00000120: cb12 36bf ad57 85be d225 5d3e 9277 983e
00000130: 40be 16be 5c4b 08be e722 46bf 830b 43bf
00000140: e2d5 4bbe 56d8 26bf 86df cabe 39c5 ab3d
00000150: deab 88bb b623 a63e 2cd1 89be ff5f 86be
00000160: 62d2 2bbf 4483 3ebf 54fd 13be 76ba 013f
00000170: 3993 fa3e d0f2 6cbe 90e3 5cbf b45b 2dbf
00000180: 6cfb 5cbf 0680 83be 1217 1b3e 2437 a03e
00000190: 3ef2 933e d0e7 c03e 3d46 f5bd f62b 55bf
000001a0: dde6 12bf 5ec9 a13e ccb5 06bf 2c17 03bf
000001b0: c8dc f2bd cc89 07bf 8a44 43bf 667b 1dbf
000001c0: 38ce babe 1192 a63e 3f85 bd3e a516 fa3e
000001d0: 859c 37bd 3e00 59bf c7c3 10bf be69 013e
000001e0: 28d9 d53e 2b85 a63e bd09 383e bff5 1cbf
000001f0: 7023 61bf 95e0 51bf bc4f 5abf 32bb ebbe
00000200: 3277 963e f6fd 273f eefc 073f 096e 943d
00000210: 4509 3bbf 5fc4 2abf 6a39 9dbe c216 723e
00000220: a483 293f 01eb 263f a25b e0be 677e 5fbf
00000230: d747 65bf 76a0 4abf 94f6 7dbe 400a 243f
00000240: ec84 ed3e 39e9 fa3e 6f11 053f 12cf 483e
00000250: eade 1ebf e335 3fbf 68a1 3ebf 0d67 9e3e
00000260: 54e7 2e3f ae7d e23e 7914 43bf 50f3 61bf
00000270: dada 35bf b220 38bf 8e63 cdbe d105 4e3e
00000280: 0279 363f 44ee 28bf ac6f 8bbe 84d1 46be
00000290: 0ad4 ebbd 6073 c2be 8db8 55be 6448 3dbe
000002a0: 9510 633f 4546 333f af05 ce3e 9136 283f
000002b0: 39c0 58bf e563 5fbf 448b 30bf c534 a5be
000002c0: 36d8 433f eb71 403f a7a0 a23e 5fba 4fbf
000002d0: 3000 51bf b9c8 32bd c65c 593f d04c 463f
000002e0: 83f0 563f aad1 b93c 95b2 e83c 0d88 5ebf
000002f0: b1d4 44bf 9d93 a5be 5176 4e3f 1f84 463f
00000300: bc6d 34bf 7046 43bf e1d4 46bf 8aff 9a3e
00000310: 092c 3e3f f349 6d3f 047b 533f 9751 5b3f
00000320: 6a48 e0bd 05e6 47bf 738a bfbe 4a50 59be
00000330: 6475 473e 1124 d93e 5081 4ebf 713a e3be
00000340: 39a4 33bf c3a5 44bf bcdf 1c3f 6dc3 4d3f
00000350: bc5d 4b3f 679d 673f e98e 0e3f b86e 49bf
00000360: 6b05 30bf cd3e 883e fb9f 433f b947 62bf
00000370: 35ce 47bf 2072 eebe 23f0 26bf 27b6 12bf
00000380: 9820 3ebf 5e54 41bf 3de8 2c3f 3bd3 563f
00000390: 4167 603f 9903 063f 3767 20bf 19cb eb3d
000003a0: e3c5 553f 754c 2ebf 1658 56bf adc0 33bf
000003b0: fc4a f4be db08 363f 9270 283f 7f3e 59bf
000003c0: 7159 053f 39ab 3fbe 4ace d43e b883 2b3f
000003d0: f94d 2abe d684 fe3e edd4 413f 490c 103f
000003e0: a9c6 443f cc09 213f c1ef f13e d693 d13e
000003f0: 01a9 8a3e d17b 1c3f 7f8c 97bd 5586 a73e
0.62289023 0.22811411 -0.4254549 -0.68511134 -0.8174275 -0.6659391 0.21960472 0.6786
0.7483288 0.40612906 0.24766646 -0.3891787 -0.69051695 -0.8067556 -0.5731209 0.59068114
0.68399936 0.7729427 0.41290176 -0.7073514 -0.82789165 -0.76895374 -0.53910935 0.1462077
0.69084305 0.6962087 0.58365434 -0.18141997 -0.69867414 -0.8578529 -0.798021 -0.34474325
0.2930153 0.71115965 -0.25921768 0.06511735 -0.4256075 -0.097117715 -0.45931154 0.55750906
0.39621255 0.36018896 0.05164479 -0.16088367 -0.7536817 -0.75336367 -0.72964126 -0.58987
-0.5855928 -0.47063133 -0.18458346 0.46203274 0.5133723 0.66819346 -0.2696801 -0.68188924
-0.68841547 -0.18176302 0.008794811 0.35278255 0.31389526 -0.07624513 -0.56541467 -0.72889054
-0.8551298 -0.047851276 0.5638769 0.74721396 0.6649585 0.005705743 -0.59985644 -0.78942955
-0.71122426 -0.26043454 0.21596459 0.29778725 -0.14721012 -0.13309997 -0.77397007 -0.7618944
-0.19905809 -0.6517385 -0.3962366 0.083872266 -0.004170879 0.3244912 -0.26917398 -0.26245114
-0.67117894 -0.74419045 -0.14452106 0.5067514 0.48940447 -0.231395 -0.8628473 -0.6771805
-0.8632114 -0.25683612 0.1514552 0.3129207 0.28895754 0.3767686 -0.119762875 -0.83270204
-0.5738352 0.31598943 -0.5262115 -0.5120723 -0.11858517 -0.52944636 -0.7627646 -0.61516416
-0.36485457 0.32533315 0.3701572 0.488454 -0.044827003 -0.84765995 -0.5654873 0.12637994
0.4176724 0.32523474 0.17972465 -0.6131248 -0.879447 -0.8198331 -0.85277915 -0.46041256
0.29387814 0.6562189 0.53120315 0.0724755 -0.7306102 -0.6670589 -0.30707866 0.23641494
0.6621649 0.6520234 -0.4381991 -0.8730225 -0.89562744 -0.79151094 -0.24801093 0.6407814
0.46390474 0.4900606 0.51979727 0.19610241 -0.6205889 -0.746916 -0.74465036 0.30937997
0.6832173 0.4423651 -0.76203114 -0.8826189 -0.71037066 -0.7192489 -0.40115017 0.20119406
0.71278393 -0.65988564 -0.27233636 -0.19415861 -0.115150526 -0.3797865 -0.20871182 -0.18484646
0.8869718 0.700291 0.4023871 0.6570826 -0.8466831 -0.872618 -0.689625 -0.32266822
0.76501787 0.75173825 0.31763193 -0.81143755 -0.8164091 -0.043648455 0.84907186 0.77460957
0.8396074 0.022682983 0.028405467 -0.86926347 -0.7688704 -0.32339182 0.80649287 0.7754535
-0.7047994 -0.76279354 -0.7766858 0.30273086 0.7428594 0.9269096 0.8260958 0.8567137
-0.10951312 -0.78085357 -0.37410316 -0.21222034 0.19478375 0.4241033 -0.80666065 -0.44380525
-0.7017246 -0.7681543 0.6127889 0.8037632 0.794399 0.9047455 0.55686814 -0.7868457
-0.6875827 0.26610413 0.76415986 -0.8839069 -0.7804902 -0.46571445 -0.6521017 -0.5730919
-0.74268484 -0.7551936 0.6754187 0.8391606 0.8765755 0.5234924 -0.62657493 0.11513347
0.83505076 -0.68085414 -0.8372816 -0.70215875 -0.4771346 0.7110726 0.6579677 -0.84860986
0.520896 -0.1871766 0.41563636 0.6699786 -0.16631307 0.4971072 0.75715524 0.56268746
0.7686563 0.62905574 0.4725323 0.40933102 0.27082065 0.6112643 -0.073998444 0.32719675

fc1.bias f4 [100]
00000000: 431e 07bf 55e1 3fbf c9d3 cfbe b4dd cfbe
00000010: 8b46 38bf da00 38bf 01ab 85be ac5d eebe
00000020: c89d 11bf ef23 48bf be4e e9be 84d4 15bf
00000030: 0608 26bf 75c0 2dbf cdfe 26bf 49b9 2cbf
00000040: adb5 26bf a075 20bf 8eb9 32bf 405d 38bf
00000050: fc8b 24bf fe14 36bf 05a8 b83e e0ae 203f
00000060: 7ac4 4abf 8b55 3fbf 9504 40be 3e1f 2ebf
00000070: f0c1 3dbf 52ef 58be 9b05 4bbf 5e61 2dbf
00000080: 314c 17bf 41bc 52bf 64b2 12bf bad8 273e
00000090: 46cb 4abf 0441 1abf 4762 1ebf 5ca4 47bf
000000a0: 5e2d da3d 1c60 2dbf aab1 3bbf 63d3 c53e
000000b0: eaa7 2fbf 2ca3 14bf 2efc 0dbf c2a5 bb3e
000000c0: d9f4 20bf 6d54 3cbf b2db ddbe 887c 2dbf
000000d0: 32d3 1bbf 3f73 e33c 10f8 0ebf 7b31 29bf
000000e0: 7ae7 2dbf a064 39bf 01be 36bf 6f84 3ebf
000000f0: 2809 15bf 3cae 24bf fd2d 3cbf 7980 0cbf
00000100: 5e60 ec3d 19e7 4b3e 0f8b 3bbf 8b9c e8bb
00000110: d686 4dbf 667f 2abf 13eb 4dbf e749 28bf
00000120: 4cdd 2dbf 5285 33bf 3a85 4bbf 590b d7be
00000130: a6df 37bf c615 26bf 764f b0be 9330 3bbf
00000140: b7a3 1ebf 4559 3abf ddbc 8bbc b142 1bbf
00000150: ecf8 2fbf 8002 0dbf a319 bebe 7c8e 44bf
00000160: 6952 b6be d993 3bbf 867c 33be 4788 34bf
00000170: 2aca 24bf f62c 1ebf c17a 4abf 5e0e 43bf
00000180: 8cd5 41bf cb3a 1cbe 9c1c b43d f1a8 26bf
-0.5278055 -0.74953204 -0.40591267 -0.40598834 -0.7198264 -0.718763 -0.26107028 -0.4655584
-0.5688138 -0.7817983 -0.45567888 -0.585274 -0.6485599 -0.6787179 -0.65232545 -0.6747022
-0.65120965 -0.6267948 -0.69814384 -0.7201729 -0.642761 -0.7112578 0.3606569 0.6276684
-0.7920605 -0.74739903 -0.18751748 -0.6801642 -0.7412405 -0.21185043 -0.7930543 -0.67726696
-0.59100634 -0.823185 -0.5730345 0.16391268 -0.7921642 -0.60255456 -0.6186871 -0.7798517
0.10653184 -0.67724776 -0.7331797 0.38637838 -0.6861559 -0.5806148 -0.5546292 0.366499
-0.6287361 -0.73566324 -0.43331677 -0.67768145 -0.60869133 0.027764915 -0.55847263 -0.66091126
-0.6793133 -0.72419167 -0.7138367 -0.7442083 -0.58217096 -0.6432836 -0.7350767 -0.54883534
0.11541818 0.19912376 -0.7325906 -0.0070987395 -0.8028387 -0.66600645 -0.8043682 -0.65737766
-0.679158 -0.70125306 -0.7950016 -0.42000845 -0.71825635 -0.64876974 -0.34435624 -0.73120993
-0.6196856 -0.72792464 -0.01705783 -0.6064864 -0.687392 -0.5508194 -0.37128934 -0.76779914
-0.3560975 -0.7327247 -0.1752797 -0.7052044 -0.6437098 -0.61787355 -0.7909356 -0.761938
-0.7571647 -0.15256803 0.08794519 -0.65101534

fc2.weight f4 [100, 100]
00000000: d14e 40bf 918e 3cbf f316 333f 824f 32bf
00000010: b4bb 45bf 3cc6 35bf cb99 3b3f b712 1dbf
00000020: f6c2 2dbf a57d 28bf 1c88 313f 4149 2abf
00000030: 0c0d 3abf dadc 1cbf 02dc 31bf 351e 29bf
00000040: 744c 24bf 948b 43bf b551 23bf 0a36 2cbf
00000050: db76 23bf 90f2 46bf 5a13 26bf dee6 3abf
00000060: 7ef4 31bf e2d0 3ebf 39ab 44bf 2c2f 42bf
00000070: 3a0e 3dbf 1719 33bf 3290 2dbf 94bd 19bf
00000080: 032f 2fbf 9cfe 1dbf cf44 48bf 8d15 36bf
00000090: 37af 3bbf 21f7 2dbf 2a20 95be 7971 34bf
000000a0: 62d9 a7be 5c93 3cbf fac1 27bf 5902 48bf
000000b0: 8dda 36bf 1179 38bf c9c1 3fbf b503 20bf
000000c0: f779 36bf 479b 35bf dec8 373f e877 1dbf
000000d0: c5e5 16bf ee8c 563e 6aa3 2a3f 6139 11bf
000000e0: 87a4 2cbf 3ffb 453f 6fe1 3bbf 83ce 25bf
000000f0: 508b 2abf 56bf f93e fde5 22bf d0d7 3dbf
00000100: 9c8a 1ebf 37b6 31bf db05 21bf f1b1 1fbf
00000110: 9819 2dbf db1d 39bf 9068 2bbf f5dc 30bf
00000120: a43b 2bbf 29a8 4cbf 00ec 1bbf db46 2fbf
00000130: 0c60 35bf a7f2 2abf bb93 393f 028c 19bf
00000140: 768d 3fbf 4631 2cbf ed12 35bf c70c 1e3f
00000150: 8125 3ebf 5c04 2ebf 9f1f 223e 5951 1bbf
00000160: de4a 0abf 2ea8 1abf fd99 d43e a96c 49bf
00000170: 9685 47bf 7fcb 49bf c762 20bf 47f2 44bf
00000180: c05d 26bf 8e30 3fbf 9902 c63e 5649 2bbf
00000190: 0595 3fbe 4130 15bf ad69 a7be 47c3 3bbf
000001a0: 04a1 2c3f 9bdd 4dbe 8c22 483f befc 25bf
000001b0: fc4a 0a3f 8716 9dbe d82d 453f fc7b 11bf
000001c0: 9ada 26bf 9dcf 17bf 8407 0cbf 9f6a f8be
000001d0: aa2b 20bf d4a8 1ebf 282f 21bf 9669 25bf
000001e0: 28de 42bf f902 59bf 4b3b 563f 9d38 0bbf
000001f0: 2673 d1be 209d d3bd 6672 e23e d899 033f
00000200: dbc5 2bbf 8e4c 46bf 11ee dbbe d495 e1be
00000210: 8a09 9cbe 69da 8abe b702 35bf d066 18bf
00000220: 4d0c cbbe 0e37 49bf 8e41 4a3f f43b 07bf
00000230: d23b 0a3f 4b2f 1dbf c6a1 2ebf 1356 3ebf
00000240: 20de 213e 8318 253f 9178 18bf 102a 39bf
00000250: 6a58 20bf 11c1 6a3d 9d16 523f 4357 2dbf
00000260: 704c 373f 0786 d0be d542 1dbf 005f 36bf
00000270: 91c2 07bf 34bd 20bf 6c5e febe 31ee 2cbf
00000280: c1b7 3abf 94ce 2abf 5576 10bf 4f30 2ebf
00000290: 5ceb 92be 8ea5 05bf b3a9 20bf be4e 3d3f
000002a0: 3547 49bf ebb3 1bbf 975c 323f 9acd 34bf
000002b0: 6f20 40be 18f1 15bf c45e f9be 002c f1be
000002c0: d9a0 29bf 0523 0ebf f72a 3d3f 043b d5be
000002d0: 0b90 4dbf a976 41bf 5f4d 82be 8844 45bf
000002e0: affa 2bbf c411 60bd 497f 2f3f 5562 1abf
000002f0: c444 493f 485e 0cbf 8b69 98be 4e56 29bf
00000300: 6a1a 33bf b498 27bf db80 f7be 2b52 113f
00000310: 0b75 24bf 471d 09bf 9c3c 363f b98d 093f
00000320: 2ab6 913e 15a9 50bf 78bb 1a3d 7bff 36bf
00000330: 20f4 36bf 5857 2cbf cd44 123f eb90 1dbf
00000340: 3635 47bf ae79 40bf 3993 e3be 2551 733f
00000350: 5dc4 41bf 503e 4bbf 74a5 2bbf c9b6 26bf
00000360: d11a 22bf 7a1c ffbe 6b47 1cbf 58aa 29bf
00000370: 9329 22bf 3f81 2fbf ff3d e5be 3317 1fbf
00000380: bc12 2ebf d4e2 33bf e19b 203f 710b 39bf
00000390: 654b 333f c758 673f f818 49bf 4f25 1fbf
000003a0: ae8b 79be 55aa 30bf f076 2bbf dec6 26bf
000003b0: fa4e 3fbf 39c1 21bf 1012 1bbf 621d 32bf
000003c0: 4dbd 51bf f670 25bf 6b49 0a3f 8ba4 3dbf
000003d0: 07b2 48bf 66a7 37bf a855 40bf 83b7 583f
000003e0: 0282 49bf a6af 12bf 821a 553f 3901 3bbf
000003f0: 6af1 47bf 42c0 d1be 97bd 2e3f 36b0 3e3f
-0.75120264 -0.7365504 0.6995689 -0.6965257 -0.7723954 -0.71005607 0.73281544 -0.6135668
-0.6787561 -0.6581672 0.6934831 -0.66518027 -0.7267616 -0.6127449 -0.6947633 -0.6606172
-0.6417916 -0.76384854 -0.6379655 -0.6726996 -0.63853234 -0.7771387 -0.6487328 -0.73008525
-0.6951369 -0.7453748 -0.76823765 -0.7585323 -0.73849833 -0.6996016 -0.6779815 -0.600549
-0.6843111 -0.6171663 -0.78229994 -0.71126634 -0.7331423 -0.67955214 -0.29126102 -0.70485646
-0.32783037 -0.7366235 -0.6553036 -0.7812858 -0.7142723 -0.7205973 -0.7490507 -0.62505656
-0.71279854 -0.7094006 0.71790874 -0.6151109 -0.5894435 0.20952198 0.666556 -0.5672818
-0.6743855 0.77336496 -0.7339086 -0.64768237 -0.66618824 0.4877879 -0.63632184 -0.7415743
-0.6193025 -0.6941866 -0.6289956 -0.6238089 -0.6761718 -0.7231118 -0.66956425 -0.69087154
-0.6688788 -0.7994409 -0.6090698 -0.6846749 -0.7084968 -0.6677651 0.72491044 -0.5997926
-0.7482523 -0.67262685 -0.70732003 0.61738247 -0.74275976 -0.679754 0.15832375 -0.60671
-0.5402049 -0.6041287 0.41523734 -0.7868143 -0.7793821 -0.78826135 -0.6265072 -0.76932186
-0.649868 -0.74683464 0.38673857 -0.66908777 -0.1870919 -0.58276755 -0.32697812 -0.73344845
0.6743319 -0.20104067 0.78177714 -0.6483878 0.5402067 -0.3068125 0.77023077 -0.5682981
-0.6517731 -0.5930117 -0.5469897 -0.48518845 -0.62566626 -0.6197636 -0.6296258 -0.64614236
-0.76120234 -0.8477016 0.83684224 -0.5438326 -0.40908164 -0.103327036 0.44227904 0.5140662
-0.6709878 -0.77460563 -0.42955068 -0.44059622 -0.30476028 -0.2711976 -0.7070727 -0.5953188
-0.39657822 -0.7859963 0.7900628 -0.52825856 0.5399753 -0.6140029 -0.68215597 -0.7435009
0.1580739 0.64490527 -0.5955897 -0.7232981 -0.6263491 0.05731303 0.82065755 -0.67711276
0.7160101 -0.40727255 -0.614301 -0.7123871 -0.5303126 -0.627887 -0.49681413 -0.6755095
-0.72936636 -0.66721463 -0.5643056 -0.68042463 -0.2869519 -0.5220574 -0.6275894 0.73948276
-0.7862428 -0.6082141 0.6967253 -0.70626223 -0.18762372 -0.58571005 -0.48705113 -0.47103882
-0.6626106 -0.55522186 0.73893684 -0.41646588 -0.8029792 -0.75571686 -0.25449654 -0.77057695
-0.6717939 -0.054704443 0.68553597 -0.6030629 0.78620553 -0.5483136 -0.29768023 -0.66147316
-0.6996218 -0.6546738 -0.48340496 0.56766003 -0.64241093 -0.535603 0.7118623 0.53731877
0.28459293 -0.81508 0.03777644 -0.7148358 -0.71466255 -0.67320776 0.5713623 -0.6154925
-0.7781557 -0.7518567 -0.4444826 0.9504569 -0.7569025 -0.79391956 -0.67049336 -0.6512266
-0.6332217 -0.49826413 -0.61046475 -0.6627555 -0.6334469 -0.6855659 -0.44773862 -0.62144774
-0.67997336 -0.7026799 0.6273785 -0.72283083 0.7003692 0.9036984 -0.78553724 -0.62166303
-0.2436969 -0.69009906 -0.6697836 -0.651472 -0.74729884 -0.6318546 -0.60574436 -0.69576085
-0.81929475 -0.6462549 0.54018277 -0.740792 -0.7839665 -0.71739805 -0.751307 0.84655017
-0.78714 -0.5729927 0.8324357 -0.7304874 -0.78102744 -0.40966994 0.6825804 0.74487627

fc2.bias f4 [100]
00000000: 2aea 41bf 8222 debd dfc4 42bf f091 02bf
00000010: c1b1 ccbe 1aa1 09bf ac86 433f 11f3 11bf
00000020: 5a87 21bf de4b 12bf 32ed 213f 4528 17bf
00000030: 0769 2e3f d25e 203e 0572 f03d bce0 12bf
00000040: f499 cdbe 2b18 debe e032 44be f2ae 2cbf
00000050: e64b 33bf 72c0 1ebf aaba 0c3f 0d9a 5fbe
00000060: e766 1cbf 05b7 27bf d611 11bf 4657 833d
00000070: 23a2 66be 116b 06bf 7d9f 4bbf eadf 3a3f
00000080: 53fc 0abf 163b 953d ee1c 07bf 8aac 40bf
00000090: 09dd 38bf 640f 41bf 6423 24bf 4cce 2fbf
000000a0: ad38 26bf c034 1f3f 64e7 a7be 4648 48bd
000000b0: fc45 3ebf c11b 1f3f 8285 0bbf 20f4 1cbf
000000c0: fc45 3cbf 1e5b 4a3f 399d 32bf de92 0abf
000000d0: d066 03bf 8b28 b43d 8474 123e fb92 1dbf
000000e0: 5740 33bf 4b20 c8bb cdb9 fa3e 33b1 243d
000000f0: fd7f 093f c53b 9b3e 6ce7 36bf 4a29 00bf
00000100: 0803 fdbe 3fe4 12bf 10a7 b6be d420 41bf
00000110: de17 f4bd 72f0 3cbf 882a 31bf f801 073f
00000120: a359 3a3f 4080 15bf 28e7 87be 76b2 34bf
00000130: 4569 38bf a6a2 1dbf b2f3 39bf 4979 9d3e
00000140: 32f9 8abe 4682 463f 7070 90bd 8e51 cc3e
00000150: 3e3f e1be c434 fcbe 7855 41bf 74be 3ebf
00000160: 03c7 3abf 32e2 cebe 9a79 18bf ef09 22bf
00000170: b1a7 4ebf 9fea 3cbf 78df bfbe c2e3 ddbe
00000180: 795c 96be 75aa 443f c792 5cbf 6c4a 373f
-0.7574793 -0.108464256 -0.7608165 -0.5100393 -0.39979365 -0.53761446 0.7637737 -0.57011515
-0.63097155 -0.57147014 0.63252556 -0.5904582 0.6812901 0.15661171 0.117404975 -0.5737417
-0.4015652 -0.43377814 -0.19160032 -0.67454445 -0.70037687 -0.620124 0.54972327 -0.2183611
-0.61094517 -0.6551364 -0.5666784 0.064131305 -0.22522788 -0.5250712 -0.79540235 0.72997916
-0.54291266 0.072866604 -0.5277852 -0.75263274 -0.7221227 -0.7541411 -0.641165 -0.6867416
-0.6493023 0.62189865 -0.32793725 -0.04889705 -0.7432554 0.62151724 -0.5450059 -0.61310005
-0.7354429 0.79045284 -0.6977115 -0.5413035 -0.51328754 0.087967955 0.1430226 -0.615524
-0.7002005 -0.0061073652 0.4896988 0.040208053 0.5371092 0.30319038 -0.7144687 -0.50063
-0.49416375 -0.57379526 -0.35674334 -0.75440717 -0.11918615 -0.7380439 -0.6920552 0.5273738
0.72793025 -0.5839882 -0.26543546 -0.7058481 -0.7203563 -0.61576307 -0.72637475 0.30756596
-0.27143246 0.7754253 -0.07052696 0.3990597 -0.43993562 -0.49259007 -0.7552104 -0.7450936
-0.7295992 -0.40406948 -0.5956055 -0.6329641 -0.80724627 -0.73795503 -0.3747518 -0.43337828
-0.29367426 0.76822597 -0.86161464 0.71597934

fc3.weight f4 [100, 100]
00000000: 17cb 46bf 8b9f 49bf 624f 28bf f8d2 31bf
00000010: 88a3 3dbf f906 38bf ef50 46bf 9d19 4f3f
00000020: d22c 2ebf 8b20 48bf 9cf1 4ebf cf4a 1cbf
00000030: d4f7 4fbf 4241 2fbf 9ba4 38bf 56da 4b3f
00000040: 383d 24bf e21d 4cbf eee2 32bf 3b2d 3cbf
00000050: 3ae7 28bf 1352 1dbf 4430 42bf 2203 103f
00000060: 9a2c 4dbf 5379 33bf 43f5 4abf c410 48bf
00000070: c788 29bf b536 1d3f 28aa 2abf 1c48 02bf
00000080: 234e 3abf 1769 44bf 456e 36bf 7a60 1bbf
00000090: 3722 46bf 367a 23bf 6913 25bf 2028 2dbf
000000a0: 5c07 1fbf 55c0 3abf 419f 33bf e279 2cbf
000000b0: ee31 1ebf 97c5 2fbf af75 44bf 519d 36bf
000000c0: 933f 22bf df28 2bbf ee8b 45bf b84f 25bf
000000d0: 70bc 4dbf 96ad 253f 5c00 4fbf 6f94 31bf
000000e0: 4a23 29bf 6e76 ebbe d7bc 28bf d3fe 03bf
000000f0: bcc8 22bf 55ee 31bf eb00 223f 1253 42bf
00000100: 94e2 18bf 5002 4ebf 0ac5 bf3e a393 43bf
00000110: 9982 4abf 093c 41bf 4b20 38bf e54b 3abf
00000120: b128 36bf 8571 4bbf 400a 3abf 7742 383f
00000130: bc2b 33bf a160 1fbf 8ad6 3abf 6fb7 35bf
00000140: d8f2 d8be 9ce2 29bf d55c 46bf 1850 33bf
00000150: fc78 25bf b7a5 4cbf 8c07 3ebf 4592 3ebf
00000160: c685 37bf fc6b 17bf a00e 63bf fd3a 38bf
00000170: f6aa 47bf ebb8 32bf 5323 1fbf bd38 16bf
00000180: ce24 1bbf e056 2cbf 6b58 46bf 1ad6 1ebf
00000190: aaa6 41bf d412 07bf b188 35bf 2c13 00bf
000001a0: b179 38bf 2e82 44bf cdc7 49bf d54b 253f
000001b0: 0eab 32bf b3ec 15bf 2abe 23bf 2997 13bf
000001c0: 2d64 bebe 7ca0 34bf 5a42 38bf ef11 44bf
000001d0: 7510 1a3f d927 0abf 4ffa 2d3f 4978 34bf
000001e0: ba84 35bf 7fe7 403f f9ad 3fbf 4d68 31bf
000001f0: 985a 28bf 5d2d 13bf 53e6 153f 767a 17bf
00000200: 050b 57bf a197 c23e eb0a 45bf cb7c 4dbf
00000210: cab1 62bf 2fde 43bf da8b 41bf 1e5f 1ebf
00000220: 4c45 1fbf ac31 27bf e18a 40bf 8710 1dbf
00000230: 4139 013f 2db6 073f 6f1a 3ebf dfdf 4abf
00000240: 60ba 20bf eafa 8e3e 4f09 40bf 1154 31bf
00000250: b697 2cbf 09cd 48bf a3f7 31bf 171f 24bf
00000260: 77a9 42bf 009a 3abf 0fa2 1a3f b86a 36bf
00000270: de48 e1be be88 3ebe 3903 4dbf 9f0e f4be
00000280: c39c 4cbf 3eec 4abf 0e8c 27bf 4be2 d6be
00000290: 2088 29bf db05 25bf 749d ca3e c9e9 47bf
000002a0: c1fa 37bf 4b44 313f e2f7 2abf 0346 223e
000002b0: 56e6 1abf 190a ad3e a84f 34bf 7a62 28bf
000002c0: 6cf7 24bf e9e7 17bf 1c02 47bf 466c 27bf
000002d0: ffff 60bd df63 123e f6ba 54bf 395b 3bbf
000002e0: 236d 903d 0090 293f f026 42bf 2c04 48bf
000002f0: 935e 2e3f 19f7 29bf 5edb c5be 84b4 49bf
00000300: 1caf 2c3f 461c 2ebf 9c0a 2dbf 488f 40bf
00000310: 3487 59bf 664f 47bf d929 06bf 0986 42bf
00000320: c65c b63b 5211 24bf 0965 48bf 36f3 08bf
00000330: a8da 62bf cb12 53bf 8082 4cbf 83a5 f2be
00000340: 2113 5b3d f374 25bf 173a 3bbf b33b 483f
00000350: f417 27bf 7e17 0fbf 456a 01bf ed32 273f
00000360: e7bf 24be b0fe 47bf 4a31 333f d19f 2fbf
00000370: 1f18 353d af41 223f bf69 0d3f 2378 28bf
00000380: 48dd 2cbf a635 2b3d c3a9 17bf 285c 3ebf
00000390: 1448 5fbf 1fad 1f3f 3973 99bd 591e 3ebf
000003a0: c28d f6be fd3f 11bf b86a 51bf 1320 b53b
000003b0: 54c0 923c 583f c93a 9b4d 25bf e806 06bf
000003c0: 299e 473f 0cc7 cdbe 1556 0cbf e33b 4ebf
000003d0: 1305 3a3b 452c 29bf 607a 52bf e5c8 25bf
000003e0: 649f 5ebf 6e5b 26bf ae95 34bf e806 22bf
000003f0: ea47 3dbf ec2c 2fbf 484a 32bf 5812 3dbf
-0.7765364 -0.7875907 -0.6574613 -0.6946254 -0.74077654 -0.7188564 -0.77467245 0.8089846
-0.6803714 -0.78174657 -0.80837417 -0.6105165 -0.8123753 -0.6845895 -0.7212617 0.7963003
-0.6415591 -0.797331 -0.6987752 -0.73506516 -0.65977824 -0.6145336 -0.758549 0.5625478
-0.8014618 -0.70107 -0.7928049 -0.7815058 -0.6622433 0.614116 -0.6666589 -0.5089128
-0.7277548 -0.76722854 -0.7126201 -0.60694087 -0.7739596 -0.63858354 -0.6448274 -0.6763935
-0.62120605 -0.72949725 -0.7016488 -0.6737348 -0.61794937 -0.68660873 -0.7674207 -0.71333796
-0.63378257 -0.6685924 -0.7716664 -0.64574766 -0.8036566 0.64717996 -0.80859923 -0.69367117
-0.6606947 -0.45988792 -0.65913147 -0.51560706 -0.63587546 -0.6950429 0.6328265 -0.75908005
-0.5972073 -0.8047228 0.37455016 -0.7639715 -0.79105526 -0.7548223 -0.71924275 -0.72772056
-0.7115584 -0.7947009 -0.7267189 0.7197642 -0.6998861 -0.6225682 -0.7298361 -0.7098302
-0.42372775 -0.66361403 -0.774854 -0.7004409 -0.6463773 -0.7994036 -0.74230266 -0.7444194
-0.716885 -0.59149146 -0.8869419 -0.7196501 -0.7799524 -0.6981341 -0.62163275 -0.58680326
-0.60603034 -0.6732006 -0.77478665 -0.62045443 -0.75644934 -0.52763104 -0.709117 -0.50029254
-0.72060686 -0.7676114 -0.78820497 0.64568835 -0.6979226 -0.585643 -0.6396204 -0.5765253
-0.37185803 -0.7055738 -0.71976244 -0.76589864 0.6018136 -0.5396705 0.67960066 -0.7049604
-0.7090565 0.75353235 -0.74874836 -0.69299775 -0.65763235 -0.57491094 0.5855457 -0.59171236
-0.8400119 0.3800631 -0.76969784 -0.80268544 -0.88552535 -0.765109 -0.7560402 -0.6186389
-0.62215114 -0.6531017 -0.7521191 -0.61353344 0.5047799 0.53012353 -0.74259084 -0.7924785
-0.62784386 0.27925807 -0.75014204 -0.692689 -0.6741899 -0.7843786 -0.6951849 -0.6410994
-0.7603983 -0.72891235 0.6040353 -0.7125659 -0.44000906 -0.1860685 -0.8008304 -0.47667405
-0.799267 -0.79266727 -0.6544808 -0.41969523 -0.66223335 -0.6446206 0.39573252 -0.780911
-0.71866995 0.6924483 -0.6678449 0.1584702 -0.60507715 0.33796766 -0.70434046 -0.65775263
-0.64440036 -0.5933824 -0.77737594 -0.6539959 -0.054931637 0.1429591 -0.8309778 -0.7318607
0.07052066 0.6623535 -0.75840664 -0.78131366 0.6811306 -0.66392666 -0.38643926 -0.7879107
0.67454696 -0.6801189 -0.67594314 -0.7521863 -0.8497193 -0.7785553 -0.52407604 -0.7598577
0.0055652587 -0.6408893 -0.7827917 -0.5349611 -0.8861489 -0.8245055 -0.7988663 -0.473919
0.05348504 -0.64631575 -0.73135513 0.78216094 -0.65270925 -0.5589522 -0.5055278 0.6531208
-0.1608883 -0.78123 0.69997084 -0.68603235 0.044212457 0.63381475 0.5523948 -0.65808314
-0.6752515 0.04179921 -0.5924341 -0.7435937 -0.8721936 0.62373537 -0.0749268 -0.74265057
-0.48155028 -0.56738263 -0.81803465 0.005527505 0.017913975 0.0015353961 -0.6457154 -0.5235429
0.7797571 -0.40190923 -0.5481885 -0.8056013 0.0028384372 -0.66083175 -0.8221798 -0.64759666
-0.8696196 -0.6498326 -0.70540893 -0.6329179 -0.7393786 -0.6842792 -0.69644594 -0.73856115

fc3.bias f4 [100]
00000000: c2bb 22bf 8e35 2fbf 9d2b 1bbf 6b69 543f
00000010: 5cf3 0dbf 2db6 043f b566 453f 060f 17bf
00000020: d21f 373f 3f31 54bf 5fda 4d3f 59f2 043f
00000030: 1099 39bf 57cb 383f b089 4b3f aa42 36bf
00000040: e5e4 55bf 8c30 1f3f e515 293f fd94 273f
00000050: e2b8 27bf 9b49 093f aca4 973e 3ef5 3a3f
00000060: 0062 57bf 80d5 24bf 1218 31bf f67e 2c3f
00000070: f688 2bbf d51f 43bf 3676 7fbe 047d a2be
00000080: 89d4 c1be 3486 3cbf 2a85 27bf cf80 20bf
00000090: 7a78 6bbe b4d0 2b3f 1917 253f 6ef4 debe
000000a0: d21b 47be bb5a 073f e449 1e3f 0c41 39bf
000000b0: 6c10 1dbf e68e 21bf 905a 37bf b072 c2be
000000c0: 840c c8be 63e5 42bf 8c64 25bf 34d3 49bf
000000d0: 4e2a 5e3f 7eff 4ebf 3633 26bf cb4c 173f
000000e0: 4bd0 553f 1291 ee3d 34b6 25bf 34b6 23bf
000000f0: 3c90 f03e 5b72 923e 68a2 563f 10a9 543f
00000100: 73ec 26bf 7a59 2c3f 0b48 26bf 7e4c 6cbe
00000110: c5e1 36bf 2f70 3ebf 4784 31bf e554 94bd
00000120: 54d1 3abf e7f0 d63e 5716 253f b836 f8be
00000130: aa0a 27bf 42b5 42bf db47 0bbf 7074 133f
00000140: 181a 44bf 42c9 31bf beb2 4dbf 6b39 3cbf
00000150: 6d1f 45bf f4e0 25bf f53e 3fbf 2d2a 353f
00000160: d68b 32bf 7173 23bf 312c 8f3c e92a 933e
00000170: c39f 3ebf 414e 1f3f 13e4 2e3f 196c 05bf
00000180: 49fc 1fbf 792c 383f 7389 37bf 838e 5f3f
-0.63567746 -0.6844109 -0.60613424 0.82973355 -0.5544946 0.5184048 0.77109843 -0.590073
0.7153293 -0.82887644 0.8041133 0.51932293 -0.7249918 0.7218527 0.7950697 -0.7119547
-0.8355239 0.6218345 0.66049033 0.65461713 -0.65516484 0.5362794 0.29617822 0.7303046
-0.8413391 -0.64388275 -0.69177353 0.67381227 -0.6700586 -0.76220447 -0.24947438 -0.31736004
-0.37857464 -0.7364228 -0.6543757 -0.62696546 -0.22995177 0.6711533 0.6448837 -0.4354586
-0.19444206 0.5287282 0.618315 -0.7236488 -0.6135318 -0.6310867 -0.7162256 -0.37978125
-0.3907205 -0.76131266 -0.6460655 -0.78837895 0.867833 -0.808586 -0.6492189 0.5910155
0.83520955 0.11648764 -0.64731145 -0.63949895 0.46985042 0.2860287 0.8384156 0.8307047
-0.6520454 0.6732403 -0.6495368 -0.23076054 -0.71438247 -0.7438993 -0.69342464 -0.07242755
-0.7297566 0.4198067 0.6448721 -0.48479247 -0.6525065 -0.7605783 -0.5440652 0.57599545
-0.76602316 -0.6944772 -0.80350864 -0.7352511 -0.77001077 -0.64796376 -0.7470544 0.7076748
-0.6974462 -0.63848025 0.017477127 0.28743675 -0.7446253 0.6222878 0.68316764 -0.5211807
-0.6249433 0.7194286 -0.71694106 0.8732683

fc4.weight f4 [6, 100]
00000000: 9da0 32bf 309c eabe efa9 d4be a992 b03e
00000010: f560 0fbf 8339 353f 5954 1b3f f772 09be
00000020: ad3c fb3e e6d5 863e f403 b63e 0ac0 1b3f
00000030: af81 1cbe 29df 2f3f b066 3d3f f745 2abf
00000040: d5a4 2ebf 139b e0be b6d6 0e3f 4513 253f
00000050: 8471 27bf 9199 2d3f fc6c 4bbf 2f2e 0a3e
00000060: 3c9d 5d3e c129 22bf 3d9c 3d3f 0638 34bd
00000070: 28cc e3be 530d 33bf 5ba1 db3e a5fe debe
00000080: 6328 d73d 0a4a 43bf d495 33bf 51e2 36bf
00000090: 8bed 563e 37f4 0a3f 5b89 3b3f aaf2 07bd
000000a0: 4b2f 353f 5e47 993e 262a 2f3f 7255 243f
000000b0: b585 3dbf 6bca 35bf 3d7b 43bf 642f 9e3e
000000c0: 375b 10bf 37fe 303f 5e8f e2be ea17 0e3f
000000d0: 30ef a83e 12e2 963e 0996 81be 647a 1e3f
000000e0: 5e93 af3e 0942 0f3e 4d68 32bf dce9 3fbf
000000f0: 8ee9 ee3d 3675 c93e a752 313f 8826 c63e
00000100: dca8 36bf 061a f93d 7451 193f 23e5 09bf
00000110: 118d 36bf f7bf 42bf e47c 40bf 1a8f 69be
00000120: 85bb 273f 1aee 763e a856 163f 4581 123f
00000130: acc0 073f 7a54 41bf 278d af3e 1ded b33e
00000140: 4410 48bf 6166 28bf f5bd 383f 7804 343f
00000150: b289 1cbf 604d 10bf 4ded 0e3e 4107 893e
00000160: 3c30 c3be e996 3bbf bfaf 3a3f 057f 2d3d
00000170: 2023 39bf fc6a 4b3d 96c0 503e 75cf 293f
00000180: 95b1 053f f0ee 183f 0350 2abf 398f 513e
00000190: 1c4b 1c3f 5a82 80bd 9f0e 063f 159a b13e
000001a0: e18a 253f d045 2abf f112 10bf 6a6f 533e
000001b0: 7e1c 15bf 4f1d 24be 16a0 ba3e f0e8 dd3e
000001c0: 71d0 8abe fe66 f9be 9184 e03e bd95 f43d
000001d0: 9fec 203f bd02 32bf 5cf2 12bf a814 13bf
000001e0: 1617 313f e150 11bf 71f9 33bf 57c9 3ebf
000001f0: 4a57 d7be d8e9 393f 07ec 27bf 1633 06bf
00000200: 5ae5 2e3f 9f8e 2abf 7c0c b33e 8224 23be
00000210: 8282 5ebe d60c 2d3f 8a77 133e c4e5 293f
00000220: b6f8 ab3d 73aa 32bf 8bd0 27bf a87e a43e
00000230: edd1 2cbf 1f78 2bbf 8761 1fbf b57b 2ebf
00000240: 0d24 323f 75c4 2b3f 2a69 1e3f 80ff fd3e
00000250: 8a36 1cbf 6d15 31bf 3f2e 633d 004f 2cbf
00000260: 5b2e 10bf 61fb 75be ab1a cbbd b4fb 22bf
00000270: 3c62 d3bd df38 143f 4137 2d3f 9d13 2c3f
00000280: 1671 083f 649f 243e e8c2 10bf e96e 523e
00000290: 6a0d 253f 9af7 6f3e 560c 133f 08e1 a13e
000002a0: d5ae 1e3f df82 1f3f e0e4 233f b4b0 27bf
000002b0: 499d 03bf 523c 843e 3f8a 2bbf a13c 16bf
000002c0: 270d 2a3f bbc0 293f e1b2 febd 3900 303e
000002d0: f5a8 163f ab5f 293f ffb0 183f 0e2f 3f3f
000002e0: d512 04be 3292 d83e 23ae 02bf b3f4 32bf
000002f0: 5002 053f f5ce 2d3f 9af6 29bf d997 0d3f
00000300: 44b9 1a3f 6675 4bbf 78e4 80bc 0697 22bf
00000310: 9e29 363e 4baf bbbe be35 1c3f 81e6 883e
00000320: 9d6f 35bf 754f 903e 7e3f 973e bf48 0ebf
00000330: 3a88 033f d9ce 423f 8106 a7be 067c e0be
00000340: 4b3c aebe 4c8e ce3e 0119 44bf d88d 47bf
00000350: 575f 69bf 2b3e 44bf 19eb 1cbf 81ae bd3e
00000360: 7b28 43bf c3db 38bf a523 ebbe d048 47bf
00000370: 30e2 33bf 2a71 39bf a5a5 1d3f aed9 803e
00000380: fe02 96be 0ca7 fa3e 5fa9 34bf 8c17 2dbf
00000390: ceb9 2a3f 0ff6 233f 3413 7c3e 19e3 44bf
000003a0: c67a 38bf 2c05 2cbf 85e4 1b3f dfb5 2bbf
000003b0: 9367 c2be b68f 3ebf 7563 40bf 764f 2fbf
000003c0: a82c 4b3f 1a7c 623e 57b5 35bf 3528 013f
000003d0: 17f6 2cbf bde5 4abf 707e 31bf 85f0 103f
000003e0: 4540 c6be a452 4bbf 35f5 3cbf 2c85 8cbe
000003f0: ff87 453e ca21 373e 8559 e53e 7755 23bf
-0.69776326 -0.45822287 -0.415359 0.34486893 -0.5600732 0.7079088 0.6067558 -0.13422762
0.4906973 0.26335067 0.3554989 0.60839903 -0.15283845 0.6869989 0.73984814 -0.6651301
-0.68220264 -0.43868312 0.5579637 0.6448253 -0.65407586 0.6781245 -0.7946317 0.1349418
0.21642011 -0.6334496 0.74066526 -0.04399874 -0.44491696 -0.69942206 0.42896542 -0.43553653
0.1050575 -0.7628485 -0.70150495 -0.7143908 0.20989053 0.5427889 0.7325646 -0.033190407
0.7077529 0.2993726 0.6842369 0.6419288 -0.74032146 -0.7101199 -0.7635992 0.3089553
-0.5638918 0.691379 -0.44250005 0.5550524 0.32994986 0.29469353 -0.2530978 0.61905503
0.3429212 0.13990034 -0.696904 -0.74966216 0.11665641 0.39347237 0.6926674 0.38701272
-0.7135141 0.12163167 0.5988991 -0.5386526 -0.71309 -0.76074165 -0.7519057 -0.22808495
0.6552051 0.24114266 0.58725977 0.572285 0.5302837 -0.75519526 0.34287378 0.3514184
-0.7814982 -0.6578122 0.7216485 0.7031932 -0.61147606 -0.56368065 0.1395771 0.26763347
-0.38122737 -0.73277146 0.7292442 0.042357463 -0.7231922 0.049662575 0.20385966 0.6633218
0.52224094 0.5973959 -0.6652834 0.20464791 0.6105211 -0.062748626 0.5236606 0.34687868
0.6466504 -0.66512775 -0.562789 0.2064797 -0.582466 -0.16026805 0.3645026 0.4334178
-0.27112153 -0.4871139 0.4385114 0.11942623 0.62861055 -0.6953543 -0.5740106 -0.57453394
0.6917585 -0.56764036 -0.7030249 -0.7452597 -0.42058784 0.7262244 -0.65594524 -0.524217
0.6831871 -0.6662387 0.34970462 -0.15931895 -0.21729472 0.6759771 0.1440107 0.6636622
0.08397047 -0.69791335 -0.65552586 0.3212788 -0.6750782 -0.66980165 -0.6225819 -0.6815751
0.6958626 0.67096645 0.6187922 0.49608994 -0.6102072 -0.6917332 0.055464026 -0.67308044
-0.5632073 -0.24021675 -0.09917196 -0.6366532 -0.10321471 0.5789928 0.67662436 0.6721743
0.53297555 0.16076428 -0.56547403 0.20550121 0.64473593 0.23434296 0.574407 0.31616998
0.6198552 0.6230907 0.6402111 -0.65504 -0.51411873 0.2582727 -0.6700782 -0.5868626
0.6642632 0.6630971 -0.12436462 0.17187585 0.5885156 0.661616 0.59645075 0.74681175
-0.12897809 0.42299038 -0.5104696 -0.6990463 0.51956654 0.67893916 -0.6639191 0.55309826
0.6043894 -0.7947601 -0.015733942 -0.63511693 0.17789313 -0.36657175 0.61019504 0.2673836
-0.70873433 0.2818562 0.29540628 -0.5557975 0.5137974 0.76096874 -0.3262215 -0.43844622
-0.34030375 0.4034294 -0.7660065 -0.7795081 -0.911611 -0.7665736 -0.6129623 0.37047198
-0.76233643 -0.7221033 -0.45925632 -0.7784548 -0.7026701 -0.724383 0.6158088 0.25166076
-0.29299158 0.48955572 -0.7057094 -0.67614055 0.66689765 0.6404733 0.246167 -0.76909024
-0.7206234 -0.6719539 0.6089557 -0.6707439 -0.37969646 -0.74438035 -0.7515176 -0.6848062
0.79365015 0.22117653 -0.7097983 0.50451976 -0.67563003 -0.792568 -0.69333553 0.56617004
-0.3872091 -0.79422975 -0.73811656 -0.27445352 0.1929016 0.17883983 0.4479486 -0.63802284

fc4.bias f4 [6]
00000000: ab4a adbe 6abd 413e 06d5 23bf 6d96 23bf
00000010: bb63 35be 4be1 293f
-0.3384603 0.18919912 -0.6399692 -0.63901407 -0.17713825 0.66359395
