figs/diff_kernels/cnn-3/cnn_model_dict.pt (torch, 753251 bytes, 12 tensors)

conv1.weight f4 [100, 3, 3]
0	0xbf664e79	-0.8996349
1	0xbee57cc3	-0.44821748
2	0xbeeb7445	-0.45987144
3	0xbee2e6c6	-0.4431669
4	0xbf29729c	-0.66190505
5	0xbf2e7d61	-0.68160063
6	0x3f18a906	0.5963291
7	0x3d89197e	0.066943154
8	0x3dbb3872	0.091416255
9	0x3f187973	0.59560317
10	0x3f23ed09	0.6403356
11	0x3f4f4c0e	0.80975425
12	0xbf15e1c2	-0.58547604
13	0xbec7fbfe	-0.39059442
14	0xbf21e1cc	-0.63235164
15	0xbf6d4a9d	-0.92691976
16	0x3e847e3a	0.25877553
17	0xbf29d616	-0.66342294
18	0x3f11d3cf	0.5696382
19	0x3ec1219b	0.3772095
20	0xbeea4d33	-0.45762023
21	0xbe94e26f	-0.29079005
22	0xbf6045f6	-0.8760675
23	0xbf30eee3	-0.6911451
24	0xbf67189f	-0.90271944
25	0xbf103249	-0.5632673
26	0xbf0eb540	-0.55745316
27	0xbeae40cd	-0.34033814
28	0x3f88cb94	1.0687127
29	0xbdf75728	-0.120771706
30	0xbf3bfb2f	-0.7343015
31	0xbef44c32	-0.47714382
32	0x3cef974e	0.029246952
33	0xbf4eb928	-0.80751276
34	0x3f7065dc	0.93905425
35	0xbd8d608b	-0.0690318
36	0x3e19244e	0.14955255
37	0x3f5ed091	0.87037
38	0x3ea5f5a0	0.3241396
39	0xbe6e8b47	-0.23295318
40	0xbf21c2b2	-0.63187706
41	0xbed60bf6	-0.41806
42	0x3ed6c9ac	0.41950738
43	0xbed207d3	-0.41021594
44	0xbf67037d	-0.902397
45	0xbea05614	-0.31315672
46	0xbd92c507	-0.07166486
47	0xbf50d7b4	-0.81579137
48	0xbf00f03e	-0.5036658
49	0xbeeacd03	-0.45859537
50	0xbef9d5af	-0.4879584
51	0xbe9dbb3e	-0.30806917
52	0x3f8ae513	1.0851158
53	0xbf51d601	-0.8196717
54	0x3f0cd1d1	0.55007654
55	0x3f5798e7	0.84217685
56	0xbea2199c	-0.31660163
57	0xbd45aac7	-0.04825857
58	0x3e8eb835	0.27874914
59	0x3f1c729a	0.6111237
60	0x3f28dd25	0.6596244
61	0x3f585851	0.8450976
62	0xbf61fcbc	-0.8827627
63	0x3d458386	0.048221134
64	0xbedd0ede	-0.43175405
65	0x3f35d7a1	0.7103215
66	0xbefc7ee2	-0.49315554
67	0xbf26a8e1	-0.6510144
68	0xbf10480c	-0.56359935
69	0xbf09eb8e	-0.5387505
70	0x3e0edd27	0.1395155
71	0xbe993238	-0.29921126
72	0xbf2ca11c	-0.67433333
73	0xbf213c38	-0.6298251
74	0x3e97f3ca	0.29678184
75	0xbf4e126b	-0.80496854
76	0xbf6cd849	-0.92517525
77	0xbf819c30	-1.012579
78	0x3df2f449	0.11863
79	0xbe20d0ab	-0.157046
80	0xbf393aac	-0.7235515
81	0xbf2bbba1	-0.67083174
82	0xbf6a3fb5	-0.9150346
83	0xbecbd402	-0.39810187
84	0xbf0f956f	-0.5608739
85	0xbefcecbc	-0.49399364
86	0xbf489a48	-0.78360415
87	0x3ee6a22e	0.45045608
88	0x3cef52b0	0.029214233
89	0x3f376c0c	0.7164924
90	0xbeee63be	-0.46560472
91	0xbe04322e	-0.12909767
92	0x3f578a5a	0.8419548
93	0xbea42c37	-0.32064983
94	0xbeb7bb2a	-0.35884982
95	0xbc8b7496	-0.017023366
96	0xbddccdc5	-0.10781435
97	0xbe579335	-0.21052249
98	0xbf36eceb	-0.7145526
99	0xbf368c45	-0.71307784
100	0xbe36aba3	-0.17838912
101	0xbf1e7171	-0.6189185
102	0xbf0871c2	-0.5329858
103	0xbe73c9c5	-0.23807438
104	0xbf0acf8a	-0.5422293
105	0xbf1283d5	-0.5723241
106	0x3f8beaf3	1.0931076
107	0xbf79702b	-0.9743678
108	0x3e3d48bf	0.18484782
109	0xbe000989	-0.12503637
110	0xbf070024	-0.5273459
111	0x3ebb1878	0.36542106
112	0x3f20e831	0.62854296
113	0x3eabc58f	0.33549163
114	0x3f7fae89	0.99875695
115	0xbe50e058	-0.2039808
116	0xbf60458a	-0.8760611
117	0xbe011b1e	-0.12608
118	0xbeacd95a	-0.33759576
119	0x3e820014	0.25390685
120	0xbf7d7fca	-0.99023116
121	0xbe8319b1	-0.25605538
122	0x3f3cb51d	0.73713857
123	0x3f7ea812	0.99475205
124	0xbeeb5653	-0.45964298
125	0x3e52efd4	0.205993
126	0xbebf1503	-0.37320718
127	0xbe1a337d	-0.15058704
128	0xbf720888	-0.9454427
129	0xbf5fb250	-0.8738146
130	0xbee7f758	-0.45305896
131	0xbea33e31	-0.31883386
132	0x3de3356d	0.110941745
133	0x3da93ca2	0.08263518
134	0x3e616f98	0.22015226
135	0xbf46667c	-0.7750013
136	0xbf314487	-0.6924519
137	0xbe47c386	-0.1950818
138	0xbe9d06e5	-0.30669323
139	0xbeac4434	-0.33645785
140	0xbe1a76ed	-0.15084429
141	0xbefaccf8	-0.48984504
142	0xbebd17fa	-0.36932355
143	0x3f72ab82	0.9479295
144	0x3f24ed02	0.64424145
145	0xbde83ec5	-0.11340097
146	0xbe88c0df	-0.2670965
147	0xbd811f58	-0.063048065
148	0xbf313dfb	-0.692352
149	0xbf1ad1f5	-0.6047662
150	0x3eef0660	0.4668455
151	0xbeda6c20	-0.42660618
152	0xbf5fb92f	-0.8739194
153	0xbe937ed6	-0.28807706
154	0x3ee4cbfa	0.44686872
155	0x3f3b39c3	0.7313501
156	0xbedc3b77	-0.43014118
157	0xbf45dfe7	-0.7729477
158	0xbf139888	-0.5765462
159	0x3ec9e813	0.3943487
160	0x3f89e2ef	1.077238
161	0x3f1f50f9	0.6223293
162	0xbf07a54e	-0.5298661
163	0xbf253ca3	-0.6454565
164	0x3f08f2db	0.5349557
165	0xbc96f67e	-0.018428084
166	0x3cbfb62c	0.023402296
167	0xbf645f35	-0.89207774
168	0xbf61486d	-0.8800114
169	0xbf6ad5fa	-0.9173275
170	0xbec8c294	-0.3921095
171	0xbed0864a	-0.40727454
172	0xbd3458b3	-0.044029903
173	0xbf5d789c	-0.8651216
174	0xbf5c9a41	-0.8617287
175	0x3ea17d61	0.3154097
176	0x3ed72237	0.4201829
177	0xbf848e2d	-1.0355889
178	0xbf1783ef	-0.5918569
179	0xbf80a091	-1.0049001
180	0xbf326c13	-0.6969616
181	0xbef59b7a	-0.47970182
182	0x3f308f78	0.68968916
183	0xbf2d704e	-0.6774949
184	0xbef041a8	-0.46925092
185	0xbc141a07	-0.0090394085
186	0xbe3f7649	-0.18697466
187	0x3e85808c	0.26074636
188	0x3f5db82f	0.86609167
189	0x3f52848d	0.82233506
190	0xbe556ac5	-0.2084151
191	0xbf6876c1	-0.90806204
192	0x3ed8431e	0.42238706
193	0x3d723164	0.059129134
194	0xbf6515d9	-0.8948646
195	0xbd2509bf	-0.040292498
196	0xbadba8b9	-0.0016758657
197	0xbf4905d8	-0.7852454
198	0xbec7d7c5	-0.39031807
199	0xbed6c36a	-0.41945964
200	0xbeb2dca0	-0.3493395
201	0xbf585ee4	-0.8451979
202	0xbee4b6a5	-0.44670597
203	0x3df31b9d	0.11870501
204	0xbf202c24	-0.62567353
205	0xbf4dabb3	-0.8034012
206	0xbe2fc751	-0.17165877
207	0x3e1df1b3	0.15424232
208	0x3ee8104e	0.4532494
209	0x3e9e167a	0.30876523
210	0xbf769c2e	-0.9633206
211	0xbe0dd00d	-0.13848896
212	0xbe0488be	-0.12942788
213	0xbea414e1	-0.3204718
214	0x3f6ad93f	0.9173774
215	0xbf444c70	-0.76679134
216	0xbe892aab	-0.26790366
217	0x3e25ebcb	0.16203229
218	0x3f49144b	0.7854659
219	0xbf15afe7	-0.5847153
220	0xbf4be5a1	-0.7964726
221	0xbf3f1dc2	-0.7465478
222	0x3f4c5c74	0.7982857
223	0x3ea46b61	0.32113174
224	0x3f5c39c5	0.8602565
225	0x3d481cb0	0.048855484
226	0x3c5b8d9a	0.01340046
227	0xbf2daa42	-0.6783792
228	0xbf1d4bcd	-0.6144379
229	0x3edd0483	0.43167505
230	0x3eedca87	0.4644358
231	0xbf8c78cf	-1.0974368
232	0xbf5614ef	-0.8362569
233	0xbed62b15	-0.41829744
234	0xbaabe85c	-0.0013115513
235	0xbf3465be	-0.70467746
236	0x3f3c42ff	0.7353973
237	0xbf3fc667	-0.7491211
238	0xbec10e60	-0.3770628
239	0xbf4b2261	-0.79349333
240	0xbf32c9ef	-0.69839376
241	0x3ebba3d2	0.36648422
242	0x3f202113	0.6255047
243	0xbf844f01	-1.033661
244	0xbf72295f	-0.9459438
245	0x3e9a4b57	0.30135605
246	0xbeb37837	-0.35052654
247	0xbeb5c16a	-0.35499126
248	0x3ea4ddd2	0.32200485
249	0xbf876dd5	-1.0580393
250	0x3edf6122	0.43628794
251	0x3f8586a7	1.0431718
252	0x3ec11a35	0.37715307
253	0xbf244156	-0.64162195
254	0x3ea17840	0.31537056
255	0xbe8b8951	-0.27253202

conv1.bias f4 [100]
0	0xbf580a96	-0.8439115
1	0xbf1e4b84	-0.6183398
2	0xbf3c70f9	-0.7360988
3	0xbf3ca55f	-0.73689836
4	0xbf0640ec	-0.5244281
5	0xbf66fdc1	-0.9023095
6	0xbf3878e2	-0.7205945
7	0xbf2c1bfd	-0.67230207
8	0xbee87dfe	-0.45408624
9	0xbf1dd6ba	-0.6165577
10	0xbf52a09d	-0.82276326
11	0xbf4e0968	-0.804831
12	0xbf25c597	-0.64754623
13	0xbe733cd8	-0.23753679
14	0xbf30c18d	-0.69045335
15	0xbee150fc	-0.440071
16	0xbf3f8416	-0.7481092
17	0xbecdd186	-0.40198916
18	0xbf0ee386	-0.55815923
19	0xbe62e3f3	-0.22157268
20	0x3f2c1584	0.6722033
21	0xbf26d824	-0.65173554
22	0xbf61d55e	-0.882162
23	0xbf3a7cc0	-0.72846603
24	0x3e83df2d	0.25756207
25	0xbee46987	-0.4461176
26	0xbefd6911	-0.49494222
27	0xbe5edfca	-0.21765056
28	0xbf30dec8	-0.6908994
29	0xbf3e6fcd	-0.74389344
30	0xbf22dc29	-0.6361719
31	0xbf5a3544	-0.85237527
32	0xbf55b3c1	-0.8347741
33	0xbf5086bf	-0.81455606
34	0xbef0a391	-0.4699979
35	0xbe8ec606	-0.27885455
36	0xbf63cdfb	-0.88986176
37	0xbd9d56b1	-0.07682551
38	0xbed960c2	-0.42456633
39	0xbf4717e3	-0.77770823
40	0xbf74beca	-0.9560362
41	0xbf6f4d2d	-0.93477136
42	0xbeb47d32	-0.35251766
43	0xbf14d001	-0.5812989
44	0xbf41437e	-0.7549361
45	0xbf40e545	-0.7534984
46	0xbf21c388	-0.6318898
47	0xbdf024b5	-0.11725751
48	0xbeb008e4	-0.34381783
49	0x3c24bbac	0.01005451
50	0xbf598cf0	-0.8498068
51	0xbf632ca0	-0.8873997
52	0xbefe00b9	-0.49609926
53	0xbed43cbb	-0.41452584
54	0xbf0fbe12	-0.561494
55	0xbf0a49e2	-0.54018986
56	0x3e96d466	0.29458922
57	0xbf57c57e	-0.84285724
58	0x3d0cd92c	0.0343868
59	0xbf4c95b2	-0.79915917
60	0xbf1c91a5	-0.61159736
61	0xbf002f6a	-0.5007235
62	0xbf1af032	-0.6052276
63	0xbeb9fb78	-0.36324668
64	0xbf74247d	-0.95368177
65	0xbf378682	-0.7168962
66	0xbf3c8578	-0.7364116
67	0x3f307326	0.689257
68	0xbf3b0687	-0.73056835
69	0xbf413bfa	-0.7548214
70	0xbef89004	-0.48547375
71	0xbf2967bf	-0.6617393
72	0xbf789d20	-0.97114754
73	0xbf49a9a7	-0.78774494
74	0xbe8c9172	-0.27454716
75	0xbf20df73	-0.62840956
76	0xbece7e92	-0.4033094
77	0xbec0fae0	-0.37691402
78	0xbf50e964	-0.81606126
79	0xbf46e796	-0.7769712
80	0xbee3b792	-0.4447599
81	0xbf092704	-0.5357516
82	0xbf6678f3	-0.90028304
83	0xbf47299b	-0.7779786
84	0xbf3b48f7	-0.7315821
85	0xbef7421f	-0.48292634
86	0xbf07d4b3	-0.5305893
87	0xbf307b0c	-0.68937755
88	0xbea4787e	-0.32123178
89	0xbf1837e1	-0.59460264
90	0xbf46eade	-0.7770213
91	0xbf17ec6f	-0.59345144
92	0xbe1b9593	-0.15193777
93	0x3e2f7c05	0.17137153
94	0xbda9ae9e	-0.08285259
95	0x3e149121	0.14508487
96	0xbec3b5dc	-0.38224685
97	0xbf0eee1a	-0.55832064
98	0xbf07eaf5	-0.5309289
99	0xbf4b26da	-0.7935616

conv2.weight f4 [100, 100, 3]
0	0xbf15a63c	-0.5845678
1	0xbf2dec83	-0.67939013
2	0xbf2d92ea	-0.678023
3	0xbf25cf7b	-0.64769715
4	0xbf302dbd	-0.6881979
5	0xbf28ac97	-0.6588835
6	0xbf1870d6	-0.59547174
7	0xbf214aba	-0.6300465
8	0xbf1e9c0f	-0.61956877
9	0xbf2c599d	-0.6732424
10	0xbf23e20b	-0.6401679
11	0xbf28c7a8	-0.6592965
12	0xbf325376	-0.696586
13	0xbf36f016	-0.7146009
14	0xbf3e4d12	-0.7433635
15	0xbf29f2f1	-0.66386324
16	0xbf1527a6	-0.58263624
17	0xbf2b0fa0	-0.66820717
18	0xbf1b98ab	-0.6077983
19	0xbf20eae8	-0.6285844
20	0xbf2502e6	-0.6445755
21	0xbf25f148	-0.6482129
22	0xbf3e23b0	-0.74273205
23	0xbf3f9c3b	-0.74847764
24	0xbf324359	-0.69634014
25	0xbf35fd3b	-0.71089524
26	0xbf1b0eb4	-0.6056931
27	0xbf1e4c1f	-0.618349
28	0xbf2ed024	-0.6828635
29	0xbf40adb4	-0.7526505
30	0xbf2a12f1	-0.6643515
31	0xbf3bba1a	-0.73330843
32	0xbf2a54c9	-0.6653562
33	0xbf12bd6f	-0.573203
34	0xbf219306	-0.63114965
35	0xbf308f0d	-0.6896828
36	0xbf3270f3	-0.69703597
37	0xbf256278	-0.64603376
38	0xbf355a68	-0.70841074
39	0xbf162eac	-0.58664966
40	0xbf1bdf0c	-0.6088722
41	0xbf18d2ee	-0.59696853
42	0xbf31288b	-0.6920249
43	0xbf3f729e	-0.74784267
44	0xbf33919a	-0.70144045
45	0xbf16f61a	-0.5896927
46	0xbf1f01cb	-0.6211211
47	0xbf401c85	-0.7504352
48	0xbf18bd65	-0.59663993
49	0xbf278586	-0.65438116
50	0xbf0ecb28	-0.5577874
51	0xbf36cb3c	-0.7140386
52	0xbf1fad9e	-0.62374294
53	0xbf30d34b	-0.6907241
54	0xbf350fbf	-0.7072715
55	0xbf2011d1	-0.62527186
56	0xbf2655cc	-0.64974666
57	0xbf2bdc09	-0.6713262
58	0xbf43f97d	-0.76552564
59	0xbf348686	-0.70517766
60	0xbf41d729	-0.75718933
61	0xbf3d4a0f	-0.7394113
62	0xbf370bb2	-0.7150222
63	0xbf20b874	-0.62781453
64	0xbf1e564d	-0.61850435
65	0xbec8c021	-0.39209083
66	0xbf320624	-0.6954062
67	0xbf2bf491	-0.67170054
68	0xbf2d4526	-0.6768364
69	0xbf31a232	-0.69388115
70	0xbf27cd62	-0.65547764
71	0xbf31c99b	-0.6944825
72	0xbf364fce	-0.7121552
73	0xbf35817d	-0.7090071
74	0xbf344028	-0.70410395
75	0xbf2d5a34	-0.67715764
76	0xbf30579e	-0.68883693
77	0xbf3903be	-0.72271335
78	0x3f2b4250	0.6689806
79	0x3f3c5d4d	0.73579866
80	0x3f3424f1	0.7036887
81	0xbf3c727b	-0.73612183
82	0xbf266b39	-0.6500736
83	0xbf24c270	-0.6435919
84	0xbf3f5bf3	-0.7474968
85	0xbf3013c7	-0.6878018
86	0xbf1bca6e	-0.6085576
87	0xbf3d1d5d	-0.7387293
88	0xbf37792b	-0.7166926
89	0xbf298721	-0.66221815
90	0xbf31d72a	-0.6946894
91	0xbf28228f	-0.6567773
92	0xbf27b0ef	-0.65504354
93	0xbf231dcc	-0.6371734
94	0xbf2f5bb6	-0.68499315
95	0xbf3a0ba4	-0.7267401
96	0xbf184955	-0.59486896
97	0xbf2cdf65	-0.67528373
98	0xbf25ae66	-0.64719236
99	0xbf1e15b6	-0.6175188
100	0xbf3e2d4d	-0.74287874
101	0xbf104f1b	-0.56370705
102	0xbf28c0a4	-0.65918946
103	0xbf2572f7	-0.6462855
104	0xbf1e5da0	-0.6186161
105	0xbf1c66a6	-0.6109413
106	0xbf034cd2	-0.51289093
107	0xbf11c092	-0.56934464
108	0xbf10e8db	-0.5660531
109	0xbf0e15ec	-0.555022
110	0xbf237b96	-0.6386045
111	0xbf229b32	-0.6351806
112	0xbf34b2af	-0.7058515
113	0xbf3162d3	-0.6929142
114	0xbf234a5e	-0.6378535
115	0xbf20238d	-0.62554246
116	0xbf327b8c	-0.6971977
117	0xbf2af237	-0.6677584
118	0xbf36d998	-0.7142577
119	0xbf3a3dd3	-0.72750586
120	0xbf168847	-0.5880169
121	0xbf363061	-0.7116757
122	0xbf2ce2aa	-0.6753336
123	0xbf10f2c5	-0.56620437
124	0xbf0cc20f	-0.5498361
125	0xbf17e602	-0.5933534
126	0xbf16536b	-0.58721036
127	0xbf3271fd	-0.6970518
128	0xbf2a91a4	-0.6662848
129	0xbf391114	-0.72291684
130	0xbf2615eb	-0.64877194
131	0xbf29dd70	-0.6635351
132	0xbf2c1ff6	-0.6723627
133	0xbf405aa8	-0.7513833
134	0xbf27e383	-0.6558153
135	0xbf184465	-0.5947936
136	0xbf2af9da	-0.66787493
137	0xbf2264e4	-0.63435197
138	0xbf19f0d6	-0.6013311
139	0xbf20cc0a	-0.6281134
140	0xbf3496df	-0.7054271
141	0xbf2a60ca	-0.6655394
142	0x3e89aae2	0.26888186
143	0x3f442a30	0.76626873
144	0xbf37c4f0	-0.7178488
145	0xbf3d41f8	-0.73928785
146	0xbf2ca71a	-0.67442477
147	0xbf357540	-0.70882034
148	0xbf2bb937	-0.6707949
149	0xbf158252	-0.5840198
150	0xbf123ec4	-0.5712702
151	0xbf3a73f4	-0.7283318
152	0xbf2467c5	-0.6422084
153	0xbf2610bc	-0.64869285
154	0xbf368651	-0.712987
155	0xbf29f218	-0.6638503
156	0xbf2f8380	-0.6856003
157	0xbf3ec47a	-0.7451855
158	0xbf34d7ee	-0.7064198
159	0xbf361aeb	-0.71134824
160	0xbf2fde2b	-0.68698376
161	0xbf387588	-0.7205434
162	0xbf431e87	-0.76218456
163	0xbf38e053	-0.7221729
164	0xbf2b852d	-0.67000085
165	0xbf191208	-0.5979314
166	0xbf3b17c5	-0.73083144
167	0xbf425c63	-0.7592222
168	0xbf2e7fd8	-0.68163824
169	0xbf21898b	-0.631005
170	0xbf2e823f	-0.6816749
171	0xbf342a2d	-0.70376855
172	0xbf36af13	-0.7136089
173	0xbf1e471d	-0.6182726
174	0xbf22f64f	-0.6365709
175	0xbf18cf20	-0.5969105
176	0xbf23b101	-0.6394196
177	0xbf34f009	-0.70678765
178	0xbf2af15d	-0.6677454
179	0xbf2f6c8c	-0.68525004
180	0xbf2e6227	-0.6811852
181	0xbf3e0db6	-0.7423967
182	0xbf2ba60d	-0.6705025
183	0xbf1984a9	-0.5996805
184	0xbf2d83f3	-0.67779464
185	0xbf1cb484	-0.61212945
186	0xbf2f7bd8	-0.68548346
187	0xbf33307e	-0.6999587
188	0xbf3802df	-0.7187938
189	0xbf3c78b8	-0.736217
190	0xbf37894d	-0.7169388
191	0xbf217f3d	-0.63084775
192	0xbf46ddc6	-0.7768215
193	0xbf2e6958	-0.6812949
194	0xbf30cb44	-0.6906016
195	0xbf2c3db2	-0.6728164
196	0xbf3f57f6	-0.7474359
197	0xbf2ce63d	-0.67538816
198	0xbf3594b5	-0.70930034
199	0xbf34477b	-0.7042157
200	0xbf3007ba	-0.6876179
201	0xbf309b5c	-0.6898706
202	0xbf315474	-0.6926949
203	0xbf2b25eb	-0.66854733
204	0xbf222255	-0.63333637
205	0xbf28d47a	-0.65949214
206	0xbf3c24a0	-0.73493385
207	0xbf3129e7	-0.6920456
208	0xbf32ee05	-0.6989444
209	0xbf38e3ea	-0.7222277
210	0xbf2759c4	-0.65371346
211	0xbf2a2e3f	-0.66476816
212	0xbf30db3f	-0.69084543
213	0xbf3b59b2	-0.7318374
214	0xbf33bd3b	-0.7021062
215	0xbf341810	-0.70349216
216	0xbf1ab1e2	-0.6042768
217	0xbf20bc4a	-0.62787306
218	0xbf28bb28	-0.6591058
219	0xbf11d859	-0.56970745
220	0xbf29fe08	-0.66403246
221	0xbf1c524c	-0.61063075
222	0xbf2c9705	-0.6741794
223	0xbf2878fd	-0.65809613
224	0xbf27a61c	-0.6548784
225	0xbf307fc1	-0.68944937
226	0xbf20bd4b	-0.6278884
227	0xbf207ea2	-0.62693226
228	0xbf3988a7	-0.7247414
229	0xbf371129	-0.7151056
230	0xbf2cd1d8	-0.67507696
231	0xbf3ccd2d	-0.73750573
232	0xbf256668	-0.64609385
233	0xbf39d9ba	-0.7259785
234	0xbf2b7b9a	-0.66985476
235	0xbf394f55	-0.72386676
236	0xbf2dc8ba	-0.6788441
237	0xbf1c9c3b	-0.6117589
238	0xbf23bd0c	-0.6396034
239	0xbf2b4073	-0.66895217
240	0xbf19c311	-0.6006327
241	0xbf201c3e	-0.62543094
242	0xbf1933c8	-0.59844637
243	0xbf21c1aa	-0.6318613
244	0xbf2b3a0c	-0.6688545
245	0xbf3c6338	-0.73588896
246	0xbf28b5a3	-0.65902156
247	0xbf3fef19	-0.7497421
248	0xbf383e75	-0.719703
249	0xbf2e2971	-0.68031985
250	0xbf323e65	-0.69626456
251	0xbf2873b2	-0.6580154
252	0xbf3b9e1e	-0.7328814
253	0xbf3c7099	-0.7360931
254	0xbf290575	-0.6602395
255	0xbf318153	-0.6933796

conv2.bias f4 [100]
0	0xbf3a4586	-0.72762334
1	0xbf277464	-0.65411973
2	0xbf392a7c	-0.7233045
3	0xbf3cf09e	-0.7380465
4	0xbf2b89bf	-0.6700706
5	0xbf08f689	-0.5350118
6	0xbf3fc8c6	-0.7491573
7	0xbf2d5f38	-0.6772342
8	0xbf363898	-0.71180105
9	0xbf2b5fe1	-0.66943175
10	0xbf02f38f	-0.5115289
11	0xbf390060	-0.722662
12	0xbf2e3166	-0.68044126
13	0xbf40ca20	-0.7530842
14	0xbf3007f8	-0.6876216
15	0xbf397cba	-0.7245594
16	0xbf20f09a	-0.6286713
17	0xbf30ad1d	-0.6901415
18	0xbf2119e8	-0.62930155
19	0xbf3cf22c	-0.73807025
20	0xbf25f3c6	-0.64825094
21	0xbf36d36d	-0.7141636
22	0xbf33da8a	-0.7025534
23	0xbf2208c0	-0.632946
24	0xbf22aa75	-0.63541347
25	0xbf221fd6	-0.6332983
26	0xbf339ed0	-0.70164204
27	0xbf21c555	-0.6319173
28	0xbe460de1	-0.19341232
29	0xbf2999c2	-0.6625024
30	0xbf3d52fa	-0.7395474
31	0xbf2895be	-0.6585349
32	0xbf33a4bb	-0.70173234
33	0xbf32bba0	-0.69817543
34	0xbf2bc380	-0.67095184
35	0xbf206b34	-0.6266358
36	0xbedb452d	-0.42826214
37	0xbf3b3c6b	-0.73139066
38	0xbf2b0f5c	-0.6682031
39	0xbf1c360a	-0.6101996
40	0xbf36987a	-0.7132641
41	0xbf2ccede	-0.67503154
42	0xbf354113	-0.7080242
43	0xbf3be33c	-0.7339361
44	0xbf2be2ce	-0.6714295
45	0xbf2ead66	-0.68233335
46	0xbf3c3bba	-0.73528636
47	0xbf1fe904	-0.6246493
48	0xbf2cfa11	-0.6756907
49	0xbf3140be	-0.69239414
50	0xbf25b08b	-0.6472251
51	0xbf12546c	-0.5716007
52	0xbf2a56cf	-0.6653871
53	0xbf39478d	-0.723748
54	0xbf2658bf	-0.64979166
55	0xbf2ec36e	-0.6826695
56	0xbf40b7fb	-0.7528073
57	0xbf264ff4	-0.6496575
58	0xbf35d8f4	-0.7103417
59	0xbf40e565	-0.7535003
60	0xbf3264cc	-0.69685054
61	0xbf22e301	-0.6362763
62	0xbf2c4ae0	-0.6730175
63	0xbf3debdd	-0.74188024
64	0xbf1c9b72	-0.6117469
65	0xbf307e66	-0.6894287
66	0xbf3aac8f	-0.72919554
67	0xbf30ac36	-0.69012773
68	0xbf2f9a2c	-0.6859462
69	0xbf2d3395	-0.6765683
70	0xbf33a45e	-0.7017268
71	0xbf3dc593	-0.741296
72	0xbf47f072	-0.78101265
73	0xbeee77ba	-0.4657572
74	0xbf362433	-0.71148986
75	0xbf1f4cbb	-0.62226456
76	0xbf2d25b3	-0.6763565
77	0xbf26be24	-0.6513388
78	0xbf20b6a2	-0.62778676
79	0xbf420c24	-0.75799775
80	0xbf2c6050	-0.6733446
81	0xbf36da85	-0.71427184
82	0xbf34b1fd	-0.7058409
83	0xbf2f6068	-0.6850648
84	0xbf361c81	-0.71137244
85	0xbf2a2219	-0.6645828
86	0xbf30bee5	-0.6904128
87	0xbf225f42	-0.634266
88	0xbeb79e64	-0.3586303
89	0x3bfc405c	0.007698102
90	0xbf47aff3	-0.7800285
91	0xbf4233f4	-0.75860524
92	0xbf3eee34	-0.7458222
93	0xbf3823cd	-0.7192963
94	0xbf2e597e	-0.68105304
95	0xbf34d565	-0.70638114
96	0xbf233952	-0.6375934
97	0xbf255e0d	-0.64596635
98	0xbef436bb	-0.47698006
99	0xbf22973a	-0.63512003

group.0.weight f4 [100, 100, 3]
0	0xbc39e745	-0.011346643
1	0x3cb902e6	0.02258439
2	0x3c1e3492	0.009656088
3	0xbd2a1b82	-0.04153014
4	0xbd194d27	-0.037427094
5	0x3d1974c2	0.037464865
6	0xbd31d64c	-0.04341726
7	0x3bb7ef03	0.005613209
8	0xbcb81be3	-0.022474235
9	0x3c3d95ff	0.011571406
10	0xbd40ca7a	-0.047068097
11	0xbc79937c	-0.015232917
12	0x3d1275e6	0.035756968
13	0xbcc07da3	-0.023497408
14	0xbd60fccb	-0.054928582
15	0x3d26be25	0.04070868
16	0xbd33cde2	-0.043897517
17	0xbd46d99a	-0.048547365
18	0x3cf9a4ce	0.030474093
19	0xbce3d6f4	-0.027812459
20	0xbc83102d	-0.015998924
21	0x3c40adfa	0.011760229
22	0xbd53595d	-0.051598895
23	0xbd1dce07	-0.03852656
24	0xbcd4188f	-0.025890617
25	0x3cd52678	0.02601932
26	0x3bdbda87	0.0067094
27	0xbca2d974	-0.01987908
28	0xbd53aeff	-0.05168056
29	0xbc668e15	-0.014071961
30	0x3d2606be	0.040533774
31	0xbbcbeaa0	-0.006223038
32	0x3d5cb309	0.05388168
33	0xbc8153fe	-0.01578712
34	0x3c2e012c	0.010620397
35	0x3aeaac4c	0.0017904132
36	0x3d448105	0.047974605
37	0xbd2da94c	-0.042397782
38	0xbc9c3872	-0.019069884
39	0x3d226a8d	0.039652396
40	0x3ca8bd25	0.020598004
41	0x3d4a84d5	0.049443085
42	0xbd4435cc	-0.047902867
43	0xbd476d10	-0.048687994
44	0x3ca349ca	0.019932646
45	0xbd068412	-0.032840796
46	0x3cc58671	0.024111958
47	0x3d2d5422	0.042316563
48	0x3ceb3b13	0.028714692
49	0x3cf9a037	0.030471904
50	0xbd54756d	-0.0518698
51	0x3c8a669d	0.016894633
52	0xbd10d6c7	-0.035361078
53	0xbc907e3a	-0.017638315
54	0xbd575af6	-0.05257698
55	0xbd05f4b0	-0.032704055
56	0xba8af2c8	-0.0010600919
57	0xbcde4ebe	-0.027137157
58	0xbcd1a1a1	-0.025589766
59	0xbc61a358	-0.013771854
60	0xbd4b998b	-0.049706977
61	0xbc181322	-0.009281905
62	0x3ca17b6b	0.01971217
63	0xba66850c	-0.0008793629
64	0xbd4f9fb0	-0.0506894
65	0xbc03daba	-0.008047754
66	0x3d4c73e2	0.049915202
67	0xbcccabec	-0.024984322
68	0xbd2f16db	-0.042746406
69	0xbc5b4dbe	-0.013385234
70	0xbc8104cb	-0.015749356
71	0x3d6bc41e	0.05756008
72	0xbc1e6ea7	-0.009669936
73	0xbc85182b	-0.016246876
74	0xbd2bcb9d	-0.041942228
75	0xbaa12887	-0.0012295403
76	0xbc6a0983	-0.014284494
77	0x3d4097ec	0.047019884
78	0xbd218a2d	-0.039438415
79	0x3cd412e7	0.02588792
80	0x3c5c676e	0.013452394
81	0xbce62c3d	-0.028097266
82	0xbc9a78c1	-0.018856408
83	0x3cc8bd45	0.024504313
84	0xbb9c3eb6	-0.004768218
85	0xbb9aa386	-0.0047192005
86	0xbc2fa6f4	-0.010720957
87	0x3ca92d74	0.020651557
88	0xbd321db5	-0.043485362
89	0xbc35353a	-0.0110600535
90	0x3d32d498	0.043659776
91	0xbcf5a6de	-0.029986795
92	0xbd51ef33	-0.05125351
93	0xbc4aa4ea	-0.01236842
94	0x3cc81353	0.024423277
95	0xbaf59885	-0.0018737471
96	0xbccc8097	-0.02496366
97	0x3c99156d	0.018686974
98	0x3b797405	0.0038063538
99	0x3cd20136	0.025635343
100	0x3cc526c7	0.024066342
101	0xbca7c6c3	-0.02048052
102	0xbd5c4130	-0.053773105
103	0x3d1ec451	0.03876144
104	0x3ccb5869	0.02482243
105	0x3d424557	0.04742941
106	0xbd3e7e12	-0.04650695
107	0xbd61d4ca	-0.055134572
108	0xbc02925b	-0.007969464
109	0x3c9bc321	0.019013943
110	0xbd165238	-0.036699504
111	0xbd01561d	-0.031576265
112	0xbd2d7a23	-0.042352807
113	0x3d5cf5db	0.053945404
114	0x3d5a234d	0.05325632
115	0x3cd8af70	0.026450843
116	0xbc4bdb18	-0.012442373
117	0x3ad96254	0.001658509
118	0xbce6d0a0	-0.028175652
119	0x3d508f46	0.050917886
120	0x3cf9ebbc	0.030507915
121	0x3c3a2dae	0.01136343
122	0x3ab771e7	0.0013995738
123	0x3ccd11a3	0.025032824
124	0xbd2f53c4	-0.042804495
125	0xbce5a7d2	-0.028034125
126	0xbc894345	-0.01675571
127	0x3b063727	0.002047965
128	0xbd1a8409	-0.037723575
129	0x3d06bc57	0.03289446
130	0x3cee3c99	0.02908163
131	0xbd4ee110	-0.050507605
132	0x3cbe3031	0.023216339
133	0x3d1127f7	0.035438504
134	0xbc99f469	-0.018793302
135	0x3c5d287f	0.013498425
136	0xbd219105	-0.039444942
137	0x3d33eb15	0.043925364
138	0xbd12ed51	-0.035870854
139	0xbcff9137	-0.031197174
140	0xbcea5126	-0.028603148
141	0x3d1ca0ca	0.038239278
142	0xbcb07017	-0.021537824
143	0xbcb69058	-0.022285625
144	0xbd59b053	-0.05314667
145	0x3ca7f4b4	0.020502426
146	0x3d30e2e9	0.04318515
147	0x3cd5bf7f	0.026092289
148	0xbc803efb	-0.015655031
149	0x3c3eafa1	0.011638553
150	0xbc9c8abf	-0.019109128
151	0xbcaef5f0	-0.021357507
152	0x3ca0276f	0.019550053
153	0x3bbbf8ee	0.005736462
154	0x3d2eff9c	0.042724237
155	0xbcb43d7c	-0.022001974
156	0xbd57e02b	-0.052704018
157	0xbd66b4ac	-0.056324646
158	0xbd01b210	-0.031663954
159	0x3c5a48b1	0.013322995
160	0xbcb015b4	-0.021494724
161	0xbd009a85	-0.03139736
162	0xbd42ef8d	-0.047591735
163	0xbc3c9e75	-0.0115123885
164	0xbd1367c0	-0.035987616
165	0x3d25091b	0.040291887
166	0xbcac037c	-0.020997755
167	0x3bade731	0.005307101
168	0x3d00eea0	0.03147757
169	0xbacf540a	-0.0015817892
170	0x3cfb5c20	0.030683577
171	0xbd23b53c	-0.03996776
172	0x3d16a268	0.036775976
173	0x3d67bc8f	0.056576308
174	0x3b963b7f	0.004584729
175	0x3d2ce76b	0.042212885
176	0xbcb900f0	-0.022583455
177	0x3d343da1	0.044004086
178	0x3cb15b6b	0.021650037
179	0xbc212441	-0.009835304
180	0x3b283b19	0.002566999
181	0xbc059cea	-0.008155087
182	0xbd46ca81	-0.048532967
183	0xbce4a49b	-0.027910521
184	0xbd2d1e90	-0.042265475
185	0xbcd64bc0	-0.026159167
186	0xbc92b068	-0.017906383
187	0x3c945ccd	0.018110657
188	0x3c280876	0.0102559235
189	0xbd102e47	-0.035200384
190	0xbb78bd76	-0.0037954724
191	0x3cc7659d	0.024340445
192	0xbcc1ad4f	-0.02364221
193	0xbb566730	-0.0032715313
194	0xbcc90b3a	-0.024541486
195	0xbd1de2ab	-0.038546246
196	0xbd002e95	-0.031294424
197	0xbd4e4863	-0.050362002
198	0x3d27d7b3	0.04097719
199	0xbd02cbb4	-0.031932548
200	0x3cc95a61	0.024579229
201	0xbd473fd4	-0.048644856
202	0x3cdb42ea	0.026765306
203	0xbcb2537d	-0.021768326
204	0x3d6811f6	0.056657754
205	0xbb2dfd89	-0.0026548824
206	0xbd066ec6	-0.032820486
207	0x3d3da4dd	0.046299804
208	0x3d24eaef	0.040263113
209	0x3d31d34e	0.043414406
210	0xbd53c21a	-0.05169878
211	0x3d5e3f04	0.054259315
212	0x3cc5fb28	0.024167612
213	0xbcb071cb	-0.021538636
214	0x3c42ab76	0.0118817
215	0x3ccb2ef5	0.024802664
216	0x3d5076f9	0.05089471
217	0xbb4bd57e	-0.0031102593
218	0x3d522bab	0.051311176
219	0x3b6bcb5b	0.0035979364
220	0xbb118072	-0.0022201804
221	0x3d610aae	0.054941826
222	0xbc2d60b2	-0.010582136
223	0x3cff2bdd	0.031148845
224	0x3d610cd1	0.054943863
225	0xbd069dcc	-0.03286533
226	0xbc9f6b60	-0.01946038
227	0xbc9e350c	-0.019312404
228	0xbd25398e	-0.04033809
229	0x3d149890	0.036278307
230	0xbcbc8a9d	-0.023015315
231	0xbce7cfdb	-0.028297355
232	0x3ca833cf	0.020532517
233	0xbc62f53d	-0.013852415
234	0xbd246f17	-0.040145006
235	0xbc7071cb	-0.014675568
236	0xbcf0e178	-0.029404387
237	0xbc7682fb	-0.015045877
238	0x3b2182d3	0.0024644628
239	0x3cd94267	0.02652092
240	0xbd2d738a	-0.042346515
241	0x3c100a01	0.008791448
242	0xbd19b331	-0.037524406
243	0xbd05e3ea	-0.03268806
244	0xbd49e111	-0.049286906
245	0xbcc1d904	-0.023663051
246	0xbd358395	-0.04431494
247	0x3d3449f9	0.04401586
248	0xbc8d300c	-0.017234825
249	0x3d35a826	0.044349812
250	0xbd4455de	-0.04793345
251	0x3d6159c1	0.055017237
252	0x3d1d104e	0.038345627
253	0xbd6aa553	-0.05728657
254	0xbcbc8743	-0.023013717
255	0xbcf5a9ed	-0.029988253

group.0.bias f4 [100]
0	0x3d544abd	0.05182909
1	0x3d075c96	0.03304728
2	0x3b8979b7	0.0041954177
3	0x3c0c4a82	0.008562686
4	0xbd560e38	-0.052259654
5	0xbd072889	-0.03299764
6	0x3c740527	0.014893807
7	0x3cb2aff4	0.021812417
8	0x3d5b361f	0.05351841
9	0xbd4a06be	-0.049322836
10	0x3d17af01	0.03703213
11	0x3a3c1952	0.0007175404
12	0x3d170828	0.036873013
13	0x38c02f7b	9.1641174e-05
14	0xbd36f583	-0.044667732
15	0xbd53c025	-0.051696915
16	0xbd1364be	-0.035984747
17	0x3d367e12	0.044553824
18	0xbd3ff994	-0.046868876
19	0x3d104dbe	0.03523039
20	0xbd4d139b	-0.050067525
21	0xbc114ee8	-0.00886891
22	0xbcc6fa24	-0.024289198
23	0xbcba6d7d	-0.022757286
24	0xbc812193	-0.01576308
25	0x3cff335e	0.031152423
26	0xbb2493e7	-0.002511257
27	0x3c1d1ee5	0.009589885
28	0xbd5a4342	-0.0532868
29	0xbd28eb76	-0.041240178
30	0x3c4aec03	0.012385371
31	0xbd17a380	-0.03702116
32	0xbca810f7	-0.020515902
33	0x3d66483f	0.056221243
34	0x3b21252d	0.002458881
35	0xbcae41fa	-0.021271694
36	0xbc6bb639	-0.014386707
37	0x3c5c6a07	0.013453013
38	0xbd18ab08	-0.037272483
39	0xbd02c408	-0.03192523
40	0x3c94f651	0.018183859
41	0x3c017ab8	0.007902794
42	0x3cc1fe6e	0.023680892
43	0xbd2a5bc7	-0.041591432
44	0xbc6dfba5	-0.014525329
45	0x3c0e1210	0.008671299
46	0x3d3d37e2	0.046195872
47	0xbd583317	-0.052783098
48	0xbbf4ee07	-0.007474664
49	0x3d65d7be	0.05611395
50	0x3d1997ed	0.037498403
51	0xbcbb898c	-0.022892736
52	0xbcded316	-0.027200263
53	0x3cfc16bd	0.030772561
54	0xbc9e4890	-0.01932171
55	0xbd1cb9d8	-0.038263172
56	0x3cbdbe06	0.0231619
57	0xbd5d9966	-0.05410137
58	0x3be159b4	0.0068771485
59	0x3cbef692	0.023310933
60	0x3be3ddcc	0.0069539305
61	0x3d053740	0.032523394
62	0x3ceb9c42	0.028761033
63	0xbd64f3d2	-0.055896588
64	0xbd164171	-0.036683504
65	0x3d2228b2	0.03958959
66	0xbd3afc25	-0.04565062
67	0x3d61da7f	0.055140015
68	0x3c8995c9	0.016795056
69	0x3ceee914	0.029163875
70	0x3c3333f7	0.010937682
71	0x3d639dbd	0.055570353
72	0x3b75535a	0.0037433715
73	0x3b04dc2a	0.002027283
74	0x3bd01487	0.0063501033
75	0x3cae6bf7	0.021291716
76	0x3bcdf30c	0.006285077
77	0x3d244ea7	0.04011407
78	0xbcc90cd4	-0.02454225
79	0x3d4cc2cd	0.049990464
80	0xbca805c0	-0.020510554
81	0xbc8f1b5f	-0.017469106
82	0xbcb274b4	-0.021784164
83	0x3a883dbb	0.0010394374
84	0x3d68f791	0.056876723
85	0x3bee1171	0.007265263
86	0xbca76ca3	-0.020437544
87	0xbd0dcd37	-0.034619536
88	0xb8978a3e	-7.225991e-05
89	0x3c388c2b	0.011263887
90	0x3af6d1e8	0.0018830867
91	0xbc01967d	-0.007909414
92	0xbd5acbc0	-0.053416967
93	0x3d2ba902	0.041909225
94	0xbcfe2610	-0.031024009
95	0x3bf8f009	0.007596974
96	0x3d5d593f	0.05404019
97	0x3c653964	0.013990734
98	0x3d3e39c5	0.046441812
99	0xbc98f617	-0.018672032

conv3.weight f4 [160, 100, 3]
0	0xbf1f6c69	-0.62274796
1	0xbf1b4d3c	-0.60664725
2	0xbf16461f	-0.58700746
3	0xbf1b5fbe	-0.60692966
4	0xbf0d9599	-0.5530639
5	0xbf21e9fb	-0.6324765
6	0xbf1d0a72	-0.61344063
7	0xbf0d7d42	-0.55269253
8	0xbf189432	-0.5960113
9	0xbe907b8c	-0.2821926
10	0xbf043bd1	-0.5165377
11	0xbeca3c53	-0.3949915
12	0xbf20c770	-0.6280432
13	0xbf1ecfd9	-0.620359
14	0xbf186029	-0.5952173
15	0xbf1b0ac2	-0.6056329
16	0xbf2cfa42	-0.67569363
17	0xbf2a2def	-0.6647634
18	0x3f1a6ffc	0.60327125
19	0x3f2c322f	0.67264074
20	0x3f175e32	0.59128106
21	0xbf290e5c	-0.66037536
22	0xbf22ef88	-0.63646746
23	0xbf2cab3a	-0.6744877
24	0x3f2ec884	0.6827471
25	0x3f33ada8	0.70186853
26	0x3f34b1e9	0.7058397
27	0xbf24f33a	-0.64433634
28	0xbf1f3d67	-0.6220307
29	0xbf2a63ae	-0.6655835
30	0xbf3d3385	-0.7390674
31	0xbf176db1	-0.5915175
32	0xbf2438cf	-0.64149183
33	0x3f2543a4	0.64556336
34	0x3f2cce31	0.67502123
35	0x3f210a57	0.629064
36	0xbee3f1b0	-0.4452033
37	0xbf08e7f7	-0.5347895
38	0xbec89001	-0.39172366
39	0xbf0ed6ba	-0.55796397
40	0xbedfddf3	-0.4372402
41	0xbf1f74be	-0.6228751
42	0xbee10152	-0.4394632
43	0xbf0fe8e4	-0.5621474
44	0xbf008ba4	-0.50213075
45	0xbf136cff	-0.5758819
46	0xbf0ce97a	-0.55043757
47	0xbf0fe41b	-0.56207436
48	0xbf32d6b2	-0.6985885
49	0xbf1f28d0	-0.6217165
50	0xbf1f7ca0	-0.6229954
51	0xbf1f6d21	-0.6227589
52	0xbed7edd4	-0.42173636
53	0xbf17d584	-0.59310174
54	0x3f1a48d4	0.60267377
55	0x3e2b2472	0.16713122
56	0x3e90efcf	0.2830796
57	0xbf2370b2	-0.63843834
58	0xbf0a1bba	-0.5394856
59	0xbf1643a9	-0.5869699
60	0xbf250076	-0.6445383
61	0xbf2be518	-0.67146444
62	0xbf249016	-0.6428236
63	0x3e2586c6	0.16164693
64	0x3d95072d	0.07276759
65	0x3e9ee2e4	0.3103248
66	0xbeb309e2	-0.34968477
67	0xbef9bed7	-0.48778412
68	0xbee08537	-0.43851635
69	0xbeba660a	-0.36405975
70	0xbf0fb422	-0.56134236
71	0xbeecbe0f	-0.46238753
72	0x3f3258d1	0.69666773
73	0x3f1fd537	0.62434715
74	0x3f39c360	0.72563744
75	0xbf2f9006	-0.6857914
76	0xbf2fff2e	-0.6874875
77	0xbf18b999	-0.596582
78	0x3f2f6a74	0.6852181
79	0x3f30c51a	0.69050753
80	0x3f2c4504	0.6729281
81	0x3f2c4d2c	0.67305255
82	0x3f282908	0.6568761
83	0x3f31ae56	0.6940664
84	0xbf3afce4	-0.7304213
85	0xbf27cf16	-0.65550363
86	0xbf31ccbd	-0.6945303
87	0x3f24a641	0.64316183
88	0x3f270f45	0.65257674
89	0x3f301921	0.68788344
90	0x3f254de8	0.64572
91	0x3f1fd9e3	0.62441844
92	0x3f29a3d7	0.66265625
93	0x3f1813a3	0.59404963
94	0x3f24c926	0.6436943
95	0x3f1bc434	0.6084626
96	0x3f28c081	0.6591874
97	0x3f261c87	0.6488728
98	0x3f324cd7	0.696485
99	0xbefd33e7	-0.4945366
100	0xbf02df98	-0.51122427
101	0xbeeba91e	-0.46027464
102	0x3f2fdd5a	0.6869713
103	0x3f3c51fa	0.73562586
104	0x3f3920e3	0.72315806
105	0xbf31611e	-0.69288814
106	0xbf2d32df	-0.6765575
107	0xbf38f41b	-0.72247475
108	0xbf03ce0e	-0.5148629
109	0xbf0df62f	-0.5545377
110	0xbf0808be	-0.5313834
111	0xbef1d012	-0.47229058
112	0xbefac58a	-0.48978835
113	0xbef25336	-0.4732911
114	0xbf0f9eb1	-0.5610152
115	0x3efe2d3f	0.49643895
116	0x3e63af9d	0.2223496
117	0xbf245ea3	-0.64206904
118	0xbf1d4912	-0.6143962
119	0xbf2dfa21	-0.6795979
120	0xbf3861e7	-0.7202439
121	0xbf37a76f	-0.7173986
122	0xbf2a27d5	-0.6646703
123	0x3f31b9f6	0.6942438
124	0x3f352c08	0.7077031
125	0x3f34c852	0.70618165
126	0xbf2089cd	-0.6271027
127	0xbf2f0a9f	-0.6837558
128	0xbf2be5cb	-0.6714751
129	0x3f275169	0.653586
130	0x3f26980f	0.65075773
131	0x3f2a7c74	0.6659615
132	0x3f14b616	0.5809034
133	0x3f0871cb	0.53298634
134	0x3f11d62a	0.56967413
135	0x3f39e935	0.7262147
136	0x3f28b4b1	0.65900713
137	0x3f3bba61	0.73331267
138	0x3f0ff47e	0.5623244
139	0x3f03976d	0.5140293
140	0x3ed6c1fd	0.41944876
141	0x3f05ec70	0.523139
142	0xbe4b6bed	-0.19865389
143	0x3e5fc4b0	0.21852374
144	0x3f2f25b7	0.68416923
145	0x3f2dc93a	0.6788517
146	0x3f366711	0.71251017
147	0xbe87bc63	-0.26510915
148	0xbecc54d6	-0.39908475
149	0xbe983dcc	-0.29734647
150	0xbf1ec275	-0.6201547
151	0xbf1c45a3	-0.6104376
152	0xbf20324b	-0.6257674
153	0x3e1f49ca	0.15555492
154	0x3f0ea385	0.5571826
155	0x3ef7c182	0.48389822
156	0x3f261df5	0.6488946
157	0x3ef1943c	0.47183406
158	0x3f11c156	0.5693563
159	0x3f264c34	0.64960027
160	0x3f21bdc2	0.6318017
161	0x3f368376	0.71294343
162	0xbf2eedcb	-0.68331593
163	0xbf130dda	-0.5744301
164	0xbf13aa61	-0.5768185
165	0x3f1ad80f	0.6048593
166	0x3f0c94fd	0.5491484
167	0x3f180e1a	0.5939652
168	0xbf0ba2cd	-0.5454529
169	0xbf1441a4	-0.5791266
170	0xbf26e24c	-0.6518905
171	0xbf2e31bd	-0.68044645
172	0xbf37bb49	-0.7177015
173	0xbf37b1bb	-0.7175557
174	0x3f32b4d1	0.69807154
175	0x3f370816	0.71496713
176	0x3f323284	0.6960833
177	0x3f294a12	0.6612865
178	0x3f3c1673	0.73471755
179	0x3f3bab2b	0.73308057
180	0xbf129f05	-0.57273895
181	0xbf0ce9af	-0.5504407
182	0xbf07e815	-0.53088504
183	0xbf0d71f2	-0.5525199
184	0x3e3598fd	0.17734142
185	0xbf0a813a	-0.54103434
186	0x3f36af4f	0.7136125
187	0x3f2f3d9e	0.68453395
188	0x3f24ef24	0.644274
189	0xbf161984	-0.58632684
190	0xbf183e50	-0.5947008
191	0xbf1b0dba	-0.6056782
192	0x3ef9baf1	0.48775437
193	0x3f2767f3	0.6539299
194	0x3f298b35	0.6622804
195	0x3f2b084c	0.66809535
196	0x3f2e208c	0.6801841
197	0x3f2d3319	0.67656094
198	0xbf2c61a9	-0.6733652
199	0xbf2a625f	-0.6655635
200	0xbf35e980	-0.7105942
201	0xbf0d52f1	-0.55204684
202	0xbf08ab89	-0.5338674
203	0xbf06e264	-0.52689195
204	0xbee16083	-0.44018945
205	0xbf16996d	-0.5882786
206	0xbf1c0915	-0.6095136
207	0xbf2d8bd2	-0.67791474
208	0xbf310db2	-0.6916152
209	0xbf277161	-0.6540738
210	0x3f0d11e2	0.5510541
211	0x3f1ec3a3	0.6201727
212	0x3f03f83e	0.5155066
213	0xbf2de40b	-0.6792609
214	0xbf18cf09	-0.5969091
215	0xbf30bc38	-0.690372
216	0xbf0d62ce	-0.5522889
217	0xbed3efe4	-0.4139396
218	0xbf1579f1	-0.5838919
219	0x3f23d79b	0.6400086
220	0x3f2cef35	0.675525
221	0x3f146e3f	0.5798072
222	0x3f21e674	0.6324227
223	0x3f28265a	0.6568352
224	0x3f2d13cf	0.6760835
225	0x3f2ac731	0.6671019
226	0x3f2b88d8	0.6700568
227	0x3f2b8bc3	0.67010134
228	0xbf11c164	-0.56935716
229	0xbd57aedd	-0.052656997
230	0xbf0aefa9	-0.5427194
231	0x3f2e9365	0.68193656
232	0x3f345a76	0.7045053
233	0x3f27caed	0.65544015
234	0xbef87e4a	-0.4853385
235	0x3f1fa9e3	0.623686
236	0x3f1c7e08	0.6112981
237	0xbf17220b	-0.5903632
238	0xbf0e066d	-0.55478555
239	0xbf003c71	-0.50092226
240	0x3f1669d7	0.5875525
241	0x3f372d97	0.7155394
242	0x3f12ca8c	0.5734031
243	0x3f046611	0.5171824
244	0x3f08b25c	0.53397155
245	0x3edb8caf	0.4288077
246	0x3f2e62b6	0.6811937
247	0x3f2705ab	0.65243024
248	0x3f287348	0.65800905
249	0xbf11764c	-0.5682113
250	0xbf15ee19	-0.58566433
251	0xbf10abb2	-0.56511986
252	0xbf26bbf8	-0.6513057
253	0xbf20b58e	-0.6277703
254	0xbf1bd9d8	-0.6087928
255	0xbf0c98c6	-0.54920614

conv3.bias f4 [160]
0	0xbf46ac4e	-0.77606666
1	0xbf37bd71	-0.7177344
2	0xbf313478	-0.69220686
3	0xbf328fed	-0.69750863
4	0xbf3dd125	-0.74147254
5	0xbf2ae997	-0.6676268
6	0xbf26ac33	-0.65106505
7	0xbf2918f8	-0.66053724
8	0xbf2539c3	-0.6454126
9	0xbf3164dd	-0.6929453
10	0xbf290320	-0.66020393
11	0xbf280596	-0.65633523
12	0xbf49e506	-0.7886509
13	0xbf41ca58	-0.7569938
14	0xbf33d187	-0.7024159
15	0xbf414b54	-0.75505567
16	0xbf34add0	-0.70577717
17	0xbf1ad6d0	-0.6048403
18	0xbf20b75c	-0.62779784
19	0xbf465bd7	-0.77483886
20	0xbf357adf	-0.7089061
21	0xbf26dd36	-0.6518129
22	0xbf3b7acb	-0.7323424
23	0xbf30ed62	-0.6911222
24	0x3e30720a	0.17231002
25	0xbf45a3f0	-0.77203274
26	0xbf343b28	-0.70402765
27	0xbf3b1612	-0.7308055
28	0xbf10f0fd	-0.5661772
29	0xbf3956a7	-0.72397846
30	0x3e7fc25d	0.24976487
31	0xbf32c081	-0.6982499
32	0xbf378e87	-0.71701854
33	0xbf2971ea	-0.66189444
34	0xbf2b7173	-0.66969985
35	0xbf3536c2	-0.7078668
36	0x3ef24d34	0.47324526
37	0xbf3d3632	-0.7391082
38	0xbf393967	-0.72353214
39	0xbf375b53	-0.71623725
40	0xbf467c25	-0.7753318
41	0xbf39974e	-0.724965
42	0x3da3089c	0.079606265
43	0xbf323833	-0.69617003
44	0xbf5624c8	-0.83649874
45	0xbf275814	-0.6536877
46	0xbee6699d	-0.45002452
47	0xbeea4211	-0.4575353
48	0xbf2a5f94	-0.6655209
49	0xbf39a6df	-0.7252025
50	0xbf357260	-0.7087765
51	0xbf4344a9	-0.7627664
52	0xbf46ba3d	-0.7762793
53	0xbf2309f0	-0.6368704
54	0xbf1ebf5c	-0.6201074
55	0xbf2b6b65	-0.66960746
56	0xbf2a1251	-0.664342
57	0xbf4146ff	-0.75498956
58	0xbf1cb817	-0.612184
59	0xbf315633	-0.69272155
60	0x3e82ad7b	0.2552298
61	0x3eff0cb2	0.49814373
62	0xbf3a5ab6	-0.72794664
63	0xbf2fce4f	-0.68674177
64	0xbd6bdf5c	-0.05758606
65	0xbf156db2	-0.58370507
66	0xbf4b52d8	-0.79423285
67	0xbf1835bf	-0.5945701
68	0xbecd418c	-0.4008907
69	0xbf2c1949	-0.6722608
70	0xbf2fdc68	-0.6869569
71	0xbf2e55ac	-0.68099475
72	0xbf322555	-0.69588214
73	0xbf34e03d	-0.7065466
74	0x3eefc0b8	0.4682672
75	0xbf2f775b	-0.68541497
76	0xbf2b19a7	-0.6683602
77	0xbf3ef879	-0.7459789
78	0xbf3a3d8a	-0.7275015
79	0x3ec3a635	0.38212743
80	0xbf3e1d65	-0.742636
81	0xbf3a8f42	-0.72874844
82	0xbf2803fa	-0.6563107
83	0x3d9ae42e	0.07563053
84	0xbf327052	-0.6970264
85	0xbf3de3d5	-0.7417577
86	0x3e86ad9f	0.26304337
87	0xbf2cb196	-0.67458475
88	0xbf36f92b	-0.7147395
89	0xbf3e6f21	-0.7438832
90	0xbf1d11ab	-0.61355084
91	0xbf4095f7	-0.7522883
92	0xbf2c8b6f	-0.6740026
93	0xbf2d1c65	-0.6762145
94	0xbf2edd5d	-0.68306524
95	0xbf283efb	-0.657211
96	0x3f23a196	0.63918436
97	0xbf40c1a4	-0.7529547
98	0xbf2a023d	-0.66409665
99	0xbf356e09	-0.70871025
100	0xbf2f912b	-0.68580884
101	0xbf38fa5a	-0.72257006
102	0xbf3bfd0d	-0.73433
103	0x3e4028b7	0.18765531
104	0xbf27fa29	-0.6561609
105	0xbf22e5d0	-0.63631916
106	0xbf2b633b	-0.6694829
107	0xbf35e792	-0.71056473
108	0xbf4b0824	-0.79309297
109	0xbf2a9419	-0.6663223
110	0xbf28c498	-0.6592498
111	0xbf3ee3eb	-0.74566525
112	0xbf498edf	-0.7873363
113	0xbf290b2b	-0.66032666
114	0xbf29eacd	-0.663739
115	0xbf4983bd	-0.7871664
116	0xbf3e6cc7	-0.7438473
117	0xbf2eaa3a	-0.68228495
118	0xbf491599	-0.7854858
119	0x3f11282d	0.5670193
120	0xbf3e080c	-0.7423103
121	0xbf43a807	-0.76428264
122	0xbf2c1663	-0.6722166
123	0xbf27acf4	-0.6549828
124	0xbf3f55ab	-0.74740094
125	0xbf2d137b	-0.6760785
126	0xbf2e3b4f	-0.6805925
127	0xbeb55854	-0.35418952
128	0xbf394912	-0.7237712
129	0xbf3bf8c4	-0.7342646
130	0xbf3a7e11	-0.7284861
131	0xbf2b51ef	-0.66921896
132	0xbf270639	-0.6524387
133	0xbf2f105e	-0.6838435
134	0x3f3a1a98	0.7269683
135	0xbf4cf41a	-0.8005997
136	0xbe7a8fd9	-0.24468936
137	0xbf28d207	-0.65945476
138	0xbf3acf95	-0.72972995
139	0xbef2685c	-0.47345245
140	0xbf3510cf	-0.7072877
141	0xbf288762	-0.6583158
142	0x3f132a3a	0.5748631
143	0xbf3c1e7f	-0.73484033
144	0xbf29ec63	-0.6637632
145	0xbf1e721f	-0.61892885
146	0xbf2d34ab	-0.6765849
147	0xbf361dde	-0.71139324
148	0xbf357c5b	-0.70892876
149	0xbf2f36c4	-0.6844294
150	0xbebb74da	-0.36612588
151	0xbf388bff	-0.7208862
152	0xbf2f1721	-0.68394667
153	0xbf31c551	-0.69441706
154	0xbf314045	-0.6923869
155	0xbf348052	-0.705083
156	0xbf2031fd	-0.62576276
157	0xbf2f8a69	-0.6857057
158	0xbf2bd5b0	-0.67122936
159	0xbe0c3ff7	-0.13696276

conv4.weight f4 [160, 160, 3]
0	0xbf2233b3	-0.63360137
1	0xbf20f42c	-0.62872577
2	0xbf23317d	-0.6374739
3	0xbf36a1e7	-0.71340793
4	0xbf3252c9	-0.6965757
5	0xbf35b543	-0.7097971
6	0xbf39a349	-0.7251478
7	0xbf33b9fc	-0.70205665
8	0xbf31cfaa	-0.69457495
9	0xbf251b3a	-0.6449467
10	0xbf2ff009	-0.6872564
11	0xbf230f3c	-0.6369512
12	0xbf247081	-0.6423417
13	0xbf2331e9	-0.6374803
14	0xbf2b208e	-0.6684655
15	0xbf250a9f	-0.6446933
16	0xbf3af448	-0.73028994
17	0xbf2c4672	-0.6729499
18	0xbf2789b9	-0.65444523
19	0xbf29023c	-0.66019034
20	0xbf377817	-0.7166762
21	0xbf26b672	-0.6512214
22	0xbf2d2726	-0.6763786
23	0xbf2e9326	-0.6819328
24	0xbf2b2f52	-0.6686908
25	0xbf22a128	-0.63527155
26	0xbf32bf8d	-0.69823533
27	0xbf31784f	-0.693242
28	0xbf379dd8	-0.71725225
29	0xbf30bd96	-0.69039285
30	0xbf36eb6c	-0.71452975
31	0xbf2e8ffe	-0.68188465
32	0xbf390284	-0.72269464
33	0xbf24157a	-0.6409527
34	0xbf31e1d0	-0.6948519
35	0xbf32c7f4	-0.69836354
36	0xbf2c4665	-0.67294914
37	0xbf299a36	-0.6625093
38	0xbf259851	-0.6468554
39	0xbf2ddebf	-0.6791801
40	0xbf25ab3d	-0.64714414
41	0xbf31e33d	-0.69487363
42	0xbf2d35e4	-0.67660356
43	0xbf28e40c	-0.6597297
44	0xbf354b82	-0.7081834
45	0x3f2461d9	0.64211804
46	0xbf12cce3	-0.5734388
47	0xbed698e6	-0.41913527
48	0xbf2e2fc0	-0.6804161
49	0xbf35957e	-0.7093123
50	0xbf3337c3	-0.7000696
51	0xbf362fc6	-0.71166646
52	0xbf25888d	-0.64661485
53	0xbf296c2f	-0.661807
54	0x3f2aeb51	0.66765314
55	0x3f29a552	0.66267884
56	0x3f30a96e	0.6900853
57	0xbf2a95a9	-0.66634613
58	0xbf2a0936	-0.66420305
59	0xbf3d769e	-0.7400912
60	0xbf24cbd3	-0.6437351
61	0xbf2c7644	-0.6736796
62	0xbf36dfcb	-0.7143523
63	0xbf284aed	-0.6573933
64	0xbf2eca57	-0.68277496
65	0xbf32da33	-0.69864196
66	0xbf355fcb	-0.70849293
67	0xbf2b59ae	-0.66933715
68	0xbf32d3ca	-0.69854414
69	0x3f358c18	0.7091689
70	0x3f32fda9	0.69918305
71	0x3f208609	0.6270452
72	0xbf313245	-0.6921733
73	0xbf231003	-0.63696307
74	0xbf25bbf7	-0.64739937
75	0xbf26653f	-0.6499824
76	0xbf290c49	-0.6603437
77	0xbf27ceb2	-0.65549767
78	0x3f2b5644	0.66928506
79	0x3f26d29f	0.6516513
80	0x3f34d800	0.7064209
81	0x3f23b5f6	0.63949525
82	0x3f2d77a2	0.6776067
83	0x3f34fe40	0.70700455
84	0xbf312b78	-0.69206953
85	0xbf35293b	-0.7076604
86	0xbf258883	-0.64661425
87	0x3f2a8063	0.6660215
88	0x3c437932	0.011930751
89	0xbc1f9073	-0.009739029
90	0xbf39c1a4	-0.725611
91	0xbf344c1c	-0.70428634
92	0xbf3a2992	-0.7271968
93	0x3f274b2e	0.6534909
94	0x3f345959	0.70448834
95	0x3f35c02b	0.7099635
96	0xbf33a49a	-0.7017304
97	0x3f2d77c8	0.67760897
98	0xbf29ff9d	-0.6640566
99	0xbf35f69b	-0.71079415
100	0xbf259963	-0.64687175
101	0xbf350d8a	-0.70723784
102	0x3f2607a0	0.64855385
103	0x3f389a29	0.7211023
104	0x3f22300f	0.6335458
105	0xbf35dcce	-0.71040046
106	0x3f2c36bb	0.6727101
107	0xbf30b8b7	-0.6903185
108	0xbf245d10	-0.642045
109	0xbf398bbb	-0.72478837
110	0xbf2a0237	-0.6640963
111	0xbf387297	-0.7204985
112	0xbf3bc84a	-0.7335249
113	0xbf2bdd86	-0.6713489
114	0x3f336d5e	0.70088756
115	0x3f276550	0.65388966
116	0x3f2d73c0	0.67754745
117	0xbf3c0feb	-0.7346179
118	0xbf2c8f02	-0.6740571
119	0xbf28e1d4	-0.65969586
120	0xbf31142e	-0.69171417
121	0xbf3b0dc7	-0.730679
122	0xbf35801a	-0.7089859
123	0xbf3a8ca6	-0.7287086
124	0xbf27ee02	-0.65597546
125	0xbf3b4c43	-0.7316324
126	0xbf380792	-0.7188655
127	0xbf24fc11	-0.6444712
128	0xbf23f2c3	-0.640423
129	0x3f246dac	0.64229846
130	0x3f23efd9	0.64037853
131	0x3f27cb59	0.6554466
132	0x3f342d49	0.703816
133	0x3f33bace	0.70206916
134	0x3f241c9d	0.6410616
135	0xbf24538a	-0.6418997
136	0xbf3473e6	-0.70489347
137	0xbf3166da	-0.69297564
138	0xbf35183a	-0.7074009
139	0xbf37e20e	-0.7182931
140	0xbf2a3e97	-0.66501755
141	0xbe57a084	-0.21057326
142	0xbe550e3c	-0.20806211
143	0xbe395bc0	-0.18101406
144	0xbf3186de	-0.69346416
145	0xbf3722da	-0.71537554
146	0xbf35862b	-0.7090785
147	0xbc1184fb	-0.008881803
148	0xbcb691c1	-0.022286298
149	0x3d24f583	0.0402732
150	0xbf2d3dce	-0.6767243
151	0xbf38ce3b	-0.7218968
152	0xbf38f9d7	-0.72256225
153	0xbf28406b	-0.65723294
154	0xbf20c658	-0.6280265
155	0xbf3569c8	-0.70864534
156	0xbf33f5df	-0.70297045
157	0xbf286977	-0.65785927
158	0xbf2948ad	-0.6612652
159	0xbf2b2440	-0.6685219
160	0xbf3c09a9	-0.7345224
161	0xbf390d4a	-0.722859
162	0xbf2236b9	-0.6336475
163	0xbf252ff2	-0.64526284
164	0xbf253e30	-0.64548016
165	0x3f2fed98	0.68721914
166	0x3f2867d6	0.6578344
167	0x3f2f701e	0.6853045
168	0xbf22a82f	-0.6353788
169	0xbf25a48f	-0.6470422
170	0xbf24eb80	-0.64421844
171	0xbf28dfa2	-0.65966237
172	0xbf25afbf	-0.6472129
173	0xbf20f868	-0.6287904
174	0x3f218555	0.63094074
175	0x3f2960e5	0.66163474
176	0x3f2bc647	0.6709942
177	0xbf2e4543	-0.68074435
178	0xbf277cc3	-0.65424746
179	0xbf2b9750	-0.6702776
180	0xbf292e08	-0.66085863
181	0xbf33db41	-0.7025643
182	0xbf244f48	-0.64183474
183	0xbf495fdb	-0.7866189
184	0xbf45aad2	-0.77213776
185	0xbf31ab1d	-0.69401723
186	0xbf363e72	-0.71189034
187	0xbf222638	-0.6333957
188	0xbf3738b5	-0.71570903
189	0xbf21a796	-0.6314634
190	0xbf22a563	-0.6353361
191	0xbf2dd927	-0.67909473
192	0xbf3710af	-0.7150983
193	0xbf391cbe	-0.7230948
194	0xbf29e116	-0.6635908
195	0xbf2bd009	-0.6711431
196	0xbf3268c0	-0.69691086
197	0xbf3891a4	-0.7209723
198	0xbf228842	-0.6348916
199	0xbf257e37	-0.64645714
200	0xbf36d6d6	-0.71421564
201	0xbf26c16f	-0.65138906
202	0xbf27bbed	-0.65521127
203	0xbf348b60	-0.7052517
204	0xbe74c8db	-0.23904745
205	0xbe2b57c1	-0.16732694
206	0xbe44a6e2	-0.19204286
207	0xbf3348a6	-0.7003273
208	0xbf39c246	-0.7256206
209	0xbf270555	-0.6524251
210	0xbf384397	-0.71978134
211	0xbf2aa463	-0.66657084
212	0xbf35ed54	-0.7106526
213	0xbf1d6c4e	-0.61493385
214	0x3f292d71	0.66084963
215	0x3f2d7155	0.67751056
216	0xbd343f67	-0.044005778
217	0x3c0b4d4a	0.008502314
218	0x3d123054	0.03569062
219	0xbf246cff	-0.64228815
220	0xbf2ed642	-0.6829568
221	0xbf34a7fc	-0.70568824
222	0x3f24734f	0.64238447
223	0x3f25ff28	0.6484246
224	0x3f24181a	0.64099276
225	0xbcbe5dbf	-0.023238061
226	0x3af77bd8	0.0018881513
227	0x3d3297ea	0.043601908
228	0xbf300e04	-0.68771386
229	0xbf227043	-0.6345255
230	0xbf33604d	-0.7006882
231	0xbf28fea8	-0.66013575
232	0xbf21f016	-0.6325697
233	0xbf361585	-0.71126586
234	0xbf35cbe0	-0.71014214
235	0xbf3d8c19	-0.740419
236	0xbf37ec7d	-0.7184523
237	0xbf28930e	-0.6584939
238	0xbf29be00	-0.6630554
239	0xbf2e6370	-0.6812048
240	0xbf2e22d1	-0.68021876
241	0xbf20b2e5	-0.6277297
242	0xbf2c8cdc	-0.67402434
243	0xbf27b87a	-0.65515864
244	0xbf2bd613	-0.67123526
245	0xbf337c46	-0.701115
246	0xbf254735	-0.6456178
247	0xbf358161	-0.7090054
248	0xbf24f668	-0.64438486
249	0xbf36c228	-0.7139001
250	0xbf2b8d2a	-0.67012274
251	0xbf2c42ec	-0.67289615
252	0xbf3dd12d	-0.741473
253	0xbf34d387	-0.70635265
254	0xbf335e37	-0.70065635
255	0xbf3469cb	-0.7047393

conv4.bias f4 [160]
0	0xbf25ffc6	-0.64843404
1	0xbf30ebc8	-0.69109774
2	0x3e7bba20	0.2458272
3	0x3f195c38	0.5990634
4	0x3eb566ce	0.35429996
5	0x3f11ef4b	0.5700576
6	0xbf3715ad	-0.7151745
7	0x3f4b17dd	0.7933329
8	0x3f22aa82	0.63541424
9	0xbf17758a	-0.59163725
10	0x3f56379e	0.83678615
11	0xbf31132c	-0.6916988
12	0xbf370f1e	-0.7150744
13	0xbefdc46d	-0.49563923
14	0x3f0011ed	0.5002735
15	0x3de7f60a	0.11326225
16	0xbf3aacd9	-0.72919995
17	0xbefa1cc9	-0.48850086
18	0xbf18bd65	-0.59663993
19	0xbf38bc2e	-0.7216214
20	0xbf394b90	-0.72380924
21	0xbf37a873	-0.7174141
22	0xbf2c2fc5	-0.6726039
23	0x3f24d44a	0.6438643
24	0xbf3791e9	-0.71707016
25	0xbf236fb7	-0.6384234
26	0xbf20cdc1	-0.62813956
27	0xbdecec67	-0.11568528
28	0xbf2157b9	-0.6302448
29	0xbf2873e6	-0.65801847
30	0xbee55357	-0.44790146
31	0xbf25db1c	-0.6478746
32	0xbe9b6b02	-0.30355078
33	0xbdb0e201	-0.08636857
34	0xbf40e93a	-0.75355875
35	0xbf33b32d	-0.70195276
36	0xbf316626	-0.6929649
37	0xbf2d716b	-0.6775119
38	0xbf399436	-0.72491777
39	0x3f3fe973	0.7496559
40	0x3f3fa0ed	0.7485493
41	0x3f4fa752	0.81114686
42	0x3f4bc8f2	0.79603493
43	0xbf0d8b4b	-0.5529067
44	0xbf277d70	-0.6542578
45	0xbf38bc6e	-0.7216252
46	0xbf2db392	-0.6785213
47	0xbe953356	-0.2914073
48	0x3f24b434	0.6433747
49	0xbf2a59cd	-0.66543275
50	0xbf2c7f51	-0.6738177
51	0xbf414f46	-0.75511587
52	0xbf35864b	-0.7090804
53	0xbf390d00	-0.7228546
54	0xbf2a0727	-0.66417164
55	0xbf334c38	-0.70038176
56	0x3f3aa38c	0.729058
57	0xbed33668	-0.41252446
58	0xbf2d9dfe	-0.678192
59	0xbebc30e6	-0.36756057
60	0xbf362a14	-0.71157956
61	0xbf131009	-0.5744634
62	0xbee0cbce	-0.4390549
63	0xbf344025	-0.70410377
64	0xbf27a54e	-0.6548661
65	0xbf35b93e	-0.7098578
66	0xbf2933d7	-0.66094726
67	0xbf2b2b5f	-0.66863054
68	0xbe403b1f	-0.18772553
69	0x3e859300	0.26088715
70	0xbf3242c1	-0.6963311
71	0xbf2a96d4	-0.66636395
72	0xbf36441a	-0.71197665
73	0x3f34dfa6	0.7065376
74	0xbf35f265	-0.7107299
75	0xbed88347	-0.42287657
76	0xbf479426	-0.7796043
77	0x3f3726ab	0.7154338
78	0xbf365379	-0.7122112
79	0xbe0b5c5a	-0.13609448
80	0xbf35ff6d	-0.71092874
81	0xbf2599d7	-0.64687866
82	0x3f4513e7	0.76983494
83	0x3f3bfb1b	0.7343003
84	0xbf4ba068	-0.79541636
85	0xbea2d083	-0.31799707
86	0xbf357282	-0.7087785
87	0xbf1b47c5	-0.60656387
88	0x3f493306	0.7859348
89	0xbf0cf625	-0.55063087
90	0xbf2e54c0	-0.6809807
91	0x3b9794f2	0.00462591
92	0xbf2eebfe	-0.68328846
93	0xbf37ae0d	-0.71749955
94	0xbf3299c4	-0.6976588
95	0xbf1ac0ce	-0.60450447
96	0xbf2a0647	-0.6641583
97	0xbf2bfae0	-0.6717968
98	0xbf2e0cef	-0.67988485
99	0xbf1e88ab	-0.6192729
100	0x3f15e1bf	0.58547586
101	0xbf2f8000	-0.6855469
102	0xbf393fc4	-0.72362924
103	0xbf3990c3	-0.72486514
104	0xbf3bd2b5	-0.7336839
105	0xbf2e2fe1	-0.6804181
106	0xbf0a4845	-0.54016525
107	0x3e917844	0.28412068
108	0xbf3127e7	-0.6920151
109	0x3f474acb	0.778485
110	0xbf30a53e	-0.6900214
111	0xbf116237	-0.5679049
112	0x3f2670ea	0.65016043
113	0xbf2e1bac	-0.68010974
114	0xbf0c1af7	-0.54728645
115	0xbf248c18	-0.64276266
116	0x3f04af8b	0.5183036
117	0x3f55972a	0.83433783
118	0xbf36708e	-0.71265495
119	0xbf22733f	-0.634571
120	0xbf2aab67	-0.6666779
121	0xbf37424e	-0.7158555
122	0xbf2a467d	-0.66513807
123	0xbf3f0100	-0.746109
124	0xbf23207b	-0.63721436
125	0x3f2b0a6f	0.66812795
126	0xbf39ef86	-0.7263111
127	0xbf3cfc41	-0.7382241
128	0xbf4302b0	-0.76175976
129	0xbf38d7e9	-0.7220445
130	0xbf2b8635	-0.6700166
131	0xbe1e4053	-0.15454225
132	0xbf2fd1e2	-0.6867963
133	0xbf364a67	-0.7120728
134	0xbf26f24c	-0.65213466
135	0xbf38edad	-0.72237664
136	0xbf279160	-0.654562
137	0xbf32220b	-0.69583195
138	0xbf3e694e	-0.7437943
139	0xbf289ede	-0.6586741
140	0x3f546ef7	0.8298182
141	0xbf3f3e22	-0.7470418
142	0xbf332f7f	-0.6999435
143	0xbf2c3613	-0.6727001
144	0xbf3a5a44	-0.72793984
145	0xbed0cfe4	-0.40783608
146	0xbf22f555	-0.63655597
147	0xbf2bccf3	-0.671096
148	0x3d90a4ba	0.07062669
149	0xbf2fe560	-0.68709373
150	0x3f46f473	0.7771675
151	0xbdd8edba	-0.10592218
152	0xbe531e84	-0.2061711
153	0x3ede9b04	0.43477643
154	0xbf350356	-0.70708215
155	0xbe775281	-0.24152566
156	0xbf369239	-0.7131687
157	0x3f353fdf	0.70800585
158	0xbf39c26d	-0.72562295
159	0xbf1e62bf	-0.61869425
