figs/for_cm/mlp/mlp_model_dict.pt (torch, 141967 bytes, 10 tensors)

group.0.weight f4 [100, 100]
0	0xbffcfe0d	-1.976503
1	0xbfd2fda4	-1.6483655
2	0x3f283741	0.6570931
3	0xc006afc9	-2.104479
4	0x3dc84f9b	0.097808085
5	0xbfe11c7a	-1.7586815
6	0xbffb389e	-1.9626653
7	0xbfe9110b	-1.8208326
8	0xbff737d7	-1.9313916
9	0x3e012627	0.1261221
10	0xc0036fae	-2.0536914
11	0xc0075a7e	-2.1148982
12	0xbfc82855	-1.5637308
13	0xbe09de14	-0.13463622
14	0x3ffc0c22	1.9691203
15	0x3db35f32	0.087583914
16	0xbff2f72d	-1.8981682
17	0xbff2446c	-1.8927131
18	0xbfc2bc2c	-1.5213675
19	0xbfee90de	-1.863796
20	0xbffddba4	-1.9832654
21	0x3fe8973c	1.8171153
22	0xbfff1154	-1.9927163
23	0x3fb1d5f8	1.3893423
24	0xbffab638	-1.9586859
25	0xbfd1dbe0	-1.6395226
26	0xc003db0c	-2.0602446
27	0xbffecd29	-1.990636
28	0x3f1d3f1d	0.6142443
29	0xc0068a63	-2.1021965
30	0xc00d8b68	-2.2116337
31	0xc001fdae	-2.0311084
32	0xbfe1121a	-1.7583649
33	0xc005087e	-2.0786433
34	0xc00163f8	-2.0217266
35	0xc0095482	-2.145783
36	0xbfff6428	-1.995244
37	0xbffc288c	-1.9699874
38	0x400469cd	2.0689576
39	0x3ec48880	0.3838539
40	0xc0063936	-2.0972419
41	0xbffacbd4	-1.9593453
42	0xc0085902	-2.1304326
43	0xc008c1c7	-2.1368272
44	0xc003a329	-2.0568335
45	0x3ffe2dde	1.9857748
46	0xbfb6bde6	-1.4276702
47	0xc006a3de	-2.1037517
48	0x3fa25dc1	1.2684861
49	0xc004bb72	-2.0739408
50	0xc006e146	-2.1074996
51	0xbe624b8c	-0.22099131
52	0xbf67f2c9	-0.90604836
53	0xc0017ac7	-2.0231187
54	0xbff04f7d	-1.8774258
55	0xbdb9c2f9	-0.09070391
56	0xc0071f19	-2.111273
57	0xc00a169f	-2.1576307
58	0xbf90d3bd	-1.1314617
59	0xc00c4400	-2.1916504
60	0xbe001bff	-0.1251068
61	0x3ffa8c3e	1.9574049
62	0xc00c9fc5	-2.1972516
63	0xbd35ba43	-0.044367086
64	0xc00675ef	-2.100948
65	0xc00a70b4	-2.1631289
66	0xc002b90d	-2.0425446
67	0xbe002cdc	-0.12517112
68	0xc00bbba1	-2.183327
69	0xc0028dfb	-2.0399158
70	0xbfb43688	-1.4079142
71	0x3ff4d044	1.9126058
72	0xbef35cdf	-0.47531793
73	0xc0013fcc	-2.0195189
74	0x3ff392ec	1.9029212
75	0xbfedc237	-1.8574895
76	0xbe865517	-0.26236793
77	0x3e9e463e	0.30912966
78	0xbfdf345a	-1.7437851
79	0x3ed2ddd8	0.41184878
80	0xbfb059d2	-1.3777411
81	0xbf75f431	-0.9607573
82	0xbf6044cd	-0.8760498
83	0x3fb93af4	1.4471116
84	0xc0044271	-2.0665553
85	0xc00ad6d4	-2.169362
86	0xbfecef44	-1.8510518
87	0xc00691f3	-2.102658
88	0xbfffccf9	-1.9984428
89	0xc006d1a1	-2.1065447
90	0xbfffead3	-1.9993538
91	0xc006b5ce	-2.1048465
92	0xc00ea552	-2.2288404
93	0xbff81bd8	-1.9383497
94	0xc0037297	-2.053869
95	0xbfee7417	-1.8629178
96	0x3f90f6fd	1.1325375
97	0xc001dcf0	-2.02911
98	0xbfd2ef8e	-1.6479356
99	0xc002a471	-2.0412867
100	0xc0037345	-2.0539105
101	0xc00a3e0a	-2.1600366
102	0xc00b6b29	-2.1784155
103	0xc0020d9a	-2.0320802
104	0x3fe5f255	1.7964579
105	0xbfe9d933	-1.8269409
106	0xbfc0682e	-1.5031793
107	0x3fe07c95	1.753802
108	0xc0066504	-2.0999155
109	0x3fe5e830	1.7961483
110	0xc00770cf	-2.1162603
111	0xbff46f26	-1.909642
112	0xc007a416	-2.11939
113	0xc00b31b9	-2.1749098
114	0x40071cca	2.1111321
115	0xbffe9e5b	-1.9892076
116	0xc0020214	-2.0313768
117	0xbfe7f2e0	-1.8120995
118	0x3ffbeb06	1.9681098
119	0xc002ebc5	-2.0456402
120	0xbff8fb9f	-1.9451789
121	0x40036c29	2.0534766
122	0x4004a427	2.072519
123	0xbfecd1da	-1.8501542
124	0x3fcd95e1	1.6061364
125	0xc0023495	-2.0344594
126	0xbff7c296	-1.9356258
127	0xbfacef1a	-1.3510468
128	0xc0089ab1	-2.1344416
129	0xbffa79b4	-1.9568391
130	0xbffc9e63	-1.9735836
131	0x4004233c	2.0646505
132	0xbffdbdd2	-1.9823554
133	0xbff927d6	-1.9465282
134	0x40084a59	2.1295378
135	0x400c5873	2.1928985
136	0xc00a24a3	-2.1584861
137	0x40055963	2.0835807
138	0x3ffe86b1	1.9884855
139	0x3fc262b9	1.5186378
140	0xbfcfc18f	-1.6230944
141	0xc002b850	-2.0424995
142	0xc0075d22	-2.1150594
143	0xc003e1f1	-2.0606654
144	0x3fe6c14a	1.8027737
145	0xc00ab0da	-2.1670442
146	0xc006cc75	-2.106229
147	0xc0010bea	-2.0163522
148	0xbff5bbc3	-1.9197925
149	0xbff7a4c2	-1.9347155
150	0xc0038511	-2.0549967
151	0xbfd4745a	-1.6598008
152	0xc00615d2	-2.0950818
153	0xc0009173	-2.0088775
154	0xc00a04f8	-2.1565533
155	0xc00bf0a2	-2.186562
156	0xc001d15f	-2.028404
157	0xbffe07c2	-1.9846117
158	0xbfe6d53f	-1.8033828
159	0x3fac17c0	1.3444748
160	0xc003cbb8	-2.059309
161	0xc001461a	-2.0199037
162	0xbf9c7f56	-1.222636
163	0xbffa4f76	-1.95555
164	0xbff9c461	-1.9513055
165	0x3fe5ede2	1.7963221
166	0xc000137e	-2.0011897
167	0xbffc598e	-1.971483
168	0xbfa3f07c	-1.2807765
169	0xbff4b102	-1.9116518
170	0x3ff2d469	1.8971072
171	0x3ffab53f	1.9586562
172	0xbfed1e81	-1.8524934
173	0xbffc82f0	-1.9727459
174	0xc0086518	-2.1311703
175	0xc00bcf7e	-2.1845393
176	0xc0016f3f	-2.022415
177	0xc005ce1f	-2.0907056
178	0xbfcf4989	-1.6194316
179	0xc000246a	-2.0022225
180	0xc000ed1b	-2.0144718
181	0xc00d95e5	-2.2122738
182	0xc002ee28	-2.045786
183	0xc0008591	-2.0081522
184	0xc007d841	-2.122574
185	0xc003f255	-2.0616658
186	0x3fe3b0d6	1.7788341
187	0xbffe592d	-1.9870964
188	0x3fc79783	1.5593113
189	0xc004bda6	-2.0740752
190	0xbfe6fa66	-1.8045166
191	0xc0011c76	-2.017362
192	0xc0037fa4	-2.0546656
193	0xbfe7df7d	-1.8115078
194	0x3ffd6ba4	1.9798474
195	0xbffd1702	-1.9772646
196	0xbfb6129e	-1.4224432
197	0xbffe25bb	-1.9855264
198	0xbf67c62a	-0.9053675
199	0xc001e2b4	-2.0294619
200	0x3f70e02f	0.94092077
201	0x40032b81	2.0495303
202	0xc008990c	-2.1343412
203	0x3e8ab2f6	0.2708966
204	0xc00b51ea	-2.1768746
205	0xbf563501	-0.8367463
206	0x3e7f91f6	0.24958023
207	0xbf559159	-0.8342491
208	0xc0074ea6	-2.1141753
209	0xbfdbcfa5	-1.7172743
210	0xc009f05c	-2.1552954
211	0xbffb1cea	-1.9618199
212	0xbeab3973	-0.33442268
213	0x3f71ee03	0.945038
214	0x3fbdacbc	1.4818339
215	0xbde4458c	-0.111460775
216	0xbe7d13c3	-0.2471457
217	0xbf89e540	-1.0773087
218	0xc00b627c	-2.177886
219	0xc0014e14	-2.0203905
220	0xbfb13ee8	-1.3847322
221	0x4001146a	2.016871
222	0xbffe9e53	-1.9892067
223	0xbfda0a79	-1.7034446
224	0xbf8e6823	-1.112553
225	0xc0073f55	-2.1132405
226	0xbfe38619	-1.7775298
227	0x3ff03e74	1.8769059
228	0xbfd2f01d	-1.6479527
229	0xbffd6313	-1.979586
230	0xbfd87f87	-1.6913918
231	0xc005ba24	-2.0894861
232	0xc0085134	-2.1299562
233	0xbfb615de	-1.4225423
234	0xc00c6a52	-2.1939893
235	0x3e7904ed	0.24318285
236	0xc005a738	-2.0883312
237	0xbfce4d07	-1.6117257
238	0xbfe7b555	-1.8102213
239	0x3f09d4de	0.53840435
240	0xbf66531b	-0.8997056
241	0xc00ab7d1	-2.1674693
242	0x3f75811f	0.9590015
243	0x3efa858a	0.48930007
244	0xbff657a9	-1.9245502
245	0xc0039d5e	-2.05648
246	0x3f90a284	1.1299596
247	0x3dbb75f5	0.09153358
248	0xbfd836b5	-1.6891695
249	0xbff72506	-1.9308174
250	0xc00658ce	-2.0991702
251	0x3fcd86ec	1.60568
252	0x3f31f15e	0.6950892
253	0xbf9ec764	-1.2404599
254	0xbfa298e4	-1.2702909
255	0xc00fdfc6	-2.248033

group.0.bias f4 [100]
0	0x3f2f8d83	0.68575305
1	0xbffbf74a	-1.9684842
2	0x4011deba	2.2792192
3	0x3fc0ea2a	1.5071461
4	0xbffa3d5f	-1.9549979
5	0x3fb18777	1.3869466
6	0xc0078abc	-2.1178427
7	0xc0004315	-2.0040944
8	0xc0097c1b	-2.1481998
9	0xc00156be	-2.0209193
10	0xc00e4f8e	-2.2236056
11	0xbfef6623	-1.8703045
12	0xbfed9b5c	-1.8563037
13	0xbf2b59b0	-0.6693373
14	0xbff60ca2	-1.9222605
15	0xc00917f3	-2.1420867
16	0xbf20c8c4	-0.62806344
17	0xc000d803	-2.0131843
18	0xc007e3cc	-2.1232786
19	0x3ff7474f	1.9318637
20	0xc00598fb	-2.0874622
21	0xbfe18882	-1.7619784
22	0xc00265cf	-2.037464
23	0xc011060c	-2.265994
24	0xbf4cf073	-0.80054396
25	0xbfd7fa53	-1.6873268
26	0xbeccf54b	-0.40030894
27	0xbfeb752c	-1.8395133
28	0xc00e5ab2	-2.2242856
29	0xc00804f0	-2.1253014
30	0xc007bb93	-2.1208236
31	0xc01690f0	-2.3525963
32	0xbfb29ad0	-1.3953495
33	0xc002a884	-2.0415354
34	0xc0124af4	-2.2858248
35	0x3fddd310	1.7330036
36	0xc003378c	-2.0502653
37	0xc0000e90	-2.0008888
38	0xbffb2908	-1.9621897
39	0xbf8e84a9	-1.1134235
40	0xc000b789	-2.011202
41	0xc006f160	-2.1084824
42	0x3f0c6bfc	0.5485227
43	0x3f009aef	0.5023641
44	0xc003a436	-2.0568976
45	0xbfd6927f	-1.6763457
46	0xbfb72ed6	-1.4311168
47	0xbfd27578	-1.6442099
48	0xbf80e83a	-1.007087
49	0xbfec1e85	-1.8446814
50	0xbffb48bd	-1.9631573
51	0xbff7cc2a	-1.9359181
52	0xbfe10ca9	-1.7581989
53	0xc006dc9a	-2.1072145
54	0xbefaee74	-0.4901005
55	0xbf7a3fd5	-0.9775365
56	0xbf004b05	-0.5011447
57	0xc00dcd15	-2.2156422
58	0xbfa2f5d5	-1.2731272
59	0xbfc1a995	-1.5129877
60	0xbfd25bf5	-1.6434313
61	0x3fe88c8d	1.8167893
62	0xbfefb342	-1.872658
63	0xc0070298	-2.1095333
64	0xc008044f	-2.125263
65	0xc0081b5b	-2.1266696
66	0xbe0731de	-0.13202617
67	0xbfe5af06	-1.7944038
68	0xbfa90409	-1.3204356
69	0xc002f614	-2.0462694
70	0xc009e4ff	-2.1546018
71	0xc0040112	-2.0625653
72	0xc002aae6	-2.0416808
73	0xc004cb49	-2.0749075
74	0xbf519c93	-0.8187954
75	0x3fab4b7b	1.338241
76	0xc0062b2b	-2.0963848
77	0xc0090896	-2.141149
78	0xbfb0a358	-1.3799849
79	0xbfe5451d	-1.7911717
80	0xc0080b31	-2.125683
81	0x3fe7d6d3	1.8112434
82	0xbfebb70e	-1.8415239
83	0xbf423b1d	-0.7587145
84	0xbf7120a2	-0.9419042
85	0xc00c0fa4	-2.1884546
86	0xbf2f44d6	-0.6846441
87	0xc00ac320	-2.1681595
88	0xbfcd3f4e	-1.6034944
89	0xbfc92f60	-1.5717583
90	0xc0015dae	-2.0213428
91	0xbf2f24c5	-0.6841548
92	0xc0038cda	-2.055472
93	0xc005379a	-2.0815187
94	0xc0063c1f	-2.0974195
95	0xc0075abd	-2.1149132
96	0xc0115ab9	-2.2711623
97	0xc005cb97	-2.0905511
98	0x3fe47b35	1.78501
99	0xc0085926	-2.1304412

fc1.weight f4 [100, 240]
0	0xbfef3efe	-1.8691099
1	0xbfcae235	-1.5850283
2	0x400d9ecf	2.212818
3	0x40133562	2.3001332
4	0x400d1447	2.2043626
5	0x4001bd6c	2.0271864
6	0xbfd126e7	-1.6339997
7	0xc00d7ace	-2.2106204
8	0xbf9f9b2f	-1.2469233
9	0xbfd53999	-1.6658202
10	0x40033334	2.0500002
11	0x3fb407a2	1.4064829
12	0xc007798f	-2.1167943
13	0xc00fcad6	-2.2467551
14	0xc00c718b	-2.19443
15	0xbe7f59e7	-0.24936639
16	0x3ff0d814	1.8815942
17	0x4010a3f8	2.2600079
18	0x4012ad5b	2.2918308
19	0x401046b8	2.2543163
20	0x3f963b91	1.1736928
21	0xbfe58a1a	-1.793277
22	0xbfff178d	-1.9929062
23	0xbf67ee5a	-0.9059807
24	0xbfeda084	-1.856461
25	0x3f7d3a67	0.9891724
26	0xc008d677	-2.13809
27	0xc00bd0ed	-2.1846268
28	0xbff6244d	-1.9229828
29	0x3ff99677	1.9499043
30	0x40044c18	2.0671444
31	0x40008299	2.007971
32	0x400c6512	2.1936688
33	0xbd8c6e9d	-0.06857035
34	0xbf6c4b11	-0.9230204
35	0x3fabde97	1.3427304
36	0x40081ba3	2.1266868
37	0x3f4cd98a	0.8001944
38	0x3f9114bd	1.1334454
39	0x3d9f20b8	0.077699125
40	0xbff4336b	-1.9078192
41	0xc00d3e28	-2.2069187
42	0xc0117281	-2.2726138
43	0xbe734d4e	-0.23759958
44	0xbe96cb1c	-0.29451835
45	0x3fee8e38	1.8637152
46	0x4008b78c	2.1362028
47	0x40046d32	2.0691648
48	0x3ff2442a	1.8927052
49	0x4003d423	2.0598228
50	0x400ec117	2.2305353
51	0x3ff770ed	1.9331337
52	0x3ffddd75	1.9833208
53	0x3e9837c9	0.2973006
54	0xc003f053	-2.0615432
55	0xbff96d82	-1.9486544
56	0xc0073aea	-2.1129708
57	0xbf882827	-1.0637254
58	0xbffff113	-1.9995445
59	0x3f8479c1	1.0349656
60	0x4006b0ac	2.1045332
61	0x3fb6e57c	1.4288783
62	0x4008711c	2.1319036
63	0x400dae1d	2.213752
64	0xbfb4087a	-1.4065087
65	0xbfcf6baa	-1.6204731
66	0xbfe946fb	-1.8224787
67	0xc0020a4e	-2.031879
68	0xc0031114	-2.0479174
69	0xbfd56136	-1.6670291
70	0xc007567d	-2.1146538
71	0xbfff7f42	-1.9960711
72	0xc001245d	-2.0178444
73	0xc0074157	-2.113363
74	0x3ffff905	1.999787
75	0x40133d71	2.300625
76	0x40120444	2.2815104
77	0x400a25f3	2.1585662
78	0x400a86e2	2.1644826
79	0x3f26302d	0.6491726
80	0x3fda9a83	1.7078403
81	0xc001a5d4	-2.0257463
82	0xc00440b6	-2.0664496
83	0xbff5f171	-1.9214307
84	0xbfb13d7d	-1.384689
85	0xc0042445	-2.0647137
86	0xbff08c98	-1.8792906
87	0xbfffcf5d	-1.9985157
88	0xbfc043f5	-1.5020739
89	0xbfb59b56	-1.418803
90	0x3f229bde	0.63519084
91	0x3fd6152a	1.6725209
92	0x3f25c542	0.64754117
93	0xbeee1cb6	-0.4650628
94	0x3f95b688	1.1696329
95	0x3eeec201	0.46632388
96	0xc00585c7	-2.0862901
97	0xbfa19e72	-1.2626479
98	0xbf99213b	-1.1963266
99	0xbfb3b1f3	-1.4038681
100	0xbfeaadd4	-1.8334298
101	0xc009088d	-2.141147
102	0xc003a82d	-2.0571396
103	0xbfe7e9a2	-1.8118174
104	0xbf919bba	-1.1375649
105	0xbf04b059	-0.51831585
106	0x3fe91b8d	1.8211533
107	0x3f499432	0.78741753
108	0x4003e639	2.0609267
109	0x400ae74b	2.170367
110	0xbf025355	-0.50908405
111	0xc009ddab	-2.1541545
112	0xc003db8d	-2.0602753
113	0xc005cb7c	-2.0905447
114	0xc002b13a	-2.042067
115	0xbfbdedbc	-1.4838176
116	0xc0072914	-2.1118822
117	0xc00532ad	-2.081218
118	0xc00394e9	-2.0559638
119	0xbfd67f8d	-1.6757675
120	0x3cd088ca	0.025455851
121	0xbfb3e2e1	-1.4053613
122	0x4004d3ec	2.0754347
123	0x400ef340	2.2335968
124	0x3fcf2ede	1.6186178
125	0x3fc025c9	1.5011531
126	0xc006f605	-2.1087658
127	0xc00d3c93	-2.2068222
128	0xc011eb8b	-2.2800014
129	0xc00e5b4f	-2.224323
130	0xbf9a3af4	-1.2049241
131	0xbfc9bf1f	-1.576145
132	0xbfc083d0	-1.5040226
133	0xbffe7b78	-1.988143
134	0xc0005a62	-2.0055165
135	0xbfcc4cf8	-1.5960989
136	0xbf0a68a8	-0.5406594
137	0x40089fbe	2.13475
138	0x4009e102	2.1543584
139	0x400855e2	2.1302419
140	0xbf760a51	-0.9610949
141	0xc007df88	-2.1230183
142	0xc00c7fb1	-2.1952937
143	0xc00ac7f3	-2.168454
144	0xbf5801fb	-0.8437802
145	0xc00160f9	-2.0215437
146	0xbfd95e64	-1.6981931
147	0x3f341c0d	0.703553
148	0xbdf307fe	-0.11866759
149	0xbfebe2c6	-1.8428581
150	0xc006091a	-2.0943055
151	0xbf5c5686	-0.86069524
152	0x3f91715b	1.1362718
153	0x3f95c3b0	1.1700344
154	0x3ff985d7	1.949397
155	0x400d2209	2.2052023
156	0xbfc02024	-1.5009809
157	0xc007357c	-2.1126394
158	0xc008ce2b	-2.1375835
159	0xbf9e719c	-1.2378421
160	0xc006039e	-2.0939708
161	0xbfee028e	-1.859453
162	0x3fe97c5a	1.8241074
163	0x3f20b6a3	0.6277868
164	0x3dbe8dc1	0.09304381
165	0x4006cf9d	2.1064217
166	0x3ed49611	0.41520742
167	0xbff4bec4	-1.9120717
168	0x3ff1c165	1.8887144
169	0x4011fc3f	2.2810209
170	0xbfbf1fac	-1.493154
171	0xbf89bdfd	-1.0761105
172	0xbf9b77f3	-1.2145981
173	0x3fc4ef1e	1.5385473
174	0xbeac7201	-0.33680728
175	0xbfdf2e7a	-1.7436059
176	0x400fec84	2.2488108
177	0x4010a3c6	2.259996
178	0xbd88dd48	-0.06682831
179	0x3f217bce	0.63079536
180	0xbfe436f2	-1.7829268
181	0xc00bbf62	-2.183556
182	0xbebb56f2	-0.36589772
183	0xbf89e378	-1.0772543
184	0x400bcae8	2.1842594
185	0xc0087cd4	-2.132619
186	0x3da053d0	0.07828486
187	0xbf2cf403	-0.6755983
188	0xbfe5566c	-1.7916999
189	0x3f8b4034	1.0878968
190	0xbfc3f843	-1.5310138
191	0xbfe4a562	-1.7862971
192	0xbf9c7a7d	-1.222488
193	0xbfbbf12b	-1.4682974
194	0xbdab692f	-0.083696716
195	0x3e73f18e	0.23822615
196	0x3f9c6d8e	1.2220933
197	0x3f427841	0.7596474
198	0xbfd6da47	-1.6785363
199	0xbfe5bccc	-1.7948241
200	0xbfddd3e8	-1.7330294
201	0xbfbd35f1	-1.4782087
202	0xbf55cda7	-0.83516926
203	0xbff844d1	-1.9396001
204	0xc00de002	-2.2167974
205	0x3e08ece0	0.1337161
206	0xbfbba8a0	-1.4660835
207	0xbbec38e6	-0.0072089313
208	0x400665d7	2.0999658
209	0x40050e72	2.0790067
210	0x3fcda854	1.6066995
211	0xbfa64f0b	-1.2992872
212	0xc0032434	-2.0490847
213	0xc0157d40	-2.3357697
214	0x4011d029	2.27833
215	0x3fd156b2	1.6354582
216	0xbfaceb65	-1.3509337
217	0xc00d08c0	-2.203659
218	0xc00b5b19	-2.1774352
219	0xbec20d7d	-0.37900916
220	0x3fb776b2	1.4333098
221	0x400b3ae0	2.1754684
222	0xbf58ff38	-0.8476443
223	0x3fb017f1	1.3757306
224	0x3fd41c30	1.6571102
225	0xbf91e6a7	-1.1398515
226	0xbfa9ec5f	-1.327526
227	0xbffe34af	-1.9859828
228	0xbfef4cb8	-1.8695288
229	0x400e5c76	2.2243934
230	0x3ffc52d9	1.9712783
231	0xc00865db	-2.1312168
232	0xc01550a5	-2.3330472
233	0xbfdf62fb	-1.7452081
234	0xc00931da	-2.1436677
235	0x3f2ce0ba	0.67530406
236	0x400fcde5	2.2469418
237	0x3fea4c5c	1.8304553
238	0xbf721a17	-0.9457106
239	0xbf8828d3	-1.0637459
240	0x3f4218e3	0.75819224
241	0xbf35b1d4	-0.7097447
242	0x3fa16864	1.2609982
243	0x3f2fde91	0.68698984
244	0x3fcc4f5a	1.5961716
245	0x3f8e7baa	1.1131489
246	0x3fa685a8	1.3009539
247	0xbf8cc656	-1.0998027
248	0xbf997003	-1.1987308
249	0x3ddb099a	0.10695191
250	0xbd826106	-0.06366162
251	0x3fdc13f0	1.7193584
252	0x3eb86c29	0.3602002
253	0xbe5974e1	-0.21235992
254	0xbfb34de3	-1.4008144
255	0xbecc1bb7	-0.39864895

fc1.bias f4 [100]
0	0xbfd40fe9	-1.6567355
1	0xc000406f	-2.0039327
2	0x3efcc53f	0.49369237
3	0xc0017720	-2.0228958
4	0xc006a736	-2.1039557
5	0xbfddd356	-1.733012
6	0xc0069221	-2.102669
7	0xc0094b0d	-2.1452057
8	0xbff27cef	-1.8944377
9	0xc000c08f	-2.0117528
10	0xc00f69e5	-2.2408383
11	0xc0075f70	-2.1152
12	0xc00db2c3	-2.2140357
13	0xbfc93ec5	-1.5722281
14	0xc00db9da	-2.2144685
15	0xbfefe34d	-1.8741242
16	0xc002c6d9	-2.0433867
17	0xbfca0f4c	-1.5785918
18	0xc005bb70	-2.0895653
19	0xc0058925	-2.0864956
20	0xbfc4a1b7	-1.5361851
21	0xc0039aa6	-2.056314
22	0xc00c9d90	-2.1971169
23	0xc00bc012	-2.183598
24	0xbffd9e3d	-1.9813915
25	0xc00b8908	-2.1802387
26	0xc006d5b9	-2.1067946
27	0xc0088f1d	-2.133735
28	0xbfcafa56	-1.5857646
29	0x3f08d745	0.53453475
30	0xbf720647	-0.9454083
31	0xc00b8fcd	-2.180652
32	0xc009b113	-2.1514328
33	0xc00e2026	-2.2207122
34	0xc006d6f1	-2.106869
35	0xc000eb13	-2.0143478
36	0xc010f277	-2.2647989
37	0xc00cfc6a	-2.2029061
38	0xc00a48d9	-2.1606963
39	0xbffa37ef	-1.954832
40	0xbfef8d34	-1.8714967
41	0xc0036d62	-2.0535512
42	0xc00aeb5b	-2.170615
43	0xc0074712	-2.1137128
44	0xc006914e	-2.1026187
45	0xbfe013a0	-1.7505989
46	0xc00c6925	-2.1939175
47	0xbff23214	-1.8921533
48	0xbfb4fac3	-1.4139026
49	0xc003c171	-2.0586817
50	0xc008b320	-2.135933
51	0xc00c2738	-2.1898937
52	0xbf82c33b	-1.021583
53	0xc00529ec	-2.0806837
54	0xc00ee74a	-2.2328668
55	0xbf3d23f0	-0.7388296
56	0xc003d9c8	-2.0601673
57	0xc01133fe	-2.2687984
58	0xc0154d51	-2.332844
59	0xc00a65ae	-2.162456
60	0xbff59715	-1.9186732
61	0xbff267e8	-1.893796
62	0xbfcc179e	-1.5944707
63	0xc00d5d0b	-2.208804
64	0xc0090a49	-2.1412528
65	0xc00694ab	-2.102824
66	0xc004965d	-2.0716774
67	0xc00bba95	-2.183263
68	0xc0095822	-2.1460042
69	0xc00794a1	-2.1184466
70	0xc00514b9	-2.0793898
71	0xc0068289	-2.1017172
72	0xbfea94f9	-1.8326713
73	0xc003f269	-2.0616705
74	0xbff8b29a	-1.9429505
75	0xc0081c9b	-2.126746
76	0xc00626ca	-2.0961175
77	0xbf91eb61	-1.1399957
78	0xbe6b8997	-0.23001705
79	0xbfff07e3	-1.9924282
80	0x3e970874	0.29498637
81	0xc00c888e	-2.1958346
82	0x3f65ec68	0.8981385
83	0xc00784e1	-2.1174853
84	0xbff0782d	-1.8786675
85	0xbfbc873a	-1.4728768
86	0xc007863a	-2.1175675
87	0xc00b2e75	-2.1747105
88	0xc00bf995	-2.1871083
89	0xc0077ae6	-2.1168761
90	0xc0097e19	-2.1483214
91	0xc0075a8e	-2.114902
92	0xc00f6eb1	-2.241131
93	0xc0089e69	-2.1346686
94	0xc009329f	-2.1437147
95	0xc005ece9	-2.0925848
96	0xbff3eedf	-1.9057273
97	0xc004fd13	-2.0779464
98	0xbffb124a	-1.9614956
99	0xc00cbc7c	-2.1990042

fc2.0.0.weight f4 [100, 100]
0	0xbffcfe0d	-1.976503
1	0xbfd2fda4	-1.6483655
2	0x3f283741	0.6570931
3	0xc006afc9	-2.104479
4	0x3dc84f9b	0.097808085
5	0xbfe11c7a	-1.7586815
6	0xbffb389e	-1.9626653
7	0xbfe9110b	-1.8208326
8	0xbff737d7	-1.9313916
9	0x3e012627	0.1261221
10	0xc0036fae	-2.0536914
11	0xc0075a7e	-2.1148982
12	0xbfc82855	-1.5637308
13	0xbe09de14	-0.13463622
14	0x3ffc0c22	1.9691203
15	0x3db35f32	0.087583914
16	0xbff2f72d	-1.8981682
17	0xbff2446c	-1.8927131
18	0xbfc2bc2c	-1.5213675
19	0xbfee90de	-1.863796
20	0xbffddba4	-1.9832654
21	0x3fe8973c	1.8171153
22	0xbfff1154	-1.9927163
23	0x3fb1d5f8	1.3893423
24	0xbffab638	-1.9586859
25	0xbfd1dbe0	-1.6395226
26	0xc003db0c	-2.0602446
27	0xbffecd29	-1.990636
28	0x3f1d3f1d	0.6142443
29	0xc0068a63	-2.1021965
30	0xc00d8b68	-2.2116337
31	0xc001fdae	-2.0311084
32	0xbfe1121a	-1.7583649
33	0xc005087e	-2.0786433
34	0xc00163f8	-2.0217266
35	0xc0095482	-2.145783
36	0xbfff6428	-1.995244
37	0xbffc288c	-1.9699874
38	0x400469cd	2.0689576
39	0x3ec48880	0.3838539
40	0xc0063936	-2.0972419
41	0xbffacbd4	-1.9593453
42	0xc0085902	-2.1304326
43	0xc008c1c7	-2.1368272
44	0xc003a329	-2.0568335
45	0x3ffe2dde	1.9857748
46	0xbfb6bde6	-1.4276702
47	0xc006a3de	-2.1037517
48	0x3fa25dc1	1.2684861
49	0xc004bb72	-2.0739408
50	0xc006e146	-2.1074996
51	0xbe624b8c	-0.22099131
52	0xbf67f2c9	-0.90604836
53	0xc0017ac7	-2.0231187
54	0xbff04f7d	-1.8774258
55	0xbdb9c2f9	-0.09070391
56	0xc0071f19	-2.111273
57	0xc00a169f	-2.1576307
58	0xbf90d3bd	-1.1314617
59	0xc00c4400	-2.1916504
60	0xbe001bff	-0.1251068
61	0x3ffa8c3e	1.9574049
62	0xc00c9fc5	-2.1972516
63	0xbd35ba43	-0.044367086
64	0xc00675ef	-2.100948
65	0xc00a70b4	-2.1631289
66	0xc002b90d	-2.0425446
67	0xbe002cdc	-0.12517112
68	0xc00bbba1	-2.183327
69	0xc0028dfb	-2.0399158
70	0xbfb43688	-1.4079142
71	0x3ff4d044	1.9126058
72	0xbef35cdf	-0.47531793
73	0xc0013fcc	-2.0195189
74	0x3ff392ec	1.9029212
75	0xbfedc237	-1.8574895
76	0xbe865517	-0.26236793
77	0x3e9e463e	0.30912966
78	0xbfdf345a	-1.7437851
79	0x3ed2ddd8	0.41184878
80	0xbfb059d2	-1.3777411
81	0xbf75f431	-0.9607573
82	0xbf6044cd	-0.8760498
83	0x3fb93af4	1.4471116
84	0xc0044271	-2.0665553
85	0xc00ad6d4	-2.169362
86	0xbfecef44	-1.8510518
87	0xc00691f3	-2.102658
88	0xbfffccf9	-1.9984428
89	0xc006d1a1	-2.1065447
90	0xbfffead3	-1.9993538
91	0xc006b5ce	-2.1048465
92	0xc00ea552	-2.2288404
93	0xbff81bd8	-1.9383497
94	0xc0037297	-2.053869
95	0xbfee7417	-1.8629178
96	0x3f90f6fd	1.1325375
97	0xc001dcf0	-2.02911
98	0xbfd2ef8e	-1.6479356
99	0xc002a471	-2.0412867
100	0xc0037345	-2.0539105
101	0xc00a3e0a	-2.1600366
102	0xc00b6b29	-2.1784155
103	0xc0020d9a	-2.0320802
104	0x3fe5f255	1.7964579
105	0xbfe9d933	-1.8269409
106	0xbfc0682e	-1.5031793
107	0x3fe07c95	1.753802
108	0xc0066504	-2.0999155
109	0x3fe5e830	1.7961483
110	0xc00770cf	-2.1162603
111	0xbff46f26	-1.909642
112	0xc007a416	-2.11939
113	0xc00b31b9	-2.1749098
114	0x40071cca	2.1111321
115	0xbffe9e5b	-1.9892076
116	0xc0020214	-2.0313768
117	0xbfe7f2e0	-1.8120995
118	0x3ffbeb06	1.9681098
119	0xc002ebc5	-2.0456402
120	0xbff8fb9f	-1.9451789
121	0x40036c29	2.0534766
122	0x4004a427	2.072519
123	0xbfecd1da	-1.8501542
124	0x3fcd95e1	1.6061364
125	0xc0023495	-2.0344594
126	0xbff7c296	-1.9356258
127	0xbfacef1a	-1.3510468
128	0xc0089ab1	-2.1344416
129	0xbffa79b4	-1.9568391
130	0xbffc9e63	-1.9735836
131	0x4004233c	2.0646505
132	0xbffdbdd2	-1.9823554
133	0xbff927d6	-1.9465282
134	0x40084a59	2.1295378
135	0x400c5873	2.1928985
136	0xc00a24a3	-2.1584861
137	0x40055963	2.0835807
138	0x3ffe86b1	1.9884855
139	0x3fc262b9	1.5186378
140	0xbfcfc18f	-1.6230944
141	0xc002b850	-2.0424995
142	0xc0075d22	-2.1150594
143	0xc003e1f1	-2.0606654
144	0x3fe6c14a	1.8027737
145	0xc00ab0da	-2.1670442
146	0xc006cc75	-2.106229
147	0xc0010bea	-2.0163522
148	0xbff5bbc3	-1.9197925
149	0xbff7a4c2	-1.9347155
150	0xc0038511	-2.0549967
151	0xbfd4745a	-1.6598008
152	0xc00615d2	-2.0950818
153	0xc0009173	-2.0088775
154	0xc00a04f8	-2.1565533
155	0xc00bf0a2	-2.186562
156	0xc001d15f	-2.028404
157	0xbffe07c2	-1.9846117
158	0xbfe6d53f	-1.8033828
159	0x3fac17c0	1.3444748
160	0xc003cbb8	-2.059309
161	0xc001461a	-2.0199037
162	0xbf9c7f56	-1.222636
163	0xbffa4f76	-1.95555
164	0xbff9c461	-1.9513055
165	0x3fe5ede2	1.7963221
166	0xc000137e	-2.0011897
167	0xbffc598e	-1.971483
168	0xbfa3f07c	-1.2807765
169	0xbff4b102	-1.9116518
170	0x3ff2d469	1.8971072
171	0x3ffab53f	1.9586562
172	0xbfed1e81	-1.8524934
173	0xbffc82f0	-1.9727459
174	0xc0086518	-2.1311703
175	0xc00bcf7e	-2.1845393
176	0xc0016f3f	-2.022415
177	0xc005ce1f	-2.0907056
178	0xbfcf4989	-1.6194316
179	0xc000246a	-2.0022225
180	0xc000ed1b	-2.0144718
181	0xc00d95e5	-2.2122738
182	0xc002ee28	-2.045786
183	0xc0008591	-2.0081522
184	0xc007d841	-2.122574
185	0xc003f255	-2.0616658
186	0x3fe3b0d6	1.7788341
187	0xbffe592d	-1.9870964
188	0x3fc79783	1.5593113
189	0xc004bda6	-2.0740752
190	0xbfe6fa66	-1.8045166
191	0xc0011c76	-2.017362
192	0xc0037fa4	-2.0546656
193	0xbfe7df7d	-1.8115078
194	0x3ffd6ba4	1.9798474
195	0xbffd1702	-1.9772646
196	0xbfb6129e	-1.4224432
197	0xbffe25bb	-1.9855264
198	0xbf67c62a	-0.9053675
199	0xc001e2b4	-2.0294619
200	0x3f70e02f	0.94092077
201	0x40032b81	2.0495303
202	0xc008990c	-2.1343412
203	0x3e8ab2f6	0.2708966
204	0xc00b51ea	-2.1768746
205	0xbf563501	-0.8367463
206	0x3e7f91f6	0.24958023
207	0xbf559159	-0.8342491
208	0xc0074ea6	-2.1141753
209	0xbfdbcfa5	-1.7172743
210	0xc009f05c	-2.1552954
211	0xbffb1cea	-1.9618199
212	0xbeab3973	-0.33442268
213	0x3f71ee03	0.945038
214	0x3fbdacbc	1.4818339
215	0xbde4458c	-0.111460775
216	0xbe7d13c3	-0.2471457
217	0xbf89e540	-1.0773087
218	0xc00b627c	-2.177886
219	0xc0014e14	-2.0203905
220	0xbfb13ee8	-1.3847322
221	0x4001146a	2.016871
222	0xbffe9e53	-1.9892067
223	0xbfda0a79	-1.7034446
224	0xbf8e6823	-1.112553
225	0xc0073f55	-2.1132405
226	0xbfe38619	-1.7775298
227	0x3ff03e74	1.8769059
228	0xbfd2f01d	-1.6479527
229	0xbffd6313	-1.979586
230	0xbfd87f87	-1.6913918
231	0xc005ba24	-2.0894861
232	0xc0085134	-2.1299562
233	0xbfb615de	-1.4225423
234	0xc00c6a52	-2.1939893
235	0x3e7904ed	0.24318285
236	0xc005a738	-2.0883312
237	0xbfce4d07	-1.6117257
238	0xbfe7b555	-1.8102213
239	0x3f09d4de	0.53840435
240	0xbf66531b	-0.8997056
241	0xc00ab7d1	-2.1674693
242	0x3f75811f	0.9590015
243	0x3efa858a	0.48930007
244	0xbff657a9	-1.9245502
245	0xc0039d5e	-2.05648
246	0x3f90a284	1.1299596
247	0x3dbb75f5	0.09153358
248	0xbfd836b5	-1.6891695
249	0xbff72506	-1.9308174
250	0xc00658ce	-2.0991702
251	0x3fcd86ec	1.60568
252	0x3f31f15e	0.6950892
253	0xbf9ec764	-1.2404599
254	0xbfa298e4	-1.2702909
255	0xc00fdfc6	-2.248033

fc2.0.0.bias f4 [100]
0	0x3f2f8d83	0.68575305
1	0xbffbf74a	-1.9684842
2	0x4011deba	2.2792192
3	0x3fc0ea2a	1.5071461
4	0xbffa3d5f	-1.9549979
5	0x3fb18777	1.3869466
6	0xc0078abc	-2.1178427
7	0xc0004315	-2.0040944
8	0xc0097c1b	-2.1481998
9	0xc00156be	-2.0209193
10	0xc00e4f8e	-2.2236056
11	0xbfef6623	-1.8703045
12	0xbfed9b5c	-1.8563037
13	0xbf2b59b0	-0.6693373
14	0xbff60ca2	-1.9222605
15	0xc00917f3	-2.1420867
16	0xbf20c8c4	-0.62806344
17	0xc000d803	-2.0131843
18	0xc007e3cc	-2.1232786
19	0x3ff7474f	1.9318637
20	0xc00598fb	-2.0874622
21	0xbfe18882	-1.7619784
22	0xc00265cf	-2.037464
23	0xc011060c	-2.265994
24	0xbf4cf073	-0.80054396
25	0xbfd7fa53	-1.6873268
26	0xbeccf54b	-0.40030894
27	0xbfeb752c	-1.8395133
28	0xc00e5ab2	-2.2242856
29	0xc00804f0	-2.1253014
30	0xc007bb93	-2.1208236
31	0xc01690f0	-2.3525963
32	0xbfb29ad0	-1.3953495
33	0xc002a884	-2.0415354
34	0xc0124af4	-2.2858248
35	0x3fddd310	1.7330036
36	0xc003378c	-2.0502653
37	0xc0000e90	-2.0008888
38	0xbffb2908	-1.9621897
39	0xbf8e84a9	-1.1134235
40	0xc000b789	-2.011202
41	0xc006f160	-2.1084824
42	0x3f0c6bfc	0.5485227
43	0x3f009aef	0.5023641
44	0xc003a436	-2.0568976
45	0xbfd6927f	-1.6763457
46	0xbfb72ed6	-1.4311168
47	0xbfd27578	-1.6442099
48	0xbf80e83a	-1.007087
49	0xbfec1e85	-1.8446814
50	0xbffb48bd	-1.9631573
51	0xbff7cc2a	-1.9359181
52	0xbfe10ca9	-1.7581989
53	0xc006dc9a	-2.1072145
54	0xbefaee74	-0.4901005
55	0xbf7a3fd5	-0.9775365
56	0xbf004b05	-0.5011447
57	0xc00dcd15	-2.2156422
58	0xbfa2f5d5	-1.2731272
59	0xbfc1a995	-1.5129877
60	0xbfd25bf5	-1.6434313
61	0x3fe88c8d	1.8167893
62	0xbfefb342	-1.872658
63	0xc0070298	-2.1095333
64	0xc008044f	-2.125263
65	0xc0081b5b	-2.1266696
66	0xbe0731de	-0.13202617
67	0xbfe5af06	-1.7944038
68	0xbfa90409	-1.3204356
69	0xc002f614	-2.0462694
70	0xc009e4ff	-2.1546018
71	0xc0040112	-2.0625653
72	0xc002aae6	-2.0416808
73	0xc004cb49	-2.0749075
74	0xbf519c93	-0.8187954
75	0x3fab4b7b	1.338241
76	0xc0062b2b	-2.0963848
77	0xc0090896	-2.141149
78	0xbfb0a358	-1.3799849
79	0xbfe5451d	-1.7911717
80	0xc0080b31	-2.125683
81	0x3fe7d6d3	1.8112434
82	0xbfebb70e	-1.8415239
83	0xbf423b1d	-0.7587145
84	0xbf7120a2	-0.9419042
85	0xc00c0fa4	-2.1884546
86	0xbf2f44d6	-0.6846441
87	0xc00ac320	-2.1681595
88	0xbfcd3f4e	-1.6034944
89	0xbfc92f60	-1.5717583
90	0xc0015dae	-2.0213428
91	0xbf2f24c5	-0.6841548
92	0xc0038cda	-2.055472
93	0xc005379a	-2.0815187
94	0xc0063c1f	-2.0974195
95	0xc0075abd	-2.1149132
96	0xc0115ab9	-2.2711623
97	0xc005cb97	-2.0905511
98	0x3fe47b35	1.78501
99	0xc0085926	-2.1304412

fc2.1.0.weight f4 [100, 100]
0	0xbffcfe0d	-1.976503
1	0xbfd2fda4	-1.6483655
2	0x3f283741	0.6570931
3	0xc006afc9	-2.104479
4	0x3dc84f9b	0.097808085
5	0xbfe11c7a	-1.7586815
6	0xbffb389e	-1.9626653
7	0xbfe9110b	-1.8208326
8	0xbff737d7	-1.9313916
9	0x3e012627	0.1261221
10	0xc0036fae	-2.0536914
11	0xc0075a7e	-2.1148982
12	0xbfc82855	-1.5637308
13	0xbe09de14	-0.13463622
14	0x3ffc0c22	1.9691203
15	0x3db35f32	0.087583914
16	0xbff2f72d	-1.8981682
17	0xbff2446c	-1.8927131
18	0xbfc2bc2c	-1.5213675
19	0xbfee90de	-1.863796
20	0xbffddba4	-1.9832654
21	0x3fe8973c	1.8171153
22	0xbfff1154	-1.9927163
23	0x3fb1d5f8	1.3893423
24	0xbffab638	-1.9586859
25	0xbfd1dbe0	-1.6395226
26	0xc003db0c	-2.0602446
27	0xbffecd29	-1.990636
28	0x3f1d3f1d	0.6142443
29	0xc0068a63	-2.1021965
30	0xc00d8b68	-2.2116337
31	0xc001fdae	-2.0311084
32	0xbfe1121a	-1.7583649
33	0xc005087e	-2.0786433
34	0xc00163f8	-2.0217266
35	0xc0095482	-2.145783
36	0xbfff6428	-1.995244
37	0xbffc288c	-1.9699874
38	0x400469cd	2.0689576
39	0x3ec48880	0.3838539
40	0xc0063936	-2.0972419
41	0xbffacbd4	-1.9593453
42	0xc0085902	-2.1304326
43	0xc008c1c7	-2.1368272
44	0xc003a329	-2.0568335
45	0x3ffe2dde	1.9857748
46	0xbfb6bde6	-1.4276702
47	0xc006a3de	-2.1037517
48	0x3fa25dc1	1.2684861
49	0xc004bb72	-2.0739408
50	0xc006e146	-2.1074996
51	0xbe624b8c	-0.22099131
52	0xbf67f2c9	-0.90604836
53	0xc0017ac7	-2.0231187
54	0xbff04f7d	-1.8774258
55	0xbdb9c2f9	-0.09070391
56	0xc0071f19	-2.111273
57	0xc00a169f	-2.1576307
58	0xbf90d3bd	-1.1314617
59	0xc00c4400	-2.1916504
60	0xbe001bff	-0.1251068
61	0x3ffa8c3e	1.9574049
62	0xc00c9fc5	-2.1972516
63	0xbd35ba43	-0.044367086
64	0xc00675ef	-2.100948
65	0xc00a70b4	-2.1631289
66	0xc002b90d	-2.0425446
67	0xbe002cdc	-0.12517112
68	0xc00bbba1	-2.183327
69	0xc0028dfb	-2.0399158
70	0xbfb43688	-1.4079142
71	0x3ff4d044	1.9126058
72	0xbef35cdf	-0.47531793
73	0xc0013fcc	-2.0195189
74	0x3ff392ec	1.9029212
75	0xbfedc237	-1.8574895
76	0xbe865517	-0.26236793
77	0x3e9e463e	0.30912966
78	0xbfdf345a	-1.7437851
79	0x3ed2ddd8	0.41184878
80	0xbfb059d2	-1.3777411
81	0xbf75f431	-0.9607573
82	0xbf6044cd	-0.8760498
83	0x3fb93af4	1.4471116
84	0xc0044271	-2.0665553
85	0xc00ad6d4	-2.169362
86	0xbfecef44	-1.8510518
87	0xc00691f3	-2.102658
88	0xbfffccf9	-1.9984428
89	0xc006d1a1	-2.1065447
90	0xbfffead3	-1.9993538
91	0xc006b5ce	-2.1048465
92	0xc00ea552	-2.2288404
93	0xbff81bd8	-1.9383497
94	0xc0037297	-2.053869
95	0xbfee7417	-1.8629178
96	0x3f90f6fd	1.1325375
97	0xc001dcf0	-2.02911
98	0xbfd2ef8e	-1.6479356
99	0xc002a471	-2.0412867
100	0xc0037345	-2.0539105
101	0xc00a3e0a	-2.1600366
102	0xc00b6b29	-2.1784155
103	0xc0020d9a	-2.0320802
104	0x3fe5f255	1.7964579
105	0xbfe9d933	-1.8269409
106	0xbfc0682e	-1.5031793
107	0x3fe07c95	1.753802
108	0xc0066504	-2.0999155
109	0x3fe5e830	1.7961483
110	0xc00770cf	-2.1162603
111	0xbff46f26	-1.909642
112	0xc007a416	-2.11939
113	0xc00b31b9	-2.1749098
114	0x40071cca	2.1111321
115	0xbffe9e5b	-1.9892076
116	0xc0020214	-2.0313768
117	0xbfe7f2e0	-1.8120995
118	0x3ffbeb06	1.9681098
119	0xc002ebc5	-2.0456402
120	0xbff8fb9f	-1.9451789
121	0x40036c29	2.0534766
122	0x4004a427	2.072519
123	0xbfecd1da	-1.8501542
124	0x3fcd95e1	1.6061364
125	0xc0023495	-2.0344594
126	0xbff7c296	-1.9356258
127	0xbfacef1a	-1.3510468
128	0xc0089ab1	-2.1344416
129	0xbffa79b4	-1.9568391
130	0xbffc9e63	-1.9735836
131	0x4004233c	2.0646505
132	0xbffdbdd2	-1.9823554
133	0xbff927d6	-1.9465282
134	0x40084a59	2.1295378
135	0x400c5873	2.1928985
136	0xc00a24a3	-2.1584861
137	0x40055963	2.0835807
138	0x3ffe86b1	1.9884855
139	0x3fc262b9	1.5186378
140	0xbfcfc18f	-1.6230944
141	0xc002b850	-2.0424995
142	0xc0075d22	-2.1150594
143	0xc003e1f1	-2.0606654
144	0x3fe6c14a	1.8027737
145	0xc00ab0da	-2.1670442
146	0xc006cc75	-2.106229
147	0xc0010bea	-2.0163522
148	0xbff5bbc3	-1.9197925
149	0xbff7a4c2	-1.9347155
150	0xc0038511	-2.0549967
151	0xbfd4745a	-1.6598008
152	0xc00615d2	-2.0950818
153	0xc0009173	-2.0088775
154	0xc00a04f8	-2.1565533
155	0xc00bf0a2	-2.186562
156	0xc001d15f	-2.028404
157	0xbffe07c2	-1.9846117
158	0xbfe6d53f	-1.8033828
159	0x3fac17c0	1.3444748
160	0xc003cbb8	-2.059309
161	0xc001461a	-2.0199037
162	0xbf9c7f56	-1.222636
163	0xbffa4f76	-1.95555
164	0xbff9c461	-1.9513055
165	0x3fe5ede2	1.7963221
166	0xc000137e	-2.0011897
167	0xbffc598e	-1.971483
168	0xbfa3f07c	-1.2807765
169	0xbff4b102	-1.9116518
170	0x3ff2d469	1.8971072
171	0x3ffab53f	1.9586562
172	0xbfed1e81	-1.8524934
173	0xbffc82f0	-1.9727459
174	0xc0086518	-2.1311703
175	0xc00bcf7e	-2.1845393
176	0xc0016f3f	-2.022415
177	0xc005ce1f	-2.0907056
178	0xbfcf4989	-1.6194316
179	0xc000246a	-2.0022225
180	0xc000ed1b	-2.0144718
181	0xc00d95e5	-2.2122738
182	0xc002ee28	-2.045786
183	0xc0008591	-2.0081522
184	0xc007d841	-2.122574
185	0xc003f255	-2.0616658
186	0x3fe3b0d6	1.7788341
187	0xbffe592d	-1.9870964
188	0x3fc79783	1.5593113
189	0xc004bda6	-2.0740752
190	0xbfe6fa66	-1.8045166
191	0xc0011c76	-2.017362
192	0xc0037fa4	-2.0546656
193	0xbfe7df7d	-1.8115078
194	0x3ffd6ba4	1.9798474
195	0xbffd1702	-1.9772646
196	0xbfb6129e	-1.4224432
197	0xbffe25bb	-1.9855264
198	0xbf67c62a	-0.9053675
199	0xc001e2b4	-2.0294619
200	0x3f70e02f	0.94092077
201	0x40032b81	2.0495303
202	0xc008990c	-2.1343412
203	0x3e8ab2f6	0.2708966
204	0xc00b51ea	-2.1768746
205	0xbf563501	-0.8367463
206	0x3e7f91f6	0.24958023
207	0xbf559159	-0.8342491
208	0xc0074ea6	-2.1141753
209	0xbfdbcfa5	-1.7172743
210	0xc009f05c	-2.1552954
211	0xbffb1cea	-1.9618199
212	0xbeab3973	-0.33442268
213	0x3f71ee03	0.945038
214	0x3fbdacbc	1.4818339
215	0xbde4458c	-0.111460775
216	0xbe7d13c3	-0.2471457
217	0xbf89e540	-1.0773087
218	0xc00b627c	-2.177886
219	0xc0014e14	-2.0203905
220	0xbfb13ee8	-1.3847322
221	0x4001146a	2.016871
222	0xbffe9e53	-1.9892067
223	0xbfda0a79	-1.7034446
224	0xbf8e6823	-1.112553
225	0xc0073f55	-2.1132405
226	0xbfe38619	-1.7775298
227	0x3ff03e74	1.8769059
228	0xbfd2f01d	-1.6479527
229	0xbffd6313	-1.979586
230	0xbfd87f87	-1.6913918
231	0xc005ba24	-2.0894861
232	0xc0085134	-2.1299562
233	0xbfb615de	-1.4225423
234	0xc00c6a52	-2.1939893
235	0x3e7904ed	0.24318285
236	0xc005a738	-2.0883312
237	0xbfce4d07	-1.6117257
238	0xbfe7b555	-1.8102213
239	0x3f09d4de	0.53840435
240	0xbf66531b	-0.8997056
241	0xc00ab7d1	-2.1674693
242	0x3f75811f	0.9590015
243	0x3efa858a	0.48930007
244	0xbff657a9	-1.9245502
245	0xc0039d5e	-2.05648
246	0x3f90a284	1.1299596
247	0x3dbb75f5	0.09153358
248	0xbfd836b5	-1.6891695
249	0xbff72506	-1.9308174
250	0xc00658ce	-2.0991702
251	0x3fcd86ec	1.60568
252	0x3f31f15e	0.6950892
253	0xbf9ec764	-1.2404599
254	0xbfa298e4	-1.2702909
255	0xc00fdfc6	-2.248033

fc2.1.0.bias f4 [100]
0	0x3f2f8d83	0.68575305
1	0xbffbf74a	-1.9684842
2	0x4011deba	2.2792192
3	0x3fc0ea2a	1.5071461
4	0xbffa3d5f	-1.9549979
5	0x3fb18777	1.3869466
6	0xc0078abc	-2.1178427
7	0xc0004315	-2.0040944
8	0xc0097c1b	-2.1481998
9	0xc00156be	-2.0209193
10	0xc00e4f8e	-2.2236056
11	0xbfef6623	-1.8703045
12	0xbfed9b5c	-1.8563037
13	0xbf2b59b0	-0.6693373
14	0xbff60ca2	-1.9222605
15	0xc00917f3	-2.1420867
16	0xbf20c8c4	-0.62806344
17	0xc000d803	-2.0131843
18	0xc007e3cc	-2.1232786
19	0x3ff7474f	1.9318637
20	0xc00598fb	-2.0874622
21	0xbfe18882	-1.7619784
22	0xc00265cf	-2.037464
23	0xc011060c	-2.265994
24	0xbf4cf073	-0.80054396
25	0xbfd7fa53	-1.6873268
26	0xbeccf54b	-0.40030894
27	0xbfeb752c	-1.8395133
28	0xc00e5ab2	-2.2242856
29	0xc00804f0	-2.1253014
30	0xc007bb93	-2.1208236
31	0xc01690f0	-2.3525963
32	0xbfb29ad0	-1.3953495
33	0xc002a884	-2.0415354
34	0xc0124af4	-2.2858248
35	0x3fddd310	1.7330036
36	0xc003378c	-2.0502653
37	0xc0000e90	-2.0008888
38	0xbffb2908	-1.9621897
39	0xbf8e84a9	-1.1134235
40	0xc000b789	-2.011202
41	0xc006f160	-2.1084824
42	0x3f0c6bfc	0.5485227
43	0x3f009aef	0.5023641
44	0xc003a436	-2.0568976
45	0xbfd6927f	-1.6763457
46	0xbfb72ed6	-1.4311168
47	0xbfd27578	-1.6442099
48	0xbf80e83a	-1.007087
49	0xbfec1e85	-1.8446814
50	0xbffb48bd	-1.9631573
51	0xbff7cc2a	-1.9359181
52	0xbfe10ca9	-1.7581989
53	0xc006dc9a	-2.1072145
54	0xbefaee74	-0.4901005
55	0xbf7a3fd5	-0.9775365
56	0xbf004b05	-0.5011447
57	0xc00dcd15	-2.2156422
58	0xbfa2f5d5	-1.2731272
59	0xbfc1a995	-1.5129877
60	0xbfd25bf5	-1.6434313
61	0x3fe88c8d	1.8167893
62	0xbfefb342	-1.872658
63	0xc0070298	-2.1095333
64	0xc008044f	-2.125263
65	0xc0081b5b	-2.1266696
66	0xbe0731de	-0.13202617
67	0xbfe5af06	-1.7944038
68	0xbfa90409	-1.3204356
69	0xc002f614	-2.0462694
70	0xc009e4ff	-2.1546018
71	0xc0040112	-2.0625653
72	0xc002aae6	-2.0416808
73	0xc004cb49	-2.0749075
74	0xbf519c93	-0.8187954
75	0x3fab4b7b	1.338241
76	0xc0062b2b	-2.0963848
77	0xc0090896	-2.141149
78	0xbfb0a358	-1.3799849
79	0xbfe5451d	-1.7911717
80	0xc0080b31	-2.125683
81	0x3fe7d6d3	1.8112434
82	0xbfebb70e	-1.8415239
83	0xbf423b1d	-0.7587145
84	0xbf7120a2	-0.9419042
85	0xc00c0fa4	-2.1884546
86	0xbf2f44d6	-0.6846441
87	0xc00ac320	-2.1681595
88	0xbfcd3f4e	-1.6034944
89	0xbfc92f60	-1.5717583
90	0xc0015dae	-2.0213428
91	0xbf2f24c5	-0.6841548
92	0xc0038cda	-2.055472
93	0xc005379a	-2.0815187
94	0xc0063c1f	-2.0974195
95	0xc0075abd	-2.1149132
96	0xc0115ab9	-2.2711623
97	0xc005cb97	-2.0905511
98	0x3fe47b35	1.78501
99	0xc0085926	-2.1304412

fc4.weight f4 [6, 100]
0	0x3fb82835	1.438727
1	0xc00a85ec	-2.164424
2	0x3d84396a	0.06456263
3	0xbfb8fa64	-1.4451413
4	0xbff9dbce	-1.9520204
5	0x3e1d5105	0.15362938
6	0x40018801	2.023926
7	0xbff99126	-1.9497421
8	0xc0033aaa	-2.0504556
9	0xc003419d	-2.0508797
10	0x3ff985aa	1.9493916
11	0xbdd8b6c7	-0.10581737
12	0x3f7a56a9	0.9778848
13	0x3fe6d156	1.8032634
14	0xbfc664c5	-1.5499502
15	0x3ede3473	0.4339939
16	0xbf501951	-0.8128863
17	0xc007999e	-2.118751
18	0xc000908c	-2.0088224
19	0x3eb3b15a	0.35096246
20	0xc0013a9a	-2.0192018
21	0x3faceb4d	1.3509308
22	0x3fa2b659	1.2711898
23	0x3f63f5e7	0.8904709
24	0x3ff88817	1.9416531
25	0xbfe9a3cc	-1.8253112
26	0x3e25e1c7	0.16199408
27	0xbfc821dc	-1.5635333
28	0x40030624	2.0472498
29	0xc009f053	-2.1552932
30	0x3d6c8817	0.057746973
31	0x3f047c54	0.5175221
32	0xbb886735	-0.004162694
33	0xbfdef878	-1.7419577
34	0x3fbd3741	1.4782487
35	0xbed710da	-0.42005044
36	0xc0046ec7	-2.0692613
37	0xbfc9d9be	-1.5769575
38	0x3ff18c8b	1.8871015
39	0xbf3afe66	-0.7304443
40	0xc0030b50	-2.0475655
41	0x4009d462	2.1535878
42	0xbf8f8a13	-1.1214012
43	0x3eee7d2c	0.46579874
44	0xc00617c1	-2.0951998
45	0xbfc4f707	-1.5387887
46	0x3e06c9d2	0.13162926
47	0x4006513f	2.0987089
48	0xbf32a417	-0.6978163
49	0x40019deb	2.0252635
50	0xbffac0f8	-1.9590139
51	0x3ff9e606	1.9523323
52	0xc008fbc5	-2.1403668
53	0xbffc4c79	-1.9710838
54	0x3ff5bcde	1.9198263
55	0xbea960ca	-0.33081657
56	0xbf89cdea	-1.0765965
57	0xbffd4431	-1.9786435
58	0xbf5530a0	-0.8327732
59	0x3fd7e951	1.6868078
60	0xbfe0d965	-1.7566344
61	0x3fc793cc	1.5591979
62	0x3ff43fed	1.9082009
63	0xc007e185	-2.1231396
64	0x400a2fa5	2.159158
65	0xbff6b414	-1.9273705
66	0x3f874a78	1.0569601
67	0x3ffedefd	1.9911801
68	0xbff8d24a	-1.9439175
69	0xc0035d4a	-2.052569
70	0xc0104a8d	-2.2545502
71	0x3ffcf86a	1.976331
72	0x3fac46eb	1.3459142
73	0xbfc7b6f0	-1.5602703
74	0x3ffb2e77	1.9623555
75	0xbfc2064c	-1.5158172
76	0x3ea90655	0.33012643
77	0xc0046760	-2.0688095
78	0x3faaaca9	1.3333942
79	0x3fbfe858	1.4992781
80	0xc006e3e7	-2.10766
81	0x3e8b67ff	0.2722778
82	0x4000368d	2.0033295
83	0xbecdfcde	-0.40231985
84	0x3ff973eb	1.94885
85	0xc005496e	-2.0826068
86	0xbf798526	-0.97468793
87	0xc002dd15	-2.0447438
88	0xbfad2339	-1.3526374
89	0x3f20bbcf	0.62786573
90	0xc000699a	-2.0064454
91	0x3fd160b0	1.6357632
92	0xbea8a225	-0.32936206
93	0xbff7419f	-1.9316901
94	0xbfd9d29d	-1.7017399
95	0xbea1fce8	-0.31638265
96	0xbf914c52	-1.1351416
97	0xc0034f69	-2.0517218
98	0x3ecc1fd9	0.39868048
99	0xc00dbe73	-2.214749
100	0x3f80a766	1.0051086
101	0x3fc9ee40	1.5775833
102	0xc001ab4b	-2.02608
103	0x3fc61b39	1.5477058
104	0xbfffb9c0	-1.9978561
105	0xbeffbf9f	-0.49950883
106	0x40001f48	2.0019093
107	0x3fc3d514	1.5299401
108	0x40047441	2.0695956
109	0x4002d256	2.044088
110	0xbff9c47d	-1.9513088
111	0xbfa87312	-1.3160117
112	0x3f80f98b	1.0076154
113	0xbfd2ef47	-1.6479272
114	0x40022a0d	2.0338166
115	0x3f20ed45	0.62862045
116	0x3f77e074	0.96826863
117	0x40022bd3	2.0339248
118	0xbff7f33e	-1.9371107
119	0x3e42e121	0.19031192
120	0x3ffd4006	1.9785163
121	0xbf813fa8	-1.0097551
122	0xbfb5740c	-1.417604
123	0xc008c505	-2.137025
124	0x3ffd1e9c	1.9774966
125	0xbffb09e4	-1.9612393
126	0xbff4f070	-1.9135876
127	0xc0024dc9	-2.0359976
128	0x3f4b96a8	0.7952676
129	0x400231dc	2.0342932
130	0x3ca10351	0.019654902
131	0xbfc9091f	-1.5705909
132	0x3f259cee	0.6469258
133	0x3fee9827	1.8640183
134	0xbfd5e76a	-1.6711247
135	0x3fcd5e87	1.6044472
136	0xbff33e54	-1.9003396
137	0x3fe842d5	1.8145396
138	0xc00797a9	-2.1186316
139	0xbfe2ec3d	-1.7728344
140	0x400225b7	2.033552
141	0xbffed85b	-1.9909776
142	0x3fff0307	1.9922799
143	0xbc242c70	-0.01002036
144	0x40032e32	2.0496945
145	0x3fd3e1d8	1.6553297
146	0x3f5c97ac	0.8616893
147	0x3f9fa08b	1.2470869
148	0xc00b4974	-2.1763582
149	0xbfffd74c	-1.9987578
150	0x3ff6fe38	1.9296331
151	0xbffcd5ec	-1.9752784
152	0x400208e8	2.0317936
153	0xc008bbc7	-2.136461
154	0x3defffa7	0.11718684
155	0x3ffd6375	1.9795977
156	0x3fb939e7	1.4470795
157	0x4002a244	2.041154
158	0x3f8ba410	1.0909443
159	0xc00af79a	-2.1713624
160	0x3fa322cf	1.2744998
161	0x3ff7ab73	1.9349197
162	0xc004c37d	-2.0744317
163	0x3ffc9267	1.9732178
164	0x4003659b	2.0530765
165	0x3fdbd0e0	1.7173119
166	0xbffe953b	-1.9889292
167	0x3fecc385	1.8497168
168	0xbfb46ee3	-1.409634
169	0x40018a8e	2.0240817
170	0x4004b565	2.0735714
171	0xbffd1691	-1.9772512
172	0xbcf378b9	-0.029720651
173	0x4001f898	2.030798
174	0xbfece0a9	-1.8506061
175	0x3ffe8637	1.9884709
176	0xbfc1652d	-1.5109001
177	0x3fd4c302	1.6622012
178	0x3fb672bb	1.4253763
179	0xbf9861c5	-1.1904837
180	0x400162aa	2.021647
181	0xbd7040cc	-0.058655545
182	0xc00b541b	-2.1770084
183	0x3f628216	0.88479745
184	0xbff96d0e	-1.9486406
185	0xc0085a1d	-2.1305
186	0x3f2d3d97	0.67672104
187	0xc002c708	-2.043398
188	0xbeee5ccf	-0.46555182
189	0xbfff1376	-1.9927814
190	0x3fff2792	1.9933951
191	0x3fe576bf	1.7926863
192	0x3fc362a2	1.5264475
193	0xbff4530c	-1.9087844
194	0xbfbefb7b	-1.4920496
195	0x3f9ac11d	1.2090183
196	0x3fbd9594	1.4811273
197	0x4003e5ca	2.0609002
198	0xbf42ae4e	-0.7604722
199	0x3ff9799b	1.9490236
200	0xbfe43727	-1.7829331
201	0x40074acc	2.1139402
202	0x3eeb2c12	0.4593206
203	0xbf9ab6d2	-1.2087042
204	0x3ffa7723	1.9567608
205	0xbef96fb9	-0.4871805
206	0xc007ae34	-2.1200075
207	0xbfabb716	-1.3415248
208	0xc005b5dd	-2.089225
209	0xc006351d	-2.0969918
210	0x3ff96e38	1.9486761
211	0xbffe2fb8	-1.9858313
212	0x3edd64ea	0.43241054
213	0x4005402a	2.0820413
214	0x4007586e	2.1147723
215	0x3f47144c	0.77765346
216	0xc00c9d9f	-2.1971204
217	0xc0091de5	-2.1424496
218	0x4008e4ab	2.1389568
219	0x3fdd8eaa	1.7309163
220	0xc0064e1d	-2.0985177
221	0xbf192833	-0.59826964
222	0x3f3266fe	0.69688404
223	0xbff67395	-1.9254023
224	0x40072831	2.111828
225	0xc00080e0	-2.007866
226	0xbffa11a4	-1.9536633
227	0xbfd1405f	-1.634777
228	0xbffd4aee	-1.9788492
229	0x40040b27	2.0631807
230	0x3da6f870	0.081528544
231	0xbfbb0127	-1.4609727
232	0x3f8f27ed	1.1184059
233	0xbf62607d	-0.8842848
234	0xbfff0dcf	-1.9926089
235	0x3f251a1f	0.6449298
236	0x4004c5ea	2.0745797
237	0x3fc9495e	1.5725515
238	0x40033302	2.0499883
239	0xc00acc6f	-2.1687276
240	0x3ffa8d22	1.957432
241	0x3feec6bf	1.8654402
242	0xbff69dc5	-1.9266897
243	0xbee9acde	-0.456397
244	0xc000084d	-2.0005066
245	0xbf97c0f5	-1.1855761
246	0xc0079847	-2.1186693
247	0xc0089b4f	-2.1344793
248	0x3fa4f9ee	1.2888772
249	0xc006e7b5	-2.1078923
250	0xbf8e03fe	-1.1094968
251	0x4002d088	2.0439777
252	0xbfb9fe2c	-1.4530692
253	0xc003e699	-2.0609496
254	0xc0022b95	-2.03391
255	0x40034e0d	2.0516388

fc4.bias f4 [6]
0	0xbed3a702	-0.41338354
1	0x3f9e7603	1.2379764
2	0xbfc7d816	-1.5612819
3	0xc0036621	-2.0531085
4	0xbe103626	-0.14083156
5	0x3e95f872	0.2929111
