figs/diff_batch_size/mlp_32/mlp_model_dict.pt (torch, 182421 bytes, 8 tensors)

fc1.weight f4 [100, 240]
-0.76488525 -0.91963065 -0.65069145 0.20413414 -1.2102596 -0.71577203 -0.943797 0.9600644
1.1030734 -0.6458366 -0.61408347 -0.9616997 -1.0972108 -1.041201 0.9570941 1.1647066
-0.08120726 0.2436467 -0.10761212 -1.1678703 -1.2332877 -0.5572783 0.94911885 -0.96544206
0.10255451 -0.7923507 -0.8209175 -0.86465716 0.9030197 0.9239574 0.077070914 -0.7418619
-0.67104167 0.5767848 0.37675643 0.52046746 -0.9929577 -1.0761615 -0.976762 -0.9150642
-0.8978771 0.10174496 -0.23831291 -0.7864025 -0.89621705 1.1634961 1.140517 1.0458063
0.36089426 0.84867543 -0.028262442 -1.108431 -1.083047 -0.37774268 -0.7668391 -0.69701993
-0.6232417 0.88919055 0.74158156 0.31114912 1.0000335 0.93057555 0.8348367 0.7061125
0.9067553 0.81889963 0.7943358 -0.955741 -0.70639306 -0.9778312 -0.106813714 0.13250495
1.1070888 1.122427 0.9644258 0.58552766 0.9255041 1.0808477 0.5134257 0.66494834
-1.0955791 -0.86379045 -0.54305834 0.075326964 -0.9002379 -1.0724796 -0.79231435 -0.96663076
-1.0575628 -0.48272797 0.11559472 1.1685703 1.0277148 -1.1589898 -1.1023244 -1.1786963
-1.0436782 1.0609626 1.1187575 0.8412469 -0.9846976 -1.1797066 -1.0190281 -1.0134305
1.1376673 1.0360738 1.0644681 0.61602366 -0.82780427 -1.0629635 -1.1147472 -0.69806695
0.68326265 1.0166432 0.30613354 -1.0634936 -1.2010719 -1.0574026 -1.0505223 0.9309357
1.1374286 1.0908302 0.8536895 -1.1084795 -1.1517566 -1.207136 -0.19591074 -0.014795342
0.91619813 1.0276556 -1.1416013 -1.1741985 -1.1763022 -0.4625979 1.1640532 1.1177328
1.1681646 1.1325996 0.14634116 -1.1578659 -1.1891689 -0.4097622 0.3958585 0.2574056
-0.3507752 -0.9895751 -1.0972888 -1.1792567 0.0447142 1.0553956 0.67258734 0.102808304
0.89784914 -0.6744449 -1.1046145 -0.76942927 -0.4500885 -0.81431276 -0.16013642 -0.96165794
1.0423882 1.049865 -0.82623667 -1.194589 -1.1704459 -1.2156456 -1.0902582 1.0126771
1.0223447 0.1793041 -1.1782782 -1.1417371 -0.541631 1.2031531 1.130356 0.45236623
-0.115464725 -1.0444075 -1.1892658 -1.151355 0.59063023 1.0668882 -0.93391293 -0.99792945
-1.1443882 -1.285111 -0.71057063 0.1775093 1.2047989 1.2098848 1.1551143 -1.2089041
-1.1744605 -1.0933388 0.11684533 -1.1313704 -0.28271523 -0.6711855 -1.1179793 -1.1929885
-1.1382931 1.2361284 1.27616 1.2067229 -0.71821195 1.079042 -1.0865179 -1.1306686
0.8609389 -1.0569695 -1.0838315 -0.37452334 0.15600215 -1.0155412 -1.0959378 -0.10543847
1.0570604 0.9957314 1.2104322 -0.6652679 -1.1141627 -1.2021544 1.091589 0.34314656
-1.2106938 -1.255707 0.79899794 0.13085222 0.9642729 0.70774335 0.34730417 1.0151483
0.4549676 0.03685549 -0.6638702 0.45029917 -0.071436144 1.0013838 -1.1691134 -1.1420689
-0.9889793 -1.0103173 -0.38282755 -0.27973795 0.54519886 0.8792366 1.0055718 1.0171537
0.8839856 0.7402515 -0.39377925 0.3907596 0.107759 0.3470675 0.2962203 0.9493277
00000000: 85cf 43bf ea6c 6bbf b793 26bf 8a08 513e
00000010: c9e9 9abf d63c 37bf ae9c 71bf c8c6 753f
00000020: 8231 8d3f 8c55 25bf 9334 1dbf f431 76bf
00000030: 6771 8cbf 1346 85bf 1e04 753f 1b15 953f
00000040: fe4f a6bd 857e 793e be63 dcbd c67c 95bf
00000050: 5fdc 9dbf caa9 0ebf 74f9 723f 3627 77bf
00000060: 1908 d23d 7fd7 4abf a627 52bf 2c5a 5dbf
00000070: 4d2c 673f 7988 6c3f 5bd7 9d3d a9ea 3dbf
00000080: 63c9 2bbf 2ba8 133f 38e6 c03e 5b3d 053f
00000090: 7a32 7ebf a9bf 89bf 130d 7abf a641 6abf
000000a0: 46db 65bf a95f d03d 4d08 74be ad51 49bf
000000b0: 7b6e 65bf 71ed 943f 76fc 913f fbdc 853f
000000c0: 22c7 b83e cb42 593f a386 e7bc 11e1 8dbf
000000d0: 49a1 8abf 7d67 c1be 914f 44bf e66f 32bf
000000e0: c58c 1fbf fea1 633f 4ad8 3d3f f04e 9f3e
000000f0: 1901 803f 333a 6e3f dcb7 553f cac3 343f
00000100: 1e21 683f 68a3 513f 9759 4b3f 71ab 74bf
00000110: 2dd6 34bf 2553 7abf 26c1 dabd 61af 073e
00000120: 16b5 8d3f b0ab 8f3f 9ce4 763f 24e5 153f
00000130: d6ed 6c3f 3859 8a3f de6f 033f 0e3a 2a3f
00000140: f03b 8cbf 5f21 5dbf df05 0bbf 0645 9a3d
00000150: fe75 66bf 0347 89bf 1dd5 4abf 1d75 77bf
00000160: 385e 87bf 1f28 f7be edbc ec3d b693 953f
00000170: 298c 833f c759 94bf f718 8dbf 85df 96bf
00000180: 3f97 85bf 9fcd 873f 7233 8f3f f55b 573f
00000190: 2415 7cbf a000 97bf 836f 82bf 17b8 81bf
000001a0: 159f 913f 119e 843f 7e40 883f bab3 1d3f
000001b0: fbea 53bf 300f 88bf 09b0 8ebf 84b4 32bf
000001c0: 4dea 2e3f 5d21 823f 89bd 9c3e 8f20 88bf
000001d0: b9bc 99bf f858 87bf 8477 86bf cd51 6e3f
000001e0: 4397 913f 53a0 8b3f 658b 5a3f a8e2 8dbf
000001f0: c36c 93bf 6f83 9abf d39c 48be 2a68 72bc
00000200: f68b 6a3f 388a 833f fe1f 92bf 234c 96bf
00000210: 1291 96bf a2d9 ecbe b2ff 943f de11 8f3f
00000220: 6b86 953f 06f9 903f 75da 153e f334 94bf
00000230: b036 98bf 5acc d1be f7ad ca3e abca 833e
00000240: cf98 b3be cb54 7dbf f673 8cbf e2f1 96bf
00000250: 3d26 373d 3417 873f af2e 2c3f 298d d23d
00000260: 71d9 653f 6ca8 2cbf 0264 8dbf 51f9 44bf
00000270: 0072 e6be cd76 50bf cdfa 23be 372f 76bf
00000280: fa6c 853f fa61 863f 3f84 53bf 4be8 98bf
00000290: 2cd1 95bf 469a 9bbf 958d 8bbf 679f 813f
000002a0: 31dc 823f 7e9b 373e d2d1 96bf 7124 92bf
000002b0: 54a8 0abf ec00 9a3f 81af 903f 8c9c e73e
000002c0: c578 ecbd 25af 85bf dd39 98bf 9a5f 93bf
000002d0: 8b33 173f cb8f 883f eb14 6fbf 4e78 7fbf
000002e0: 507b 92bf 847e a4bf f5e7 35bf ffc4 353e
000002f0: da36 9a3f 81dd 9a3f c9da 933f 5fbd 9abf
00000300: b954 96bf 87f2 8bbf 9b4c ef3d bfd0 90bf
00000310: 0dc0 90be d0d2 2bbf f219 8fbf d9b3 98bf
00000320: 97b3 91bf 7539 9e3f 3659 a33f e575 9a3f
00000330: bddc 37bf 0c1e 8a3f 0513 8bbf c0b9 90bf
00000340: 7e66 5c3f c74a 87bf feba 8abf 86c1 bfbe
00000350: 07bf 1f3e 41fd 81bf b147 8cbf 20f0 d7bd
00000360: c14d 873f 41e8 7e3f 71ef 9a3f ff4e 2abf
00000370: e29c 8ebf 32e0 99bf 30b9 8b3f e8b0 af3e
00000380: 04f8 9abf 02bb a0bf 218b 4c3f 20fe 053e
00000390: 97da 763f ab2e 353f dad1 b13e 61f0 813f
000003a0: 83f1 e83e c8f5 163d 66f3 29bf 9d8d e63e
000003b0: 1d4d 92bd 582d 803f 82a5 95bf 502f 92bf
000003c0: bf2d 7dbf 1452 81bf f901 c4be d039 8fbe
000003d0: 2792 0b3f a615 613f 94b6 803f 1832 823f
000003e0: e14c 623f 1f81 3d3f 6f9d c9be a411 c83e
000003f0: c0b0 dc3d d5b2 b13e 30aa 973e 2407 733f

fc1.bias f4 [100]
-0.88969374 -1.0503905 -1.073577 -1.1364483 -0.6902254 -1.1533885 -1.0189129 -0.4222562
-0.86934775 -0.9382207 -1.2403986 -0.54507464 -1.0176498 -1.133131 -0.93106216 -0.97952163
0.053601112 -0.925958 -1.0831003 -1.0551617 -0.6262634 -0.95657283 0.30772358 -0.99918467
-1.0036434 -1.0183294 -0.9742983 -1.177425 0.69313574 -1.1003386 -0.99883574 -1.050231
-0.9169768 -0.95673126 -1.0171049 -1.0444982 -1.0103344 -1.0731641 -1.0261073 -1.011
-1.0527 1.0420462 -1.0207255 -0.9738295 -0.96053314 -1.0232749 -1.1514083 -1.1097541
-0.19776352 -0.8734865 -1.0226221 -0.67030036 -0.9830302 0.3636532 -1.1117189 -0.005611744
-1.0229651 -1.1429459 -1.0472889 -1.1128991 -1.0501441 -0.88639796 -1.0421044 -0.8787807
-1.0434189 -1.0393683 -1.0940349 0.3637205 -0.9970107 -1.1204386 -1.0926024 -1.1049377
-1.0713238 -0.81991404 -1.0871279 -0.37468028 -1.0311292 -1.0005354 -0.9991228 0.17557749
-1.0111996 -1.0941279 -0.5592796 -1.1076417 -0.97322726 -0.89866805 -1.0268241 -1.191821
-1.0832386 -0.9908223 -0.8486138 -1.0947014 -1.1646547 -1.0063351 -1.0975517 -1.0083162
-0.9735539 -0.79451275 -1.1198748 -0.9970984
00000000: f8c2 63bf 3273 86bf f96a 89bf 2377 91bf
00000010: 9db2 30bf 3ca2 93bf bd6b 82bf f731 d8be
00000020: 938d 5ebf 3b2f 70bf 62c5 9ebf 038a 0bbf
00000030: 5942 82bf 700a 91bf 175a 6ebf eec1 7abf
00000040: d78c 5b3d 950b 6dbf 08a3 8abf 8a0f 87bf
00000050: cc52 20bf f5e1 74bf f28d 9d3e 91ca 7fbf
00000060: 6377 80bf 9e58 82bf 9d6b 79bf ddb5 96bf
00000070: 5871 313f e5d7 8cbf b3b3 7fbf f86d 86bf
00000080: febe 6abf 57ec 74bf 7e30 82bf 1eb2 85bf
00000090: a352 81bf 715d 89bf 7c57 83bf 7368 81bf
000000a0: e0be 86bf c561 853f 22a7 82bf e44c 79bf
000000b0: 80e5 75bf acfa 82bf 5961 93bf 6c0c 8ebf
000000c0: 8582 4abe d09c 5fbf 48e5 82bf ce98 2bbf
000000d0: dea7 7bbf c130 ba3e ce4c 8ebf b8e2 b7bb
000000e0: 85f0 82bf 0d4c 92bf 900d 86bf 7a73 8ebf
000000f0: 1f6b 86bf faea 62bf ad63 85bf c6f7 60bf
00000100: c08e 85bf 050a 85bf 5609 8cbf 9339 ba3e
00000110: 183c 7fbf 886a 8fbf 65da 8bbf 996e 8dbf
00000120: 2321 89bf e3e5 51bf 0227 8bbf 18d6 bfbe
00000130: 0bfc 83bf 8b11 80bf 83c6 7fbf 96ca 333e
00000140: fd6e 81bf 620c 8cbf f32c 0fbf 34c7 8dbf
00000150: 6c25 79bf 1c0f 66bf f96e 83bf 978d 98bf
00000160: 90a7 8abf 88a6 7dbf c13e 59bf 2d1f 8cbf
00000170: 6813 95bf 97cf 80bf 937c 8cbf 8110 81bf
00000180: d43a 79bf 3065 4bbf 0f58 8fbf d741 7fbf

fc2.weight f4 [100, 100]
-1.0549076 -1.1228365 -0.9364938 -1.0329425 -1.0883423 -1.0914562 -1.0280963 -1.051424
-1.1283505 -1.0179118 -1.0299108 -0.9997603 -0.9557706 -0.98892 -1.0536788 -1.1277112
-0.9771911 -1.075406 -0.98883504 -1.001724 -1.0962889 -1.0376412 -1.1172615 -0.96363455
-1.050906 -1.032163 -0.98059505 -1.0184337 -0.9722458 -1.0546397 -1.136568 -1.0827163
-1.0772527 -1.0382414 -0.9993557 -1.0736464 -1.000003 -1.1041702 -1.1167376 -0.9648527
-1.0768626 -0.9813168 -0.9770358 -0.9947593 -1.0852792 -1.0504898 -1.0963674 -0.947123
-1.10013 -1.0098107 -1.0212102 -1.0752648 -1.1513216 -0.9698957 -1.0775493 -1.1560886
-1.1429482 -1.0863644 -1.1348014 -1.1144893 -1.0459704 -0.97373664 -0.9902407 -1.0534363
-1.0875703 -1.1005343 -1.119867 -1.0871836 -1.0054866 -1.0582483 -1.0524342 -1.1003323
-1.1360397 -1.0209047 -0.9842565 -1.0840813 -1.1154009 -0.993682 -1.1215438 -1.0354666
-1.1161567 -1.0804752 -0.96768224 -1.1288738 -1.049235 -1.1297635 -0.978702 -0.96829355
-1.033496 -1.1036514 -0.95569474 -0.9962947 -0.93215954 -1.1004487 -1.073401 -0.9590229
-0.9739929 -0.9692304 -0.98475367 -1.1634123 1.1633681 -0.8376356 -0.89518034 -0.97735864
1.0961958 -0.5946314 -1.0473478 1.0538344 0.91628116 1.107406 1.0784624 1.1597701
-0.9916934 -1.1863993 0.92695034 -0.9890857 0.28747892 -1.0063658 -0.26628456 -0.9875399
1.1612877 0.986402 -0.91104364 -0.9443229 -0.6392674 -1.0824666 1.217368 0.96559846
0.37284282 0.75682914 0.6233562 -0.4659326 1.1004127 -0.47175455 1.021449 -1.119802
0.7429591 -0.1874291 1.1471292 -0.16269161 0.9447408 -0.7068907 -0.79078954 -0.73053986
0.17583506 -0.9134376 1.1465895 -0.9989962 -0.87362474 -0.59926796 -0.9269754 1.1782905
1.1648998 1.0190321 -0.64556617 1.0592756 -1.1345998 -1.0003827 0.84623706 -0.059019055
-1.0040936 0.84690636 -0.64710534 -0.6443988 -0.97273415 -0.81267005 -0.7495631 -1.020919
1.0962844 -0.8598469 -0.64569974 -0.5382402 1.0722302 -0.8083436 -0.15914284 1.1968513
-0.7942542 1.0334499 1.1767914 -0.9298591 0.7779723 -0.9795969 -1.0255811 -0.92023844
0.9715589 1.2004045 -0.72886693 -0.4337175 0.6335602 0.4806688 -0.6334685 -1.0706595
0.4713664 -0.7424602 -1.0971456 -0.85092294 1.2253374 -0.99962187 -0.8520672 -0.3891302
1.0896512 -0.98642147 -1.1452024 0.99478877 1.0647653 -1.0198027 -1.0296996 0.37713954
1.1198838 1.0154117 -0.80667317 -0.7163524 -1.1227683 -1.091407 0.9339631 -1.0750506
-0.37150937 -0.95049965 0.56854826 -1.0935943 -1.0696689 -0.46205577 -1.1280628 -1.1158992
-1.0169923 -0.9925815 1.1182317 -0.99377847 -1.2199141 -0.9517612 1.0394205 -0.97037274
1.0725497 1.1449791 1.183162 -0.98474014 -1.0144325 -1.0084672 0.9987927 -1.022928
-0.93408275 -1.1152045 -1.0827488 -0.8796231 -1.0309143 -0.9072933 -0.8620035 -0.5999686
-1.1493318 -0.9171765 -1.0215957 0.35375342 1.0793189 -0.44218343 -0.989832 -1.0320765
00000000: 3607 87bf 1bb9 8fbf 0fbe 6fbf 7637 84bf
00000010: cd4e 8bbf d6b4 8bbf a998 83bf 1095 86bf
00000020: ca6d 90bf ef4a 82bf 1ed4 83bf 4bf0 7fbf
00000030: 62ad 74bf dc29 7dbf f2de 86bf d758 90bf
00000040: 3229 7abf e7a6 89bf 4b24 7dbf 7e38 80bf
00000050: 3253 8cbf 6dd1 84bf 6d02 8fbf c1b0 76bf
00000060: 1684 86bf eb1d 84bf 4708 7bbf 095c 82bf
00000070: 1ae5 78bf 6ffe 86bf 0f7b 91bf 7396 8abf
00000080: 6be3 89bf 18e5 84bf c6d5 7fbf 3f6d 89bf
00000090: 1900 80bf 7355 8dbf 42f1 8ebf 9600 77bf
000000a0: a2d6 89bf 9437 7bbf 051f 7abf 8ca8 7ebf
000000b0: 6eea 8abf 7376 86bf c455 8cbf a776 72bf
000000c0: 0fd1 8cbf 7a41 81bf 04b7 82bf 47a2 89bf
000000d0: 825e 93bf 164b 78bf 23ed 89bf b6fa 93bf
000000e0: 204c 92bf fd0d 8bbf 2c41 91bf 96a7 8ebf
000000f0: 5ce2 85bf ce46 79bf 6a80 7dbf 00d7 86bf
00000100: 8135 8bbf 4fde 8cbf cd57 8fbf d528 8bbf
00000110: c9b3 80bf ae74 87bf 2ab6 86bf b0d7 8cbf
00000120: c069 91bf 01ad 82bf 3cf8 7bbf 2dc3 8abf
00000130: 75c5 8ebf f261 7ebf bf8e 8fbf 2b8a 84bf
00000140: 39de 8ebf 034d 8abf 06ba 77bf f07e 90bf
00000150: 554d 86bf 179c 90bf 378c 7abf 16e2 77bf
00000160: 9949 84bf 7344 8dbf 69a8 74bf 2b0d 7fbf
00000170: 02a2 6ebf 81db 8cbf 3465 89bf 8682 75bf
00000180: 9957 79bf 7c1f 78bf d118 7cbf b2ea 94bf
00000190: 3fe9 943f 496f 56bf 8a2a 65bf 2d34 7abf
000001a0: 2550 8c3f c339 18bf 7e0f 86bf 0ce4 863f
000001b0: 6791 6a3f 7bbf 8d3f 0e0b 8a3f 5973 943f
000001c0: 9edf 7dbf efdb 97bf 9e4c 6d3f b834 7dbf
000001d0: 7030 933e 98d0 80bf 7356 88be 6acf 7cbf
000001e0: 13a5 943f d784 7c3f 283a 69bf 25bf 71bf
000001f0: 07a7 23bf 448e 8abf b7d2 9b3f 7631 773f
00000200: 41e5 be3e 8ebf 413f 4694 1f3f b88e eebe
00000210: 53da 8c3f d089 f1be d7be 823f ac55 8fbf
00000220: 9132 3e3f 6aed 3fbe 21d5 923f a198 26be
00000230: 88da 713f caf6 34bf 2f71 4abf a904 3bbf
00000240: 1b0e 343e 0cd7 69bf 72c3 923f 37be 7fbf
00000250: dfa5 5fbf a069 19bf 434e 6dbf 39d2 963f
00000260: 701b 953f a56f 823f d343 25bf 5896 873f
00000270: 913a 91bf 8a0c 80bf fea2 583f f7bd 71bd
00000280: 2486 80bf dbce 583f b2a8 25bf 52f7 24bf
00000290: 1b05 79bf 250b 50bf 5ee3 3fbf 79ad 82bf
000002a0: 0c53 8c3f ed1e 5cbf 944c 25bf 1cca 09bf
000002b0: d73e 893f 9bef 4ebf 57f6 22be 6c32 993f
000002c0: 3e54 4bbf 1648 843f 1aa1 963f 3f0b 6ebf
000002d0: 3129 473f ddc6 7abf 3e46 83bf bf94 6bbf
000002e0: 16b8 783f dba6 993f 0697 3abf 3810 debe
000002f0: 0031 223f 391a f63e fe2a 22bf 5f0b 89bf
00000300: f056 f13e df11 3ebf 446f 8cbf 16d6 59bf
00000310: dbd7 9c3f 38e7 7fbf 1321 5abf 133c c7be
00000320: b179 8b3f 1e86 7cbf fe95 92bf 7aaa 7e3f
00000330: 3b4a 883f e588 82bf 32cd 83bf 6f18 c13e
00000340: 5a58 8f3f 03f9 813f 2282 4ebf df62 37bf
00000350: dfb6 8fbf 39b3 8bbf 3518 6f3f 429b 89bf
00000360: 7a36 bebe f253 73bf 618c 113f e6fa 8bbf
00000370: e9ea 88bf 9392 ecbe 5d64 90bf c9d5 8ebf
00000380: ce2c 82bf d219 7ebf 3722 8f3f 4468 7ebf
00000390: 2526 9cbf 9fa6 73bf bb0b 853f 596a 78bf
000003a0: 4f49 893f ad8e 923f da71 973f ee17 7cbf
000003b0: edd8 81bf 7415 81bf e1b0 7f3f 4eef 82bf
000003c0: 0c20 6fbf 05bf 8ebf 8397 8abf fb2e 61bf
000003d0: 00f5 83bf 6044 68bf 43ac 5cbf 8b97 19bf
000003e0: 4e1d 93bf 14cc 6abf a6c3 82bf 2b1f b53e
000003f0: 1f27 8a3f de65 e2be a165 7dbf 151b 84bf

fc2.bias f4 [100]
-1.0230038 -0.9444042 -0.9679224 -1.0635706 -1.0707295 1.0138378 -1.093914 -1.0975181
-0.99676836 -1.0710647 -0.85281 -0.95084804 0.05477659 -1.1477828 -1.2094446 1.1424025
-0.99400604 -0.8470426 -0.9597383 -0.64229727 -0.8691158 -1.1141627 -1.112244 -1.076606
-1.0461756 -0.82604855 -0.71843076 -1.1260158 0.82378644 -1.089819 -1.0285674 -1.1164646
-0.69999075 -1.1603427 -1.1226497 -0.17380956 -1.1038417 -0.8925673 -1.0263555 -1.037409
-0.587059 0.7837025 -1.0665202 -1.0902127 -1.1420912 -1.1673179 -1.1284856 -0.7229075
0.3101808 -1.089797 -0.8421855 -1.040216 -1.117885 -0.022246333 -1.1835814 -0.19723208
-1.028801 -1.1200455 -1.0900301 0.7410517 -0.93225956 -1.262874 0.6614047 -1.1314071
-0.035753027 -1.1125815 -0.8122002 -0.3576981 1.1394674 -1.0102084 -1.1240035 -0.94807863
-0.5484956 0.015813604 -0.8972524 -1.1150918 -1.0138472 -1.0171726 -1.0811446 -0.9976152
-0.9592994 -1.1104811 -0.1816494 -0.9957699 -1.0257463 -0.7792695 -1.0195961 -0.8004256
-1.0779071 -1.0193065 -1.0328213 0.57762945 -0.11788077 0.34813398 -0.4489531 -1.0494585
-0.0627688 -1.0476897 -0.95832545 -0.6168163
00000000: caf1 82bf 79c4 71bf c3c9 77bf 1523 88bf
00000010: aa0d 89bf 70c5 813f 6005 8cbf 797b 8cbf
00000020: 362c 7fbf a618 89bf c251 5abf c76a 73bf
00000030: 6b5d 603d 8cea 92bf 15cf 9abf 3f3a 923f
00000040: 2e77 7ebf c9d7 58bf 69b1 75bf 986d 24bf
00000050: 607e 5ebf e29c 8ebf 035e 8ebf 3ace 89bf
00000060: 15e9 85bf eb77 53bf 14eb 37bf 4921 90bf
00000070: abe3 523f 307f 8bbf 19a8 83bf 50e8 8ebf
00000080: 9832 33bf 1c86 94bf fcb2 8fbf 22fb 31be
00000090: af4a 8dbf 4a7f 64bf 9e5f 83bf d1c9 84bf
000000a0: 8049 16bf baa0 483f bc83 88bf 178c 8bbf
000000b0: 0b30 92bf ac6a 95bf 3772 90bf 7710 39bf
000000c0: 05d0 9e3e 787e 8bbf 7899 57bf cc25 85bf
000000d0: db16 8fbf f13d b6bc 987f 97bf 35f7 49be
000000e0: c0af 83bf a75d 8fbf 1b86 8bbf 90b5 3d3f
000000f0: 90a8 6ebf dba5 a1bf d251 293f f3d1 90bf
00000100: c471 12bd 1269 8ebf 5aec 4fbf 3524 b7be
00000110: 11da 913f 824e 81bf 59df 8fbf 48b5 72bf
00000120: 356a 0cbf 888b 813c 55b2 65bf 54bb 8ebf
00000130: bfc5 81bf b632 82bf f262 8abf b663 7fbf
00000140: a594 75bf 3f24 8ebf 4d02 3abe c7ea 7ebf
00000150: a84b 83bf 357e 47bf 2082 82bf b1e8 4cbf
00000160: dcf8 89bf a378 82bf 7d33 84bf 86df 133f
00000170: 796b f1bd 9e3e b23e 2edd e5be a854 86bf
00000180: ee8c 80bd b21a 86bf d154 75bf ace7 1dbf

fc3.weight f4 [100, 100]
1.0075063 -0.4808325 -0.94185686 -0.9751542 -1.0882094 -1.0228671 -0.67779034 -0.594728
-1.0095079 1.0575124 -0.9877203 0.7516152 1.2350731 -1.1284956 0.9431262 -1.1079887
-0.9153702 -0.8833289 -0.8281222 -0.7299253 -1.073898 -1.1017483 -0.9785658 -1.1528908
1.144617 0.44182605 -0.45352677 -0.9104536 -1.1045165 -1.0318307 -1.0857406 -0.6225861
0.065228194 -0.05393972 -0.91306615 0.16784957 -0.91175216 -0.18426564 -0.4299767 -1.0120056
-1.0898569 -1.186266 0.060276993 -0.93338424 -0.80826664 0.7221198 0.95709306 -1.0716618
-1.1023095 -0.9970315 -0.94807166 0.016741714 -0.004720627 -1.0444357 0.99945754 -0.68584573
0.9479437 0.9490854 0.07753932 0.82684946 -0.3283282 -0.9467106 -1.0716453 -0.7355173
-0.12901086 -0.59870625 -1.0887742 0.968817 -0.55405545 0.9613903 0.008950564 1.0217893
-1.0566125 -0.94970065 1.159592 -0.8754221 1.0914145 1.0401202 1.010094 0.9773033
0.77897507 0.7853568 0.853139 -0.9857745 -0.88588816 1.1404369 -0.22836971 1.1282076
-0.5083265 0.97577125 -0.5523573 -0.6678945 -0.20777434 -1.0756694 -0.01594244 0.024814148
-1.1566306 -1.0459054 0.8089097 0.62261176 -1.0070094 -1.2242947 -1.0995021 -0.99161965
-0.050906207 -0.94052815 -0.9821962 -1.1262441 -1.0178427 -1.0964974 -0.9758057 -0.9962786
-1.0029087 -1.1086864 -0.998053 -0.95788705 -1.0344685 -1.0850824 -1.0785583 -1.0300292
-0.043820467 -0.82482606 -0.99669427 -1.066205 -0.8775591 -1.0769639 -1.0636085 -0.9745544
-1.0492378 -1.229437 -1.1627842 -0.9900626 -0.9895577 -1.0346768 -1.1267447 -0.9654196
-0.9874237 -1.1417123 -1.1502007 -1.0821339 -1.0982561 -1.0610105 0.08781685 -0.99421704
-0.049464833 -1.0810819 -1.0411133 -1.1098187 -0.96864384 -1.12529 -0.98504287 -0.032718163
-0.9882709 -0.99083036 -0.92815155 -1.0045573 -1.0616761 0.9518257 0.05757011 -0.036641646
0.9517337 -0.095089965 -0.9884414 -0.8989305 -1.0796288 -1.1294415 -1.0620294 -1.1160209
-1.0776258 0.07658506 0.97800124 -0.9841843 -0.94400096 -0.9275449 -1.1355067 1.064685
0.8458103 -1.0426667 -1.138016 -1.309578 -0.3086609 -0.9818413 0.62790275 -0.9971844
-1.0509868 -0.96137077 -1.0275834 -1.1311721 -0.9834654 -0.97487277 -1.020445 0.04983734
-1.0823529 -1.0741436 -1.076333 -1.1077917 -1.0818943 -0.94352347 0.9149554 -1.068014
-1.0967532 -1.0776312 -0.3618942 -0.93296635 -1.0060737 -0.9153177 -0.88552713 -0.9369076
-0.9878109 -0.7648721 -0.6709187 -1.1187212 -1.1305444 0.9122667 1.0248404 -1.0267576
-0.6184348 -1.1290437 -1.0889885 -0.94523054 0.97675997 -0.9661051 -1.1441289 -0.9891918
-0.8437918 -0.2995555 -0.8599148 -0.9780797 -1.0997063 -0.60949194 -1.068586 0.7620733
-1.031816 0.9558732 -0.926849 -1.0416867 -1.1242713 0.3145449 -0.9683085 -0.72553617
-0.9918316 -0.9808152 1.0121632 0.98056006 -0.5108484 -0.94530743 -1.1206684 -1.140287
-0.9770392 -1.0571973 -1.1014639 1.0181334 1.0131565 -1.0548694 0.6867316 -0.94958466
00000000: f7f5 803f ad2f f6be 881d 71bf b5a3 79bf
00000010: 724a 8bbf 4fed 82bf ab83 2dbf 1840 18bf
00000020: 8e37 81bf 915c 873f 3ddb 7cbf db69 403f
00000030: e016 9e3f 8b72 90bf b870 713f 93d2 8dbf
00000040: b455 6abf d821 62bf d1ff 53bf 62dc 3abf
00000050: 7d75 89bf 1706 8dbf 4a83 7abf ed91 93bf
00000060: cf82 923f 0637 e23e a934 e8be 7d13 69bf
00000070: cc60 8dbf 0713 84bf 8cf9 8abf cd61 1fbf
00000080: 5c96 853d e5ef 5cbd b4be 69bf c2e0 2b3e
00000090: 9768 69bf 22b0 3cbe e825 dcbe 6689 81bf
000000a0: 6e80 8bbf 90d7 97bf 02e5 763d 45f2 6ebf
000000b0: 90ea 4ebf d8dc 383f 0d04 753f 372c 89bf
000000c0: 7a18 8dbf 753d 7fbf d3b4 72bf eb25 893c
000000d0: 7daf 9abb 12b0 85bf 73dc 7f3f 9693 2fbf
000000e0: 70ac 723f 43f7 723f efcc 9e3d 68ac 533f
000000f0: a21a a8be a05b 72bf ac2b 89bf dd4a 3cbf
00000100: 6c1b 04be d044 19bf f45c 8bbf 6404 783f
00000110: 94d6 0dbf ad1d 763f 63a5 123c fec9 823f
00000120: 143f 87bf 951f 73bf 836d 943f aa1b 60bf
00000130: 78b3 8b3f a922 853f c34a 813f 8d30 7a3f
00000140: e96a 473f 250d 493f 5167 5a3f b85b 7cbf
00000150: 91c9 62bf d6f9 913f c0d9 69be 1b69 903f
00000160: af21 02bf 25cc 793f 4a67 0dbf 22fb 2abf
00000170: ccc2 54be 89af 89bf b899 82bc 0a47 cb3c
00000180: 790c 94bf 3ae0 85bf b514 4f3f 7c63 1f3f
00000190: afe5 80bf b0b5 9cbf 7cbc 8cbf c9da 7dbf
000001a0: 0783 50bd 74c6 70bf 3671 7bbf c428 90bf
000001b0: ab48 82bf 075a 8cbf 67ce 79bf 1d0c 7fbf
000001c0: 505f 80bf 70e9 8dbf 6780 7fbf 1638 75bf
000001d0: 7769 84bf fbe3 8abf 330e 8abf ffd7 83bf
000001e0: 177d 33bd cd27 53bf 5b27 7fbf 6879 88bf
000001f0: b7a7 60bf f4d9 89bf 5324 88bf 667c 79bf
00000200: 6d4d 86bf 315e 9dbf 1dd6 94bf be74 7dbf
00000210: a753 7dbf 4a70 84bf 2c39 90bf bd25 77bf
00000220: cdc7 7cbf a123 92bf c739 93bf 5d83 8abf
00000230: a893 8cbf 31cf 87bf 52d9 b33d 0285 7ebf
00000240: a39b 4abd e460 8abf 3343 85bf 8a0e 8ebf
00000250: 0bf9 77bf 8109 90bf c52b 7cbf 7b03 06bd
00000260: 52ff 7cbf 0fa7 7dbf 579b 6dbf 5595 80bf
00000270: 01e5 87bf d9aa 733f a3ce 6b3d 8d15 16bd
00000280: d2a4 733f 87be c2bd 7f0a 7dbf 4f20 66bf
00000290: 4731 8abf 8a91 90bf 94f0 87bf c6d9 8ebf
000002a0: a4ef 89bf a1d8 9c3d 4a5e 7a3f 81f3 7bbf
000002b0: 0caa 71bf 9573 6dbf 4958 91bf 9947 883f
000002c0: 0687 583f 1a76 85bf 82aa 91bf 40a0 a7bf
000002d0: cd08 9ebe f459 7bbf 3cbe 203f 7a47 7fbf
000002e0: bc86 86bf 651c 76bf da87 83bf 3fca 90bf
000002f0: 63c4 7bbf 4391 79bf f19d 82bf 3d22 4c3d
00000300: 8a8a 8abf 8a7d 89bf 48c5 89bf 1ecc 8dbf
00000310: 837b 8abf c18a 71bf 843a 6a3f afb4 88bf
00000320: 6962 8cbf d2ef 89bf 324a b9be e2d6 6ebf
00000330: 06c7 80bf 4352 6abf e8b1 62bf 2dd9 6fbf
00000340: 2de1 7cbf a8ce 43bf 54c1 2bbf 4232 8fbf
00000350: aeb5 90bf 4f8a 693f f82d 833f cb6c 83bf
00000360: be51 1ebf 8184 90bf fa63 8bbf a1fa 71bf
00000370: f10c 7a3f aa52 77bf d172 92bf ac3b 7dbf
00000380: bd02 58bf 575f 99be 6023 5cbf 6e63 7abf
00000390: 2dc3 8cbf aa07 1cbf 6dc7 88bf 3c17 433f
000003a0: 8c12 84bf 1bb4 743f fa45 6dbf fd55 85bf
000003b0: 1fe8 8fbf 070c a13e 11e3 77bf bdbc 39bf
000003c0: ade8 7dbf b416 7bbf 908e 813f fc05 7b3f
000003d0: f6c6 02bf abff 71bf 1072 8fbf edf4 91bf
000003e0: 3e1f 7abf 3e52 87bf c5fc 8cbf 3252 823f
000003f0: 1daf 813f f605 87bf a4cd 2f3f fb17 73bf

fc3.bias f4 [100]
-0.9486734 -1.078004 -0.9116753 -0.8906435 0.48245907 1.0837021 -0.990629 -0.9734321
0.16189305 0.66964126 -1.0251163 -1.0030271 0.46120054 0.62029845 -0.9808578 0.5625716
-1.0722411 -1.0204616 -1.1128589 1.1964709 -1.1036391 -0.18904193 -1.0256184 0.518571
-0.388114 0.013978462 -1.0643146 -1.1462375 0.71597403 -1.1417882 -1.083488 -1.0343357
-0.9568517 -1.1653769 -1.105688 -1.0132676 -1.1101403 0.63767916 -1.0254194 -1.0929761
-1.0253842 0.8385749 -1.1857252 0.763388 -1.0295098 -1.0850912 -0.30781227 -1.1934999
0.9518217 -0.9574453 -0.9855154 -1.0773629 -0.9539535 -1.1164536 0.7503477 -0.73059815
-1.1074013 -1.1202842 -1.1406418 -1.0412216 1.0812702 -1.0301776 -1.0739857 -1.0761082
-0.95569545 -0.94790554 0.9651125 0.9560547 -1.1197083 -1.0820993 -0.28561652 0.6714286
-0.5128848 0.909397 -1.0381293 1.0090495 -1.0111592 -0.99005103 -1.0800394 -1.188833
0.9747615 -1.1521246 -1.0720218 -1.1357505 0.37186578 -0.91689956 -1.1140532 0.6225025
0.7863609 -1.1429135 -1.2746437 -0.47696584 -0.62006044 -0.97436994 -1.0720022 0.702795
0.8800177 -1.2293993 0.75444305 0.76257527
00000000: 43dc 72bf 09fc 89bf 8d63 69bf 3601 64bf
00000010: e004 f73e c0b6 8a3f dd99 7dbf d932 79bf
00000020: 4bc7 253e 9c6d 2b3f 0337 83bf 3163 80bf
00000030: 7a22 ec3e e1cb 1e3f 7f19 7bbf b104 103f
00000040: 323f 89bf 7c9e 82bf 2972 8ebf f525 993f
00000050: 0c44 8dbf 3594 41be 7747 83bf 12c1 043f
00000060: e1b6 c6be eb05 653c 763b 88bf e9b7 92bf
00000070: 134a 373f 1e26 92bf bcaf 8abf 1d65 84bf
00000080: 3cf4 74bf 122b 95bf 2f87 8dbf c1b2 81bf
00000090: 1419 8ebf f13e 233f f140 83bf a4e6 8bbf
000000a0: ca3f 83bf d8ac 563f d8c5 97bf 656d 433f
000000b0: fac6 83bf 45e4 8abf 9299 9dbe 9bc4 98bf
000000c0: 96aa 733f 231b 75bf bd4a 7cbf 07e7 89bf
000000d0: 4c36 74bf f4e7 8ebf c916 403f 7b08 3bbf
000000e0: 53bf 8dbf 7965 8fbf 8d00 92bf c046 85bf
000000f0: 1067 8a3f dcdc 83bf 5d78 89bf eabd 89bf
00000100: 75a8 74bf f0a9 72bf 9d11 773f 00c0 743f
00000110: 9a52 8fbf 3b82 8abf 543c 92be bfe2 2b3f
00000120: 6b4c 03bf 3ece 683f 6ce1 84bf 8928 813f
00000130: aa6d 81bf fc73 7dbf bb3e 8abf ae2b 98bf
00000140: f889 793f d278 93bf 0338 89bf 4660 91bf
00000150: 3165 be3e eeb9 6abf 4c99 8ebf 535c 1f3f
00000160: f34e 493f fd4a 92bf 8627 a3bf de34 f4be
00000170: 48bc 1ebf 4f70 79bf 5e37 89bf 60ea 333f
00000180: d748 613f f55c 9dbf 2e23 413f 2238 433f

fc4.weight f4 [6, 100]
0.461218 -0.5354069 0.6356665 0.47268176 0.29286724 0.31833085 1.0858498 -1.0300623
-0.7512564 0.11414502 -1.0054948 -0.47689468 0.60932016 -0.3832978 0.9841285 0.55433065
-1.1439177 0.41177294 -0.11895415 -0.07615044 0.6792083 0.046952818 -1.0409821 0.52161354
0.1277745 -0.88196 -0.30261937 -1.0227562 0.016228143 -1.0531662 -1.1415428 -1.0026621
-0.94370806 1.0028504 -0.6544485 0.17309943 0.112265535 -0.050480485 0.8937663 -1.1175035
-0.09035224 0.61763483 -1.0579479 0.20504916 -0.8711438 -1.0373386 -0.19187143 -1.0950568
0.73790693 0.010794449 -0.5510309 -0.95444435 -0.9591318 0.23939073 0.58404213 0.034748867
0.950214 0.99885505 -1.1031911 -0.85260195 0.23460881 -1.0297527 -0.48982334 -0.13518898
-0.8187278 -1.0744696 0.4071849 0.72313696 -1.0042665 -0.93225604 0.7785308 0.39139125
0.8772735 -0.52841556 -0.96212655 0.122706905 -1.19414 0.5327429 0.9270927 -1.0252522
0.090579554 -0.95465887 0.19622232 -0.967514 0.6209018 0.57199264 -0.55960387 0.21753876
0.39933005 -1.0079501 0.6243671 0.7439375 0.82275265 -0.99513805 0.61583775 0.13198324
0.9871562 -1.1652305 0.6421001 0.44184753 -0.020506822 0.9477969 -0.4133955 0.123309754
0.81956035 0.5531638 1.0247573 0.9500018 -0.012535824 0.66296875 0.9868823 0.10273225
0.8277554 0.1876439 0.8898056 0.8108433 0.9914997 0.75056297 -0.7977361 -0.4956754
0.7081135 0.72737336 1.007707 -1.0760195 0.73957676 -0.98227555 0.5763459 0.9778316
-1.073248 0.95653945 -0.74962485 -0.6432931 1.0612631 -0.8983143 0.59116113 0.5758022
0.22511953 -0.7515386 -0.93793577 1.0143601 0.40523103 0.74482423 0.5264779 -1.0360701
0.80594474 0.9929843 -0.6160337 0.95366424 0.86250716 0.09834461 0.3659002 0.98284984
0.9679844 0.5351583 0.677473 0.39603254 0.9301674 -1.0116246 0.98124015 0.2431165
0.8456353 0.94554377 0.67751724 0.5794347 1.032004 0.95919096 0.53352314 0.7810301
1.0027021 0.3686288 -1.0424036 0.6126255 0.904624 -0.29892287 1.0397261 0.79389834
0.979396 -0.39726907 -0.9157187 -0.96270204 -1.1012027 0.7269629 0.6211023 1.0339987
0.95767385 0.7850465 -0.9106044 -1.054624 -0.69745153 0.17264311 0.19212294 0.87538546
-0.77920336 0.9707015 0.6781723 0.56450224 0.5586237 -0.32900295 0.5810513 -1.08234
0.7923918 0.17831963 1.045331 0.5681232 -1.036163 -1.0889473 -1.0679196 -1.0649892
-1.053837 -1.0955054 -0.9429064 -0.2137732 -1.0990753 0.37644008 1.0661137 -1.0207027
-1.0892404 -1.052469 1.0538952 0.8606612 0.9305577 -1.09271 -1.0146703 0.67007744
-1.1143066 -1.0126684 0.39467207 -1.1074016 -0.1145173 -1.0532672 -1.2285868 -0.18625909
-1.013804 1.0560052 -1.115208 0.88655305 0.44265997 0.5040907 1.0882955 -0.9879712
0.18143156 -1.0957706 -0.60638154 -0.5539462 -0.1619884 -1.1125696 -1.0640131 0.5835903
-1.0510644 -1.1837349 0.42840698 -0.97985476 -1.0531715 -1.1930968 -0.9778641 0.7503791
00000000: c424 ec3e 6d10 09bf 0abb 223f 5803 f23e
00000010: b2f2 953e 43fc a23e 20fd 8a3f 15d9 83bf
00000020: 5752 40bf ddc4 e93d 0eb4 80bf 8a2b f4be
00000030: 68fc 1b3f 9c3f c4be d8ef 7b3f 9de8 0d3f
00000040: e56b 92bf e7d3 d23e 3c9e f3bd c3f4 9bbd
00000050: 98e0 2d3f 9951 403d e73e 85bf 7788 053f
00000060: 52d7 023e 21c8 61bf edf0 9abe ade9 82bf
00000070: e2f0 843c 26ce 86bf 131e 92bf 3b57 80bf
00000080: da96 71bf 675d 803f f089 27bf fa40 313e
00000090: 79eb e53d a0c4 4ebd decd 643f 5b0a 8fbf
000000a0: 980a b9bd 511d 1e3f d66a 87bf 68f8 513e
000000b0: 4803 5fbf 83c7 84bf f279 44be d22a 8cbf
000000c0: 78e7 3c3f 33db 303c 5c10 0dbf 7756 74bf
000000d0: a989 75bf d822 753e c983 153f d454 0e3d
000000e0: 3a41 733f f7b4 7f3f 5e35 8dbf 1f44 5abf
000000f0: 4b3d 703e f0ce 83bf 20ca fabe fb6e 0abe
00000100: 2598 51bf 3888 89bf 8a7a d03e 811f 393f
00000110: ce8b 80bf 55a8 6ebf cb4d 473f 6f64 c83e
00000120: ff94 603f 3e46 07bf ed4d 76bf c24d fb3d
00000130: 94d9 98bf d761 083f f255 6d3f 773b 83bf
00000140: c681 b93d 8664 74bf 81ee 483e ffae 77bf
00000150: 6cf3 1e3f 1c6e 123f 3342 0fbf 7bc2 5e3e
00000160: fd74 cc3e 8204 81bf 86d6 1f3f b072 3e3f
00000170: eb9f 523f 5ec1 7ebf 8ba7 1d3f 9d26 073e
00000180: 45b6 7c3f 4626 95bf ac60 243f d739 e23e
00000190: ecfd a7bc d1a2 723f 93a8 d3be d389 fc3d
000001a0: b5ce 513f 259c 0d3f 3f2b 833f 5133 733f
000001b0: 0f63 4dbc 52b8 293f 52a4 7c3f 4965 d23d
000001c0: c7e7 533f b925 403e 4dca 633f 6d93 4f3f
000001d0: edd2 7d3f e524 403f 6f38 4cbf 2bc9 fdbe
000001e0: ed46 353f 2435 3a3f 8bfc 803f 02bb 89bf
000001f0: e754 3d3f 6976 7bbf 688b 133f 2c53 7a3f
00000200: 3160 89bf c5df 743f 6ae7 3fbf dbae 24bf
00000210: 78d7 873f edf7 65bf 5656 173f c667 133f
00000220: bc85 663e d564 40bf 8f1c 70bf 8dd6 813f
00000230: 717a cf3e cdac 3e3f 41c7 063f f29d 84bf
00000240: 6552 4e3f 3834 7e3f 62b4 1dbf 5723 743f
00000250: 45cd 5c3f e668 c93d 4557 bb3e 0c9c 7b3f
00000260: d3cd 773f 2200 093f df6e 2d3f c7c4 ca3e
00000270: 731f 6e3f ea7c 81bf 8e32 7b3f 88f3 783e
00000280: 8e7b 583f 280f 723f c571 2d3f d555 143f
00000290: b518 843f 8a8d 753f f994 083f 97f1 473f
000002a0: 8b58 803f eabc bc3e 7b6d 85bf 06d5 1c3f
000002b0: 7095 673f 6b0c 99be bf15 853f ec3c 4b3f
000002c0: b2b9 7a3f da66 cbbe 8a6c 6abf a473 76bf
000002d0: 36f4 8cbf 3e1a 3a3f 8f00 1f3f 125a 843f
000002e0: 1d2a 753f cff8 483f 5f1d 69bf ebfd 86bf
000002f0: 2f8c 32bf 5bc9 303e e0bb 443e 4319 603f
00000300: df79 47bf e57f 783f b39c 2d3f 3883 103f
00000310: f601 0f3f 1373 a8be c7bf 143f 1e8a 8abf
00000320: 30da 4a3f 6c99 363e 68cd 853f 8670 113f
00000330: fda0 84bf a062 8bbf 97b1 88bf 9151 88bf
00000340: 21e4 86bf 8539 8cbf 5062 71bf 5de7 5abe
00000350: 80ae 8cbf c1bc c03e 6a76 883f 63a6 82bf
00000360: 3b6c 8bbf 4eb7 86bf 0ae6 863f 4b54 5c3f
00000370: 0839 6e3f ecdd 8bbf b7e0 81bf 328a 2b3f
00000380: 99a1 8ebf 1e9f 81bf 7512 ca3e 56bf 8dbf
00000390: 0c88 eabd 76d1 86bf 5542 9dbf b4ba 3ebe
000003a0: 54c4 81bf 2e2b 873f 23bf 8ebf 24f5 623f
000003b0: 54a4 e23e 170c 013f 444d 8b3f aeeb 7cbf
000003c0: 32c9 393e 3642 8cbf d23b 1bbf 6bcf 0dbf
000003d0: 4ae0 25be ae68 8ebf 9531 88bf 2d66 153f
000003e0: 4789 86bf a084 97bf 2958 db3e c3d7 7abf
000003f0: 53ce 86bf 65b7 98bf 4d55 7abf d818 403f

fc4.bias f4 [6]
-0.18482973 -1.0483902 -1.0836803 -0.98601747 -0.21567771 1.1699132
00000000: 0144 3dbe a631 86bf 09b6 8abf a46b 7cbf
00000010: 9eda 5cbe b7bf 953f
