figs/diff_hiddenlayers/4/mlp_model_dict.pt (torch, 142415 bytes, 14 tensors)

group.0.weight f4 [100, 100]
00000000: 5a8f 1fbf 4356 1e3d cf27 2abf 8013 37bf
00000010: 23c4 13bf e0b8 29bf d949 35bf ad97 28bf
00000020: a09b 22bd b9a8 653e bc5f 22bf f288 33bf
00000030: fc7c 27bf bc7e 27bf 0066 95bd f3ba 32bf
00000040: 4a8a 83b8 635f 17bf 0841 23bf 7254 1e3f
00000050: 6d6b e3be 9f9f 33bf 69c5 2dbf e728 1dbf
00000060: 8314 18bf b89a e13c 7c1d 1dbf 5597 19bc
00000070: 3a9b 18bf c8cd 57bf a3d9 c0be 2240 47bd
00000080: 2875 38bf e8fb 13bf 95d9 0fbf 920f 09bf
00000090: 4ac4 36bf 6fd3 3cbd 66b6 35bf 2f8c 09bf
000000a0: 2250 23bf 7b3a 953c 4765 30bf d741 26bf
000000b0: c823 50bf 62d1 12bf 0c43 46bf 3a99 1c3f
000000c0: d592 14bf 8c7c 34bf acc7 2ebf 9b73 17bf
000000d0: 2a60 bd3d ccc9 0bbf 6703 d53c e06f 16bf
000000e0: c8e5 17bf 1ed7 19bf e7c9 6bbd 8bd0 39bf
000000f0: 0967 2abf d522 2dbf d516 0ebf cfbe 1bbf
00000100: b37e 02bf 5cc7 093f e353 3abf 7efd 1ebf
00000110: b1fd 1fbf 2059 2cbf 701e 3abf 33f4 30bf
00000120: 5f10 32bf 271a eebe 7a70 1cbf 055c 1ebf
00000130: 93ed 17bf 0c74 3abf 8a53 1dbf d00f 3bbe
00000140: 85e9 35bf b770 38bf 4e52 15bf 142a 35bf
00000150: 5e37 55bf 6de5 12bf eef5 31bf 3630 2ebf
00000160: 81f7 12bf 7650 2dbf 5ec9 20bf 1b4e 20bf
00000170: 1d39 29bf 1665 3bbf 3cf9 13bf a5ee 14bf
00000180: 16f1 803d d18e 25bf 2f4e 1abf b08a 893c
00000190: a86b 2fbf 4397 10bf e723 103f 8380 38bf
000001a0: 06a7 16bf c14f 2abf 66e9 12bf 66aa 30bf
000001b0: 8b03 28bf 3ceb 13bf 779e 36bf edda 0dbf
000001c0: 68c6 11bf 52c7 183f 0f5f 37bf 8c43 35bf
000001d0: 830b 22bf 4b3c 23bf c7c5 31bf c58a 22bf
000001e0: 8e20 26bf 7e21 0bbf 7adb 1abf 3f5b 21bf
000001f0: 03f8 15bf 0064 24bf 94c9 0fbf 6f01 15bf
00000200: bf21 2cbf 14f2 17bf 2af5 0dbf 1a2c 30bf
00000210: a5ed 1ebf 6cf5 0fbf 2442 2bbf 588c 1ebf
00000220: e675 0ebf 35b3 19bf da8a 39bf a1b7 1ebf
00000230: 44d3 15bf 418a 0fbf 05d9 07bf 1a0b 2cbf
00000240: 85a5 22bf 9751 38bf 1838 25bf 0126 09bf
00000250: b10d 1ebf 43a9 27bf f079 1cbf 8cfc 18bf
00000260: 8695 09bf f7fd 16bf f8fe 07bf 42c5 28bf
00000270: 7a65 12bf aff0 2dbf d8cf 0e3f 9624 12bf
00000280: 6016 16bf f531 19bf 6993 28bf 790d 16bf
00000290: 66e2 1abf 578b 33bf 0faa 34bf d15c 35bf
000002a0: c09f 21bf c6c3 39bf da4c 34bf 61e9 39bf
000002b0: b280 26bf 10ad 0dbf 4455 36bf 8673 09bf
000002c0: a121 2dbf b4d9 09bf 4398 1abf ba00 2ebf
000002d0: 097f 15bf aa45 2fbf 5f02 1ebf d0b0 323f
000002e0: 4a87 16bf fdbc 0fbf e49c 1fbf 9dd9 0abf
000002f0: 68d4 26bf 80fc 15bf b32b 16bf 7a7f 31bf
00000300: d228 33bf 10d8 36bf baa6 2bbf dfb6 2dbf
00000310: dcd0 08bf 6f47 11bf 2121 183f f870 36bf
00000320: 6b69 0c3f 1da0 35be a375 3abf 16ef 18bf
00000330: 9e97 16bf b026 2bbf 45ae 19bf 0271 bb3e
00000340: a7a4 1cbf 7b3d 31bf 345c 33bf 3697 11bf
00000350: b920 de3e 3f2d 4d3f 2af9 2ebf 3fab 33bf
00000360: c571 f3be bd4c 21bf c0d5 2dbf 9e85 17bf
00000370: 3138 15bf e9fc 03bf 9f3e 0bbf 5571 45bf
00000380: e1b0 0abf 16af 39bf 423b 1abf d94b 3ebf
00000390: b309 283f 6699 4dbf 8b4b 80be 2e1a f23e
000003a0: 13fc 2f3f ff7a 1dbf fee5 613e 1502 0cbf
000003b0: 8b31 21bf 27a3 2dbf aa22 21bf a233 17bf
000003c0: 05ef cf3e ea4b bfbe 7a47 3abf 27cf 35bf
000003d0: a099 27bf 1b0b 0e3f 64e4 1dbf 7a1e d0be
000003e0: 2869 43bf 7f7e 2bbf acc5 23bf ea17 18bf
000003f0: 3ac4 41bf 5593 2fbf f9bb e3be 453b f13e
-0.6232811 0.038656484 -0.66466993 -0.7151413 -0.57721156 -0.6629772 -0.7081581 -0.6585644
-0.039699197 0.22427644 -0.6342733 -0.70130837 -0.65425086 -0.65427756 -0.072948456 -0.6981651
-6.272325e-05 -0.59129924 -0.63771105 0.61847603 -0.44417897 -0.7016544 -0.6787935 -0.6139054
-0.594063 0.027539596 -0.61373115 -0.009374459 -0.59611857 -0.8429837 -0.37666044 -0.048645146
-0.72053766 -0.57806253 -0.5619138 -0.53539383 -0.71393263 -0.046100076 -0.7098144 -0.5372953
-0.6379415 0.018216362 -0.68904537 -0.64944214 -0.813046 -0.5735074 -0.77446055 0.61171305
-0.5803655 -0.70502543 -0.68273425 -0.59160775 0.092468575 -0.5460479 0.026002599 -0.5876446
-0.59334993 -0.6009387 -0.057565596 -0.72583836 -0.6656347 -0.67631274 -0.5550359 -0.60838026
-0.5097458 0.53819823 -0.7278425 -0.6210555 -0.6249648 -0.67323494 -0.72702694 -0.6912262
-0.6955623 -0.46504328 -0.61109126 -0.6185916 -0.59346884 -0.72833323 -0.61455595 -0.1826775
-0.7105945 -0.7204699 -0.5832871 -0.7076733 -0.8328761 -0.57381326 -0.69515884 -0.68042314
-0.5740891 -0.677009 -0.6280726 -0.6261918 -0.6610277 -0.7320112 -0.57802176 -0.5817664
0.062959835 -0.64671046 -0.6027555 0.016789764 -0.68523645 -0.5648081 0.5630478 -0.72071093
-0.5884861 -0.66527945 -0.5738739 -0.6901001 -0.65630406 -0.57780814 -0.7133555 -0.5541218
-0.5694337 0.5967914 -0.7162942 -0.70806193 -0.63298815 -0.63763875 -0.6944241 -0.63492996
-0.64893425 -0.5434798 -0.60491145 -0.63029855 -0.5858156 -0.6421509 -0.5616696 -0.5820531
-0.6723899 -0.59353757 -0.55452216 -0.68817294 -0.62081367 -0.5623386 -0.668978 -0.619329
-0.5564865 -0.60039073 -0.72477496 -0.61998945 -0.5852549 -0.56070334 -0.5306552 -0.6720444
-0.6353381 -0.71999496 -0.6453872 -0.53573614 -0.6173964 -0.6549265 -0.6112356 -0.59760356
-0.5374378 -0.5898127 -0.53123426 -0.6592599 -0.5718609 -0.6794538 0.55785894 -0.57087076
-0.5862789 -0.59841853 -0.6584993 -0.5861431 -0.60501707 -0.7013449 -0.7057199 -0.7084475
-0.63134384 -0.7256435 -0.70429766 -0.7262173 -0.65040123 -0.553422 -0.71223855 -0.536919
-0.6762944 -0.53847814 -0.6038858 -0.6796986 -0.58396965 -0.68465674 -0.6172237 0.69801044
-0.58800185 -0.5614775 -0.6234877 -0.542383 -0.65167856 -0.5858841 -0.5866043 -0.6933514
-0.6998416 -0.71423435 -0.6705128 -0.67857164 -0.53443694 -0.56749624 0.5942555 -0.71266127
0.54848355 -0.1773686 -0.7283575 -0.59739816 -0.588251 -0.6685591 -0.6003154 0.36609656
-0.6118874 -0.69234437 -0.70062566 -0.56871355 0.4338434 0.80147165 -0.68348944 -0.70183176
-0.47547737 -0.6300772 -0.6790428 -0.5918826 -0.58288866 -0.51557785 -0.5439243 -0.77126056
-0.54176146 -0.72532785 -0.6024667 -0.74334484 0.656398 -0.8031219 -0.25057635 0.472856
0.6874401 -0.615158 0.22060391 -0.54690677 -0.6296622 -0.67827076 -0.6294352 -0.5906316
0.40612045 -0.37362605 -0.72765315 -0.71019214 -0.6546879 0.55485696 -0.6167662 -0.40648252
-0.7633233 -0.6698989 -0.639735 -0.5941149 -0.7569004 -0.68584186 -0.4447935 0.47115532

group.0.bias f4 [100]
00000000: d9e3 51bf 178a 11bf 2b21 9e3e 6d00 bbbe
00000010: b8f6 10bf c24c 7f3e ec26 84be 7c4d 233f
00000020: a46c 1c3f c262 13bf 7ca3 0b3f 8a47 1abf
00000030: 8c8b 98be 293f b13e 587d 723e 816e 48bc
00000040: 4ccc 193f 907c 003e dbac 31bf 9935 2abf
00000050: 7e4b 17be 6a21 1cbf 1fba 503f 9a91 36bf
00000060: 02a1 0bbf 9000 18bf c044 ebbd e1e6 10bf
00000070: af5e 003f 138c 34bf b091 d43d a2f9 b2be
00000080: 240a 20bf d38b 3c3f 54b9 3dbf 2d63 2bbf
00000090: 4dab 30bf c206 fb3d 0d36 13bf ce89 1a3f
000000a0: 3a03 2fbf 3da6 ec3e beb3 343f 04d6 183f
000000b0: a826 36bf d2b8 df3d 9a78 023f 9707 12bf
000000c0: 123e f1be 85dc 413f 3312 26bf 05a7 33bf
000000d0: 0765 1cbf 432f 2dbe dff2 11bf f1e7 2fbf
000000e0: d46a 04bf df3b 6abd d1cc 78bd 09b7 313f
000000f0: ce63 36bf 7a7c 4dbf aed0 dabe c689 1f3f
00000100: 9bcf b2be 13a9 0c3f 8cb6 31bf 11fe 14bf
00000110: 7b64 643e 674a 263f 3d2a 38bf eb6c 9e3e
00000120: e484 30bf 82b7 273f 805d 38bf f983 003f
00000130: 0420 f8be b9a6 1bbf fbc5 153f a785 383f
00000140: 6ef6 7fbe cdaf 953e f039 303f 9bbd 0e3f
00000150: 8b16 483d 69af 0e3f 4532 1dbf 3dd9 a93e
00000160: 49ce 32bf 17d4 92bd 9504 bd3d 3087 0b3f
00000170: 316c 353f 8e52 203f 4d61 443f e172 2b3f
00000180: 5718 33bf 9bd3 35bf c9fe 29bd 050d 1ebf
-0.8198829 -0.56851333 0.3088468 -0.36523762 -0.5662646 0.24931625 -0.25810945 0.63790107
0.6110327 -0.5757257 0.5454633 -0.6026541 -0.29793966 0.346185 0.23680627 -0.012233377
0.6007736 0.12547517 -0.6940438 -0.66488034 -0.14774892 -0.60988486 0.81534 -0.7131592
-0.54542553 -0.5937586 -0.114877224 -0.56602293 0.50144476 -0.70526236 0.1037935 -0.3495608
-0.62515473 0.73650855 -0.74110913 -0.66948205 -0.69011384 0.12257148 -0.5750435 0.60366523
-0.683643 0.4622058 0.70586765 0.5970156 -0.71152735 0.109239236 0.50965273 -0.5704283
-0.47117668 0.7572711 -0.6487152 -0.70176727 -0.61091655 -0.1691256 -0.57011217 -0.6871329
-0.51725507 -0.057186004 -0.060742203 0.69419914 -0.7124604 -0.8026806 -0.42737335 0.623196
-0.34924015 0.54945487 -0.6941917 -0.58200175 0.22303955 0.6495728 -0.7193945 0.30942473
-0.68952775 0.65514386 -0.7201767 0.50201374 -0.48461926 -0.60801274 0.5850522 0.7207894
-0.24996349 0.29235688 0.68838406 0.55758065 0.048849624 0.55736405 -0.6140483 0.33173552
-0.69846016 -0.07169359 0.092293896 0.54503155 0.7086821 0.6262597 0.7671097 0.66972166
-0.69959015 -0.7102601 -0.041502748 -0.61738616

fc1.weight f4 [100, 240]
00000000: ccc3 163e 904b 453e 04fb 1b3f b986 313f
00000010: b63a e43e 31c2 e63d 69b7 173f 6742 f13e
00000020: b9b4 303f bc91 273f 23cf af3e 3b16 acbe
00000030: 40f6 a9be 6bad d4be 62b9 c7bc 755b 093f
00000040: 2ec6 153f 5e31 183f 9710 ae3e 851b e9bc
00000050: da5e 103f 21ab 043f a34e 9a3e 3049 47bc
00000060: 436d 8ebe 8633 cdbe 4ecb 013e cc8c c93e
00000070: 08c1 f63e 4a94 0c3f 0439 fa3e 42d9 123f
00000080: f91a 2d3f f106 0d3f 0a4f f0be 4786 a1be
00000090: ef68 013f b8c2 043f eee1 e23e ed1d 173f
000000a0: b8ee 143f 3ac5 b13e f222 cdbd eda1 803e
000000b0: afd5 a13e 001c 41be 409f 323f 9822 2d3f
000000c0: ac6a 863e ccaa c2be f490 033e 743c 8f3d
000000d0: a9fa 2c3f 0b9c 0c3f 41d8 023f 2c39 0a3f
000000e0: 4b6e f83e 3ec0 c43e 7bfe 5c3e c827 033f
000000f0: 01ce 0a3f 3920 f73e 6acd 143f c522 263f
00000100: be55 f63e 94c7 d3bd faf5 7bbe e911 313f
00000110: 1998 423f 6943 363f b0e1 063f 59cd 1b3f
00000120: 28f2 8cbe 9e73 613e 1dad f9be a2d9 f03d
00000130: ab80 143f 05e9 1b3f 15ae cd3e 0015 033f
00000140: 2ce4 c5be 795a cebe cad9 d1be 324b e7be
00000150: 449d fcbe c0a3 06bf 219b 12bf 21bb c4be
00000160: a364 01bf e21a 0bbf 2cea 7bbe 1db5 8abe
00000170: b0b7 b7be 490b e7be c03f 0cbf e553 0fbf
00000180: 27e1 f0be c82a 0fbf 286e 1bbe c2b3 f6be
00000190: 60f6 a3be 63c0 e0be 12f9 ffbe d68e dbbe
000001a0: 5b43 debe 5210 04bf 4eb9 ccbe 24c8 03bf
000001b0: 531b c1be 00a2 fdbe d98e ffbe cf4b f4be
000001c0: 9cd4 bbbe bfb8 05be ea68 c5be f347 ebbe
000001d0: 5d45 2ebf 0256 1fbf c74b 06bf cd57 d7be
000001e0: 3a63 c7be bc0e 9fbe 7d4c 5ebe 0f81 9fbe
000001f0: eda3 e6be 79bd f0be f774 fbbe 2fdc e6be
00000200: c020 dcbe dbfd 7abe 9181 00be 2ce4 01bf
00000210: 081c fcbe 9ac1 fbbe be60 0abf 7c15 e5be
00000220: 7ed7 d0be 7ed4 fdbe 3fda 9dbe 521f 07bf
00000230: fba9 1abf ecd6 febe 4717 e3be 22fa c5be
00000240: efba f7be c167 f1be 1914 0cbf 4e91 05bf
00000250: f7e9 f8be f647 0cbf e87e 06bf b29b e0be
00000260: baf6 b2be 5fd2 9dbe b4c9 0abf 9d8d f2be
00000270: 2ea5 e3be 2c72 e6be ea81 b5be 69f4 02bf
00000280: 1087 bfbd 137f efbe 1a46 18bf 0a46 37bf
00000290: 2c28 2ebf 9aeb 2ebf 89eb 2dbf c538 2bbf
000002a0: 9bb0 773e 92f8 3f3e e127 1abf 2712 3fbf
000002b0: 34a2 2ebf e622 3abf e47a 3fbf f3ce 25bf
000002c0: 003e 26bf b315 16bf df65 19bf 233f 27bf
000002d0: d386 35be 403d 07bf d885 35bf 85c6 1ebf
000002e0: 62e2 2fbf 22c0 3abf 7946 36bf bbb2 1dbf
000002f0: e880 15bf c7dd 06bf 93ad 0dbf bbb7 20bf
00000300: 231c 3bbf 4781 2abf d135 48bf f56d 3ebf
00000310: 8494 26bf d8eb 36bf ee18 09bf c2ab 5f3c
00000320: 079f 35bf 1be2 24bf 4f71 39bf c562 39bf
00000330: 098f 36bf eead 26bf 73bc 3cbf c90c 43bf
00000340: b422 21bf 1c38 b6be ab0a 1cbf f796 0ebf
00000350: c1d9 30bf e68f 35bf 4969 41bf 0055 47bf
00000360: 8895 31bf a392 20bf 8d67 3ebf 2f9c 22bf
00000370: bff4 e6be d24e 563d 2525 82bd dbef 25bf
00000380: af1c 48bf 48f8 42bf 3aab 33bf 2fca 50bf
00000390: 7d05 34bf 7ddc 56be 0169 2dbf 488a 763e
000003a0: 9a9a 2bbf 7bbc 60be 3060 21bf 6e13 15bf
000003b0: d1c8 29bf 9d03 1bbf b5c0 3dbf 6484 29bf
000003c0: 5cd0 b43d 45f9 cc3e 4668 b33e 9f46 903e
000003d0: 20ae 8b3d 71db 993e f0a5 733d ef84 ca3e
000003e0: e70b a13e aa9c da3d c5a0 c9bd f1ed d23c
000003f0: 45a8 01bc 4f8d 9a3e 1598 033f b187 c83e
0.14723128 0.19267106 0.60929894 0.69346195 0.44576043 0.11267508 0.59264237 0.47120973
0.6902576 0.6545675 0.3433772 -0.3361071 -0.33195686 -0.41538557 -0.02438039 0.5365518
0.58505523 0.5945033 0.33997032 -0.028455505 0.5639473 0.5182362 0.3013812 -0.012163445
-0.27817735 -0.40078372 0.12675211 0.39365232 0.48194146 0.5491377 0.48871624 0.5736276
0.6761928 0.55088717 -0.46935302 -0.31547758 0.5055074 0.5185962 0.44312996 0.5903004
0.58176756 0.34720784 -0.10016431 0.2512354 0.3160834 -0.18858337 0.69774246 0.6763091
0.2625326 -0.38020933 0.12848264 0.069939524 0.6756998 0.549256 0.5111123 0.5399349
0.48521647 0.3842792 0.21581452 0.51232576 0.54220587 0.4826677 0.58125937 0.64896804
0.4811229 -0.10340801 -0.24605551 0.69167954 0.7601333 0.7119661 0.5268812 0.6086021
-0.275285 0.2201676 -0.48764887 0.1176026 0.5800883 0.60902435 0.40171877 0.5120392
-0.38650644 -0.403034 -0.40986472 -0.45174557 -0.49338734 -0.5259361 -0.5726796 -0.38424018
-0.50544184 -0.54337895 -0.24601048 -0.27091303 -0.3588233 -0.45125797 -0.54784775 -0.5598739
-0.47046778 -0.55924654 -0.1517874 -0.4818402 -0.32023907 -0.4389678 -0.49994713 -0.42882413
-0.43410763 -0.515874 -0.39985126 -0.51477265 -0.3771616 -0.4953766 -0.49913672 -0.47714087
-0.36685646 -0.13058756 -0.38556606 -0.4595333 -0.6807459 -0.6224061 -0.5245938 -0.42059174
-0.3894289 -0.3106593 -0.21708865 -0.3115315 -0.4504694 -0.47019556 -0.49112675 -0.45089862
-0.42993736 -0.245109 -0.12549426 -0.5073879 -0.49240136 -0.49171144 -0.54053867 -0.44742954
-0.40789407 -0.4957618 -0.3083057 -0.52782166 -0.6041562 -0.49773347 -0.44353697 -0.386674
-0.48384807 -0.4714947 -0.54718167 -0.5217484 -0.48616 -0.54797304 -0.52537394 -0.43868786
-0.34953862 -0.30824563 -0.54214025 -0.47373667 -0.4446196 -0.4500898 -0.3545068 -0.5115419
-0.09351933 -0.46776637 -0.59481966 -0.71591246 -0.6803005 -0.6832825 -0.67937523 -0.668835
0.24188463 0.18747166 -0.602171 -0.74637073 -0.6821625 -0.727095 -0.7479689 -0.64768904
-0.64938354 -0.5862686 -0.5992107 -0.65330714 -0.17727213 -0.52827835 -0.70907354 -0.62021667
-0.6870481 -0.7294942 -0.7120128 -0.61600846 -0.5839982 -0.52682155 -0.5534298 -0.6278035
-0.7308981 -0.6660351 -0.7820712 -0.7438653 -0.65070367 -0.7145362 -0.53553665 0.01365179
-0.7094578 -0.6440751 -0.7243852 -0.72416335 -0.71312004 -0.65109146 -0.7372505 -0.76191384
-0.6294358 -0.35589683 -0.6095378 -0.55699104 -0.69082266 -0.70922697 -0.7555128 -0.77864075
-0.6936879 -0.6272375 -0.74376756 -0.6351957 -0.451086 0.052321263 -0.06354741 -0.64819115
-0.7816877 -0.761601 -0.70183146 -0.8155851 -0.70320874 -0.20982547 -0.6773835 0.24076188
-0.6703278 -0.219469 -0.63037395 -0.5823277 -0.66322047 -0.6055239 -0.7412217 -0.6621764
0.08828804 0.40033928 0.35040492 0.2817888 0.06820321 0.30050233 0.059484422 0.39554545
0.31454393 0.106744125 -0.098451175 0.025748225 -0.007913654 0.30185935 0.51403934 0.39166024

fc1.bias f4 [100]
00000000: cbc1 33bf aff3 c43e 3d1f 37bf 9e5b 35bf
00000010: 2bf0 38bf fb89 003f 39a0 793e f0fb 47bf
00000020: b869 3ebf a089 20bf 66b4 1bbf ec25 20bf
00000030: 549e b6be e393 15be 94a6 21bf cb90 36bf
00000040: 36d0 23bf cbb0 09bf cfc1 24bf 88a4 24bf
00000050: 7ddb 2dbf d12a db3d d298 39bf b5c1 32bf
00000060: 4c2d 3cbf 5896 3fbf 12f6 a9be 855c 0bbf
00000070: 3b06 0b3f ec32 0fbf aae1 27bf 964f f0bd
00000080: ccfc 0ebf 94d0 1bbf 3e2a 373e 5ab9 883e
00000090: 651b 39bf 324f 63be d3bd 33bf c8f5 2fbe
000000a0: f4e3 113f 49ea 56bf 51ed 47bf 744b 11bf
000000b0: dc5e 27bf a966 6d3d fdc4 1bbf 507d 50bf
000000c0: 3696 eb3e 6ccf 26bf c04a 3fbf 4232 cabd
000000d0: 192c 05bf 16f0 47bf fc93 2b3d 41f0 d43e
000000e0: 9347 2bbf eabc 2cbf 2e0e 323e a7c0 b4be
000000f0: 772e 85bd 6509 7bbe 7859 f83e 3473 43bf
00000100: 446a 2dbf 1cd4 42bf 0e9f 28bf a05b 3c3e
00000110: 66dc 253f 13a9 15bf e5dc 03be 6c31 23bf
00000120: f729 11bf a70a 49bf 2d09 3cbf 98c2 3fbf
00000130: 2596 083e a782 3cbf a5f0 35bf c9d5 1cbf
00000140: 62e1 29bf e362 063f 441e 36bf f337 3dbf
00000150: 020c 22bf 00f2 643e 6f9b 2dbf 79e2 3fbf
00000160: 0091 c13d 34c7 abbe 7b4e 32bf bbd5 73be
00000170: 994d 15bf 3e0b 40be 5e49 1abf 6078 6fbe
00000180: c3ed 34bf 9f64 f5be adcc 393e 73c5 4bbf
-0.7021758 0.38467166 -0.7153204 -0.7084292 -0.7224147 0.5021054 0.24377526 -0.781188
-0.74380064 -0.6271 -0.6082214 -0.62557864 -0.3566767 -0.14607196 -0.63144803 -0.71314687
-0.6398958 -0.5378539 -0.6435823 -0.64313555 -0.6791304 0.10701526 -0.7249881 -0.69826823
-0.7350662 -0.7483878 -0.3319555 -0.5443805 0.5430638 -0.55937076 -0.6557871 -0.1173393
-0.5585449 -0.6086514 0.17887208 0.26703912 -0.72307426 -0.2219818 -0.70211524 -0.17183602
0.56988454 -0.8395124 -0.7809649 -0.5675576 -0.6537912 0.057959232 -0.60847455 -0.8144121
0.4601304 -0.6516025 -0.74723434 -0.09872867 -0.5202041 -0.7810072 0.041889176 0.4158955
-0.6690609 -0.6747576 0.17388222 -0.35303232 -0.06503003 -0.24515302 0.4850576 -0.7634766
-0.67740273 -0.76104903 -0.658677 0.18394327 0.64789426 -0.5846111 -0.12877233 -0.63747287
-0.5670466 -0.7853188 -0.734515 -0.749063 0.13338526 -0.7363686 -0.7107032 -0.6126371
-0.6635953 0.5249464 -0.7113993 -0.73913497 -0.6329957 0.2235794 -0.678153 -0.74954945
0.09451485 -0.33550417 -0.69651 -0.23812 -0.5832153 -0.18754289 -0.602682 -0.23385763
-0.70675296 -0.4792833 0.18144484 -0.7959816

fc2.0.0.weight f4 [100, 100]
00000000: 5a8f 1fbf 4356 1e3d cf27 2abf 8013 37bf
00000010: 23c4 13bf e0b8 29bf d949 35bf ad97 28bf
00000020: a09b 22bd b9a8 653e bc5f 22bf f288 33bf
00000030: fc7c 27bf bc7e 27bf 0066 95bd f3ba 32bf
00000040: 4a8a 83b8 635f 17bf 0841 23bf 7254 1e3f
00000050: 6d6b e3be 9f9f 33bf 69c5 2dbf e728 1dbf
00000060: 8314 18bf b89a e13c 7c1d 1dbf 5597 19bc
00000070: 3a9b 18bf c8cd 57bf a3d9 c0be 2240 47bd
00000080: 2875 38bf e8fb 13bf 95d9 0fbf 920f 09bf
00000090: 4ac4 36bf 6fd3 3cbd 66b6 35bf 2f8c 09bf
000000a0: 2250 23bf 7b3a 953c 4765 30bf d741 26bf
000000b0: c823 50bf 62d1 12bf 0c43 46bf 3a99 1c3f
000000c0: d592 14bf 8c7c 34bf acc7 2ebf 9b73 17bf
000000d0: 2a60 bd3d ccc9 0bbf 6703 d53c e06f 16bf
000000e0: c8e5 17bf 1ed7 19bf e7c9 6bbd 8bd0 39bf
000000f0: 0967 2abf d522 2dbf d516 0ebf cfbe 1bbf
00000100: b37e 02bf 5cc7 093f e353 3abf 7efd 1ebf
00000110: b1fd 1fbf 2059 2cbf 701e 3abf 33f4 30bf
00000120: 5f10 32bf 271a eebe 7a70 1cbf 055c 1ebf
00000130: 93ed 17bf 0c74 3abf 8a53 1dbf d00f 3bbe
00000140: 85e9 35bf b770 38bf 4e52 15bf 142a 35bf
00000150: 5e37 55bf 6de5 12bf eef5 31bf 3630 2ebf
00000160: 81f7 12bf 7650 2dbf 5ec9 20bf 1b4e 20bf
00000170: 1d39 29bf 1665 3bbf 3cf9 13bf a5ee 14bf
00000180: 16f1 803d d18e 25bf 2f4e 1abf b08a 893c
00000190: a86b 2fbf 4397 10bf e723 103f 8380 38bf
000001a0: 06a7 16bf c14f 2abf 66e9 12bf 66aa 30bf
000001b0: 8b03 28bf 3ceb 13bf 779e 36bf edda 0dbf
000001c0: 68c6 11bf 52c7 183f 0f5f 37bf 8c43 35bf
000001d0: 830b 22bf 4b3c 23bf c7c5 31bf c58a 22bf
000001e0: 8e20 26bf 7e21 0bbf 7adb 1abf 3f5b 21bf
000001f0: 03f8 15bf 0064 24bf 94c9 0fbf 6f01 15bf
00000200: bf21 2cbf 14f2 17bf 2af5 0dbf 1a2c 30bf
00000210: a5ed 1ebf 6cf5 0fbf 2442 2bbf 588c 1ebf
00000220: e675 0ebf 35b3 19bf da8a 39bf a1b7 1ebf
00000230: 44d3 15bf 418a 0fbf 05d9 07bf 1a0b 2cbf
00000240: 85a5 22bf 9751 38bf 1838 25bf 0126 09bf
00000250: b10d 1ebf 43a9 27bf f079 1cbf 8cfc 18bf
00000260: 8695 09bf f7fd 16bf f8fe 07bf 42c5 28bf
00000270: 7a65 12bf aff0 2dbf d8cf 0e3f 9624 12bf
00000280: 6016 16bf f531 19bf 6993 28bf 790d 16bf
00000290: 66e2 1abf 578b 33bf 0faa 34bf d15c 35bf
000002a0: c09f 21bf c6c3 39bf da4c 34bf 61e9 39bf
000002b0: b280 26bf 10ad 0dbf 4455 36bf 8673 09bf
000002c0: a121 2dbf b4d9 09bf 4398 1abf ba00 2ebf
000002d0: 097f 15bf aa45 2fbf 5f02 1ebf d0b0 323f
000002e0: 4a87 16bf fdbc 0fbf e49c 1fbf 9dd9 0abf
000002f0: 68d4 26bf 80fc 15bf b32b 16bf 7a7f 31bf
00000300: d228 33bf 10d8 36bf baa6 2bbf dfb6 2dbf
00000310: dcd0 08bf 6f47 11bf 2121 183f f870 36bf
00000320: 6b69 0c3f 1da0 35be a375 3abf 16ef 18bf
00000330: 9e97 16bf b026 2bbf 45ae 19bf 0271 bb3e
00000340: a7a4 1cbf 7b3d 31bf 345c 33bf 3697 11bf
00000350: b920 de3e 3f2d 4d3f 2af9 2ebf 3fab 33bf
00000360: c571 f3be bd4c 21bf c0d5 2dbf 9e85 17bf
00000370: 3138 15bf e9fc 03bf 9f3e 0bbf 5571 45bf
00000380: e1b0 0abf 16af 39bf 423b 1abf d94b 3ebf
00000390: b309 283f 6699 4dbf 8b4b 80be 2e1a f23e
000003a0: 13fc 2f3f ff7a 1dbf fee5 613e 1502 0cbf
000003b0: 8b31 21bf 27a3 2dbf aa22 21bf a233 17bf
000003c0: 05ef cf3e ea4b bfbe 7a47 3abf 27cf 35bf
000003d0: a099 27bf 1b0b 0e3f 64e4 1dbf 7a1e d0be
000003e0: 2869 43bf 7f7e 2bbf acc5 23bf ea17 18bf
000003f0: 3ac4 41bf 5593 2fbf f9bb e3be 453b f13e
-0.6232811 0.038656484 -0.66466993 -0.7151413 -0.57721156 -0.6629772 -0.7081581 -0.6585644
-0.039699197 0.22427644 -0.6342733 -0.70130837 -0.65425086 -0.65427756 -0.072948456 -0.6981651
-6.272325e-05 -0.59129924 -0.63771105 0.61847603 -0.44417897 -0.7016544 -0.6787935 -0.6139054
-0.594063 0.027539596 -0.61373115 -0.009374459 -0.59611857 -0.8429837 -0.37666044 -0.048645146
-0.72053766 -0.57806253 -0.5619138 -0.53539383 -0.71393263 -0.046100076 -0.7098144 -0.5372953
-0.6379415 0.018216362 -0.68904537 -0.64944214 -0.813046 -0.5735074 -0.77446055 0.61171305
-0.5803655 -0.70502543 -0.68273425 -0.59160775 0.092468575 -0.5460479 0.026002599 -0.5876446
-0.59334993 -0.6009387 -0.057565596 -0.72583836 -0.6656347 -0.67631274 -0.5550359 -0.60838026
-0.5097458 0.53819823 -0.7278425 -0.6210555 -0.6249648 -0.67323494 -0.72702694 -0.6912262
-0.6955623 -0.46504328 -0.61109126 -0.6185916 -0.59346884 -0.72833323 -0.61455595 -0.1826775
-0.7105945 -0.7204699 -0.5832871 -0.7076733 -0.8328761 -0.57381326 -0.69515884 -0.68042314
-0.5740891 -0.677009 -0.6280726 -0.6261918 -0.6610277 -0.7320112 -0.57802176 -0.5817664
0.062959835 -0.64671046 -0.6027555 0.016789764 -0.68523645 -0.5648081 0.5630478 -0.72071093
-0.5884861 -0.66527945 -0.5738739 -0.6901001 -0.65630406 -0.57780814 -0.7133555 -0.5541218
-0.5694337 0.5967914 -0.7162942 -0.70806193 -0.63298815 -0.63763875 -0.6944241 -0.63492996
-0.64893425 -0.5434798 -0.60491145 -0.63029855 -0.5858156 -0.6421509 -0.5616696 -0.5820531
-0.6723899 -0.59353757 -0.55452216 -0.68817294 -0.62081367 -0.5623386 -0.668978 -0.619329
-0.5564865 -0.60039073 -0.72477496 -0.61998945 -0.5852549 -0.56070334 -0.5306552 -0.6720444
-0.6353381 -0.71999496 -0.6453872 -0.53573614 -0.6173964 -0.6549265 -0.6112356 -0.59760356
-0.5374378 -0.5898127 -0.53123426 -0.6592599 -0.5718609 -0.6794538 0.55785894 -0.57087076
-0.5862789 -0.59841853 -0.6584993 -0.5861431 -0.60501707 -0.7013449 -0.7057199 -0.7084475
-0.63134384 -0.7256435 -0.70429766 -0.7262173 -0.65040123 -0.553422 -0.71223855 -0.536919
-0.6762944 -0.53847814 -0.6038858 -0.6796986 -0.58396965 -0.68465674 -0.6172237 0.69801044
-0.58800185 -0.5614775 -0.6234877 -0.542383 -0.65167856 -0.5858841 -0.5866043 -0.6933514
-0.6998416 -0.71423435 -0.6705128 -0.67857164 -0.53443694 -0.56749624 0.5942555 -0.71266127
0.54848355 -0.1773686 -0.7283575 -0.59739816 -0.588251 -0.6685591 -0.6003154 0.36609656
-0.6118874 -0.69234437 -0.70062566 -0.56871355 0.4338434 0.80147165 -0.68348944 -0.70183176
-0.47547737 -0.6300772 -0.6790428 -0.5918826 -0.58288866 -0.51557785 -0.5439243 -0.77126056
-0.54176146 -0.72532785 -0.6024667 -0.74334484 0.656398 -0.8031219 -0.25057635 0.472856
0.6874401 -0.615158 0.22060391 -0.54690677 -0.6296622 -0.67827076 -0.6294352 -0.5906316
0.40612045 -0.37362605 -0.72765315 -0.71019214 -0.6546879 0.55485696 -0.6167662 -0.40648252
-0.7633233 -0.6698989 -0.639735 -0.5941149 -0.7569004 -0.68584186 -0.4447935 0.47115532

fc2.0.0.bias f4 [100]
00000000: d9e3 51bf 178a 11bf 2b21 9e3e 6d00 bbbe
00000010: b8f6 10bf c24c 7f3e ec26 84be 7c4d 233f
00000020: a46c 1c3f c262 13bf 7ca3 0b3f 8a47 1abf
00000030: 8c8b 98be 293f b13e 587d 723e 816e 48bc
00000040: 4ccc 193f 907c 003e dbac 31bf 9935 2abf
00000050: 7e4b 17be 6a21 1cbf 1fba 503f 9a91 36bf
00000060: 02a1 0bbf 9000 18bf c044 ebbd e1e6 10bf
00000070: af5e 003f 138c 34bf b091 d43d a2f9 b2be
00000080: 240a 20bf d38b 3c3f 54b9 3dbf 2d63 2bbf
00000090: 4dab 30bf c206 fb3d 0d36 13bf ce89 1a3f
000000a0: 3a03 2fbf 3da6 ec3e beb3 343f 04d6 183f
000000b0: a826 36bf d2b8 df3d 9a78 023f 9707 12bf
000000c0: 123e f1be 85dc 413f 3312 26bf 05a7 33bf
000000d0: 0765 1cbf 432f 2dbe dff2 11bf f1e7 2fbf
000000e0: d46a 04bf df3b 6abd d1cc 78bd 09b7 313f
000000f0: ce63 36bf 7a7c 4dbf aed0 dabe c689 1f3f
00000100: 9bcf b2be 13a9 0c3f 8cb6 31bf 11fe 14bf
00000110: 7b64 643e 674a 263f 3d2a 38bf eb6c 9e3e
00000120: e484 30bf 82b7 273f 805d 38bf f983 003f
00000130: 0420 f8be b9a6 1bbf fbc5 153f a785 383f
00000140: 6ef6 7fbe cdaf 953e f039 303f 9bbd 0e3f
00000150: 8b16 483d 69af 0e3f 4532 1dbf 3dd9 a93e
00000160: 49ce 32bf 17d4 92bd 9504 bd3d 3087 0b3f
00000170: 316c 353f 8e52 203f 4d61 443f e172 2b3f
00000180: 5718 33bf 9bd3 35bf c9fe 29bd 050d 1ebf
-0.8198829 -0.56851333 0.3088468 -0.36523762 -0.5662646 0.24931625 -0.25810945 0.63790107
0.6110327 -0.5757257 0.5454633 -0.6026541 -0.29793966 0.346185 0.23680627 -0.012233377
0.6007736 0.12547517 -0.6940438 -0.66488034 -0.14774892 -0.60988486 0.81534 -0.7131592
-0.54542553 -0.5937586 -0.114877224 -0.56602293 0.50144476 -0.70526236 0.1037935 -0.3495608
-0.62515473 0.73650855 -0.74110913 -0.66948205 -0.69011384 0.12257148 -0.5750435 0.60366523
-0.683643 0.4622058 0.70586765 0.5970156 -0.71152735 0.109239236 0.50965273 -0.5704283
-0.47117668 0.7572711 -0.6487152 -0.70176727 -0.61091655 -0.1691256 -0.57011217 -0.6871329
-0.51725507 -0.057186004 -0.060742203 0.69419914 -0.7124604 -0.8026806 -0.42737335 0.623196
-0.34924015 0.54945487 -0.6941917 -0.58200175 0.22303955 0.6495728 -0.7193945 0.30942473
-0.68952775 0.65514386 -0.7201767 0.50201374 -0.48461926 -0.60801274 0.5850522 0.7207894
-0.24996349 0.29235688 0.68838406 0.55758065 0.048849624 0.55736405 -0.6140483 0.33173552
-0.69846016 -0.07169359 0.092293896 0.54503155 0.7086821 0.6262597 0.7671097 0.66972166
-0.69959015 -0.7102601 -0.041502748 -0.61738616

fc2.1.0.weight f4 [100, 100]
00000000: 5a8f 1fbf 4356 1e3d cf27 2abf 8013 37bf
00000010: 23c4 13bf e0b8 29bf d949 35bf ad97 28bf
00000020: a09b 22bd b9a8 653e bc5f 22bf f288 33bf
00000030: fc7c 27bf bc7e 27bf 0066 95bd f3ba 32bf
00000040: 4a8a 83b8 635f 17bf 0841 23bf 7254 1e3f
00000050: 6d6b e3be 9f9f 33bf 69c5 2dbf e728 1dbf
00000060: 8314 18bf b89a e13c 7c1d 1dbf 5597 19bc
00000070: 3a9b 18bf c8cd 57bf a3d9 c0be 2240 47bd
00000080: 2875 38bf e8fb 13bf 95d9 0fbf 920f 09bf
00000090: 4ac4 36bf 6fd3 3cbd 66b6 35bf 2f8c 09bf
000000a0: 2250 23bf 7b3a 953c 4765 30bf d741 26bf
000000b0: c823 50bf 62d1 12bf 0c43 46bf 3a99 1c3f
000000c0: d592 14bf 8c7c 34bf acc7 2ebf 9b73 17bf
000000d0: 2a60 bd3d ccc9 0bbf 6703 d53c e06f 16bf
000000e0: c8e5 17bf 1ed7 19bf e7c9 6bbd 8bd0 39bf
000000f0: 0967 2abf d522 2dbf d516 0ebf cfbe 1bbf
00000100: b37e 02bf 5cc7 093f e353 3abf 7efd 1ebf
00000110: b1fd 1fbf 2059 2cbf 701e 3abf 33f4 30bf
00000120: 5f10 32bf 271a eebe 7a70 1cbf 055c 1ebf
00000130: 93ed 17bf 0c74 3abf 8a53 1dbf d00f 3bbe
00000140: 85e9 35bf b770 38bf 4e52 15bf 142a 35bf
00000150: 5e37 55bf 6de5 12bf eef5 31bf 3630 2ebf
00000160: 81f7 12bf 7650 2dbf 5ec9 20bf 1b4e 20bf
00000170: 1d39 29bf 1665 3bbf 3cf9 13bf a5ee 14bf
00000180: 16f1 803d d18e 25bf 2f4e 1abf b08a 893c
00000190: a86b 2fbf 4397 10bf e723 103f 8380 38bf
000001a0: 06a7 16bf c14f 2abf 66e9 12bf 66aa 30bf
000001b0: 8b03 28bf 3ceb 13bf 779e 36bf edda 0dbf
000001c0: 68c6 11bf 52c7 183f 0f5f 37bf 8c43 35bf
000001d0: 830b 22bf 4b3c 23bf c7c5 31bf c58a 22bf
000001e0: 8e20 26bf 7e21 0bbf 7adb 1abf 3f5b 21bf
000001f0: 03f8 15bf 0064 24bf 94c9 0fbf 6f01 15bf
00000200: bf21 2cbf 14f2 17bf 2af5 0dbf 1a2c 30bf
00000210: a5ed 1ebf 6cf5 0fbf 2442 2bbf 588c 1ebf
00000220: e675 0ebf 35b3 19bf da8a 39bf a1b7 1ebf
00000230: 44d3 15bf 418a 0fbf 05d9 07bf 1a0b 2cbf
00000240: 85a5 22bf 9751 38bf 1838 25bf 0126 09bf
00000250: b10d 1ebf 43a9 27bf f079 1cbf 8cfc 18bf
00000260: 8695 09bf f7fd 16bf f8fe 07bf 42c5 28bf
00000270: 7a65 12bf aff0 2dbf d8cf 0e3f 9624 12bf
00000280: 6016 16bf f531 19bf 6993 28bf 790d 16bf
00000290: 66e2 1abf 578b 33bf 0faa 34bf d15c 35bf
000002a0: c09f 21bf c6c3 39bf da4c 34bf 61e9 39bf
000002b0: b280 26bf 10ad 0dbf 4455 36bf 8673 09bf
000002c0: a121 2dbf b4d9 09bf 4398 1abf ba00 2ebf
000002d0: 097f 15bf aa45 2fbf 5f02 1ebf d0b0 323f
000002e0: 4a87 16bf fdbc 0fbf e49c 1fbf 9dd9 0abf
000002f0: 68d4 26bf 80fc 15bf b32b 16bf 7a7f 31bf
00000300: d228 33bf 10d8 36bf baa6 2bbf dfb6 2dbf
00000310: dcd0 08bf 6f47 11bf 2121 183f f870 36bf
00000320: 6b69 0c3f 1da0 35be a375 3abf 16ef 18bf
00000330: 9e97 16bf b026 2bbf 45ae 19bf 0271 bb3e
00000340: a7a4 1cbf 7b3d 31bf 345c 33bf 3697 11bf
00000350: b920 de3e 3f2d 4d3f 2af9 2ebf 3fab 33bf
00000360: c571 f3be bd4c 21bf c0d5 2dbf 9e85 17bf
00000370: 3138 15bf e9fc 03bf 9f3e 0bbf 5571 45bf
00000380: e1b0 0abf 16af 39bf 423b 1abf d94b 3ebf
00000390: b309 283f 6699 4dbf 8b4b 80be 2e1a f23e
000003a0: 13fc 2f3f ff7a 1dbf fee5 613e 1502 0cbf
000003b0: 8b31 21bf 27a3 2dbf aa22 21bf a233 17bf
000003c0: 05ef cf3e ea4b bfbe 7a47 3abf 27cf 35bf
000003d0: a099 27bf 1b0b 0e3f 64e4 1dbf 7a1e d0be
000003e0: 2869 43bf 7f7e 2bbf acc5 23bf ea17 18bf
000003f0: 3ac4 41bf 5593 2fbf f9bb e3be 453b f13e
-0.6232811 0.038656484 -0.66466993 -0.7151413 -0.57721156 -0.6629772 -0.7081581 -0.6585644
-0.039699197 0.22427644 -0.6342733 -0.70130837 -0.65425086 -0.65427756 -0.072948456 -0.6981651
-6.272325e-05 -0.59129924 -0.63771105 0.61847603 -0.44417897 -0.7016544 -0.6787935 -0.6139054
-0.594063 0.027539596 -0.61373115 -0.009374459 -0.59611857 -0.8429837 -0.37666044 -0.048645146
-0.72053766 -0.57806253 -0.5619138 -0.53539383 -0.71393263 -0.046100076 -0.7098144 -0.5372953
-0.6379415 0.018216362 -0.68904537 -0.64944214 -0.813046 -0.5735074 -0.77446055 0.61171305
-0.5803655 -0.70502543 -0.68273425 -0.59160775 0.092468575 -0.5460479 0.026002599 -0.5876446
-0.59334993 -0.6009387 -0.057565596 -0.72583836 -0.6656347 -0.67631274 -0.5550359 -0.60838026
-0.5097458 0.53819823 -0.7278425 -0.6210555 -0.6249648 -0.67323494 -0.72702694 -0.6912262
-0.6955623 -0.46504328 -0.61109126 -0.6185916 -0.59346884 -0.72833323 -0.61455595 -0.1826775
-0.7105945 -0.7204699 -0.5832871 -0.7076733 -0.8328761 -0.57381326 -0.69515884 -0.68042314
-0.5740891 -0.677009 -0.6280726 -0.6261918 -0.6610277 -0.7320112 -0.57802176 -0.5817664
0.062959835 -0.64671046 -0.6027555 0.016789764 -0.68523645 -0.5648081 0.5630478 -0.72071093
-0.5884861 -0.66527945 -0.5738739 -0.6901001 -0.65630406 -0.57780814 -0.7133555 -0.5541218
-0.5694337 0.5967914 -0.7162942 -0.70806193 -0.63298815 -0.63763875 -0.6944241 -0.63492996
-0.64893425 -0.5434798 -0.60491145 -0.63029855 -0.5858156 -0.6421509 -0.5616696 -0.5820531
-0.6723899 -0.59353757 -0.55452216 -0.68817294 -0.62081367 -0.5623386 -0.668978 -0.619329
-0.5564865 -0.60039073 -0.72477496 -0.61998945 -0.5852549 -0.56070334 -0.5306552 -0.6720444
-0.6353381 -0.71999496 -0.6453872 -0.53573614 -0.6173964 -0.6549265 -0.6112356 -0.59760356
-0.5374378 -0.5898127 -0.53123426 -0.6592599 -0.5718609 -0.6794538 0.55785894 -0.57087076
-0.5862789 -0.59841853 -0.6584993 -0.5861431 -0.60501707 -0.7013449 -0.7057199 -0.7084475
-0.63134384 -0.7256435 -0.70429766 -0.7262173 -0.65040123 -0.553422 -0.71223855 -0.536919
-0.6762944 -0.53847814 -0.6038858 -0.6796986 -0.58396965 -0.68465674 -0.6172237 0.69801044
-0.58800185 -0.5614775 -0.6234877 -0.542383 -0.65167856 -0.5858841 -0.5866043 -0.6933514
-0.6998416 -0.71423435 -0.6705128 -0.67857164 -0.53443694 -0.56749624 0.5942555 -0.71266127
0.54848355 -0.1773686 -0.7283575 -0.59739816 -0.588251 -0.6685591 -0.6003154 0.36609656
-0.6118874 -0.69234437 -0.70062566 -0.56871355 0.4338434 0.80147165 -0.68348944 -0.70183176
-0.47547737 -0.6300772 -0.6790428 -0.5918826 -0.58288866 -0.51557785 -0.5439243 -0.77126056
-0.54176146 -0.72532785 -0.6024667 -0.74334484 0.656398 -0.8031219 -0.25057635 0.472856
0.6874401 -0.615158 0.22060391 -0.54690677 -0.6296622 -0.67827076 -0.6294352 -0.5906316
0.40612045 -0.37362605 -0.72765315 -0.71019214 -0.6546879 0.55485696 -0.6167662 -0.40648252
-0.7633233 -0.6698989 -0.639735 -0.5941149 -0.7569004 -0.68584186 -0.4447935 0.47115532

fc2.1.0.bias f4 [100]
00000000: d9e3 51bf 178a 11bf 2b21 9e3e 6d00 bbbe
00000010: b8f6 10bf c24c 7f3e ec26 84be 7c4d 233f
00000020: a46c 1c3f c262 13bf 7ca3 0b3f 8a47 1abf
00000030: 8c8b 98be 293f b13e 587d 723e 816e 48bc
00000040: 4ccc 193f 907c 003e dbac 31bf 9935 2abf
00000050: 7e4b 17be 6a21 1cbf 1fba 503f 9a91 36bf
00000060: 02a1 0bbf 9000 18bf c044 ebbd e1e6 10bf
00000070: af5e 003f 138c 34bf b091 d43d a2f9 b2be
00000080: 240a 20bf d38b 3c3f 54b9 3dbf 2d63 2bbf
00000090: 4dab 30bf c206 fb3d 0d36 13bf ce89 1a3f
000000a0: 3a03 2fbf 3da6 ec3e beb3 343f 04d6 183f
000000b0: a826 36bf d2b8 df3d 9a78 023f 9707 12bf
000000c0: 123e f1be 85dc 413f 3312 26bf 05a7 33bf
000000d0: 0765 1cbf 432f 2dbe dff2 11bf f1e7 2fbf
000000e0: d46a 04bf df3b 6abd d1cc 78bd 09b7 313f
000000f0: ce63 36bf 7a7c 4dbf aed0 dabe c689 1f3f
00000100: 9bcf b2be 13a9 0c3f 8cb6 31bf 11fe 14bf
00000110: 7b64 643e 674a 263f 3d2a 38bf eb6c 9e3e
00000120: e484 30bf 82b7 273f 805d 38bf f983 003f
00000130: 0420 f8be b9a6 1bbf fbc5 153f a785 383f
00000140: 6ef6 7fbe cdaf 953e f039 303f 9bbd 0e3f
00000150: 8b16 483d 69af 0e3f 4532 1dbf 3dd9 a93e
00000160: 49ce 32bf 17d4 92bd 9504 bd3d 3087 0b3f
00000170: 316c 353f 8e52 203f 4d61 443f e172 2b3f
00000180: 5718 33bf 9bd3 35bf c9fe 29bd 050d 1ebf
-0.8198829 -0.56851333 0.3088468 -0.36523762 -0.5662646 0.24931625 -0.25810945 0.63790107
0.6110327 -0.5757257 0.5454633 -0.6026541 -0.29793966 0.346185 0.23680627 -0.012233377
0.6007736 0.12547517 -0.6940438 -0.66488034 -0.14774892 -0.60988486 0.81534 -0.7131592
-0.54542553 -0.5937586 -0.114877224 -0.56602293 0.50144476 -0.70526236 0.1037935 -0.3495608
-0.62515473 0.73650855 -0.74110913 -0.66948205 -0.69011384 0.12257148 -0.5750435 0.60366523
-0.683643 0.4622058 0.70586765 0.5970156 -0.71152735 0.109239236 0.50965273 -0.5704283
-0.47117668 0.7572711 -0.6487152 -0.70176727 -0.61091655 -0.1691256 -0.57011217 -0.6871329
-0.51725507 -0.057186004 -0.060742203 0.69419914 -0.7124604 -0.8026806 -0.42737335 0.623196
-0.34924015 0.54945487 -0.6941917 -0.58200175 0.22303955 0.6495728 -0.7193945 0.30942473
-0.68952775 0.65514386 -0.7201767 0.50201374 -0.48461926 -0.60801274 0.5850522 0.7207894
-0.24996349 0.29235688 0.68838406 0.55758065 0.048849624 0.55736405 -0.6140483 0.33173552
-0.69846016 -0.07169359 0.092293896 0.54503155 0.7086821 0.6262597 0.7671097 0.66972166
-0.69959015 -0.7102601 -0.041502748 -0.61738616

fc2.2.0.weight f4 [100, 100]
00000000: 5a8f 1fbf 4356 1e3d cf27 2abf 8013 37bf
00000010: 23c4 13bf e0b8 29bf d949 35bf ad97 28bf
00000020: a09b 22bd b9a8 653e bc5f 22bf f288 33bf
00000030: fc7c 27bf bc7e 27bf 0066 95bd f3ba 32bf
00000040: 4a8a 83b8 635f 17bf 0841 23bf 7254 1e3f
00000050: 6d6b e3be 9f9f 33bf 69c5 2dbf e728 1dbf
00000060: 8314 18bf b89a e13c 7c1d 1dbf 5597 19bc
00000070: 3a9b 18bf c8cd 57bf a3d9 c0be 2240 47bd
00000080: 2875 38bf e8fb 13bf 95d9 0fbf 920f 09bf
00000090: 4ac4 36bf 6fd3 3cbd 66b6 35bf 2f8c 09bf
000000a0: 2250 23bf 7b3a 953c 4765 30bf d741 26bf
000000b0: c823 50bf 62d1 12bf 0c43 46bf 3a99 1c3f
000000c0: d592 14bf 8c7c 34bf acc7 2ebf 9b73 17bf
000000d0: 2a60 bd3d ccc9 0bbf 6703 d53c e06f 16bf
000000e0: c8e5 17bf 1ed7 19bf e7c9 6bbd 8bd0 39bf
000000f0: 0967 2abf d522 2dbf d516 0ebf cfbe 1bbf
00000100: b37e 02bf 5cc7 093f e353 3abf 7efd 1ebf
00000110: b1fd 1fbf 2059 2cbf 701e 3abf 33f4 30bf
00000120: 5f10 32bf 271a eebe 7a70 1cbf 055c 1ebf
00000130: 93ed 17bf 0c74 3abf 8a53 1dbf d00f 3bbe
00000140: 85e9 35bf b770 38bf 4e52 15bf 142a 35bf
00000150: 5e37 55bf 6de5 12bf eef5 31bf 3630 2ebf
00000160: 81f7 12bf 7650 2dbf 5ec9 20bf 1b4e 20bf
00000170: 1d39 29bf 1665 3bbf 3cf9 13bf a5ee 14bf
00000180: 16f1 803d d18e 25bf 2f4e 1abf b08a 893c
00000190: a86b 2fbf 4397 10bf e723 103f 8380 38bf
000001a0: 06a7 16bf c14f 2abf 66e9 12bf 66aa 30bf
000001b0: 8b03 28bf 3ceb 13bf 779e 36bf edda 0dbf
000001c0: 68c6 11bf 52c7 183f 0f5f 37bf 8c43 35bf
000001d0: 830b 22bf 4b3c 23bf c7c5 31bf c58a 22bf
000001e0: 8e20 26bf 7e21 0bbf 7adb 1abf 3f5b 21bf
000001f0: 03f8 15bf 0064 24bf 94c9 0fbf 6f01 15bf
00000200: bf21 2cbf 14f2 17bf 2af5 0dbf 1a2c 30bf
00000210: a5ed 1ebf 6cf5 0fbf 2442 2bbf 588c 1ebf
00000220: e675 0ebf 35b3 19bf da8a 39bf a1b7 1ebf
00000230: 44d3 15bf 418a 0fbf 05d9 07bf 1a0b 2cbf
00000240: 85a5 22bf 9751 38bf 1838 25bf 0126 09bf
00000250: b10d 1ebf 43a9 27bf f079 1cbf 8cfc 18bf
00000260: 8695 09bf f7fd 16bf f8fe 07bf 42c5 28bf
00000270: 7a65 12bf aff0 2dbf d8cf 0e3f 9624 12bf
00000280: 6016 16bf f531 19bf 6993 28bf 790d 16bf
00000290: 66e2 1abf 578b 33bf 0faa 34bf d15c 35bf
000002a0: c09f 21bf c6c3 39bf da4c 34bf 61e9 39bf
000002b0: b280 26bf 10ad 0dbf 4455 36bf 8673 09bf
000002c0: a121 2dbf b4d9 09bf 4398 1abf ba00 2ebf
000002d0: 097f 15bf aa45 2fbf 5f02 1ebf d0b0 323f
000002e0: 4a87 16bf fdbc 0fbf e49c 1fbf 9dd9 0abf
000002f0: 68d4 26bf 80fc 15bf b32b 16bf 7a7f 31bf
00000300: d228 33bf 10d8 36bf baa6 2bbf dfb6 2dbf
00000310: dcd0 08bf 6f47 11bf 2121 183f f870 36bf
00000320: 6b69 0c3f 1da0 35be a375 3abf 16ef 18bf
00000330: 9e97 16bf b026 2bbf 45ae 19bf 0271 bb3e
00000340: a7a4 1cbf 7b3d 31bf 345c 33bf 3697 11bf
00000350: b920 de3e 3f2d 4d3f 2af9 2ebf 3fab 33bf
00000360: c571 f3be bd4c 21bf c0d5 2dbf 9e85 17bf
00000370: 3138 15bf e9fc 03bf 9f3e 0bbf 5571 45bf
00000380: e1b0 0abf 16af 39bf 423b 1abf d94b 3ebf
00000390: b309 283f 6699 4dbf 8b4b 80be 2e1a f23e
000003a0: 13fc 2f3f ff7a 1dbf fee5 613e 1502 0cbf
000003b0: 8b31 21bf 27a3 2dbf aa22 21bf a233 17bf
000003c0: 05ef cf3e ea4b bfbe 7a47 3abf 27cf 35bf
000003d0: a099 27bf 1b0b 0e3f 64e4 1dbf 7a1e d0be
000003e0: 2869 43bf 7f7e 2bbf acc5 23bf ea17 18bf
000003f0: 3ac4 41bf 5593 2fbf f9bb e3be 453b f13e
-0.6232811 0.038656484 -0.66466993 -0.7151413 -0.57721156 -0.6629772 -0.7081581 -0.6585644
-0.039699197 0.22427644 -0.6342733 -0.70130837 -0.65425086 -0.65427756 -0.072948456 -0.6981651
-6.272325e-05 -0.59129924 -0.63771105 0.61847603 -0.44417897 -0.7016544 -0.6787935 -0.6139054
-0.594063 0.027539596 -0.61373115 -0.009374459 -0.59611857 -0.8429837 -0.37666044 -0.048645146
-0.72053766 -0.57806253 -0.5619138 -0.53539383 -0.71393263 -0.046100076 -0.7098144 -0.5372953
-0.6379415 0.018216362 -0.68904537 -0.64944214 -0.813046 -0.5735074 -0.77446055 0.61171305
-0.5803655 -0.70502543 -0.68273425 -0.59160775 0.092468575 -0.5460479 0.026002599 -0.5876446
-0.59334993 -0.6009387 -0.057565596 -0.72583836 -0.6656347 -0.67631274 -0.5550359 -0.60838026
-0.5097458 0.53819823 -0.7278425 -0.6210555 -0.6249648 -0.67323494 -0.72702694 -0.6912262
-0.6955623 -0.46504328 -0.61109126 -0.6185916 -0.59346884 -0.72833323 -0.61455595 -0.1826775
-0.7105945 -0.7204699 -0.5832871 -0.7076733 -0.8328761 -0.57381326 -0.69515884 -0.68042314
-0.5740891 -0.677009 -0.6280726 -0.6261918 -0.6610277 -0.7320112 -0.57802176 -0.5817664
0.062959835 -0.64671046 -0.6027555 0.016789764 -0.68523645 -0.5648081 0.5630478 -0.72071093
-0.5884861 -0.66527945 -0.5738739 -0.6901001 -0.65630406 -0.57780814 -0.7133555 -0.5541218
-0.5694337 0.5967914 -0.7162942 -0.70806193 -0.63298815 -0.63763875 -0.6944241 -0.63492996
-0.64893425 -0.5434798 -0.60491145 -0.63029855 -0.5858156 -0.6421509 -0.5616696 -0.5820531
-0.6723899 -0.59353757 -0.55452216 -0.68817294 -0.62081367 -0.5623386 -0.668978 -0.619329
-0.5564865 -0.60039073 -0.72477496 -0.61998945 -0.5852549 -0.56070334 -0.5306552 -0.6720444
-0.6353381 -0.71999496 -0.6453872 -0.53573614 -0.6173964 -0.6549265 -0.6112356 -0.59760356
-0.5374378 -0.5898127 -0.53123426 -0.6592599 -0.5718609 -0.6794538 0.55785894 -0.57087076
-0.5862789 -0.59841853 -0.6584993 -0.5861431 -0.60501707 -0.7013449 -0.7057199 -0.7084475
-0.63134384 -0.7256435 -0.70429766 -0.7262173 -0.65040123 -0.553422 -0.71223855 -0.536919
-0.6762944 -0.53847814 -0.6038858 -0.6796986 -0.58396965 -0.68465674 -0.6172237 0.69801044
-0.58800185 -0.5614775 -0.6234877 -0.542383 -0.65167856 -0.5858841 -0.5866043 -0.6933514
-0.6998416 -0.71423435 -0.6705128 -0.67857164 -0.53443694 -0.56749624 0.5942555 -0.71266127
0.54848355 -0.1773686 -0.7283575 -0.59739816 -0.588251 -0.6685591 -0.6003154 0.36609656
-0.6118874 -0.69234437 -0.70062566 -0.56871355 0.4338434 0.80147165 -0.68348944 -0.70183176
-0.47547737 -0.6300772 -0.6790428 -0.5918826 -0.58288866 -0.51557785 -0.5439243 -0.77126056
-0.54176146 -0.72532785 -0.6024667 -0.74334484 0.656398 -0.8031219 -0.25057635 0.472856
0.6874401 -0.615158 0.22060391 -0.54690677 -0.6296622 -0.67827076 -0.6294352 -0.5906316
0.40612045 -0.37362605 -0.72765315 -0.71019214 -0.6546879 0.55485696 -0.6167662 -0.40648252
-0.7633233 -0.6698989 -0.639735 -0.5941149 -0.7569004 -0.68584186 -0.4447935 0.47115532

fc2.2.0.bias f4 [100]
00000000: d9e3 51bf 178a 11bf 2b21 9e3e 6d00 bbbe
00000010: b8f6 10bf c24c 7f3e ec26 84be 7c4d 233f
00000020: a46c 1c3f c262 13bf 7ca3 0b3f 8a47 1abf
00000030: 8c8b 98be 293f b13e 587d 723e 816e 48bc
00000040: 4ccc 193f 907c 003e dbac 31bf 9935 2abf
00000050: 7e4b 17be 6a21 1cbf 1fba 503f 9a91 36bf
00000060: 02a1 0bbf 9000 18bf c044 ebbd e1e6 10bf
00000070: af5e 003f 138c 34bf b091 d43d a2f9 b2be
00000080: 240a 20bf d38b 3c3f 54b9 3dbf 2d63 2bbf
00000090: 4dab 30bf c206 fb3d 0d36 13bf ce89 1a3f
000000a0: 3a03 2fbf 3da6 ec3e beb3 343f 04d6 183f
000000b0: a826 36bf d2b8 df3d 9a78 023f 9707 12bf
000000c0: 123e f1be 85dc 413f 3312 26bf 05a7 33bf
000000d0: 0765 1cbf 432f 2dbe dff2 11bf f1e7 2fbf
000000e0: d46a 04bf df3b 6abd d1cc 78bd 09b7 313f
000000f0: ce63 36bf 7a7c 4dbf aed0 dabe c689 1f3f
00000100: 9bcf b2be 13a9 0c3f 8cb6 31bf 11fe 14bf
00000110: 7b64 643e 674a 263f 3d2a 38bf eb6c 9e3e
00000120: e484 30bf 82b7 273f 805d 38bf f983 003f
00000130: 0420 f8be b9a6 1bbf fbc5 153f a785 383f
00000140: 6ef6 7fbe cdaf 953e f039 303f 9bbd 0e3f
00000150: 8b16 483d 69af 0e3f 4532 1dbf 3dd9 a93e
00000160: 49ce 32bf 17d4 92bd 9504 bd3d 3087 0b3f
00000170: 316c 353f 8e52 203f 4d61 443f e172 2b3f
00000180: 5718 33bf 9bd3 35bf c9fe 29bd 050d 1ebf
-0.8198829 -0.56851333 0.3088468 -0.36523762 -0.5662646 0.24931625 -0.25810945 0.63790107
0.6110327 -0.5757257 0.5454633 -0.6026541 -0.29793966 0.346185 0.23680627 -0.012233377
0.6007736 0.12547517 -0.6940438 -0.66488034 -0.14774892 -0.60988486 0.81534 -0.7131592
-0.54542553 -0.5937586 -0.114877224 -0.56602293 0.50144476 -0.70526236 0.1037935 -0.3495608
-0.62515473 0.73650855 -0.74110913 -0.66948205 -0.69011384 0.12257148 -0.5750435 0.60366523
-0.683643 0.4622058 0.70586765 0.5970156 -0.71152735 0.109239236 0.50965273 -0.5704283
-0.47117668 0.7572711 -0.6487152 -0.70176727 -0.61091655 -0.1691256 -0.57011217 -0.6871329
-0.51725507 -0.057186004 -0.060742203 0.69419914 -0.7124604 -0.8026806 -0.42737335 0.623196
-0.34924015 0.54945487 -0.6941917 -0.58200175 0.22303955 0.6495728 -0.7193945 0.30942473
-0.68952775 0.65514386 -0.7201767 0.50201374 -0.48461926 -0.60801274 0.5850522 0.7207894
-0.24996349 0.29235688 0.68838406 0.55758065 0.048849624 0.55736405 -0.6140483 0.33173552
-0.69846016 -0.07169359 0.092293896 0.54503155 0.7086821 0.6262597 0.7671097 0.66972166
-0.69959015 -0.7102601 -0.041502748 -0.61738616

fc2.3.0.weight f4 [100, 100]
00000000: 5a8f 1fbf 4356 1e3d cf27 2abf 8013 37bf
00000010: 23c4 13bf e0b8 29bf d949 35bf ad97 28bf
00000020: a09b 22bd b9a8 653e bc5f 22bf f288 33bf
00000030: fc7c 27bf bc7e 27bf 0066 95bd f3ba 32bf
00000040: 4a8a 83b8 635f 17bf 0841 23bf 7254 1e3f
00000050: 6d6b e3be 9f9f 33bf 69c5 2dbf e728 1dbf
00000060: 8314 18bf b89a e13c 7c1d 1dbf 5597 19bc
00000070: 3a9b 18bf c8cd 57bf a3d9 c0be 2240 47bd
00000080: 2875 38bf e8fb 13bf 95d9 0fbf 920f 09bf
00000090: 4ac4 36bf 6fd3 3cbd 66b6 35bf 2f8c 09bf
000000a0: 2250 23bf 7b3a 953c 4765 30bf d741 26bf
000000b0: c823 50bf 62d1 12bf 0c43 46bf 3a99 1c3f
000000c0: d592 14bf 8c7c 34bf acc7 2ebf 9b73 17bf
000000d0: 2a60 bd3d ccc9 0bbf 6703 d53c e06f 16bf
000000e0: c8e5 17bf 1ed7 19bf e7c9 6bbd 8bd0 39bf
000000f0: 0967 2abf d522 2dbf d516 0ebf cfbe 1bbf
00000100: b37e 02bf 5cc7 093f e353 3abf 7efd 1ebf
00000110: b1fd 1fbf 2059 2cbf 701e 3abf 33f4 30bf
00000120: 5f10 32bf 271a eebe 7a70 1cbf 055c 1ebf
00000130: 93ed 17bf 0c74 3abf 8a53 1dbf d00f 3bbe
00000140: 85e9 35bf b770 38bf 4e52 15bf 142a 35bf
00000150: 5e37 55bf 6de5 12bf eef5 31bf 3630 2ebf
00000160: 81f7 12bf 7650 2dbf 5ec9 20bf 1b4e 20bf
00000170: 1d39 29bf 1665 3bbf 3cf9 13bf a5ee 14bf
00000180: 16f1 803d d18e 25bf 2f4e 1abf b08a 893c
00000190: a86b 2fbf 4397 10bf e723 103f 8380 38bf
000001a0: 06a7 16bf c14f 2abf 66e9 12bf 66aa 30bf
000001b0: 8b03 28bf 3ceb 13bf 779e 36bf edda 0dbf
000001c0: 68c6 11bf 52c7 183f 0f5f 37bf 8c43 35bf
000001d0: 830b 22bf 4b3c 23bf c7c5 31bf c58a 22bf
000001e0: 8e20 26bf 7e21 0bbf 7adb 1abf 3f5b 21bf
000001f0: 03f8 15bf 0064 24bf 94c9 0fbf 6f01 15bf
00000200: bf21 2cbf 14f2 17bf 2af5 0dbf 1a2c 30bf
00000210: a5ed 1ebf 6cf5 0fbf 2442 2bbf 588c 1ebf
00000220: e675 0ebf 35b3 19bf da8a 39bf a1b7 1ebf
00000230: 44d3 15bf 418a 0fbf 05d9 07bf 1a0b 2cbf
00000240: 85a5 22bf 9751 38bf 1838 25bf 0126 09bf
00000250: b10d 1ebf 43a9 27bf f079 1cbf 8cfc 18bf
00000260: 8695 09bf f7fd 16bf f8fe 07bf 42c5 28bf
00000270: 7a65 12bf aff0 2dbf d8cf 0e3f 9624 12bf
00000280: 6016 16bf f531 19bf 6993 28bf 790d 16bf
00000290: 66e2 1abf 578b 33bf 0faa 34bf d15c 35bf
000002a0: c09f 21bf c6c3 39bf da4c 34bf 61e9 39bf
000002b0: b280 26bf 10ad 0dbf 4455 36bf 8673 09bf
000002c0: a121 2dbf b4d9 09bf 4398 1abf ba00 2ebf
000002d0: 097f 15bf aa45 2fbf 5f02 1ebf d0b0 323f
000002e0: 4a87 16bf fdbc 0fbf e49c 1fbf 9dd9 0abf
000002f0: 68d4 26bf 80fc 15bf b32b 16bf 7a7f 31bf
00000300: d228 33bf 10d8 36bf baa6 2bbf dfb6 2dbf
00000310: dcd0 08bf 6f47 11bf 2121 183f f870 36bf
00000320: 6b69 0c3f 1da0 35be a375 3abf 16ef 18bf
00000330: 9e97 16bf b026 2bbf 45ae 19bf 0271 bb3e
00000340: a7a4 1cbf 7b3d 31bf 345c 33bf 3697 11bf
00000350: b920 de3e 3f2d 4d3f 2af9 2ebf 3fab 33bf
00000360: c571 f3be bd4c 21bf c0d5 2dbf 9e85 17bf
00000370: 3138 15bf e9fc 03bf 9f3e 0bbf 5571 45bf
00000380: e1b0 0abf 16af 39bf 423b 1abf d94b 3ebf
00000390: b309 283f 6699 4dbf 8b4b 80be 2e1a f23e
000003a0: 13fc 2f3f ff7a 1dbf fee5 613e 1502 0cbf
000003b0: 8b31 21bf 27a3 2dbf aa22 21bf a233 17bf
000003c0: 05ef cf3e ea4b bfbe 7a47 3abf 27cf 35bf
000003d0: a099 27bf 1b0b 0e3f 64e4 1dbf 7a1e d0be
000003e0: 2869 43bf 7f7e 2bbf acc5 23bf ea17 18bf
000003f0: 3ac4 41bf 5593 2fbf f9bb e3be 453b f13e
-0.6232811 0.038656484 -0.66466993 -0.7151413 -0.57721156 -0.6629772 -0.7081581 -0.6585644
-0.039699197 0.22427644 -0.6342733 -0.70130837 -0.65425086 -0.65427756 -0.072948456 -0.6981651
-6.272325e-05 -0.59129924 -0.63771105 0.61847603 -0.44417897 -0.7016544 -0.6787935 -0.6139054
-0.594063 0.027539596 -0.61373115 -0.009374459 -0.59611857 -0.8429837 -0.37666044 -0.048645146
-0.72053766 -0.57806253 -0.5619138 -0.53539383 -0.71393263 -0.046100076 -0.7098144 -0.5372953
-0.6379415 0.018216362 -0.68904537 -0.64944214 -0.813046 -0.5735074 -0.77446055 0.61171305
-0.5803655 -0.70502543 -0.68273425 -0.59160775 0.092468575 -0.5460479 0.026002599 -0.5876446
-0.59334993 -0.6009387 -0.057565596 -0.72583836 -0.6656347 -0.67631274 -0.5550359 -0.60838026
-0.5097458 0.53819823 -0.7278425 -0.6210555 -0.6249648 -0.67323494 -0.72702694 -0.6912262
-0.6955623 -0.46504328 -0.61109126 -0.6185916 -0.59346884 -0.72833323 -0.61455595 -0.1826775
-0.7105945 -0.7204699 -0.5832871 -0.7076733 -0.8328761 -0.57381326 -0.69515884 -0.68042314
-0.5740891 -0.677009 -0.6280726 -0.6261918 -0.6610277 -0.7320112 -0.57802176 -0.5817664
0.062959835 -0.64671046 -0.6027555 0.016789764 -0.68523645 -0.5648081 0.5630478 -0.72071093
-0.5884861 -0.66527945 -0.5738739 -0.6901001 -0.65630406 -0.57780814 -0.7133555 -0.5541218
-0.5694337 0.5967914 -0.7162942 -0.70806193 -0.63298815 -0.63763875 -0.6944241 -0.63492996
-0.64893425 -0.5434798 -0.60491145 -0.63029855 -0.5858156 -0.6421509 -0.5616696 -0.5820531
-0.6723899 -0.59353757 -0.55452216 -0.68817294 -0.62081367 -0.5623386 -0.668978 -0.619329
-0.5564865 -0.60039073 -0.72477496 -0.61998945 -0.5852549 -0.56070334 -0.5306552 -0.6720444
-0.6353381 -0.71999496 -0.6453872 -0.53573614 -0.6173964 -0.6549265 -0.6112356 -0.59760356
-0.5374378 -0.5898127 -0.53123426 -0.6592599 -0.5718609 -0.6794538 0.55785894 -0.57087076
-0.5862789 -0.59841853 -0.6584993 -0.5861431 -0.60501707 -0.7013449 -0.7057199 -0.7084475
-0.63134384 -0.7256435 -0.70429766 -0.7262173 -0.65040123 -0.553422 -0.71223855 -0.536919
-0.6762944 -0.53847814 -0.6038858 -0.6796986 -0.58396965 -0.68465674 -0.6172237 0.69801044
-0.58800185 -0.5614775 -0.6234877 -0.542383 -0.65167856 -0.5858841 -0.5866043 -0.6933514
-0.6998416 -0.71423435 -0.6705128 -0.67857164 -0.53443694 -0.56749624 0.5942555 -0.71266127
0.54848355 -0.1773686 -0.7283575 -0.59739816 -0.588251 -0.6685591 -0.6003154 0.36609656
-0.6118874 -0.69234437 -0.70062566 -0.56871355 0.4338434 0.80147165 -0.68348944 -0.70183176
-0.47547737 -0.6300772 -0.6790428 -0.5918826 -0.58288866 -0.51557785 -0.5439243 -0.77126056
-0.54176146 -0.72532785 -0.6024667 -0.74334484 0.656398 -0.8031219 -0.25057635 0.472856
0.6874401 -0.615158 0.22060391 -0.54690677 -0.6296622 -0.67827076 -0.6294352 -0.5906316
0.40612045 -0.37362605 -0.72765315 -0.71019214 -0.6546879 0.55485696 -0.6167662 -0.40648252
-0.7633233 -0.6698989 -0.639735 -0.5941149 -0.7569004 -0.68584186 -0.4447935 0.47115532
