figs/diff_batch_size/mlp_64/mlp_model_dict.pt (torch, 182421 bytes, 8 tensors)

fc1.weight f4 [100, 240]
-0.53119224 -0.15628931 -0.53849894 -0.37609705 -0.5247897 -0.5317711 -0.51538366 -0.2875322
0.11231752 0.35275745 0.26194248 -0.38775173 -0.41125193 -0.617462 -0.65798765 -0.59443307
0.3372271 -0.3786978 -0.6116511 -0.47486752 -0.5771883 -0.303794 0.5168355 -0.65168685
0.09507458 -0.3471446 0.00393972 0.62864494 0.18739703 -0.33824834 0.10163688 0.1842542
-0.66727453 -0.21762739 0.03535488 -0.15592441 -0.16347724 0.27850017 -0.26336053 -0.5504412
-0.34101215 0.27438638 0.5090421 0.486854 -0.11764023 -0.02215843 -0.56094193 -0.23883787
-0.12744743 0.51321393 0.5221049 0.38187253 -0.53843415 -0.5042699 -0.07028244 -0.2989165
0.38319665 -0.4150256 -0.3280636 0.31200564 0.14411633 0.31681335 0.6400294 -0.55896103
-0.23362553 -0.49547717 -0.57988346 0.4063873 -0.3773888 -0.3010525 0.65025383 0.5386524
-0.2188321 0.4152041 -0.5937446 0.24778195 0.13517922 -0.16493705 -0.42221257 -0.09512376
-0.78617996 -0.69400376 -0.5912853 -0.5915761 -0.7359709 -0.67600656 -0.7070421 -0.6837918
-0.7145248 -0.75841975 -0.74660623 -0.7289514 -0.7353586 -0.7018409 -0.7100306 -0.6972099
-0.7065544 -0.6681161 -0.72818995 -0.7024583 -0.60009456 -0.7039654 -0.71516705 -0.7341621
-0.72858495 -0.73421896 -0.76058084 -0.7341365 -0.65106356 -0.6583203 -0.70477045 -0.67270964
-0.7321302 -0.6908287 -0.7451004 -0.64639074 -0.66691196 -0.6004011 -0.7157188 -0.71745765
-0.676739 -0.6269142 -0.63587856 -0.58115155 -0.7340323 -0.7194174 -0.7342225 -0.6668649
-0.75106776 -0.65596783 -0.67315793 -0.6344171 -0.73404753 -0.7252756 -0.73225003 -0.6877479
-0.61135805 -0.7285822 -0.6712783 -0.6678256 -0.7620782 -0.6642699 -0.68038094 -0.70121765
-0.6281792 -0.7644538 -0.6727372 -0.6411318 -0.74771905 -0.6550268 -0.65335363 -0.6706249
-0.68968374 -0.6749407 -0.7632989 -0.6985531 -0.6973122 -0.7109926 -0.6678379 -0.74332464
0.6574296 0.70851153 -0.04891752 0.23601446 -0.581383 -0.6312484 -0.54766697 -0.5701514
0.6390515 0.5757841 0.5637108 0.22200388 -0.27451834 0.056427367 0.4782784 0.6588741
0.6494319 0.4511597 0.57381064 -0.4294149 0.087880805 0.62094265 0.7307229 0.68473977
-0.10992822 -0.16651458 0.57658947 0.57520485 -0.1572616 0.56582046 0.38296402 -0.2997123
0.54774785 -0.5106618 -0.17083219 0.3564196 0.46661234 0.61761034 -0.3973913 -0.4034066
-0.28090006 0.48374155 0.42893565 0.49429584 -0.19834305 -0.41132852 -0.5196542 -0.40776473
0.25811943 0.058443103 0.6392113 0.5518219 0.43668142 -0.7003624 -0.4982018 0.5282744
0.6319156 0.67901164 0.6618967 0.42534092 -0.09438652 0.54410857 0.24866052 0.2721845
-0.34702152 0.22946954 0.06949222 0.6174967 -0.2563036 0.679329 0.64383876 0.32025313
0.6836032 -0.44624093 -0.70452815 -0.47228816 0.66748315 0.59123445 -0.08161064 -0.46967313
-0.7040541 -0.4909385 -0.61404675 -0.45957452 -0.64003485 -0.6349449 -0.6933365 -0.6248671
-0.59224737 -0.6881176 -0.54403466 -0.44777474 -0.3447876 -0.56908286 -0.7000025 -0.5659031
00000000: 37fc 07bf 4e0a 20be 11db 09bf cb8f c0be
00000010: 9e58 06bf 2722 08bf 2ff0 03bf 6c37 93be
00000020: ba06 e63d a09c b43e 531d 863e 6587 c6be
00000030: 9d8f d2be fd11 1ebf e171 28bf c42c 18bf
00000040: 08a9 ac3e aee4 c1be 2b95 1cbf d621 f3be
00000050: 9dc2 13bf e38a 9bbe 554f 043f f3d4 26bf
00000060: 76b6 c23d f0bc b1be c418 813b e0ee 203f
00000070: 02e5 3f3e e32e adbe ff26 d03d 22ad 3c3e
00000080: 81d2 2abf b7d9 5ebe 47d0 103d a6aa 1fbe
00000090: 9466 27be 9397 8e3e 31d7 86be b7e9 0cbf
000000a0: 2599 aebe 5f7c 8c3e 9550 023f ed44 f93e
000000b0: 5ced f0bd 9985 b5bc e499 0fbf ea91 74be
000000c0: 9481 02be fd61 033f aba8 053f cc84 c33e
000000d0: d2d6 09bf d517 01bf 3df0 8fbd 950b 99be
000000e0: 5a32 c43e 3c7e d4be f4f7 a7be 34bf 9f3e
000000f0: 3b93 133e 5c35 a23e f7d8 233f 1218 0fbf
00000100: 883b 6fbe 2faf fdbe 3e73 14bf ff11 d03e
00000110: 1b39 c1be 8e23 9abe 0977 263f 20e5 093f
00000120: 8615 60be a295 d43e a5ff 17bf 8dba 7d3e
00000130: 6c6c 0a3e 42e5 28be 3f2c d8be 3fd0 c2bd
00000140: 1743 49bf 3baa 31bf 795e 17bf 8871 17bf
00000150: 9768 3cbf c40e 2dbf b600 35bf fb0c 2fbf
00000160: 19eb 36bf cc27 42bf 9621 3fbf 8f9c 3abf
00000170: 7640 3cbf d8ab 33bf 91c4 35bf 597c 32bf
00000180: c0e0 34bf a809 2bbf a86a 3abf 4fd4 33bf
00000190: cc9f 19bf 1437 34bf 3015 37bf 0cf2 3bbf
000001a0: 8b84 3abf c6f5 3bbf 6db5 42bf 5ff0 3bbf
000001b0: 1aac 26bf ae87 28bf d66b 34bf b336 2cbf
000001c0: e36c 3bbf 26da 30bf e6be 3ebf dd79 25bf
000001d0: beba 2abf e3b3 19bf 5939 37bf 4eab 37bf
000001e0: c43e 2dbf 737d 20bf f0c8 22bf 59c6 14bf
000001f0: 8ae9 3bbf bd2b 38bf 01f6 3bbf a8b7 2abf
00000200: fa45 40bf 82ed 27bf 1454 2cbf 2969 22bf
00000210: 8aea 3bbf a9ab 39bf bd74 3bbf 3f10 30bf
00000220: f681 1cbf 5d84 3abf e5d8 2bbf 9ef6 2abf
00000230: 8f17 43bf 980d 2abf 722d 2ebf 0083 33bf
00000240: 5ad0 20bf 3fb3 43bf 8138 2cbf 3721 24bf
00000250: 846a 3fbf d6af 27bf 2f42 27bf 13ae 2bbf
00000260: 1d8f 30bf eac8 2cbf 8f67 43bf 60d4 32bf
00000270: 0d83 32bf 9c03 36bf 6df7 2abf 864a 3ebf
00000280: 4e4d 283f 0361 353f bd5d 48bd c6ad 713e
00000290: 84d5 14bf 7f99 21bf e733 0cbf 71f5 11bf
000002a0: e198 233f 9666 133f 5a4f 103f fc54 633e
000002b0: ab8d 8cbe 6220 673d e8e0 f43e f9ab 283f
000002c0: 2b41 263f 67fe e63e 41e5 123f 45dc dbbe
000002d0: dafa b33d 19f6 1e3f a810 3b3f 1b4b 2f3f
000002e0: 0c22 e1bd cc82 2abe 5e9b 133f a040 133f
000002f0: 2f09 21be 9cd9 103f dc13 c43e e473 99be
00000300: 3439 0c3f bbba 02bf a2ee 2ebe a17c b63e
00000310: d0e7 ee3e b61b 1e3f df76 cbbe 4f8b cebe
00000320: 22d2 8fbe f9ac f73e 749d db3e 5814 fd3e
00000330: 711a 4bbe a799 d2be 0f08 05bf 8ac6 d0be
00000340: 3b28 843e 0962 6f3d 5aa3 233f 3344 0d3f
00000350: b594 df3e f34a 33bf 4e14 ffbe fe3c 073f
00000360: 39c5 213f b5d3 2d3f 1072 293f 49c6 d93e
00000370: b84d c1bd b34a 0b3f dda0 7e3e c45b 8b3e
00000380: ceac b1be 10fa 6a3e f051 8e3d 4414 1e3f
00000390: 3a3a 83be 81e8 2d3f 9ed2 243f 38f8 a33e
000003a0: 9f00 2f3f b179 e4be f55b 34bf c1cf f1be
000003b0: 2de0 2a3f 245b 173f 7b23 a7bd ff78 f0be
000003c0: e43c 34bf 4b5c fbbe 2b32 1dbf 5a4d ebbe
000003d0: 53d9 23bf c08b 22bf 807e 31bf 4af7 1fbf
000003e0: 869d 17bf 7a28 30bf db45 0bbf bb42 e5be
000003f0: 0088 b0be 6aaf 11bf 5d33 33bf 07df 10bf

fc1.bias f4 [100]
-0.66654545 -0.6781945 -0.68133706 -0.6459673 -0.72172 -0.7559601 -0.64120156 -0.5675157
-0.611875 0.32852522 -0.72659063 -0.49076328 -0.581305 -0.6225367 -0.6733429 -0.61279005
-0.34022838 -0.7785936 -0.5278722 -0.6871416 -0.7210445 -0.60121185 -0.6724698 -0.64003825
-0.6835742 -0.663956 -0.64880824 -0.7532649 -0.5574257 -0.6833076 -0.76829106 -0.5579798
-0.76515514 -0.36234364 -0.38499683 -0.4427041 -0.6122631 -0.7124172 -0.5699384 -0.60751426
-0.70136684 -0.5685716 -0.43575546 -0.5483555 -0.5137228 -0.7756155 -0.42938203 -0.5471498
-0.6359861 -0.58549106 -0.6876247 -0.64950114 -0.6817182 -0.6939746 -0.83697534 -0.59534824
-0.7020906 -0.61681914 -0.7629419 -0.6393866 -0.6183728 -0.6915762 -0.6816655 -0.62633437
-0.74639183 -0.65182626 -0.4678049 -0.03847615 -0.29820725 -0.5976248 -0.70929074 -0.6765851
-0.55721325 -0.8544752 -0.63272804 -0.07393471 -0.55073553 -0.6263737 -0.7485105 -0.16702963
-0.41532892 -0.6641823 0.3370531 -0.6507962 -0.50543654 -0.71798575 -0.6192803 -0.67884094
-0.7165659 0.6180772 -0.39286402 -0.6937728 -0.14068083 -0.66429424 -0.5970722 -0.7117098
0.08373935 -0.5486977 -0.7496768 -0.5524253
00000000: b9a2 2abf 289e 2dbf 1b6c 2ebf 1d5e 25bf
00000010: a4c2 38bf 9a86 41bf c925 24bf b548 11bf
00000020: d7a3 1cbf 7534 a83e d801 3abf 5345 fbbe
00000030: 68d0 14bf 915e 1fbf 3360 2cbf cfdf 1cbf
00000040: 6a32 aebe e951 47bf a222 07bf 83e8 2fbf
00000050: 5f96 38bf 05e9 19bf fb26 2cbf 8cd9 23bf
00000060: b8fe 2ebf 05f9 29bf 4c18 26bf f8d5 40bf
00000070: 73b3 0ebf 3fed 2ebf b9ae 44bf c4d7 0ebf
00000080: 35e1 43bf 1b85 b9be 4e1e c5be 1daa e2be
00000090: 46bd 1cbf f960 36bf 7ce7 11bf 0e86 1bbf
000000a0: c78c 33bf e98d 11bf 571b dfbe 0761 0cbf
000000b0: 5683 03bf bd8e 46bf f6d7 dbbe 0212 0cbf
000000c0: fccf 22bf bee2 15bf 2c08 30bf b545 26bf
000000d0: 1585 2ebf 52a8 31bf 0444 56bf be68 18bf
000000e0: 36bc 33bf dce7 1dbf 2950 43bf d7ae 23bf
000000f0: ae4d 1ebf 230b 31bf a181 2ebf 7357 20bf
00000100: 8913 3fbf 16de 26bf 2084 efbe 2b99 1dbd
00000110: 9fae 98be f0fd 18bf 1494 35bf ae34 2dbf
00000120: 87a5 0ebf e3be 5abf 77fa 21bf 156b 97bd
00000130: 01fd 0cbf 075a 20bf 629e 3fbf d109 2bbe
00000140: fea5 d4be da07 2abf 3992 ac3e 949a 26bf
00000150: 4a64 01bf eacd 37bf 2789 1ebf 85c8 2dbf
00000160: dd70 37bf 4f3a 1e3f 7925 c9be 189b 31bf
00000170: a30e 10be 300f 2abf b9d9 18bf 9d32 36bf
00000180: 897f ab3d 7477 0cbf d2ea 3fbf bf6b 0dbf

fc2.weight f4 [100, 100]
-0.6141514 -0.58235574 -0.69535553 -0.6053279 -0.6778505 0.43689916 -0.8170043 -0.68207586
-0.72941965 0.39719278 -0.7669453 0.7666307 -0.8440539 -0.6447603 -0.70185864 -0.74919105
0.6187469 -0.60450894 0.60982466 -0.78632665 -0.55780095 -0.24196647 -0.774372 -0.7656466
-0.67828125 -0.57277155 -0.63414025 -0.6726132 0.6283862 -0.610775 0.5977624 0.66300607
-0.74661154 0.04331022 -0.60287136 -0.606408 -0.632301 -0.6479256 -0.7798471 -0.5078347
-0.58513373 -0.6145727 -0.52780026 -0.6809092 -0.8172361 -0.64074135 0.52076685 -0.68362254
0.5438774 -0.5518471 -0.7291321 -0.4864297 -0.7874624 -0.63644075 -0.7596067 0.03281821
-0.7589011 -0.7298557 -0.7236239 -0.621572 -0.7753602 -0.58005667 -0.7832082 -0.5902886
-0.58542395 -0.8146311 -0.67615545 -0.6224876 -0.58694696 0.6050967 -0.6181192 -0.63590133
-0.66676515 -0.7326768 -0.73722965 -0.6365369 -0.7235666 -0.69108564 -0.6559084 0.6301268
-0.6287715 -0.66992635 0.49637732 -0.595336 -0.6810219 -0.7501684 -0.3495769 -0.73499763
-0.6828022 -0.7406885 -0.6490963 -0.77223074 0.31154156 -0.6675599 0.7530486 -0.62629545
0.74035466 -0.7080266 -0.7257258 -0.6084427 -0.7138865 -0.59643203 -0.6149095 -0.6380883
-0.77116627 -0.76182544 -0.6791684 -0.5928865 -0.6897014 -0.6752958 -0.58996314 -0.6779448
-0.68941593 -0.7187615 -0.6040321 -0.7472888 -0.6843498 -0.6269435 -0.672664 -0.60232645
-0.72288704 -0.69627464 -0.70149523 -0.6615352 -0.6528167 -0.66875243 -0.5961823 -0.778612
0.7159243 -0.6124562 -0.6226489 -0.62373066 -0.6139485 -0.63049877 -0.72843516 -0.7029352
-0.72849596 -0.60135126 -0.71166176 -0.59878194 -0.7171974 -0.6294703 -0.6823801 -0.6489455
-0.62425387 -0.6586256 -0.6385641 -0.65036726 -0.64994514 -0.6716461 -0.73855156 -0.72181517
-0.7173342 -0.68156606 -0.7694319 -0.60064787 -0.7199286 -0.73631203 -0.66496587 -0.6483503
-0.7610508 -0.5874472 -0.76523083 -0.70315766 -0.6615462 -0.6436459 -0.7758944 -0.6861684
-0.59538925 -0.649561 -0.6182304 -0.76504797 -0.70727164 -0.74539226 -0.7611483 -0.65064275
-0.76497465 -0.65592486 -0.60327923 -0.6467625 -0.7354773 -0.6862726 -0.7679619 -0.6493889
-0.62987673 -0.61139953 -0.47433367 -0.7239773 -0.7616554 -0.75698465 -0.74006784 -0.66508514
-0.7594205 -0.6291357 -0.6100167 -0.7402546 -0.74692154 -0.58900464 -0.6158332 -0.6618368
-0.51250356 -0.09514997 -0.4984371 0.587452 0.09586835 0.3355946 -0.43163753 -0.8465195
0.6219598 -0.7751238 0.6188391 -0.5979389 -0.6773562 -0.82888937 0.62520075 -0.63555896
-0.6089405 0.46484718 -0.5279923 -0.28566104 -0.0019778477 -0.7790718 -0.30085826 0.41083607
-0.81274 -0.67199403 -0.848067 -0.47636366 -0.78570783 0.5045065 0.5790653 -0.77952707
-0.70859194 -0.6852781 0.19202277 -0.79002637 -0.24086812 -0.18318097 -0.3711602 -0.047507405
-0.33263117 -0.83032274 -0.5478426 -0.71381515 -0.21424091 0.55182886 -0.83691067 -0.71791047
-0.82559115 -0.11994469 0.56806374 -0.8143835 -0.7453612 0.58516294 0.31203586 -0.8260304
00000000: 0739 1dbf 4415 15bf d202 32bf c5f6 1abf
00000010: 9c87 2dbf 3fb1 df3e 3227 51bf 869c 2ebf
00000020: 3fbb 3abf da5c cb3e 8756 44bf e941 443f
00000030: eb13 58bf 030f 25bf 02ad 33bf fcca 3fbf
00000040: 3266 1e3f 19c1 1abf 781d 1c3f b44c 49bf
00000050: 0bcc 0ebf 0fc6 77be 3e3d 46bf 6a01 44bf
00000060: d7a3 2dbf 28a1 12bf 0457 22bf 6130 2cbf
00000070: ebdd 203f c05b 1cbf f506 193f c4ba 293f
00000080: ef21 3fbf 0f66 313d c755 1abf 8e3d 1bbf
00000090: 7ade 21bf 74de 25bf 0fa4 47bf 7401 02bf
000000a0: 53cb 15bf a354 1dbf eb1d 07bf 1150 2ebf
000000b0: 6336 51bf a007 24bf fa50 053f e301 2fbf
000000c0: 8d3b 0b3f da45 0dbf 67a8 3abf 500d f9be
000000d0: 2397 49bf c8ed 22bf 9675 42bf 636c 063d
000000e0: 5847 42bf d3d7 3abf 6a3f 39bf 581f 1fbf
000000f0: 027e 46bf 987e 14bf 5580 48bf 271d 17bf
00000100: 58de 15bf aa8b 50bf 8618 2dbf 595b 1fbf
00000110: 2842 16bf 9ee7 1a3f 0f3d 1ebf 6eca 22bf
00000120: 1fb1 2abf b590 3bbf 15bb 3cbf 15f4 22bf
00000130: a93b 39bf fdea 30bf 9de9 27bf fd4f 213f
00000140: 2bf7 20bf 4b80 2bbf 2b25 fe3e f167 18bf
00000150: 7457 2ebf 090b 40bf befb b2be ce28 3cbf
00000160: 20cc 2ebf c39d 3dbf 2d2b 26bf eab0 45bf
00000170: 6082 9f3e 35e5 2abf cbc7 403f e654 20bf
00000180: e287 3d3f 3b41 35bf 2bc9 39bf e7c2 1bbf
00000190: 44c1 36bf c5af 18bf b66a 1dbf c159 23bf
000001a0: 276b 45bf fe06 43bf fbdd 2dbf 69c7 17bf
000001b0: 4590 30bf 30e0 2cbf d307 17bf ca8d 2dbf
000001c0: 907d 30bf c100 38bf d9a1 1abf 524e 3fbf
000001d0: 8c31 2fbf 5f7f 20bf b533 2cbf 1132 1abf
000001e0: 200f 39bf 0e3f 32bf 3195 33bf 5f5a 29bf
000001f0: ff1e 27bf 5c33 2bbf 679f 18bf 1e53 47bf
00000200: d146 373f eec9 1cbf eb65 1fbf d0ac 1fbf
00000210: bb2b 1dbf 5e68 21bf ba7a 3abf 90f3 33bf
00000220: b67e 3abf 28f2 19bf 772f 36bf c649 19bf
00000230: 409a 37bf f724 21bf 76b0 2ebf 4b21 26bf
00000240: 1acf 1fbf b09b 28bf f078 23bf 787e 26bf
00000250: ce62 26bf 00f1 2bbf b711 3dbf e1c8 38bf
00000260: 37a3 37bf 1d7b 2ebf 7df9 44bf 0fc4 19bf
00000270: 3e4d 38bf f27e 3cbf 343b 2abf 49fa 25bf
00000280: 3ad4 42bf f162 16bf 2be6 43bf 2402 34bf
00000290: 175b 29bf fac5 24bf 04a1 46bf bba8 2fbf
000002a0: 6e6b 18bf a149 26bf 5944 1ebf 2fda 43bf
000002b0: c10f 35bf 07d2 3ebf 9dda 42bf 8690 26bf
000002c0: 61d5 43bf b1ea 27bf 8270 1abf 3a92 25bf
000002d0: 3e48 3cbf 90af 2fbf 2799 44bf 5a3e 26bf
000002e0: 9a3f 21bf ae84 1cbf dddb f2be 9456 39bf
000002f0: d9fb 42bf bfc9 41bf 1675 3dbf 0543 2abf
00000300: 6269 42bf 0a0f 21bf 0e2a 1cbf 5381 3dbf
00000310: 4036 3fbf 02c9 16bf 3fa7 1dbf 236e 29bf
00000320: 6f33 03bf fddd c2bd 2633 ffbe 4163 163f
00000330: a056 c43d 0ed3 ab3e 98ff dcbe 80b5 58bf
00000340: c238 1f3f 836e 46bf 3d6c 1e3f 8612 19bf
00000350: 3767 2dbf 1832 54bf 280d 203f feb3 22bf
00000360: 86e3 1bbf 7300 ee3e 812a 07bf 2a42 92be
00000370: c79e 01bb 4071 47bf 180a 9abe 1b59 d23e
00000380: bb0f 50bf cd07 2cbf eb1a 59bf f0e5 f3be
00000390: 2624 49bf 5727 013f a03d 143f 168f 47bf
000003a0: 4866 35bf 636e 2fbf 9ea1 443e 2b3f 4abf
000003b0: 22a6 76be cb93 3bbe b608 bebe 2097 42bd
000003c0: a24e aabe 0890 54bf 6a3f 0cbf 97bc 36bf
000003d0: f861 5bbe a844 0d3f c73f 56bf fbc8 37bf
000003e0: f159 53bf 90a5 f5bd a06c 113f 707b 50bf
000003f0: fecf 3ebf 3dcd 153f 2ac3 9f3e ba76 53bf

fc2.bias f4 [100]
0.5285732 -0.7705062 -0.17465232 0.21253827 -0.16031717 -0.61547965 -0.6639994 -0.6725844
0.2568424 -0.39985484 0.72304195 -0.56443936 0.5173339 -0.7785931 0.18286696 0.2283084
-0.33507904 -0.62453985 -0.6939737 -0.6140571 -0.7076301 -0.73040843 -0.7400598 -0.6332182
-0.64735323 0.70450246 -0.73254263 0.7193693 -0.506486 -0.63545924 -0.34575823 -0.4495858
-0.6558216 -0.7259928 -0.64417857 -0.7463227 0.51644003 -0.70885277 -0.42741162 -0.6066179
-0.27140096 -0.5907892 -0.48411652 -0.5684523 -0.7086431 -0.6658741 0.13645868 -0.59463173
-0.5044161 0.36117285 -0.6322125 -0.30591267 -0.7033694 -0.59413135 -0.5750224 -0.8359129
-0.6642189 -0.78164285 0.6231837 0.4625397 -0.5801656 -0.61589235 -0.6676166 -0.66882664
-0.6126405 -0.573167 -0.7703495 -0.70521986 0.69014853 -0.5673837 -0.39273274 -0.67694056
-0.6237782 0.70120245 -0.6952203 -0.6965893 -0.6334193 -0.5937561 -0.5842 -0.6329314
-0.37395194 -0.6885088 -0.7766747 -0.6200281 0.30350873 -0.5883664 -0.5213386 -0.7005838
-0.23074442 -0.6832937 0.7423817 -0.71106327 -0.6347614 -0.5733761 -0.40156743 0.4259929
-0.13866013 -0.50154096 -0.62663895 -0.3885925
00000000: 9350 073f e53f 45bf 0fd8 32be a2a3 593e
00000010: 2f2a 24be 1390 1dbf ddfb 29bf 7e2e 2cbf
00000020: d980 833e c6b9 ccbe 4719 393f 197f 10bf
00000030: ff6f 043f e151 47bf 7a41 3b3e adc9 693e
00000040: 7b8f abbe d8e1 1fbf 43a8 31bf d932 1dbf
00000050: 3f27 35bf 0cfc 3abf 8f74 3dbf 971a 22bf
00000060: f1b8 25bf 465a 343f ea87 3bbf 9628 383f
00000070: 11a9 01bf 75ad 22bf 3907 b1be 1c30 e6be
00000080: ede3 27bf aada 39bf e3e8 24bf 010f 3fbf
00000090: 6a35 043f 6077 35bf b2d5 dabe 504b 1bbf
000000a0: 11f5 8abe f63d 17bf 1fde f7be 1786 11bf
000000b0: a269 35bf ba76 2abf d3bb 0b3e c939 18bf
000000c0: 6a21 01bf a6eb b83e aed8 21bf 96a0 9cbe
000000d0: 0410 34bf fe18 18bf ab34 13bf 63fe 55bf
000000e0: 400a 2abf bf19 48bf f888 1f3f 01d2 ec3e
000000f0: bc85 14bf 1fab 1dbf ece8 2abf 3938 2bbf
00000100: 02d6 1cbf 13bb 12bf a035 45bf 4a89 34bf
00000110: 93ad 303f 0f40 11bf 4414 c9be fa4b 2dbf
00000120: eeaf 1fbf 0182 333f f5f9 31bf ad53 32bf
00000130: c427 22bf 6600 18bf 228e 15bf cb07 22bf
00000140: a176 bfbe 1d42 30bf 27d4 46bf 29ba 1ebf
00000150: 7f65 9b3e 2e9f 16bf 7276 05bf 7659 33bf
00000160: 4448 6cbe 56ec 2ebf ba0c 3e3f 3e08 36bf
00000170: b97f 22bf c7c8 12bf 3f9a cdbe be1b da3e
00000180: ecfc 0dbe fd64 00bf 696b 20bf 99f5 c6be

fc3.weight f4 [100, 100]
-0.50586253 0.02589056 -0.6574908 -0.56815493 -0.7778674 -0.7567282 0.64704853 -0.09580887
-0.77732354 0.6666766 -0.30876976 0.6089021 -0.74811214 0.7068348 -0.7716997 -0.69519407
0.63204074 -0.7358973 0.014088412 -0.7622721 -0.7185385 -0.0019113353 0.6414509 0.6313286
-0.7782273 0.7888646 0.086769454 -0.79060066 -0.6406494 0.75723726 -0.7237164 -0.13929743
-0.75549346 0.08637114 -0.6309249 0.71717495 -0.8283602 0.6814292 -0.6813511 -0.7842298
-0.6945794 -0.6894813 -0.6441121 -0.69488585 -0.73017603 -0.4368636 -0.6951977 -0.61884564
-0.6795643 -0.78334945 0.8024674 -0.82230705 -0.7413619 -0.79494375 -0.71397626 0.6090555
-0.62506425 0.012547097 -0.44350448 -0.4568499 -0.7438161 0.68044907 0.056097694 -0.28207532
0.60010934 0.6923241 -0.08170832 -0.7403958 -0.49817732 -0.7406477 0.79544973 0.06658711
-0.64587426 0.7748812 -0.782756 -0.6434251 -0.63444287 -0.7184544 -0.65003365 -0.7304759
-0.6091085 -0.69422907 -0.07493187 -0.0786329 -0.5253242 -0.61971456 -0.70695746 0.6159873
-0.6218528 -0.7017478 0.7637184 -0.79157686 -0.097514875 0.71252173 -0.6178051 -0.62463164
-0.39480668 -0.79118806 -0.06065669 -0.7023208 -0.66700876 0.61761266 -0.58431345 -0.6732774
-0.2528145 -0.7190854 0.5973175 0.6887342 -0.026659396 -0.6894118 -0.6827421 -0.74174184
-0.65797704 -0.033475988 -0.35711092 -0.6269444 -0.65265226 -0.7296947 0.6295381 -0.67852
-0.59210134 0.6820185 -0.7170087 0.6641575 -0.61410594 -0.64550143 0.5897469 -0.5786174
-0.6825535 -0.6883338 -0.6968445 -0.7427624 -0.6059587 0.67964506 -0.07983681 -0.7597999
-0.278489 -0.6816803 -0.6208424 -0.6907232 -0.66096765 -0.7492235 -0.75692236 -0.6943244
-0.69355536 -0.5899598 -0.28836456 -0.6868661 -0.7103002 -0.6393547 -0.59362537 -0.5674404
-0.72382945 -0.5800341 -0.6571144 0.09830458 -0.61473066 -0.07787785 -0.87703997 -0.7160153
-0.61666363 -0.75127816 0.6137515 -0.58934236 0.6229709 -0.5628194 0.71393746 -0.65082365
-0.59725463 -0.6833057 -0.68298435 -0.7621731 -0.661441 -0.6832431 -0.6609073 -0.5857715
-0.756132 -0.32235834 -0.70665944 -0.57372403 -0.14765845 -0.65987295 0.59023917 0.6650774
-0.6135124 -0.48266643 -0.6977689 -0.6140712 -0.73084825 -0.69226027 -0.6807976 -0.7606835
0.757426 0.49817282 0.16523762 -0.97344077 -0.62428975 -0.57079023 0.36752966 -0.74972624
-0.7727677 0.6771083 -0.7186265 -0.61009437 -0.7084391 -0.61201066 0.5696862 0.6093653
-0.6454256 0.68150675 -0.28989252 -0.62414575 -0.09637625 -0.69165516 -0.644668 -0.785234
-0.059457596 0.70307064 -0.6440444 -0.66816974 0.6902325 0.6486709 -0.6530163 -0.39194968
-0.7558972 -0.67002773 0.5996895 -0.6683399 -0.6137665 -0.5875859 -0.5956787 -0.22580554
-0.73285896 0.7142503 -0.603741 0.5714728 -0.6939388 -0.5896499 -0.64802325 -0.7005384
-0.7893279 -0.65639365 -0.73032075 -0.6611888 -0.7418153 -0.121308364 -0.7114592 -0.6062087
-0.7046746 -0.7589718 -0.64268565 -0.5653178 -0.66199625 -0.77302366 0.62958574 0.7116293
00000000: 3580 01bf 7118 d43c 5151 28bf 9a72 11bf
00000010: 5122 47bf f0b8 41bf f9a4 253f 7137 c4bd
00000020: adfe 46bf 51ab 2a3f 1217 9ebe 02e1 1b3f
00000030: 4784 3fbf 20f3 343f 1d8e 45bf 3df8 31bf
00000040: 6ccd 213f c463 3cbf 15d3 663c 4424 43bf
00000050: 24f2 37bf c585 faba 2036 243f c09e 213f
00000060: e839 47bf 08f3 493f 2fb4 b13d ce64 4abf
00000070: 9901 24bf 4dda 413f 7a45 39bf fca3 0ebe
00000080: 0568 41bf 5ae3 b03d 4b84 21bf c798 373f
00000090: 6a0f 54bf 2572 2e3f 076d 2ebf 49c3 48bf
000000a0: f5cf 31bf d981 30bf 88e4 24bf 0ae4 31bf
000000b0: d1ec 3abf 96ac dfbe 7af8 31bf ab6c 1ebf
000000c0: edf7 2dbf 9789 48bf 816e 4d3f b782 52bf
000000d0: e5c9 3dbf 6f81 4bbf 26c7 36bf 10eb 1b3f
000000e0: 3604 20bf 5792 4d3c 0513 e3be 3be8 e9be
000000f0: bb6a 3ebf e931 2e3f b2c6 653d 2d6c 90be
00000100: c4a0 193f 273c 313f b156 a7bd 948a 3dbf
00000110: 1911 ffbe 169b 3dbf 98a2 4b3f d35e 883d
00000120: 0458 25bf 9d5e 463f b262 48bf 82b7 24bf
00000130: d96a 22bf a1ec 37bf 9b68 26bf 7800 3bbf
00000140: 89ee 1bbf ffb8 31bf e175 99bd 490a a1bd
00000150: a67b 06bf 9da5 1ebf 2afb 34bf 58b1 1d3f
00000160: bf31 1fbf bea5 33bf 0d83 433f c8a4 4abf
00000170: e1b5 c7bd d367 363f 7a28 1ebf dce7 1fbf
00000180: 1a24 cabe 4d8b 4abf 2673 78bd 4ccb 33bf
00000190: 16c1 2abf dd1b 1e3f 9195 15bf e85b 2cbf
000001a0: e770 81be fb15 38bf cde9 183f e250 303f
000001b0: ce64 dabc 4b7d 30bf 30c8 2ebf cbe2 3dbf
000001c0: 2f71 28bf 1e1e 09bd 3ed7 b6be 6e7f 20bf
000001d0: 3814 27bf 46cd 3abf 6929 213f 7db3 2dbf
000001e0: f493 17bf c498 2e3f e28d 37bf 3a06 2a3f
000001f0: 0c36 1dbf 953f 25bf a7f9 163f 4520 14bf
00000200: d4bb 2ebf a536 30bf 6764 32bf ad25 3ebf
00000210: 1c20 1bbf 38fd 2d3f 7b81 a3bd 3f82 42bf
00000220: 1c96 8ebe 9a82 2ebf 87ef 1ebf 3cd3 30bf
00000230: 2d35 29bf 1ccd 3fbf aac5 41bf 3ebf 31bf
00000240: d88c 31bf 9b07 17bf 85a4 93be 75d6 2fbf
00000250: 3cd6 35bf c0ac 23bf d5f7 17bf c643 11bf
00000260: e34c 39bf 1d7d 14bf a638 28bf e953 c93d
00000270: fd5e 1dbf 6c7e 9fbd b185 60bf c74c 37bf
00000280: abdd 1dbf c453 40bf d11e 1d3f 24df 16bf
00000290: 057b 1f3f ef14 10bf 9bc4 363f 619c 26bf
000002a0: aee5 18bf 1fed 2ebf 10d8 2ebf c71d 43bf
000002b0: 3354 29bf 05e9 2ebf 3931 29bf 1ff5 15bf
000002c0: de91 41bf 270c a5be a2e7 34bf 94df 12bf
000002d0: c733 17be 6fed 28bf ea19 173f 8342 2a3f
000002e0: 260f 1dbf 0e20 f7be fca0 32bf c533 1dbf
000002f0: df18 3bbf f837 31bf c048 2ebf 27bc 42bf
00000300: ace6 413f 8210 ff3e 0d34 293e 6a33 79bf
00000310: 74d1 1fbf 4f1f 12bf d92c bc3e 0fee 3fbf
00000320: 1bd4 45bf f856 2d3f e8f7 37bf 252f 1cbf
00000330: 445c 35bf bbac 1cbf f4d6 113f 5dff 1b3f
00000340: 9d3a 25bf 3a77 2e3f cb6c 94be 04c8 1fbf
00000350: e960 c5bd 5010 31bf f608 25bf 1805 49bf
00000360: cf89 73bd 70fc 333f 18e0 24bf 2c0d 2bbf
00000370: 14b3 303f 4c0f 263f 142c 27bf a1ad c8be
00000380: 7b82 41bf f086 2bbf 4085 193f 5318 2bbf
00000390: cd1f 1dbf 086c 16bf 667e 18bf 9139 67be
000003a0: a59c 3bbf 1cd9 363f c58e 1abf 0b4c 123f
000003b0: f9a5 31bf 4cf3 16bf dae4 25bf 7c56 33bf
000003c0: 6511 4abf 6a09 28bf 4df6 3abf ab43 29bf
000003d0: 9ce7 3dbf 8570 f8bd 3122 36bf 7e30 1bbf
000003e0: 8e65 34bf fa4b 42bf 0c87 24bf abb8 10bf
000003f0: 9678 29bf e1e4 45bf 882c 213f 562d 363f

fc3.bias f4 [100]
-0.40556517 0.22427915 -0.7580087 0.68617666 -0.75590515 -0.49756396 -0.772146 0.53884786
-0.7221597 -0.72702765 -0.66150415 0.8192238 -0.2594576 0.63950944 -0.6456894 -0.65752214
0.6403382 -0.58206886 -0.74159014 -0.7350353 -0.7136515 0.8189899 0.49015167 0.27210635
0.39990526 0.37862983 -0.62047696 -0.7744829 -0.66842115 0.6435968 0.05660471 -0.076427154
-0.47169343 -0.47715807 -0.60948825 -0.6850807 -0.6703802 0.53113055 -0.73482805 -0.04165844
-0.76293814 -0.47782922 -0.8211761 -0.16878326 -0.68448174 -0.54027957 0.7309732 -0.6824623
-0.76726675 -0.77907217 -0.73012114 -0.6704399 -0.798415 -0.5770415 -0.68390745 -0.75208616
-0.14221105 0.115776286 0.63681686 -0.75405914 -0.7206096 0.6813137 0.6532535 0.62429947
-0.647196 0.23274936 0.60007524 -0.687294 -0.15241092 -0.7149362 -0.13251495 0.7489834
0.45436248 -0.54492867 0.6546469 0.73763907 -0.42322093 -0.7322148 0.39307114 -0.67695326
-0.6717206 0.104154974 -0.1495216 -0.7822882 -0.6991881 -0.69622004 -0.6468081 0.2934827
-0.88303083 0.8002509 -0.6918823 -0.3836539 0.50388414 -0.5895556 -0.59802365 -0.5443042
-0.21590182 -0.11142607 0.46820265 -0.7891151
00000000: 3da6 cfbe 6fa9 653e dc0c 42bf 46a9 2f3f
00000010: 0083 41bf b4c0 febe 5cab 45bf eff1 093f
00000020: 75df 38bf 7c1e 3abf 5658 29bf a7b8 513f
00000030: a0d7 84be e4b6 233f e74b 25bf 5f53 28bf
00000040: 34ed 233f 7702 15bf dad8 3dbf 462b 3cbf
00000050: ddb1 36bf 52a9 513f 29f5 fa3e 8651 8b3e
00000060: 62c0 cc3e c5db c13e 94d7 1ebf 8344 46bf
00000070: a61d 2bbf c3c2 243f 57da 673d d785 9cbd
00000080: cd81 f1be 104e f4be 6c07 1cbf 7361 2fbf
00000090: 099e 2bbf 2cf8 073f b11d 3cbf 0aa2 2abd
000000a0: ea4f 43bf 08a6 f4be 9938 52bf 85d5 2cbe
000000b0: 323a 2fbf c34f 0abf 0f21 3b3f d9b5 2ebf
000000c0: 986b 44bf 4671 47bf 38e9 3abf f3a1 2bbf
000000d0: ed64 4cbf feb8 13bf 8f14 2fbf b888 40bf
000000e0: c69f 11be 1e1c ed3d 6e06 233f 050a 41bf
000000f0: df79 38bf 936a 2e3f 9f3b 273f 17d2 1f3f
00000100: a3ae 25bf d955 6e3e 889e 193f 80f2 2fbf
00000110: 9c11 1cbe 0f06 37bf 00b2 07be 60bd 3f3f
00000120: 33a2 e83e 7280 0bbf f096 273f ead5 3c3f
00000130: 6ab0 d8be 6e72 3bbf 9f40 c93e cf4c 2dbf
00000140: e2f5 2bbf 344f d53d 311c 19be 0a44 48bf
00000150: fefd 32bf 7a3b 32bf 3795 25bf 5d43 963e
00000160: 4f0e 62bf 3edd 4c3f 331f 31bf 496e c4be
00000170: 8dfe 003f 1eed 16bf 1418 19bf 8557 0bbf
00000180: 5e15 5dbe 5a33 e4bd 42b8 ef3e 7203 4abf

fc4.weight f4 [6, 100]
0.03389502 -0.6544663 -0.4825746 0.11130928 -0.648635 -0.5351377 -0.64681745 0.045157388
-0.6907018 -0.00032970568 -0.5976277 0.29119387 0.16893163 0.59796286 0.07708458 -0.6877892
0.0066189226 -0.3760696 -0.5549217 -0.5053701 -0.69966024 0.5717902 0.68841815 0.35710752
0.60800314 -0.3063587 -0.6572599 -0.63151675 -0.6431472 0.43333894 0.18684866 0.7083406
0.35939142 -0.32801434 -0.6957909 -0.5641707 -0.7081442 0.53234595 -0.6081581 0.109047204
-0.8948599 0.016503677 0.17307499 0.3598109 0.09522712 -0.0781447 0.03837965 -0.6700468
-0.67537993 -0.74851394 -0.6130093 -0.5929222 -0.18399635 0.52777565 -0.62328553 -0.76538503
0.31392008 0.5793453 0.33942482 -0.7121473 -0.64366925 0.5689552 0.48087117 0.62241554
-0.6668315 -0.51420087 0.62588876 -0.6832164 0.58395004 -0.08350562 -0.0016182234 0.1415517
-0.4714169 -0.5933022 0.6357158 -0.43793863 -0.27031657 -0.67323387 0.35424393 -0.62257075
-0.5928604 0.08904935 0.003227437 -0.86203915 0.7250157 0.234931 -0.6216952 -0.14767388
-0.8299386 0.440869 -0.5885867 0.53576505 -0.42431414 -0.38999057 0.75351775 0.5167584
0.03256134 0.5765649 0.07342673 0.20997217 -0.7222013 -0.4327783 -0.6061363 -0.0511239
0.46513063 0.017397564 0.6254697 0.6852836 0.41824648 0.33572754 0.70818186 0.6014777
0.21613173 0.44294035 -0.63099504 0.6193911 -0.76627004 0.2596221 -0.12636675 -0.46103624
0.6335873 -0.3061888 -0.48760715 -0.6349046 -0.7855722 0.42647412 0.61087203 0.60607976
0.65613526 0.4681855 0.23583363 -0.6609039 -0.65528417 0.28789085 0.7060596 -0.5364109
0.28242162 -0.6136873 0.74483466 0.20259121 0.30580857 -0.74575436 -0.60482806 -0.07200846
-0.25335303 0.12596597 -0.65414286 0.6401767 0.60645103 -0.53100735 0.6785587 0.6836676
0.07768118 -0.6008153 0.7191844 0.68289334 0.50035924 -0.75359315 0.64292645 0.59994495
0.6372537 -0.5583315 0.49795774 -0.5703515 0.62596303 -0.39812762 -0.60070896 0.6254837
-0.72191405 0.74769086 -0.80232245 0.22017388 -0.6648311 0.7026662 -0.61961323 0.38528466
0.3952381 0.6615749 0.2635988 0.607898 0.7192335 -0.561631 0.7823121 0.313371
-0.6154877 0.6476128 0.6167343 -0.21802528 0.43376094 0.303172 0.62009436 -0.77696383
0.4314099 0.39248386 0.7446325 -0.2656268 0.43235275 -0.6313067 0.5855497 -0.09523891
0.69149655 0.5568336 0.63686603 -0.28921574 -0.7671271 -0.6696028 -0.6801049 -0.74720734
-0.6325845 0.7544909 -0.62739617 -0.7307007 -0.51965946 -0.6518649 0.625008 -0.5837031
-0.022953724 0.58179885 0.6606531 -0.71633446 -0.6498074 -0.5087588 0.70068663 -0.76995397
-0.74789315 -0.8321262 0.52351886 -0.5790134 -0.64031667 -0.767234 -0.7447788 -0.6510062
-0.6740497 -0.80512667 -0.13759357 0.60039043 0.6587938 0.11932174 -0.61739403 -0.4336266
-0.73764384 -0.7790473 0.55381304 0.19052012 0.22039452 0.41743812 0.40552887 -0.6083831
-0.6486038 0.5831894 -0.7836476 -0.6879914 -0.26135904 0.62861717 -0.6665848 -0.6359808
00000000: 81d5 0a3d 1a8b 27bf 0514 f7be 1ff6 e33d
00000010: f20c 26bf c9fe 08bf d495 25bf f4f6 383d
00000020: d5d1 30bf 59dc acb9 21fe 18bf 5d17 953e
00000030: 6afc 2c3e 1814 193f 85de 9d3d f412 30bf
00000040: 8ce3 d83b 328c c0be 590f 0ebf ef5f 01bf
00000050: ef1c 33bf d860 123f 2c3c 303f ccd6 b63e
00000060: 18a6 1b3f 0cdb 9cbe 2f42 28bf 15ab 21bf
00000070: 4ba5 24bf 9ade dd3e 4155 3f3e cf55 353f
00000080: 2702 b83e 7ff1 a7be 5a1f 32bf 7e6d 10bf
00000090: f048 35bf d347 083f 40b0 1bbf 2454 df3d
000000a0: 8a15 65bf b832 873c 923a 313e 2239 b83e
000000b0: 7006 c33d 540a a0bd fb33 1d3d 3088 2bbf
000000c0: b3e5 2cbf 9c9e 3fbf 2dee 1cbf c0c9 17bf
000000d0: 8a69 3cbe 4e1c 073f a48f 1fbf 46f0 43bf
000000e0: 22ba a03e f94f 143f 17c9 ad3e 494f 36bf
000000f0: 82c7 24bf 0ca7 113f bf34 f63e a056 1f3f
00000100: 78b5 2abf aba2 03bf 3f3a 203f 45e7 2ebf
00000110: c07d 153f ff04 abbd 911a d4ba eef2 103e
00000120: 8e5d f1be a7e2 17bf 45be 223f 7e39 e0be
00000130: ef66 8abe 0e59 2cbf 765f b53e cc60 1fbf
00000140: b3c5 17bf 815f b63d 6883 533b 99ae 5cbf
00000150: a19a 393f c191 703e 6b27 1fbf d237 17be
00000160: db76 54bf 95b9 e13e 9ead 16bf e627 093f
00000170: b43f d9be d8ac c7be 8ae6 403f 474a 043f
00000180: 0a5f 053d c299 133f c160 963d f202 573e
00000190: 2fe2 38bf 1e95 ddbe c02b 1bbf 4b67 51bd
000001a0: 9a25 ee3e 5685 8e3c c81e 203f bf6e 2f3f
000001b0: 6724 d63e 7be4 ab3e 684b 353f 71fa 193f
000001c0: a351 5d3e 14c9 e23e e488 21bf 6a90 1e3f
000001d0: 462a 44bf 30ed 843e 4966 01be f10c ecbe
000001e0: c732 223f c7c4 9cbe a5a7 f9be 1c89 22bf
000001f0: 421b 49bf d15a da3e 1c62 1c3f 0b28 1b3f
00000200: 7bf8 273f 03b6 ef3e 5f7e 713e ff30 29bf
00000210: b4c0 27bf 6e66 933e 52c0 343f 3a52 09bf
00000220: 9199 903e 9c1a 1dbf 7cad 3e3f 1274 4f3e
00000230: f192 9c3e c2e9 3ebf 03d6 1abf 2c79 93bd
00000240: 7db7 81be 39fd 003e e875 27bf 9fe2 233f
00000250: 6040 1b3f 19f0 07bf 06b6 2d3f d704 2f3f
00000260: 4f17 9f3d 08cf 19bf 781c 383f 19d2 2e3f
00000270: 8b17 003f 7beb 40bf d496 243f fe95 193f
00000280: 0f23 233f d0ee 0ebf 51f4 fe3e 8e02 12bf
00000290: 1d3f 203f 62d7 cbbe 10c8 19bf b31f 203f
000002a0: 5ccf 38bf ab68 3f3f 0165 4dbf 4375 613e
000002b0: 5f32 2abf efe1 333f f99e 1ebf 0844 c53e
000002c0: a65c ca3e f95c 293f 6cf6 863e 349f 1b3f
000002d0: b01f 383f 0dc7 0fbf 9b45 483f 2a72 a03e
000002e0: 9a90 1dbf f4c9 253f 4de2 1d3f 0542 5fbe
000002f0: ea15 de3e 5c39 9b3e 81be 1e3f 1ae7 46bf
00000300: c2e1 dc3e a5f3 c83e 3ca0 3e3f 3c00 88be
00000310: 575d dd3e 519d 21bf 96e6 153f 9e0c c3bd
00000320: eb05 313f a68c 0e3f a709 233f 1614 94be
00000330: 7162 44bf 176b 2bbf 5b1b 2ebf fb48 3fbf
00000340: 0ff1 21bf 5126 413f 099d 20bf 330f 3bbf
00000350: 6708 05bf 9ee0 26bf 8600 203f 916d 15bf
00000360: 7309 bcbc c5f0 143f 9020 293f b261 37bf
00000370: c759 26bf 043e 02bf 3360 333f b41b 45bf
00000380: ed75 3fbf 3906 55bf 5505 063f 393a 14bf
00000390: cbeb 23bf 7369 44bf d3a9 3ebf 58a8 26bf
000003a0: 858e 2cbf c81c 4ebf 54e5 0cbe 30b3 193f
000003b0: b6a6 283f f55e f43d 890d 1ebf 4e04 debe
000003c0: 3ad6 3cbf a56f 47bf b1c6 0d3f b517 433e
000003d0: 1aaf 613e 73ba d53e 7ba1 cf3e ffbe 1bbf
000003e0: e60a 26bf e74b 153f 219d 48bf 3420 30bf
000003f0: dad0 85be 0eed 203f 4da5 2abf a3cf 22bf

fc4.bias f4 [6]
-0.3291425 0.55474627 -0.73575836 -0.85940194 -0.6916498 0.8163452
00000000: 5e85 a8be da03 0e3f a95a 3cbf c401 5cbf
00000010: f60f 31bf 00fc 503f
