figs/diff_hiddenlayers/100/mlp_model_dict.pt (torch, 170703 bytes, 206 tensors)

group.0.weight f4 [100, 100]
000000 9d 69 7a be d3 6c b4 3d ab 14 6a 3e a9 9b 77 be
       -0.24454351 0.08809819 0.22859447 -0.24180473
000010 88 a9 0c 3d 8e e1 e8 bd e0 ca 36 be dd e9 e6 bd
       0.034341365 -0.11371146 -0.17850828 -0.11275075
000020 45 24 36 be ae 2a 15 be 93 94 fb 3d 89 27 59 be
       -0.17787273 -0.14567062 0.12284198 -0.21206488
000030 10 ef ec bd 12 54 6b be b6 d6 c7 bd d6 33 3d be
       -0.11569035 -0.22981289 -0.0975775 -0.18476805
000040 be 90 14 be 69 93 70 be 8d 26 cc bd df 09 29 be
       -0.1450834 -0.23493733 -0.099682905 -0.16507672
000050 93 da 5a be 24 bd c0 bd a6 a0 38 be c9 54 79 be
       -0.21372442 -0.09411076 -0.18030033 -0.24348749
000060 aa d0 5e be d8 e1 86 be 82 89 3b be 4f d6 85 be
       -0.21759287 -0.2634418 -0.18314174 -0.26140067
000070 80 17 80 be 37 a3 0c be 2b 00 22 3e 86 24 b7 3d
       -0.2501793 -0.13734137 0.15820377 0.08942513
000080 75 72 3a be 05 3c 85 be 89 52 dc 3d 08 ea d5 bd
       -0.18207724 -0.26022354 0.1075793 -0.104450285
000090 e0 c5 3e be 3f a0 91 be 3d 4e 36 be 8d fd 6d be
       -0.18630171 -0.2844257 -0.17803283 -0.23241253
0000a0 06 20 1d be 7f 85 bd bd fb fa 39 be 68 fa 0e be
       -0.15344247 -0.09253978 -0.18162148 -0.1396271
0000b0 ab 03 a9 bd df 95 41 3e 69 4d e5 bd 5f a2 82 be
       -0.08252653 0.18904828 -0.111964054 -0.25514504
0000c0 6d fc d3 3d 03 bf dd bd c2 34 3f 3e 2c b4 2c 3d
       0.10350881 -0.10827448 0.1867247 0.042164013
0000d0 52 3b 40 be 39 0c 05 be e0 c0 29 be a6 6b cf bd
       -0.18772629 -0.12992944 -0.16577482 -0.10127954
0000e0 f2 bb fe 3d b2 65 1e 3e 29 24 54 3e 15 79 23 be
       0.124381915 0.15468481 0.20716919 -0.15964158
0000f0 ba eb 40 be ef dd 6e be cc 29 32 be 53 4f 28 3e
       -0.18839923 -0.23326848 -0.17398757 0.1643651
000100 fc 22 43 be eb 5c 99 bd 13 38 2b be 4c ed 21 be
       -0.19056314 -0.07488426 -0.1672061 -0.15813178
000110 90 6c 87 be 01 2c 86 be 25 3b e9 bd 2a ca 72 be
       -0.26450014 -0.26205447 -0.11388234 -0.23709932
000120 12 dc ad bd 05 82 4a 3e 8d 1a 87 be 11 9d a3 bd
       -0.08489241 0.19776161 -0.26387444 -0.079889424
000130 2e 30 73 be 92 20 35 be fa 2e 00 be 3a 69 a9 bd
       -0.23748848 -0.17688206 -0.1251792 -0.082720235
000140 b7 ac 91 be ca 68 06 be 34 96 20 3e 0c 46 0b be
       -0.28452083 -0.13125911 0.15682298 -0.1360094
000150 42 85 18 be 60 ec d3 bd 89 4f a2 bd 92 95 75 be
       -0.14894584 -0.10347819 -0.079253264 -0.23982838
000160 7e 9b 3b be 6d a2 c6 bd 77 9a 5a be b0 18 3e be
       -0.18321034 -0.09698949 -0.21347986 -0.18564105
000170 e5 58 55 be 5f 31 2f 3e ae 31 54 3d 6c fe 0d be
       -0.20834692 0.17108677 0.05180519 -0.13866585
000180 31 bb 8b be 6e 71 65 be 81 4d 61 be 2f 7a 01 be
       -0.27291253 -0.22406551 -0.22002222 -0.12644266
000190 cc c7 8d be f8 2e ef bd 9b cc 2d be e2 a4 3e 3e
       -0.27691495 -0.116788805 -0.16972582 0.18617585
0001a0 96 e5 3e be a0 79 63 be 8b 60 88 3e 92 e2 0d 3e
       -0.18642268 -0.22214365 0.26636156 0.13855961
0001b0 35 ab 61 be d2 8c 91 3e 2e 70 33 be 27 65 0b be
       -0.22037967 0.2842775 -0.17523262 -0.13612805
0001c0 74 f0 b2 bd 5f 61 a4 be 63 9a 65 be d2 5a 02 be
       -0.08737269 -0.32105538 -0.22422175 -0.12729958
0001d0 46 53 50 be cc e9 48 be 89 78 fd bd d6 67 9b 3e
       -0.20344266 -0.19620436 -0.12376506 0.30352658
0001e0 7c 76 5d be 2f 10 b2 be 93 af 6b bd 18 ef e8 bd
       -0.2162723 -0.34777972 -0.057540487 -0.113737285
0001f0 8a 40 0d be 31 33 65 be 4d 6b 10 be 48 0d 84 be
       -0.13794151 -0.22382809 -0.14103432 -0.25791383
000200 a6 33 6a be 54 bb 29 be 72 c8 85 be 7c bc 7c be
       -0.22871265 -0.16575366 -0.2612949 -0.24681276
000210 8c 53 70 be 06 31 8b be 9a 2f 3a be 6f d3 75 be
       -0.2346937 -0.2718584 -0.18182221 -0.24006437
000220 77 9a 9d be 4f bf ad be ef b8 95 be 2d 56 30 be
       -0.3078191 -0.3393502 -0.29242656 -0.17220373
000230 ee 29 b4 bb ee 02 f2 3d a9 ca 32 be 61 fb dd be
       -0.0054981625 0.11816965 -0.17460121 -0.4335585
000240 82 02 81 be 1f dc da bd 0d 94 58 be 33 91 8f 3d
       -0.25197226 -0.10686516 -0.21150227 0.070101164
000250 92 21 8c be 4a 2e 87 be b3 61 6e be e1 b2 07 be
       -0.27369362 -0.26402503 -0.23279457 -0.1325183
000260 4d 1f 60 be de 96 85 be aa 1a 2c be 29 f1 a9 bd
       -0.2188694 -0.26091665 -0.16807047 -0.08297951
000270 ca 13 24 be 25 84 79 be ad 58 91 be 7e 44 35 3e
       -0.16023174 -0.24366815 -0.28387967 0.17701909
000280 ad 0f 49 be 76 c5 8e be bf 0d 64 be 05 20 88 be
       -0.19634886 -0.27885026 -0.22270869 -0.2658693
000290 ec f6 27 be fc 84 92 3d c6 61 13 be 78 3c 82 3e
       -0.16402787 0.07154271 -0.14392766 0.2543676
0002a0 6b ae 8b be f6 86 56 be 91 fd 59 be cf aa 8d be
       -0.27281508 -0.20949921 -0.21288134 -0.2766938
0002b0 67 e6 33 be f0 27 aa be 42 22 9a 3e 37 f9 5d be
       -0.1756836 -0.33233595 0.30104262 -0.21677099
0002c0 01 7c 65 be 18 6e 70 be 8f c3 53 be 2e 4e a0 be
       -0.22410585 -0.23479497 -0.20680068 -0.31309646
0002d0 ac 51 3f be 26 ee 79 be b4 3a 92 be e0 d9 c1 bd
       -0.18683499 -0.24407253 -0.28560412 -0.094653845
0002e0 94 a0 46 3e d0 55 86 be a3 a8 a0 be 3a ec 00 3e
       0.19397193 -0.26237345 -0.3137866 0.12590113
0002f0 f3 be 0f 3e 0f 0a 01 be f5 ef e1 3d 32 2c 51 be
       0.14037685 -0.12601493 0.11032096 -0.20427015
000300 d5 bb 9a 3e fc ab 00 be be a4 8a be 23 4a 76 be
       0.3022143 -0.12565607 -0.27078813 -0.24051718
000310 e4 45 a4 be bd db 9f 3e 25 8f 39 be dc 14 75 be
       -0.32084572 0.31222335 -0.18121012 -0.23933738
000320 48 2f 8e be cd 8d 94 be 0f f6 90 be af f2 fd bd
       -0.27770448 -0.29014435 -0.28312728 -0.12399804
000330 fd 7f 65 be 2e 96 4f be 72 d3 9d 3e 1a b4 a0 3e
       -0.22412105 -0.20272133 0.30825382 0.31387407
000340 f5 83 8e be f3 34 8a be da 78 19 be e6 55 96 be
       -0.2783505 -0.26993522 -0.14987507 -0.2936241
000350 87 cb 6a 3e 12 0b 8d be 35 a5 07 be 30 7f 21 be
       0.22929202 -0.27547508 -0.13246615 -0.15771174
000360 4e f2 38 be 59 ba 87 be 49 5d 29 be 5b 46 22 3e
       -0.18061182 -0.2650936 -0.16539492 0.15847151
000370 19 f4 9d be 82 a7 0e 3e f2 26 1e 3c 0a 36 5f be
       -0.30850294 0.13931087 0.00965284 -0.21797958
000380 0d aa 6a 3e b1 b3 83 be 2d e0 26 be 04 20 09 3e
       0.22916432 -0.2572303 -0.16296454 0.13391119
000390 52 85 20 3e 57 8f 2b be f4 06 4a be 76 5e 83 be
       0.15675858 -0.16753899 -0.19729215 -0.25658005
0003a0 4c 4f eb bd a0 bb d3 3d 2f a0 5d be 5a 73 93 be
       -0.11489734 0.10338521 -0.21643136 -0.28798944
0003b0 8a af 3f 3e 78 e6 61 be c2 c6 85 be 22 b9 9d 3e
       0.18719307 -0.22060573 -0.26128203 0.30805308
0003c0 43 c3 da 3d 91 e6 64 be 1b 12 4a bc af ff 1b be
       0.106817745 -0.22353579 -0.012333418 -0.15234254
0003d0 2d 82 02 be 38 e1 8c be 66 1a 22 be db b2 91 3e
       -0.1274497 -0.27515578 -0.15830383 0.28456768
0003e0 61 a9 84 be e9 8f 52 be 09 3e 38 be 6e d0 5c be
       -0.25910476 -0.2056271 -0.17992415 -0.21563885
0003f0 c8 c2 63 be 51 6c 9b be 17 10 21 be e8 84 f1 bd
       -0.22242272 -0.30356076 -0.15728794 -0.11792928

group.0.bias f4 [100]
000000 13 51 4c be 3a 9c 12 3e b4 db 97 be 9d ca 06 be
       -0.19952802 0.14317408 -0.29659808 -0.13163228
000010 97 34 b1 3d ef de 34 3e f9 b5 03 be ba d8 16 be
       0.08652609 0.17663167 -0.12862386 -0.14731112
000020 82 5b 9f be 8c 4f 29 be f6 1e 96 be 8f ff 10 be
       -0.31124502 -0.16534251 -0.29320496 -0.14159988
000030 ea ae 5c be cb d9 79 3e 75 e4 a7 3e c9 8b c1 3e
       -0.215511 0.24399488 0.32791486 0.3780196
000040 3d e3 bd 3e 7e 3a 33 3e d3 b0 77 be 7f 98 26 be
       0.37087432 0.17502782 -0.24188547 -0.1626911
000050 71 87 88 3e f7 9c 20 be 5a 73 9e be 1e 7d 0b be
       0.26665834 -0.15684877 -0.3094738 -0.13621947
000060 d9 ef 8d be 89 32 8f be c3 0c c4 3e 78 1c a0 be
       -0.27722052 -0.27968243 0.38290986 -0.3127172
000070 94 4e 95 be 2a 23 4e be 4b e3 54 3e 5a 4d c4 3e
       -0.29161513 -0.20130602 0.2078983 0.38340265
000080 62 d1 37 be 02 b3 92 be d0 67 21 3e 63 d5 94 be
       -0.17950967 -0.28652197 0.15762258 -0.2906905
000090 76 e6 65 be 54 e2 41 3e 3b 28 52 be c5 7a b3 be
       -0.22451195 0.18933994 -0.20523159 -0.35054603
0000a0 59 fd a7 be b1 32 9b be e2 51 6b be 9b 03 49 3e
       -0.32810476 -0.30312112 -0.22980455 0.19630282
0000b0 6f fc a5 be 38 e2 8d 3e 9d f0 b6 3e 45 9b 8a be
       -0.32419154 0.27711654 0.35730448 -0.27071586
0000c0 d4 73 54 be 0a 70 84 3e 1e 8d 52 3e e1 d5 9f 3d
       -0.2074731 0.2586673 0.20561644 0.07804466
0000d0 57 c5 8e 3e 45 9b 94 be 31 7e 21 3e 0e 4a ad 3e
       0.27884933 -0.2902471 0.15770794 0.33845562
0000e0 45 11 76 be a5 09 83 3d b4 21 95 be f7 a7 0c be
       -0.24030025 0.06398324 -0.29127276 -0.13735949
0000f0 6a 42 41 3e 32 f1 43 3e 2d 77 74 be 6e 8b 9c be
       0.18872991 0.19134977 -0.23873587 -0.30575126
000100 37 27 c5 3e 30 8d 7b be a4 93 fb 3d 1d 8d 0a be
       0.3850648 -0.24565578 0.122840196 -0.13530393
000110 e5 7d 98 be e0 df 91 3d a4 e3 c5 be ac 46 83 be
       -0.2978355 0.07122779 -0.3865024 -0.25639856
000120 41 bc d3 3e be d3 1a be ea 5c 42 be 43 6e a2 be
       0.41354564 -0.15119836 -0.18980756 -0.31724748
000130 d2 f9 ab 3e d1 7b d0 3d 7e d8 53 3e 3c 29 1e 3e
       0.33589035 0.10179866 0.20688054 0.15445417
000140 1a 10 cd bc 9b ed 4d 3e 2c 27 3c be 08 bb 14 3e
       -0.025032092 0.2011017 -0.18374318 0.14524472
000150 de a9 fe bd 5d aa b6 be 68 50 00 be bc 0d 4e be
       -0.12434743 -0.35676852 -0.12530673 -0.20122427
000160 4b a4 28 be 54 29 a0 be 0b 45 2f be 96 41 af 3e
       -0.16468923 -0.3128153 -0.17116182 0.34229726
000170 2e 3f 59 be 56 b0 94 be 73 99 35 3e cd 50 3b be
       -0.21215507 -0.29040784 0.17734317 -0.18292542
000180 db 56 e1 3c d6 7f 48 be 7e f5 d8 3d 23 b0 26 3e
       0.027507236 -0.19580016 0.10593699 0.16278128

fc1.weight f4 [100, 240]
000000 48 a2 ab be 5d a0 a6 be 7d 11 01 be a7 21 a7 3d
       -0.33522248 -0.32544222 -0.12604327 0.081607156
000010 ec 51 8d 3d c7 24 ab 3d dc 2d 20 3d 92 4f 30 3d
       0.06900391 0.08356624 0.039106235 0.043044634
000020 00 7f cc bd b6 c9 42 be e9 e1 ef bc c6 93 79 3e
       -0.09985161 -0.19022259 -0.029282527 0.24372777
000030 91 7a 8b 3e 4f 4f b4 3d e9 22 14 3d 8a 50 28 3d
       0.27241948 0.088041894 0.036166105 0.041092433
000040 09 6e bf 3d 23 b5 a3 be 3c 62 8b be 00 9a 85 3d
       0.093471594 -0.31974134 -0.27223384 0.06523514
000050 20 7f 96 3e 9b 05 94 3e b2 21 4e 3e 6a 55 dd 3d
       0.29393864 0.28910527 0.20130041 0.10807307
000060 a8 58 11 3e b3 59 26 3d a1 c6 a0 be 18 0e f8 3d
       0.14193976 0.040612888 -0.31401542 0.12112063
000070 b9 63 b1 3d e8 38 d5 3d 7f f7 02 3e 83 c8 03 3e
       0.08661599 0.10411245 0.12789725 0.12869458
000080 53 d2 b7 bd 4d 41 ce bd da 06 2e be 31 e6 d5 bc
       -0.08975663 -0.10071049 -0.16994801 -0.02611074
000090 d2 21 19 3d 52 13 13 3e f7 d2 06 3e 5c f9 8c 3e
       0.03738577 0.14362839 0.13166414 0.27533996
0000a0 c2 c6 82 3e 8b 43 82 be 03 50 62 be 3d 8f 8e be
       0.25542265 -0.25442156 -0.22100835 -0.27843657
0000b0 f5 b0 0e 3d da 9e 79 3d 72 d2 f6 3d 83 05 00 3e
       0.034836728 0.06094251 0.12051858 0.12502103
0000c0 d6 10 4f be 28 3a 65 be d0 c0 7c be 74 89 a9 be
       -0.20221266 -0.22385466 -0.24682927 -0.3311268
0000d0 23 c3 43 3e 65 77 8f 3e 70 6c 76 3e 73 64 a2 3d
       0.19117408 0.28020778 0.24064803 0.079293154
0000e0 15 8e e7 3d d9 07 e0 3d c9 e8 ad be ae be 81 be
       0.11306397 0.10938997 -0.33966663 -0.2534079
0000f0 7a 33 f9 3c 6e e2 a1 3d 1b cf db 3d 5f 08 ff 3d
       0.030420054 0.07904516 0.107328616 0.124527685
000100 e4 23 60 be 3e 78 96 be c3 75 72 be 0b 23 a6 be
       -0.21888691 -0.29388613 -0.23677735 -0.3244861
000110 b3 f2 d9 bc e9 4f 47 3d 1b 6a 00 3e 8b 53 0c 3e
       -0.026604986 0.048660193 0.12540476 0.13703744
000120 ae f0 97 3d 60 8c 31 3e e3 41 81 be 26 88 9c be
       0.07418953 0.17338705 -0.2524558 -0.30572623
000130 53 28 8e 3d 54 af f1 3c e0 a8 d3 3d 84 a2 a6 3c
       0.06941285 0.029502548 0.10334945 0.020341165
000140 9c cc 71 be 73 ee 3e 3d 5e 03 a7 be 67 36 8e be
       -0.23613209 0.04661412 -0.32619756 -0.2777588
000150 82 d0 8e be f6 a8 9c be a2 14 98 be a4 67 98 be
       -0.27893454 -0.30597657 -0.29703242 -0.29766572
000160 88 a6 c5 3d 43 9f ad be 9b 92 72 be 7c fb a2 be
       0.09650904 -0.3391057 -0.23688738 -0.31832492
000170 d4 b9 94 be be cf 66 be e2 be fa bd 29 56 b0 be
       -0.29048026 -0.22540185 -0.12243439 -0.34440735
000180 de 67 82 be 49 28 7a be c0 80 ad 3d a8 68 96 be
       -0.2546987 -0.2442943 0.08471823 -0.2937672
000190 70 ea 87 be d6 23 b0 be d5 2e 80 be 01 ab 59 3d
       -0.2654605 -0.3440234 -0.2503573 0.053141598
0001a0 50 c5 8f 3c 41 43 ac be f7 f7 6b be 99 26 b0 be
       0.01755014 -0.3364506 -0.2304381 -0.34404448
0001b0 f8 f3 81 be ec 99 a9 be 84 14 ab be 45 14 91 be
       -0.25381446 -0.33125246 -0.3341409 -0.28335777
0001c0 d0 fa 85 be 4e 39 9d be 12 98 75 3d 9d 8c 94 be
       -0.26167917 -0.30707783 0.05995948 -0.2901353
0001d0 ba 2c 80 be db 14 6f be 2a f4 7d be e7 27 7e be
       -0.25034124 -0.233478 -0.24800172 -0.24819909
0001e0 42 bc 58 3d bb 5b ca 3d ee e0 96 be 42 86 9a be
       0.05291391 0.098807774 -0.29468483 -0.30180556
0001f0 67 28 b2 be fc 79 6e be 6a 43 9d be a0 11 9a be
       -0.3479645 -0.23288721 -0.30715495 -0.30091572
000200 7e 29 70 be 22 50 7c be 3c 58 b1 be c9 24 84 be
       -0.23453328 -0.24639943 -0.3463763 -0.25809315
000210 b0 5f 7e be c3 cc b1 be 41 f1 af be 0b 8b aa be
       -0.2484119 -0.34726533 -0.3436375 -0.33309206
000220 7a 12 81 3d 74 2f 2c 3d b4 03 af be c9 5b 9b be
       0.06302352 0.042037442 -0.34182513 -0.30343464
000230 25 38 99 be 3f c1 9d be 37 08 77 be ee 6b a1 be
       -0.29925647 -0.30811498 -0.24124227 -0.31527656
000240 70 65 70 be 16 9b 9e be 43 c2 a1 be 14 30 87 be
       -0.23476195 -0.30977696 -0.31593522 -0.26403868
000250 33 85 ae be 47 09 83 be 5c c1 a1 be 38 5e 96 be
       -0.34085998 -0.25593016 -0.31592834 -0.29368758
000260 f5 b6 b5 3d e3 42 8a 3c f4 3d 7a be 21 df 9d be
       0.08872787 0.016877597 -0.24437696 -0.30834296
000270 1e 22 7a be 28 71 a6 be 5f 6b 6d be a6 b4 6d be
       -0.24427077 -0.32508206 -0.2318549 -0.23213443
000280 9f 33 e3 bd 8d 74 d4 bd c2 cc 47 bd b7 7b a7 be
       -0.1109383 -0.10373793 -0.048779257 -0.32711574
000290 f2 11 b2 be 86 0a b2 be 0d f2 53 be 13 35 d7 bc
       -0.34779316 -0.34773654 -0.20697804 -0.026270425
0002a0 b9 f1 9a bc 3b 6c 17 be 0f 72 12 bd ad ea ed bd
       -0.01891409 -0.1478738 -0.035753306 -0.116170265
0002b0 ba 66 84 be de 3f a8 be be 6d 89 be 9e 5e 85 be
       -0.25859624 -0.32861227 -0.2684154 -0.2604875
0002c0 c2 da 44 bd 11 db f9 bd c2 31 84 3e 93 37 1f be
       -0.048060186 -0.12199987 0.25819212 -0.15548544
0002d0 71 ac a6 be 74 be 14 be 5c 5f 82 3e 61 91 b1 3d
       -0.32553437 -0.14525777 0.25463378 0.08670307
0002e0 33 ad ca bd 58 32 9a be 67 71 ae bc 9f 4f 7d be
       -0.098963164 -0.30116534 -0.021294309 -0.24737404
0002f0 17 01 d2 bd 74 6a e3 bd c1 58 04 be 50 7b 86 bd
       -0.10254114 -0.11104289 -0.12924482 -0.06566489
000300 61 5f 1c bd 8b b5 aa be f6 75 8e be 18 af 7b be
       -0.038176898 -0.3334163 -0.27824372 -0.24578512
000310 37 31 4b be 9d 82 a9 be 74 87 cd bd 82 6d 70 3e
       -0.19842993 -0.33107463 -0.10035601 0.23479274
000320 fd de 83 3e 68 e8 7d bd 22 e1 92 be d7 c2 af be
       0.25756064 -0.061989218 -0.28687388 -0.34328339
000330 4c c1 64 3d d3 f4 7a bd ca f8 84 be 8a a7 ac be
       0.055848405 -0.06126864 -0.2597106 -0.33721572
000340 f9 de 95 be 91 54 ed bd d7 49 67 be 58 26 73 3e
       -0.29271677 -0.115883954 -0.22586761 0.23745096
000350 60 84 f2 bd 58 e6 da 3b 8f 2f 8e be 5d 33 9f 3e
       -0.11841655 0.006680291 -0.2777066 0.31093875
000360 0e ef 1b 3d b9 a0 52 bd 15 75 9e be 25 74 9c be
       0.038069777 -0.05142281 -0.30948702 -0.3055736
000370 33 c3 05 be 8c 3d f1 bd e9 19 a1 bd af ca 0b be
       -0.13062744 -0.11779317 -0.0786627 -0.13651536
000380 f1 1e 73 be c8 f2 9c be 61 ae 17 be 30 c4 3d bd
       -0.23742272 -0.30653977 -0.14812614 -0.046329677
000390 9e 33 53 bd e7 72 b2 bd 9e 4b dd bd 98 2a 9a 3d
       -0.051562898 -0.08713322 -0.108054385 0.07527655
0003a0 8b 76 19 3e b1 55 a9 be 7c cd aa bd 68 5d a7 bd
       0.14986627 -0.3307319 -0.08339974 -0.08172113
0003b0 d8 78 ea bd 52 f0 9e be b0 e6 f4 bd 51 2d ab bd
       -0.1144883 -0.31042725 -0.11958063 -0.08358253
0003c0 51 28 a4 3e 6e 91 9c 3d 3e 22 bd 3e a5 fc 89 3e
       0.3206201 0.07644926 0.36940187 0.26950565
0003d0 04 6c 34 bb 01 bd 59 3e 0c 69 0a be 6a ce 02 3e
       -0.0027530203 0.21263506 -0.13516635 0.12774053
0003e0 79 f2 54 3d 42 e4 45 3e 78 6b 03 be 73 4e 65 3d
       0.051989052 0.19325355 -0.12833965 0.055983018
0003f0 d7 7e c6 bd b1 77 a2 3e c7 d6 74 3d a1 b4 59 3e
       -0.096921615 0.31731942 0.05977514 0.2126031

fc1.bias f4 [100]
000000 c0 e9 07 3d 9a c2 65 bd c3 95 ac be de 91 f6 3c
       0.033181906 -0.05609379 -0.3370801 0.030098852
000010 6b 57 0e be 2e ca f5 3d 4f 2f 1d 3e a1 a7 8e be
       -0.13900535 0.12001453 0.15350078 -0.27862266
000020 61 9d 3f bd ea a2 0f bd 42 31 cb bd f9 1f ac 3e
       -0.046780948 -0.035067476 -0.099215046 0.33618143
000030 57 62 af 3d c9 e7 9f bd 1b 40 96 be 5c 30 90 be
       0.08563679 -0.078078814 -0.29345784 -0.28161895
000040 b0 2c 63 3d 5c 1c a0 be 03 d5 10 be 17 a4 09 3e
       0.05546254 -0.31271636 -0.14143758 0.13441502
000050 97 93 60 3c f6 bc 7a be fc f3 7a bd 0c 1d 97 3e
       0.013707063 -0.24486145 -0.061267838 0.29514349
000060 7c a4 cf 3d cd 19 09 3e d8 80 6f be b3 f2 b5 3d
       0.10138795 0.13388748 -0.23388994 0.08884182
000070 18 e3 55 bd 52 d5 c9 bd 80 20 0a 3e d1 3f da 3d
       -0.052218527 -0.09855141 0.1348896 0.10656703
000080 19 be 69 be e9 4f 05 be 08 a7 98 be b5 85 16 be
       -0.22826423 -0.13018765 -0.29814935 -0.14699443
000090 bd da b6 be a5 8b c0 bd 90 95 9b be f4 b9 36 be
       -0.3571376 -0.09401635 -0.30387545 -0.17844373
0000a0 a9 99 e3 3d e8 8e bc 3d 1d 30 fc bd 3c 1c 7f be
       0.11113293 0.09206945 -0.123138644 -0.24913114
0000b0 b4 9f 3b bd 3d bd 5a 3d ed b3 3d 3d a0 53 17 be
       -0.0458066 0.053403128 0.04631417 -0.14777994
0000c0 6d af df bd b5 43 ab be 6f 21 c8 3d 2a f4 b8 bd
       -0.10922132 -0.33450094 0.09772002 -0.090309456
0000d0 99 f3 aa be 28 8d 96 bd f8 fd 70 3d 74 32 12 be
       -0.33388975 -0.07351142 0.058835953 -0.14277059
0000e0 20 d1 d7 3d f2 51 b5 bd 90 2e 17 be f0 3b 36 be
       0.10537934 -0.088535205 -0.14763856 -0.17796302
0000f0 a5 fc 0f bd 6a 86 90 be 23 41 2c be fe 91 20 be
       -0.03515305 -0.2822755 -0.16821723 -0.15680692
000100 ad ce d3 3d ab ec 0e 3e be 9b 86 be 0e b6 8f 3c
       0.10342155 0.13957469 -0.26290697 0.017542865
000110 6d f9 b5 3d 84 3c 3e 3d 7e 16 a5 be 90 72 9f be
       0.08885465 0.04644443 -0.32243723 -0.31142092
000120 f4 20 ae 3d f6 a8 06 be 37 6f 9b be 9b 44 0a 3e
       0.08502379 -0.13150391 -0.30358288 0.13502733
000130 bc 3a 7e be 0d bc ab bd 96 57 da bd 7f 74 42 bd
       -0.24827093 -0.08385477 -0.10661237 -0.04747438
000140 5a 6d 15 3e bb 51 7f be 2e 13 2a 3d 52 50 6f bb
       0.14592496 -0.24933521 0.041522197 -0.003651638
000150 dc ac e2 3d 7b 69 93 be 04 04 ea bd db 38 ac be
       0.110681266 -0.28791413 -0.11426547 -0.33637127
000160 81 76 06 3e 12 fc f9 3d 7b a7 e8 3d 13 b8 a5 be
       0.13131143 0.12206282 0.11360069 -0.32367
000170 ea a5 97 bd 81 2c 17 be 6d 6f 21 3e dd a3 cb bd
       -0.074046925 -0.1476307 0.15765162 -0.09943364
000180 11 5a 84 3d 8c d0 d2 bd e8 7b 78 be 30 27 a4 be
       0.06462491 -0.102936834 -0.24266016 -0.32061148

fc2.0.0.weight f4 [100, 100]
000000 9d 69 7a be d3 6c b4 3d ab 14 6a 3e a9 9b 77 be
       -0.24454351 0.08809819 0.22859447 -0.24180473
000010 88 a9 0c 3d 8e e1 e8 bd e0 ca 36 be dd e9 e6 bd
       0.034341365 -0.11371146 -0.17850828 -0.11275075
000020 45 24 36 be ae 2a 15 be 93 94 fb 3d 89 27 59 be
       -0.17787273 -0.14567062 0.12284198 -0.21206488
000030 10 ef ec bd 12 54 6b be b6 d6 c7 bd d6 33 3d be
       -0.11569035 -0.22981289 -0.0975775 -0.18476805
000040 be 90 14 be 69 93 70 be 8d 26 cc bd df 09 29 be
       -0.1450834 -0.23493733 -0.099682905 -0.16507672
000050 93 da 5a be 24 bd c0 bd a6 a0 38 be c9 54 79 be
       -0.21372442 -0.09411076 -0.18030033 -0.24348749
000060 aa d0 5e be d8 e1 86 be 82 89 3b be 4f d6 85 be
       -0.21759287 -0.2634418 -0.18314174 -0.26140067
000070 80 17 80 be 37 a3 0c be 2b 00 22 3e 86 24 b7 3d
       -0.2501793 -0.13734137 0.15820377 0.08942513
000080 75 72 3a be 05 3c 85 be 89 52 dc 3d 08 ea d5 bd
       -0.18207724 -0.26022354 0.1075793 -0.104450285
000090 e0 c5 3e be 3f a0 91 be 3d 4e 36 be 8d fd 6d be
       -0.18630171 -0.2844257 -0.17803283 -0.23241253
0000a0 06 20 1d be 7f 85 bd bd fb fa 39 be 68 fa 0e be
       -0.15344247 -0.09253978 -0.18162148 -0.1396271
0000b0 ab 03 a9 bd df 95 41 3e 69 4d e5 bd 5f a2 82 be
       -0.08252653 0.18904828 -0.111964054 -0.25514504
0000c0 6d fc d3 3d 03 bf dd bd c2 34 3f 3e 2c b4 2c 3d
       0.10350881 -0.10827448 0.1867247 0.042164013
0000d0 52 3b 40 be 39 0c 05 be e0 c0 29 be a6 6b cf bd
       -0.18772629 -0.12992944 -0.16577482 -0.10127954
0000e0 f2 bb fe 3d b2 65 1e 3e 29 24 54 3e 15 79 23 be
       0.124381915 0.15468481 0.20716919 -0.15964158
0000f0 ba eb 40 be ef dd 6e be cc 29 32 be 53 4f 28 3e
       -0.18839923 -0.23326848 -0.17398757 0.1643651
000100 fc 22 43 be eb 5c 99 bd 13 38 2b be 4c ed 21 be
       -0.19056314 -0.07488426 -0.1672061 -0.15813178
000110 90 6c 87 be 01 2c 86 be 25 3b e9 bd 2a ca 72 be
       -0.26450014 -0.26205447 -0.11388234 -0.23709932
000120 12 dc ad bd 05 82 4a 3e 8d 1a 87 be 11 9d a3 bd
       -0.08489241 0.19776161 -0.26387444 -0.079889424
000130 2e 30 73 be 92 20 35 be fa 2e 00 be 3a 69 a9 bd
       -0.23748848 -0.17688206 -0.1251792 -0.082720235
000140 b7 ac 91 be ca 68 06 be 34 96 20 3e 0c 46 0b be
       -0.28452083 -0.13125911 0.15682298 -0.1360094
000150 42 85 18 be 60 ec d3 bd 89 4f a2 bd 92 95 75 be
       -0.14894584 -0.10347819 -0.079253264 -0.23982838
000160 7e 9b 3b be 6d a2 c6 bd 77 9a 5a be b0 18 3e be
       -0.18321034 -0.09698949 -0.21347986 -0.18564105
000170 e5 58 55 be 5f 31 2f 3e ae 31 54 3d 6c fe 0d be
       -0.20834692 0.17108677 0.05180519 -0.13866585
000180 31 bb 8b be 6e 71 65 be 81 4d 61 be 2f 7a 01 be
       -0.27291253 -0.22406551 -0.22002222 -0.12644266
000190 cc c7 8d be f8 2e ef bd 9b cc 2d be e2 a4 3e 3e
       -0.27691495 -0.116788805 -0.16972582 0.18617585
0001a0 96 e5 3e be a0 79 63 be 8b 60 88 3e 92 e2 0d 3e
       -0.18642268 -0.22214365 0.26636156 0.13855961
0001b0 35 ab 61 be d2 8c 91 3e 2e 70 33 be 27 65 0b be
       -0.22037967 0.2842775 -0.17523262 -0.13612805
0001c0 74 f0 b2 bd 5f 61 a4 be 63 9a 65 be d2 5a 02 be
       -0.08737269 -0.32105538 -0.22422175 -0.12729958
0001d0 46 53 50 be cc e9 48 be 89 78 fd bd d6 67 9b 3e
       -0.20344266 -0.19620436 -0.12376506 0.30352658
0001e0 7c 76 5d be 2f 10 b2 be 93 af 6b bd 18 ef e8 bd
       -0.2162723 -0.34777972 -0.057540487 -0.113737285
0001f0 8a 40 0d be 31 33 65 be 4d 6b 10 be 48 0d 84 be
       -0.13794151 -0.22382809 -0.14103432 -0.25791383
000200 a6 33 6a be 54 bb 29 be 72 c8 85 be 7c bc 7c be
       -0.22871265 -0.16575366 -0.2612949 -0.24681276
000210 8c 53 70 be 06 31 8b be 9a 2f 3a be 6f d3 75 be
       -0.2346937 -0.2718584 -0.18182221 -0.24006437
000220 77 9a 9d be 4f bf ad be ef b8 95 be 2d 56 30 be
       -0.3078191 -0.3393502 -0.29242656 -0.17220373
000230 ee 29 b4 bb ee 02 f2 3d a9 ca 32 be 61 fb dd be
       -0.0054981625 0.11816965 -0.17460121 -0.4335585
000240 82 02 81 be 1f dc da bd 0d 94 58 be 33 91 8f 3d
       -0.25197226 -0.10686516 -0.21150227 0.070101164
000250 92 21 8c be 4a 2e 87 be b3 61 6e be e1 b2 07 be
       -0.27369362 -0.26402503 -0.23279457 -0.1325183
000260 4d 1f 60 be de 96 85 be aa 1a 2c be 29 f1 a9 bd
       -0.2188694 -0.26091665 -0.16807047 -0.08297951
000270 ca 13 24 be 25 84 79 be ad 58 91 be 7e 44 35 3e
       -0.16023174 -0.24366815 -0.28387967 0.17701909
000280 ad 0f 49 be 76 c5 8e be bf 0d 64 be 05 20 88 be
       -0.19634886 -0.27885026 -0.22270869 -0.2658693
000290 ec f6 27 be fc 84 92 3d c6 61 13 be 78 3c 82 3e
       -0.16402787 0.07154271 -0.14392766 0.2543676
0002a0 6b ae 8b be f6 86 56 be 91 fd 59 be cf aa 8d be
       -0.27281508 -0.20949921 -0.21288134 -0.2766938
0002b0 67 e6 33 be f0 27 aa be 42 22 9a 3e 37 f9 5d be
       -0.1756836 -0.33233595 0.30104262 -0.21677099
0002c0 01 7c 65 be 18 6e 70 be 8f c3 53 be 2e 4e a0 be
       -0.22410585 -0.23479497 -0.20680068 -0.31309646
0002d0 ac 51 3f be 26 ee 79 be b4 3a 92 be e0 d9 c1 bd
       -0.18683499 -0.24407253 -0.28560412 -0.094653845
0002e0 94 a0 46 3e d0 55 86 be a3 a8 a0 be 3a ec 00 3e
       0.19397193 -0.26237345 -0.3137866 0.12590113
0002f0 f3 be 0f 3e 0f 0a 01 be f5 ef e1 3d 32 2c 51 be
       0.14037685 -0.12601493 0.11032096 -0.20427015
000300 d5 bb 9a 3e fc ab 00 be be a4 8a be 23 4a 76 be
       0.3022143 -0.12565607 -0.27078813 -0.24051718
000310 e4 45 a4 be bd db 9f 3e 25 8f 39 be dc 14 75 be
       -0.32084572 0.31222335 -0.18121012 -0.23933738
000320 48 2f 8e be cd 8d 94 be 0f f6 90 be af f2 fd bd
       -0.27770448 -0.29014435 -0.28312728 -0.12399804
000330 fd 7f 65 be 2e 96 4f be 72 d3 9d 3e 1a b4 a0 3e
       -0.22412105 -0.20272133 0.30825382 0.31387407
000340 f5 83 8e be f3 34 8a be da 78 19 be e6 55 96 be
       -0.2783505 -0.26993522 -0.14987507 -0.2936241
000350 87 cb 6a 3e 12 0b 8d be 35 a5 07 be 30 7f 21 be
       0.22929202 -0.27547508 -0.13246615 -0.15771174
000360 4e f2 38 be 59 ba 87 be 49 5d 29 be 5b 46 22 3e
       -0.18061182 -0.2650936 -0.16539492 0.15847151
000370 19 f4 9d be 82 a7 0e 3e f2 26 1e 3c 0a 36 5f be
       -0.30850294 0.13931087 0.00965284 -0.21797958
000380 0d aa 6a 3e b1 b3 83 be 2d e0 26 be 04 20 09 3e
       0.22916432 -0.2572303 -0.16296454 0.13391119
000390 52 85 20 3e 57 8f 2b be f4 06 4a be 76 5e 83 be
       0.15675858 -0.16753899 -0.19729215 -0.25658005
0003a0 4c 4f eb bd a0 bb d3 3d 2f a0 5d be 5a 73 93 be
       -0.11489734 0.10338521 -0.21643136 -0.28798944
0003b0 8a af 3f 3e 78 e6 61 be c2 c6 85 be 22 b9 9d 3e
       0.18719307 -0.22060573 -0.26128203 0.30805308
0003c0 43 c3 da 3d 91 e6 64 be 1b 12 4a bc af ff 1b be
       0.106817745 -0.22353579 -0.012333418 -0.15234254
0003d0 2d 82 02 be 38 e1 8c be 66 1a 22 be db b2 91 3e
       -0.1274497 -0.27515578 -0.15830383 0.28456768
0003e0 61 a9 84 be e9 8f 52 be 09 3e 38 be 6e d0 5c be
       -0.25910476 -0.2056271 -0.17992415 -0.21563885
0003f0 c8 c2 63 be 51 6c 9b be 17 10 21 be e8 84 f1 bd
       -0.22242272 -0.30356076 -0.15728794 -0.11792928

fc2.0.0.bias f4 [100]
000000 13 51 4c be 3a 9c 12 3e b4 db 97 be 9d ca 06 be
       -0.19952802 0.14317408 -0.29659808 -0.13163228
000010 97 34 b1 3d ef de 34 3e f9 b5 03 be ba d8 16 be
       0.08652609 0.17663167 -0.12862386 -0.14731112
000020 82 5b 9f be 8c 4f 29 be f6 1e 96 be 8f ff 10 be
       -0.31124502 -0.16534251 -0.29320496 -0.14159988
000030 ea ae 5c be cb d9 79 3e 75 e4 a7 3e c9 8b c1 3e
       -0.215511 0.24399488 0.32791486 0.3780196
000040 3d e3 bd 3e 7e 3a 33 3e d3 b0 77 be 7f 98 26 be
       0.37087432 0.17502782 -0.24188547 -0.1626911
000050 71 87 88 3e f7 9c 20 be 5a 73 9e be 1e 7d 0b be
       0.26665834 -0.15684877 -0.3094738 -0.13621947
000060 d9 ef 8d be 89 32 8f be c3 0c c4 3e 78 1c a0 be
       -0.27722052 -0.27968243 0.38290986 -0.3127172
000070 94 4e 95 be 2a 23 4e be 4b e3 54 3e 5a 4d c4 3e
       -0.29161513 -0.20130602 0.2078983 0.38340265
000080 62 d1 37 be 02 b3 92 be d0 67 21 3e 63 d5 94 be
       -0.17950967 -0.28652197 0.15762258 -0.2906905
000090 76 e6 65 be 54 e2 41 3e 3b 28 52 be c5 7a b3 be
       -0.22451195 0.18933994 -0.20523159 -0.35054603
0000a0 59 fd a7 be b1 32 9b be e2 51 6b be 9b 03 49 3e
       -0.32810476 -0.30312112 -0.22980455 0.19630282
0000b0 6f fc a5 be 38 e2 8d 3e 9d f0 b6 3e 45 9b 8a be
       -0.32419154 0.27711654 0.35730448 -0.27071586
0000c0 d4 73 54 be 0a 70 84 3e 1e 8d 52 3e e1 d5 9f 3d
       -0.2074731 0.2586673 0.20561644 0.07804466
0000d0 57 c5 8e 3e 45 9b 94 be 31 7e 21 3e 0e 4a ad 3e
       0.27884933 -0.2902471 0.15770794 0.33845562
0000e0 45 11 76 be a5 09 83 3d b4 21 95 be f7 a7 0c be
       -0.24030025 0.06398324 -0.29127276 -0.13735949
0000f0 6a 42 41 3e 32 f1 43 3e 2d 77 74 be 6e 8b 9c be
       0.18872991 0.19134977 -0.23873587 -0.30575126
000100 37 27 c5 3e 30 8d 7b be a4 93 fb 3d 1d 8d 0a be
       0.3850648 -0.24565578 0.122840196 -0.13530393
000110 e5 7d 98 be e0 df 91 3d a4 e3 c5 be ac 46 83 be
       -0.2978355 0.07122779 -0.3865024 -0.25639856
000120 41 bc d3 3e be d3 1a be ea 5c 42 be 43 6e a2 be
       0.41354564 -0.15119836 -0.18980756 -0.31724748
000130 d2 f9 ab 3e d1 7b d0 3d 7e d8 53 3e 3c 29 1e 3e
       0.33589035 0.10179866 0.20688054 0.15445417
000140 1a 10 cd bc 9b ed 4d 3e 2c 27 3c be 08 bb 14 3e
       -0.025032092 0.2011017 -0.18374318 0.14524472
000150 de a9 fe bd 5d aa b6 be 68 50 00 be bc 0d 4e be
       -0.12434743 -0.35676852 -0.12530673 -0.20122427
000160 4b a4 28 be 54 29 a0 be 0b 45 2f be 96 41 af 3e
       -0.16468923 -0.3128153 -0.17116182 0.34229726
000170 2e 3f 59 be 56 b0 94 be 73 99 35 3e cd 50 3b be
       -0.21215507 -0.29040784 0.17734317 -0.18292542
000180 db 56 e1 3c d6 7f 48 be 7e f5 d8 3d 23 b0 26 3e
       0.027507236 -0.19580016 0.10593699 0.16278128

fc2.1.0.weight f4 [100, 100]
000000 9d 69 7a be d3 6c b4 3d ab 14 6a 3e a9 9b 77 be
       -0.24454351 0.08809819 0.22859447 -0.24180473
000010 88 a9 0c 3d 8e e1 e8 bd e0 ca 36 be dd e9 e6 bd
       0.034341365 -0.11371146 -0.17850828 -0.11275075
000020 45 24 36 be ae 2a 15 be 93 94 fb 3d 89 27 59 be
       -0.17787273 -0.14567062 0.12284198 -0.21206488
000030 10 ef ec bd 12 54 6b be b6 d6 c7 bd d6 33 3d be
       -0.11569035 -0.22981289 -0.0975775 -0.18476805
000040 be 90 14 be 69 93 70 be 8d 26 cc bd df 09 29 be
       -0.1450834 -0.23493733 -0.099682905 -0.16507672
000050 93 da 5a be 24 bd c0 bd a6 a0 38 be c9 54 79 be
       -0.21372442 -0.09411076 -0.18030033 -0.24348749
000060 aa d0 5e be d8 e1 86 be 82 89 3b be 4f d6 85 be
       -0.21759287 -0.2634418 -0.18314174 -0.26140067
000070 80 17 80 be 37 a3 0c be 2b 00 22 3e 86 24 b7 3d
       -0.2501793 -0.13734137 0.15820377 0.08942513
000080 75 72 3a be 05 3c 85 be 89 52 dc 3d 08 ea d5 bd
       -0.18207724 -0.26022354 0.1075793 -0.104450285
000090 e0 c5 3e be 3f a0 91 be 3d 4e 36 be 8d fd 6d be
       -0.18630171 -0.2844257 -0.17803283 -0.23241253
0000a0 06 20 1d be 7f 85 bd bd fb fa 39 be 68 fa 0e be
       -0.15344247 -0.09253978 -0.18162148 -0.1396271
0000b0 ab 03 a9 bd df 95 41 3e 69 4d e5 bd 5f a2 82 be
       -0.08252653 0.18904828 -0.111964054 -0.25514504
0000c0 6d fc d3 3d 03 bf dd bd c2 34 3f 3e 2c b4 2c 3d
       0.10350881 -0.10827448 0.1867247 0.042164013
0000d0 52 3b 40 be 39 0c 05 be e0 c0 29 be a6 6b cf bd
       -0.18772629 -0.12992944 -0.16577482 -0.10127954
0000e0 f2 bb fe 3d b2 65 1e 3e 29 24 54 3e 15 79 23 be
       0.124381915 0.15468481 0.20716919 -0.15964158
0000f0 ba eb 40 be ef dd 6e be cc 29 32 be 53 4f 28 3e
       -0.18839923 -0.23326848 -0.17398757 0.1643651
000100 fc 22 43 be eb 5c 99 bd 13 38 2b be 4c ed 21 be
       -0.19056314 -0.07488426 -0.1672061 -0.15813178
000110 90 6c 87 be 01 2c 86 be 25 3b e9 bd 2a ca 72 be
       -0.26450014 -0.26205447 -0.11388234 -0.23709932
000120 12 dc ad bd 05 82 4a 3e 8d 1a 87 be 11 9d a3 bd
       -0.08489241 0.19776161 -0.26387444 -0.079889424
000130 2e 30 73 be 92 20 35 be fa 2e 00 be 3a 69 a9 bd
       -0.23748848 -0.17688206 -0.1251792 -0.082720235
000140 b7 ac 91 be ca 68 06 be 34 96 20 3e 0c 46 0b be
       -0.28452083 -0.13125911 0.15682298 -0.1360094
000150 42 85 18 be 60 ec d3 bd 89 4f a2 bd 92 95 75 be
       -0.14894584 -0.10347819 -0.079253264 -0.23982838
000160 7e 9b 3b be 6d a2 c6 bd 77 9a 5a be b0 18 3e be
       -0.18321034 -0.09698949 -0.21347986 -0.18564105
000170 e5 58 55 be 5f 31 2f 3e ae 31 54 3d 6c fe 0d be
       -0.20834692 0.17108677 0.05180519 -0.13866585
000180 31 bb 8b be 6e 71 65 be 81 4d 61 be 2f 7a 01 be
       -0.27291253 -0.22406551 -0.22002222 -0.12644266
000190 cc c7 8d be f8 2e ef bd 9b cc 2d be e2 a4 3e 3e
       -0.27691495 -0.116788805 -0.16972582 0.18617585
0001a0 96 e5 3e be a0 79 63 be 8b 60 88 3e 92 e2 0d 3e
       -0.18642268 -0.22214365 0.26636156 0.13855961
0001b0 35 ab 61 be d2 8c 91 3e 2e 70 33 be 27 65 0b be
       -0.22037967 0.2842775 -0.17523262 -0.13612805
0001c0 74 f0 b2 bd 5f 61 a4 be 63 9a 65 be d2 5a 02 be
       -0.08737269 -0.32105538 -0.22422175 -0.12729958
0001d0 46 53 50 be cc e9 48 be 89 78 fd bd d6 67 9b 3e
       -0.20344266 -0.19620436 -0.12376506 0.30352658
0001e0 7c 76 5d be 2f 10 b2 be 93 af 6b bd 18 ef e8 bd
       -0.2162723 -0.34777972 -0.057540487 -0.113737285
0001f0 8a 40 0d be 31 33 65 be 4d 6b 10 be 48 0d 84 be
       -0.13794151 -0.22382809 -0.14103432 -0.25791383
000200 a6 33 6a be 54 bb 29 be 72 c8 85 be 7c bc 7c be
       -0.22871265 -0.16575366 -0.2612949 -0.24681276
000210 8c 53 70 be 06 31 8b be 9a 2f 3a be 6f d3 75 be
       -0.2346937 -0.2718584 -0.18182221 -0.24006437
000220 77 9a 9d be 4f bf ad be ef b8 95 be 2d 56 30 be
       -0.3078191 -0.3393502 -0.29242656 -0.17220373
000230 ee 29 b4 bb ee 02 f2 3d a9 ca 32 be 61 fb dd be
       -0.0054981625 0.11816965 -0.17460121 -0.4335585
000240 82 02 81 be 1f dc da bd 0d 94 58 be 33 91 8f 3d
       -0.25197226 -0.10686516 -0.21150227 0.070101164
000250 92 21 8c be 4a 2e 87 be b3 61 6e be e1 b2 07 be
       -0.27369362 -0.26402503 -0.23279457 -0.1325183
000260 4d 1f 60 be de 96 85 be aa 1a 2c be 29 f1 a9 bd
       -0.2188694 -0.26091665 -0.16807047 -0.08297951
000270 ca 13 24 be 25 84 79 be ad 58 91 be 7e 44 35 3e
       -0.16023174 -0.24366815 -0.28387967 0.17701909
000280 ad 0f 49 be 76 c5 8e be bf 0d 64 be 05 20 88 be
       -0.19634886 -0.27885026 -0.22270869 -0.2658693
000290 ec f6 27 be fc 84 92 3d c6 61 13 be 78 3c 82 3e
       -0.16402787 0.07154271 -0.14392766 0.2543676
0002a0 6b ae 8b be f6 86 56 be 91 fd 59 be cf aa 8d be
       -0.27281508 -0.20949921 -0.21288134 -0.2766938
0002b0 67 e6 33 be f0 27 aa be 42 22 9a 3e 37 f9 5d be
       -0.1756836 -0.33233595 0.30104262 -0.21677099
0002c0 01 7c 65 be 18 6e 70 be 8f c3 53 be 2e 4e a0 be
       -0.22410585 -0.23479497 -0.20680068 -0.31309646
0002d0 ac 51 3f be 26 ee 79 be b4 3a 92 be e0 d9 c1 bd
       -0.18683499 -0.24407253 -0.28560412 -0.094653845
0002e0 94 a0 46 3e d0 55 86 be a3 a8 a0 be 3a ec 00 3e
       0.19397193 -0.26237345 -0.3137866 0.12590113
0002f0 f3 be 0f 3e 0f 0a 01 be f5 ef e1 3d 32 2c 51 be
       0.14037685 -0.12601493 0.11032096 -0.20427015
000300 d5 bb 9a 3e fc ab 00 be be a4 8a be 23 4a 76 be
       0.3022143 -0.12565607 -0.27078813 -0.24051718
000310 e4 45 a4 be bd db 9f 3e 25 8f 39 be dc 14 75 be
       -0.32084572 0.31222335 -0.18121012 -0.23933738
000320 48 2f 8e be cd 8d 94 be 0f f6 90 be af f2 fd bd
       -0.27770448 -0.29014435 -0.28312728 -0.12399804
000330 fd 7f 65 be 2e 96 4f be 72 d3 9d 3e 1a b4 a0 3e
       -0.22412105 -0.20272133 0.30825382 0.31387407
000340 f5 83 8e be f3 34 8a be da 78 19 be e6 55 96 be
       -0.2783505 -0.26993522 -0.14987507 -0.2936241
000350 87 cb 6a 3e 12 0b 8d be 35 a5 07 be 30 7f 21 be
       0.22929202 -0.27547508 -0.13246615 -0.15771174
000360 4e f2 38 be 59 ba 87 be 49 5d 29 be 5b 46 22 3e
       -0.18061182 -0.2650936 -0.16539492 0.15847151
000370 19 f4 9d be 82 a7 0e 3e f2 26 1e 3c 0a 36 5f be
       -0.30850294 0.13931087 0.00965284 -0.21797958
000380 0d aa 6a 3e b1 b3 83 be 2d e0 26 be 04 20 09 3e
       0.22916432 -0.2572303 -0.16296454 0.13391119
000390 52 85 20 3e 57 8f 2b be f4 06 4a be 76 5e 83 be
       0.15675858 -0.16753899 -0.19729215 -0.25658005
0003a0 4c 4f eb bd a0 bb d3 3d 2f a0 5d be 5a 73 93 be
       -0.11489734 0.10338521 -0.21643136 -0.28798944
0003b0 8a af 3f 3e 78 e6 61 be c2 c6 85 be 22 b9 9d 3e
       0.18719307 -0.22060573 -0.26128203 0.30805308
0003c0 43 c3 da 3d 91 e6 64 be 1b 12 4a bc af ff 1b be
       0.106817745 -0.22353579 -0.012333418 -0.15234254
0003d0 2d 82 02 be 38 e1 8c be 66 1a 22 be db b2 91 3e
       -0.1274497 -0.27515578 -0.15830383 0.28456768
0003e0 61 a9 84 be e9 8f 52 be 09 3e 38 be 6e d0 5c be
       -0.25910476 -0.2056271 -0.17992415 -0.21563885
0003f0 c8 c2 63 be 51 6c 9b be 17 10 21 be e8 84 f1 bd
       -0.22242272 -0.30356076 -0.15728794 -0.11792928

fc2.1.0.bias f4 [100]
000000 13 51 4c be 3a 9c 12 3e b4 db 97 be 9d ca 06 be
       -0.19952802 0.14317408 -0.29659808 -0.13163228
000010 97 34 b1 3d ef de 34 3e f9 b5 03 be ba d8 16 be
       0.08652609 0.17663167 -0.12862386 -0.14731112
000020 82 5b 9f be 8c 4f 29 be f6 1e 96 be 8f ff 10 be
       -0.31124502 -0.16534251 -0.29320496 -0.14159988
000030 ea ae 5c be cb d9 79 3e 75 e4 a7 3e c9 8b c1 3e
       -0.215511 0.24399488 0.32791486 0.3780196
000040 3d e3 bd 3e 7e 3a 33 3e d3 b0 77 be 7f 98 26 be
       0.37087432 0.17502782 -0.24188547 -0.1626911
000050 71 87 88 3e f7 9c 20 be 5a 73 9e be 1e 7d 0b be
       0.26665834 -0.15684877 -0.3094738 -0.13621947
000060 d9 ef 8d be 89 32 8f be c3 0c c4 3e 78 1c a0 be
       -0.27722052 -0.27968243 0.38290986 -0.3127172
000070 94 4e 95 be 2a 23 4e be 4b e3 54 3e 5a 4d c4 3e
       -0.29161513 -0.20130602 0.2078983 0.38340265
000080 62 d1 37 be 02 b3 92 be d0 67 21 3e 63 d5 94 be
       -0.17950967 -0.28652197 0.15762258 -0.2906905
000090 76 e6 65 be 54 e2 41 3e 3b 28 52 be c5 7a b3 be
       -0.22451195 0.18933994 -0.20523159 -0.35054603
0000a0 59 fd a7 be b1 32 9b be e2 51 6b be 9b 03 49 3e
       -0.32810476 -0.30312112 -0.22980455 0.19630282
0000b0 6f fc a5 be 38 e2 8d 3e 9d f0 b6 3e 45 9b 8a be
       -0.32419154 0.27711654 0.35730448 -0.27071586
0000c0 d4 73 54 be 0a 70 84 3e 1e 8d 52 3e e1 d5 9f 3d
       -0.2074731 0.2586673 0.20561644 0.07804466
0000d0 57 c5 8e 3e 45 9b 94 be 31 7e 21 3e 0e 4a ad 3e
       0.27884933 -0.2902471 0.15770794 0.33845562
0000e0 45 11 76 be a5 09 83 3d b4 21 95 be f7 a7 0c be
       -0.24030025 0.06398324 -0.29127276 -0.13735949
0000f0 6a 42 41 3e 32 f1 43 3e 2d 77 74 be 6e 8b 9c be
       0.18872991 0.19134977 -0.23873587 -0.30575126
000100 37 27 c5 3e 30 8d 7b be a4 93 fb 3d 1d 8d 0a be
       0.3850648 -0.24565578 0.122840196 -0.13530393
000110 e5 7d 98 be e0 df 91 3d a4 e3 c5 be ac 46 83 be
       -0.2978355 0.07122779 -0.3865024 -0.25639856
000120 41 bc d3 3e be d3 1a be ea 5c 42 be 43 6e a2 be
       0.41354564 -0.15119836 -0.18980756 -0.31724748
000130 d2 f9 ab 3e d1 7b d0 3d 7e d8 53 3e 3c 29 1e 3e
       0.33589035 0.10179866 0.20688054 0.15445417
000140 1a 10 cd bc 9b ed 4d 3e 2c 27 3c be 08 bb 14 3e
       -0.025032092 0.2011017 -0.18374318 0.14524472
000150 de a9 fe bd 5d aa b6 be 68 50 00 be bc 0d 4e be
       -0.12434743 -0.35676852 -0.12530673 -0.20122427
000160 4b a4 28 be 54 29 a0 be 0b 45 2f be 96 41 af 3e
       -0.16468923 -0.3128153 -0.17116182 0.34229726
000170 2e 3f 59 be 56 b0 94 be 73 99 35 3e cd 50 3b be
       -0.21215507 -0.29040784 0.17734317 -0.18292542
000180 db 56 e1 3c d6 7f 48 be 7e f5 d8 3d 23 b0 26 3e
       0.027507236 -0.19580016 0.10593699 0.16278128

fc2.2.0.weight f4 [100, 100]
000000 9d 69 7a be d3 6c b4 3d ab 14 6a 3e a9 9b 77 be
       -0.24454351 0.08809819 0.22859447 -0.24180473
000010 88 a9 0c 3d 8e e1 e8 bd e0 ca 36 be dd e9 e6 bd
       0.034341365 -0.11371146 -0.17850828 -0.11275075
000020 45 24 36 be ae 2a 15 be 93 94 fb 3d 89 27 59 be
       -0.17787273 -0.14567062 0.12284198 -0.21206488
000030 10 ef ec bd 12 54 6b be b6 d6 c7 bd d6 33 3d be
       -0.11569035 -0.22981289 -0.0975775 -0.18476805
000040 be 90 14 be 69 93 70 be 8d 26 cc bd df 09 29 be
       -0.1450834 -0.23493733 -0.099682905 -0.16507672
000050 93 da 5a be 24 bd c0 bd a6 a0 38 be c9 54 79 be
       -0.21372442 -0.09411076 -0.18030033 -0.24348749
000060 aa d0 5e be d8 e1 86 be 82 89 3b be 4f d6 85 be
       -0.21759287 -0.2634418 -0.18314174 -0.26140067
000070 80 17 80 be 37 a3 0c be 2b 00 22 3e 86 24 b7 3d
       -0.2501793 -0.13734137 0.15820377 0.08942513
000080 75 72 3a be 05 3c 85 be 89 52 dc 3d 08 ea d5 bd
       -0.18207724 -0.26022354 0.1075793 -0.104450285
000090 e0 c5 3e be 3f a0 91 be 3d 4e 36 be 8d fd 6d be
       -0.18630171 -0.2844257 -0.17803283 -0.23241253
0000a0 06 20 1d be 7f 85 bd bd fb fa 39 be 68 fa 0e be
       -0.15344247 -0.09253978 -0.18162148 -0.1396271
0000b0 ab 03 a9 bd df 95 41 3e 69 4d e5 bd 5f a2 82 be
       -0.08252653 0.18904828 -0.111964054 -0.25514504
0000c0 6d fc d3 3d 03 bf dd bd c2 34 3f 3e 2c b4 2c 3d
       0.10350881 -0.10827448 0.1867247 0.042164013
0000d0 52 3b 40 be 39 0c 05 be e0 c0 29 be a6 6b cf bd
       -0.18772629 -0.12992944 -0.16577482 -0.10127954
0000e0 f2 bb fe 3d b2 65 1e 3e 29 24 54 3e 15 79 23 be
       0.124381915 0.15468481 0.20716919 -0.15964158
0000f0 ba eb 40 be ef dd 6e be cc 29 32 be 53 4f 28 3e
       -0.18839923 -0.23326848 -0.17398757 0.1643651
000100 fc 22 43 be eb 5c 99 bd 13 38 2b be 4c ed 21 be
       -0.19056314 -0.07488426 -0.1672061 -0.15813178
000110 90 6c 87 be 01 2c 86 be 25 3b e9 bd 2a ca 72 be
       -0.26450014 -0.26205447 -0.11388234 -0.23709932
000120 12 dc ad bd 05 82 4a 3e 8d 1a 87 be 11 9d a3 bd
       -0.08489241 0.19776161 -0.26387444 -0.079889424
000130 2e 30 73 be 92 20 35 be fa 2e 00 be 3a 69 a9 bd
       -0.23748848 -0.17688206 -0.1251792 -0.082720235
000140 b7 ac 91 be ca 68 06 be 34 96 20 3e 0c 46 0b be
       -0.28452083 -0.13125911 0.15682298 -0.1360094
000150 42 85 18 be 60 ec d3 bd 89 4f a2 bd 92 95 75 be
       -0.14894584 -0.10347819 -0.079253264 -0.23982838
000160 7e 9b 3b be 6d a2 c6 bd 77 9a 5a be b0 18 3e be
       -0.18321034 -0.09698949 -0.21347986 -0.18564105
000170 e5 58 55 be 5f 31 2f 3e ae 31 54 3d 6c fe 0d be
       -0.20834692 0.17108677 0.05180519 -0.13866585
000180 31 bb 8b be 6e 71 65 be 81 4d 61 be 2f 7a 01 be
       -0.27291253 -0.22406551 -0.22002222 -0.12644266
000190 cc c7 8d be f8 2e ef bd 9b cc 2d be e2 a4 3e 3e
       -0.27691495 -0.116788805 -0.16972582 0.18617585
0001a0 96 e5 3e be a0 79 63 be 8b 60 88 3e 92 e2 0d 3e
       -0.18642268 -0.22214365 0.26636156 0.13855961
0001b0 35 ab 61 be d2 8c 91 3e 2e 70 33 be 27 65 0b be
       -0.22037967 0.2842775 -0.17523262 -0.13612805
0001c0 74 f0 b2 bd 5f 61 a4 be 63 9a 65 be d2 5a 02 be
       -0.08737269 -0.32105538 -0.22422175 -0.12729958
0001d0 46 53 50 be cc e9 48 be 89 78 fd bd d6 67 9b 3e
       -0.20344266 -0.19620436 -0.12376506 0.30352658
0001e0 7c 76 5d be 2f 10 b2 be 93 af 6b bd 18 ef e8 bd
       -0.2162723 -0.34777972 -0.057540487 -0.113737285
0001f0 8a 40 0d be 31 33 65 be 4d 6b 10 be 48 0d 84 be
       -0.13794151 -0.22382809 -0.14103432 -0.25791383
000200 a6 33 6a be 54 bb 29 be 72 c8 85 be 7c bc 7c be
       -0.22871265 -0.16575366 -0.2612949 -0.24681276
000210 8c 53 70 be 06 31 8b be 9a 2f 3a be 6f d3 75 be
       -0.2346937 -0.2718584 -0.18182221 -0.24006437
000220 77 9a 9d be 4f bf ad be ef b8 95 be 2d 56 30 be
       -0.3078191 -0.3393502 -0.29242656 -0.17220373
000230 ee 29 b4 bb ee 02 f2 3d a9 ca 32 be 61 fb dd be
       -0.0054981625 0.11816965 -0.17460121 -0.4335585
000240 82 02 81 be 1f dc da bd 0d 94 58 be 33 91 8f 3d
       -0.25197226 -0.10686516 -0.21150227 0.070101164
000250 92 21 8c be 4a 2e 87 be b3 61 6e be e1 b2 07 be
       -0.27369362 -0.26402503 -0.23279457 -0.1325183
000260 4d 1f 60 be de 96 85 be aa 1a 2c be 29 f1 a9 bd
       -0.2188694 -0.26091665 -0.16807047 -0.08297951
000270 ca 13 24 be 25 84 79 be ad 58 91 be 7e 44 35 3e
       -0.16023174 -0.24366815 -0.28387967 0.17701909
000280 ad 0f 49 be 76 c5 8e be bf 0d 64 be 05 20 88 be
       -0.19634886 -0.27885026 -0.22270869 -0.2658693
000290 ec f6 27 be fc 84 92 3d c6 61 13 be 78 3c 82 3e
       -0.16402787 0.07154271 -0.14392766 0.2543676
0002a0 6b ae 8b be f6 86 56 be 91 fd 59 be cf aa 8d be
       -0.27281508 -0.20949921 -0.21288134 -0.2766938
0002b0 67 e6 33 be f0 27 aa be 42 22 9a 3e 37 f9 5d be
       -0.1756836 -0.33233595 0.30104262 -0.21677099
0002c0 01 7c 65 be 18 6e 70 be 8f c3 53 be 2e 4e a0 be
       -0.22410585 -0.23479497 -0.20680068 -0.31309646
0002d0 ac 51 3f be 26 ee 79 be b4 3a 92 be e0 d9 c1 bd
       -0.18683499 -0.24407253 -0.28560412 -0.094653845
0002e0 94 a0 46 3e d0 55 86 be a3 a8 a0 be 3a ec 00 3e
       0.19397193 -0.26237345 -0.3137866 0.12590113
0002f0 f3 be 0f 3e 0f 0a 01 be f5 ef e1 3d 32 2c 51 be
       0.14037685 -0.12601493 0.11032096 -0.20427015
000300 d5 bb 9a 3e fc ab 00 be be a4 8a be 23 4a 76 be
       0.3022143 -0.12565607 -0.27078813 -0.24051718
000310 e4 45 a4 be bd db 9f 3e 25 8f 39 be dc 14 75 be
       -0.32084572 0.31222335 -0.18121012 -0.23933738
000320 48 2f 8e be cd 8d 94 be 0f f6 90 be af f2 fd bd
       -0.27770448 -0.29014435 -0.28312728 -0.12399804
000330 fd 7f 65 be 2e 96 4f be 72 d3 9d 3e 1a b4 a0 3e
       -0.22412105 -0.20272133 0.30825382 0.31387407
000340 f5 83 8e be f3 34 8a be da 78 19 be e6 55 96 be
       -0.2783505 -0.26993522 -0.14987507 -0.2936241
000350 87 cb 6a 3e 12 0b 8d be 35 a5 07 be 30 7f 21 be
       0.22929202 -0.27547508 -0.13246615 -0.15771174
000360 4e f2 38 be 59 ba 87 be 49 5d 29 be 5b 46 22 3e
       -0.18061182 -0.2650936 -0.16539492 0.15847151
000370 19 f4 9d be 82 a7 0e 3e f2 26 1e 3c 0a 36 5f be
       -0.30850294 0.13931087 0.00965284 -0.21797958
000380 0d aa 6a 3e b1 b3 83 be 2d e0 26 be 04 20 09 3e
       0.22916432 -0.2572303 -0.16296454 0.13391119
000390 52 85 20 3e 57 8f 2b be f4 06 4a be 76 5e 83 be
       0.15675858 -0.16753899 -0.19729215 -0.25658005
0003a0 4c 4f eb bd a0 bb d3 3d 2f a0 5d be 5a 73 93 be
       -0.11489734 0.10338521 -0.21643136 -0.28798944
0003b0 8a af 3f 3e 78 e6 61 be c2 c6 85 be 22 b9 9d 3e
       0.18719307 -0.22060573 -0.26128203 0.30805308
0003c0 43 c3 da 3d 91 e6 64 be 1b 12 4a bc af ff 1b be
       0.106817745 -0.22353579 -0.012333418 -0.15234254
0003d0 2d 82 02 be 38 e1 8c be 66 1a 22 be db b2 91 3e
       -0.1274497 -0.27515578 -0.15830383 0.28456768
0003e0 61 a9 84 be e9 8f 52 be 09 3e 38 be 6e d0 5c be
       -0.25910476 -0.2056271 -0.17992415 -0.21563885
0003f0 c8 c2 63 be 51 6c 9b be 17 10 21 be e8 84 f1 bd
       -0.22242272 -0.30356076 -0.15728794 -0.11792928

fc2.2.0.bias f4 [100]
000000 13 51 4c be 3a 9c 12 3e b4 db 97 be 9d ca 06 be
       -0.19952802 0.14317408 -0.29659808 -0.13163228
000010 97 34 b1 3d ef de 34 3e f9 b5 03 be ba d8 16 be
       0.08652609 0.17663167 -0.12862386 -0.14731112
000020 82 5b 9f be 8c 4f 29 be f6 1e 96 be 8f ff 10 be
       -0.31124502 -0.16534251 -0.29320496 -0.14159988
000030 ea ae 5c be cb d9 79 3e 75 e4 a7 3e c9 8b c1 3e
       -0.215511 0.24399488 0.32791486 0.3780196
000040 3d e3 bd 3e 7e 3a 33 3e d3 b0 77 be 7f 98 26 be
       0.37087432 0.17502782 -0.24188547 -0.1626911
000050 71 87 88 3e f7 9c 20 be 5a 73 9e be 1e 7d 0b be
       0.26665834 -0.15684877 -0.3094738 -0.13621947
000060 d9 ef 8d be 89 32 8f be c3 0c c4 3e 78 1c a0 be
       -0.27722052 -0.27968243 0.38290986 -0.3127172
000070 94 4e 95 be 2a 23 4e be 4b e3 54 3e 5a 4d c4 3e
       -0.29161513 -0.20130602 0.2078983 0.38340265
000080 62 d1 37 be 02 b3 92 be d0 67 21 3e 63 d5 94 be
       -0.17950967 -0.28652197 0.15762258 -0.2906905
000090 76 e6 65 be 54 e2 41 3e 3b 28 52 be c5 7a b3 be
       -0.22451195 0.18933994 -0.20523159 -0.35054603
0000a0 59 fd a7 be b1 32 9b be e2 51 6b be 9b 03 49 3e
       -0.32810476 -0.30312112 -0.22980455 0.19630282
0000b0 6f fc a5 be 38 e2 8d 3e 9d f0 b6 3e 45 9b 8a be
       -0.32419154 0.27711654 0.35730448 -0.27071586
0000c0 d4 73 54 be 0a 70 84 3e 1e 8d 52 3e e1 d5 9f 3d
       -0.2074731 0.2586673 0.20561644 0.07804466
0000d0 57 c5 8e 3e 45 9b 94 be 31 7e 21 3e 0e 4a ad 3e
       0.27884933 -0.2902471 0.15770794 0.33845562
0000e0 45 11 76 be a5 09 83 3d b4 21 95 be f7 a7 0c be
       -0.24030025 0.06398324 -0.29127276 -0.13735949
0000f0 6a 42 41 3e 32 f1 43 3e 2d 77 74 be 6e 8b 9c be
       0.18872991 0.19134977 -0.23873587 -0.30575126
000100 37 27 c5 3e 30 8d 7b be a4 93 fb 3d 1d 8d 0a be
       0.3850648 -0.24565578 0.122840196 -0.13530393
000110 e5 7d 98 be e0 df 91 3d a4 e3 c5 be ac 46 83 be
       -0.2978355 0.07122779 -0.3865024 -0.25639856
000120 41 bc d3 3e be d3 1a be ea 5c 42 be 43 6e a2 be
       0.41354564 -0.15119836 -0.18980756 -0.31724748
000130 d2 f9 ab 3e d1 7b d0 3d 7e d8 53 3e 3c 29 1e 3e
       0.33589035 0.10179866 0.20688054 0.15445417
000140 1a 10 cd bc 9b ed 4d 3e 2c 27 3c be 08 bb 14 3e
       -0.025032092 0.2011017 -0.18374318 0.14524472
000150 de a9 fe bd 5d aa b6 be 68 50 00 be bc 0d 4e be
       -0.12434743 -0.35676852 -0.12530673 -0.20122427
000160 4b a4 28 be 54 29 a0 be 0b 45 2f be 96 41 af 3e
       -0.16468923 -0.3128153 -0.17116182 0.34229726
000170 2e 3f 59 be 56 b0 94 be 73 99 35 3e cd 50 3b be
       -0.21215507 -0.29040784 0.17734317 -0.18292542
000180 db 56 e1 3c d6 7f 48 be 7e f5 d8 3d 23 b0 26 3e
       0.027507236 -0.19580016 0.10593699 0.16278128
