figs/optimizer/adam-0.001-mlp/mlp_model_dict.pt (torch, 141967 bytes, 10 tensors)

group.0.weight f4 [100, 100]
00000000: 7dea b6c3 1844 d6c1 0e01 cbbe 322b b2c1
00000010: c3b7 3542 c69d d7bf 0672 b6c3 6c50 b7c3
00000020: 4b2e 1f42 7e77 5dc1 fa9b 8d41 1471 c3bd
00000030: 0652 943c 30a7 b7c3 d2d1 3542 15a3 6341
00000040: 07f3 b7c3 7e26 a9c1 4bef 9fbe e988 9141
00000050: be28 8dc1 7001 6bc0 69ae ffc1 c8ec b8c3
00000060: 005e 20bf 0e35 5142 d124 8243 4c0e 48c1
00000070: 2b31 b7c3 e13c 86c1 27ae 1143 5b5e b5c3
00000080: 27ab 12c2 e03c 703f 58f3 b6c3 a19a a241
00000090: 656e 4643 75d1 47c3 4157 a741 cdfe cbbf
000000a0: e962 b6c3 bcee 4d40 1ba5 f5bf 4d6d b0c1
000000b0: ed1f b8c3 8116 80c2 02a4 7841 cca5 203e
000000c0: 9a5c a640 a0a5 b8c3 8522 76c1 37ff 48c2
000000d0: 408b 19c1 ffd8 2fc0 701b 88c1 55d3 4fc2
000000e0: d137 35c1 5f58 a8bd 450b 433d 1ba2 b5c3
000000f0: fdc8 c9bf 18f1 84c0 6f5e 43be a352 acc0
00000100: 26e4 b6c3 a131 b9c3 676b 7ebf cf60 5cc0
00000110: 33a5 f83d 46d3 e3c1 d6c4 88c1 b0de 2f40
00000120: 3ff9 c1c0 3392 24c1 481b 84bf 2db8 b8c3
00000130: 6849 b8c3 fa1f b9c1 0a5f 29c2 f8e2 4bbf
00000140: f8f6 52be 6cf4 cb42 2de7 b9c1 f5b1 56c1
00000150: 0dcb 8ec1 cb90 d3c1 faf1 c841 82e4 b6c0
00000160: bd14 b8c3 1373 a8c1 a508 dcc1 87c4 d4c0
00000170: abd7 47c3 144b bbbf 7dc1 b8c3 7843 4dc2
00000180: ff42 5442 cb2b b8c3 e58f c541 761e 81c2
00000190: e4ea b1c1 60fb 6ec2 274f 2ac0 0c70 8fc2
000001a0: 9a5e 08c2 2337 15c2 9ae6 ccc1 592a 0dc2
000001b0: 8079 4dc1 4a0f 61c2 a040 aac1 a48c 7bc0
000001c0: 39b6 8cc1 fc18 88c0 1078 01c2 e770 b4c1
000001d0: 631a 17c2 1451 33c2 d143 f0c1 076d 04c2
000001e0: 7f0f 3ac2 0a0a b6c0 ff72 17c2 045e 05c2
000001f0: 65ed d5c1 f430 eec0 9947 f1c1 b4a0 28c2
00000200: 9448 10c2 6c30 d4c1 9cde 1fc2 9936 0ec2
00000210: be11 13c2 8a13 64c1 7549 f8c1 6b48 a4c1
00000220: f500 a7c1 d3ed c4c0 14c2 573d 3199 b9be
00000230: 88fe 0bc2 a2e3 25c1 6192 06c2 44c4 59c1
00000240: d2a7 eec1 4825 23c2 84ce 86c0 432c 2ac2
00000250: 50e3 29c0 7bfb 0cc2 d336 b7c1 8f41 96c0
00000260: 0d60 a8bf eca1 fcc1 377f 22c2 f1f0 56c2
00000270: 9229 e3c1 6697 e3bf 4ca7 03c1 dffb dac1
00000280: 8324 e0c1 1cb4 94c0 cd52 98c0 958d 5ac2
00000290: c36d 62c2 5462 71c2 8f7e 8fbf 5631 e5bf
000002a0: ac50 45c2 0022 d1bf be5f 17c2 05db 51bf
000002b0: df6c 2ac2 fff3 76c2 b7fa e9c1 9aa9 37c1
000002c0: 1088 c8c1 3742 dcc1 44d7 b7c0 912b a8c0
000002d0: 3a11 dcc1 bcb1 31c1 5975 2ec2 37fa 04c0
000002e0: 93f7 8abf 97a0 77c2 563a 3aba 7b85 56c0
000002f0: 0488 07c2 2f14 6bc0 7353 77c2 c6bc eac1
00000300: 3c6a 72c0 4c60 1ac2 d025 11c2 aa93 09c2
00000310: 1bd5 25c1 f4c0 fcbf 47de 61c2 e7c1 16c2
00000320: a667 673d 220e d4c0 314a 98b8 4c37 72c0
00000330: 5161 a03e 1edc 46c0 489c febe 614c a6c0
00000340: 8fbc d3c0 d289 8fc0 9723 92bb ea0b 123b
00000350: 9ac7 223d f557 4eb0 cb98 08c0 9f34 9d3d
00000360: 0fe4 b8ba bcfa 07c0 4b90 e9ba c890 d1bf
00000370: 0f80 8cc0 0675 45c1 42d8 85c0 6454 b8c3
00000380: 523a 773c eeb0 a4be 5298 b2c0 d3c6 50c0
00000390: 103b a4c0 211a d8bf ef93 4b3d 6eb0 513c
000003a0: 4b69 6ac0 5732 0ebc 36ca d5bf ed03 97bf
000003b0: afcf 20c0 c2c0 39c1 9447 b83b 0ffe 17bc
000003c0: 42a6 e43d 918e e63b a7be ac3c a54d 38c0
000003d0: b254 833b ff0c 79c0 fce5 023d ecd0 edbf
000003e0: 7209 f4bc e8df 8ebb 402c 72c0 e3b8 993d
000003f0: 12a3 273c e335 c83c 846c 40be 5893 adc0
-365.83194 -26.783249 -0.39649242 -22.271091 45.429455 -1.6845024 -364.8908 -366.6283
39.795208 -13.841673 17.70116 -0.09543052 0.018105518 -367.30615 45.454903 14.227315
-367.89865 -21.143795 -0.31237254 18.19185 -17.644894 -3.6719627 -31.960161 -369.84985
-0.6264343 52.30181 260.28763 -12.50349 -366.38412 -16.779726 145.68028 -362.73715
-36.66714 0.9384289 -365.90112 20.325502 198.43123 -199.81819 20.917604 -1.5937134
-364.77274 3.2176962 -1.9191011 -22.05337 -368.24942 -64.04395 15.540041 0.15688246
5.198804 -369.29395 -15.383428 -50.249233 -9.596497 -2.7476194 -17.013397 -51.95638
-11.326127 -0.082199804 0.04761817 -363.26645 -1.5764462 -4.1544304 -0.19078992 -5.3850875
-365.7824 -370.38773 -0.9938263 -3.4434087 0.12140884 -28.47816 -17.096111 2.7479668
-6.0616755 -10.285693 -1.0320826 -369.43887 -368.5735 -23.140614 -42.34281 -0.796432
-0.20602024 101.97739 -23.237879 -13.418447 -17.849146 -26.4457 25.118153 -5.715394
-368.16202 -21.056189 -27.504221 -6.64899 -199.84245 -1.4632287 -369.51163 -51.315887
53.065426 -368.34213 24.695261 -64.559494 -22.239693 -59.745483 -2.661081 -71.71884
-34.092384 -37.303844 -25.612598 -35.291355 -12.842163 -56.26493 -21.281555 -3.930459
-17.588976 -4.25305 -32.36725 -22.555128 -37.77577 -44.829178 -30.033113 -33.106472
-46.515133 -5.6887255 -37.8623 -33.341812 -26.740915 -7.4434757 -30.15996 -42.156937
-36.070877 -26.523643 -39.967392 -35.553318 -36.767326 -14.25477 -31.035868 -20.53536
-20.875467 -6.1540313 0.05267532 -0.36249688 -34.998566 -10.368074 -33.64295 -13.610416
-29.831944 -40.786407 -4.2127094 -42.543224 -2.654499 -35.245586 -22.90177 -4.6955028
-1.3154312 -31.579063 -40.624233 -53.735294 -28.395298 -1.7780578 -8.228344 -27.372984
-28.017828 -4.646986 -4.7601075 -54.638264 -56.60719 -60.346024 -1.1210498 -1.7905681
-49.32878 -1.6338501 -37.8435 -0.8197482 -42.60632 -61.738277 -29.24742 -11.478907
-25.066437 -27.532331 -5.7450275 -5.255318 -27.508411 -11.105892 -43.614597 -2.077772
-1.0856804 -61.906826 -0.00071040296 -3.351897 -33.882828 -3.673107 -61.831493 -29.342175
-3.787734 -38.59404 -36.286926 -34.394203 -10.364528 -1.9746385 -56.467068 -37.689358
0.05649533 -6.626725 -7.261744e-05 -3.784625 0.31324247 -3.107185 -0.49728608 -5.1968236
-6.6167674 -4.485574 -0.004459809 0.0022284933 0.039741136 -7.506736e-10 -2.1343257 0.07676052
-0.0014106053 -2.1246786 -0.0017819492 -1.6372309 -4.390632 -12.34107 -4.1826487 -368.6593
0.015089588 -0.32166237 -5.581094 -3.2621353 -5.13221 -1.6882974 0.049701627 0.012798412
-3.6626766 -0.008678994 -1.6702335 -1.1798073 -2.512676 -11.60956 0.005623767 -0.009276881
0.11164524 0.007036038 0.021087004 -2.879739 0.004007899 -3.8914182 0.03195761 -1.8579383
-0.02978966 -0.004360188 -3.7839508 0.075059675 0.01023175 0.024439758 -0.18791395 -5.4242363

group.0.bias f4 [100]
00000000: ac1f b6c3 53b5 9bc2 bf03 98c2 be45 23c3
00000010: d8ed 1cc3 43f1 44c3 ee3f b7c3 916d 9842
00000020: 6e0e 5dc3 d1fd abc2 bad0 b6c3 8bf7 e8be
00000030: a01b 7fbf f03a c3bf 12c9 b7c3 f204 eebf
00000040: b6b1 dcbe fcde 8dc3 32a5 61bf 89f4 9842
00000050: b989 50c2 5427 79c3 3796 5cc2 a713 a843
00000060: da1b 6fbe 18ee b7c3 2c40 b7c3 c32c e7c2
00000070: 62b5 8ac2 4b1e fdc1 e26a 83c3 6eba abc3
00000080: 88bf 07c3 ee1a b9c3 38a9 b7c3 8ff2 aac1
00000090: edcd b5c3 5311 8ac3 0471 e0c1 02f9 21c0
000000a0: 1470 b7c3 31cf dac2 f31a b6bf 0aef 4ec2
000000b0: 5f37 9fc1 3f3c 54c3 86f7 f0c2 aa0a bcc2
000000c0: 487e 39c2 b866 e1c1 43c1 70c2 cce0 b8c3
000000d0: 20ab abc1 e121 62be 3580 a4c0 09dc 48c3
000000e0: 3be9 07c3 acff febf 9b3e b8c3 e59f ab42
000000f0: e30a d6bf f956 e2be a6b1 02c1 6eb3 b7c3
00000100: d69e b5c3 2477 00c1 51f5 d6c0 9fd7 f2bf
00000110: f715 fcc2 496a a5c3 4a94 fdc2 0911 20c3
00000120: a055 21c2 3d7e 50c3 91ce afc0 5a1c 47c1
00000130: bf74 b6c3 449f 92c2 8959 39c2 7a31 05c3
00000140: ca7f 22c1 ce42 b7c3 dc2c 83c2 81ca b1c3
00000150: f1a1 1cbe 68a7 5fc2 68c5 b5c2 3234 b9c3
00000160: f6f1 95c0 245a b7c3 7090 56c2 2454 ffc2
00000170: 1368 bbc2 9c08 6dc2 1ba2 34c0 a8f8 b6c3
00000180: ea51 a1c3 d48f acc2 5ca5 9ac3 a2f4 a943
-364.24744 -77.85415 -76.00732 -163.27243 -156.92908 -196.94243 -366.49945 76.214
-221.05637 -85.995735 -365.63068 -0.4550136 -0.9965153 -1.5252361 -367.57086 -1.8595259
-0.43104333 -283.74207 -0.88142693 76.47761 -52.134495 -249.15363 -55.146694 336.15353
-0.23350468 -367.8601 -366.50134 -115.587425 -69.35426 -31.639791 -262.83502 -343.45648
-135.74817 -370.2104 -367.32202 -21.368437 -363.6088 -276.13535 -28.055183 -2.5308232
-366.8756 -109.40467 -1.4226974 -51.733437 -19.902037 -212.23534 -120.483444 -94.02083
-46.37332 -28.175156 -60.188732 -369.75623 -21.458557 -0.22083236 -5.1406503 -200.85951
-135.91106 -1.9921775 -368.4891 85.812294 -1.6722072 -0.4420698 -8.168371 -367.4018
-363.2409 -8.029087 -6.717446 -1.8972052 -126.0429 -330.83035 -126.78963 -160.06654
-40.33362 -208.49312 -5.4939656 -12.444422 -364.91208 -73.311066 -46.337437 -133.19327
-10.1561985 -366.5219 -65.587616 -355.58206 -0.1529615 -55.913483 -90.88556 -370.40778
-4.6857862 -366.70422 -53.641052 -127.66434 -93.70327 -59.258408 -2.8223941 -365.94263
-322.63995 -86.280914 -309.29187 339.9112

fc1.weight f4 [100, 240]
00000000: bb93 a043 33f0 8543 ca61 6943 5ee2 40c3
00000010: 4b90 5b43 6c9e b543 45a6 b543 3f4b b543
00000020: adc7 1443 59c3 c6c2 54b7 e241 5eb3 a442
00000030: fff6 b543 b390 8643 6bfb 6c43 9808 8a43
00000040: ecaf 7b43 a36c 6042 c514 8c42 dc3d 0d43
00000050: d4f3 b643 bae1 b543 a6e5 a243 8782 0a43
00000060: 6954 7841 0a17 4ac3 9523 5143 87ed b543
00000070: b91f 9b43 8b23 8e43 ec3b b543 1072 9b43
00000080: c252 b9c2 3c5f c441 33c1 b543 7158 b743
00000090: 710d b643 726a 7743 c23d 4843 a887 0ac2
000000a0: fcff a8c2 060c 7943 4f11 b643 9afb 5643
000000b0: 8209 8c43 e104 8343 7d23 4f43 7ed2 03c3
000000c0: 32f6 bf42 28c6 b743 7627 b643 fc69 b343
000000d0: afd7 1b43 da9d 1342 d628 d7c2 4417 9042
000000e0: dcb0 b543 6c0c b643 432e a043 b007 9743
000000f0: 5681 9a43 21cd 6543 a171 dac2 0ba9 8a43
00000100: 06c7 b543 a1a3 b643 0eca 7543 c443 7043
00000110: 0284 6141 44a2 2dc2 f410 6443 5dc1 b543
00000120: a57d 8c43 0bb2 2f43 07bf 9e43 269d 8843
00000130: ae86 bcc2 5ff6 8042 e55f b543 4e4f b643
00000140: 4307 9ac3 6a4b b6c3 d520 b7c3 b05b b7c3
00000150: ac3c a2c3 b37d b7c3 d739 b7c3 1252 3d43
00000160: 10f4 1941 bd66 06c1 8714 0ac3 640b 5bc2
00000170: cf6c b0c3 1b42 30c3 ca47 70c3 ce1e a5c3
00000180: c12a a5c3 a133 b8c3 a95b 58c3 3b6d 90c3
00000190: cb9b b7c3 7fb0 b6c3 c7fe d342 0d61 31c1
000001a0: 1a04 1642 73ba e0c2 7b90 77c2 959c b7c3
000001b0: 50ac 43c3 ffa6 70c3 e478 b6c3 1c53 b6c3
000001c0: d927 b6c3 29f9 87c3 6a55 b7c3 e594 b7c3
000001d0: 9c12 51c3 c88d 0f43 1ef0 3842 aea5 3042
000001e0: 5c6d e4c1 fd40 10c3 b43f b6c3 7d6e 58c3
000001f0: 75db 89c3 137c aec3 2fc0 b7c3 5dd5 b7c3
00000200: 061a 8cc3 1025 b8c3 766e b7c3 56c9 e042
00000210: 3eca 4341 9a78 5c42 1ff4 11c2 e80d 22c3
00000220: a107 5dc3 33f6 73c3 3b29 64c3 026e a1c3
00000230: c756 b6c3 3506 b7c3 cc33 b0c3 a6ce b5c3
00000240: 5485 b8c3 60a3 a3c3 d0ea 3b43 5486 3843
00000250: 1028 d541 1b04 3ac1 ce49 6ac3 3108 b6c3
00000260: 8be8 15c3 4b94 edc2 ba1c 96c3 4948 b7c3
00000270: fced b7c3 d784 89c3 d906 b8c3 dc9d b7c3
00000280: 103b c142 3d26 2b43 91ca 3b43 ca8f 4bc3
00000290: 414c 743f ca8e 8443 017f b543 4f88 0cc3
000002a0: 4a75 c141 4f60 dc42 5831 b6c1 fac2 ea42
000002b0: d5d7 2743 139c 2243 21e6 d942 8277 4743
000002c0: 2edc 2043 62b6 4bc3 5357 18c1 52eb f842
000002d0: dd0b b443 ba9f 1043 34b9 46c3 149c 9a42
000002e0: 8bf9 0343 10b5 4bc3 4d83 5043 8a10 1343
000002f0: c660 2843 7fc0 2343 8b73 1643 5a54 4e43
00000300: b06b 4dc3 447c 9741 e95a 1043 b121 b743
00000310: 65df 8843 3fd3 bbc2 5a46 4742 34b7 37c1
00000320: 51e0 9842 428e 9543 5b57 2943 c7c2 1843
00000330: 6f3c ed41 7e72 1143 2ab6 3e43 2e7b 4ec3
00000340: dd8c cdc0 948a 1643 eca3 b543 c4c1 20c2
00000350: 431c a342 7ffd 7443 7129 28c3 46e0 da42
00000360: a474 7943 6381 fa42 89f8 e142 cc38 1e43
00000370: 883a 4d43 f281 ad42 b8b4 4ec3 2a02 7642
00000380: 3da0 9b43 b45e b543 d484 0dc2 005d 16c2
00000390: 0505 2c42 fd2c d041 4e36 5743 d472 1143
000003a0: a828 0243 d686 9d42 89af 5943 8433 7e43
000003b0: 769a 4ec3 5b2c 1342 ba63 3343 2890 b543
000003c0: 4672 ba42 792e ad42 a195 aa42 4f22 a342
000003d0: 7be5 9442 5367 a042 dc75 a642 b3b5 a042
000003e0: fce5 a042 a78d ad42 133c 9042 5ef5 aa42
000003f0: c1fc b342 019b b342 f097 b942 c8f6 b842
321.15414 267.87656 233.38199 -192.88425 219.56364 363.23767 363.29898 362.58786
148.77998 -99.38154 28.339516 82.35033 363.92966 269.13046 236.9821 276.06714
251.6872 56.10609 70.040565 141.24164 365.9049 363.7635 325.79413 138.50987
15.520608 -202.09 209.13899 363.85568 310.24783 284.27768 362.46814 310.8911
-92.66164 24.546501 363.50937 366.69095 364.105 247.4158 200.24124 -34.632477
-84.49997 249.04697 364.13522 214.98282 280.07428 262.03812 207.13863 -131.82224
95.98085 367.5481 364.3083 358.828 155.84251 36.904152 -107.57976 72.04544
363.3817 364.09705 320.36142 302.06006 309.01044 229.80128 -109.22193 277.32065
363.55487 365.27835 245.78928 240.26471 14.094728 -43.408463 228.06622 363.51065
280.9816 175.69548 317.4924 273.22772 -94.26305 64.48119 362.74918 364.61957
-308.05673 -364.58917 -366.2565 -366.7163 -324.474 -366.98203 -366.45187 189.32059
9.622086 -8.400083 -138.08018 -54.761124 -352.85007 -176.25822 -240.28043 -330.24066
-330.334 -368.40335 -216.35805 -288.85336 -367.21713 -365.37888 105.99761 -11.086194
37.504005 -112.36416 -61.891094 -367.2233 -195.6731 -240.65233 -364.94446 -364.6493
-364.3113 -271.94656 -366.6673 -367.16324 -209.0727 143.55383 46.23449 44.161797
-28.553398 -144.25386 -364.49768 -216.4316 -275.7145 -348.96933 -367.50143 -367.6669
-280.2033 -368.28955 -366.86298 112.393234 12.236876 55.117775 -36.4884 -162.05432
-221.0298 -243.96172 -228.16106 -322.85944 -364.67795 -366.0485 -352.40466 -363.61444
-369.04163 -327.27637 187.91724 184.52472 26.644562 -11.626002 -234.2883 -364.064
-149.90837 -118.789635 -300.22443 -366.56473 -367.85925 -275.0378 -368.0535 -367.23328
96.61536 171.14937 187.79128 -203.56168 0.95428854 265.11554 362.99222 -140.53246
24.18227 110.1881 -22.774094 117.38081 167.8431 162.60966 108.94947 199.46683
160.86008 -203.71243 -9.521319 124.45961 360.09268 144.62393 -198.72345 77.30484
131.97478 -203.70728 208.5129 147.0646 168.37802 163.75194 150.45134 206.3295
-205.42065 18.935677 144.35512 366.2632 273.74527 -93.91259 49.818703 -11.482227
76.43812 299.1114 169.34123 152.76085 29.654509 145.44724 190.71158 -206.48117
-6.423445 150.54132 363.28064 -40.189224 81.5552 244.99022 -168.16188 109.438034
249.45563 125.25271 112.98542 158.22186 205.22864 86.7538 -206.70593 61.502113
311.25186 362.73987 -35.379715 -37.59082 43.0049 26.021967 215.21213 145.44855
130.15881 78.76335 217.68568 254.20123 -206.60336 36.793316 179.38956 363.12622
93.22319 86.59077 85.292244 81.56701 74.448204 80.201805 83.230194 80.35488
80.44919 86.776665 72.11733 85.47923 89.99366 89.80274 92.79675 92.481995

fc1.bias f4 [100]
00000000: cadc 4dc3 3428 cec1 da31 ffc2 892b e641
00000010: 226b 6742 9f02 aec3 db72 b7c3 52fa b7c3
00000020: 2f39 1fc3 3b3d 42c2 ba1e 1d43 e59b 3a43
00000030: e707 2843 b7d4 8241 43fe 9f41 519c 3443
00000040: 7254 b843 7fb2 aa43 1788 2d43 f0f0 82c1
00000050: 7c95 7841 1618 5c43 f03a cd42 5f2f b843
00000060: 09d4 1343 9ab8 b443 0724 1ec3 f3e4 16c2
00000070: 1840 b8c3 9d59 0343 9833 2a43 be59 b8c3
00000080: 7857 4943 d6a4 06c3 fea3 4dc3 1ff9 6442
00000090: 8dc4 d1c2 b51c b843 17db 9842 dff0 6542
000000a0: f168 b8c3 ff47 3f40 1332 2b43 bdc5 7441
000000b0: 4ec2 cd42 2911 b943 16b9 3e42 a16c a943
000000c0: 1a98 1f42 5616 b843 93c3 9242 bf5b aac3
000000d0: 194d b9c3 c233 2c43 9831 5ac1 75fd b6c3
000000e0: d54c 2843 3b0e ac43 828d ecc2 c2cd 4ec3
000000f0: 0300 3243 6c03 5e41 c761 9442 cf9c f341
00000100: ec8b 98c2 b509 d542 9443 b9c3 5865 b9c3
00000110: 0f01 3543 29cf a943 f47f 3743 a6fc 6242
00000120: cf4b 1643 610a 2243 d9f1 2f43 9636 b843
00000130: 7085 b743 0b67 a943 27eb b8c2 bc19 4b42
00000140: b989 b643 8e42 53c3 cd70 c342 988b 5943
00000150: 137c a342 549b 2143 1512 ab43 fc18 b9c3
00000160: 6eec b743 15a1 3942 e34f 2b43 d4c8 eb40
00000170: 1234 51c3 5e32 aa43 3000 b843 f4b0 c0c1
00000180: 2ad4 aa43 39be 8fc1 d053 1143 ddf6 b5c2
-205.86246 -25.76963 -127.59737 28.771257 57.85462 -348.02048 -366.8973 -367.95563
-159.22337 -48.559795 157.12003 186.60896 168.03087 16.353865 19.999151 180.61061
368.65973 341.3945 173.5316 -16.367645 15.536495 220.09409 102.61511 368.3701
147.82826 361.4422 -158.14073 -37.723583 -368.50073 131.35005 170.20154 -368.7011
201.34167 -134.64389 -205.6406 57.243282 -104.88389 368.22427 76.42791 57.485226
-368.81985 2.9887693 171.1956 15.298276 102.8795 370.13406 47.680748 338.84866
39.898537 368.1745 73.38198 -340.71677 -370.60233 172.20218 -13.637108 -365.98013
168.30013 344.11118 -118.27638 -206.80374 178.00005 13.875835 74.19097 30.451567
-76.273285 106.51896 -370.52795 -370.79175 181.00414 339.61844 183.49982 56.746727
150.29613 162.04054 175.94472 368.42645 367.04248 338.80502 -92.45928 50.77513
365.07596 -211.25998 97.720314 217.54529 81.74233 161.60675 342.14127 -370.1952
367.8471 46.407307 171.31206 7.368265 -209.2034 340.3935 368.00146 -24.086403
341.65753 -17.967882 145.3274 -90.982155

fc2.0.0.weight f4 [100, 100]
00000000: 7dea b6c3 1844 d6c1 0e01 cbbe 322b b2c1
00000010: c3b7 3542 c69d d7bf 0672 b6c3 6c50 b7c3
00000020: 4b2e 1f42 7e77 5dc1 fa9b 8d41 1471 c3bd
00000030: 0652 943c 30a7 b7c3 d2d1 3542 15a3 6341
00000040: 07f3 b7c3 7e26 a9c1 4bef 9fbe e988 9141
00000050: be28 8dc1 7001 6bc0 69ae ffc1 c8ec b8c3
00000060: 005e 20bf 0e35 5142 d124 8243 4c0e 48c1
00000070: 2b31 b7c3 e13c 86c1 27ae 1143 5b5e b5c3
00000080: 27ab 12c2 e03c 703f 58f3 b6c3 a19a a241
00000090: 656e 4643 75d1 47c3 4157 a741 cdfe cbbf
000000a0: e962 b6c3 bcee 4d40 1ba5 f5bf 4d6d b0c1
000000b0: ed1f b8c3 8116 80c2 02a4 7841 cca5 203e
000000c0: 9a5c a640 a0a5 b8c3 8522 76c1 37ff 48c2
000000d0: 408b 19c1 ffd8 2fc0 701b 88c1 55d3 4fc2
000000e0: d137 35c1 5f58 a8bd 450b 433d 1ba2 b5c3
000000f0: fdc8 c9bf 18f1 84c0 6f5e 43be a352 acc0
00000100: 26e4 b6c3 a131 b9c3 676b 7ebf cf60 5cc0
00000110: 33a5 f83d 46d3 e3c1 d6c4 88c1 b0de 2f40
00000120: 3ff9 c1c0 3392 24c1 481b 84bf 2db8 b8c3
00000130: 6849 b8c3 fa1f b9c1 0a5f 29c2 f8e2 4bbf
00000140: f8f6 52be 6cf4 cb42 2de7 b9c1 f5b1 56c1
00000150: 0dcb 8ec1 cb90 d3c1 faf1 c841 82e4 b6c0
00000160: bd14 b8c3 1373 a8c1 a508 dcc1 87c4 d4c0
00000170: abd7 47c3 144b bbbf 7dc1 b8c3 7843 4dc2
00000180: ff42 5442 cb2b b8c3 e58f c541 761e 81c2
00000190: e4ea b1c1 60fb 6ec2 274f 2ac0 0c70 8fc2
000001a0: 9a5e 08c2 2337 15c2 9ae6 ccc1 592a 0dc2
000001b0: 8079 4dc1 4a0f 61c2 a040 aac1 a48c 7bc0
000001c0: 39b6 8cc1 fc18 88c0 1078 01c2 e770 b4c1
000001d0: 631a 17c2 1451 33c2 d143 f0c1 076d 04c2
000001e0: 7f0f 3ac2 0a0a b6c0 ff72 17c2 045e 05c2
000001f0: 65ed d5c1 f430 eec0 9947 f1c1 b4a0 28c2
00000200: 9448 10c2 6c30 d4c1 9cde 1fc2 9936 0ec2
00000210: be11 13c2 8a13 64c1 7549 f8c1 6b48 a4c1
00000220: f500 a7c1 d3ed c4c0 14c2 573d 3199 b9be
00000230: 88fe 0bc2 a2e3 25c1 6192 06c2 44c4 59c1
00000240: d2a7 eec1 4825 23c2 84ce 86c0 432c 2ac2
00000250: 50e3 29c0 7bfb 0cc2 d336 b7c1 8f41 96c0
00000260: 0d60 a8bf eca1 fcc1 377f 22c2 f1f0 56c2
00000270: 9229 e3c1 6697 e3bf 4ca7 03c1 dffb dac1
00000280: 8324 e0c1 1cb4 94c0 cd52 98c0 958d 5ac2
00000290: c36d 62c2 5462 71c2 8f7e 8fbf 5631 e5bf
000002a0: ac50 45c2 0022 d1bf be5f 17c2 05db 51bf
000002b0: df6c 2ac2 fff3 76c2 b7fa e9c1 9aa9 37c1
000002c0: 1088 c8c1 3742 dcc1 44d7 b7c0 912b a8c0
000002d0: 3a11 dcc1 bcb1 31c1 5975 2ec2 37fa 04c0
000002e0: 93f7 8abf 97a0 77c2 563a 3aba 7b85 56c0
000002f0: 0488 07c2 2f14 6bc0 7353 77c2 c6bc eac1
00000300: 3c6a 72c0 4c60 1ac2 d025 11c2 aa93 09c2
00000310: 1bd5 25c1 f4c0 fcbf 47de 61c2 e7c1 16c2
00000320: a667 673d 220e d4c0 314a 98b8 4c37 72c0
00000330: 5161 a03e 1edc 46c0 489c febe 614c a6c0
00000340: 8fbc d3c0 d289 8fc0 9723 92bb ea0b 123b
00000350: 9ac7 223d f557 4eb0 cb98 08c0 9f34 9d3d
00000360: 0fe4 b8ba bcfa 07c0 4b90 e9ba c890 d1bf
00000370: 0f80 8cc0 0675 45c1 42d8 85c0 6454 b8c3
00000380: 523a 773c eeb0 a4be 5298 b2c0 d3c6 50c0
00000390: 103b a4c0 211a d8bf ef93 4b3d 6eb0 513c
000003a0: 4b69 6ac0 5732 0ebc 36ca d5bf ed03 97bf
000003b0: afcf 20c0 c2c0 39c1 9447 b83b 0ffe 17bc
000003c0: 42a6 e43d 918e e63b a7be ac3c a54d 38c0
000003d0: b254 833b ff0c 79c0 fce5 023d ecd0 edbf
000003e0: 7209 f4bc e8df 8ebb 402c 72c0 e3b8 993d
000003f0: 12a3 273c e335 c83c 846c 40be 5893 adc0
-365.83194 -26.783249 -0.39649242 -22.271091 45.429455 -1.6845024 -364.8908 -366.6283
39.795208 -13.841673 17.70116 -0.09543052 0.018105518 -367.30615 45.454903 14.227315
-367.89865 -21.143795 -0.31237254 18.19185 -17.644894 -3.6719627 -31.960161 -369.84985
-0.6264343 52.30181 260.28763 -12.50349 -366.38412 -16.779726 145.68028 -362.73715
-36.66714 0.9384289 -365.90112 20.325502 198.43123 -199.81819 20.917604 -1.5937134
-364.77274 3.2176962 -1.9191011 -22.05337 -368.24942 -64.04395 15.540041 0.15688246
5.198804 -369.29395 -15.383428 -50.249233 -9.596497 -2.7476194 -17.013397 -51.95638
-11.326127 -0.082199804 0.04761817 -363.26645 -1.5764462 -4.1544304 -0.19078992 -5.3850875
-365.7824 -370.38773 -0.9938263 -3.4434087 0.12140884 -28.47816 -17.096111 2.7479668
-6.0616755 -10.285693 -1.0320826 -369.43887 -368.5735 -23.140614 -42.34281 -0.796432
-0.20602024 101.97739 -23.237879 -13.418447 -17.849146 -26.4457 25.118153 -5.715394
-368.16202 -21.056189 -27.504221 -6.64899 -199.84245 -1.4632287 -369.51163 -51.315887
53.065426 -368.34213 24.695261 -64.559494 -22.239693 -59.745483 -2.661081 -71.71884
-34.092384 -37.303844 -25.612598 -35.291355 -12.842163 -56.26493 -21.281555 -3.930459
-17.588976 -4.25305 -32.36725 -22.555128 -37.77577 -44.829178 -30.033113 -33.106472
-46.515133 -5.6887255 -37.8623 -33.341812 -26.740915 -7.4434757 -30.15996 -42.156937
-36.070877 -26.523643 -39.967392 -35.553318 -36.767326 -14.25477 -31.035868 -20.53536
-20.875467 -6.1540313 0.05267532 -0.36249688 -34.998566 -10.368074 -33.64295 -13.610416
-29.831944 -40.786407 -4.2127094 -42.543224 -2.654499 -35.245586 -22.90177 -4.6955028
-1.3154312 -31.579063 -40.624233 -53.735294 -28.395298 -1.7780578 -8.228344 -27.372984
-28.017828 -4.646986 -4.7601075 -54.638264 -56.60719 -60.346024 -1.1210498 -1.7905681
-49.32878 -1.6338501 -37.8435 -0.8197482 -42.60632 -61.738277 -29.24742 -11.478907
-25.066437 -27.532331 -5.7450275 -5.255318 -27.508411 -11.105892 -43.614597 -2.077772
-1.0856804 -61.906826 -0.00071040296 -3.351897 -33.882828 -3.673107 -61.831493 -29.342175
-3.787734 -38.59404 -36.286926 -34.394203 -10.364528 -1.9746385 -56.467068 -37.689358
0.05649533 -6.626725 -7.261744e-05 -3.784625 0.31324247 -3.107185 -0.49728608 -5.1968236
-6.6167674 -4.485574 -0.004459809 0.0022284933 0.039741136 -7.506736e-10 -2.1343257 0.07676052
-0.0014106053 -2.1246786 -0.0017819492 -1.6372309 -4.390632 -12.34107 -4.1826487 -368.6593
0.015089588 -0.32166237 -5.581094 -3.2621353 -5.13221 -1.6882974 0.049701627 0.012798412
-3.6626766 -0.008678994 -1.6702335 -1.1798073 -2.512676 -11.60956 0.005623767 -0.009276881
0.11164524 0.007036038 0.021087004 -2.879739 0.004007899 -3.8914182 0.03195761 -1.8579383
-0.02978966 -0.004360188 -3.7839508 0.075059675 0.01023175 0.024439758 -0.18791395 -5.4242363

fc2.0.0.bias f4 [100]
00000000: ac1f b6c3 53b5 9bc2 bf03 98c2 be45 23c3
00000010: d8ed 1cc3 43f1 44c3 ee3f b7c3 916d 9842
00000020: 6e0e 5dc3 d1fd abc2 bad0 b6c3 8bf7 e8be
00000030: a01b 7fbf f03a c3bf 12c9 b7c3 f204 eebf
00000040: b6b1 dcbe fcde 8dc3 32a5 61bf 89f4 9842
00000050: b989 50c2 5427 79c3 3796 5cc2 a713 a843
00000060: da1b 6fbe 18ee b7c3 2c40 b7c3 c32c e7c2
00000070: 62b5 8ac2 4b1e fdc1 e26a 83c3 6eba abc3
00000080: 88bf 07c3 ee1a b9c3 38a9 b7c3 8ff2 aac1
00000090: edcd b5c3 5311 8ac3 0471 e0c1 02f9 21c0
000000a0: 1470 b7c3 31cf dac2 f31a b6bf 0aef 4ec2
000000b0: 5f37 9fc1 3f3c 54c3 86f7 f0c2 aa0a bcc2
000000c0: 487e 39c2 b866 e1c1 43c1 70c2 cce0 b8c3
000000d0: 20ab abc1 e121 62be 3580 a4c0 09dc 48c3
000000e0: 3be9 07c3 acff febf 9b3e b8c3 e59f ab42
000000f0: e30a d6bf f956 e2be a6b1 02c1 6eb3 b7c3
00000100: d69e b5c3 2477 00c1 51f5 d6c0 9fd7 f2bf
00000110: f715 fcc2 496a a5c3 4a94 fdc2 0911 20c3
00000120: a055 21c2 3d7e 50c3 91ce afc0 5a1c 47c1
00000130: bf74 b6c3 449f 92c2 8959 39c2 7a31 05c3
00000140: ca7f 22c1 ce42 b7c3 dc2c 83c2 81ca b1c3
00000150: f1a1 1cbe 68a7 5fc2 68c5 b5c2 3234 b9c3
00000160: f6f1 95c0 245a b7c3 7090 56c2 2454 ffc2
00000170: 1368 bbc2 9c08 6dc2 1ba2 34c0 a8f8 b6c3
00000180: ea51 a1c3 d48f acc2 5ca5 9ac3 a2f4 a943
-364.24744 -77.85415 -76.00732 -163.27243 -156.92908 -196.94243 -366.49945 76.214
-221.05637 -85.995735 -365.63068 -0.4550136 -0.9965153 -1.5252361 -367.57086 -1.8595259
-0.43104333 -283.74207 -0.88142693 76.47761 -52.134495 -249.15363 -55.146694 336.15353
-0.23350468 -367.8601 -366.50134 -115.587425 -69.35426 -31.639791 -262.83502 -343.45648
-135.74817 -370.2104 -367.32202 -21.368437 -363.6088 -276.13535 -28.055183 -2.5308232
-366.8756 -109.40467 -1.4226974 -51.733437 -19.902037 -212.23534 -120.483444 -94.02083
-46.37332 -28.175156 -60.188732 -369.75623 -21.458557 -0.22083236 -5.1406503 -200.85951
-135.91106 -1.9921775 -368.4891 85.812294 -1.6722072 -0.4420698 -8.168371 -367.4018
-363.2409 -8.029087 -6.717446 -1.8972052 -126.0429 -330.83035 -126.78963 -160.06654
-40.33362 -208.49312 -5.4939656 -12.444422 -364.91208 -73.311066 -46.337437 -133.19327
-10.1561985 -366.5219 -65.587616 -355.58206 -0.1529615 -55.913483 -90.88556 -370.40778
-4.6857862 -366.70422 -53.641052 -127.66434 -93.70327 -59.258408 -2.8223941 -365.94263
-322.63995 -86.280914 -309.29187 339.9112

fc2.1.0.weight f4 [100, 100]
00000000: 7dea b6c3 1844 d6c1 0e01 cbbe 322b b2c1
00000010: c3b7 3542 c69d d7bf 0672 b6c3 6c50 b7c3
00000020: 4b2e 1f42 7e77 5dc1 fa9b 8d41 1471 c3bd
00000030: 0652 943c 30a7 b7c3 d2d1 3542 15a3 6341
00000040: 07f3 b7c3 7e26 a9c1 4bef 9fbe e988 9141
00000050: be28 8dc1 7001 6bc0 69ae ffc1 c8ec b8c3
00000060: 005e 20bf 0e35 5142 d124 8243 4c0e 48c1
00000070: 2b31 b7c3 e13c 86c1 27ae 1143 5b5e b5c3
00000080: 27ab 12c2 e03c 703f 58f3 b6c3 a19a a241
00000090: 656e 4643 75d1 47c3 4157 a741 cdfe cbbf
000000a0: e962 b6c3 bcee 4d40 1ba5 f5bf 4d6d b0c1
000000b0: ed1f b8c3 8116 80c2 02a4 7841 cca5 203e
000000c0: 9a5c a640 a0a5 b8c3 8522 76c1 37ff 48c2
000000d0: 408b 19c1 ffd8 2fc0 701b 88c1 55d3 4fc2
000000e0: d137 35c1 5f58 a8bd 450b 433d 1ba2 b5c3
000000f0: fdc8 c9bf 18f1 84c0 6f5e 43be a352 acc0
00000100: 26e4 b6c3 a131 b9c3 676b 7ebf cf60 5cc0
00000110: 33a5 f83d 46d3 e3c1 d6c4 88c1 b0de 2f40
00000120: 3ff9 c1c0 3392 24c1 481b 84bf 2db8 b8c3
00000130: 6849 b8c3 fa1f b9c1 0a5f 29c2 f8e2 4bbf
00000140: f8f6 52be 6cf4 cb42 2de7 b9c1 f5b1 56c1
00000150: 0dcb 8ec1 cb90 d3c1 faf1 c841 82e4 b6c0
00000160: bd14 b8c3 1373 a8c1 a508 dcc1 87c4 d4c0
00000170: abd7 47c3 144b bbbf 7dc1 b8c3 7843 4dc2
00000180: ff42 5442 cb2b b8c3 e58f c541 761e 81c2
00000190: e4ea b1c1 60fb 6ec2 274f 2ac0 0c70 8fc2
000001a0: 9a5e 08c2 2337 15c2 9ae6 ccc1 592a 0dc2
000001b0: 8079 4dc1 4a0f 61c2 a040 aac1 a48c 7bc0
000001c0: 39b6 8cc1 fc18 88c0 1078 01c2 e770 b4c1
000001d0: 631a 17c2 1451 33c2 d143 f0c1 076d 04c2
000001e0: 7f0f 3ac2 0a0a b6c0 ff72 17c2 045e 05c2
000001f0: 65ed d5c1 f430 eec0 9947 f1c1 b4a0 28c2
00000200: 9448 10c2 6c30 d4c1 9cde 1fc2 9936 0ec2
00000210: be11 13c2 8a13 64c1 7549 f8c1 6b48 a4c1
00000220: f500 a7c1 d3ed c4c0 14c2 573d 3199 b9be
00000230: 88fe 0bc2 a2e3 25c1 6192 06c2 44c4 59c1
00000240: d2a7 eec1 4825 23c2 84ce 86c0 432c 2ac2
00000250: 50e3 29c0 7bfb 0cc2 d336 b7c1 8f41 96c0
00000260: 0d60 a8bf eca1 fcc1 377f 22c2 f1f0 56c2
00000270: 9229 e3c1 6697 e3bf 4ca7 03c1 dffb dac1
00000280: 8324 e0c1 1cb4 94c0 cd52 98c0 958d 5ac2
00000290: c36d 62c2 5462 71c2 8f7e 8fbf 5631 e5bf
000002a0: ac50 45c2 0022 d1bf be5f 17c2 05db 51bf
000002b0: df6c 2ac2 fff3 76c2 b7fa e9c1 9aa9 37c1
000002c0: 1088 c8c1 3742 dcc1 44d7 b7c0 912b a8c0
000002d0: 3a11 dcc1 bcb1 31c1 5975 2ec2 37fa 04c0
000002e0: 93f7 8abf 97a0 77c2 563a 3aba 7b85 56c0
000002f0: 0488 07c2 2f14 6bc0 7353 77c2 c6bc eac1
00000300: 3c6a 72c0 4c60 1ac2 d025 11c2 aa93 09c2
00000310: 1bd5 25c1 f4c0 fcbf 47de 61c2 e7c1 16c2
00000320: a667 673d 220e d4c0 314a 98b8 4c37 72c0
00000330: 5161 a03e 1edc 46c0 489c febe 614c a6c0
00000340: 8fbc d3c0 d289 8fc0 9723 92bb ea0b 123b
00000350: 9ac7 223d f557 4eb0 cb98 08c0 9f34 9d3d
00000360: 0fe4 b8ba bcfa 07c0 4b90 e9ba c890 d1bf
00000370: 0f80 8cc0 0675 45c1 42d8 85c0 6454 b8c3
00000380: 523a 773c eeb0 a4be 5298 b2c0 d3c6 50c0
00000390: 103b a4c0 211a d8bf ef93 4b3d 6eb0 513c
000003a0: 4b69 6ac0 5732 0ebc 36ca d5bf ed03 97bf
000003b0: afcf 20c0 c2c0 39c1 9447 b83b 0ffe 17bc
000003c0: 42a6 e43d 918e e63b a7be ac3c a54d 38c0
000003d0: b254 833b ff0c 79c0 fce5 023d ecd0 edbf
000003e0: 7209 f4bc e8df 8ebb 402c 72c0 e3b8 993d
000003f0: 12a3 273c e335 c83c 846c 40be 5893 adc0
-365.83194 -26.783249 -0.39649242 -22.271091 45.429455 -1.6845024 -364.8908 -366.6283
39.795208 -13.841673 17.70116 -0.09543052 0.018105518 -367.30615 45.454903 14.227315
-367.89865 -21.143795 -0.31237254 18.19185 -17.644894 -3.6719627 -31.960161 -369.84985
-0.6264343 52.30181 260.28763 -12.50349 -366.38412 -16.779726 145.68028 -362.73715
-36.66714 0.9384289 -365.90112 20.325502 198.43123 -199.81819 20.917604 -1.5937134
-364.77274 3.2176962 -1.9191011 -22.05337 -368.24942 -64.04395 15.540041 0.15688246
5.198804 -369.29395 -15.383428 -50.249233 -9.596497 -2.7476194 -17.013397 -51.95638
-11.326127 -0.082199804 0.04761817 -363.26645 -1.5764462 -4.1544304 -0.19078992 -5.3850875
-365.7824 -370.38773 -0.9938263 -3.4434087 0.12140884 -28.47816 -17.096111 2.7479668
-6.0616755 -10.285693 -1.0320826 -369.43887 -368.5735 -23.140614 -42.34281 -0.796432
-0.20602024 101.97739 -23.237879 -13.418447 -17.849146 -26.4457 25.118153 -5.715394
-368.16202 -21.056189 -27.504221 -6.64899 -199.84245 -1.4632287 -369.51163 -51.315887
53.065426 -368.34213 24.695261 -64.559494 -22.239693 -59.745483 -2.661081 -71.71884
-34.092384 -37.303844 -25.612598 -35.291355 -12.842163 -56.26493 -21.281555 -3.930459
-17.588976 -4.25305 -32.36725 -22.555128 -37.77577 -44.829178 -30.033113 -33.106472
-46.515133 -5.6887255 -37.8623 -33.341812 -26.740915 -7.4434757 -30.15996 -42.156937
-36.070877 -26.523643 -39.967392 -35.553318 -36.767326 -14.25477 -31.035868 -20.53536
-20.875467 -6.1540313 0.05267532 -0.36249688 -34.998566 -10.368074 -33.64295 -13.610416
-29.831944 -40.786407 -4.2127094 -42.543224 -2.654499 -35.245586 -22.90177 -4.6955028
-1.3154312 -31.579063 -40.624233 -53.735294 -28.395298 -1.7780578 -8.228344 -27.372984
-28.017828 -4.646986 -4.7601075 -54.638264 -56.60719 -60.346024 -1.1210498 -1.7905681
-49.32878 -1.6338501 -37.8435 -0.8197482 -42.60632 -61.738277 -29.24742 -11.478907
-25.066437 -27.532331 -5.7450275 -5.255318 -27.508411 -11.105892 -43.614597 -2.077772
-1.0856804 -61.906826 -0.00071040296 -3.351897 -33.882828 -3.673107 -61.831493 -29.342175
-3.787734 -38.59404 -36.286926 -34.394203 -10.364528 -1.9746385 -56.467068 -37.689358
0.05649533 -6.626725 -7.261744e-05 -3.784625 0.31324247 -3.107185 -0.49728608 -5.1968236
-6.6167674 -4.485574 -0.004459809 0.0022284933 0.039741136 -7.506736e-10 -2.1343257 0.07676052
-0.0014106053 -2.1246786 -0.0017819492 -1.6372309 -4.390632 -12.34107 -4.1826487 -368.6593
0.015089588 -0.32166237 -5.581094 -3.2621353 -5.13221 -1.6882974 0.049701627 0.012798412
-3.6626766 -0.008678994 -1.6702335 -1.1798073 -2.512676 -11.60956 0.005623767 -0.009276881
0.11164524 0.007036038 0.021087004 -2.879739 0.004007899 -3.8914182 0.03195761 -1.8579383
-0.02978966 -0.004360188 -3.7839508 0.075059675 0.01023175 0.024439758 -0.18791395 -5.4242363

fc2.1.0.bias f4 [100]
00000000: ac1f b6c3 53b5 9bc2 bf03 98c2 be45 23c3
00000010: d8ed 1cc3 43f1 44c3 ee3f b7c3 916d 9842
00000020: 6e0e 5dc3 d1fd abc2 bad0 b6c3 8bf7 e8be
00000030: a01b 7fbf f03a c3bf 12c9 b7c3 f204 eebf
00000040: b6b1 dcbe fcde 8dc3 32a5 61bf 89f4 9842
00000050: b989 50c2 5427 79c3 3796 5cc2 a713 a843
00000060: da1b 6fbe 18ee b7c3 2c40 b7c3 c32c e7c2
00000070: 62b5 8ac2 4b1e fdc1 e26a 83c3 6eba abc3
00000080: 88bf 07c3 ee1a b9c3 38a9 b7c3 8ff2 aac1
00000090: edcd b5c3 5311 8ac3 0471 e0c1 02f9 21c0
000000a0: 1470 b7c3 31cf dac2 f31a b6bf 0aef 4ec2
000000b0: 5f37 9fc1 3f3c 54c3 86f7 f0c2 aa0a bcc2
000000c0: 487e 39c2 b866 e1c1 43c1 70c2 cce0 b8c3
000000d0: 20ab abc1 e121 62be 3580 a4c0 09dc 48c3
000000e0: 3be9 07c3 acff febf 9b3e b8c3 e59f ab42
000000f0: e30a d6bf f956 e2be a6b1 02c1 6eb3 b7c3
00000100: d69e b5c3 2477 00c1 51f5 d6c0 9fd7 f2bf
00000110: f715 fcc2 496a a5c3 4a94 fdc2 0911 20c3
00000120: a055 21c2 3d7e 50c3 91ce afc0 5a1c 47c1
00000130: bf74 b6c3 449f 92c2 8959 39c2 7a31 05c3
00000140: ca7f 22c1 ce42 b7c3 dc2c 83c2 81ca b1c3
00000150: f1a1 1cbe 68a7 5fc2 68c5 b5c2 3234 b9c3
00000160: f6f1 95c0 245a b7c3 7090 56c2 2454 ffc2
00000170: 1368 bbc2 9c08 6dc2 1ba2 34c0 a8f8 b6c3
00000180: ea51 a1c3 d48f acc2 5ca5 9ac3 a2f4 a943
-364.24744 -77.85415 -76.00732 -163.27243 -156.92908 -196.94243 -366.49945 76.214
-221.05637 -85.995735 -365.63068 -0.4550136 -0.9965153 -1.5252361 -367.57086 -1.8595259
-0.43104333 -283.74207 -0.88142693 76.47761 -52.134495 -249.15363 -55.146694 336.15353
-0.23350468 -367.8601 -366.50134 -115.587425 -69.35426 -31.639791 -262.83502 -343.45648
-135.74817 -370.2104 -367.32202 -21.368437 -363.6088 -276.13535 -28.055183 -2.5308232
-366.8756 -109.40467 -1.4226974 -51.733437 -19.902037 -212.23534 -120.483444 -94.02083
-46.37332 -28.175156 -60.188732 -369.75623 -21.458557 -0.22083236 -5.1406503 -200.85951
-135.91106 -1.9921775 -368.4891 85.812294 -1.6722072 -0.4420698 -8.168371 -367.4018
-363.2409 -8.029087 -6.717446 -1.8972052 -126.0429 -330.83035 -126.78963 -160.06654
-40.33362 -208.49312 -5.4939656 -12.444422 -364.91208 -73.311066 -46.337437 -133.19327
-10.1561985 -366.5219 -65.587616 -355.58206 -0.1529615 -55.913483 -90.88556 -370.40778
-4.6857862 -366.70422 -53.641052 -127.66434 -93.70327 -59.258408 -2.8223941 -365.94263
-322.63995 -86.280914 -309.29187 339.9112

fc4.weight f4 [6, 100]
00000000: aa4d b743 8860 8343 73f1 b643 ddf2 a143
00000010: 93c4 2743 09fd 4443 27bd 1f43 2b5a 83c1
00000020: a1a4 8ac0 3097 b043 3e4e c542 0e54 34c3
00000030: 7839 8d2f 889d 10bc ae2d b7c3 6e61 b7bc
00000040: 8d38 1daf d24c b7c3 cb5b 9abf d259 b7c3
00000050: 894e ae43 e8a5 af42 f5ca 9042 6c0d 9a42
00000060: 8171 b43f a0da 6e41 0c18 b7c3 af02 af43
00000070: 222e dfc0 7b58 8c3e 0d9f b443 657d c941
00000080: 6d50 0c42 51b0 2842 f513 afc2 1b69 a743
00000090: cc06 b743 05fc 40c1 bf2a 7043 1d59 f5be
000000a0: cc30 5ac2 47c6 8843 6dd4 7742 619e 5abf
000000b0: 0e1c b743 09e8 c042 210f d142 beb7 7343
000000c0: f5e7 3c42 4239 7ac0 5c91 5543 e445 0ec1
000000d0: 6e69 9fac ab6c 2baf c61d 6ac0 ffd5 b643
000000e0: 7665 b743 a90f b2bf e7da 9e42 d9ba 7c43
000000f0: 378d c5b8 6326 9836 4d0c 13bf d2be 5d41
00000100: e185 9bc3 3713 65c0 aec9 dfbd 69f6 bdbc
00000110: acdb 92c0 0a0c 4b43 be57 4142 8711 c642
00000120: cdb4 6043 1070 b643 0adc dabe c871 8ebd
00000130: bc1f 80c2 ca00 6243 78d3 bb41 ab82 9e42
00000140: 137e 80bf 2639 41c2 2384 4743 e1f0 2043
00000150: 1584 4dab 7e56 4f42 f8ab 0543 a3ba 98c1
00000160: ce6b 66bf f5f8 3d43 de96 dcc0 2437 76c2
00000170: 7cf3 2ac2 7c47 8dc0 4d5f 28be 45b7 b6c3
00000180: d25d 2fc2 b07a d13f df53 b543 5034 b7c3
00000190: 4335 b543 3204 8942 59d3 b6c3 9d01 1143
000001a0: 04d8 e341 00e4 8ac1 7446 1143 579c a943
000001b0: a576 f5c2 2f8a 9442 546a b7c3 4962 e442
000001c0: be1e 6734 c13d 413d 466d b743 88db 0e3e
000001d0: 35b5 272c 5b66 b743 6655 9c40 023c 3a43
000001e0: ab7e c742 7dcb b543 953f 32c2 81b8 b643
000001f0: 5a24 993e 81c1 f141 6a94 5743 9559 3742
00000200: e806 ab41 0fa2 56c0 05dc b441 ee48 1d43
00000210: f967 64c2 2a21 3d42 4d82 b643 8d46 a642
00000220: 0469 08c0 f157 d642 b141 4642 f907 5c3f
00000230: 1096 6d43 26ac e240 8e84 ebc2 2756 a540
00000240: 03e5 b6c3 0d23 8c42 6d7b 903f 8d94 7042
00000250: 479d c5c2 f847 8440 207d 8e42 4c91 aa43
00000260: b2c8 d536 0122 1931 5d2a 6340 565c 9142
00000270: 6044 d3c2 4976 a73f 932e 5ec1 3614 1743
00000280: 4e75 e2b7 164d 94b0 8f41 2b3f 3f44 b7c3
00000290: 2f6f b743 9722 8cc2 2d09 bd3e 390d f13d
000002a0: 0b7a fe41 5201 b443 a81b b6c2 f582 b543
000002b0: b6f7 5c42 94a5 9942 b584 133f 21b2 b53e
000002c0: 66b3 1ec3 cd17 9e42 bd4b b7c3 6633 afc1
000002d0: a8ea abbd 47c1 8fc2 3012 9842 99a1 b7c3
000002e0: 5b6f 8caf 45d7 adc2 80a6 d6c1 6b0e 35c1
000002f0: 5fa5 14c1 4b40 ae42 5734 6441 f30b b743
00000300: 2257 b942 cedc 2043 ab95 6f3f 0386 b743
00000310: f496 b6c3 751e 2f42 0242 da42 2aad 4a43
00000320: e0c5 81c3 c63d 51be a18d 53c0 e6df 8843
00000330: 08ed 58c2 05f6 b643 7090 8ec2 ea35 79c2
00000340: 0fca 8bc3 48af 08c2 d562 9cc3 39bd b2c3
00000350: 4416 52b4 6f32 16bc 4744 b743 abfe 96bc
00000360: 3089 93aa b57d cf3f b78a 15c0 7934 ed42
00000370: 9ce5 85c1 1ab6 14c3 c4bf 7b40 aa27 b7c3
00000380: 18fc 2bbe 5547 6bc0 0ca7 45c3 64be 7d41
00000390: d470 e1c0 c73c 40bf c24f bdc2 5372 f5c2
000003a0: 48e3 5b43 86f7 48c1 de0e b7c3 c848 3ec2
000003b0: 732f d240 d380 ad3f f792 0d40 5076 f3be
000003c0: 36e4 d0c2 5559 b743 6026 5642 c656 7abe
000003d0: a338 b843 962f 5e41 53d4 a041 4e73 4041
000003e0: 9c40 6b41 09a4 c6bf 88c9 59c1 ea95 2abf
000003f0: 8b9d 012d daad d6b8 4cd7 dcbf be89 1141
366.60675 262.75415 365.88632 323.89737 167.76787 196.98842 159.73888 -16.419027
-4.3325963 353.18115 98.65282 -180.32834 2.5688585e-10 -0.008826621 -366.35687 -0.022385325
-1.4299158e-10 -366.60016 -1.2059263 -366.70172 348.61356 87.824036 72.3964 77.026215
1.4097139 14.928375 -366.18787 350.02097 -6.9743814 0.27411255 361.24258 25.186228
35.07854 42.172184 -87.53898 334.82114 366.0531 -12.061528 240.16698 -0.4791955
-54.547653 273.54904 61.957447 -0.8539792 366.21918 96.45319 104.52955 243.71774
47.22652 -3.9097447 213.56781 -8.892063 -4.530757e-12 -1.5590966e-10 -3.6580672 365.67184
366.79266 -1.3911029 79.42754 252.72987 -9.419995e-05 4.534422e-06 -0.57440645 13.859087
-311.04593 -3.5792978 -0.10927139 -0.023188787 -4.5893154 203.04703 48.335686 99.03423
224.70625 364.8755 -0.42746 -0.06955296 -64.06198 226.00308 23.478256 79.25521
-1.0038475 -48.30581 199.51616 160.94093 -7.301393e-13 51.834465 133.67175 -19.091131
-0.90008247 189.97249 -6.8934164 -61.55385 -42.737778 -4.414976 -0.16442604 -365.4318
-43.84162 1.6365566 362.65524 -366.4087 362.4161 68.508194 -365.65115 145.0063
28.480476 -17.361328 145.2752 339.2214 -122.73173 74.26989 -366.8307 114.19196
2.1524735e-07 0.047178034 366.8537 0.13950932 2.3832717e-12 366.79965 4.8854246 186.2344
99.7474 363.58975 -44.56209 365.44144 0.29910547 30.219484 215.57974 45.837482
21.378372 -3.3536413 22.607431 157.28488 -57.101536 47.282387 365.01797 83.137794
-2.1314096 107.17176 49.56415 0.85949665 237.58618 7.083514 -117.758896 5.1667666
-365.78915 70.06846 1.1287667 60.14507 -98.80718 4.1337852 71.244385 341.13513
6.3712587e-06 2.228376e-09 3.5494606 72.68034 -105.633545 1.3082973 -13.886371 151.07895
-2.6995924e-05 -1.0790326e-09 0.6689691 -366.53317 366.86862 -70.06756 0.36921063 0.117701
31.809591 360.0103 -91.054016 363.0231 55.241905 76.823395 0.5762437 0.35487464
-158.70078 79.046486 -366.5917 -21.900097 -0.083943665 -71.877495 76.03552 -367.26248
-2.5544974e-10 -86.92045 -26.831299 -11.31602 -9.290374 87.12557 14.262778 366.09335
92.67018 160.86252 0.9358775 367.04697 -365.17932 43.779743 109.12892 202.67642
-259.5459 -0.20433721 -3.3055193 273.7492 -54.231476 365.92203 -71.282104 -62.30265
-279.57858 -34.171173 -312.77213 -357.4783 -1.9565874e-07 -0.009167298 366.53342 -0.018431982
-2.6207638e-13 1.6210238 -2.3365915 118.602486 -16.737114 -148.71133 3.9335794 -366.30988
-0.16795385 -3.6762288 -197.65253 15.858982 -7.045023 -0.7509274 -94.65578 -122.72329
219.88782 -12.560431 -366.11615 -47.571075 6.568292 1.3554939 2.212095 -0.47551203
-104.445724 366.6979 53.537476 -0.24447164 368.44247 13.886618 20.103674 12.028151
14.703274 -1.551881 -13.611702 -0.66635 7.367783e-12 -0.000102366976 -1.7253203 9.096128

fc4.bias f4 [6]
00000000: 803d 1e40 5c67 8540 d23e 1e40 ec59 5e3f
00000010: d680 4840 81c3 8d40
2.4725037 4.168867 2.4725842 0.8685596 3.1328635 4.430115
