figs/model-downscaled/dropout/cnn0/cnn_model_dict.pt (torch, 163035 bytes, 10 tensors)

conv1.weight f4 [50, 3, 3]
0	0x403d2e77	2.955961
1	0x4046adeb	3.104365
2	0x40219433	2.5246704
3	0x3f990623	1.1954998
4	0x3fb75bb2	1.4324858
5	0x3e3f2b38	0.1866883
6	0xbf224070	-0.63379574
7	0x3e005eaf	0.12536119
8	0x3fb4eb19	1.4134246
9	0xbfc45dc4	-1.5341115
10	0xbfc1b680	-1.513382
11	0xbfbb3291	-1.4624807
12	0xbf5c2b6e	-0.8600377
13	0xbf8142e3	-1.0098537
14	0xc0470239	-3.1095107
15	0xbfe4ac3f	-1.7865065
16	0xbfe60987	-1.7971658
17	0x3f715f40	0.94285965
18	0x40143924	2.3159876
19	0x3fa88e08	1.3168344
20	0x3fc80c5e	1.5628774
21	0x3fdbdd1c	1.7176852
22	0xbf777f0e	-0.96678245
23	0xbfef6145	-1.8701559
24	0xc0177060	-2.3662338
25	0xbf6d2a3e	-0.9264258
26	0xbfdb0a71	-1.7112561
27	0x3ffed2c8	1.9908075
28	0x4026b5a8	2.6048374
29	0x4020626e	2.5060077
30	0x401418e7	2.31402
31	0x400b561e	2.1771312
32	0x3f9be8f2	1.2180464
33	0x3fcc29e7	1.5950288
34	0x4014a8a4	2.322793
35	0x3f5f6327	0.8726067
36	0x3e64da60	0.22348928
37	0x3f0d1146	0.5510448
38	0x3fe4d1dc	1.7876544
39	0xc0065737	-2.0990732
40	0xbfc6af4e	-1.5522249
41	0xc00e46e8	-2.2230778
42	0x3f60d898	0.87830496
43	0xbef5d651	-0.48015073
44	0x3f9e08bd	1.2346417
45	0x3fc011a5	1.5005385
46	0x400e320e	2.221805
47	0x4005a04a	2.0879083
48	0xc02a5433	-2.661389
49	0xbfcc39db	-1.5955156
50	0xbfd42979	-1.6575156
51	0x3f97696b	1.1829046
52	0xbfef73eb	-1.870725
53	0x3fe33692	1.7751029
54	0x3fab266b	1.3371099
55	0x3f983ad0	1.1892948
56	0x3f7b46b6	0.9815477
57	0xbf8ae190	-1.0850086
58	0xbf0f5a8a	-0.55997527
59	0xbfedbaf6	-1.8572681
60	0xbd6eb835	-0.058281142
61	0x3facd1ed	1.3501564
62	0x3e046201	0.1292801
63	0x401681ac	2.3516645
64	0x4011f8ec	2.280818
65	0x40037e65	2.0545895
66	0xbff041d3	-1.8770088
67	0xbfca4871	-1.5803357
68	0xc01f324d	-2.487445
69	0xbf00962c	-0.50229144
70	0x3fd6ecd0	1.679102
71	0x3f587b11	0.84562784
72	0x4036cbae	2.8561816
73	0x40267329	2.6007788
74	0x40051acd	2.0797608
75	0xc009431e	-2.1447215
76	0xbfa97304	-1.3238225
77	0xc026e007	-2.6074235
78	0xbf3d5e58	-0.7397208
79	0x3fb73eeb	1.4316076
80	0x4006ebc8	2.108141
81	0xbfc6d64e	-1.5534151
82	0xbfeb71d9	-1.8394119
83	0xbfa13ab5	-1.2596041
84	0xbe685b17	-0.22690998
85	0xbfcb4085	-1.5879065
86	0xc00a95c5	-2.1653912
87	0xbfb5885d	-1.418224
88	0xbf22299d	-0.63344747
89	0x401758b5	2.3647892
90	0x3f8d37bc	1.1032634
91	0xbe586575	-0.21132453
92	0xbf294538	-0.66121244
93	0xc027e6b2	-2.6234555
94	0xc016e924	-2.3579798
95	0xc01e13fd	-2.46997
96	0xbff11922	-1.8835795
97	0xc003c217	-2.0587213
98	0x3f6a4af2	0.9152061
99	0x3fdd1446	1.7271812
100	0x400233fa	2.0344224
101	0x3fd78c61	1.6839715
102	0xbfe49451	-1.7857763
103	0xc00afeae	-2.1717944
104	0xc009f422	-2.1555257
105	0x3ea52c0c	0.32260168
106	0xbf167ced	-0.5878437
107	0xbfc40a32	-1.5315611
108	0x3c3e1a29	0.011602917
109	0x3f5ede45	0.87057906
110	0x3e8c13c4	0.2735883
111	0xbfe92b52	-1.8216345
112	0x3cc50d4a	0.024054188
113	0x3d9ccd4a	0.07656343
114	0xbfb78d8a	-1.4340069
115	0x3ee6703e	0.4500751
116	0xbf869a44	-1.0515828
117	0x3eb0adea	0.34507686
118	0xbed84424	-0.42239487
119	0xbfac1503	-1.3443912
120	0xbf837777	-1.0270833
121	0xbf364adb	-0.7120797
122	0x3eec00ff	0.4609451
123	0xbde79a6e	-0.11308752
124	0xbfeb0b85	-1.836289
125	0xbfc27842	-1.519295
126	0xbf17e24e	-0.5932969
127	0x3e4df005	0.20111091
128	0x3ff7047c	1.9298244
129	0xbfb05a90	-1.3777637
130	0xbfa93d4d	-1.3221833
131	0xbfef6927	-1.8703965
132	0xc02ead5b	-2.7293308
133	0xc0167e4e	-2.351459
134	0xc0108d5d	-2.2586281
135	0x3fae1993	1.3601555
136	0x3f1700e4	0.58985734
137	0x3e2d9e62	0.1695495
138	0xbff735b6	-1.9313266
139	0xc01532ca	-2.331225
140	0xbff677d4	-1.9255319
141	0xbff358b2	-1.9011443
142	0xbff9dea1	-1.9521066
143	0xbfed53fe	-1.8541257
144	0xbde034f7	-0.10947602
145	0xbe8e0235	-0.2773606
146	0xbfdef0c5	-1.7417227
147	0xbff869c1	-1.9407274
148	0xbcb69163	-0.022286123
149	0x3f7eb867	0.99500126
150	0xbffe3178	-1.9858847
151	0xc01bce43	-2.4344642
152	0xbf9901fe	-1.1953733
153	0x3fb8153b	1.4381479
154	0x3f91ad66	1.1381042
155	0xbf4eb9f5	-0.807525
156	0xc02082a7	-2.5079744
157	0x3f86ede8	1.0541353
158	0x400f5705	2.2396863
159	0xc00219c8	-2.0328236
160	0xbff8bdf7	-1.9432973
161	0x3e3a7d89	0.1821195
162	0x3fed30d6	1.8530529
163	0x40015057	2.0205286
164	0x3feb06e4	1.8361478
165	0xc0090b0e	-2.1412997
166	0xc01db4a6	-2.464151
167	0xbfcbc72b	-1.5920156
168	0xbdb619d5	-0.08891646
169	0xbf31a5d3	-0.6939365
170	0x3e98bf5f	0.29833505
171	0xc0139c63	-2.30642
172	0xbfece741	-1.8508073
173	0xc01132dc	-2.2687292
174	0x4000d2b7	2.012861
175	0x40062202	2.0958257
176	0x4011266c	2.26797
177	0xbfae1cd0	-1.3602543
178	0xc025e297	-2.591955
179	0xc0016968	-2.0220585
180	0x3f35e4ad	0.71052057
181	0xbf38939d	-0.7210024
182	0xbfa18145	-1.2617575
183	0xbe7a460c	-0.24440783
184	0xbfd484a1	-1.6602975
185	0xc03107d2	-2.7661023
186	0xbfd1ccd9	-1.639064
187	0xbfc6c89a	-1.5529969
188	0x3f64d2b4	0.8938401
189	0x3f02cfb6	0.5109819
190	0x3f065c19	0.5248428
191	0x4011aa41	2.2760165
192	0x3f11541c	0.56768966
193	0xbf63577e	-0.8880538
194	0x3ea1ad1f	0.31577393
195	0xc01b2eb3	-2.4247253
196	0xbfac903d	-1.3481518
197	0xc00e8519	-2.2268736
198	0x3e2dd050	0.16973996
199	0x3fec2d46	1.8451316
200	0x3fded233	1.7407898
201	0xc0499a95	-3.15006
202	0xc03416b3	-2.8138855
203	0x400057b7	2.0053537
204	0x4037e178	2.8731365
205	0xc02742c4	-2.61345
206	0xbf9bf827	-1.2185105
207	0xbf9b96ed	-1.2155434
208	0x3fe34dc5	1.7758108
209	0x3f3d40f4	0.73927236
210	0xc02f3c6d	-2.738063
211	0xc0104f26	-2.2548308
212	0x3f44e299	0.7690826
213	0xc025f817	-2.5932672
214	0xbe7c9c44	-0.24668986
215	0x40069797	2.1030023
216	0x403657f8	2.8491192
217	0x40191505	2.391908
218	0x3fd506e6	1.664273
219	0x402a3594	2.6595201
220	0x3fc5fa77	1.5467061
221	0xbe921544	-0.2853185
222	0xbe7802fd	-0.2421989
223	0xbf8e5449	-1.1119472
224	0x3f05d654	0.52280164
225	0x3fe018db	1.7507585
226	0x3fdce491	1.7257253
227	0x40072174	2.1114168
228	0xbf61e7a6	-0.8824409
229	0xbfa83370	-1.3140697
230	0xbfd500f2	-1.6640913
231	0xbfd8c60e	-1.6935441
232	0x3f73b693	0.9520046
233	0x3fe16fdc	1.7612262
234	0x3e260c25	0.1621557
235	0x4006dfe3	2.107415
236	0x3f24cee8	0.64378214
237	0xc047053f	-3.1096952
238	0xbfe8d4e1	-1.8189965
239	0x3dcaa628	0.09894973
240	0xc02b45d7	-2.6761377
241	0xbf7e0e5e	-0.9924067
242	0x3fd3d875	1.6550432
243	0xc0234736	-2.5512214
244	0xc0098bc9	-2.1491568
245	0xbfdfc653	-1.7482399
246	0xc0235507	-2.5520647
247	0xc012f31a	-2.2960877
248	0xc03836df	-2.878349
249	0x3fdd423c	1.7285838
250	0x3feafa98	1.8357725
251	0xbfba0a47	-1.4534386
252	0x4014c192	2.3243146
253	0x3fcb3898	1.5876646
254	0x3d1b23e1	0.037876014
255	0xc007cbfb	-2.121825

conv1.bias f4 [50]
0	0xbf3e5c88	-0.7435994
1	0xc0344eb5	-2.817304
2	0xc02361c0	-2.5528412
3	0xbf51d91e	-0.8197192
4	0xc0230e73	-2.547757
5	0xc01732da	-2.3624787
6	0xc02a7fa8	-2.6640415
7	0xbff8cb01	-1.9436952
8	0xbff76d82	-1.9330294
9	0xc021becc	-2.5272703
10	0xbfe3bb98	-1.7791624
11	0xc00138f8	-2.019102
12	0xc037b9c1	-2.8707125
13	0xc01dbb1c	-2.4645452
14	0xbff55391	-1.9166127
15	0xbf8f490b	-1.1194166
16	0xc0277173	-2.6162994
17	0xc010a1a7	-2.2598665
18	0xc00d6312	-2.2091718
19	0xbfcce1e7	-1.600644
20	0xc0240bbc	-2.5632162
21	0xc00db67c	-2.214263
22	0xbe1f1734	-0.15536195
23	0xbff2928f	-1.8950976
24	0xc0169d66	-2.3533568
25	0xc023f717	-2.5619562
26	0xbfe89ea7	-1.8173417
27	0xbf8785dc	-1.0587726
28	0xbff47894	-1.9099298
29	0xc00925ed	-2.1429398
30	0xc01b6e3d	-2.4286034
31	0xbf6d9af0	-0.9281454
32	0xc01563e5	-2.334222
33	0xc01c7ada	-2.4449983
34	0xc00cd539	-2.200514
35	0xc00d3a5c	-2.206687
36	0xc0164460	-2.3479233
37	0xbfbe2ef9	-1.4858085
38	0xbff70381	-1.9297944
39	0xc00f56c6	-2.2396712
40	0xbf9d9d65	-1.2313658
41	0xbfcfcf67	-1.6235169
42	0xc0266f6c	-2.6005507
43	0x3ffe9605	1.9889532
44	0xc026b927	-2.6050508
45	0xbfef4aed	-1.869474
46	0xc0275aa8	-2.6149082
47	0xbfdeeb38	-1.7415533
48	0xc01e7a50	-2.4762154
49	0xc023a6c5	-2.5570538

conv2.weight f4 [50, 50, 3]
0	0xc002e560	-2.04525
1	0xc00ac998	-2.1685543
2	0xc0075d21	-2.1150591
3	0x4010db7a	2.2633958
4	0x40088376	2.1330237
5	0x400ffebf	2.2499235
6	0x4015d319	2.3410094
7	0x400e3b94	2.2223864
8	0x40040686	2.0628982
9	0xbff36c42	-1.9017413
10	0xbffaef73	-1.9604324
11	0xc00e4ae3	-2.2233207
12	0x4009bdc8	2.1522083
13	0x40118e01	2.2742922
14	0x3ff9ae3d	1.9506298
15	0x400c26b4	2.1898623
16	0x3f9772d1	1.1831914
17	0xbfc6a01a	-1.5517609
18	0xc00133d0	-2.0187874
19	0xbff1c1f6	-1.8887317
20	0xbff7175e	-1.9304006
21	0xc008c6af	-2.1371267
22	0xc0069d14	-2.1033373
23	0xc008d4e4	-2.1379938
24	0xc0125e9c	-2.2870245
25	0xc00f3b38	-2.2379894
26	0xc00d5bae	-2.2087207
27	0xbfe7c148	-1.810586
28	0xc0050479	-2.078398
29	0xc008b219	-2.1358702
30	0xc00f54b8	-2.2395458
31	0xc00e3881	-2.2221987
32	0xc0155ecb	-2.3339107
33	0xbf8f5c0d	-1.1199967
34	0xbfffa6e5	-1.9972807
35	0xc002e35f	-2.0451276
36	0x3e150f40	0.14556599
37	0xc006de96	-2.1073356
38	0xc001cfa0	-2.0282974
39	0xbfe7ce69	-1.8109866
40	0xbfde3cde	-1.7362325
41	0xbfec0978	-1.844039
42	0xbf650626	-0.89462507
43	0xbf300733	-0.68760985
44	0xbfb46d2c	-1.4095817
45	0xc00427cb	-2.0649288
46	0xc00990dd	-2.1494668
47	0xc009d1a6	-2.153421
48	0x3f981508	1.1881418
49	0xbfe07d52	-1.7538245
50	0xbff5ca39	-1.9202338
51	0xbfa69b28	-1.30161
52	0xbff62a55	-1.9231669
53	0xc000c6e9	-2.0121405
54	0xc009a926	-2.150949
55	0xc00c3fdb	-2.1913974
56	0xc00eecee	-2.233211
57	0xc00d5061	-2.208031
58	0xbfff2bd3	-1.9935249
59	0xc008aeef	-2.135677
60	0xbfed866d	-1.8556648
61	0xbff50530	-1.9142208
62	0xc0015ac9	-2.021166
63	0xc00c4af6	-2.1920753
64	0xc00004cc	-2.0002928
65	0xc0100d9a	-2.2508302
66	0x3ff4f15c	1.9136157
67	0x401a9a4d	2.4156678
68	0xbfa500c8	-1.2890863
69	0x3ffa687f	1.956314
70	0x3ffa923d	1.9575878
71	0xbfd5dcaf	-1.6707972
72	0xbfbbf264	-1.4683347
73	0x3febb055	1.8413187
74	0x3ff5c971	1.92021
75	0xbffe6a53	-1.9876198
76	0xc002a2aa	-2.0411782
77	0xbff68cb2	-1.9261687
78	0x3fe6c0dd	1.8027607
79	0xbf9624cc	-1.172998
80	0xbfcdd39d	-1.6080204
81	0xc00e944a	-2.2278008
82	0xc00ea15f	-2.2285993
83	0xc013bfde	-2.3085856
84	0xc010730c	-2.257022
85	0xc00a40a2	-2.1601949
86	0xc00add81	-2.1697695
87	0xc019e611	-2.4046671
88	0xc0132e3b	-2.2996967
89	0xc013c5bc	-2.3089437
90	0xbffcac7b	-1.9740137
91	0xbff6985f	-1.926525
92	0xbfffa082	-1.9970858
93	0xc0010325	-2.015817
94	0xbffa60b2	-1.9560759
95	0xbff220a0	-1.8916206
96	0xc005d35a	-2.0910249
97	0xc0136012	-2.3027387
98	0xc0131bf3	-2.298581
99	0x3ef179b4	0.47163165
100	0xbfdd576d	-1.7292305
101	0xbff195ad	-1.8873802
102	0xc00e748a	-2.225863
103	0xc0081f97	-2.126928
104	0xc00b47e0	-2.176262
105	0xc00371bf	-2.0538175
106	0xc00c7899	-2.1948607
107	0xc004eb40	-2.0768585
108	0xbffb4487	-1.9630288
109	0xc00f684e	-2.2407413
110	0xbff04b82	-1.8773043
111	0xc0187ced	-2.3826249
112	0x402cccce	2.7000003
113	0xbf84e324	-1.0381818
114	0xbfed8d2b	-1.8558706
115	0xbfee6abf	-1.8626326
116	0xc0018cca	-2.024218
117	0xc0066203	-2.0997322
118	0xc006fce5	-2.1091855
119	0xc00c750a	-2.1946435
120	0x3fbdafc8	1.4819269
121	0x40204fd0	2.5048714
122	0x3d3c7fe6	0.04602041
123	0xc0022946	-2.0337691
124	0xc002d5fc	-2.0443106
125	0xc00712fa	-2.1105332
126	0xc007a129	-2.1192114
127	0xbff6d02d	-1.928228
128	0xbf7b01bb	-0.98049515
129	0xbff94f02	-1.9477236
130	0xc006848c	-2.10184
131	0xc00e9c88	-2.228304
132	0x3e8d8220	0.2763834
133	0x400e0dd7	2.2195947
134	0xbf9d725a	-1.2300522
135	0xbff761ca	-1.9326718
136	0xc007220a	-2.1114526
137	0xc00e246b	-2.2209728
138	0xbfc0941b	-1.5045198
139	0xbff593d6	-1.9185741
140	0xbffc3e29	-1.970647
141	0xc005517a	-2.083098
142	0xc0090a9d	-2.1412728
143	0xc00f1c86	-2.236116
144	0xbffed9c5	-1.9910208
145	0xc0006869	-2.0063727
146	0xc000494c	-2.0044737
147	0x3fc54297	1.5410947
148	0xbfc3ba05	-1.5291144
149	0xbfecff49	-1.8515407
150	0xc00c032f	-2.1876943
151	0xc00a3328	-2.1593723
152	0xc007de7d	-2.1229546
153	0xbf1e30a8	-0.61792994
154	0xc000c42d	-2.0119736
155	0x3fbfee30	1.4994564
156	0x40003b76	2.0036292
157	0xbfe788ce	-1.8088624
158	0x4003f810	2.0620155
159	0xc003b32c	-2.0578108
160	0xc0006eca	-2.006762
161	0xbffead10	-1.9896564
162	0x400a3b7b	2.1598804
163	0x400e5bb0	2.2243462
164	0x400f40cb	2.2383296
165	0xc00785a2	-2.1175313
166	0xc0066caf	-2.1003835
167	0xbff37e31	-1.9022886
168	0xc007e926	-2.1236053
169	0xc007feaa	-2.1249185
170	0xbffeb213	-1.9898094
171	0xc00505e8	-2.0784855
172	0xc00aa0e0	-2.166069
173	0xc009217f	-2.1426694
174	0xc0063508	-2.0969868
175	0xc004b9ce	-2.0738406
176	0xc009c2ed	-2.1525223
177	0xbfff04a2	-1.9923289
178	0xc008e25a	-2.1388154
179	0xc0078552	-2.1175122
180	0xc003d787	-2.0600297
181	0xc0021f56	-2.0331626
182	0xbffe2b25	-1.9856917
183	0xc001c8db	-2.0278842
184	0xc002ab10	-2.0416908
185	0xc00a8572	-2.1643949
186	0xbffeb34a	-1.9898465
187	0xc003682d	-2.0532334
188	0x40033a7b	2.0504444
189	0xc007294e	-2.111896
190	0xc0004499	-2.0041869
191	0xc00471b6	-2.0694404
192	0xc0073bbe	-2.1130214
193	0xc002db85	-2.0446484
194	0xc00a992a	-2.1655984
195	0xc0080ee1	-2.1259081
196	0xc0065ff0	-2.0996056
197	0xc00b725a	-2.1788545
198	0xc0090d86	-2.1414504
199	0xc006842a	-2.1018167
200	0xbf5c0dd9	-0.8595863
201	0xbffd04f7	-1.976714
202	0xbfaa8fec	-1.3325171
203	0xc0061fc7	-2.0956895
204	0xc0033943	-2.05037
205	0xc0055c56	-2.0837607
206	0xc0074a62	-2.113915
207	0xc0063683	-2.0970771
208	0xc0023ee5	-2.0350888
209	0xc0063d0f	-2.0974767
210	0xbf92f1e4	-1.1480069
211	0xc00fcc7e	-2.2468562
212	0xbfd95ae0	-1.6980858
213	0xc0032c04	-2.0495615
214	0xbffe2106	-1.9853828
215	0xc00955b7	-2.1458566
216	0xc008fa2b	-2.140269
217	0xc004c3ce	-2.074451
218	0xbfda9ac1	-1.7078477
219	0x4007251a	2.1116395
220	0xc006f801	-2.108887
221	0xbff9fa81	-1.9529573
222	0x40033769	2.050257
223	0xbff0c8b8	-1.8811255
224	0x3f5038a7	0.81336445
225	0xc0024d1f	-2.035957
226	0xc0030fd3	-2.0478408
227	0xbffda1d2	-1.9815009
228	0xc0091677	-2.1419961
229	0x3fb2e358	1.397563
230	0x401139c2	2.2691503
231	0xc0096c84	-2.1472483
232	0xc00948bb	-2.145064
233	0xc00161bd	-2.0215905
234	0xc008e59b	-2.139014
235	0xc005f98e	-2.0933566
236	0xc007ad5d	-2.1199563
237	0xc001a80b	-2.0258815
238	0xc00874b1	-2.1321223
239	0xc00622fe	-2.0958858
240	0xbfdb8884	-1.7151036
241	0xc0010e80	-2.01651
242	0xbf62511c	-0.88405013
243	0x4004318b	2.0655239
244	0x40023297	2.0343378
245	0x3ff3f58a	1.9059308
246	0xbe1d88be	-0.15384194
247	0xbfce54b5	-1.61196
248	0xc001cc05	-2.0280774
249	0x400233cd	2.0344117
250	0x400abc94	2.16776
251	0x3fead850	1.8347263
252	0xc004a0e1	-2.0723193
253	0xc001e1f1	-2.0294154
254	0xc0050917	-2.0786798
255	0xc007f963	-2.1245964

conv2.bias f4 [50]
0	0xc015feb3	-2.3436706
1	0xc00a2256	-2.1583457
2	0xc0175fea	-2.3652291
3	0xc01287cd	-2.2895386
4	0xc007a746	-2.1195846
5	0xbffd6bdc	-1.9798541
6	0xc009de26	-2.1541839
7	0xc0250132	-2.578198
8	0xc0062cbc	-2.0964804
9	0xc009c9f7	-2.152952
10	0xbffd2040	-1.9775467
11	0xc008b11e	-2.1358104
12	0xc008f122	-2.1397176
13	0xc004788b	-2.0698574
14	0xc008a047	-2.1347826
15	0xc002e319	-2.045111
16	0xbffd5d5e	-1.9794118
17	0xc00044f1	-2.0042078
18	0xc008c953	-2.1372879
19	0xc011664b	-2.2718685
20	0xc013612f	-2.3028066
21	0xc015f796	-2.3432364
22	0xc010062a	-2.2503762
23	0xc028864c	-2.6331968
24	0xc0205eb5	-2.5057805
25	0xc01b7cb1	-2.4294856
26	0xc01866cd	-2.3812745
27	0xc054efc8	-3.327135
28	0xc005e3c9	-2.092028
29	0xc008b3a1	-2.1359637
30	0xc00e349d	-2.2219613
31	0xc0073e05	-2.1131604
32	0xc016e9ee	-2.358028
33	0xc006a812	-2.1040082
34	0xbf9a4386	-1.2051857
35	0xc0101724	-2.2514124
36	0xc00e6169	-2.2246954
37	0xc01389f3	-2.3052948
38	0xc0342cce	-2.8152347
39	0xc00d492f	-2.2075918
40	0xc009797e	-2.1480403
41	0xc01ed010	-2.4814491
42	0xc01a9485	-2.415315
43	0xc01208e8	-2.2817936
44	0xc0027c93	-2.0388534
45	0xc018370b	-2.3783596
46	0xc002fce8	-2.0466862
47	0xbff9be4d	-1.95112
48	0xc012dc58	-2.2946987
49	0xc0073c28	-2.1130466

conv3.weight f4 [80, 50, 3]
0	0xc005ffac	-2.09373
1	0xbffee569	-1.991376
2	0xc0072f9f	-2.1122816
3	0xc0082e83	-2.1278389
4	0xc0012d73	-2.018399
5	0xc00941a6	-2.1446319
6	0xc0060edf	-2.0946577
7	0xc006d79f	-2.1069105
8	0xc0021e3a	-2.033095
9	0xc003fca6	-2.0622954
10	0xc0018300	-2.0236206
11	0xc007a6b2	-2.1195493
12	0x3ffee4c6	1.9913566
13	0x40005fa0	2.0058365
14	0x40095ece	2.1464114
15	0xc0055852	-2.0835156
16	0xc00066e2	-2.0062795
17	0xc003c28e	-2.0587497
18	0xbfdac7c9	-1.709222
19	0xbfaebbf6	-1.3651111
20	0x3d8ca3d0	0.06867182
21	0xbf3017f5	-0.68786556
22	0xbf54893b	-0.830219
23	0xbf48e38c	-0.7847221
24	0xc007b842	-2.1206212
25	0xbfff929b	-1.9966615
26	0xbffeb208	-1.9898081
27	0xc008c07b	-2.136748
28	0xc0002fdb	-2.0029209
29	0xc002167e	-2.0326228
30	0xc00546a4	-2.0824366
31	0xc0005041	-2.0048983
32	0xc0032a1e	-2.0494456
33	0xc004cd5b	-2.075034
34	0xc00203a8	-2.0314732
35	0xbfff2f61	-1.9936334
36	0xc00461cc	-2.068469
37	0xc00569c6	-2.084581
38	0xbffe3dfb	-1.9862665
39	0xc0026c60	-2.0378647
40	0xbfff23ff	-1.993286
41	0xc000348d	-2.0032074
42	0x4008735d	2.1320412
43	0x400796e7	2.1185853
44	0x40072b26	2.1120086
45	0xc00374f2	-2.0540128
46	0xc003d80a	-2.060061
47	0xc001c9aa	-2.0279336
48	0xc0004728	-2.004343
49	0xbffd69a1	-1.979786
50	0xc002cd3b	-2.0437763
51	0xc001ffc7	-2.0312364
52	0xc004a322	-2.0724568
53	0xc008600b	-2.130862
54	0xbffd0a06	-1.9768684
55	0xc00590b2	-2.0869565
56	0xbffea4fa	-1.9894097
57	0xc0059c01	-2.0876467
58	0xc003c9a9	-2.0591834
59	0xc000592f	-2.0054433
60	0xc000adc6	-2.0106063
61	0xc007f766	-2.124475
62	0xbfff449e	-1.9942815
63	0xbfffa766	-1.9972961
64	0xc007d418	-2.1223202
65	0xc000005a	-2.0000215
66	0xc0015581	-2.0208437
67	0xc002ecf4	-2.0457125
68	0xc007222d	-2.111461
69	0xbff2fe76	-1.8983905
70	0xbfe1cb46	-1.7640159
71	0xbffb4c52	-1.9632666
72	0xc0075b4a	-2.1149468
73	0xc000b0cc	-2.0107908
74	0xbfff4de9	-1.9945651
75	0xc002e2eb	-2.0451
76	0xc0062f8b	-2.0966518
77	0xc007aacd	-2.1197999
78	0xbffe935d	-1.9888722
79	0xc003ab34	-2.0573244
80	0xc0079132	-2.118237
81	0x40539e40	3.3065338
82	0xbf3f237c	-0.7466352
83	0xbf386a34	-0.72037053
84	0xbfffb631	-1.9977475
85	0xc0015f02	-2.0214238
86	0xc007945b	-2.11843
87	0x3fff20e1	1.9931909
88	0x4006c3f4	2.10571
89	0x400556b2	2.0834165
90	0xc0014ed3	-2.020436
91	0xc002c866	-2.0434813
92	0xc002912d	-2.0401108
93	0xbffff218	-1.9995756
94	0xbffaa1c9	-1.9580623
95	0xc0006985	-2.0064404
96	0xc003c1a6	-2.0586944
97	0xc001fa24	-2.0308924
98	0xbffeb1ee	-1.989805
99	0xc0052b8a	-2.0807824
100	0xc005b781	-2.0893252
101	0xc006e0c3	-2.1074684
102	0xc006f5b0	-2.1087456
103	0xc032e16f	-2.7950094
104	0xc0344173	-2.8164947
105	0xc005f6af	-2.0931814
106	0xc006a2e6	-2.1036925
107	0xc00501d7	-2.0782373
108	0xbfd0e5c8	-1.6320124
109	0xbfe44b22	-1.7835429
110	0xbff6b2da	-1.9273331
111	0xc00383fc	-2.0549307
112	0xc0025d7e	-2.0369563
113	0xbffec374	-1.9903398
114	0xbffee886	-1.991471
115	0xc0077964	-2.116784
116	0xc005d190	-2.0909157
117	0xc00161b6	-2.0215888
118	0xc0021d1e	-2.0330272
119	0xbffee653	-1.9914039
120	0xbffdad1f	-1.9818457
121	0xc0015e7a	-2.0213914
122	0xc0066528	-2.099924
123	0xc003c2cf	-2.0587652
124	0xc008ccf6	-2.1375098
125	0xc004c8de	-2.07476
126	0xc005456a	-2.0823617
127	0xc0049e39	-2.0721571
128	0xbfff6bce	-1.9954774
129	0xc001ab53	-2.0260818
130	0xc005ccc0	-2.090622
131	0xc004ef62	-2.0771108
132	0xc0049661	-2.0716784
133	0xbfff665b	-1.9953111
134	0xbffe3bf7	-1.986205
135	0xc00468ad	-2.068889
136	0xc005b667	-2.089258
137	0xc002ecfd	-2.0457146
138	0xc0010193	-2.015721
139	0xc00138aa	-2.0190835
140	0xc0071bdd	-2.1110756
141	0xbffcabf1	-1.9739972
142	0xc004fb47	-2.0778368
143	0xbffc659b	-1.9718508
144	0xc001e5a7	-2.0296419
145	0xc00228dc	-2.0337439
146	0xbfff1220	-1.9927406
147	0xc00799ed	-2.11877
148	0xc0078f21	-2.118111
149	0xc004ede5	-2.07702
150	0xc0037e4d	-2.0545838
151	0xc000eb02	-2.0143437
152	0xc0035905	-2.0523083
153	0xc0099f3a	-2.1503434
154	0xc009906f	-2.1494405
155	0xc009ba3b	-2.1519916
156	0xc005b753	-2.0893142
157	0xc007a4ef	-2.1194417
158	0xc00623ea	-2.095942
159	0xc00526b9	-2.0804884
160	0xc001453f	-2.0198514
161	0xc0062ab2	-2.096356
162	0x4000c2cc	2.0118895
163	0x4003176e	2.048305
164	0x40045d35	2.068189
165	0xc0083555	-2.1282551
166	0xc003d729	-2.0600073
167	0xbffeabac	-1.989614
168	0x4007c444	2.121354
169	0x3ff99d26	1.9501083
170	0xbccae505	-0.024767408
171	0xc00607fb	-2.094237
172	0xc007c23d	-2.1212304
173	0xc007a910	-2.1196938
174	0xc007d668	-2.1224613
175	0xc0024b5d	-2.0358498
176	0xc004fb8d	-2.0778534
177	0xc0026408	-2.0373554
178	0xc008ddb4	-2.1385317
179	0xc00620a1	-2.0957415
180	0xbffe83cb	-1.988397
181	0xc000cc74	-2.0124788
182	0xc006cf6b	-2.1064098
183	0xc004c19e	-2.0743175
184	0xbffaf5c3	-1.960625
185	0xbffdfc73	-1.9842666
186	0xc003ee4b	-2.0614192
187	0xbfffd8f9	-1.998809
188	0xc0061864	-2.0952387
189	0xbffccbd6	-1.9749706
190	0xc0027e53	-2.0389602
191	0xc006b7e4	-2.1049738
192	0x4006da94	2.107091
193	0x4004e447	2.076433
194	0x40018750	2.0238838
195	0xc00232ef	-2.0343587
196	0xc007f894	-2.124547
197	0xc003cc76	-2.0593543
198	0xc003b8a5	-2.0581448
199	0xc0000f2a	-2.0009255
200	0xc0003f03	-2.003846
201	0xc0022162	-2.0332875
202	0xc007c50d	-2.121402
203	0xc0058d98	-2.0867672
204	0xbfffecdc	-1.9994159
205	0xc002e365	-2.045129
206	0xc001b6e2	-2.0267873
207	0xc003ef71	-2.0614893
208	0xc0055516	-2.0833182
209	0xc0030512	-2.0471845
210	0xc00606d9	-2.094168
211	0xbfff22fb	-1.993255
212	0xc00330c4	-2.0498514
213	0xc0025071	-2.0361598
214	0xc0046c4b	-2.0691097
215	0xc00341bc	-2.050887
216	0xc006ecbe	-2.1081996
217	0xc004893b	-2.070876
218	0xc008bb83	-2.1364448
219	0xc0073151	-2.112385
220	0xc006193e	-2.0952907
221	0xbffc740c	-1.9722915
222	0xbffd9cec	-1.9813514
223	0xc0087768	-2.132288
224	0xc004e44a	-2.0764337
225	0xc004bb07	-2.0739152
226	0xc003dd96	-2.0603995
227	0xc003a9f3	-2.0572479
228	0xc006a66c	-2.1039076
229	0xc0084a04	-2.1295176
230	0xc0065016	-2.098638
231	0x403156d0	2.7709236
232	0x4035c2d6	2.8400168
233	0x3fa192bf	1.2622908
234	0xc00077bc	-2.007308
235	0xbfffd56f	-1.998701
236	0xbfff95f9	-1.9967643
237	0x40034cc5	2.0515606
238	0x400799a4	2.1187525
239	0x3fffa7dc	1.9973102
240	0xc003b9f7	-2.0582254
241	0xbffd429d	-1.9785954
242	0xc000b176	-2.0108314
243	0xc00762ee	-2.1154132
244	0xc0046db4	-2.0691957
245	0xc0010ed0	-2.016529
246	0xbffdd4b6	-1.9830539
247	0xc0009503	-2.009095
248	0xc0065a9d	-2.0992806
249	0xc007b551	-2.1204417
250	0xbffef18b	-1.9917463
251	0xc0073eb4	-2.113202
252	0xc0080538	-2.1253185
253	0xc0070b94	-2.1100817
254	0xc0033fb2	-2.0507627
255	0xc004c679	-2.0746138

conv3.bias f4 [80]
0	0xc021899e	-2.5240245
1	0xc002cb75	-2.043668
2	0xc00af0c8	-2.1709461
3	0xc00782fd	-2.11737
4	0xc00ebf9b	-2.2304447
5	0xc0072834	-2.1118288
6	0x3e07eef4	0.13274747
7	0xc00c3872	-2.1909451
8	0xbe9a262f	-0.30107257
9	0x3f969de3	1.1766933
10	0xc0034ff3	-2.0517547
11	0xc008895d	-2.133384
12	0xc00d4ca5	-2.207803
13	0xc0003d47	-2.00374
14	0xc00c5f7b	-2.1933277
15	0xc01a383f	-2.409683
16	0xc015f480	-2.343048
17	0xc010dd6b	-2.2635143
18	0xbf816b74	-1.0110917
19	0xc0071d5b	-2.1111667
20	0xc0090155	-2.1407063
21	0xc020132f	-2.5011709
22	0xc015e685	-2.3421948
23	0xc01ae424	-2.4201746
24	0xc007cea8	-2.1219883
25	0xc00a20bb	-2.1582477
26	0xbf92ca58	-1.1468
27	0xbffe0e22	-1.9848063
28	0xc00edbb3	-2.2321594
29	0xc00707ba	-2.1098466
30	0xc009c282	-2.1524968
31	0xc0124535	-2.285474
32	0xc009270a	-2.1430078
33	0xc01f22ef	-2.4865072
34	0xc0055e68	-2.083887
35	0xc020cfc2	-2.5126805
36	0xc00c34a6	-2.1907134
37	0xc01034da	-2.2532258
38	0xc007be22	-2.1209798
39	0xc0060a01	-2.0943606
40	0xc04fdcde	-3.2478557
41	0xc006d2ad	-2.1066086
42	0xc0166f67	-2.3505495
43	0xc00b72b2	-2.1788754
44	0xbfec1907	-1.8445138
45	0xc0050114	-2.0781908
46	0xc00bd7f6	-2.1850562
47	0xc0049101	-2.0713503
48	0xc0082414	-2.127202
49	0xc0195e38	-2.3963757
50	0xc022ee35	-2.545789
51	0xc00911e3	-2.1417167
52	0xc01026d0	-2.252369
53	0xc0191f8b	-2.3925502
54	0xc0121273	-2.282376
55	0xc01f8ad4	-2.4928484
56	0xc00982f2	-2.1486173
57	0xc0197ccf	-2.3982427
58	0xbff3588f	-1.9011401
59	0xc0038c2a	-2.05543
60	0xc0147dd2	-2.3201795
61	0xc01fe3d0	-2.4982796
62	0xc021e2ac	-2.52946
63	0xc027ff97	-2.624975
64	0xc0123c71	-2.284939
65	0xbe0994bf	-0.13435648
66	0xc0156143	-2.3340614
67	0xc00404c0	-2.06279
68	0xc02a9b3b	-2.6657245
69	0xc0017e31	-2.023327
70	0xc0082c38	-2.127699
71	0xc01ee9da	-2.4830232
72	0xbff72a7f	-1.9309844
73	0xc0020b91	-2.031956
74	0xc0040b47	-2.0631883
75	0xc00c8ce9	-2.1961005
76	0xc00847ea	-2.1293893
77	0xbfd3f998	-1.6560545
78	0xc006f28f	-2.1085546
79	0xc0048096	-2.0703483

conv4.weight f4 [80, 80, 3]
0	0xc00434a8	-2.065714
1	0xc0010d3c	-2.0164328
2	0xc004e9ea	-2.076777
3	0xc004d795	-2.075658
4	0xc0032074	-2.0488558
5	0xc002e595	-2.0452626
6	0xbcba29b6	-0.022724967
7	0x3b365b17	0.002782529
8	0xbd0d15c2	-0.034444578
9	0xc006dcb1	-2.10722
10	0xc00682f2	-2.1017423
11	0xc002a64b	-2.0413997
12	0xc007ed37	-2.1238534
13	0xc0055182	-2.0830998
14	0xc004d1f4	-2.0753145
15	0xc001ab78	-2.0260906
16	0xc0037db3	-2.054547
17	0xc00447c2	-2.0668797
18	0xc0009eeb	-2.0096996
19	0xc005b694	-2.0892687
20	0xc006a349	-2.1037161
21	0x3d1cc411	0.03827292
22	0xbd09b020	-0.03361523
23	0x3ccf307e	0.025291678
24	0xc008b5fa	-2.136107
25	0xc005fe0c	-2.0936308
26	0xc003f374	-2.0617342
27	0xc00600b3	-2.0937927
28	0xc0096fe3	-2.147454
29	0xc00b30da	-2.1748567
30	0xc0000764	-2.000451
31	0xbffe67ad	-1.9875389
32	0xc00094e1	-2.0090868
33	0xc0059cf8	-2.0877056
34	0xc0005cae	-2.0056567
35	0xc00187c2	-2.023911
36	0x3d50f4c0	0.05101466
37	0xbb536a5e	-0.0032259445
38	0x3c69166e	0.014226539
39	0x4005ef83	2.0927436
40	0x40014a29	2.0201514
41	0x40028749	2.0395072
42	0xc00334eb	-2.0501049
43	0xc004150f	-2.0637853
44	0xc005cd54	-2.0906572
45	0xbd4805dd	-0.048833717
46	0x3d5ad52f	0.053425964
47	0xbd4d499c	-0.050119027
48	0xc0075090	-2.1142921
49	0xc005c514	-2.0901537
50	0xc0057c29	-2.0857031
51	0xc0078efc	-2.118102
52	0xc005970c	-2.0873442
53	0xc008a026	-2.1347747
54	0x40064e50	2.0985298
55	0x4002e1c4	2.0450296
56	0x40069f0d	2.1034577
57	0xc0075e5d	-2.1151345
58	0xc0040e55	-2.0633748
59	0xc005cf24	-2.0907679
60	0xc0039daf	-2.0564992
61	0xc006d862	-2.106957
62	0xc000686a	-2.006373
63	0xc00108a8	-2.0161533
64	0xc006c0ca	-2.105517
65	0xc0018b9f	-2.0241468
66	0xc009d338	-2.1535168
67	0xc00de036	-2.2168097
68	0xc0089fcb	-2.134753
69	0xc007a302	-2.1193242
70	0xc00d81ed	-2.211055
71	0xc00de307	-2.2169816
72	0xc003b09d	-2.0576546
73	0xc006a3dc	-2.1037512
74	0xc0060a69	-2.0943854
75	0x3d041a10	0.032251418
76	0xbd5e39b5	-0.054254252
77	0xbc80c1f3	-0.015717482
78	0xc0062e9d	-2.096595
79	0xc0041645	-2.0638592
80	0xc0044f55	-2.067342
81	0xc00cb07e	-2.1982722
82	0xc007d842	-2.1225743
83	0xc0068c91	-2.1023295
84	0xc0046911	-2.0689127
85	0xc008d34f	-2.1378973
86	0xc00a8f45	-2.1649945
87	0xc0029467	-2.0403078
88	0xc0051ec5	-2.080003
89	0xc003e115	-2.060613
90	0xc0081da8	-2.12681
91	0xc007b352	-2.1203198
92	0xc002868c	-2.039462
93	0xc0019b49	-2.0251029
94	0xc002253d	-2.0335228
95	0xc0011159	-2.0166838
96	0xc0039e70	-2.0565453
97	0xc0028fad	-2.0400193
98	0xc0074e52	-2.1141553
99	0xc001fdda	-2.0311189
100	0xc0079f79	-2.1191084
101	0xc00007cd	-2.0004761
102	0xc0023b29	-2.0348608
103	0xc006b4b5	-2.1047795
104	0xc0069812	-2.1030316
105	0xc00669e9	-2.1002142
106	0xc00605b4	-2.094098
107	0xc003ffe2	-2.0624928
108	0xc004049c	-2.0627813
109	0xc0031d79	-2.0486739
110	0xc00787e3	-2.1176689
111	0xc0050b2a	-2.0788064
112	0xc006ef3c	-2.1083517
113	0xc0021320	-2.0324173
114	0x3c3d1bb1	0.011542247
115	0x3d68ff31	0.056883994
116	0xbd28e579	-0.041234467
117	0xc007a552	-2.1194654
118	0xc0053b0a	-2.0817285
119	0xc0059461	-2.0871813
120	0x3d0f94d3	0.03505404
121	0x3d68b639	0.056814406
122	0x3d11e96e	0.035623007
123	0xc004bcfa	-2.0740342
124	0xc0035105	-2.05182
125	0xc000525c	-2.0050268
126	0x40037d91	2.054539
127	0x3fe13510	1.7594318
128	0xc0075042	-2.1142735
129	0xc005bb67	-2.0895631
130	0xc00513b5	-2.0793278
131	0xc0068cc7	-2.1023424
132	0xc0044a50	-2.0670357
133	0xc0064a1e	-2.0982738
134	0xc0040d97	-2.0633295
135	0xc004b487	-2.0735185
136	0xc003b905	-2.0581677
137	0xc004deeb	-2.0761058
138	0x4001f5e4	2.030633
139	0x3ffea60e	1.9894426
140	0x400052d6	2.005056
141	0xc000691c	-2.0064154
142	0xc004cdd6	-2.0750632
143	0xc004ea11	-2.0767863
144	0xc002a34f	-2.0412176
145	0xc003e49e	-2.0608287
146	0xc0044e0c	-2.0672636
147	0xc004a47a	-2.0725389
148	0xc0042bc1	-2.0651705
149	0xc006d98f	-2.1070287
150	0xc0039b20	-2.056343
151	0xc0073e5b	-2.1131809
152	0xc004642c	-2.068614
153	0x3ff186b7	1.8869237
154	0x4006b0ae	2.1045337
155	0x4003a2dc	2.0568151
156	0xc005b5f9	-2.0892317
157	0xc006a4c0	-2.1038055
158	0xc003b6eb	-2.0580394
159	0xc006b1ff	-2.104614
160	0xc0045417	-2.0676324
161	0xc001c34c	-2.027545
162	0xc0097980	-2.1480408
163	0x3ec26782	0.37969595
164	0x400271c0	2.0381927
165	0xc0071969	-2.110926
166	0xc007c16f	-2.1211812
167	0xc0058821	-2.0864336
168	0xc0078f0e	-2.1181064
169	0xc00542df	-2.0822065
170	0xc00a5a02	-2.1617436
171	0xc0026ae7	-2.0377748
172	0xc00187f3	-2.0239227
173	0xc002c59f	-2.0433118
174	0xbfeabd1d	-1.8338963
175	0xbff9c49c	-1.9513125
176	0xbfeb286d	-1.8371712
177	0xc006612c	-2.099681
178	0xc001e58b	-2.0296352
179	0xc006579a	-2.0990968
180	0x40036d77	2.0535562
181	0x40043f64	2.066369
182	0x4004a235	2.0724003
183	0xc0054478	-2.082304
184	0xc0023e30	-2.0350456
185	0xc00277f8	-2.0385723
186	0xc0011908	-2.0171528
187	0xc0060ade	-2.0944133
188	0xc0040820	-2.062996
189	0x40037c2a	2.0544534
190	0x40078231	2.1173213
191	0x4007ae34	2.1200075
192	0xc0027ccc	-2.038867
193	0xc007c610	-2.1214638
194	0xc0063cd9	-2.0974638
195	0x3cf68d1b	0.030096581
196	0xbd0f9631	-0.035055343
197	0xbc3e00af	-0.011596843
198	0xc00af830	-2.1713982
199	0xc00a3931	-2.1597407
200	0xc008a860	-2.1352768
201	0xc000acb1	-2.0105402
202	0xc00550a6	-2.0830474
203	0xc000111d	-2.0010445
204	0xc0004cad	-2.00468
205	0xc0008298	-2.0079708
206	0xc0038feb	-2.055659
207	0x40066fd1	2.1005747
208	0x4000b01b	2.0107486
209	0x4001687a	2.0220017
210	0x3d74cbbc	0.05976461
211	0xbd4744ae	-0.048649482
212	0xbd4ed613	-0.050497126
213	0x400af4fe	2.1712031
214	0x40054e4f	2.0829046
215	0x4009ab4b	2.15108
216	0xc007b22f	-2.1202505
217	0xc00353f7	-2.0519998
218	0xc00520d1	-2.080128
219	0x4001d5c4	2.0286722
220	0x4001a3d9	2.0256255
221	0x40023829	2.0346777
222	0xc00493fc	-2.0715322
223	0xc0039b99	-2.056372
224	0xc0071303	-2.1105354
225	0xbfee32a2	-1.8609202
226	0xbfece610	-1.850771
227	0xbfe4605a	-1.7841904
228	0xc00848fb	-2.1294544
229	0xc0053d4c	-2.0818663
230	0xc0081c6b	-2.1267345
231	0x4004adec	2.0731153
232	0x400150ef	2.0205648
233	0x4002648c	2.037387
234	0xc00383a0	-2.0549088
235	0xc00116f9	-2.0170271
236	0xc0006b40	-2.006546
237	0xc000185c	-2.0014868
238	0xc0056939	-2.0845473
239	0xc002b33f	-2.0421903
240	0xc0055a91	-2.0836527
241	0xc0083fa2	-2.1288838
242	0xc0037c9b	-2.0544803
243	0xc00445f4	-2.0667696
244	0xc0011d6c	-2.0174208
245	0xc004efcf	-2.0771368
246	0x3cb60c0d	0.022222543
247	0xbcb4b479	-0.022058712
248	0x3d578a56	0.05262216
249	0xc0004a57	-2.0045373
250	0xc007701a	-2.1162171
251	0xc0024c17	-2.0358942
252	0xc007671b	-2.115668
253	0xc003cd53	-2.059407
254	0xc006741e	-2.1008372
255	0xc00277fe	-2.0385737

conv4.bias f4 [80]
0	0xc011cbf0	-2.2780724
1	0xc0120b10	-2.2819252
2	0xc02983c6	-2.6486678
3	0xc0097bb5	-2.1481755
4	0xc01ad00f	-2.418949
5	0xbe383c55	-0.17991765
6	0xc00b7a60	-2.1793442
7	0xc02501a1	-2.5782244
8	0xc028257f	-2.6272886
9	0xc01cb299	-2.4484007
10	0xbfbe105f	-1.4848746
11	0xc005437e	-2.0822444
12	0xc01ee2a9	-2.4825842
13	0xc0019c11	-2.0251505
14	0xc01a81b4	-2.4141665
15	0xc001d31c	-2.02851
16	0xc003d9d2	-2.0601697
17	0xc005b65e	-2.0892558
18	0xc028bd2f	-2.6365469
19	0xc008cdf7	-2.137571
20	0xc00428c8	-2.064989
21	0xc00c3418	-2.1906796
22	0x40071c01	2.1110842
23	0xc0205ec9	-2.5057852
24	0xc00cb4f8	-2.1985455
25	0xc00f6b68	-2.2409306
26	0xc001f0d7	-2.0303247
27	0xbffcef09	-1.9760448
28	0xc00d1dcb	-2.2049434
29	0xc0362e4f	-2.8465765
30	0xbff5a022	-1.9189494
31	0xc02c7481	-2.6946108
32	0xc005741b	-2.0852115
33	0xc002c4aa	-2.0432534
34	0xbfdf0eac	-1.7426353
35	0x3e107f0b	0.14110963
36	0xc00f47cf	-2.2387578
37	0xbfb14469	-1.3849002
38	0xbef6af9c	-0.48180854
39	0xbfeb2fb2	-1.837393
40	0xc01dca8c	-2.4654875
41	0xc00a4889	-2.1606772
42	0xbe6d32b3	-0.23163871
43	0xc0054bc4	-2.0827494
44	0xc00c371e	-2.190864
45	0xc0081a24	-2.1265955
46	0xc00a6ea0	-2.163002
47	0xc005d3b9	-2.0910475
48	0xc00542da	-2.0822053
49	0xc00a0c95	-2.157018
50	0xbf884187	-1.0644997
51	0xc012da33	-2.2945678
52	0xc009a09f	-2.1504285
53	0xc00d6652	-2.2093701
54	0xc0074833	-2.1137817
55	0xc0027565	-2.0384152
56	0xbfa70de6	-1.3051116
57	0xc0277a30	-2.6168327
58	0xc0226af7	-2.5377786
59	0xc02bece3	-2.6863334
60	0xc0058c42	-2.0866857
61	0xc008d614	-2.1380663
62	0xbfeea217	-1.8643216
63	0xc00cc6a3	-2.1996238
64	0xc009e7f5	-2.1547825
65	0xbfd49887	-1.6609048
66	0xc0023317	-2.0343683
67	0xc01bbe3b	-2.4334857
68	0xbff97c3b	-1.9491037
69	0xc008322e	-2.1280627
70	0xc019ddd9	-2.4041655
71	0xc007d4a1	-2.1223528
72	0xbf90ad95	-1.1302973
73	0xc013bc7d	-2.3083794
74	0xc019070c	-2.391055
75	0xc00258d8	-2.0366726
76	0xc0069576	-2.1028724
77	0xc016a862	-2.3540273
78	0xc0046d41	-2.0691683
79	0xc00d3494	-2.206334

linear.weight f4 [6, 80]
0	0x400709f3	2.1099823
1	0x3fce3226	1.6109054
2	0x3f600858	0.8751273
3	0xc00c2d45	-2.190263
4	0x3ff1de39	1.8895942
5	0xbfd39331	-1.6529294
6	0xc0076eda	-2.1161408
7	0x400624e5	2.0960019
8	0xbe1ece44	-0.15508372
9	0x3f990952	1.1955969
10	0x3f097009	0.5368658
11	0xc0017b4c	-2.0231504
12	0x3fd6f231	1.6792661
13	0xc0022e9b	-2.0340946
14	0x400cd015	2.2002003
15	0xbfab2749	-1.3371364
16	0xc0019913	-2.024968
17	0x4008ca1f	2.1373365
18	0x3ffcc547	1.9747704
19	0xc0065c9b	-2.0994022
20	0x400208cc	2.031787
21	0x3ff10b28	1.883153
22	0x3fe39321	1.7779275
23	0x3fb192f5	1.3872973
24	0xc006c4b7	-2.1057565
25	0x3fd8a163	1.6924251
26	0xc00679aa	-2.1011758
27	0x4004862c	2.0706892
28	0x3fdacc97	1.7093686
29	0xc03ef6e4	-2.983819
30	0xbfcce5d5	-1.6007639
31	0xc00777c8	-2.1166859
32	0xbffa2c73	-1.9544815
33	0x3ffb90b1	1.9653531
34	0xbf3b8f3e	-0.73265445
35	0x4004a6e1	2.0726855
36	0xc0085891	-2.1304057
37	0xbefcb89f	-0.49359605
38	0x3fd67e97	1.6757382
39	0xbf9390f2	-1.1528609
40	0x4000bc4b	2.0114925
41	0x40031277	2.048002
42	0xbffb44ae	-1.9630334
43	0xc0096c1e	-2.147224
44	0x3ffac982	1.9592745
45	0xbfff81ac	-1.9961448
46	0x40025ca5	2.0369046
47	0xc00aecee	-2.170711
48	0xbf67758e	-0.9041375
49	0xbf93be3f	-1.1542434
50	0xbf1a93a5	-0.6038154
51	0x3fceacff	1.6146544
52	0xc00c6b60	-2.1940536
53	0x3ffde2f8	1.983489
54	0xc0042a62	-2.0650868
55	0xc003154e	-2.0481753
56	0xbfce7826	-1.6130416
57	0x4001a786	2.0258498
58	0xc027cab7	-2.6217477
59	0xc023b00b	-2.5576198
60	0xc0071350	-2.1105537
61	0xc005641c	-2.0842352
62	0xbfee9a6d	-1.8640877
63	0x400ef95a	2.2339692
64	0xc00312bb	-2.0480182
65	0x3fe60831	1.797125
66	0xbffdc0e9	-1.9824497
67	0xc02e539b	-2.7238529
68	0xbfddadfd	-1.7318722
69	0x3fda7eb4	1.7069917
70	0xbf18c17d	-0.5967024
71	0xc0022506	-2.0335097
72	0x3f7a2167	0.9770722
73	0xc02bf16d	-2.6866105
74	0xc005fcce	-2.093555
75	0xc000519d	-2.0049813
76	0xbffe1577	-1.98503
77	0x3fff0443	1.9923176
78	0xc00971ab	-2.1475627
79	0x3fbf687f	1.4953765
80	0xbf24bd90	-0.6435175
81	0xbfed6b50	-1.8548374
82	0x3ffa1539	1.9537727
83	0x40040f33	2.0634277
84	0xbff93734	-1.9469972
85	0x3fca9ee6	1.5829742
86	0xbfffa652	-1.9972632
87	0xc0087d6b	-2.132655
88	0x3fa8ce3b	1.3187937
89	0xbfbb7cec	-1.4647498
90	0x40100f28	2.250925
91	0x4001df00	2.0292358
92	0xbff9066b	-1.9455084
93	0x40012f3b	2.0185077
94	0xbe13e5ca	-0.14443126
95	0x3d36e2e4	0.044649974
96	0xbfa946b7	-1.3224705
97	0x40098f97	2.149389
98	0xbfd0e260	-1.6319084
99	0xc000620b	-2.005984
100	0xbff67fd3	-1.9257759
101	0xbfe98b7b	-1.8245691
102	0xbf2315df	-0.6370525
103	0xbfaef1ea	-1.3667576
104	0xbffb9482	-1.9654696
105	0xbfdf32b5	-1.743735
106	0x40009311	2.0089762
107	0xbfe4c970	-1.7873974
108	0xbfd59dbb	-1.668876
109	0xbf99886e	-1.199476
110	0xbf04a3e5	-0.51812583
111	0x3ffc7066	1.9721801
112	0x3ffb47f1	1.963133
113	0xc00559d6	-2.0836082
114	0xbff2f7c2	-1.898186
115	0xbfa4194d	-1.2820221
116	0xbff337d5	-1.9001414
117	0xbfdbc9f0	-1.7171001
118	0x3ffec0a3	1.9902538
119	0x3ce396c2	0.027781848
120	0xbff5dc07	-1.9207772
121	0xbff619e1	-1.9226648
122	0x3fc22533	1.5167602
123	0xc0049275	-2.071439
124	0xc0011266	-2.016748
125	0x3ffb95c8	1.9655085
126	0xbffca918	-1.9739103
127	0x40010560	2.015953
128	0x3f8142bc	1.0098491
129	0x3fb1259f	1.3839606
130	0xbff8cab2	-1.9436858
131	0x3b8858fa	0.0041609975
132	0x40045caf	2.068157
133	0xbfd250e3	-1.6430935
134	0x4005590c	2.08356
135	0x4002e0a0	2.04496
136	0x3e8c05ea	0.27348262
137	0x4005f574	2.0931063
138	0x3fe8f95d	1.82011
139	0xbfccb34d	-1.5992218
140	0x3ffdb574	1.9821
141	0xbffb7882	-1.9646151
142	0x4015f0c1	2.3428195
143	0xbfd4c9df	-1.6624106
144	0x3ffd07bf	1.9767989
145	0xbfe7a84a	-1.8098233
146	0x4000f556	2.014974
147	0xbf85f85d	-1.046642
148	0xbfc4342a	-1.5328419
149	0x3ffd532e	1.979101
150	0x3fbe20c3	1.4853748
151	0x3fff0240	1.9922562
152	0xc0119066	-2.2744384
153	0xbf871a34	-1.0554872
154	0x3fa8b6b4	1.3180757
155	0x3ffc025f	1.9688224
156	0x40001aaa	2.0016274
157	0xbfeafb2d	-1.8357903
158	0x3ffe5673	1.9870132
159	0xbfe52abf	-1.790367
160	0xbff28b7f	-1.8948821
161	0xc0225b10	-2.536808
162	0x3f891b2e	1.071142
163	0xc002a784	-2.0414743
164	0x400aa16b	2.1661022
165	0xc021e092	-2.5293317
166	0xc009bf92	-2.1523175
167	0xc0228993	-2.5396469
168	0xc04d4ab2	-3.207684
169	0x40072609	2.1116965
170	0xc00088e9	-2.0083563
171	0xc00ab1e5	-2.1671078
172	0xbfe54548	-1.7911768
173	0xc0094dbb	-2.1453693
174	0x3fc59f43	1.5439228
175	0xc007863d	-2.1175683
176	0xc00239d0	-2.0347786
177	0x4007757a	2.1165452
178	0xbf3bcf8c	-0.73363566
179	0xc00a5d7d	-2.161956
180	0xbf0dfd28	-0.5546441
181	0x400235d3	2.0345352
182	0xbf0eb58a	-0.55745757
183	0x3ffa49d1	1.9553777
184	0xc005eae4	-2.0924616
185	0xc021d8b7	-2.5288522
186	0xc00374a6	-2.0539947
187	0x4000ec2a	2.0144143
188	0xc01ef689	-2.4837973
189	0xc00d3c40	-2.2068024
190	0x3fbea1d3	1.4893135
191	0xbff5132d	-1.9146477
192	0xc009e66d	-2.154689
193	0x400b151f	2.1731641
194	0xc0112a80	-2.268219
195	0xc00bcf82	-2.1845403
196	0xc00b9a89	-2.181307
197	0xc0198de3	-2.399285
198	0xbf97cb81	-1.185898
199	0x3f991ddb	1.1962236
200	0xc0024911	-2.0357096
201	0x400355ae	2.0521045
202	0xc021289a	-2.5181031
203	0xc004583b	-2.0678852
204	0xbfffa9cc	-1.9973693
205	0xbfffad8b	-1.9974836
206	0xbfef9df8	-1.8720083
207	0xc00811dc	-2.12609
208	0xbd7fe494	-0.06247385
209	0xc00bacd3	-2.1824234
210	0xbf9657a8	-1.17455
211	0xc01ad161	-2.4190295
212	0xbff9a992	-1.9504874
213	0x3ff94832	1.9475157
214	0xc0003037	-2.0029428
215	0xc00441ce	-2.0665164
216	0xc02b3b19	-2.675482
217	0x40004441	2.004166
218	0xc00c5a74	-2.1930208
219	0xbff8fde3	-1.945248
220	0xc00250fa	-2.0361924
221	0xc0054903	-2.0825813
222	0xc00d95db	-2.2122715
223	0x3f95e84e	1.1711519
224	0xc00334d9	-2.0501006
225	0x3fed4da6	1.8539321
226	0xc006b13b	-2.1045673
227	0xc030d1f6	-2.762815
228	0xc0272f3b	-2.6122577
229	0x3fc89334	1.5669923
230	0xbffc52b6	-1.9712741
231	0xc00a7203	-2.1632087
232	0x3f5410f3	0.8283836
233	0xc010fb68	-2.2653446
234	0xc001c297	-2.0275018
235	0xbffa8695	-1.9572321
236	0xc000bc2a	-2.0114846
237	0x3fbb7ba4	1.4647107
238	0xc0098d00	-2.149231
239	0xc01b7ec2	-2.4296117
240	0x3f195070	0.5988836
241	0xc01d1bc8	-2.4548206
242	0xc009a04a	-2.1504083
243	0xc0068277	-2.101713
244	0xbfdfa98e	-1.7473619
245	0xc0251a4c	-2.57973
246	0xc0055ee6	-2.0839171
247	0xc02e4f76	-2.7236
248	0xc04a3f4c	-3.1601133
249	0xc01daddd	-2.4637368
250	0xc008a7f3	-2.1352508
251	0xc0044098	-2.0664425
252	0xc00fecde	-2.2488322
253	0xc00265da	-2.0374665
254	0xc0133fbd	-2.3007653
255	0xbffab65f	-1.9586905

linear.bias f4 [6]
0	0xbf659f8d	-0.8969658
1	0xbdd3ce14	-0.10342041
2	0xbf9f9695	-1.2467829
3	0xbfbdeced	-1.4837929
4	0xbe1d7739	-0.15377511
5	0x3f19bb2e	0.6005124
