figs/optimizer/adamw-0.01-mlp/mlp_model_dict.pt (torch, 141967 bytes, 10 tensors)

group.0.weight f4 [100, 100]
000000 b7 fc 96 c1 5e c8 a3 c1 72 35 a3 bc f7 98 94 3d
       -18.873396 -20.472836 -0.019922946 0.07255738
000010 1b 80 9a c1 9f 3b 98 c1 02 ec 11 bd 16 bc 9d c1
       -19.312551 -19.029112 -0.035625465 -19.716839
000020 e9 ce 1c 3d 20 47 9a c1 f5 d5 8d bc b8 c7 9a c1
       0.038283262 -19.284729 -0.017313937 -19.347519
000030 35 ce 96 c1 e9 e8 9a 41 b3 f7 97 c1 6a a9 a4 c1
       -18.850687 19.363726 -18.995947 -20.582722
000040 a2 eb 47 bd 1e f8 9f c1 27 27 99 c1 c8 7d 8c bd
       -0.0488087 -19.996151 -19.144117 -0.06859928
000050 be 09 dc bb 41 e1 96 c1 16 fa 9c c1 01 73 97 c1
       -0.0067150285 -18.859987 -19.622112 -18.931154
000060 7c 80 9a c1 68 39 9c 41 dc c2 99 c1 14 cd 9a c1
       -19.312737 19.52803 -19.220146 -19.350136
000070 48 be 9a c1 74 2c 97 c1 e6 cc 9b c1 19 94 58 3c
       -19.34291 -18.896706 -19.475048 0.013218903
000080 b7 5a 9a c1 0e 1a 90 c1 b5 ca 9a c1 34 6d 9a c1
       -19.294294 -18.012722 -19.348978 -19.303322
000090 52 76 9a c1 b1 07 5b bd ef 29 97 c1 33 20 66 3d
       -19.307774 -0.053474132 -18.895475 0.05618305
0000a0 cf d0 99 c1 73 8b 9a c1 93 44 97 c1 bd 5f a5 c1
       -19.226957 -19.31809 -18.908484 -20.671747
0000b0 31 76 9d 41 95 4b 9a c1 a9 9f 97 c1 09 33 96 c1
       19.68271 -19.286905 -18.95296 -18.77492
0000c0 ab b1 97 c1 95 fe 08 bd 21 27 9c 41 3a 8a 90 3d
       -18.961752 -0.033445913 19.519106 0.070576146
0000d0 2a 5f 9a c1 07 85 ac 3c 4c 73 9c 41 c5 0f 99 c1
       -19.296467 0.021059526 19.556297 -19.1327
0000e0 c4 39 97 c1 5a 18 9a c1 6d 59 9c 41 6e 3d 78 bd
       -18.903206 -19.26189 19.543665 -0.06060546
0000f0 19 7c 05 3d ab e5 99 c1 55 f8 52 41 78 0c 9a c1
       0.032589052 -19.237143 13.185628 -19.256088
000100 3c aa 9c c1 c0 cc 22 ba fa 88 97 c1 ef a7 97 c1
       -19.583122 -0.00062103197 -18.941883 -18.956999
000110 6f 3a 90 bd 77 c9 3a bd a5 42 9c 41 04 e0 f3 3c
       -0.07042395 -0.045602288 19.532541 0.029769905
000120 51 10 76 bd 64 7e 95 bd 32 a1 3b ba d0 c3 97 c1
       -0.060074154 -0.07299498 -0.0007157504 -18.970612
000130 ca 49 e8 bc 43 e7 d3 bc 11 ea 9f c1 24 d5 9a c1
       -0.028355498 -0.02586711 -19.98929 -19.354073
000140 4f a1 9a c1 93 de 56 bd 8d 08 8f bd 24 69 bb bb
       -19.328764 -0.052458357 -0.06984053 -0.005719321
000150 90 13 9c 41 81 f5 99 c1 e9 04 99 c1 f9 d8 9c c1
       19.509552 -19.244875 -19.127398 -19.605944
000160 57 72 84 bd 23 2f 9a c1 15 3b 9c 41 f5 87 7f 3b
       -0.06467121 -19.273016 19.528849 0.0038990949
000170 34 26 9b c1 89 11 54 bc f6 c3 9b 41 59 f4 97 c1
       -19.393654 -0.012943634 19.470684 -18.99431
000180 74 f2 96 41 68 e3 97 c1 1e d4 9a c1 5a 48 a0 bd
       18.868385 -18.986038 -19.353573 -0.078263
000190 7b 85 12 c1 db 19 d3 c1 b4 91 e8 41 8c db fc 41
       -9.157588 -26.387625 29.071144 31.6072
0001a0 f0 2a 11 3f 8e 80 d3 41 87 5b e3 41 04 f0 1b c1
       0.5670614 26.43777 28.419691 -9.746098
0001b0 c1 81 f3 41 5e 73 c2 41 0f 3f 0f c1 ad b8 c1 41
       30.438356 24.306332 -8.952895 24.215174
0001c0 96 75 36 c0 d2 e4 9a c1 7f 7a 78 c0 5d 17 50 c0
       -2.8509269 -19.361729 -3.8824766 -3.251426
0001d0 97 c9 d5 41 ef e6 80 3f 06 66 cd 41 54 71 2b 41
       26.723433 1.0070475 25.674816 10.715168
0001e0 2b 7b c6 41 ac 67 b4 c0 93 4b aa 41 83 07 76 c0
       24.81014 -5.6376553 21.286901 -3.8442085
0001f0 6a c0 c9 bf 94 0b 55 c0 59 84 c1 41 5f 1b cf 41
       -1.5761845 -3.3288317 24.189623 25.888365
000200 95 ca c0 41 f5 a4 0e 41 3a d1 3e c1 87 5b 99 c0
       24.098917 8.915273 -11.926081 -4.792423
000210 8e 6d db 41 b6 24 d3 41 a6 10 e4 bd ab 8e de 41
       27.428493 26.392925 -0.11135988 27.819662
000220 57 b2 c0 41 df c0 88 c0 a4 af e7 41 eb cc f0 41
       24.08708 -4.273544 28.960762 30.100058
000230 ab 36 c9 41 b4 98 b0 41 53 88 de 41 4e 01 97 bf
       25.151693 22.074562 27.816565 -1.1797273
000240 d9 ce 3a 41 ff 59 d8 41 7a 4a d1 41 81 8c e4 c0
       11.6755 27.043943 26.161366 -7.1421514
000250 34 a4 ee bf 93 19 d7 41 96 42 05 c0 8c 30 cf 41
       -1.8643861 26.887487 -2.082189 25.898705
000260 fc f9 cb 41 e5 dc ee c0 02 e2 70 c0 8e c1 c0 41
       25.497063 -7.4644647 -3.7637944 24.09451
000270 38 bb b4 41 76 33 da 41 63 bc 9b 40 a7 5e bf 41
       22.591415 27.275127 4.8667464 23.921217
000280 76 ee 9a c0 96 c1 86 c0 6c ab cf 41 e9 59 0e c1
       -4.841609 -4.211131 25.958702 -8.896951
000290 bb 7e e7 c0 6b f5 c6 41 1d 41 51 c1 d9 94 f3 41
       -7.23422 24.869833 -13.078397 30.44768
0002a0 ed d7 bc 41 ac d9 e3 41 c1 88 b2 41 61 df 9a c0
       23.605433 28.481285 22.316774 -4.839768
0002b0 b2 e0 c6 c1 73 81 60 c0 d8 fe b2 c1 5c c2 02 42
       -24.859715 -3.507901 -22.374435 32.689804
0002c0 7b 63 b3 41 e5 44 cd bf 4c 61 1e c0 48 6a 83 41
       22.423574 -1.603665 -2.4746885 16.426895
0002d0 46 8a cf 41 c0 3f ef 41 b4 af e7 41 a8 6f ee bf
       25.942516 29.906128 28.960793 -1.8627825
0002e0 01 27 ca 41 1f dc c1 41 60 b9 ca 41 a7 8e e5 41
       25.269045 24.232481 25.340515 28.694654
0002f0 f0 2b f3 41 52 86 99 c1 52 3b 87 40 94 7f cc 41
       30.396454 -19.190586 4.2259912 25.562294
000300 d6 a7 d8 41 11 e9 1d c0 ec 5e 96 c0 1d a4 92 c0
       27.081951 -2.4673502 -4.699087 -4.5825334
000310 ce e8 dd 41 21 c3 ed 41 0c 79 da 41 f4 45 ba c1
       27.738674 29.720278 27.309105 -23.284157
000320 39 57 96 41 1c 6e 9a c1 7b 5d 97 41 d6 0d 97 c1
       18.79259 -19.303764 18.920645 -18.881756
000330 3b 41 96 c1 10 46 97 c1 db 81 95 c1 2a d9 97 c1
       -18.78185 -18.90921 -18.688406 -18.981037
000340 91 1f 96 c1 44 24 97 c1 39 6e 98 c1 a1 13 97 c1
       -18.765413 -18.892708 -19.05382 -18.884584
000350 dc 1f 99 c1 c7 3e 9d c1 bb a5 98 c1 ec e8 99 c1
       -19.140556 -19.655653 -19.080923 -19.238731
000360 65 82 96 c1 f7 ac 96 c1 fa 8a 96 c1 52 0f 97 c1
       -18.81367 -18.834455 -18.81786 -18.88248
000370 b6 d4 98 c1 3c 0b 97 c1 b7 1d 97 c1 75 cd 97 c1
       -19.103863 -18.880486 -18.88951 -18.97532
000380 8c 80 99 c1 32 41 97 c1 63 37 97 c1 b0 70 96 c1
       -19.187767 -18.906834 -18.902044 -18.805023
000390 c8 96 96 c1 1f 07 97 c1 e4 44 97 c1 32 39 97 41
       -18.823624 -18.878477 -18.908638 18.902927
0003a0 17 c9 97 c1 48 35 95 c1 bb d1 98 c1 b3 2c 96 c1
       -18.973188 -18.651016 -19.102407 -18.771826
0003b0 89 1b 96 c1 fb 54 98 c1 15 c3 96 c1 f7 14 97 c1
       -18.763445 -19.041494 -18.845255 -18.885237
0003c0 e7 9a 78 c1 1f 34 98 c1 e0 4a 96 c1 7b 19 97 c1
       -15.537818 -19.02545 -18.78656 -18.887442
0003d0 7f 40 93 41 87 87 95 41 74 1c 97 c1 cf 30 97 c1
       18.406492 18.691175 -18.888893 -18.898832
0003e0 ca 1a 97 c1 f4 16 99 c1 48 7d 96 c1 f8 7c 96 c1
       -18.88808 -19.136208 -18.811172 -18.81102
0003f0 e8 a1 97 41 2d 3c 97 c1 c7 93 96 c1 f5 eb 96 c1
       18.954056 -18.904383 -18.822157 -18.865213

group.0.bias f4 [100]
000000 4e 2f a4 c1 97 e8 84 3e f7 cf 92 c1 ef 52 9d c1
       -20.523098 0.25958702 -18.351545 -19.665495
000010 4d ff 95 c1 65 4a 99 c1 78 eb a6 c1 6f 36 9f 41
       -18.749659 -19.161325 -20.864975 19.901579
000020 1e cc 96 c1 e3 d3 99 c1 cf d1 9e c1 0f 8f 98 c1
       -18.849667 -19.22846 -19.852446 -19.069853
000030 1d 81 ad c1 f2 67 99 c1 57 fc 96 c1 35 01 a3 c1
       -21.688044 -19.175755 -18.873213 -20.37559
000040 93 4a 97 c1 be 6a 96 c1 fd 4f 97 c1 48 0b 9a c1
       -18.911413 -18.80212 -18.914057 -19.255508
000050 a9 ff 95 c1 e5 38 92 c1 f4 a8 9e c1 de be a5 c1
       -18.749834 -18.27778 -19.832497 -20.718197
000060 bb 0b 96 c1 5e d3 96 c1 33 ae 99 c1 26 a0 95 c1
       -18.755728 -18.853207 -19.210058 -18.703197
000070 af 3b 9c c1 92 be 96 c1 32 55 f6 41 01 45 83 c1
       -19.529142 -18.843052 30.7916 -16.408693
000080 ed ac 96 c1 80 8a 96 c1 a5 82 ab c1 ed 44 9a c1
       -18.834436 -18.817627 -21.438791 -19.283655
000090 31 cb 9a c1 81 47 9d c1 81 65 99 c1 12 e4 9b c1
       -19.349215 -19.659914 -19.174562 -19.486362
0000a0 1c 88 8e c1 fe ed 47 c1 b3 0d a0 c1 ba 28 9c c1
       -17.81646 -12.495604 -20.00669 -19.519886
0000b0 5c ad 7c c1 02 2f a5 c1 be db 99 c1 3a ff 96 c1
       -15.792324 -20.647953 -19.232296 -18.874622
0000c0 07 2d 99 c1 7e 4c 97 c1 34 80 96 c1 0d de 9a c1
       -19.146986 -18.91235 -18.8126 -19.358423
0000d0 e9 6c 9c c1 7a 14 97 c1 02 24 97 c1 53 ce 96 c1
       -19.553179 -18.884998 -18.892582 -18.850744
0000e0 14 d3 9a c1 83 a2 98 c1 86 ea 99 c1 d0 1a 70 c1
       -19.353065 -19.079351 -19.239513 -15.006546
0000f0 4b 4f 96 c1 63 d9 ab c1 e2 c2 9b c1 00 db 88 41
       -18.788717 -21.481146 -19.470158 17.106934
000100 50 52 ab c1 45 b6 a7 c1 79 9f 96 c1 eb 03 99 c1
       -21.415192 -20.963999 -18.827868 -19.126913
000110 6b b4 ca c1 70 d6 a1 c1 ca d0 a6 c1 ed cc a6 c1
       -25.338095 -20.229706 -20.851948 -20.850061
000120 39 be aa c1 8e 22 97 c1 c9 d8 98 c1 89 44 9e c1
       -21.342882 -18.891872 -19.105852 -19.783464
000130 fa 8f a0 c1 0c 2f a6 c1 33 ff 9c c1 b6 c7 96 c1
       -20.070301 -20.772972 -19.624609 -18.847515
000140 ce d1 d2 c1 86 36 96 c1 b4 a7 96 c1 62 3d 9b c1
       -26.352444 -18.776623 -18.831886 -19.404972
000150 d3 12 9d 41 31 9d a0 c1 21 a0 99 c1 cd e7 92 c1
       19.634192 -20.076754 -19.203188 -18.363184
000160 23 94 9c c1 9b 33 9e c1 27 1a 9b c1 02 8c 97 c1
       -19.572332 -19.775198 -19.38777 -18.943363
000170 ac 77 9d c1 2d 03 97 c1 15 a6 96 c1 5a f6 9b c1
       -19.683434 -18.87655 -18.831095 -19.495289
000180 af 2b 99 c1 8d c1 96 c1 ea 41 96 c1 96 93 ac c1
       -19.14633 -18.844507 -18.782185 -21.572063

fc1.weight f4 [100, 240]
000000 fd 89 ea c1 dd 9c d1 c1 90 97 5f c1 62 8b df c0
       -29.317377 -26.201593 -13.974503 -6.9857645
000010 b6 e3 16 c0 df 29 4e 41 85 01 d9 c0 d8 32 d3 c1
       -2.3576484 12.885222 -6.7814355 -26.399826
000020 1e 6d e6 c1 ba 03 e0 c1 96 8f 46 c1 5d 35 08 c1
       -28.80328 -28.00182 -12.410055 -8.513028
000030 73 d8 18 c1 33 0c 5e c1 00 cb 9d c1 3b 51 f7 c1
       -9.552844 -13.877978 -19.724121 -30.914663
000040 40 73 e2 c1 69 9c 33 c1 19 10 d8 c0 a7 84 95 c0
       -28.306274 -11.225686 -6.751965 -4.672443
000050 79 b1 b3 c0 f5 4d 2f c1 93 3d b7 c0 52 17 d6 c0
       -5.615414 -10.9565325 -5.7262664 -6.6903467
000060 23 2b b5 c1 38 f9 e1 c1 8e 2e 16 c1 14 17 3e c1
       -22.646063 -28.246689 -9.386366 -11.880634
000070 57 66 f5 c0 61 ac 1f c1 f0 eb ed c1 8e 21 ec c1
       -7.6687427 -9.979585 -29.740204 -29.516384
000080 87 39 c3 c1 31 6b a8 c0 95 f2 07 c1 ae 03 12 c1
       -24.40309 -5.263085 -8.496724 -9.125898
000090 89 e3 2f c1 3e dd a1 c0 64 3d 85 c0 34 6e 0f c0
       -10.993051 -5.058257 -4.163744 -2.2411013
0000a0 4c d7 f4 3f 55 ce 02 41 1c 2d 4c c1 9a 15 31 c1
       1.9128203 8.175374 -12.761013 -11.067774
0000b0 ea d0 23 c1 e3 3e d4 c1 a2 b9 d7 c1 7c b7 d7 c1
       -10.238504 -26.530706 -26.965641 -26.964592
0000c0 1a 92 57 c1 8f 89 30 41 7a ee 19 41 8e a2 3a c1
       -13.473169 11.033584 9.620722 -11.664686
0000d0 28 73 81 c1 af 56 de c1 33 fd e8 c1 d9 db 71 c1
       -16.181229 -27.792326 -29.123632 -15.116174
0000e0 15 00 58 41 2d 71 4a 41 d3 b5 43 c1 b0 23 4e c1
       13.50002 12.652631 -12.231891 -12.883713
0000f0 46 c8 65 c1 1b 2f e8 c1 c4 8f cb c1 27 09 06 c1
       -14.361395 -29.023 -25.445198 -8.377234
000100 29 87 fc c0 ea 63 19 c1 a4 12 ec c1 d2 6b a3 bf
       -7.891499 -9.586893 -29.509102 -1.2767279
000110 b4 3f 8a c1 9a 77 d2 c1 65 0a ce c1 73 62 14 c1
       -17.281105 -26.3084 -25.755075 -9.274035
000120 63 52 03 c1 8b 08 89 41 7c 18 fc c0 24 2c 7f c1
       -8.207614 17.129171 -7.877989 -15.9482765
000130 d6 7d eb c1 79 82 f7 c1 80 65 97 c1 e7 0f 06 c1
       -29.436443 -30.938707 -18.92456 -8.378882
000140 29 44 5b c1 e3 4f d5 c1 96 fb ba c1 08 2b 63 c1
       -13.704141 -26.664007 -23.372845 -14.198006
000150 b1 9c b6 40 f9 fc d9 41 7f 2c e9 41 ba db 69 41
       5.7066274 27.248522 29.146727 14.616144
000160 f5 5d 03 c1 3f 0a 26 c1 ad d7 34 c1 ba d6 69 40
       -8.210439 -10.3775015 -11.302655 3.6537309
000170 d4 4e d6 41 7b cc ee 41 e7 78 c3 41 67 cf 21 41
       26.78849 29.849844 24.434034 10.113135
000180 14 37 f3 40 52 c1 41 41 2c 6c 98 c0 fb 67 77 40
       7.6004734 12.109697 -4.7632046 3.8657215
000190 d3 29 9e 40 1e 2c 95 40 09 82 39 c1 01 eb 5c c1
       4.9426055 4.6616354 -11.594247 -13.807374
0001a0 f0 e0 3a c1 e9 f8 04 40 7e 33 6a c0 33 2b 48 c0
       -11.679916 2.0776923 -3.6593928 -3.1276367
0001b0 df 90 82 c1 56 fa fe 40 30 96 0c 41 51 04 24 c1
       -16.320738 7.9680586 8.786667 -10.251054
0001c0 fe 21 b1 c0 37 16 1a c0 b7 14 d1 40 70 30 ae 3e
       -5.5353994 -2.407606 6.5337787 0.3402133
0001d0 35 66 a7 40 e8 5f cd be 69 6e 93 41 6f d1 38 41
       5.2312264 -0.40112233 18.428911 11.551131
0001e0 80 b1 7a c0 68 73 d1 41 4a 8b 13 3f b3 63 b0 c1
       -3.9170837 26.18135 0.57634413 -22.048681
0001f0 10 31 72 c1 56 eb 8a c1 a9 23 9d c1 c8 77 c7 3f
       -15.136978 -17.36491 -19.642412 1.5583429
000200 f6 a8 ae c0 38 06 dd 41 7e 99 cc 41 f2 7c 48 c0
       -5.458125 27.628036 25.574947 -3.132626
000210 dd b3 d7 3f 18 9a 57 c1 7d 6d 6d c1 de f7 e8 40
       1.6851765 -13.475121 -14.839231 7.280257
000220 d8 1b d8 41 59 3e d1 41 83 bc b4 40 e9 1e ce 3f
       27.013596 26.155443 5.6480117 1.6103183
000230 8f e2 a9 bf 44 af 9a c1 4d bd d3 41 f0 a6 e5 41
       -1.3272265 -19.335579 26.467432 28.706512
000240 1c 17 85 40 76 b0 5c 40 5a d3 31 40 f7 45 4f 3f
       4.159071 3.4482703 2.7785249 0.8096613
000250 2a 87 48 41 7d b5 40 41 70 45 f2 41 cc 85 f3 41
       12.532999 12.044309 30.283905 30.44033
000260 d8 cf c5 40 bd 6e 65 40 9d 04 50 3f 82 55 41 c0
       6.1816216 3.584884 0.8125704 -3.020844
000270 fb d4 8c c1 d9 06 83 c1 f8 b2 66 c1 38 53 93 bc
       -17.603994 -16.378344 -14.418694 -0.017984018
000280 64 bf 71 41 5b 37 6a c1 48 8e 80 c0 cb 61 de 41
       15.109226 -14.6385145 -4.0173683 27.79775
000290 b7 c7 87 41 2b 20 9d 40 b4 31 a5 41 6b 4f c7 3e
       16.972517 4.9101768 20.64927 0.3892778
0002a0 4d 8f e6 41 c6 c0 84 41 0e 1c 9e c1 78 f7 e3 c1
       28.819971 16.594128 -19.763699 -28.495834
0002b0 90 60 0e c1 b7 24 3b 41 48 2a f2 c0 9a 95 32 c1
       -8.898575 11.696464 -7.5676613 -11.161524
0002c0 d5 a1 90 41 8b 85 12 41 8d 59 ad c0 ac 27 ea 41
       18.07902 9.157603 -5.4171815 29.269371
0002d0 0c 2d c9 40 52 4f 66 41 2a 93 e7 41 55 a8 f8 41
       6.286749 14.394365 28.946857 31.082193
0002e0 b1 d2 0f 41 c7 b3 25 c1 3b 2e 48 3f 6a 6c 55 c0
       8.988938 -10.356391 0.7819554 -3.334742
0002f0 00 cc bd c1 db a8 32 c0 0b cb 36 c1 ff 8f 02 42
       -23.72461 -2.7915561 -11.424571 32.64062
000300 02 4a 6c c1 39 1f bb 41 98 fa b6 41 bc 06 d2 41
       -14.768068 23.390245 22.87236 26.253288
000310 eb df 97 41 1a 2f bb 41 82 f2 c1 41 aa 9a 5d 41
       18.984335 23.397999 24.243412 13.85026
000320 1e 71 dc c0 33 86 14 c1 16 09 8b 41 e1 6d b9 c1
       -6.8888083 -9.2827635 17.379436 -23.178652
000330 0b 07 e3 41 e8 5b 93 41 62 14 4b 41 22 27 f9 c1
       28.378439 18.419876 12.692476 -31.144108
000340 df ae 68 40 dd 6d cb 41 1d 3e b3 c1 ae 7c fe c1
       3.6356733 25.428644 -22.405329 -31.810879
000350 c0 06 3c 41 df 7b be 41 80 3c 8a 41 42 d1 4b 41
       11.751648 23.810484 17.279541 12.738588
000360 79 e4 95 c0 81 98 4a 40 52 89 92 c1 0f 6a 14 bf
       -4.6841397 3.165558 -18.31705 -0.5797433
000370 5f 07 7d 40 ce fd 79 c0 16 4e 90 41 db 34 bd c0
       3.953575 -3.906116 18.038128 -5.912702
000380 33 66 88 41 1b f9 ce c1 6b eb bc c1 fa 04 e5 41
       17.049902 -25.871634 -23.61495 28.62743
000390 27 b5 fe 41 47 f6 f4 41 5f 83 73 40 36 f9 89 c1
       31.838453 30.620253 3.8048933 -17.246685
0003a0 d1 b3 f3 c1 2d 92 b5 41 19 17 a7 c0 e3 2d 92 c0
       -30.462801 22.696375 -5.2215695 -4.5681014
0003b0 a1 69 79 bf 73 85 ca 41 cc 3e bf 41 59 78 f4 41
       -0.974268 25.31516 23.905663 30.558764
0003c0 4d 1a 18 bf c4 68 90 c1 9f fa c5 c0 8b 54 61 40
       -0.5941513 -18.051155 -6.1868434 3.520785
0003d0 e7 88 fe c0 8a 71 13 41 1f be 28 41 a8 53 ec c0
       -7.9542117 9.2152195 10.546416 -7.385212
0003e0 77 d0 31 40 2a 03 73 40 4f 34 e5 3f 88 4c 98 c1
       2.7783487 3.797068 1.7906588 -19.037369
0003f0 fb 7f a5 c1 66 a1 8f c1 79 55 46 c1 06 d9 16 c1
       -20.68749 -17.953808 -12.395867 -9.427984

fc1.bias f4 [100]
000000 3e af 97 c1 af eb 01 c2 18 09 65 3f 9e 96 7b c1
       -18.960567 -32.48016 0.89467 -15.724272
000010 6c 89 e9 41 d0 67 d4 41 85 58 d7 41 15 8b cc c1
       29.1921 26.55069 26.918222 -25.567911
000020 3d f3 17 c1 ad 0d 30 c1 6d 69 46 40 16 9c 27 c1
       -9.496884 -11.003339 3.1001847 -10.475607
000030 bb 7c e5 c1 4c fe 3c 40 57 0b 26 c1 59 3a f7 41
       -28.685904 2.953021 -10.3777685 30.90349
000040 81 8b be 41 8e a2 ca c0 28 7d 26 c1 50 d9 d6 41
       23.818117 -6.332343 -10.405556 26.85611
000050 d0 8b b7 41 16 fb c6 c1 b8 91 c8 3f 4b e5 e6 c1
       22.943268 -24.8726 1.566947 -28.86196
000060 31 1b 94 c0 32 cd ec c1 c7 e3 2d c1 a2 a4 93 41
       -4.6283193 -29.600193 -10.86811 18.455387
000070 ff 64 2a c1 18 1a 40 41 76 cc c9 c1 09 79 83 c1
       -10.649657 12.006371 -25.224834 -16.4341
000080 62 4d 25 40 03 93 b9 40 f3 e3 e0 41 05 2b 69 41
       2.582848 5.799196 28.111303 14.573003
000090 14 8d 41 bf 59 4a e5 c1 54 41 93 40 c1 48 4c c1
       -0.75605893 -28.661303 4.6017246 -12.767762
0000a0 b7 c7 21 c1 20 02 83 40 16 43 a5 40 b7 12 90 c0
       -10.1112585 4.0940094 5.164439 -4.5022845
0000b0 09 c9 eb c1 09 2e c8 41 4b a1 bd 41 55 59 cd 40
       -29.473162 25.022478 23.703756 6.417155
0000c0 5c 22 e2 c1 97 78 d0 41 c6 a6 df c1 16 9b be 41
       -28.266777 26.058882 -27.956432 23.825726
0000d0 48 9e b9 40 70 dd 9e 40 d1 cd ee c1 31 33 2e c1
       5.8005714 4.964531 -29.850496 -10.887498
0000e0 a6 1e 2d 41 4e c6 e5 bf bd 7e d7 41 79 07 72 c1
       10.819983 -1.7951143 26.936884 -15.126824
0000f0 d6 3c 45 40 8f a7 5f 40 39 69 b4 c1 ce 1f d0 c1
       3.0818381 3.494602 -22.551378 -26.01553
000100 04 c6 dc c1 b4 f7 cb 40 b6 f2 79 40 a3 db db c0
       -27.596687 6.373987 3.905439 -6.870561
000110 9a 79 71 c1 a2 da 46 c1 3a f6 98 bc a9 f4 a5 c1
       -15.092188 -12.428377 -0.018672097 -20.744463
000120 49 06 0a 3f ff 32 e5 c1 20 1a a8 3f 20 47 c3 3f
       0.5391584 -28.6499 1.3132973 1.5256081
000130 0b 61 43 c1 84 ec 2f c1 3b 55 9c 40 0a 58 dc 41
       -12.211192 -10.995243 4.885404 27.542988
000140 63 7e 20 c1 4b a3 64 c1 8d 44 69 41 a7 a8 e6 c1
       -10.030856 -14.289866 14.579236 -28.83235
000150 5c 69 a8 40 45 0b b8 41 96 07 25 c1 d2 25 62 c1
       5.2628613 23.005503 -10.314352 -14.134233
000160 fa 27 d5 bf 7c cd 58 41 05 3f ce 41 e1 d9 39 c1
       -1.6652825 13.550167 25.780771 -11.615693
000170 36 0c a3 41 0c 98 bc 40 cc 72 d5 41 30 dd 9f c1
       20.380962 5.8935604 26.681053 -19.983002
000180 42 b5 d4 3f 81 2a 1a c1 0d 85 e3 c0 15 24 80 41
       1.6617815 -9.635377 -7.1099916 16.017618

fc2.0.0.weight f4 [100, 100]
000000 b7 fc 96 c1 5e c8 a3 c1 72 35 a3 bc f7 98 94 3d
       -18.873396 -20.472836 -0.019922946 0.07255738
000010 1b 80 9a c1 9f 3b 98 c1 02 ec 11 bd 16 bc 9d c1
       -19.312551 -19.029112 -0.035625465 -19.716839
000020 e9 ce 1c 3d 20 47 9a c1 f5 d5 8d bc b8 c7 9a c1
       0.038283262 -19.284729 -0.017313937 -19.347519
000030 35 ce 96 c1 e9 e8 9a 41 b3 f7 97 c1 6a a9 a4 c1
       -18.850687 19.363726 -18.995947 -20.582722
000040 a2 eb 47 bd 1e f8 9f c1 27 27 99 c1 c8 7d 8c bd
       -0.0488087 -19.996151 -19.144117 -0.06859928
000050 be 09 dc bb 41 e1 96 c1 16 fa 9c c1 01 73 97 c1
       -0.0067150285 -18.859987 -19.622112 -18.931154
000060 7c 80 9a c1 68 39 9c 41 dc c2 99 c1 14 cd 9a c1
       -19.312737 19.52803 -19.220146 -19.350136
000070 48 be 9a c1 74 2c 97 c1 e6 cc 9b c1 19 94 58 3c
       -19.34291 -18.896706 -19.475048 0.013218903
000080 b7 5a 9a c1 0e 1a 90 c1 b5 ca 9a c1 34 6d 9a c1
       -19.294294 -18.012722 -19.348978 -19.303322
000090 52 76 9a c1 b1 07 5b bd ef 29 97 c1 33 20 66 3d
       -19.307774 -0.053474132 -18.895475 0.05618305
0000a0 cf d0 99 c1 73 8b 9a c1 93 44 97 c1 bd 5f a5 c1
       -19.226957 -19.31809 -18.908484 -20.671747
0000b0 31 76 9d 41 95 4b 9a c1 a9 9f 97 c1 09 33 96 c1
       19.68271 -19.286905 -18.95296 -18.77492
0000c0 ab b1 97 c1 95 fe 08 bd 21 27 9c 41 3a 8a 90 3d
       -18.961752 -0.033445913 19.519106 0.070576146
0000d0 2a 5f 9a c1 07 85 ac 3c 4c 73 9c 41 c5 0f 99 c1
       -19.296467 0.021059526 19.556297 -19.1327
0000e0 c4 39 97 c1 5a 18 9a c1 6d 59 9c 41 6e 3d 78 bd
       -18.903206 -19.26189 19.543665 -0.06060546
0000f0 19 7c 05 3d ab e5 99 c1 55 f8 52 41 78 0c 9a c1
       0.032589052 -19.237143 13.185628 -19.256088
000100 3c aa 9c c1 c0 cc 22 ba fa 88 97 c1 ef a7 97 c1
       -19.583122 -0.00062103197 -18.941883 -18.956999
000110 6f 3a 90 bd 77 c9 3a bd a5 42 9c 41 04 e0 f3 3c
       -0.07042395 -0.045602288 19.532541 0.029769905
000120 51 10 76 bd 64 7e 95 bd 32 a1 3b ba d0 c3 97 c1
       -0.060074154 -0.07299498 -0.0007157504 -18.970612
000130 ca 49 e8 bc 43 e7 d3 bc 11 ea 9f c1 24 d5 9a c1
       -0.028355498 -0.02586711 -19.98929 -19.354073
000140 4f a1 9a c1 93 de 56 bd 8d 08 8f bd 24 69 bb bb
       -19.328764 -0.052458357 -0.06984053 -0.005719321
000150 90 13 9c 41 81 f5 99 c1 e9 04 99 c1 f9 d8 9c c1
       19.509552 -19.244875 -19.127398 -19.605944
000160 57 72 84 bd 23 2f 9a c1 15 3b 9c 41 f5 87 7f 3b
       -0.06467121 -19.273016 19.528849 0.0038990949
000170 34 26 9b c1 89 11 54 bc f6 c3 9b 41 59 f4 97 c1
       -19.393654 -0.012943634 19.470684 -18.99431
000180 74 f2 96 41 68 e3 97 c1 1e d4 9a c1 5a 48 a0 bd
       18.868385 -18.986038 -19.353573 -0.078263
000190 7b 85 12 c1 db 19 d3 c1 b4 91 e8 41 8c db fc 41
       -9.157588 -26.387625 29.071144 31.6072
0001a0 f0 2a 11 3f 8e 80 d3 41 87 5b e3 41 04 f0 1b c1
       0.5670614 26.43777 28.419691 -9.746098
0001b0 c1 81 f3 41 5e 73 c2 41 0f 3f 0f c1 ad b8 c1 41
       30.438356 24.306332 -8.952895 24.215174
0001c0 96 75 36 c0 d2 e4 9a c1 7f 7a 78 c0 5d 17 50 c0
       -2.8509269 -19.361729 -3.8824766 -3.251426
0001d0 97 c9 d5 41 ef e6 80 3f 06 66 cd 41 54 71 2b 41
       26.723433 1.0070475 25.674816 10.715168
0001e0 2b 7b c6 41 ac 67 b4 c0 93 4b aa 41 83 07 76 c0
       24.81014 -5.6376553 21.286901 -3.8442085
0001f0 6a c0 c9 bf 94 0b 55 c0 59 84 c1 41 5f 1b cf 41
       -1.5761845 -3.3288317 24.189623 25.888365
000200 95 ca c0 41 f5 a4 0e 41 3a d1 3e c1 87 5b 99 c0
       24.098917 8.915273 -11.926081 -4.792423
000210 8e 6d db 41 b6 24 d3 41 a6 10 e4 bd ab 8e de 41
       27.428493 26.392925 -0.11135988 27.819662
000220 57 b2 c0 41 df c0 88 c0 a4 af e7 41 eb cc f0 41
       24.08708 -4.273544 28.960762 30.100058
000230 ab 36 c9 41 b4 98 b0 41 53 88 de 41 4e 01 97 bf
       25.151693 22.074562 27.816565 -1.1797273
000240 d9 ce 3a 41 ff 59 d8 41 7a 4a d1 41 81 8c e4 c0
       11.6755 27.043943 26.161366 -7.1421514
000250 34 a4 ee bf 93 19 d7 41 96 42 05 c0 8c 30 cf 41
       -1.8643861 26.887487 -2.082189 25.898705
000260 fc f9 cb 41 e5 dc ee c0 02 e2 70 c0 8e c1 c0 41
       25.497063 -7.4644647 -3.7637944 24.09451
000270 38 bb b4 41 76 33 da 41 63 bc 9b 40 a7 5e bf 41
       22.591415 27.275127 4.8667464 23.921217
000280 76 ee 9a c0 96 c1 86 c0 6c ab cf 41 e9 59 0e c1
       -4.841609 -4.211131 25.958702 -8.896951
000290 bb 7e e7 c0 6b f5 c6 41 1d 41 51 c1 d9 94 f3 41
       -7.23422 24.869833 -13.078397 30.44768
0002a0 ed d7 bc 41 ac d9 e3 41 c1 88 b2 41 61 df 9a c0
       23.605433 28.481285 22.316774 -4.839768
0002b0 b2 e0 c6 c1 73 81 60 c0 d8 fe b2 c1 5c c2 02 42
       -24.859715 -3.507901 -22.374435 32.689804
0002c0 7b 63 b3 41 e5 44 cd bf 4c 61 1e c0 48 6a 83 41
       22.423574 -1.603665 -2.4746885 16.426895
0002d0 46 8a cf 41 c0 3f ef 41 b4 af e7 41 a8 6f ee bf
       25.942516 29.906128 28.960793 -1.8627825
0002e0 01 27 ca 41 1f dc c1 41 60 b9 ca 41 a7 8e e5 41
       25.269045 24.232481 25.340515 28.694654
0002f0 f0 2b f3 41 52 86 99 c1 52 3b 87 40 94 7f cc 41
       30.396454 -19.190586 4.2259912 25.562294
000300 d6 a7 d8 41 11 e9 1d c0 ec 5e 96 c0 1d a4 92 c0
       27.081951 -2.4673502 -4.699087 -4.5825334
000310 ce e8 dd 41 21 c3 ed 41 0c 79 da 41 f4 45 ba c1
       27.738674 29.720278 27.309105 -23.284157
000320 39 57 96 41 1c 6e 9a c1 7b 5d 97 41 d6 0d 97 c1
       18.79259 -19.303764 18.920645 -18.881756
000330 3b 41 96 c1 10 46 97 c1 db 81 95 c1 2a d9 97 c1
       -18.78185 -18.90921 -18.688406 -18.981037
000340 91 1f 96 c1 44 24 97 c1 39 6e 98 c1 a1 13 97 c1
       -18.765413 -18.892708 -19.05382 -18.884584
000350 dc 1f 99 c1 c7 3e 9d c1 bb a5 98 c1 ec e8 99 c1
       -19.140556 -19.655653 -19.080923 -19.238731
000360 65 82 96 c1 f7 ac 96 c1 fa 8a 96 c1 52 0f 97 c1
       -18.81367 -18.834455 -18.81786 -18.88248
000370 b6 d4 98 c1 3c 0b 97 c1 b7 1d 97 c1 75 cd 97 c1
       -19.103863 -18.880486 -18.88951 -18.97532
000380 8c 80 99 c1 32 41 97 c1 63 37 97 c1 b0 70 96 c1
       -19.187767 -18.906834 -18.902044 -18.805023
000390 c8 96 96 c1 1f 07 97 c1 e4 44 97 c1 32 39 97 41
       -18.823624 -18.878477 -18.908638 18.902927
0003a0 17 c9 97 c1 48 35 95 c1 bb d1 98 c1 b3 2c 96 c1
       -18.973188 -18.651016 -19.102407 -18.771826
0003b0 89 1b 96 c1 fb 54 98 c1 15 c3 96 c1 f7 14 97 c1
       -18.763445 -19.041494 -18.845255 -18.885237
0003c0 e7 9a 78 c1 1f 34 98 c1 e0 4a 96 c1 7b 19 97 c1
       -15.537818 -19.02545 -18.78656 -18.887442
0003d0 7f 40 93 41 87 87 95 41 74 1c 97 c1 cf 30 97 c1
       18.406492 18.691175 -18.888893 -18.898832
0003e0 ca 1a 97 c1 f4 16 99 c1 48 7d 96 c1 f8 7c 96 c1
       -18.88808 -19.136208 -18.811172 -18.81102
0003f0 e8 a1 97 41 2d 3c 97 c1 c7 93 96 c1 f5 eb 96 c1
       18.954056 -18.904383 -18.822157 -18.865213

fc2.0.0.bias f4 [100]
000000 4e 2f a4 c1 97 e8 84 3e f7 cf 92 c1 ef 52 9d c1
       -20.523098 0.25958702 -18.351545 -19.665495
000010 4d ff 95 c1 65 4a 99 c1 78 eb a6 c1 6f 36 9f 41
       -18.749659 -19.161325 -20.864975 19.901579
000020 1e cc 96 c1 e3 d3 99 c1 cf d1 9e c1 0f 8f 98 c1
       -18.849667 -19.22846 -19.852446 -19.069853
000030 1d 81 ad c1 f2 67 99 c1 57 fc 96 c1 35 01 a3 c1
       -21.688044 -19.175755 -18.873213 -20.37559
000040 93 4a 97 c1 be 6a 96 c1 fd 4f 97 c1 48 0b 9a c1
       -18.911413 -18.80212 -18.914057 -19.255508
000050 a9 ff 95 c1 e5 38 92 c1 f4 a8 9e c1 de be a5 c1
       -18.749834 -18.27778 -19.832497 -20.718197
000060 bb 0b 96 c1 5e d3 96 c1 33 ae 99 c1 26 a0 95 c1
       -18.755728 -18.853207 -19.210058 -18.703197
000070 af 3b 9c c1 92 be 96 c1 32 55 f6 41 01 45 83 c1
       -19.529142 -18.843052 30.7916 -16.408693
000080 ed ac 96 c1 80 8a 96 c1 a5 82 ab c1 ed 44 9a c1
       -18.834436 -18.817627 -21.438791 -19.283655
000090 31 cb 9a c1 81 47 9d c1 81 65 99 c1 12 e4 9b c1
       -19.349215 -19.659914 -19.174562 -19.486362
0000a0 1c 88 8e c1 fe ed 47 c1 b3 0d a0 c1 ba 28 9c c1
       -17.81646 -12.495604 -20.00669 -19.519886
0000b0 5c ad 7c c1 02 2f a5 c1 be db 99 c1 3a ff 96 c1
       -15.792324 -20.647953 -19.232296 -18.874622
0000c0 07 2d 99 c1 7e 4c 97 c1 34 80 96 c1 0d de 9a c1
       -19.146986 -18.91235 -18.8126 -19.358423
0000d0 e9 6c 9c c1 7a 14 97 c1 02 24 97 c1 53 ce 96 c1
       -19.553179 -18.884998 -18.892582 -18.850744
0000e0 14 d3 9a c1 83 a2 98 c1 86 ea 99 c1 d0 1a 70 c1
       -19.353065 -19.079351 -19.239513 -15.006546
0000f0 4b 4f 96 c1 63 d9 ab c1 e2 c2 9b c1 00 db 88 41
       -18.788717 -21.481146 -19.470158 17.106934
000100 50 52 ab c1 45 b6 a7 c1 79 9f 96 c1 eb 03 99 c1
       -21.415192 -20.963999 -18.827868 -19.126913
000110 6b b4 ca c1 70 d6 a1 c1 ca d0 a6 c1 ed cc a6 c1
       -25.338095 -20.229706 -20.851948 -20.850061
000120 39 be aa c1 8e 22 97 c1 c9 d8 98 c1 89 44 9e c1
       -21.342882 -18.891872 -19.105852 -19.783464
000130 fa 8f a0 c1 0c 2f a6 c1 33 ff 9c c1 b6 c7 96 c1
       -20.070301 -20.772972 -19.624609 -18.847515
000140 ce d1 d2 c1 86 36 96 c1 b4 a7 96 c1 62 3d 9b c1
       -26.352444 -18.776623 -18.831886 -19.404972
000150 d3 12 9d 41 31 9d a0 c1 21 a0 99 c1 cd e7 92 c1
       19.634192 -20.076754 -19.203188 -18.363184
000160 23 94 9c c1 9b 33 9e c1 27 1a 9b c1 02 8c 97 c1
       -19.572332 -19.775198 -19.38777 -18.943363
000170 ac 77 9d c1 2d 03 97 c1 15 a6 96 c1 5a f6 9b c1
       -19.683434 -18.87655 -18.831095 -19.495289
000180 af 2b 99 c1 8d c1 96 c1 ea 41 96 c1 96 93 ac c1
       -19.14633 -18.844507 -18.782185 -21.572063

fc2.1.0.weight f4 [100, 100]
000000 b7 fc 96 c1 5e c8 a3 c1 72 35 a3 bc f7 98 94 3d
       -18.873396 -20.472836 -0.019922946 0.07255738
000010 1b 80 9a c1 9f 3b 98 c1 02 ec 11 bd 16 bc 9d c1
       -19.312551 -19.029112 -0.035625465 -19.716839
000020 e9 ce 1c 3d 20 47 9a c1 f5 d5 8d bc b8 c7 9a c1
       0.038283262 -19.284729 -0.017313937 -19.347519
000030 35 ce 96 c1 e9 e8 9a 41 b3 f7 97 c1 6a a9 a4 c1
       -18.850687 19.363726 -18.995947 -20.582722
000040 a2 eb 47 bd 1e f8 9f c1 27 27 99 c1 c8 7d 8c bd
       -0.0488087 -19.996151 -19.144117 -0.06859928
000050 be 09 dc bb 41 e1 96 c1 16 fa 9c c1 01 73 97 c1
       -0.0067150285 -18.859987 -19.622112 -18.931154
000060 7c 80 9a c1 68 39 9c 41 dc c2 99 c1 14 cd 9a c1
       -19.312737 19.52803 -19.220146 -19.350136
000070 48 be 9a c1 74 2c 97 c1 e6 cc 9b c1 19 94 58 3c
       -19.34291 -18.896706 -19.475048 0.013218903
000080 b7 5a 9a c1 0e 1a 90 c1 b5 ca 9a c1 34 6d 9a c1
       -19.294294 -18.012722 -19.348978 -19.303322
000090 52 76 9a c1 b1 07 5b bd ef 29 97 c1 33 20 66 3d
       -19.307774 -0.053474132 -18.895475 0.05618305
0000a0 cf d0 99 c1 73 8b 9a c1 93 44 97 c1 bd 5f a5 c1
       -19.226957 -19.31809 -18.908484 -20.671747
0000b0 31 76 9d 41 95 4b 9a c1 a9 9f 97 c1 09 33 96 c1
       19.68271 -19.286905 -18.95296 -18.77492
0000c0 ab b1 97 c1 95 fe 08 bd 21 27 9c 41 3a 8a 90 3d
       -18.961752 -0.033445913 19.519106 0.070576146
0000d0 2a 5f 9a c1 07 85 ac 3c 4c 73 9c 41 c5 0f 99 c1
       -19.296467 0.021059526 19.556297 -19.1327
0000e0 c4 39 97 c1 5a 18 9a c1 6d 59 9c 41 6e 3d 78 bd
       -18.903206 -19.26189 19.543665 -0.06060546
0000f0 19 7c 05 3d ab e5 99 c1 55 f8 52 41 78 0c 9a c1
       0.032589052 -19.237143 13.185628 -19.256088
000100 3c aa 9c c1 c0 cc 22 ba fa 88 97 c1 ef a7 97 c1
       -19.583122 -0.00062103197 -18.941883 -18.956999
000110 6f 3a 90 bd 77 c9 3a bd a5 42 9c 41 04 e0 f3 3c
       -0.07042395 -0.045602288 19.532541 0.029769905
000120 51 10 76 bd 64 7e 95 bd 32 a1 3b ba d0 c3 97 c1
       -0.060074154 -0.07299498 -0.0007157504 -18.970612
000130 ca 49 e8 bc 43 e7 d3 bc 11 ea 9f c1 24 d5 9a c1
       -0.028355498 -0.02586711 -19.98929 -19.354073
000140 4f a1 9a c1 93 de 56 bd 8d 08 8f bd 24 69 bb bb
       -19.328764 -0.052458357 -0.06984053 -0.005719321
000150 90 13 9c 41 81 f5 99 c1 e9 04 99 c1 f9 d8 9c c1
       19.509552 -19.244875 -19.127398 -19.605944
000160 57 72 84 bd 23 2f 9a c1 15 3b 9c 41 f5 87 7f 3b
       -0.06467121 -19.273016 19.528849 0.0038990949
000170 34 26 9b c1 89 11 54 bc f6 c3 9b 41 59 f4 97 c1
       -19.393654 -0.012943634 19.470684 -18.99431
000180 74 f2 96 41 68 e3 97 c1 1e d4 9a c1 5a 48 a0 bd
       18.868385 -18.986038 -19.353573 -0.078263
000190 7b 85 12 c1 db 19 d3 c1 b4 91 e8 41 8c db fc 41
       -9.157588 -26.387625 29.071144 31.6072
0001a0 f0 2a 11 3f 8e 80 d3 41 87 5b e3 41 04 f0 1b c1
       0.5670614 26.43777 28.419691 -9.746098
0001b0 c1 81 f3 41 5e 73 c2 41 0f 3f 0f c1 ad b8 c1 41
       30.438356 24.306332 -8.952895 24.215174
0001c0 96 75 36 c0 d2 e4 9a c1 7f 7a 78 c0 5d 17 50 c0
       -2.8509269 -19.361729 -3.8824766 -3.251426
0001d0 97 c9 d5 41 ef e6 80 3f 06 66 cd 41 54 71 2b 41
       26.723433 1.0070475 25.674816 10.715168
0001e0 2b 7b c6 41 ac 67 b4 c0 93 4b aa 41 83 07 76 c0
       24.81014 -5.6376553 21.286901 -3.8442085
0001f0 6a c0 c9 bf 94 0b 55 c0 59 84 c1 41 5f 1b cf 41
       -1.5761845 -3.3288317 24.189623 25.888365
000200 95 ca c0 41 f5 a4 0e 41 3a d1 3e c1 87 5b 99 c0
       24.098917 8.915273 -11.926081 -4.792423
000210 8e 6d db 41 b6 24 d3 41 a6 10 e4 bd ab 8e de 41
       27.428493 26.392925 -0.11135988 27.819662
000220 57 b2 c0 41 df c0 88 c0 a4 af e7 41 eb cc f0 41
       24.08708 -4.273544 28.960762 30.100058
000230 ab 36 c9 41 b4 98 b0 41 53 88 de 41 4e 01 97 bf
       25.151693 22.074562 27.816565 -1.1797273
000240 d9 ce 3a 41 ff 59 d8 41 7a 4a d1 41 81 8c e4 c0
       11.6755 27.043943 26.161366 -7.1421514
000250 34 a4 ee bf 93 19 d7 41 96 42 05 c0 8c 30 cf 41
       -1.8643861 26.887487 -2.082189 25.898705
000260 fc f9 cb 41 e5 dc ee c0 02 e2 70 c0 8e c1 c0 41
       25.497063 -7.4644647 -3.7637944 24.09451
000270 38 bb b4 41 76 33 da 41 63 bc 9b 40 a7 5e bf 41
       22.591415 27.275127 4.8667464 23.921217
000280 76 ee 9a c0 96 c1 86 c0 6c ab cf 41 e9 59 0e c1
       -4.841609 -4.211131 25.958702 -8.896951
000290 bb 7e e7 c0 6b f5 c6 41 1d 41 51 c1 d9 94 f3 41
       -7.23422 24.869833 -13.078397 30.44768
0002a0 ed d7 bc 41 ac d9 e3 41 c1 88 b2 41 61 df 9a c0
       23.605433 28.481285 22.316774 -4.839768
0002b0 b2 e0 c6 c1 73 81 60 c0 d8 fe b2 c1 5c c2 02 42
       -24.859715 -3.507901 -22.374435 32.689804
0002c0 7b 63 b3 41 e5 44 cd bf 4c 61 1e c0 48 6a 83 41
       22.423574 -1.603665 -2.4746885 16.426895
0002d0 46 8a cf 41 c0 3f ef 41 b4 af e7 41 a8 6f ee bf
       25.942516 29.906128 28.960793 -1.8627825
0002e0 01 27 ca 41 1f dc c1 41 60 b9 ca 41 a7 8e e5 41
       25.269045 24.232481 25.340515 28.694654
0002f0 f0 2b f3 41 52 86 99 c1 52 3b 87 40 94 7f cc 41
       30.396454 -19.190586 4.2259912 25.562294
000300 d6 a7 d8 41 11 e9 1d c0 ec 5e 96 c0 1d a4 92 c0
       27.081951 -2.4673502 -4.699087 -4.5825334
000310 ce e8 dd 41 21 c3 ed 41 0c 79 da 41 f4 45 ba c1
       27.738674 29.720278 27.309105 -23.284157
000320 39 57 96 41 1c 6e 9a c1 7b 5d 97 41 d6 0d 97 c1
       18.79259 -19.303764 18.920645 -18.881756
000330 3b 41 96 c1 10 46 97 c1 db 81 95 c1 2a d9 97 c1
       -18.78185 -18.90921 -18.688406 -18.981037
000340 91 1f 96 c1 44 24 97 c1 39 6e 98 c1 a1 13 97 c1
       -18.765413 -18.892708 -19.05382 -18.884584
000350 dc 1f 99 c1 c7 3e 9d c1 bb a5 98 c1 ec e8 99 c1
       -19.140556 -19.655653 -19.080923 -19.238731
000360 65 82 96 c1 f7 ac 96 c1 fa 8a 96 c1 52 0f 97 c1
       -18.81367 -18.834455 -18.81786 -18.88248
000370 b6 d4 98 c1 3c 0b 97 c1 b7 1d 97 c1 75 cd 97 c1
       -19.103863 -18.880486 -18.88951 -18.97532
000380 8c 80 99 c1 32 41 97 c1 63 37 97 c1 b0 70 96 c1
       -19.187767 -18.906834 -18.902044 -18.805023
000390 c8 96 96 c1 1f 07 97 c1 e4 44 97 c1 32 39 97 41
       -18.823624 -18.878477 -18.908638 18.902927
0003a0 17 c9 97 c1 48 35 95 c1 bb d1 98 c1 b3 2c 96 c1
       -18.973188 -18.651016 -19.102407 -18.771826
0003b0 89 1b 96 c1 fb 54 98 c1 15 c3 96 c1 f7 14 97 c1
       -18.763445 -19.041494 -18.845255 -18.885237
0003c0 e7 9a 78 c1 1f 34 98 c1 e0 4a 96 c1 7b 19 97 c1
       -15.537818 -19.02545 -18.78656 -18.887442
0003d0 7f 40 93 41 87 87 95 41 74 1c 97 c1 cf 30 97 c1
       18.406492 18.691175 -18.888893 -18.898832
0003e0 ca 1a 97 c1 f4 16 99 c1 48 7d 96 c1 f8 7c 96 c1
       -18.88808 -19.136208 -18.811172 -18.81102
0003f0 e8 a1 97 41 2d 3c 97 c1 c7 93 96 c1 f5 eb 96 c1
       18.954056 -18.904383 -18.822157 -18.865213

fc2.1.0.bias f4 [100]
000000 4e 2f a4 c1 97 e8 84 3e f7 cf 92 c1 ef 52 9d c1
       -20.523098 0.25958702 -18.351545 -19.665495
000010 4d ff 95 c1 65 4a 99 c1 78 eb a6 c1 6f 36 9f 41
       -18.749659 -19.161325 -20.864975 19.901579
000020 1e cc 96 c1 e3 d3 99 c1 cf d1 9e c1 0f 8f 98 c1
       -18.849667 -19.22846 -19.852446 -19.069853
000030 1d 81 ad c1 f2 67 99 c1 57 fc 96 c1 35 01 a3 c1
       -21.688044 -19.175755 -18.873213 -20.37559
000040 93 4a 97 c1 be 6a 96 c1 fd 4f 97 c1 48 0b 9a c1
       -18.911413 -18.80212 -18.914057 -19.255508
000050 a9 ff 95 c1 e5 38 92 c1 f4 a8 9e c1 de be a5 c1
       -18.749834 -18.27778 -19.832497 -20.718197
000060 bb 0b 96 c1 5e d3 96 c1 33 ae 99 c1 26 a0 95 c1
       -18.755728 -18.853207 -19.210058 -18.703197
000070 af 3b 9c c1 92 be 96 c1 32 55 f6 41 01 45 83 c1
       -19.529142 -18.843052 30.7916 -16.408693
000080 ed ac 96 c1 80 8a 96 c1 a5 82 ab c1 ed 44 9a c1
       -18.834436 -18.817627 -21.438791 -19.283655
000090 31 cb 9a c1 81 47 9d c1 81 65 99 c1 12 e4 9b c1
       -19.349215 -19.659914 -19.174562 -19.486362
0000a0 1c 88 8e c1 fe ed 47 c1 b3 0d a0 c1 ba 28 9c c1
       -17.81646 -12.495604 -20.00669 -19.519886
0000b0 5c ad 7c c1 02 2f a5 c1 be db 99 c1 3a ff 96 c1
       -15.792324 -20.647953 -19.232296 -18.874622
0000c0 07 2d 99 c1 7e 4c 97 c1 34 80 96 c1 0d de 9a c1
       -19.146986 -18.91235 -18.8126 -19.358423
0000d0 e9 6c 9c c1 7a 14 97 c1 02 24 97 c1 53 ce 96 c1
       -19.553179 -18.884998 -18.892582 -18.850744
0000e0 14 d3 9a c1 83 a2 98 c1 86 ea 99 c1 d0 1a 70 c1
       -19.353065 -19.079351 -19.239513 -15.006546
0000f0 4b 4f 96 c1 63 d9 ab c1 e2 c2 9b c1 00 db 88 41
       -18.788717 -21.481146 -19.470158 17.106934
000100 50 52 ab c1 45 b6 a7 c1 79 9f 96 c1 eb 03 99 c1
       -21.415192 -20.963999 -18.827868 -19.126913
000110 6b b4 ca c1 70 d6 a1 c1 ca d0 a6 c1 ed cc a6 c1
       -25.338095 -20.229706 -20.851948 -20.850061
000120 39 be aa c1 8e 22 97 c1 c9 d8 98 c1 89 44 9e c1
       -21.342882 -18.891872 -19.105852 -19.783464
000130 fa 8f a0 c1 0c 2f a6 c1 33 ff 9c c1 b6 c7 96 c1
       -20.070301 -20.772972 -19.624609 -18.847515
000140 ce d1 d2 c1 86 36 96 c1 b4 a7 96 c1 62 3d 9b c1
       -26.352444 -18.776623 -18.831886 -19.404972
000150 d3 12 9d 41 31 9d a0 c1 21 a0 99 c1 cd e7 92 c1
       19.634192 -20.076754 -19.203188 -18.363184
000160 23 94 9c c1 9b 33 9e c1 27 1a 9b c1 02 8c 97 c1
       -19.572332 -19.775198 -19.38777 -18.943363
000170 ac 77 9d c1 2d 03 97 c1 15 a6 96 c1 5a f6 9b c1
       -19.683434 -18.87655 -18.831095 -19.495289
000180 af 2b 99 c1 8d c1 96 c1 ea 41 96 c1 96 93 ac c1
       -19.14633 -18.844507 -18.782185 -21.572063

fc4.weight f4 [6, 100]
000000 7f de 98 c1 00 88 9f c1 36 e5 9d 41 3c e0 96 c1
       -19.10864 -19.941406 19.73692 -18.85949
000010 30 bd 94 41 fe f8 8f 41 39 6b 94 c1 c9 27 a4 41
       18.592377 17.996578 -18.552355 20.519426
000020 94 c5 96 c1 ca 13 98 c1 b5 36 96 41 b0 76 95 41
       -18.846474 -19.009663 18.776712 18.682953
000030 b2 dc 96 c1 3d 40 96 41 16 be 95 c1 b9 71 95 41
       -18.857761 18.781366 -18.717815 18.680529
000040 f0 9d ac 3c b3 4b 90 c1 5b 27 97 c1 4f cb 94 41
       0.021071404 -18.036963 -18.894217 18.599272
000050 60 94 96 c1 97 1c 96 41 11 34 90 41 0d ee 9d 41
       -18.822449 18.76396 18.025423 19.741236
000060 78 69 96 41 47 ad 96 41 26 d5 42 3c f6 08 96 41
       18.801498 18.834608 0.011891639 18.754375
000070 17 33 9d c1 e6 4d 96 c1 18 b7 92 c1 20 5f 8a 41
       -19.649946 -18.788036 -18.339401 17.296448
000080 09 f8 96 c1 17 bc 99 41 03 30 96 41 fb c7 96 41
       -18.87111 19.21684 18.773443 18.847647
000090 08 07 99 c1 a0 a4 93 41 27 38 97 c1 2e f1 9c c1
       -19.128433 18.455383 -18.902418 -19.617764
0000a0 ee 2b 9d 41 33 46 a0 c1 e4 20 94 41 26 62 4f c1
       19.64645 -20.034277 18.51606 -12.961462
0000b0 6e c2 9d c1 e3 32 97 41 02 70 99 c1 9d 9e 96 41
       -19.719936 18.899847 -19.179691 18.827448
0000c0 8b 1c 96 41 26 9d 01 bd e8 3f 97 41 e8 32 eb c0
       18.763937 -0.03164401 18.906204 -7.349964
0000d0 b2 7c 94 c1 e7 4b 97 41 a5 67 96 41 e0 3e 96 c1
       -18.560886 18.912062 18.800608 -18.7807
0000e0 66 85 95 41 47 da 8c 41 e4 e9 96 c1 32 27 92 c1
       18.690136 17.60658 -18.864204 -18.269138
0000f0 21 d9 96 c1 3d 54 95 c1 e3 19 95 41 2f 20 82 41
       -18.85602 -18.666132 18.63764 16.265715
000100 7a 9b 97 c1 15 11 97 c1 df 21 96 c1 6b fb 92 41
       -18.950916 -18.88334 -18.766539 18.372763
000110 74 71 93 c1 f9 bd 96 41 c8 f8 95 41 17 85 95 41
       -18.430397 18.84276 18.746475 18.689985
000120 15 ec d2 bf 3c b3 8b c1 be 30 97 c1 ea 85 92 41
       -1.6478297 -17.462517 -18.8988 18.315388
000130 d4 03 95 41 d8 33 96 41 3c d7 78 bc ac 4d 97 c1
       18.62687 18.775314 -0.015188035 -18.912926
000140 ff cd 98 c1 a3 01 97 c1 c9 36 96 c1 da ff 9a c1
       -19.100584 -18.8758 -18.77675 -19.374928
000150 30 9d 9d 41 6d 30 96 41 dc 6a 98 c1 de 25 96 41
       19.701752 18.773645 -19.052177 18.76849
000160 80 5c 8b c1 68 a3 9a c1 fa 89 94 41 46 b2 96 41
       -17.420166 -19.329788 18.567371 18.837048
000170 f0 e1 95 41 48 94 cc bb fc b2 6e 3d f3 68 89 41
       18.735321 -0.0062432624 0.05827616 17.176245
000180 f1 30 97 c1 ae 53 97 c1 37 7d 96 41 ca 35 c6 41
       -18.898897 -18.91586 18.81114 24.776264
000190 00 5e 96 c1 e1 53 a1 41 50 4e 9a c1 de 13 95 c1
       -18.795898 20.165956 -19.288239 -18.6347
0001a0 06 47 3e c1 1d a9 96 c1 0c c0 be c0 21 2c 46 41
       -11.89234 -18.832575 -5.960943 12.385774
0001b0 0c 83 96 41 4e 67 96 c1 82 b6 99 c1 6f aa 95 c1
       18.813988 -18.800442 -19.214115 -18.70822
0001c0 3e c3 8e 41 9d 3a 94 41 96 29 96 c1 42 5e 96 41
       17.845333 18.52862 -18.770306 18.796024
0001d0 60 8f b7 bc da ec 95 41 b4 49 97 41 66 3d 96 c1
       -0.022407234 18.74065 18.910988 -18.77998
0001e0 fb 1b 96 41 67 a4 95 41 a3 fa 97 41 22 60 96 c1
       18.763662 18.705275 18.997381 -18.79694
0001f0 5e 33 96 41 ab e0 93 41 43 42 23 3d 0f 33 8d 41
       18.775082 18.484701 0.039858114 17.649931
000200 ff 26 96 41 c4 e3 96 41 8d ea 26 bf b7 8c 93 41
       18.769041 18.861214 -0.65201646 18.443708
000210 cb 0f 96 41 d9 11 98 c1 e3 a5 97 c1 ee 5f 95 41
       18.757711 -19.008715 -18.956 18.67184
000220 ac dd 96 c1 a0 9f a4 41 16 90 96 c1 02 21 8e 41
       -18.858238 20.577942 -18.820354 17.766117
000230 11 2c 93 c1 b0 3a 92 c1 ea d0 93 c1 07 f6 95 c1
       -18.396517 -18.278656 -18.477009 -18.74513
000240 8d 65 98 c1 c6 08 9c 41 06 df 96 c1 af d5 96 41
       -19.049585 19.504284 -18.858898 18.854338
000250 69 ba 95 41 3f ea 3b bd df d6 95 41 70 84 98 c1
       18.71602 -0.04587769 18.729918 -19.064667
000260 c5 d6 87 41 97 0e 94 c1 5e 80 95 41 77 99 95 c1
       16.979868 -18.507124 18.68768 -18.699934
000270 cd aa 8d 41 f6 6d 97 c1 5e 64 95 c1 8a e7 90 c1
       17.708399 -18.928692 -18.674007 -18.113056
000280 3c d7 96 41 14 74 96 c1 0b 03 92 41 61 14 27 41
       18.855095 -18.806679 18.251486 10.442475
000290 25 0e 95 41 cf 44 96 41 63 96 96 41 93 bf 98 41
       18.631907 18.783598 18.823431 19.093542
0002a0 80 53 a3 41 5e 69 a7 40 8a af 28 41 36 fb 46 c1
       20.415771 5.231612 10.542856 -12.436331
0002b0 cc f2 cd 41 87 24 a0 41 15 96 96 c1 be 75 99 c1
       25.743553 20.017836 -18.823282 -19.182491
0002c0 0e 0e 8e 41 ba a8 1c 41 1f 7f 97 bd 70 6b 96 41
       17.756863 9.791193 -0.07397293 18.80246
0002d0 79 f8 c7 c0 fd 0f 96 41 b5 96 96 41 08 5e 96 c1
       -6.249081 18.757807 18.823587 -18.795914
0002e0 e0 8a 95 c1 d2 c4 91 41 70 b4 96 c1 a6 db 96 41
       -18.69281 18.221104 -18.838104 18.85725
0002f0 43 5a 94 c1 ee 4a 43 c1 f2 11 95 c1 cd d5 94 41
       -18.544073 -12.205793 -18.633762 18.604395
000300 e9 ac 95 c1 0c 7a 83 3d 1d 94 8b 3c 83 5a 97 c1
       -18.709429 0.06419763 0.0170384 -18.919195
000310 1c 83 96 41 a6 19 96 41 ee 67 90 41 fa b5 18 c1
       18.814018 18.762524 18.050747 -9.544428
000320 15 9d 9a c1 b5 64 8e c1 6f f7 98 c1 7d 96 96 c1
       -19.3267 -17.799173 -19.120817 -18.82348
000330 65 b5 95 c1 eb c3 96 41 fa 4c 93 c1 0c 85 89 c1
       -18.713572 18.845663 -18.412586 -17.189964
000340 2f ee 96 c1 04 ef 96 c1 b3 67 98 41 1a da 97 c1
       -18.8663 -18.866707 19.050634 -18.981495
000350 04 76 96 c1 ad 80 96 c1 11 a8 8d 41 8a 0e a2 41
       -18.807625 -18.81283 17.707064 20.2571
000360 06 21 88 3d db e4 96 c1 af 3e 96 c1 ff 42 97 c1
       0.06646924 -18.861746 -18.780607 -18.907713
000370 a9 ab 96 c1 6f a8 97 c1 7d 4e 93 41 54 21 98 c1
       -18.833818 -18.957243 18.413324 -19.016273
000380 e6 a3 97 c1 f3 1b 97 c1 6b e3 99 3d e6 b0 97 c1
       -18.955029 -18.888647 0.0751408 -18.961376
000390 65 f2 9c c1 16 c5 91 c1 81 1f cc 41 d6 ab 94 41
       -19.618357 -18.221233 25.515383 18.583904
0003a0 12 1c 97 c1 71 76 95 41 eb 88 96 c1 c0 cf 96 c1
       -18.888706 18.682833 -18.816854 -18.85144
0003b0 d9 fa 97 c1 df bc 93 41 4a 71 96 c1 21 8f 97 c1
       -18.997484 18.467222 -18.805317 -18.944887
0003c0 08 aa 97 c1 76 ad 90 41 59 4c 65 c1 b9 f6 98 c1
       -18.958023 18.084698 -14.33114 -19.12047
0003d0 e0 4d 53 41 56 50 97 c1 c1 6d 96 c1 38 58 96 c1
       13.206512 -18.914227 -18.80359 -18.793076
0003e0 4d 5e 97 c1 42 8e 25 3d 9e 24 97 c1 e1 8b 51 3d
       -18.921045 0.04041887 -18.89288 0.05115879
0003f0 c0 41 9c c1 db a2 94 c1 b8 19 98 c1 bf 5a 96 c1
       -19.532104 -18.57952 -19.012558 -18.79431

fc4.bias f4 [6]
000000 a0 a5 80 c0 86 e5 14 40 37 99 ff 3f e9 dc fd be
       -4.020218 2.326509 1.9968632 -0.49582604
000010 3b 97 4d bf 4c 1c 81 40
       -0.80308884 4.034704
