figs/diff_batch_size/mlp_256/mlp_model_dict.pt (torch, 182421 bytes, 8 tensors)

fc1.weight f4 [100, 240]
0	0x3c0bc78b	0.0085314615
1	0xbcec982b	-0.028881153
2	0xbd6f2c3d	-0.0583918
3	0xbe316f8d	-0.1732771
4	0xbda7f34b	-0.08200701
5	0xbd747fe8	-0.059692293
6	0xbcd19535	-0.025583843
7	0x3884dac5	6.3349995e-05
8	0x3d0061aa	0.03134314
9	0xbd56489a	-0.052315332
10	0xbdacf489	-0.08445079
11	0xbe443616	-0.19161257
12	0xbd8cc567	-0.06873589
13	0xbdb81db8	-0.089900434
14	0xbde0814d	-0.10962162
15	0x3c475266	0.012165641
16	0xbde0b519	-0.10972042
17	0xbe32eaf7	-0.17472444
18	0xbda80af5	-0.08205215
19	0xbdca5bd6	-0.098807976
20	0xbe0b1a66	-0.13584289
21	0xbe3376fa	-0.17525855
22	0xbd26b0f8	-0.040696114
23	0xbc27ddbf	-0.0102457395
24	0xbd93e63c	-0.07221648
25	0xbd4a4978	-0.04938647
26	0xbd96ec32	-0.073692694
27	0xbe1f5d47	-0.15562926
28	0xbe1267c3	-0.14297394
29	0x3c7d113e	0.015446005
30	0xbdb4712b	-0.088106476
31	0x3c51c493	0.012803215
32	0xbd672a0e	-0.05643659
33	0xbdbab6d5	-0.09116904
34	0xbe0f0c77	-0.13969599
35	0xbe280330	-0.16407466
36	0xbe2a8867	-0.16653596
37	0xbce234b9	-0.02761303
38	0xbcf57e1f	-0.029967366
39	0x3d1951e7	0.037431624
40	0xbd831a05	-0.06401447
41	0xbd6e216a	-0.058137335
42	0xbdfcf6c0	-0.12351751
43	0xbe2af2c2	-0.16694167
44	0xbdf13ef5	-0.11779586
45	0xbe036622	-0.1283193
46	0xbda1f9eb	-0.07908996
47	0xbdbcb1fd	-0.09213636
48	0xbda31c07	-0.0796433
49	0xbe344f9f	-0.17608498
50	0xbdbbd599	-0.091716
51	0xbd94e033	-0.07269325
52	0xbd10fd16	-0.03539761
53	0xbd562230	-0.052278697
54	0xba88dcad	-0.0010441743
55	0xbd7a4f5a	-0.06111083
56	0xbe012426	-0.12611446
57	0xbbd5fd07	-0.0065304074
58	0x3cac817b	0.021057835
59	0xb9e637dd	-0.0004391064
60	0xbdb7841b	-0.08960744
61	0xbdba1516	-0.09086053
62	0xbe08542b	-0.13313358
63	0xbe40919b	-0.18805544
64	0xbe4b4478	-0.19850338
65	0xbe1659bf	-0.14682673
66	0xbda799b7	-0.08183616
67	0xbda30dfd	-0.079616524
68	0xbd553123	-0.052048814
69	0xbcaf56a1	-0.021403613
70	0xbe119339	-0.14216317
71	0xbca436c5	-0.020045647
72	0xbdc75c41	-0.09734393
73	0xbdad0dfb	-0.08449932
74	0xbe008505	-0.12550743
75	0xbdb57384	-0.088599235
76	0xbd6d79b0	-0.05797738
77	0xbe549503	-0.20759968
78	0xbe6b4148	-0.22974122
79	0xbe070d99	-0.13188781
80	0xbe145635	-0.1448601
81	0xbe02fa9b	-0.12790911
82	0xbe0ace35	-0.13555224
83	0xbd46e960	-0.048562407
84	0xbdab720b	-0.08371361
85	0xbe1c3972	-0.15256289
86	0xbe01d501	-0.12678911
87	0xbe0d18af	-0.13778947
88	0xbc917dbe	-0.017760154
89	0xbc5f258f	-0.0136197945
90	0xbd92c465	-0.071663655
91	0xbded25bf	-0.11579465
92	0xbbda6b35	-0.006665612
93	0x39eaf9d5	0.00044818097
94	0xbe105dd9	-0.140983
95	0xbdf2a58f	-0.11847984
96	0xbd95e6d3	-0.07319417
97	0xbd414ab8	-0.047190398
98	0xbe02581f	-0.12728928
99	0xbdf1189e	-0.117722735
100	0xbe0c580c	-0.13705462
101	0xbda96e5b	-0.08273002
102	0xbd9f6882	-0.07783605
103	0xbddc8765	-0.10768012
104	0xbda21b2a	-0.079153374
105	0xbd372a25	-0.044717927
106	0x3a7bcf90	0.00096058194
107	0xbd996345	-0.07489637
108	0xbd7eeb4d	-0.06223612
109	0xbd4ece84	-0.050489917
110	0xbe1aae02	-0.15105441
111	0xbd28869a	-0.04114399
112	0x3c68a39e	0.014199166
113	0xbe175a5d	-0.14780565
114	0xbd55805f	-0.052124377
115	0xbd1be371	-0.038058702
116	0xbc365561	-0.011128754
117	0xbd837797	-0.06419294
118	0xbdc5f46a	-0.09665759
119	0xbe0427ba	-0.1290578
120	0x3a10b9ab	0.0005520831
121	0xbdda7ce5	-0.10668353
122	0xbe1459ef	-0.14487432
123	0xbe2a706e	-0.16644451
124	0xbdc5bd6d	-0.09655271
125	0xbdf67624	-0.12034252
126	0xbce948c1	-0.028477075
127	0xbd673e1d	-0.05645572
128	0xbe010677	-0.12600122
129	0xbcfcdcc8	-0.030866995
130	0xbdbd4a10	-0.09242642
131	0xbe05d73d	-0.13070388
132	0xbdbcc4fd	-0.0921726
133	0xbdc30287	-0.095219664
134	0xbb18376e	-0.0023226398
135	0xbd934a61	-0.07191921
136	0xbe228fc0	-0.15875149
137	0xbdfee7af	-0.12446534
138	0xbd97df39	-0.07415623
139	0xbc8a08f7	-0.016849978
140	0xbdc5a4e4	-0.09650591
141	0xbce372d1	-0.02776471
142	0xbd87d123	-0.066316865
143	0xbd9fed9f	-0.078089945
144	0xbda052c5	-0.07828287
145	0xbe091bf7	-0.13389574
146	0xbd18b2d5	-0.037279923
147	0x3a932797	0.0011227009
148	0xbd89704b	-0.06710871
149	0xbcdbb914	-0.02682165
150	0xbda526fd	-0.08064077
151	0xbe2a9387	-0.1665784
152	0xbdd997ed	-0.10624681
153	0xbd4b721e	-0.049669378
154	0xbb7ce742	-0.0038589989
155	0xbde90ca8	-0.11379367
156	0xbdceed9f	-0.101039164
157	0xbdfaa511	-0.12238515
158	0xbcebe690	-0.028796464
159	0xbcf4266c	-0.029803477
160	0xbe1edde1	-0.15514328
161	0xbe61a4b4	-0.22035486
162	0xbe2eaf11	-0.1705897
163	0xbe3b913c	-0.18317121
164	0xbe397b12	-0.18113354
165	0xbe10fe5e	-0.14159533
166	0xbe48270c	-0.19546145
167	0xbe551ccc	-0.20811766
168	0xbd10c8c5	-0.03534772
169	0x3da62304	0.081121475
170	0xbe16a89c	-0.14712757
171	0xbe32a8ca	-0.174472
172	0xbe2bbe70	-0.16771865
173	0xbe372f4d	-0.17889138
174	0xbe53df6c	-0.20690697
175	0xbdd637b9	-0.10459847
176	0xbe40086d	-0.18753214
177	0xbe0384d9	-0.12843646
178	0xbe611c27	-0.21983396
179	0xbe1c7c44	-0.15281779
180	0xbe4b7a89	-0.19870962
181	0xbe6a0eb8	-0.22857177
182	0x3dd491b2	0.10379352
183	0xbe0da4ad	-0.1383235
184	0xbe1b0d99	-0.15141906
185	0xbe2ab12d	-0.1666915
186	0xbdf269a5	-0.11836556
187	0xbe643394	-0.222853
188	0xbe391948	-0.1807605
189	0xbe453d5b	-0.19261687
190	0xbe30ad6d	-0.17253657
191	0xbe5cf0c8	-0.21576226
192	0xbde69790	-0.11259377
193	0xbe080e4c	-0.13286704
194	0xbe61d370	-0.22053313
195	0xbd8cb7f3	-0.06871023
196	0xbbb4b280	-0.005514443
197	0xbd662031	-0.056183044
198	0xbe426321	-0.18983127
199	0xbde1c1dc	-0.11023304
200	0xbe55f52c	-0.20894307
201	0xbe67b31c	-0.22626919
202	0xbe0614c8	-0.13093865
203	0xbe0fa595	-0.14028008
204	0xbde75cc4	-0.112969905
205	0xbe6390a5	-0.22223146
206	0xbde22ad5	-0.11043326
207	0xbe6724ab	-0.22572581
208	0xbd9a8f7a	-0.07546897
209	0xbd0c5e75	-0.03426977
210	0x3da144d0	0.07874453
211	0xbd5a37d1	-0.053275887
212	0xbe4ed2e3	-0.20197634
213	0xbe75a76d	-0.23989649
214	0xbe5b2814	-0.21402007
215	0xbe26ad5a	-0.16277066
216	0xbe39adcc	-0.18132704
217	0xbe49d2b0	-0.19709277
218	0xbd6f504a	-0.05842618
219	0xbe4dc8ff	-0.20096205
220	0xbe10ecb8	-0.14152801
221	0xbe2e3a94	-0.17014533
222	0xbe47ff2a	-0.19530931
223	0xbcee8fc3	-0.029121285
224	0x3d473229	0.04863182
225	0xbdf2f032	-0.1186222
226	0xbe5e6fd5	-0.21722348
227	0xbddd8c7e	-0.108178124
228	0xbe1e930b	-0.1548578
229	0xbe55ca3d	-0.20877929
230	0xbe58508f	-0.2112448
231	0xbe4d520b	-0.20050828
232	0xbdb42c15	-0.087974705
233	0xbde11dc6	-0.10992007
234	0xbe29981c	-0.16561931
235	0xbe21a667	-0.15786134
236	0xbe13a244	-0.14417368
237	0x3a93d5b9	0.0011278904
238	0xbc0b702c	-0.008510631
239	0xbe03c4a4	-0.12867981
240	0x3dfd0d4c	0.12356052
241	0x3d10b191	0.03532559
242	0x3da80117	0.08203333
243	0x3d82e514	0.063913494
244	0x3d992d2c	0.07479319
245	0x3d2931ae	0.041307144
246	0xbe15b8c6	-0.14621267
247	0xbdb8ca1a	-0.09022923
248	0x3d45fff4	0.0483398
249	0x3e0b4383	0.13599972
250	0x3e1219a7	0.14267598
251	0x3d5bc94e	0.053658776
252	0x3e049233	0.12946396
253	0x3e0abb1d	0.1354794
254	0x3e076cdf	0.13225125
255	0x3d3455fa	0.044027306

fc1.bias f4 [100]
0	0xbe115a46	-0.14194593
1	0xbe07351b	-0.13203852
2	0xbdcc0ce8	-0.09963399
3	0xbdb4dbb6	-0.08830969
4	0xbe01d646	-0.12679395
5	0x3d0dff5c	0.034667358
6	0xbdf89197	-0.12137144
7	0xbcd2c693	-0.025729453
8	0xbe1cb28e	-0.15302488
9	0xbe0fd55e	-0.14046237
10	0x3d1aa285	0.037752647
11	0xbe263dc4	-0.16234499
12	0xbc1a6367	-0.009423113
13	0x3d475951	0.048669163
14	0xbd874677	-0.06605237
15	0xbd8a3dbc	-0.06750056
16	0xbe0ffa4d	-0.14060326
17	0x3d248752	0.040168114
18	0xbda7b658	-0.08189076
19	0xbe162c5f	-0.14665364
20	0xbe1c7441	-0.15278722
21	0x3d767679	0.060171578
22	0xbdb01ade	-0.085988745
23	0xbe2cf03b	-0.16888516
24	0xbcf3f012	-0.02977756
25	0xbe201dee	-0.15636417
26	0x3d01949a	0.031635858
27	0xbd5c0fd8	-0.053726047
28	0xbe008177	-0.12549387
29	0xbe093d4a	-0.13402286
30	0x3b99cfc9	0.0046939594
31	0xbdead7c9	-0.11466939
32	0xbd5bea13	-0.053690027
33	0x3d5422fe	0.051791184
34	0x3c99abdd	0.018758709
35	0xbbee100c	-0.0072650965
36	0xbd3a8883	-0.045540344
37	0xbe23f6f4	-0.16012174
38	0xbdd8b572	-0.10581483
39	0xbdd11726	-0.10209493
40	0xbcae9671	-0.02131197
41	0xbe033aae	-0.12815353
42	0xbd733607	-0.059377696
43	0xbd0f6413	-0.035007548
44	0x3ddc9493	0.10770526
45	0x3c9113f5	0.017709712
46	0xbca64a03	-0.020298963
47	0x3cbcbee5	0.023040244
48	0xbd60473b	-0.05475543
49	0x3a906518	0.0011016456
50	0xbddaad47	-0.10677581
51	0xbddb408b	-0.1070567
52	0xbe451c38	-0.19249046
53	0x3bcd4296	0.006264041
54	0xbd66bf31	-0.056334678
55	0xbe088124	-0.13330513
56	0xbc3acc46	-0.011401242
57	0xbdcc013e	-0.099611744
58	0xbe2f328d	-0.17109127
59	0x3dd83ced	0.10558496
60	0xbc4b5f98	-0.012412928
61	0xbd8f8752	-0.07008232
62	0x3d236133	0.03988762
63	0xbe3fafba	-0.18719378
64	0x3d42d985	0.047570724
65	0xbd6eaaa6	-0.05826821
66	0x3c8badcf	0.017050652
67	0xbdc8f680	-0.09812641
68	0x3cce961b	0.02521806
69	0x3d4d8f6b	0.050185602
70	0xbd3b247a	-0.045689084
71	0xbd464af7	-0.048411336
72	0xbde1c9e9	-0.110248394
73	0x3cb99cea	0.02265783
74	0xbe155bf6	-0.14585862
75	0xbe2e8d54	-0.170461
76	0xbdbbe95e	-0.09175371
77	0x3d42221b	0.047395807
78	0xbdf4ca34	-0.1195263
79	0xbe32bd05	-0.17454918
80	0x3dacec97	0.084435634
81	0x3d4d5677	0.050131287
82	0x3caa29b1	0.020771833
83	0xbdac031a	-0.08399029
84	0xbe3ce3ad	-0.18446226
85	0xbe330c9a	-0.17485276
86	0xbdb3014a	-0.0874048
87	0xbd949348	-0.07254654
88	0xbdba0988	-0.09083849
89	0x3d670362	0.05639971
90	0xbd83b4b4	-0.06430951
91	0x3c1f44dc	0.009721007
92	0x3ded454e	0.115854844
93	0xbd716d7e	-0.05894231
94	0xbdf6b27e	-0.120457634
95	0xbd552bd0	-0.052043736
96	0x3cb04434	0.021516897
97	0xbc9e6958	-0.019337341
98	0xbe12c183	-0.14331631
99	0xbdba391d	-0.09092925

fc2.weight f4 [100, 100]
0	0x3e048442	0.12941077
1	0xbe64546d	-0.22297831
2	0xbd88242b	-0.066475235
3	0x3d1a9caf	0.03774708
4	0x3d50c659	0.05097041
5	0xbe33774a	-0.17525974
6	0xbdd81df3	-0.10552587
7	0xbcf9f492	-0.030512128
8	0xbdce63c9	-0.10077626
9	0xbd076b65	-0.033061404
10	0x3dc4ebd4	0.09615293
11	0xbcbbfe00	-0.022948265
12	0xbe2de7b9	-0.16982926
13	0x3d933b6c	0.07189068
14	0xbe39ccff	-0.18144606
15	0x3e859583	0.2609063
16	0xbe032e8d	-0.12810726
17	0x3e0e6685	0.13906296
18	0x3e41e8ba	0.18936434
19	0x3ccce25b	0.025010278
20	0x3d71b81c	0.05901347
21	0x3d3eed29	0.046612892
22	0xbde396a8	-0.1111272
23	0x3de9e463	0.114205144
24	0xbcc34e9a	-0.023841191
25	0xbd6e9c36	-0.058254443
26	0xbdd173dc	-0.102271765
27	0x3e06b3fd	0.13154598
28	0xbc9f1bc9	-0.019422429
29	0xbdc70176	-0.097170755
30	0x3e7e6bba	0.24845782
31	0xbe2d8d2a	-0.16948381
32	0xbe1afd9a	-0.15135804
33	0x3d99deb6	0.07513182
34	0xbd67ae88	-0.05656293
35	0x3e8a4ea3	0.2701312
36	0xbdf55492	-0.11979021
37	0xbdbbffe3	-0.09179666
38	0xbd624222	-0.05523885
39	0xbe1034db	-0.14082663
40	0x3de53fe0	0.11193824
41	0x3c036c4a	0.008021424
42	0xbdc5a79b	-0.09651109
43	0xbe3c738b	-0.18403451
44	0xbe3ed651	-0.18636443
45	0x3e1659f8	0.14682758
46	0x3dc3351d	0.09531615
47	0x3e320168	0.17383349
48	0x3de8ec10	0.1137315
49	0xbe4ab5dd	-0.19795938
50	0xbe034db9	-0.12822618
51	0xbd985ae0	-0.07439208
52	0xbdec98a4	-0.115525514
53	0xbd9171b9	-0.07101769
54	0x3e00db97	0.12583767
55	0xbcefbdde	-0.02926534
56	0xbdef657c	-0.116892785
57	0xbe045c2a	-0.12925783
58	0xbcd48554	-0.025942482
59	0x3e06f20d	0.13178273
60	0x3e5f3c99	0.2180046
61	0x3e095fbb	0.13415425
62	0x3dd2185e	0.10258554
63	0x3bb4a0e6	0.0055123447
64	0x3dfad21e	0.12247108
65	0x3d0db6fd	0.03459834
66	0xbd6018be	-0.054711096
67	0xbdb0d3d6	-0.086341545
68	0x3dad20c7	0.084535174
69	0x3c821c01	0.015882494
70	0x3e30fef9	0.17284764
71	0x3e6cf402	0.23139957
72	0x3de6c0b9	0.11267228
73	0x3e5dc030	0.21655345
74	0xbd26e11d	-0.04074203
75	0xbd705206	-0.058671974
76	0xbdcc25c7	-0.09968143
77	0x3ddf6932	0.10908736
78	0xbe1a9c7b	-0.15098755
79	0x3c5b528c	0.01338638
80	0xbc97736c	-0.018487655
81	0x3e25de11	0.16197993
82	0x3ded0c5e	0.115746245
83	0x3c969c41	0.018385055
84	0xbe035a60	-0.12827444
85	0x38bc77e5	8.986871e-05
86	0x3d121aee	0.035670213
87	0xbe4d1f9f	-0.20031594
88	0xbb260f17	-0.0025338584
89	0xbdb8732b	-0.090063415
90	0xbd19a34c	-0.037509248
91	0xbd903e6f	-0.07043158
92	0xbdcb28a3	-0.0991986
93	0x3d671963	0.056420695
94	0xbc9d6f67	-0.01921816
95	0x3d6e6b41	0.058207754
96	0x3e95c9e1	0.29255584
97	0xbdb5e3d6	-0.08881347
98	0x3d4cfd46	0.050046228
99	0xbd103394	-0.03520544
100	0xbd33fdb5	-0.043943126
101	0xbe549473	-0.20759754
102	0xbd2455b2	-0.040120788
103	0x3daf9671	0.08573616
104	0xbe2ed296	-0.1707252
105	0x3e04a2c1	0.1295271
106	0xbcc80595	-0.024416724
107	0x3e2f7325	0.17133768
108	0xbd6756da	-0.056479312
109	0xbe20653b	-0.15663616
110	0x3e091a92	0.13389042
111	0xbe40619b	-0.18787234
112	0x3d22bfb8	0.03973362
113	0xbcc7213a	-0.024307836
114	0xbe1a4ba2	-0.15067914
115	0xbd6109b5	-0.054940898
116	0xbe0296eb	-0.12752883
117	0x3e209b69	0.15684284
118	0x3dde35a3	0.10850074
119	0x3df11be7	0.117729
120	0xbccd3fe2	-0.025054876
121	0x3e25f359	0.16206111
122	0xbe10370b	-0.14083497
123	0xbe3ecf09	-0.18633665
124	0xbc6ea0b2	-0.01456468
125	0xbe278caa	-0.16362253
126	0xbd1c7263	-0.038195025
127	0xbe4e9d75	-0.20177253
128	0x3d98d535	0.07462541
129	0xbd692aa1	-0.05692542
130	0x3e1c97af	0.15292238
131	0xbdd68a65	-0.104756154
132	0xbdbc1afd	-0.09184835
133	0x3e7e7e44	0.24852854
134	0x3e0a548a	0.13508812
135	0x3e51e128	0.20496047
136	0xbe3fae72	-0.1871889
137	0xbc80478e	-0.01565912
138	0xbe173fc2	-0.14770415
139	0xbe183f64	-0.14867932
140	0x3dace783	0.08442595
141	0xbe4f3333	-0.20234375
142	0xbc7df6ef	-0.015500768
143	0xbe5e0459	-0.21681346
144	0x3df4b80e	0.11949168
145	0x3e1bde72	0.15221575
146	0xbc8d80f5	-0.017273406
147	0xbde72ebe	-0.11288212
148	0x3e0f141d	0.13972516
149	0xbe5943b3	-0.21217231
150	0x3e01fd8a	0.12694374
151	0xbe1f59e2	-0.15561631
152	0x3d5f804e	0.05456572
153	0x3dc696c7	0.09696727
154	0xbdc03a04	-0.093860656
155	0xbe372671	-0.17885758
156	0xbdaa6d8f	-0.08321678
157	0xbe14c7aa	-0.14529291
158	0xbdbb4e94	-0.09145847
159	0x3dacd01e	0.08438133
160	0x3e616433	0.22010879
161	0xbe0f054e	-0.13966867
162	0x3dbe3258	0.09286946
163	0xbe6dcde7	-0.23223077
164	0x3e20e031	0.15710522
165	0xbdcf56d4	-0.10123983
166	0xbe46df4e	-0.19421121
167	0xbe5490da	-0.20758381
168	0xbd14e577	-0.036351647
169	0x3e013194	0.12616569
170	0x3d51397b	0.05108021
171	0xbe369146	-0.17828855
172	0xbd4f7e44	-0.050657526
173	0x3d72e6eb	0.05930225
174	0xbe5c5c61	-0.21519615
175	0xbdbcdb2a	-0.0922149
176	0xbcec82ba	-0.028870929
177	0x3ccc60d1	0.02494851
178	0x3e657bde	0.22410533
179	0xbd61cdf1	-0.05512804
180	0xbdf3d150	-0.119051576
181	0x3d542bd5	0.051799614
182	0x3e725b4e	0.23667642
183	0xbd0a68c1	-0.033791307
184	0x3e42a944	0.19009882
185	0xbe27fdf4	-0.16405469
186	0x3a5fcb85	0.00085371017
187	0xbe3055ff	-0.17220305
188	0xbc6a24db	-0.014291014
189	0x3ce6e272	0.02818415
190	0xbe0a0597	-0.13478695
191	0x3e0ee292	0.13953617
192	0x3dfc49d4	0.12318769
193	0xbe3de2fb	-0.18543617
194	0xbd5d9252	-0.05409462
195	0xbe5557e2	-0.20834306
196	0x3d8ed948	0.06975037
197	0xbbf89322	-0.007585899
198	0xbd12b7eb	-0.03581993
199	0x3dc95bec	0.09831986
200	0x3cbc467e	0.022982832
201	0xbdb8d10d	-0.09024248
202	0xbe14158f	-0.14461349
203	0xbd53cf7f	-0.051711556
204	0xbd0df5f2	-0.03465838
205	0xbe49bdac	-0.1970126
206	0xbda0fac0	-0.07860327
207	0xbdbaa62f	-0.09113728
208	0xbd8157fd	-0.063156106
209	0xbd0f0262	-0.03491438
210	0x3da25922	0.07927157
211	0xbd311ff2	-0.043243356
212	0xbe1a9312	-0.15095165
213	0x3dae0947	0.08497863
214	0xbe4c8927	-0.19974194
215	0x3dea60d3	0.11444249
216	0x3cd10155	0.02551333
217	0x3e016d7d	0.12639423
218	0x3e84f764	0.25969994
219	0x3e6b94bc	0.23005956
220	0x3daced1a	0.08443661
221	0x3dec042c	0.11524233
222	0xbdc448fa	-0.09584232
223	0xbe0493f4	-0.12947065
224	0x3d3de577	0.046361413
225	0xbc3ebba3	-0.011641416
226	0xbdcf082b	-0.1010898
227	0x3dca059e	0.09864353
228	0x3da5747c	0.08078858
229	0x3ca6d04c	0.020362996
230	0x3e71b752	0.23605087
231	0xbd47ea8e	-0.048807673
232	0xbde99b7c	-0.114066094
233	0x3d209275	0.039202172
234	0x3cdf57f5	0.02726362
235	0x3e6d920b	0.23200242
236	0xbe16d901	-0.14731218
237	0xbd9279e3	-0.07152154
238	0xbcc0c397	-0.023530765
239	0xbd047480	-0.032337666
240	0x3e66e81e	0.22549483
241	0x3db6a881	0.08918858
242	0x3b6595b4	0.0035031857
243	0xbe1c43ef	-0.1526029
244	0xbe27b8d2	-0.16379097
245	0x3e3aaf22	0.1823087
246	0x3e117c46	0.14207563
247	0x3de0d16d	0.10977445
248	0x3e8257e8	0.25457692
249	0xbe60191e	-0.21884581
250	0xbdb2bc24	-0.08727291
251	0x3ba8cd24	0.005151408
252	0xbcf499ad	-0.029858435
253	0xbca1a5ab	-0.019732317
254	0x3d8d8643	0.06910374
255	0xbdbe9520	-0.09305787

fc2.bias f4 [100]
0	0xbd4f44d2	-0.05060274
1	0xbd941e92	-0.07232393
2	0xbd5c9e9a	-0.05386219
3	0xbd010dce	-0.031507306
4	0x3dcb022b	0.09912523
5	0x3c970441	0.018434646
6	0x3dcf4422	0.10120417
7	0xbe4e4020	-0.20141649
8	0xbdde89ca	-0.10866125
9	0xbe0a91c1	-0.13532163
10	0xbe1d2799	-0.15347137
11	0x3d562e29	0.052290116
12	0xbd935b23	-0.07195117
13	0xbe6420cf	-0.2227814
14	0xbda412da	-0.08011408
15	0xbe057766	-0.13033828
16	0xbdcf82dd	-0.10132382
17	0xbc141b2d	-0.009039682
18	0xbd7acb3f	-0.061228987
19	0x3e198821	0.14993335
20	0x3c586460	0.013207525
21	0xbd82d128	-0.0638755
22	0x3ce7c53d	0.028292293
23	0x3e19ba36	0.1501244
24	0xbc6d29d0	-0.014475301
25	0xbd925919	-0.071459
26	0xbe4b1c03	-0.19834904
27	0x3c7ce0c0	0.015434444
28	0xbdeb028b	-0.114750944
29	0x3dc0224a	0.0938154
30	0x3ddb13a8	0.106971085
31	0xbd9b232f	-0.0757507
32	0xbd8ed944	-0.06975034
33	0xbd260333	-0.040530395
34	0xbda3e118	-0.080019176
35	0xbd6c3ca9	-0.057675038
36	0x3da500ec	0.080568165
37	0x3cf81c08	0.030286804
38	0x3d88241a	0.06647511
39	0x3e37895e	0.17923495
40	0xbde5b74e	-0.11216603
41	0xbd918024	-0.07104519
42	0x3dfadcba	0.122491315
43	0x3e29a276	0.1656588
44	0xbe4ab4c9	-0.19795527
45	0xbd3de635	-0.04636212
46	0x3e144395	0.14478905
47	0xbe4209a4	-0.1894899
48	0x3de3fef1	0.111326106
49	0xbddcf6da	-0.10789271
50	0xbced49cf	-0.028965859
51	0xbd44f2ac	-0.048082992
52	0xbd5bfa2a	-0.053705372
53	0x3e051112	0.12994793
54	0x3e0591bb	0.13043873
55	0x3e258098	0.16162336
56	0xbe1b49f6	-0.15164933
57	0x3d03cd98	0.03217849
58	0x3c685427	0.01418022
59	0xbd9de6fa	-0.07710071
60	0x3e2c0d90	0.16802049
61	0x3c9f18d4	0.019421019
62	0x3e21763e	0.15767762
63	0xbe087f61	-0.13329841
64	0xbe2d6ddf	-0.16936444
65	0x3e362d0b	0.1779062
66	0xbe3088b3	-0.17239647
67	0x3db5556c	0.088541836
68	0xbe46ca05	-0.19413002
69	0xbe3c4221	-0.18384601
70	0x3db8bbe4	0.09020212
71	0xbe5db2fa	-0.21650305
72	0x3da405fc	0.08008954
73	0xbe1098cb	-0.14120786
74	0xbe5a9d65	-0.21349104
75	0xbcc8c3a6	-0.024507355
76	0x3dec9bbe	0.11553143
77	0x3d207db3	0.039182376
78	0xbd45c6b6	-0.04828521
79	0x3e183306	0.14863214
80	0x3e4a0acc	0.19730681
81	0x3dce0645	0.100597896
82	0x3db5c96b	0.08876308
83	0x3c9a7bf8	0.018857941
84	0xbd291b4d	-0.0412858
85	0x3df650c3	0.12027123
86	0xbe0a7dd3	-0.1352456
87	0x3e4ee263	0.20203547
88	0xbda6ae9d	-0.081387736
89	0xbe619269	-0.22028507
90	0xbdce562a	-0.10075028
91	0xbd3d0eb7	-0.04615661
92	0x3dfcd1a9	0.12344677
93	0xbe2aa73a	-0.16665354
94	0xbd995f0d	-0.074888326
95	0xbe547b34	-0.20750123
96	0x3e21b10b	0.15790193
97	0x3e44f955	0.19235738
98	0xbd227d1f	-0.039670106
99	0xbe1f3344	-0.155469

fc3.weight f4 [100, 100]
0	0x3db442af	0.088017814
1	0x3db8d545	0.09025053
2	0xbce107a2	-0.02746946
3	0x3e5b1ddf	0.21398114
4	0x3e4a46b4	0.19753534
5	0x3e4a8f0f	0.19781135
6	0xbda1ff9f	-0.07910084
7	0xbe15f5e6	-0.14644584
8	0xbe72310a	-0.2365152
9	0x3deec5fd	0.11658857
10	0x3e2515c5	0.16121586
11	0xbe081dbe	-0.13292596
12	0xbe0fb39b	-0.14033358
13	0x3c16ac99	0.009196424
14	0xbdd6fc06	-0.104972884
15	0x3e015c51	0.12632872
16	0x3e0833ad	0.13300963
17	0xbe1a9951	-0.15097548
18	0xbdad3ca6	-0.084588334
19	0x3dc6fdf2	0.09716405
20	0x3e53f9df	0.20700787
21	0xbce1aa95	-0.02754716
22	0x3de048b7	0.10951369
23	0x3d998b53	0.07497277
24	0xbd660336	-0.056155406
25	0x3e26fd2c	0.16307515
26	0xbe313caa	-0.17308298
27	0x3e50cfbb	0.20391743
28	0x3d6acc90	0.057323992
29	0xbe58434d	-0.21119423
30	0xbe4621b1	-0.1934879
31	0x3d30f758	0.043204635
32	0xbe238164	-0.15967327
33	0x3e69fc77	0.22850214
34	0xbd26076e	-0.04053443
35	0xbe10e234	-0.1414879
36	0x3e31173b	0.17294018
37	0xbd90ebe6	-0.07076244
38	0x3e72d349	0.23713411
39	0xbd05c88f	-0.03266197
40	0xbdde7eac	-0.108640045
41	0xbe2f28f8	-0.17105472
42	0x3e808f36	0.2510926
43	0xbe1bd64d	-0.15218468
44	0xbe258e47	-0.16167556
45	0xbd7e1bc6	-0.062038206
46	0x3e525589	0.20540442
47	0x3da450db	0.080232345
48	0xbdc12743	-0.09431317
49	0x3d4b7e7f	0.049681183
50	0x3df5c07c	0.11999604
51	0xbe670fe3	-0.22564654
52	0xbdbe6ac0	-0.09297705
53	0xbdc74288	-0.09729487
54	0xbe890087	-0.26758215
55	0xbe0e521d	-0.13898511
56	0xbe3a5493	-0.18196325
57	0xbd81a01e	-0.06329368
58	0xbdb69ded	-0.08916841
59	0xbd985315	-0.07437722
60	0x3e559725	0.20858438
61	0x3e35f96a	0.17770925
62	0xbcf41af9	-0.029798018
63	0xbd527c58	-0.051388115
64	0x3cbb0d6c	0.022833548
65	0xbdfbbd36	-0.122919485
66	0xbe1dfc07	-0.15428172
67	0xbe835218	-0.2564857
68	0x3cb582d2	0.022157107
69	0xbe4b71f0	-0.19867682
70	0xbd8a580a	-0.06755073
71	0xbe395448	-0.18098557
72	0xbd8a5a99	-0.067555614
73	0x3dc9fb87	0.09862428
74	0xbd9fa91b	-0.07795926
75	0x3d22de54	0.03976281
76	0xbe4a1263	-0.19733576
77	0xbe16a97e	-0.14713094
78	0x3e1718c4	0.14755541
79	0xbe3ffd84	-0.18749052
80	0xbe58eaec	-0.21183366
81	0xbe2e67d3	-0.17031793
82	0x3e0d5f36	0.13805851
83	0xbdd456bd	-0.103681065
84	0x3da478ec	0.080308765
85	0x3e6991fc	0.22809595
86	0x3d24acf0	0.04020399
87	0xbe5a1e1b	-0.21300547
88	0xbcb2121d	-0.021737153
89	0x3e477032	0.19476393
90	0x3e8509db	0.25984082
91	0x3e1cc46f	0.15309308
92	0xbe07b2d4	-0.13251811
93	0xbe04b731	-0.12960507
94	0xbe291927	-0.16513501
95	0xbe1e5c02	-0.15464786
96	0xbe2016a6	-0.1563364
97	0xbe17b835	-0.14816363
98	0x3e59cc56	0.21269354
99	0xbcfbf5e5	-0.0307569
100	0xbe286ef1	-0.16448571
101	0xbdafd744	-0.085859805
102	0x3cd70dbf	0.026251672
103	0xbcdf37e3	-0.027248329
104	0x3dea83d3	0.11450925
105	0xbe4ca29d	-0.19983907
106	0xbe196cc0	-0.14982891
107	0x3e1fca67	0.15604554
108	0x3e314917	0.17313038
109	0xbd2f7d33	-0.04284401
110	0x3dd44c18	0.10366076
111	0x3de2b0d4	0.110688835
112	0x3de74e44	0.11294225
113	0xbdba5664	-0.09098509
114	0x3e365fa1	0.17809917
115	0x3e003db5	0.1252354
116	0xbdb9f5f7	-0.09080117
117	0xbda3eb00	-0.08003807
118	0xbb8107b1	-0.0039376845
119	0x3caf42a0	0.021394074
120	0x3c91236e	0.01771709
121	0xbdf9aee9	-0.121915646
122	0x3d891eed	0.06695352
123	0x3e587bb6	0.21140942
124	0xbe196de2	-0.14983323
125	0xbe4e69fe	-0.2015762
126	0xbe14aa9d	-0.14518209
127	0x3cdd3837	0.027004344
128	0xbddb4aff	-0.10707664
129	0xbe312605	-0.1729966
130	0xbb8691ea	-0.00410675
131	0x3dd1e205	0.10248188
132	0xbe254bdb	-0.16142218
133	0x3dd682ef	0.10474192
134	0x3e0b13a9	0.13581719
135	0x3d562bc1	0.05228782
136	0x3d9192c8	0.071080744
137	0x3e10b99e	0.14133307
138	0x3df97cc8	0.12182003
139	0xbd752c24	-0.05985655
140	0xbe452a59	-0.19254436
141	0xbd94a36b	-0.07257732
142	0x3e58dfa7	0.21179067
143	0xbe0c961a	-0.13729134
144	0xbe4cead0	-0.20011449
145	0xbe3b4735	-0.18288882
146	0x3d92b6f4	0.07163802
147	0xbe33d7f0	-0.17562842
148	0x3d0602a0	0.032717347
149	0x3d99d9dd	0.07512257
150	0x3dae1330	0.084997535
151	0xbe51876d	-0.20461817
152	0xbd9629d2	-0.07332195
153	0xbd14125e	-0.03615033
154	0xbe2b36c7	-0.16720115
155	0xbe284f2c	-0.16436452
156	0xbd40005f	-0.046875354
157	0xbe2b2964	-0.16715008
158	0xbc8a960c	-0.016917251
159	0xbe0c9915	-0.13730271
160	0x3e134fa6	0.14385852
161	0xbcffcb16	-0.031224769
162	0xbe30095c	-0.1719107
163	0xbd96f91d	-0.07371733
164	0xbe3816f5	-0.17977507
165	0xbd784612	-0.0606137
166	0xbd4d7bf5	-0.050167043
167	0xbd83a864	-0.06428602
168	0xbc8530ad	-0.016258562
169	0xbd556df9	-0.05210683
170	0xbd7df05e	-0.06199681
171	0xbda1ca5b	-0.07899924
172	0xbe4cb03d	-0.19989105
173	0xbe1528c0	-0.14566326
174	0xbe067ff6	-0.1313475
175	0xbd6d9d58	-0.058011383
176	0xbe2e191e	-0.17001769
177	0xbd648b99	-0.055797193
178	0x3d901823	0.07035854
179	0xbe4a44ed	-0.19752856
180	0xbd26b45f	-0.04069936
181	0xbd8e6fee	-0.06954943
182	0xbda3351a	-0.07969113
183	0xbe12fb09	-0.14353575
184	0xbdea71a1	-0.11447454
185	0x3e51423f	0.20435427
186	0xbcc0fae2	-0.02355713
187	0xbd96f1a8	-0.07370311
188	0xbe2c2171	-0.16809632
189	0xbe188916	-0.14896044
190	0x3e546040	0.20739841
191	0x3e1e6772	0.15469149
192	0xbe17ab2a	-0.14811388
193	0xbd4658eb	-0.048424643
194	0xbd5422b3	-0.051790904
195	0xbe1dd3d7	-0.15412842
196	0xbdc24a6e	-0.094868526
197	0xbd298ea4	-0.0413958
198	0x3dee63a4	0.11640099
199	0x3de5e080	0.112244606
200	0x3ce6dfa4	0.028182812
201	0x3e4e094c	0.20120734
202	0x3dfd57e4	0.123702794
203	0x3d84ee46	0.064907596
204	0x3cdec4b7	0.02719341
205	0x3d80fd8c	0.0629836
206	0xbc82ad6e	-0.015951838
207	0x3cc87926	0.02447183
208	0x3e711b2f	0.23545526
209	0xbd61b690	-0.055105746
210	0x3dc5b8cd	0.096543886
211	0x3e55d5a4	0.20882279
212	0x3e0df400	0.1386261
213	0x3e7fe40e	0.2498934
214	0x3d8adc80	0.06780338
215	0x3e15a21e	0.14612624
216	0xbd260bdb	-0.04053865
217	0xbd5e13ae	-0.054217987
218	0xbda45e8c	-0.08025846
219	0x3d5951d7	0.053056564
220	0x3e03df2a	0.12878099
221	0x3e1485e3	0.14504199
222	0xbe0c9475	-0.13728507
223	0xbe277f22	-0.16357091
224	0x3e6d816e	0.23193905
225	0x3e44f9e1	0.19235946
226	0x3cf53fc2	0.029937629
227	0xbdcb384c	-0.09922847
228	0x3d34fc75	0.044186074
229	0xbddfeede	-0.10934232
230	0xbe0e6337	-0.13905035
231	0xbd91fa0d	-0.071277715
232	0x3e312627	0.1729971
233	0x3bf0c359	0.007347506
234	0x3e403107	0.18768702
235	0x3e2129a0	0.15738535
236	0x3e21425b	0.15747969
237	0x3e40d059	0.18829478
238	0xbd49adf9	-0.04923818
239	0xbd786bbe	-0.060649626
240	0x3e1a2946	0.15054807
241	0x3dad8eca	0.084745005
242	0xbe10003e	-0.14062592
243	0x3e0ac580	0.13551903
244	0x3dcfaf05	0.10140804
245	0x3e567aaf	0.20945238
246	0xbe7a5674	-0.24447042
247	0xbe5ff0e7	-0.2186924
248	0xbe06360b	-0.13106553
249	0x3e249b57	0.16074882
250	0xbdfdf7dc	-0.12400791
251	0xbe2c5d69	-0.16832508
252	0xbd5d06f2	-0.0539617
253	0x3dce4466	0.1007164
254	0x3de19d9d	0.110163905
255	0xbe2433f7	-0.16035448

fc3.bias f4 [100]
0	0x3db8f961	0.0903194
1	0xbe0dde3b	-0.13854305
2	0xbdbb65cf	-0.09150278
3	0x3db521f4	0.08844367
4	0x3e47bb5c	0.19505066
5	0xbe003f10	-0.12524056
6	0x3d40763a	0.04698775
7	0x3e412fce	0.18865892
8	0x3e557bd4	0.20848018
9	0xbe099f7d	-0.13439746
10	0x3e384516	0.17995104
11	0xbcaf54c1	-0.021402718
12	0x3e2f735f	0.17133854
13	0x3cc9e83e	0.024646875
14	0xbd9d4092	-0.076783314
15	0x3e4adba4	0.19810349
16	0xbd0e8d9f	-0.03480303
17	0xbd8d3618	-0.06895083
18	0x3e82a696	0.2551772
19	0x3e2d1b90	0.16905046
20	0xbe0385c9	-0.12844004
21	0x3e044424	0.12916619
22	0x3e5756cf	0.21029209
23	0x3db06329	0.08612663
24	0xbe18233e	-0.14857194
25	0xbd384098	-0.044983476
26	0x3c695b02	0.014242889
27	0x3e5337a6	0.20626697
28	0x3da1d2b3	0.07901516
29	0xbe0b213d	-0.13586898
30	0x3e46ae28	0.19402373
31	0xbd12335d	-0.035693515
32	0xbda5c2a9	-0.08093769
33	0x3dd33250	0.10312331
34	0xbde4effa	-0.111785844
35	0x3da9f369	0.0829838
36	0xbe22c3c4	-0.15894991
37	0x3d936528	0.071970284
38	0xbe5ac136	-0.21362767
39	0x3e226abb	0.15861027
40	0x3e5702cf	0.20997165
41	0xbc632d8b	-0.013865839
42	0x3e396170	0.18103576
43	0x3d0c8921	0.034310464
44	0xbe299b38	-0.16563118
45	0x3dd3d605	0.10343555
46	0xbbea8c5d	-0.007157846
47	0x3e107784	0.14108092
48	0x3db55d8d	0.08855734
49	0x3d9e03fa	0.07715602
50	0x3e3fd962	0.18735269
51	0x3d4980b1	0.049194995
52	0x3e2624c1	0.16224958
53	0xbd8207f3	-0.063491724
54	0xbdf813d6	-0.121131584
55	0x3e296d8b	0.16545694
56	0xbdcbf799	-0.09959335
57	0xbe3ba2cf	-0.18323825
58	0x3e4e22ab	0.20130412
59	0xbe5280e0	-0.20556974
60	0xbdc59250	-0.096470475
61	0x3e714530	0.23561549
62	0xbe46fbb9	-0.19431962
63	0x3e018985	0.12650116
64	0xbe2ca7a1	-0.1686082
65	0xbda6dfba	-0.08148141
66	0xbe139f9b	-0.14416353
67	0xbe567ec1	-0.2094679
68	0x3e100957	0.14066063
69	0xbc2757f3	-0.01021384
70	0xbdbb07b0	-0.09132326
71	0xbd4e8d33	-0.050427627
72	0xbd5f1137	-0.054459777
73	0x3e2e6fc8	0.17034829
74	0xbe54acd4	-0.20769054
75	0x3df1f230	0.11813772
76	0x3d00ab29	0.03141323
77	0x3de0f21f	0.10983681
78	0x3df818d4	0.121141106
79	0xbd343265	-0.043993372
80	0x3cf43628	0.02981098
81	0x3dd62397	0.10456007
82	0x3d8a3763	0.067488454
83	0x3e4becf3	0.19914608
84	0xbd2df331	-0.042468254
85	0x3d75fb9f	0.060054418
86	0x3e293adc	0.1652636
87	0xbde316cf	-0.11088335
88	0x3dae5951	0.085131295
89	0xbd5a2b96	-0.053264223
90	0x3d4c2b23	0.049845826
91	0x3e0c1dc1	0.13683225
92	0x3e1ae8ce	0.1512787
93	0x3e17eecd	0.14837189
94	0xbe12a4dd	-0.14320703
95	0xbe307800	-0.17233276
96	0x3e2c6f00	0.16839218
97	0xbd8e0659	-0.069348045
98	0xbe278490	-0.16359162
99	0xbc6db84c	-0.014509272

fc4.weight f4 [6, 100]
0	0x3d058ab7	0.032602992
1	0xbe16c677	-0.14724146
2	0xbd292951	-0.041299168
3	0x3d216ecf	0.039412316
4	0x3e400831	0.18753125
5	0xbd8da899	-0.06916923
6	0x3de456d5	0.111493744
7	0x3d32cd6b	0.043652933
8	0x3c3c2b9d	0.011485008
9	0xbd641b59	-0.055690143
10	0x3e000f9d	0.12505956
11	0xbce465c2	-0.027880553
12	0xbcb023b1	-0.021501394
13	0xbe0acc53	-0.13554506
14	0xbdaa8471	-0.083260424
15	0xbd09fe42	-0.033689745
16	0xbd3572c3	-0.0442989
17	0x3c1ec8ac	0.009691399
18	0xbe335abc	-0.17515081
19	0xbd30eab5	-0.043192584
20	0xbdc515e4	-0.09623316
21	0xbcdf84e9	-0.027285056
22	0x3d8fe7e9	0.07026655
23	0x3d9144f4	0.0709323
24	0xbd6b8c8d	-0.057507087
25	0xbe4fde8b	-0.20299737
26	0xbc552957	-0.0130103445
27	0xbcfa5ebf	-0.030562757
28	0x3df28c5a	0.11843176
29	0x3caf6852	0.021412048
30	0x3d8faec5	0.070157565
31	0x3a891d4c	0.0010461002
32	0xbc5ffd9e	-0.013671307
33	0x3dbacc1a	0.091209605
34	0xbe29b013	-0.16571073
35	0x3d654142	0.055970438
36	0x3cf7ed32	0.03026447
37	0x3d8d247a	0.06891723
38	0xbd9f9052	-0.07791199
39	0x3ddc5e89	0.10760219
40	0x3d0e4733	0.03473587
41	0xbcb505da	-0.022097517
42	0x3dd2434c	0.10266742
43	0x3c828d34	0.015936472
44	0xbd5ad35a	-0.053424217
45	0x3e2093f4	0.1568144
46	0x3c38908c	0.011264931
47	0xbe66f8eb	-0.22555892
48	0x3c16721b	0.009182478
49	0xbd97544a	-0.07389124
50	0xbdc9efa3	-0.0986016
51	0xb9bb9caa	-0.00035784143
52	0x3e0ae5de	0.1356425
53	0x3dd8238d	0.10553656
54	0x3e2714c3	0.16316514
55	0x3d1110a3	0.035416257
56	0xbdc75f04	-0.0973492
57	0x3dcf0795	0.10108868
58	0xbe3c476b	-0.18386619
59	0xbd6dfedf	-0.058104392
60	0x3d7bee0c	0.061506316
61	0x3db7669b	0.08955117
62	0xbe5fc18e	-0.21851179
63	0xbd308ee8	-0.043105036
64	0xbe175c71	-0.14781357
65	0xbd3c7f18	-0.046019644
66	0xbe435fb3	-0.19079475
67	0xbde37046	-0.11105399
68	0x3d0c9bba	0.0343282
69	0xbd73acfb	-0.05949114
70	0xbd4efe70	-0.05053562
71	0xbe2f7331	-0.17133786
72	0xbe549d71	-0.20763184
73	0x3d96afe8	0.0735777
74	0xbcf06d40	-0.02934897
75	0x3cc32a77	0.02382396
76	0xbda6c37b	-0.08142754
77	0x3e2ebdee	0.1706464
78	0x3da4c8d3	0.08046117
79	0xbd99a08d	-0.07501326
80	0x3d59e4db	0.05319677
81	0x3e186f3c	0.14886183
82	0x3e3344bd	0.1750669
83	0xbd4d30cf	-0.050095376
84	0x3d4f19dc	0.05056177
85	0x3d032bba	0.032024123
86	0x3d76d15e	0.06025826
87	0xbd4cccd3	-0.050000023
88	0x3d51b210	0.051195204
89	0xbd2e9a24	-0.04262747
90	0x3c824f13	0.015906846
91	0xbe4ced53	-0.20012407
92	0x3d761d66	0.06008663
93	0x3d6633ab	0.05620162
94	0xbe05e923	-0.13077216
95	0xbe227e47	-0.15868483
96	0x3df599bc	0.11992213
97	0xbceaac91	-0.02864674
98	0xbe5683cf	-0.20948718
99	0xbdd12cfa	-0.10213657
100	0xbe48954b	-0.19588201
101	0xbe28f500	-0.1649971
102	0x3df75593	0.12076869
103	0xbd0b0a49	-0.033945356
104	0x3d83a37f	0.06427669
105	0x3cf312cd	0.02967205
106	0xbcbfa60d	-0.023394609
107	0x3d9e4919	0.07728786
108	0x3d360a2c	0.044443294
109	0x3d741674	0.059591725
110	0xbc8f0234	-0.017457105
111	0x3d0322d0	0.03201562
112	0x3e605b8b	0.21909921
113	0x3e208003	0.15673833
114	0x3d8c7e66	0.06860046
115	0xbbd8fa4d	-0.006621635
116	0xbdf0acc4	-0.117517024
117	0xbdabae45	-0.08382849
118	0x3e1f9eae	0.15587875
119	0xbe263166	-0.16229782
120	0x3e0da410	0.13832116
121	0x3dbb2069	0.09137041
122	0xbe0ce048	-0.13757432
123	0xbbfccfec	-0.007715216
124	0x3cba0f87	0.022712482
125	0x3d888101	0.066652305
126	0xbe230b55	-0.15922292
127	0x3d629a41	0.05532289
128	0x3dfe8517	0.124277286
129	0x3e48b5e5	0.19600637
130	0xbe2cb26d	-0.16864939
131	0xbdb8ba95	-0.09019963
132	0xbe3349b0	-0.17508578
133	0x3cf77ab8	0.030209884
134	0x3d264544	0.0405934
135	0x3d6f146c	0.058369085
136	0xbdac158d	-0.08402548
137	0xbdeb2529	-0.11481697
138	0x3d448beb	0.047985
139	0xbe49a43f	-0.19691561
140	0xbd5b81f1	-0.05359072
141	0x3998d14a	0.00029147632
142	0xbdeb9194	-0.11502376
143	0xbc8219df	-0.015881477
144	0x3e3edb32	0.18638304
145	0x3e03eb39	0.12882699
146	0xbdcac60f	-0.09901058
147	0x3e408d76	0.18803963
148	0xbd64ee06	-0.05589106
149	0x3e5323b2	0.20619085
150	0x3da00d21	0.07815004
151	0xbe6dba29	-0.23215546
152	0xbdaf5d81	-0.08562756
153	0xbdbc3e8e	-0.09191619
154	0xbe507c30	-0.20359874
155	0x3c2d3f12	0.010574119
156	0x3dd7458a	0.105113104
157	0xbbb24324	-0.0054401327
158	0x3da0eede	0.0785806
159	0x3dd2b385	0.10288147
160	0xbe09064e	-0.13381311
161	0xbdf426f2	-0.11921491
162	0x3dc660e9	0.09686453
163	0x3d9b7943	0.07591488
164	0x3d2d5450	0.042316735
165	0x3dbb40ab	0.09143194
166	0x3da37535	0.0798134
167	0x3daa2444	0.08307698
168	0xbe1f757a	-0.15572158
169	0xbd94ac4d	-0.07259426
170	0x3d9a8136	0.07544176
171	0x3d80bbae	0.06285797
172	0x3d446379	0.047946427
173	0xbe52f871	-0.20602585
174	0x3e183138	0.14862525
175	0x3cf1e935	0.029530147
176	0x3db2d1e0	0.08731437
177	0xbe35da1e	-0.17758986
178	0xbd53d986	-0.05172112
179	0x3d886e8f	0.066617124
180	0x3c989ba8	0.01862891
181	0x3e55b9ab	0.20871608
182	0xbdc1bb79	-0.09459586
183	0xbe0a511d	-0.13507505
184	0xbdf6b2f5	-0.12045852
185	0xbd67cf24	-0.05659403
186	0xbc8d9cd3	-0.017286694
187	0x3dda67ac	0.10664305
188	0x3cc189e8	0.02362533
189	0x3ddcd7c6	0.10783343
190	0x3dee2521	0.116281755
191	0x3e0620d3	0.13098459
192	0xbdf89c23	-0.12139156
193	0xbcdc2ded	-0.026877368
194	0xbdcffe4e	-0.10155927
195	0x3d147504	0.036244407
196	0x3e3d4707	0.18484126
197	0x3e111e7d	0.14171787
198	0x3d1ba878	0.03800246
199	0xbc9d62d1	-0.019212158
200	0x3e6867a0	0.2269578
201	0x3df30902	0.118669525
202	0xbe83f984	-0.25776303
203	0xbdf469e1	-0.11934257
204	0xbda0abee	-0.07845293
205	0xbd92d68c	-0.07169828
206	0xbe69be4a	-0.22826496
207	0x3e03dd8c	0.12877482
208	0xbe18f553	-0.14937334
209	0xbde71248	-0.11282784
210	0x3ca3ec5a	0.020010162
211	0x3de34993	0.110980175
212	0xbde13fc1	-0.10998488
213	0xbdd6eba9	-0.10494167
214	0xbde6760a	-0.11252983
215	0xbe20e857	-0.1571363
216	0x3e2a5c80	0.16636848
217	0x3d88f847	0.0668798
218	0x3d7cd6c9	0.061728273
219	0xbe3d4aa8	-0.1848551
220	0x3dcd9170	0.100375056
221	0xbe405e74	-0.18786031
222	0xbe1b85dd	-0.15187784
223	0xbe6c2ef0	-0.2306478
224	0xbe354833	-0.17703323
225	0xbe5da2e7	-0.21644174
226	0xbd909eca	-0.070615366
227	0xbe7ea5f2	-0.2486799
228	0x3e033375	0.12812598
229	0xbbfdd4c7	-0.0077463123
230	0xbe40753f	-0.18794726
231	0x3e41d73c	0.18929762
232	0x3dda1128	0.106478035
233	0xbe7ebc18	-0.2487644
234	0xbe0e0fc5	-0.13873203
235	0xbe33c269	-0.1755463
236	0xbe4b58bc	-0.19858068
237	0xbe403c1d	-0.18772931
238	0xbdf855b0	-0.121257186
239	0xbe472bb8	-0.19450271
240	0xbe72dc39	-0.23716821
241	0xbe7e6e79	-0.2484683
242	0xbe51d059	-0.20489635
243	0xbe5ae78f	-0.21377395
244	0xbd24b922	-0.04021562
245	0xbdcf699e	-0.10127567
246	0xbd285675	-0.041098077
247	0xbe5bf092	-0.21478489
248	0xbe2b0bd7	-0.16703735
249	0xbcf1612f	-0.029465286
250	0xbe878c02	-0.26474005
251	0xbdf4bd18	-0.11950129
252	0x3e1665c5	0.1468726
253	0xbdaa5e8d	-0.083188154
254	0x3d92fb37	0.07176822
255	0xbe4a8e47	-0.19780837

fc4.bias f4 [6]
0	0xbd8f0b6d	-0.06984601
1	0x3de1cb15	0.11025063
2	0xbd5db491	-0.05412728
3	0xbd90ffb6	-0.07080023
4	0xbe61982b	-0.22030704
5	0x3d570adc	0.05250059
