figs/optimizer/adamw-0.001-mlp/mlp_model_dict.pt (torch, 141967 bytes, 10 tensors)

group.0.weight f4 [100, 100]
000000 fd cb 85 c0 9b 26 7b c0 ae da 84 c0 45 28 84 c0
       -4.181151 -3.9242313 -4.1516943 -4.1299157
000010 71 e7 83 c0 9e 29 83 c0 7d 01 84 40 eb ce 81 c0
       -4.122002 -4.09883 4.1251817 -4.0565085
000020 09 43 81 c0 90 90 85 c0 21 f0 81 c0 53 1c 83 c0
       -4.039433 -4.173897 -4.0605626 -4.0972075
000030 d3 f6 84 c0 c1 51 80 c0 b2 f0 85 c0 b0 6b 88 c0
       -4.15513 -4.0099797 -4.1856318 -4.2631454
000040 b6 00 85 c0 7a 39 83 c0 61 d1 84 c0 53 5b 85 c0
       -4.156337 -4.100766 -4.150559 -4.167398
000050 66 ec 6d 40 d5 7e 83 c0 58 d6 86 c0 bb 7d 88 c0
       3.7175536 -4.1092324 -4.213665 -4.265348
000060 41 66 81 c0 8e ae 89 c0 93 b9 86 c0 3f 78 8e c0
       -4.043732 -4.302558 -4.210153 -4.4521785
000070 01 55 84 c0 fd 6d 76 c0 7d e0 75 c0 e9 8f 85 c0
       -4.1353765 -3.8504632 -3.8418267 -4.173817
000080 a8 f2 80 40 07 d6 81 c0 7f df 7d c0 ed 4c 84 c0
       4.029621 -4.0573764 -3.966766 -4.1343904
000090 8c 00 84 c0 e5 98 80 c0 7c af 81 c0 48 58 8a c0
       -4.1250668 -4.018664 -4.0526714 -4.3232765
0000a0 08 9a 86 c0 8f 30 81 40 37 45 85 c0 3e 4e 8c c0
       -4.2063026 4.0371776 -4.164699 -4.384551
0000b0 de 44 84 c0 5f ab 82 c0 9e 9a 80 c0 49 84 84 c0
       -4.1334066 -4.0834193 -4.018874 -4.141148
0000c0 31 6c 83 c0 85 a0 79 c0 70 77 80 40 1d 7e 84 c0
       -4.106957 -3.9004223 4.01458 -4.1403947
0000d0 58 24 27 c0 07 c7 83 40 2c 44 84 c0 a9 8b 7c c0
       -2.6115932 4.1180453 -4.133322 -3.9460242
0000e0 70 c6 8b c0 c3 10 7e c0 ad 57 8f c0 8d 36 84 c0
       -4.3679733 -3.969773 -4.4794526 -4.131659
0000f0 77 04 80 c0 51 b2 80 c0 f7 5e 87 c0 49 29 82 c0
       -4.000545 -4.021767 -4.2303424 -4.0675397
000100 a8 50 82 c0 04 b5 82 c0 2c 5d 85 c0 48 05 86 c0
       -4.0723457 -4.0845966 -4.1676235 -4.1881447
000110 d5 72 84 c0 7e af 88 c0 e0 9e 8b c0 ab 97 86 c0
       -4.1390176 -4.2714224 -4.363144 -4.206014
000120 0e f3 82 c0 97 f3 84 c0 93 e4 7b c0 ec 86 85 c0
       -4.09217 -4.154735 -3.935826 -4.17272
000130 6f fb 83 40 2d 2c 83 c0 33 df 85 c0 00 01 8a c0
       4.1244426 -4.0991426 -4.183496 -4.312622
000140 0e 4b 89 c0 14 8e 81 c0 01 f0 86 c0 59 94 82 c0
       -4.290412 -4.0485935 -4.2167974 -4.080609
000150 5a 10 06 bf 45 ad 80 c0 b1 6f 7d c0 8d c2 84 c0
       -0.523687 -4.021151 -3.959942 -4.148749
000160 a6 b0 7c c0 bc bb 86 c0 e4 0c 69 c0 ae a3 81 c0
       -3.9482818 -4.210417 -3.6414118 -4.0512304
000170 21 65 84 c0 11 29 8b c0 58 d4 89 c0 3b 24 3e 40
       -4.137345 -4.348763 -4.307171 2.9709613
000180 fa 55 78 c0 5a c8 84 c0 7b b2 83 c0 bd b2 7e 40
       -3.8802476 -4.149457 -4.115537 3.9796593
000190 4d 73 55 c0 9e a1 9e c0 b5 13 51 c0 24 24 7c c0
       -3.3351624 -4.9572287 -3.2668278 -3.9397058
0001a0 1f 87 83 c0 eb 42 81 c0 47 4c 85 c0 cd ea 80 c0
       -4.1102443 -4.0394187 -4.165561 -4.028662
0001b0 77 f6 80 c0 a2 00 88 c0 37 04 86 c0 23 f8 39 40
       -4.030086 -4.2500772 -4.1880145 2.90577
0001c0 40 ff 85 c0 3f 21 86 c0 b9 60 71 c0 ac 6e 8d 40
       -4.1874084 -4.1915584 -3.7715285 4.4197598
0001d0 c8 62 74 40 bb 4b 90 c0 ce 9e 66 c0 64 1b 80 40
       3.8185291 -4.5092444 -3.6034427 4.0033436
0001e0 ba 69 85 c0 94 ed 8a 40 fd e2 3e c0 0d f1 80 40
       -4.169156 4.341501 -2.9826043 4.029425
0001f0 d7 9a 80 c0 61 0a f1 bf ae 66 85 40 3d 6e 5b c0
       -4.0189013 -1.8831292 4.168784 -3.4286034
000200 bc c7 9a c0 4f 90 81 c0 6f 32 99 c0 62 dd 6d c0
       -4.8368816 -4.048866 -4.7874064 -3.7166371
000210 d9 97 83 c0 0c 40 81 40 87 46 8b c0 e5 4a 85 c0
       -4.112286 4.039068 -4.3523593 -4.1653924
000220 e8 fe 82 c0 c5 5a 82 c0 2a 1e 91 c0 18 b8 80 c0
       -4.0936165 -4.0735803 -4.534932 -4.0224724
000230 7a 54 8e c0 3e 76 65 c0 aa 58 81 c0 51 5e 81 c0
       -4.447812 -3.585342 -4.0420732 -4.042763
000240 0c 85 84 c0 4e 8c 8b c0 d2 7a 61 c0 68 6e 90 c0
       -4.141241 -4.360877 -3.5231214 -4.5134773
000250 37 20 84 c0 fc 45 82 c0 ab 64 7e 40 28 7b 86 c0
       -4.1289325 -4.071043 3.9748943 -4.2025337
000260 fa bc 82 40 cc f9 78 c0 d3 c2 8c c0 81 3f 84 c0
       4.0855684 -3.8902464 -4.3987823 -4.132752
000270 58 a3 83 c0 e4 29 84 c0 3d 51 40 40 16 33 81 c0
       -4.1136894 -4.1301136 3.0049584 -4.037486
000280 1d 0a 83 c0 f5 ae 6f c0 79 6c 87 40 50 cd 83 c0
       -4.0949845 -3.7450535 4.2319913 -4.1188126
000290 42 fc 82 40 7f 20 86 c0 81 5c 78 40 f4 dc 84 c0
       4.093293 -4.191467 3.880646 -4.151972
0002a0 77 04 83 c0 1b 8f 82 c0 63 f3 25 c0 a1 35 87 c0
       -4.094295 -4.079969 -2.5929801 -4.2252965
0002b0 cc fc 2a c0 98 6f 95 c0 bf 35 81 c0 29 d9 85 40
       -2.6716795 -4.6698723 -4.037811 4.182759
0002c0 2d 3d 85 c0 6f e2 80 c0 7f 5d 85 c0 05 e5 84 c0
       -4.1637177 -4.027641 -4.167663 -4.1529565
0002d0 df b7 84 c0 b2 30 0a c0 f0 7b 7f c0 14 11 7d c0
       -4.147445 -2.1592221 -3.9919395 -3.9541674
0002e0 48 ed 6f c0 65 14 87 c0 30 72 83 c0 ed 30 08 40
       -3.7488575 -4.2212396 -4.107689 2.1279862
0002f0 1b 1e 81 c0 ef c7 87 c0 56 a1 8b 40 16 66 83 40
       -4.034925 -4.243156 4.3634443 4.1062117
000300 74 2b 67 c0 f0 63 83 c0 3d fa 5d c0 79 02 80 c0
       -3.6120272 -4.1059494 -3.4683983 -4.000302
000310 31 7b 80 c0 bf a7 84 c0 97 6d 81 c0 d4 50 7c c0
       -4.015038 -4.145477 -4.0446277 -3.9424334
000320 10 bf 30 bd f0 6d 9c c0 07 f1 4a c0 9c c1 24 c0
       -0.04315096 -4.88842 -3.1709611 -2.574317
000330 0b de 93 c0 69 e5 9b c0 58 1c 97 c0 ad c7 8b c0
       -4.620855 -4.871754 -4.72221 -4.3681245
000340 ab 36 1b c0 81 03 81 c0 99 b1 9d c0 5c 4d 78 c0
       -2.4252117 -4.0316777 -4.9279294 -3.8797216
000350 fb 4a 97 c0 ea 53 85 c0 25 09 7f c0 e8 a2 8e 40
       -4.727903 -4.1664934 -3.9849331 4.457386
000360 97 b5 74 c0 77 f0 56 c0 5f 8a a3 c0 78 4b 9a c0
       -3.8235834 -3.3584268 -5.110641 -4.8217125
000370 bd 7e 91 c0 32 6e 6f 40 19 19 82 c0 11 10 54 c0
       -4.546721 3.7411008 -4.0655637 -3.3134806
000380 5f 43 97 c0 2e 33 5f c0 83 af 4d c0 ae 8f 8b c0
       -4.726974 -3.4874988 -3.2138374 -4.361289
000390 2d 0c 80 c0 f7 e8 92 c0 de e5 8e c0 ab 7e 98 3f
       -4.0014863 -4.590938 -4.46556 1.1913656
0003a0 19 90 78 c0 bd 9c 88 c0 a8 d2 85 c0 44 53 7c c0
       -3.883795 -4.269133 -4.181965 -3.9425821
0003b0 f3 9f 82 c0 88 d4 8e c0 57 7b 57 40 4c 9f 8c c0
       -4.082025 -4.4634438 3.366903 -4.3944454
0003c0 53 d6 89 c0 2d 91 90 c0 f9 fe d7 3f ad 76 43 c0
       -4.3074126 -4.5177217 1.6874686 -3.0541184
0003d0 64 90 9f c0 93 73 98 c0 00 4a 50 c0 6d 31 a8 c0
       -4.986376 -4.764108 -3.2545166 -5.2560334
0003e0 ba 45 82 c0 0a e4 77 3f e2 c1 5a c0 be e9 7e c0
       -4.0710115 0.96832335 -3.4180837 -3.9830165
0003f0 d3 b1 8f c0 87 70 4d c0 4c e7 76 c0 82 99 83 c0
       -4.490457 -3.2099931 -3.8578672 -4.1124887

group.0.bias f4 [100]
000000 70 ae 89 c0 00 e7 8f c0 87 da 90 c0 07 13 86 c0
       -4.3025436 -4.4969482 -4.5266757 -4.1898227
000010 57 c3 9a c0 4b d9 82 c0 6d 83 96 c0 f6 17 8f c0
       -4.836345 -4.089025 -4.703543 -4.471675
000020 ff c1 84 c0 b3 c5 2f c0 4e 7c 85 c0 a9 97 98 c0
       -4.148681 -2.7464416 -4.171424 -4.768513
000030 84 0e 7a c0 fc b6 8b c0 ea 1b 97 c0 e9 61 93 c0
       -3.907136 -4.366087 -4.7221575 -4.605702
000040 ad 40 88 c0 4a 02 70 c0 1b a3 89 c0 61 43 5f c0
       -4.257895 -3.7501397 -4.3011603 -3.4884875
000050 1b 2d 81 c0 c3 3d 89 c0 a9 9d 83 c0 92 59 8f c0
       -4.036756 -4.2887893 -4.1129956 -4.479684
000060 0c 54 96 c0 b4 b0 87 c0 76 71 8f c0 10 b7 4a c0
       -4.6977596 -4.24032 -4.4826 -3.1674232
000070 47 05 7a c0 96 b1 87 c0 7d 7c 74 c0 61 11 85 c0
       -3.906572 -4.240428 -3.8200982 -4.1583714
000080 0f 5c 87 c0 0e 06 9c c0 12 9a 91 c0 2f d1 72 c0
       -4.2299876 -4.875739 -4.5500574 -3.7940176
000090 01 14 83 c0 b7 7f 92 c0 9a 28 82 c0 10 bf 99 c0
       -4.096192 -4.57809 -4.0674562 -4.804573
0000a0 ed 2e 8e c0 73 ec 86 c0 66 25 80 c0 32 ae 89 c0
       -4.4432282 -4.2163634 -4.0045652 -4.302514
0000b0 c6 15 83 c0 7b 92 8e c0 42 b6 95 c0 e1 bb 46 c0
       -4.096408 -4.455381 -4.6784983 -3.1052172
0000c0 32 a8 83 c0 67 a8 7f c0 5c 13 82 c0 15 7d 85 c0
       -4.1142817 -3.9946535 -4.064863 -4.171519
0000d0 d8 79 87 c0 80 56 8b c0 b8 88 61 c0 1b 95 92 c0
       -4.2336235 -4.354309 -3.5239697 -4.5807014
0000e0 c4 1b 96 c0 7c e7 7e c0 96 3a 8f c0 60 c7 9d c0
       -4.6908894 -3.9828787 -4.4759016 -4.930588
0000f0 bb 77 74 c0 26 de 84 c0 84 9a 88 c0 bb f2 92 c0
       -3.8198078 -4.1521177 -4.268862 -4.59213
000100 03 76 60 c0 b7 55 56 c0 ca ee 8f c0 e5 3c aa c0
       -3.5072029 -3.3489816 -4.497899 -5.3199334
000110 46 5b 83 c0 1b cd 84 c0 d7 9f 93 c0 e1 34 84 c0
       -4.104892 -4.1500373 -4.6132617 -4.131455
000120 a5 91 83 c0 45 cb 9a c0 d3 09 92 c0 e8 9a 82 c0
       -4.111529 -4.837313 -4.5636992 -4.0814095
000130 1b 00 87 c0 32 88 9a c0 6b e2 80 c0 8f 42 84 c0
       -4.218763 -4.8291254 -4.027639 -4.133125
000140 d3 62 a0 c0 7d 31 81 c0 55 4b 91 c0 ac 77 96 c0
       -5.0120635 -4.037291 -4.540446 -4.7021084
000150 82 36 9c c0 d8 c7 91 c0 04 63 92 c0 65 ad 85 c0
       -4.881654 -4.555645 -4.574587 -4.1774163
000160 6d 17 9c c0 92 d6 90 c0 3b 1d 87 c0 0e 4d 93 c0
       -4.8778596 -4.5261927 -4.222318 -4.603156
000170 ce 0e 94 c0 c8 b0 8e c0 2b 02 74 c0 2e 9e 83 c0
       -4.626807 -4.4590797 -3.8126323 -4.113059
000180 af ef 98 c0 3c 8d 93 c0 d9 54 82 c0 a5 4c 67 c0
       -4.7792583 -4.6109905 -4.0728574 -3.614053

fc1.weight f4 [100, 240]
000000 c7 ca 63 c0 c9 b8 63 40 bd 30 90 40 28 da 8a 40
       -3.5592515 3.5581534 4.5059495 4.3391304
000010 b7 47 94 40 48 75 87 40 b6 b4 1a 40 4e 29 93 40
       4.6337543 4.2330666 2.4172797 4.598792
000020 76 c6 8c 40 7c 6f 8d 40 f0 e8 9b 40 27 36 98 40
       4.399226 4.419859 4.8721848 4.7566104
000030 55 89 3e 40 b4 dc 0b c0 fc 13 8a 40 f2 79 94 40
       2.977132 -2.1853456 4.3149395 4.639886
000040 5e 7a 93 40 31 47 8f 40 55 f5 8a 40 11 a2 58 c0
       4.6086874 4.4774404 4.3424478 -3.3848917
000050 04 1a 92 c0 d8 29 96 c0 27 79 1b c0 8e 4f 91 40
       -4.5656757 -4.692608 -2.4292696 4.5409613
000060 1b 13 93 40 dc 5d 93 40 bf 59 92 40 dd 17 83 40
       4.596082 4.6052074 4.5734553 4.096663
000070 fe 88 30 40 ce 68 5a c0 f1 9f 92 40 ee 58 96 40
       2.7583613 -3.4126468 4.582024 4.6983557
000080 5a 5f 95 40 07 01 94 40 db a5 8c 40 73 8e 8d 40
       4.6678896 4.6251254 4.395246 4.423639
000090 6e 34 65 40 21 21 8a 40 78 bf 8d 40 a7 f7 8f 40
       3.581325 4.316544 4.4296227 4.498981
0000a0 95 53 8f 40 b7 3a 96 40 82 f0 8a 40 0d f4 80 40
       4.478953 4.6946673 4.341859 4.0297914
0000b0 48 9b 89 40 3f 67 8e 40 8a 6c 8e 40 b9 3a 8f 40
       4.300205 4.4501033 4.4507494 4.4759183
0000c0 c7 76 92 40 08 43 89 40 68 20 26 40 72 03 76 40
       4.576999 4.2894325 2.595728 3.8439603
0000d0 2f 90 87 40 a4 5a 85 40 29 c7 83 40 83 ad 8e 40
       4.2363505 4.1673145 4.1180615 4.4586806
0000e0 31 4a 98 40 54 1e 9a 40 48 f4 9b 40 0b 20 89 40
       4.7590566 4.816202 4.8735695 4.2851615
0000f0 d2 e4 95 40 6c 44 8c 40 cc 59 2c 40 b1 65 91 40
       4.684182 4.3833523 2.6929808 4.5436635
000100 d2 7a 77 40 b8 f0 c8 3e dc fe 7c 40 bf df 90 40
       3.8668714 0.39246154 3.9530554 4.5273128
000110 96 d8 93 40 24 35 8f 40 02 2c 80 40 79 61 60 40
       4.6201887 4.475237 4.005372 3.5059493
000120 93 29 8c 40 f7 df 85 40 c3 cd 94 40 d7 ab 97 40
       4.380075 4.1835895 4.6501174 4.7397265
000130 eb 74 94 40 40 e8 91 40 ea 86 98 40 7c cf 3e 40
       4.639272 4.559601 4.766469 2.9814138
000140 ad ca 46 40 c6 26 15 c0 97 15 9d c0 e9 45 5d c0
       3.1061203 -2.3304915 -4.9088855 -3.457392
000150 f8 27 57 c0 0d 21 7b c0 c2 12 86 c0 e6 d1 98 c0
       -3.3618145 -3.9238923 -4.18979 -4.7756224
000160 ed 31 99 c0 fe 09 8a c0 87 cc 9b c0 5d fb 9b c0
       -4.7873445 -4.3137197 -4.8687167 -4.874434
000170 31 c4 9b c0 8e 4a 95 c0 2f 20 18 c0 3b eb 30 c0
       -4.867699 -4.665351 -2.3769643 -2.7643573
000180 e6 73 86 c0 6f b9 5d c0 25 3c 70 c0 39 fd 5b c0
       -4.2016478 -3.464443 -3.753671 -3.4373305
000190 7c 28 77 c0 db 96 88 c0 53 f5 91 c0 49 c4 72 c0
       -3.861846 -4.268415 -4.561197 -3.7932303
0001a0 86 ca 96 c0 b4 54 9c c0 1c d2 95 c0 02 8e 9f c0
       -4.712222 -4.8853397 -4.681898 -4.986085
0001b0 c9 e7 91 c0 ab 9d 66 c0 7f 27 78 c0 91 3a 0f c0
       -4.559544 -3.6033733 -3.8774107 -2.2379496
0001c0 d9 40 3d c0 f9 ad 27 c0 63 ac 97 c0 c4 95 99 c0
       -2.957083 -2.6199934 -4.7397933 -4.799532
0001d0 3a 1d 99 c0 67 c4 69 c0 18 b2 63 c0 da 8a 8c c0
       -4.7848177 -3.6526124 -3.557745 -4.3919497
0001e0 a6 d3 8d c0 48 7e 91 c0 8e 86 97 c0 db 11 88 c0
       -4.432086 -4.546665 -4.735175 -4.2521796
0001f0 91 88 87 c0 f2 8e 32 c0 1a 66 5a c0 1e 2b 55 c0
       -4.2354207 -2.7899747 -3.4124818 -3.3307567
000200 09 5b 8d c0 96 dd 51 c0 35 65 88 c0 c0 21 99 c0
       -4.4173627 -3.2791495 -4.2623544 -4.78537
000210 9e 79 99 c0 3f 51 7d c0 5f 6e 1e c0 89 18 91 c0
       -4.796096 -3.9580839 -2.4754865 -4.534245
000220 31 31 9e c0 c8 17 82 c0 05 db 9c c0 db 0f 97 c0
       -4.943505 -4.065403 -4.901736 -4.7206855
000230 73 dc 1d c0 68 18 c4 3f dd d9 70 c0 95 fa 83 c0
       -2.4665802 1.5319948 -3.7632973 -4.1243386
000240 3a 82 88 c0 6d 9d 68 c0 d5 da 95 c0 5e 2f 9c c0
       -4.265897 -3.6346085 -4.682963 -4.880782
000250 64 bd 82 c0 9c a5 9f c0 3f 4d 8c c0 c4 c1 93 3f
       -4.085619 -4.988966 -4.3844295 1.1543508
000260 46 71 92 c0 b2 89 90 c0 0a e8 81 c0 58 59 55 c0
       -4.5763273 -4.5168085 -4.059575 -3.333578
000270 ac bf 62 c0 8b 19 91 c0 24 e6 a0 c0 47 8c 9e c0
       -3.5429487 -4.534368 -5.0280933 -4.9546237
000280 fc 8b 7f 40 ce df 4e c0 05 7b 88 40 70 e6 35 40
       3.992919 -3.23241 4.265017 2.8421898
000290 c3 90 76 40 53 ec 81 c0 3a 38 9a c0 96 84 73 40
       3.8525856 -4.060098 -4.8193636 3.8049674
0002a0 50 0c 97 c0 da f7 69 c0 b8 0a 89 40 3b 8f 21 c0
       -4.720253 -3.6557527 4.2825584 -2.524367
0002b0 16 33 a1 c0 1f bb 9d c0 ad 03 3e 3e 3e b2 4d 40
       -5.037486 -4.929092 0.1855609 3.214004
0002c0 29 bb 93 40 8e c7 75 40 51 d4 88 bf 2d dd 87 c0
       4.6165967 3.8403049 -1.0689794 -4.245749
0002d0 0c 24 91 c0 1d 79 95 c0 53 13 dc 3f 51 63 5b 40
       -4.5356503 -4.6710343 1.7193397 3.4279368
0002e0 09 2a 94 40 82 d9 78 40 87 c9 60 c0 08 c4 0e c0
       4.6301312 3.8882756 -3.5123003 -2.2307148
0002f0 a9 fc 7b c0 2f 3a b7 bf d7 29 9a 40 29 ce 62 40
       -3.9372962 -1.4314631 4.8176074 3.543833
000300 fe 91 8f 40 9c 46 a2 c0 38 cf 75 c0 e9 a6 8d 40
       4.4865713 -5.0711193 -3.8407726 4.426625
000310 b4 3f 4d 40 26 e4 94 40 f1 99 98 40 51 a2 b1 3d
       3.2070131 4.65285 4.7687917 0.086735375
000320 8a 8a 33 c0 fb 97 97 c0 1b 1d 3f c0 0e aa 54 c0
       -2.8053308 -4.7373023 -2.9861515 -3.3228793
000330 25 39 55 40 5a ca 8b 40 c0 c8 05 40 49 47 76 40
       3.3316128 4.368451 2.0903778 3.848101
000340 c0 1a 81 c0 7c 1a 7f 40 10 88 6e c0 73 7b c9 3f
       -4.0345154 3.9859915 -3.7270546 1.5740799
000350 6f 01 79 40 4d 11 8c 40 8e 72 93 40 9c 77 79 c0
       3.8907125 4.377112 4.6077337 -3.8979254
000360 cf 2c 96 c0 8d af 00 40 cb 26 59 40 a7 00 44 c0
       -4.69297 2.0107148 3.3929927 -3.0625398
000370 56 25 9c 40 c2 93 6a 40 93 61 7a c0 d2 00 7b 40
       4.8795576 3.6652684 -3.9122055 3.921925
000380 1e 43 92 40 4b 62 90 40 4a 13 ee 3f a6 a5 96 c0
       4.570693 4.5119987 1.8599637 -4.7077208
000390 51 fc 76 c0 ff e1 82 c0 64 96 a2 3e d3 e9 b5 3f
       -3.8591502 -4.0900874 0.31755364 1.4211982
0003a0 41 05 72 40 a8 54 8e 40 2d 7e a2 40 6b 26 a3 40
       3.7815707 4.447834 5.0779023 5.0984397
0003b0 a2 01 22 40 13 c4 81 c0 1e 4c 96 40 57 99 30 40
       2.5313497 -4.055185 4.6967916 2.7593591
0003c0 31 7a 5c 40 2f 81 8f 40 82 d3 48 c0 91 c2 a5 40
       3.444958 4.4845195 -3.1379094 5.180001
0003d0 90 56 a6 40 8a e3 16 c0 27 33 fb bf 65 96 3c be
       5.1980667 -2.357638 -1.9624985 -0.18416746
0003e0 77 1f e6 3f ee 0c a6 3f 84 d8 0b c0 1a 61 85 40
       1.7978352 1.2972696 -2.18509 4.168103
0003f0 39 b6 76 40 96 18 95 40 95 3e 9e 40 4e eb 92 40
       3.854872 4.659251 4.9451394 4.5912237

fc1.bias f4 [100]
000000 59 a4 33 40 e4 54 21 40 ca 6a 34 bf a2 6d 5c c0
       2.806906 2.5208063 -0.7047545 -3.4441915
000010 1a e6 93 c0 e1 0f 92 c0 a2 ff ae c0 94 dc 89 c0
       -4.6218386 -4.5644383 -5.468705 -4.308176
000020 e3 ed 1d 40 74 62 95 c0 53 51 8a c0 60 6b 7b c0
       2.4676445 -4.668268 -4.3224273 -3.9284286
000030 7b c0 c9 be 35 19 a4 c0 f7 05 7a c0 9f 0d a7 c0
       -0.39404663 -5.128077 -3.906614 -5.2204127
000040 6d 9e a5 c0 48 7b 94 c0 2e 8e 93 40 37 b0 96 c0
       -5.175589 -4.640049 4.611106 -4.7090106
000050 b6 2f 7f c0 f6 fc 91 40 62 ec 58 c0 dc 13 a4 c0
       -3.987287 4.562129 -3.3894277 -5.1274242
000060 16 34 a1 c0 fa 47 3f c0 aa fe a2 c0 98 bd 69 c0
       -5.037608 -2.988768 -5.093587 -3.652197
000070 37 36 9f c0 65 66 a0 c0 6a dd 7b 40 8a ef 8c c0
       -4.975368 -5.0124993 3.935389 -4.4042406
000080 b2 68 d9 bf fb 0e 93 c0 e8 b0 96 3e 87 09 9f 3f
       -1.6985075 -4.5955787 0.29431844 1.2424783
000090 b9 e8 26 c0 92 86 a6 c0 61 05 ab 3e fa ee 88 c0
       -2.6079543 -5.203927 0.3340254 -4.279172
0000a0 a6 e2 8c c0 6a 37 97 c0 fd 0d 81 c0 71 13 9a c0
       -4.402667 -4.7255144 -4.0329576 -4.814873
0000b0 c4 dc 29 40 09 6c 06 40 97 a6 a4 c0 dc ac ae 40
       2.6540995 2.100344 -5.1453357 5.458601
0000c0 87 b4 98 c0 ac 04 ac bf 8d 9c 46 c0 d6 6a 1b 40
       -4.772037 -1.3438926 -3.103305 2.4283957
0000d0 99 a6 8e c0 af 40 93 c0 d6 96 6c c0 22 4a 1e 40
       -4.4578366 -4.601646 -3.6967063 2.4732747
0000e0 c2 7d 84 c0 31 3c 87 c0 2e 7d 91 c0 c4 d7 7c c0
       -4.1403513 -4.2260976 -4.5465307 -3.9506693
0000f0 16 76 37 40 50 30 9f c0 a6 a7 68 40 d6 47 64 c0
       2.8665824 -4.9746475 3.6352324 -3.5668845
000100 dd 72 91 c0 0f 10 03 c0 1c 53 8f c0 ae ed 9b c0
       -4.5452714 -2.0478551 -4.478895 -4.8727636
000110 b0 6b a9 c0 4a 7e e0 3f 98 0e 8e c0 70 8e 64 c0
       -5.2943954 1.753854 -4.4392815 -3.5711937
000120 7f d7 9c c0 02 74 a2 40 57 08 31 40 61 da 7b 40
       -4.9013057 5.076661 2.766134 3.9352038
000130 56 07 61 3f 8e 19 84 c0 02 62 81 c0 6c c1 93 c0
       0.8790182 -4.1281195 -4.043214 -4.617361
000140 e9 2e 83 40 d3 54 84 c0 f0 7e 9f c0 39 c0 76 40
       4.0994763 -4.1353545 -4.9842453 3.8554823
000150 76 64 8a c0 34 9f 9e c0 f6 64 6d 40 3e 1e 55 40
       -4.3247633 -4.956934 3.7092872 3.3299708
000160 bb 94 40 40 ed d0 47 bf d6 65 92 c0 5b 1f 91 c0
       3.0090778 -0.7805317 -4.574931 -4.5350776
000170 af 4f 8e c0 c3 98 ac 3f 94 9e 49 40 de 18 a7 c0
       -4.447227 1.3484119 3.1503038 -5.2217855
000180 aa 9c a0 c0 50 16 a5 c0 61 0e 2b 40 9d d7 5e c0
       -5.019124 -5.1589737 2.6727526 -3.48191

fc2.0.0.weight f4 [100, 100]
000000 fd cb 85 c0 9b 26 7b c0 ae da 84 c0 45 28 84 c0
       -4.181151 -3.9242313 -4.1516943 -4.1299157
000010 71 e7 83 c0 9e 29 83 c0 7d 01 84 40 eb ce 81 c0
       -4.122002 -4.09883 4.1251817 -4.0565085
000020 09 43 81 c0 90 90 85 c0 21 f0 81 c0 53 1c 83 c0
       -4.039433 -4.173897 -4.0605626 -4.0972075
000030 d3 f6 84 c0 c1 51 80 c0 b2 f0 85 c0 b0 6b 88 c0
       -4.15513 -4.0099797 -4.1856318 -4.2631454
000040 b6 00 85 c0 7a 39 83 c0 61 d1 84 c0 53 5b 85 c0
       -4.156337 -4.100766 -4.150559 -4.167398
000050 66 ec 6d 40 d5 7e 83 c0 58 d6 86 c0 bb 7d 88 c0
       3.7175536 -4.1092324 -4.213665 -4.265348
000060 41 66 81 c0 8e ae 89 c0 93 b9 86 c0 3f 78 8e c0
       -4.043732 -4.302558 -4.210153 -4.4521785
000070 01 55 84 c0 fd 6d 76 c0 7d e0 75 c0 e9 8f 85 c0
       -4.1353765 -3.8504632 -3.8418267 -4.173817
000080 a8 f2 80 40 07 d6 81 c0 7f df 7d c0 ed 4c 84 c0
       4.029621 -4.0573764 -3.966766 -4.1343904
000090 8c 00 84 c0 e5 98 80 c0 7c af 81 c0 48 58 8a c0
       -4.1250668 -4.018664 -4.0526714 -4.3232765
0000a0 08 9a 86 c0 8f 30 81 40 37 45 85 c0 3e 4e 8c c0
       -4.2063026 4.0371776 -4.164699 -4.384551
0000b0 de 44 84 c0 5f ab 82 c0 9e 9a 80 c0 49 84 84 c0
       -4.1334066 -4.0834193 -4.018874 -4.141148
0000c0 31 6c 83 c0 85 a0 79 c0 70 77 80 40 1d 7e 84 c0
       -4.106957 -3.9004223 4.01458 -4.1403947
0000d0 58 24 27 c0 07 c7 83 40 2c 44 84 c0 a9 8b 7c c0
       -2.6115932 4.1180453 -4.133322 -3.9460242
0000e0 70 c6 8b c0 c3 10 7e c0 ad 57 8f c0 8d 36 84 c0
       -4.3679733 -3.969773 -4.4794526 -4.131659
0000f0 77 04 80 c0 51 b2 80 c0 f7 5e 87 c0 49 29 82 c0
       -4.000545 -4.021767 -4.2303424 -4.0675397
000100 a8 50 82 c0 04 b5 82 c0 2c 5d 85 c0 48 05 86 c0
       -4.0723457 -4.0845966 -4.1676235 -4.1881447
000110 d5 72 84 c0 7e af 88 c0 e0 9e 8b c0 ab 97 86 c0
       -4.1390176 -4.2714224 -4.363144 -4.206014
000120 0e f3 82 c0 97 f3 84 c0 93 e4 7b c0 ec 86 85 c0
       -4.09217 -4.154735 -3.935826 -4.17272
000130 6f fb 83 40 2d 2c 83 c0 33 df 85 c0 00 01 8a c0
       4.1244426 -4.0991426 -4.183496 -4.312622
000140 0e 4b 89 c0 14 8e 81 c0 01 f0 86 c0 59 94 82 c0
       -4.290412 -4.0485935 -4.2167974 -4.080609
000150 5a 10 06 bf 45 ad 80 c0 b1 6f 7d c0 8d c2 84 c0
       -0.523687 -4.021151 -3.959942 -4.148749
000160 a6 b0 7c c0 bc bb 86 c0 e4 0c 69 c0 ae a3 81 c0
       -3.9482818 -4.210417 -3.6414118 -4.0512304
000170 21 65 84 c0 11 29 8b c0 58 d4 89 c0 3b 24 3e 40
       -4.137345 -4.348763 -4.307171 2.9709613
000180 fa 55 78 c0 5a c8 84 c0 7b b2 83 c0 bd b2 7e 40
       -3.8802476 -4.149457 -4.115537 3.9796593
000190 4d 73 55 c0 9e a1 9e c0 b5 13 51 c0 24 24 7c c0
       -3.3351624 -4.9572287 -3.2668278 -3.9397058
0001a0 1f 87 83 c0 eb 42 81 c0 47 4c 85 c0 cd ea 80 c0
       -4.1102443 -4.0394187 -4.165561 -4.028662
0001b0 77 f6 80 c0 a2 00 88 c0 37 04 86 c0 23 f8 39 40
       -4.030086 -4.2500772 -4.1880145 2.90577
0001c0 40 ff 85 c0 3f 21 86 c0 b9 60 71 c0 ac 6e 8d 40
       -4.1874084 -4.1915584 -3.7715285 4.4197598
0001d0 c8 62 74 40 bb 4b 90 c0 ce 9e 66 c0 64 1b 80 40
       3.8185291 -4.5092444 -3.6034427 4.0033436
0001e0 ba 69 85 c0 94 ed 8a 40 fd e2 3e c0 0d f1 80 40
       -4.169156 4.341501 -2.9826043 4.029425
0001f0 d7 9a 80 c0 61 0a f1 bf ae 66 85 40 3d 6e 5b c0
       -4.0189013 -1.8831292 4.168784 -3.4286034
000200 bc c7 9a c0 4f 90 81 c0 6f 32 99 c0 62 dd 6d c0
       -4.8368816 -4.048866 -4.7874064 -3.7166371
000210 d9 97 83 c0 0c 40 81 40 87 46 8b c0 e5 4a 85 c0
       -4.112286 4.039068 -4.3523593 -4.1653924
000220 e8 fe 82 c0 c5 5a 82 c0 2a 1e 91 c0 18 b8 80 c0
       -4.0936165 -4.0735803 -4.534932 -4.0224724
000230 7a 54 8e c0 3e 76 65 c0 aa 58 81 c0 51 5e 81 c0
       -4.447812 -3.585342 -4.0420732 -4.042763
000240 0c 85 84 c0 4e 8c 8b c0 d2 7a 61 c0 68 6e 90 c0
       -4.141241 -4.360877 -3.5231214 -4.5134773
000250 37 20 84 c0 fc 45 82 c0 ab 64 7e 40 28 7b 86 c0
       -4.1289325 -4.071043 3.9748943 -4.2025337
000260 fa bc 82 40 cc f9 78 c0 d3 c2 8c c0 81 3f 84 c0
       4.0855684 -3.8902464 -4.3987823 -4.132752
000270 58 a3 83 c0 e4 29 84 c0 3d 51 40 40 16 33 81 c0
       -4.1136894 -4.1301136 3.0049584 -4.037486
000280 1d 0a 83 c0 f5 ae 6f c0 79 6c 87 40 50 cd 83 c0
       -4.0949845 -3.7450535 4.2319913 -4.1188126
000290 42 fc 82 40 7f 20 86 c0 81 5c 78 40 f4 dc 84 c0
       4.093293 -4.191467 3.880646 -4.151972
0002a0 77 04 83 c0 1b 8f 82 c0 63 f3 25 c0 a1 35 87 c0
       -4.094295 -4.079969 -2.5929801 -4.2252965
0002b0 cc fc 2a c0 98 6f 95 c0 bf 35 81 c0 29 d9 85 40
       -2.6716795 -4.6698723 -4.037811 4.182759
0002c0 2d 3d 85 c0 6f e2 80 c0 7f 5d 85 c0 05 e5 84 c0
       -4.1637177 -4.027641 -4.167663 -4.1529565
0002d0 df b7 84 c0 b2 30 0a c0 f0 7b 7f c0 14 11 7d c0
       -4.147445 -2.1592221 -3.9919395 -3.9541674
0002e0 48 ed 6f c0 65 14 87 c0 30 72 83 c0 ed 30 08 40
       -3.7488575 -4.2212396 -4.107689 2.1279862
0002f0 1b 1e 81 c0 ef c7 87 c0 56 a1 8b 40 16 66 83 40
       -4.034925 -4.243156 4.3634443 4.1062117
000300 74 2b 67 c0 f0 63 83 c0 3d fa 5d c0 79 02 80 c0
       -3.6120272 -4.1059494 -3.4683983 -4.000302
000310 31 7b 80 c0 bf a7 84 c0 97 6d 81 c0 d4 50 7c c0
       -4.015038 -4.145477 -4.0446277 -3.9424334
000320 10 bf 30 bd f0 6d 9c c0 07 f1 4a c0 9c c1 24 c0
       -0.04315096 -4.88842 -3.1709611 -2.574317
000330 0b de 93 c0 69 e5 9b c0 58 1c 97 c0 ad c7 8b c0
       -4.620855 -4.871754 -4.72221 -4.3681245
000340 ab 36 1b c0 81 03 81 c0 99 b1 9d c0 5c 4d 78 c0
       -2.4252117 -4.0316777 -4.9279294 -3.8797216
000350 fb 4a 97 c0 ea 53 85 c0 25 09 7f c0 e8 a2 8e 40
       -4.727903 -4.1664934 -3.9849331 4.457386
000360 97 b5 74 c0 77 f0 56 c0 5f 8a a3 c0 78 4b 9a c0
       -3.8235834 -3.3584268 -5.110641 -4.8217125
000370 bd 7e 91 c0 32 6e 6f 40 19 19 82 c0 11 10 54 c0
       -4.546721 3.7411008 -4.0655637 -3.3134806
000380 5f 43 97 c0 2e 33 5f c0 83 af 4d c0 ae 8f 8b c0
       -4.726974 -3.4874988 -3.2138374 -4.361289
000390 2d 0c 80 c0 f7 e8 92 c0 de e5 8e c0 ab 7e 98 3f
       -4.0014863 -4.590938 -4.46556 1.1913656
0003a0 19 90 78 c0 bd 9c 88 c0 a8 d2 85 c0 44 53 7c c0
       -3.883795 -4.269133 -4.181965 -3.9425821
0003b0 f3 9f 82 c0 88 d4 8e c0 57 7b 57 40 4c 9f 8c c0
       -4.082025 -4.4634438 3.366903 -4.3944454
0003c0 53 d6 89 c0 2d 91 90 c0 f9 fe d7 3f ad 76 43 c0
       -4.3074126 -4.5177217 1.6874686 -3.0541184
0003d0 64 90 9f c0 93 73 98 c0 00 4a 50 c0 6d 31 a8 c0
       -4.986376 -4.764108 -3.2545166 -5.2560334
0003e0 ba 45 82 c0 0a e4 77 3f e2 c1 5a c0 be e9 7e c0
       -4.0710115 0.96832335 -3.4180837 -3.9830165
0003f0 d3 b1 8f c0 87 70 4d c0 4c e7 76 c0 82 99 83 c0
       -4.490457 -3.2099931 -3.8578672 -4.1124887

fc2.0.0.bias f4 [100]
000000 70 ae 89 c0 00 e7 8f c0 87 da 90 c0 07 13 86 c0
       -4.3025436 -4.4969482 -4.5266757 -4.1898227
000010 57 c3 9a c0 4b d9 82 c0 6d 83 96 c0 f6 17 8f c0
       -4.836345 -4.089025 -4.703543 -4.471675
000020 ff c1 84 c0 b3 c5 2f c0 4e 7c 85 c0 a9 97 98 c0
       -4.148681 -2.7464416 -4.171424 -4.768513
000030 84 0e 7a c0 fc b6 8b c0 ea 1b 97 c0 e9 61 93 c0
       -3.907136 -4.366087 -4.7221575 -4.605702
000040 ad 40 88 c0 4a 02 70 c0 1b a3 89 c0 61 43 5f c0
       -4.257895 -3.7501397 -4.3011603 -3.4884875
000050 1b 2d 81 c0 c3 3d 89 c0 a9 9d 83 c0 92 59 8f c0
       -4.036756 -4.2887893 -4.1129956 -4.479684
000060 0c 54 96 c0 b4 b0 87 c0 76 71 8f c0 10 b7 4a c0
       -4.6977596 -4.24032 -4.4826 -3.1674232
000070 47 05 7a c0 96 b1 87 c0 7d 7c 74 c0 61 11 85 c0
       -3.906572 -4.240428 -3.8200982 -4.1583714
000080 0f 5c 87 c0 0e 06 9c c0 12 9a 91 c0 2f d1 72 c0
       -4.2299876 -4.875739 -4.5500574 -3.7940176
000090 01 14 83 c0 b7 7f 92 c0 9a 28 82 c0 10 bf 99 c0
       -4.096192 -4.57809 -4.0674562 -4.804573
0000a0 ed 2e 8e c0 73 ec 86 c0 66 25 80 c0 32 ae 89 c0
       -4.4432282 -4.2163634 -4.0045652 -4.302514
0000b0 c6 15 83 c0 7b 92 8e c0 42 b6 95 c0 e1 bb 46 c0
       -4.096408 -4.455381 -4.6784983 -3.1052172
0000c0 32 a8 83 c0 67 a8 7f c0 5c 13 82 c0 15 7d 85 c0
       -4.1142817 -3.9946535 -4.064863 -4.171519
0000d0 d8 79 87 c0 80 56 8b c0 b8 88 61 c0 1b 95 92 c0
       -4.2336235 -4.354309 -3.5239697 -4.5807014
0000e0 c4 1b 96 c0 7c e7 7e c0 96 3a 8f c0 60 c7 9d c0
       -4.6908894 -3.9828787 -4.4759016 -4.930588
0000f0 bb 77 74 c0 26 de 84 c0 84 9a 88 c0 bb f2 92 c0
       -3.8198078 -4.1521177 -4.268862 -4.59213
000100 03 76 60 c0 b7 55 56 c0 ca ee 8f c0 e5 3c aa c0
       -3.5072029 -3.3489816 -4.497899 -5.3199334
000110 46 5b 83 c0 1b cd 84 c0 d7 9f 93 c0 e1 34 84 c0
       -4.104892 -4.1500373 -4.6132617 -4.131455
000120 a5 91 83 c0 45 cb 9a c0 d3 09 92 c0 e8 9a 82 c0
       -4.111529 -4.837313 -4.5636992 -4.0814095
000130 1b 00 87 c0 32 88 9a c0 6b e2 80 c0 8f 42 84 c0
       -4.218763 -4.8291254 -4.027639 -4.133125
000140 d3 62 a0 c0 7d 31 81 c0 55 4b 91 c0 ac 77 96 c0
       -5.0120635 -4.037291 -4.540446 -4.7021084
000150 82 36 9c c0 d8 c7 91 c0 04 63 92 c0 65 ad 85 c0
       -4.881654 -4.555645 -4.574587 -4.1774163
000160 6d 17 9c c0 92 d6 90 c0 3b 1d 87 c0 0e 4d 93 c0
       -4.8778596 -4.5261927 -4.222318 -4.603156
000170 ce 0e 94 c0 c8 b0 8e c0 2b 02 74 c0 2e 9e 83 c0
       -4.626807 -4.4590797 -3.8126323 -4.113059
000180 af ef 98 c0 3c 8d 93 c0 d9 54 82 c0 a5 4c 67 c0
       -4.7792583 -4.6109905 -4.0728574 -3.614053

fc2.1.0.weight f4 [100, 100]
000000 fd cb 85 c0 9b 26 7b c0 ae da 84 c0 45 28 84 c0
       -4.181151 -3.9242313 -4.1516943 -4.1299157
000010 71 e7 83 c0 9e 29 83 c0 7d 01 84 40 eb ce 81 c0
       -4.122002 -4.09883 4.1251817 -4.0565085
000020 09 43 81 c0 90 90 85 c0 21 f0 81 c0 53 1c 83 c0
       -4.039433 -4.173897 -4.0605626 -4.0972075
000030 d3 f6 84 c0 c1 51 80 c0 b2 f0 85 c0 b0 6b 88 c0
       -4.15513 -4.0099797 -4.1856318 -4.2631454
000040 b6 00 85 c0 7a 39 83 c0 61 d1 84 c0 53 5b 85 c0
       -4.156337 -4.100766 -4.150559 -4.167398
000050 66 ec 6d 40 d5 7e 83 c0 58 d6 86 c0 bb 7d 88 c0
       3.7175536 -4.1092324 -4.213665 -4.265348
000060 41 66 81 c0 8e ae 89 c0 93 b9 86 c0 3f 78 8e c0
       -4.043732 -4.302558 -4.210153 -4.4521785
000070 01 55 84 c0 fd 6d 76 c0 7d e0 75 c0 e9 8f 85 c0
       -4.1353765 -3.8504632 -3.8418267 -4.173817
000080 a8 f2 80 40 07 d6 81 c0 7f df 7d c0 ed 4c 84 c0
       4.029621 -4.0573764 -3.966766 -4.1343904
000090 8c 00 84 c0 e5 98 80 c0 7c af 81 c0 48 58 8a c0
       -4.1250668 -4.018664 -4.0526714 -4.3232765
0000a0 08 9a 86 c0 8f 30 81 40 37 45 85 c0 3e 4e 8c c0
       -4.2063026 4.0371776 -4.164699 -4.384551
0000b0 de 44 84 c0 5f ab 82 c0 9e 9a 80 c0 49 84 84 c0
       -4.1334066 -4.0834193 -4.018874 -4.141148
0000c0 31 6c 83 c0 85 a0 79 c0 70 77 80 40 1d 7e 84 c0
       -4.106957 -3.9004223 4.01458 -4.1403947
0000d0 58 24 27 c0 07 c7 83 40 2c 44 84 c0 a9 8b 7c c0
       -2.6115932 4.1180453 -4.133322 -3.9460242
0000e0 70 c6 8b c0 c3 10 7e c0 ad 57 8f c0 8d 36 84 c0
       -4.3679733 -3.969773 -4.4794526 -4.131659
0000f0 77 04 80 c0 51 b2 80 c0 f7 5e 87 c0 49 29 82 c0
       -4.000545 -4.021767 -4.2303424 -4.0675397
000100 a8 50 82 c0 04 b5 82 c0 2c 5d 85 c0 48 05 86 c0
       -4.0723457 -4.0845966 -4.1676235 -4.1881447
000110 d5 72 84 c0 7e af 88 c0 e0 9e 8b c0 ab 97 86 c0
       -4.1390176 -4.2714224 -4.363144 -4.206014
000120 0e f3 82 c0 97 f3 84 c0 93 e4 7b c0 ec 86 85 c0
       -4.09217 -4.154735 -3.935826 -4.17272
000130 6f fb 83 40 2d 2c 83 c0 33 df 85 c0 00 01 8a c0
       4.1244426 -4.0991426 -4.183496 -4.312622
000140 0e 4b 89 c0 14 8e 81 c0 01 f0 86 c0 59 94 82 c0
       -4.290412 -4.0485935 -4.2167974 -4.080609
000150 5a 10 06 bf 45 ad 80 c0 b1 6f 7d c0 8d c2 84 c0
       -0.523687 -4.021151 -3.959942 -4.148749
000160 a6 b0 7c c0 bc bb 86 c0 e4 0c 69 c0 ae a3 81 c0
       -3.9482818 -4.210417 -3.6414118 -4.0512304
000170 21 65 84 c0 11 29 8b c0 58 d4 89 c0 3b 24 3e 40
       -4.137345 -4.348763 -4.307171 2.9709613
000180 fa 55 78 c0 5a c8 84 c0 7b b2 83 c0 bd b2 7e 40
       -3.8802476 -4.149457 -4.115537 3.9796593
000190 4d 73 55 c0 9e a1 9e c0 b5 13 51 c0 24 24 7c c0
       -3.3351624 -4.9572287 -3.2668278 -3.9397058
0001a0 1f 87 83 c0 eb 42 81 c0 47 4c 85 c0 cd ea 80 c0
       -4.1102443 -4.0394187 -4.165561 -4.028662
0001b0 77 f6 80 c0 a2 00 88 c0 37 04 86 c0 23 f8 39 40
       -4.030086 -4.2500772 -4.1880145 2.90577
0001c0 40 ff 85 c0 3f 21 86 c0 b9 60 71 c0 ac 6e 8d 40
       -4.1874084 -4.1915584 -3.7715285 4.4197598
0001d0 c8 62 74 40 bb 4b 90 c0 ce 9e 66 c0 64 1b 80 40
       3.8185291 -4.5092444 -3.6034427 4.0033436
0001e0 ba 69 85 c0 94 ed 8a 40 fd e2 3e c0 0d f1 80 40
       -4.169156 4.341501 -2.9826043 4.029425
0001f0 d7 9a 80 c0 61 0a f1 bf ae 66 85 40 3d 6e 5b c0
       -4.0189013 -1.8831292 4.168784 -3.4286034
000200 bc c7 9a c0 4f 90 81 c0 6f 32 99 c0 62 dd 6d c0
       -4.8368816 -4.048866 -4.7874064 -3.7166371
000210 d9 97 83 c0 0c 40 81 40 87 46 8b c0 e5 4a 85 c0
       -4.112286 4.039068 -4.3523593 -4.1653924
000220 e8 fe 82 c0 c5 5a 82 c0 2a 1e 91 c0 18 b8 80 c0
       -4.0936165 -4.0735803 -4.534932 -4.0224724
000230 7a 54 8e c0 3e 76 65 c0 aa 58 81 c0 51 5e 81 c0
       -4.447812 -3.585342 -4.0420732 -4.042763
000240 0c 85 84 c0 4e 8c 8b c0 d2 7a 61 c0 68 6e 90 c0
       -4.141241 -4.360877 -3.5231214 -4.5134773
000250 37 20 84 c0 fc 45 82 c0 ab 64 7e 40 28 7b 86 c0
       -4.1289325 -4.071043 3.9748943 -4.2025337
000260 fa bc 82 40 cc f9 78 c0 d3 c2 8c c0 81 3f 84 c0
       4.0855684 -3.8902464 -4.3987823 -4.132752
000270 58 a3 83 c0 e4 29 84 c0 3d 51 40 40 16 33 81 c0
       -4.1136894 -4.1301136 3.0049584 -4.037486
000280 1d 0a 83 c0 f5 ae 6f c0 79 6c 87 40 50 cd 83 c0
       -4.0949845 -3.7450535 4.2319913 -4.1188126
000290 42 fc 82 40 7f 20 86 c0 81 5c 78 40 f4 dc 84 c0
       4.093293 -4.191467 3.880646 -4.151972
0002a0 77 04 83 c0 1b 8f 82 c0 63 f3 25 c0 a1 35 87 c0
       -4.094295 -4.079969 -2.5929801 -4.2252965
0002b0 cc fc 2a c0 98 6f 95 c0 bf 35 81 c0 29 d9 85 40
       -2.6716795 -4.6698723 -4.037811 4.182759
0002c0 2d 3d 85 c0 6f e2 80 c0 7f 5d 85 c0 05 e5 84 c0
       -4.1637177 -4.027641 -4.167663 -4.1529565
0002d0 df b7 84 c0 b2 30 0a c0 f0 7b 7f c0 14 11 7d c0
       -4.147445 -2.1592221 -3.9919395 -3.9541674
0002e0 48 ed 6f c0 65 14 87 c0 30 72 83 c0 ed 30 08 40
       -3.7488575 -4.2212396 -4.107689 2.1279862
0002f0 1b 1e 81 c0 ef c7 87 c0 56 a1 8b 40 16 66 83 40
       -4.034925 -4.243156 4.3634443 4.1062117
000300 74 2b 67 c0 f0 63 83 c0 3d fa 5d c0 79 02 80 c0
       -3.6120272 -4.1059494 -3.4683983 -4.000302
000310 31 7b 80 c0 bf a7 84 c0 97 6d 81 c0 d4 50 7c c0
       -4.015038 -4.145477 -4.0446277 -3.9424334
000320 10 bf 30 bd f0 6d 9c c0 07 f1 4a c0 9c c1 24 c0
       -0.04315096 -4.88842 -3.1709611 -2.574317
000330 0b de 93 c0 69 e5 9b c0 58 1c 97 c0 ad c7 8b c0
       -4.620855 -4.871754 -4.72221 -4.3681245
000340 ab 36 1b c0 81 03 81 c0 99 b1 9d c0 5c 4d 78 c0
       -2.4252117 -4.0316777 -4.9279294 -3.8797216
000350 fb 4a 97 c0 ea 53 85 c0 25 09 7f c0 e8 a2 8e 40
       -4.727903 -4.1664934 -3.9849331 4.457386
000360 97 b5 74 c0 77 f0 56 c0 5f 8a a3 c0 78 4b 9a c0
       -3.8235834 -3.3584268 -5.110641 -4.8217125
000370 bd 7e 91 c0 32 6e 6f 40 19 19 82 c0 11 10 54 c0
       -4.546721 3.7411008 -4.0655637 -3.3134806
000380 5f 43 97 c0 2e 33 5f c0 83 af 4d c0 ae 8f 8b c0
       -4.726974 -3.4874988 -3.2138374 -4.361289
000390 2d 0c 80 c0 f7 e8 92 c0 de e5 8e c0 ab 7e 98 3f
       -4.0014863 -4.590938 -4.46556 1.1913656
0003a0 19 90 78 c0 bd 9c 88 c0 a8 d2 85 c0 44 53 7c c0
       -3.883795 -4.269133 -4.181965 -3.9425821
0003b0 f3 9f 82 c0 88 d4 8e c0 57 7b 57 40 4c 9f 8c c0
       -4.082025 -4.4634438 3.366903 -4.3944454
0003c0 53 d6 89 c0 2d 91 90 c0 f9 fe d7 3f ad 76 43 c0
       -4.3074126 -4.5177217 1.6874686 -3.0541184
0003d0 64 90 9f c0 93 73 98 c0 00 4a 50 c0 6d 31 a8 c0
       -4.986376 -4.764108 -3.2545166 -5.2560334
0003e0 ba 45 82 c0 0a e4 77 3f e2 c1 5a c0 be e9 7e c0
       -4.0710115 0.96832335 -3.4180837 -3.9830165
0003f0 d3 b1 8f c0 87 70 4d c0 4c e7 76 c0 82 99 83 c0
       -4.490457 -3.2099931 -3.8578672 -4.1124887

fc2.1.0.bias f4 [100]
000000 70 ae 89 c0 00 e7 8f c0 87 da 90 c0 07 13 86 c0
       -4.3025436 -4.4969482 -4.5266757 -4.1898227
000010 57 c3 9a c0 4b d9 82 c0 6d 83 96 c0 f6 17 8f c0
       -4.836345 -4.089025 -4.703543 -4.471675
000020 ff c1 84 c0 b3 c5 2f c0 4e 7c 85 c0 a9 97 98 c0
       -4.148681 -2.7464416 -4.171424 -4.768513
000030 84 0e 7a c0 fc b6 8b c0 ea 1b 97 c0 e9 61 93 c0
       -3.907136 -4.366087 -4.7221575 -4.605702
000040 ad 40 88 c0 4a 02 70 c0 1b a3 89 c0 61 43 5f c0
       -4.257895 -3.7501397 -4.3011603 -3.4884875
000050 1b 2d 81 c0 c3 3d 89 c0 a9 9d 83 c0 92 59 8f c0
       -4.036756 -4.2887893 -4.1129956 -4.479684
000060 0c 54 96 c0 b4 b0 87 c0 76 71 8f c0 10 b7 4a c0
       -4.6977596 -4.24032 -4.4826 -3.1674232
000070 47 05 7a c0 96 b1 87 c0 7d 7c 74 c0 61 11 85 c0
       -3.906572 -4.240428 -3.8200982 -4.1583714
000080 0f 5c 87 c0 0e 06 9c c0 12 9a 91 c0 2f d1 72 c0
       -4.2299876 -4.875739 -4.5500574 -3.7940176
000090 01 14 83 c0 b7 7f 92 c0 9a 28 82 c0 10 bf 99 c0
       -4.096192 -4.57809 -4.0674562 -4.804573
0000a0 ed 2e 8e c0 73 ec 86 c0 66 25 80 c0 32 ae 89 c0
       -4.4432282 -4.2163634 -4.0045652 -4.302514
0000b0 c6 15 83 c0 7b 92 8e c0 42 b6 95 c0 e1 bb 46 c0
       -4.096408 -4.455381 -4.6784983 -3.1052172
0000c0 32 a8 83 c0 67 a8 7f c0 5c 13 82 c0 15 7d 85 c0
       -4.1142817 -3.9946535 -4.064863 -4.171519
0000d0 d8 79 87 c0 80 56 8b c0 b8 88 61 c0 1b 95 92 c0
       -4.2336235 -4.354309 -3.5239697 -4.5807014
0000e0 c4 1b 96 c0 7c e7 7e c0 96 3a 8f c0 60 c7 9d c0
       -4.6908894 -3.9828787 -4.4759016 -4.930588
0000f0 bb 77 74 c0 26 de 84 c0 84 9a 88 c0 bb f2 92 c0
       -3.8198078 -4.1521177 -4.268862 -4.59213
000100 03 76 60 c0 b7 55 56 c0 ca ee 8f c0 e5 3c aa c0
       -3.5072029 -3.3489816 -4.497899 -5.3199334
000110 46 5b 83 c0 1b cd 84 c0 d7 9f 93 c0 e1 34 84 c0
       -4.104892 -4.1500373 -4.6132617 -4.131455
000120 a5 91 83 c0 45 cb 9a c0 d3 09 92 c0 e8 9a 82 c0
       -4.111529 -4.837313 -4.5636992 -4.0814095
000130 1b 00 87 c0 32 88 9a c0 6b e2 80 c0 8f 42 84 c0
       -4.218763 -4.8291254 -4.027639 -4.133125
000140 d3 62 a0 c0 7d 31 81 c0 55 4b 91 c0 ac 77 96 c0
       -5.0120635 -4.037291 -4.540446 -4.7021084
000150 82 36 9c c0 d8 c7 91 c0 04 63 92 c0 65 ad 85 c0
       -4.881654 -4.555645 -4.574587 -4.1774163
000160 6d 17 9c c0 92 d6 90 c0 3b 1d 87 c0 0e 4d 93 c0
       -4.8778596 -4.5261927 -4.222318 -4.603156
000170 ce 0e 94 c0 c8 b0 8e c0 2b 02 74 c0 2e 9e 83 c0
       -4.626807 -4.4590797 -3.8126323 -4.113059
000180 af ef 98 c0 3c 8d 93 c0 d9 54 82 c0 a5 4c 67 c0
       -4.7792583 -4.6109905 -4.0728574 -3.614053

fc4.weight f4 [6, 100]
000000 68 51 84 c0 ba 34 6e 40 fe 89 9a c0 3b 14 8c 40
       -4.1349373 3.7219682 -4.8293447 4.3774695
000010 94 51 76 40 9a a8 80 c0 16 0c a0 40 fc db 80 40
       3.8487291 -4.0205812 5.0014753 4.0268536
000020 aa 8c 88 c0 b0 c9 7f 40 8f 1f 81 40 78 07 7c c0
       -4.267171 3.996685 4.0351024 -3.9379559
000030 c3 c4 82 40 ad c4 65 40 66 6d 8b 40 b9 a7 8c c0
       4.086519 3.5901291 4.3571043 -4.395474
000040 ce c7 84 c0 72 49 88 40 e3 09 85 c0 dd 7f 45 40
       -4.14939 4.2589655 -4.157457 3.0859292
000050 c5 82 82 40 86 5f 52 c0 4f 6a 81 40 b0 ab 9e 40
       4.078463 -3.2870803 4.044227 4.958458
000060 b3 62 66 40 ba 81 85 c0 40 1d 8d c0 69 7c 86 40
       3.5997741 -4.172086 -4.4098206 4.202687
000070 12 75 24 c0 3e a6 22 40 a3 48 54 40 d5 a1 7f c0
       -2.5696454 2.5413966 3.3169334 -3.9942524
000080 89 92 82 40 a8 68 42 40 01 cd 91 c0 24 a1 87 40
       4.0803876 3.0376377 -4.556275 4.2384205
000090 9d bf 82 c0 ae 86 87 c0 8e d6 80 c0 11 3d 87 40
       -4.0858903 -4.2351904 -4.0261908 4.2262044
0000a0 d9 98 85 c0 5f 33 82 40 ca 02 81 c0 07 22 46 40
       -4.174908 4.068771 -4.0315905 3.0958269
0000b0 34 91 85 40 32 27 73 c0 04 9a 7a 40 f7 4e 73 40
       4.173975 -3.7992673 3.9156504 3.8016946
0000c0 c9 a8 82 c0 ca 94 7a 40 4a da 80 c0 58 6b 4e c0
       -4.0831037 3.9153314 -4.0266466 -3.2253017
0000d0 44 f8 96 3f 94 3e 8a 40 92 80 7a 40 ac 8d 84 40
       1.1794515 4.320139 3.9140973 4.142294
0000e0 51 26 8f c0 99 7d 5e c0 e8 c7 6c c0 c2 b4 5f 40
       -4.4734273 -3.4764159 -3.6997013 3.4954076
0000f0 fc 6c 36 c0 40 cb 7e 40 f1 2f 87 c0 68 8f 7f 40
       -2.8504019 3.9811554 -4.224602 3.9931278
000100 b2 92 5d 40 e7 57 7c 40 93 fb fa bf ee f6 8d c0
       3.4620786 3.9428651 -1.9608024 -4.436393
000110 60 48 80 c0 87 de 44 bd e1 79 56 40 1c 4c 3a bd
       -4.008835 -0.04806378 3.351189 -0.04548274
000120 5f 69 61 3d 8b ef 80 40 1d 8c 08 3f fd 21 80 40
       0.05503213 4.029241 0.53338796 4.004149
000130 7e 59 76 c0 94 f6 6b 40 5c da 80 40 8e 10 23 40
       -3.8492122 3.686925 4.026655 2.5478854
000140 51 49 67 40 d3 cd 86 40 b6 57 0e 40 01 36 49 40
       3.6138499 4.212625 2.2241035 3.1439211
000150 88 b1 49 c0 1e d6 81 c0 48 e3 4d c0 a2 ab 87 c0
       -3.1514606 -4.0573874 -3.2169971 -4.2397013
000160 7e 4b 7b c0 46 48 83 c0 ba 81 73 40 ee d6 9a c0
       -3.9264827 -4.1025724 3.804793 -4.8387365
000170 33 95 45 40 99 53 89 c0 85 89 58 40 8a fa 7f 40
       3.0872314 -4.291455 3.3833935 3.9996667
000180 3c c5 7e 40 14 c3 88 40 8d 1b 7b 40 95 eb 56 40
       3.9807882 4.2738132 3.9235566 3.3581288
000190 b8 62 83 40 8d 40 21 40 48 b3 49 bf 90 e2 1f c0
       4.1058006 2.5195649 -0.78789186 -2.4982033
0001a0 15 5d 21 c0 e5 fa 80 40 27 c0 34 c0 c7 a8 e5 bf
       -2.5213063 4.030627 -2.824228 -1.7942132
0001b0 34 d4 83 c0 40 19 95 c0 63 7d 6d 40 be f1 61 c0
       -4.1196537 -4.6593323 3.710778 -3.5303798
0001c0 6a 74 86 40 fa 9c 52 40 49 80 3c c0 80 42 86 c0
       4.2017107 3.290831 -2.94533 -4.1956177
0001d0 4d 67 86 40 56 a3 5b 40 1a ad 5e 40 2e d7 50 40
       4.20011 3.4318442 3.4793153 3.2631335
0001e0 83 2c 84 40 af 77 83 c0 34 5a 8d c0 9c 60 21 c0
       4.1304336 -4.10836 -4.417261 -2.5215216
0001f0 2a f8 26 3e 02 17 76 c0 88 35 83 c0 4c 3e 2d c0
       0.16305605 -3.8451543 -4.1002846 -2.7069273
000200 21 1b 81 40 09 10 8a 40 da 48 50 40 36 2f 84 40
       4.0345616 4.3144574 3.2544465 4.130763
000210 d0 40 75 c0 f6 d4 89 40 d9 2b 45 c0 ef d3 6a 40
       -3.8320808 4.307246 -3.0808012 3.6691854
000220 61 06 80 40 6d 33 45 c0 d4 ff 81 40 fb c0 87 40
       4.0007787 -3.0812638 4.062479 4.242307
000230 cf b6 88 c0 e2 40 6c c0 24 b9 80 40 9c 21 72 40
       -4.2723155 -3.6914601 4.0226 3.7833014
000240 67 ac 01 c0 24 a2 80 40 98 45 8e 40 39 46 64 3f
       -2.0261476 4.0197926 4.4459953 0.8916965
000250 3c 88 83 40 2b 18 79 40 29 65 80 40 1d ee 74 c0
       4.11038 3.8921 4.0123487 -3.8270333
000260 1f 3f 4c c0 0b f8 0b c0 3c b2 6c c0 06 89 5f 40
       -3.1913526 -2.1870143 -3.6983786 3.4927382
000270 d2 7c f3 3f 9b 06 83 40 02 62 88 c0 40 8c 6c 40
       1.9022467 4.0945563 -4.261964 3.6960602
000280 4a 26 6b 40 a3 9d 7e 40 21 c5 84 c0 dd ac 56 40
       3.674212 3.9783714 -4.1490636 3.3543007
000290 34 18 8d c0 87 09 5a 40 bc 5c 7b c0 5c 9a 36 40
       -4.4092045 3.4068315 -3.927535 2.8531713
0002a0 65 8a 81 40 2c 32 be ba c6 c3 83 40 80 27 ce bc
       4.048144 -0.0014510802 4.117648 -0.02516532
0002b0 c0 cb bf bd 8f 8b 7c c0 b9 4a 66 40 c7 3b 63 40
       -0.09365034 -3.946018 3.5983107 3.5505235
0002c0 cc b4 66 c0 0b 5d 4b 40 eb 31 84 40 dd e3 2a c0
       -3.604785 3.177554 4.1310935 -2.6701577
0002d0 af a2 68 40 8e 81 82 40 86 66 11 3e e7 d9 03 c0
       3.6349294 4.078315 0.14199266 -2.0601747
0002e0 cc 6d 57 40 d6 b3 41 40 bf 27 56 c0 69 b3 7d 40
       3.3660765 3.0266013 -3.346176 3.9640753
0002f0 5b 6d 3c c0 c4 71 75 40 47 cf a8 bd cd 36 75 c0
       -2.9441745 3.8350687 -0.0824266 -3.8314698
000300 08 ec 13 c0 ef 03 8f 40 1b cd 7a 40 54 53 89 40
       -2.3112812 4.46923 3.9187686 4.291422
000310 26 4d 66 c0 d8 56 73 40 23 04 77 c0 e0 ef 89 40
       -3.5984588 3.8021755 -3.8596275 4.3105316
000320 c9 d8 82 c0 b7 44 8b 40 1c 37 3c c0 bf 66 76 40
       -4.088963 4.352138 -2.9408636 3.8500211
000330 75 04 8a c0 66 5c 81 c0 69 51 81 40 1e 4f 83 c0
       -4.313044 -4.042529 4.041188 -4.103408
000340 b3 9a 85 c0 ec 99 8c c0 85 da 87 c0 33 3d 97 be
       -4.175134 -4.3937893 -4.2454247 -0.2953888
000350 06 e5 05 40 a4 44 84 40 d9 fb 81 c0 33 f2 89 40
       2.0921035 4.133379 -4.061993 4.3108153
000360 bf 86 87 c0 47 8d 6f 40 f3 5b 84 40 45 9c 39 40
       -4.2351985 3.742998 4.1362243 2.900163
000370 46 14 82 c0 9b f3 6a 40 a3 cd 8c 40 53 e7 48 40
       -4.064975 3.6711185 4.400102 3.139119
000380 9d 1b 8c 40 35 f4 84 c0 c0 2f 44 c0 87 f4 7b 40
       4.378371 -4.1548104 -3.0654144 3.9367998
000390 3f 66 6a 40 51 35 82 40 3d 92 88 c0 c3 18 80 c0
       3.6624906 4.0690084 -4.2678514 -4.0030227
0003a0 95 a3 84 c0 03 8c 88 c0 b1 c7 40 c0 70 7b 58 40
       -4.1449685 -4.2670913 -3.0121882 3.382534
0003b0 cd eb 83 c0 77 ff 43 c0 50 b2 82 c0 0e c3 80 40
       -4.1225343 -3.0624673 -4.0842667 4.0238104
0003c0 7e b7 5a c0 56 1d 85 c0 c7 d6 81 c0 21 24 56 c0
       -3.4174495 -4.159831 -4.057468 -3.3459551
0003d0 7c 6e 77 40 38 a0 66 c0 c7 4e 08 c0 d8 b9 07 40
       3.8661184 -3.603529 -2.1298082 2.120718
0003e0 4e 96 85 c0 51 ef 70 40 f4 90 7f c0 e2 d0 8e 40
       -4.1745977 3.7646067 -3.9932222 4.4629984
0003f0 e3 55 7f c0 76 4b 84 c0 92 a2 8b 40 63 8a 80 40
       -3.989617 -4.1342115 4.363595 4.016893

fc4.bias f4 [6]
000000 eb 45 29 bf d4 90 00 3f fa a6 f0 bf 4f 1f db bf
       -0.6612231 0.5022099 -1.8800957 -1.711893
000010 0f a5 84 bf 18 7e 73 3f
       -1.0362872 0.9511428
