figs/diff_hiddenlayers/8/mlp_model_dict.pt (torch, 143247 bytes, 22 tensors)

group.0.weight f4 [100, 100]
-0.7096146 0.37060288 -0.2441171 0.51901585 -0.027236141 -0.3030409 -0.31619102 -0.20135188
-0.57801354 -0.4977498 -0.5496784 0.44322973 -0.6898082 -0.4618928 -0.557701 -0.5829057
-0.68592536 -0.5640009 0.23544261 -0.64865184 -0.5760394 -0.6375641 -0.517299 -0.68493176
-0.6157008 -0.6599368 -0.7127597 -0.6547966 -0.47591504 -0.6054889 -0.48384836 -0.49731445
-0.52061474 -0.67611855 -0.6087695 -0.514299 -0.61889106 -0.6210246 -0.7233345 -0.7157159
-0.63440216 -0.694234 -0.13591999 -0.5202319 -0.64887065 0.5730116 -0.5145693 -0.53562605
-0.33359542 -0.6973368 -0.52454185 -0.58927006 -0.19074392 -0.5384251 -0.6182124 -0.55472636
-0.6525724 -0.56988853 0.0014321244 0.4742473 -0.630386 -0.55298924 -0.575825 -0.62668306
0.55620635 -0.5728396 -0.53779256 -0.39418447 0.10376704 -0.6934518 -0.64095664 -0.64804286
-0.7370824 -0.6983496 0.58232623 -0.52223325 -0.69722134 0.084391914 -0.5856216 -0.61356944
-0.6203108 -0.5548407 -0.5268453 -0.51140904 -0.5651819 -0.6531632 -0.35394445 -0.6899976
-0.13041522 -0.540985 0.18330719 -0.67210376 -0.58404213 -0.515739 -0.30783856 -0.0014350764
-0.62899977 -0.56184274 -0.61487424 -0.6168613 -0.682985 -0.69774985 -0.72447944 -0.63642746
-0.5592491 -0.7267351 -0.6644956 -0.6251359 -0.57284904 -0.61192125 -0.6503335 0.5278218
-0.5960441 -0.52799803 -0.7209838 -0.6650849 -0.6720616 -0.72004294 -0.6231385 -0.6448156
-0.54283386 -0.55040056 -0.5832398 -0.6664441 0.44950026 -0.69630295 -0.59041727 -0.5362236
-0.67994124 -0.5888599 -0.721014 -0.57911414 -0.5577833 -0.65923566 -0.6233156 -0.5823079
-0.6032229 -0.6117982 -0.5511143 -0.6698016 -0.66058207 -0.7135031 -0.5558265 -0.6157265
-0.56540763 -0.7218771 -0.6613616 -0.6225467 -0.6544598 -0.70501983 -0.66641873 -0.68813306
-0.6249158 -0.6628303 0.56163555 -0.5606397 -0.7175351 -0.597369 -0.66755664 -0.66068876
-0.6425217 -0.7112232 -0.5385691 -0.64148104 -0.5367586 -0.6809623 -0.553831 -0.7060617
-0.62688935 -0.61394 -0.5815986 -0.55304563 -0.63531864 -0.6575691 -0.5781798 -0.6741202
-0.6881355 -0.59185964 -0.575635 -0.6468386 -0.61889875 -0.6241901 -0.6559043 -0.5438888
-0.700486 -0.6802591 -0.70954835 -0.67985654 -0.56082356 -0.6812425 -0.59243125 -0.59895194
-0.5690831 -0.6863246 -0.6332163 -0.5429911 -0.71455926 -0.67331797 -0.6212662 -0.6689666
-0.8763487 -0.7069648 -0.33681947 -0.54344815 -0.89873344 -0.16689283 -0.45095184 -0.30487737
-0.22129308 -0.6355619 -0.30039927 -0.6725841 -0.45247257 -0.19533657 0.35170385 -0.78479224
0.65649444 -0.60612136 -0.29794782 -0.64921314 -0.32124862 -0.6483607 -0.65592104 -0.685255
0.05869363 -0.66196924 -0.69741064 -0.71606076 -0.8368167 -0.59996355 -0.6924161 -0.39536095
-0.54331076 -0.35846198 0.0023733482 -0.30794236 -0.23412457 -0.64178896 -0.7638391 -0.677624
-0.6023616 -0.5970707 0.17509574 -0.6567198 0.5350114 -0.5601419 0.42329246 -0.65248746
-0.3076056 -0.2543737 -0.59258527 -0.11435609 -0.77715504 -0.6527253 -0.5935079 -0.35405204
00000000: 4da9 35bf a9bf bd3e d5f9 79be 39de 043f
00000010: 541e dfbc 2d28 9bbe cae3 a1be 302f 4ebe
00000020: b2f8 13bf 10d9 febe b9b7 0cbf 02ef e23e
00000030: 4597 30bf 377d ecbe 7ec5 0ebf 4f39 15bf
00000040: ce98 2fbf 5d62 10bf de17 713e 0c0e 26bf
00000050: 5177 13bf 6737 23bf b56d 04bf b057 2fbf
00000060: 919e 1dbf 9ef1 28bf 6b77 36bf c0a0 27bf
00000070: 23ab f3be 5201 1bbf f9ba f7be 00a0 febe
00000080: 0247 05bf 1b16 2dbf 51d8 1bbf 19a9 03bf
00000090: a56f 1ebf 78fb 1ebf 732c 39bf 2839 37bf
000000a0: 2e68 22bf 52b9 31bf 9c2e 0bbe eb2d 05bf
000000b0: 631c 26bf e3b0 123f d0ba 03bf ca1e 09bf
000000c0: 05cd aabe aa84 32bf 6048 06bf 67da 16bf
000000d0: 6052 43be 3ad6 09bf 2b43 1ebf 8c02 0ebf
000000e0: fc0e 27bf 37e4 11bf 1fb6 bb3a 8bd0 f23e
000000f0: fa60 21bf b490 0dbf 4469 13bf 4d6e 20bf
00000100: 8a63 0e3f 9ea5 12bf c6ac 09bf 8cd2 c9be
00000110: d083 d43d 0f86 31bf bc15 24bf 23e6 25bf
00000120: 6fb1 3cbf 0ac7 32bf 5513 153f 14b1 05bf
00000130: 197d 32bf abd5 ac3d 4ceb 15bf e312 1dbf
00000140: b0cc 1ebf 0a0a 0ebf 55df 06bf b4eb 02bf
00000150: c3af 10bf b435 27bf 3538 b5be afa3 30bf
00000160: 918b 05be fe7d 0abf e1b4 3b3e fe0e 2cbf
00000170: c983 15bf 7907 04bf 049d 9dbe 2c19 bcba
00000180: 2106 21bf edd4 0fbf 6668 1dbf 9fea 1dbf
00000190: 1bd8 2ebf bc9f 32bf 7c77 39bf e9ec 22bf
000001a0: f32a 0fbf 500b 3abf 621c 2abf e808 20bf
000001b0: 3ca6 12bf dfa6 1cbf 427c 26bf 541f 073f
000001c0: 5996 18bf e12a 07bf 6592 38bf 0143 2abf
000001d0: 3b0c 2cbf bc54 38bf 0186 1fbf a312 25bf
000001e0: 29f7 0abf 0de7 0cbf 344f 15bf 159c 2abf
000001f0: e624 e63e e940 32bf 9625 17bf f345 09bf
00000200: a110 2ebf 86bf 16bf 6094 38bf d340 14bf
00000210: e3ca 0ebf abc3 28bf 9c91 1fbf 2112 15bf
00000220: d16c 1abf cf9e 1cbf d415 0dbf 1e78 2bbf
00000230: e81b 29bf 24a8 36bf a54a 0ebf 40a0 1dbf
00000240: 8ebe 10bf f0cc 38bf fe4e 29bf 385f 1fbf
00000250: ad8a 27bf 2e7c 34bf 6b9a 2abf 7d29 30bf
00000260: 7bfa 1fbf 3faf 29bf 59c7 0f3f 1586 0fbf
00000270: 61b0 37bf 2ded 18bf fee4 2abf e622 29bf
00000280: 4d7c 24bf b912 36bf aadf 09bf 1a38 24bf
00000290: 0369 09bf 8c53 2ebf dec7 0dbf 76c0 34bf
000002a0: d27b 20bf 2c2b 1dbf a5e3 14bf 6694 0dbf
000002b0: 3ea4 22bf 7356 28bf 9703 14bf 2493 2cbf
000002c0: a629 30bf 1d84 17bf d15c 13bf 3797 25bf
000002d0: 2670 1ebf ecca 1fbf 58e9 27bf 4c3c 0bbf
000002e0: 0d53 33bf 7625 2ebf f6a4 35bf 140b 2ebf
000002f0: 2292 0fbf e965 2ebf 93a9 17bf ea54 19bf
00000300: 6eaf 11bf f8b2 2fbf 771a 22bf 7701 0bbf
00000310: 5bed 36bf 915e 2cbf 4d0b 1fbf 6541 2bbf
00000320: 6358 60bf a5fb 34bf 9a73 acbe 6b1f 0bbf
00000330: 6513 66bf f4e5 2abe 29e3 e6be e318 9cbe
00000340: a79a 62be 2fb4 22bf efcd 99be 792e 2cbf
00000350: 7caa e7be 4f06 48be 8712 b43e 25e8 48bf
00000360: 0510 283f c52a 1bbf 9e8c 98be d532 26bf
00000370: b37a a4be f8fa 25bf 71ea 27bf df6c 2fbf
00000380: bb68 703d d176 29bf 8189 32bf c24f 37bf
00000390: 9f39 56bf 3697 19bf 2e42 31bf c06c cabe
000003a0: 6a16 0bbf 5488 b7be 2d8a 1b3b 9faa 9dbe
000003b0: 5abe 6fbe 484c 24bf f68a 43bf c478 2dbf
000003c0: 5f34 1abf a0d9 18bf 4c4c 333e ca1e 28bf
000003d0: 82f6 083f 7665 0fbf cab9 d83e 6b09 27bf
000003e0: 7b7e 9dbe 453d 82be abb3 17bf 8733 eabd
000003f0: a2f3 46bf 0119 27bf 22f0 17bf 4f46 b5be

group.0.bias f4 [100]
0.63096315 -0.6253882 0.16168372 -0.876013 -0.7397243 -0.43171927 0.28331134 -0.5966555
0.33589068 -0.5746577 0.03261995 -0.69914585 -0.6957222 -0.174349 -0.7126113 -0.063292384
0.13892291 -0.7002833 -0.6855792 -0.48136222 0.5999185 0.49161234 -0.64347863 -0.6462541
-0.18270533 -0.7169822 -0.715511 -0.6686284 0.3341307 0.33937886 -0.59935266 0.6722046
-0.6979914 0.31539494 -0.4631042 0.41959733 0.5248357 -0.5688505 0.5749252 -0.22511642
-0.63002753 -0.7087578 -0.33396152 -0.71207577 -0.59412146 -0.62478215 -0.621286 -0.6992639
0.5249899 0.62418556 -0.5911272 0.3440742 -0.11042499 -0.7039627 -0.21878715 0.64012975
-0.43008408 0.49823445 0.4471504 -0.5836082 0.09919137 -0.7246939 -0.7244094 0.5852684
-0.971847 -0.6093413 0.56180793 -0.56882733 -0.55142844 -0.6627581 0.32708818 -0.68728954
-0.6571567 -0.6984273 -0.59112906 -0.57285404 -0.68754244 -0.7211812 -0.7178015 0.5352644
-0.6911962 -0.14328891 0.7312185 0.6471673 0.7171231 -0.5930837 -0.6413209 -0.6283286
-0.6159934 -0.605406 -0.56429005 -0.19383179 0.59012604 0.028512254 -0.4622611 -0.5680417
0.18444243 -0.71693385 0.18206361 0.375937
00000000: cd86 213f 7119 20bf 6b90 253e 6342 60bf
00000010: 925e 3dbf 4f0a ddbe 2f0e 913e 6abe 18bf
00000020: ddf9 ab3e c41c 13bf 7f9c 053d 39fb 32bf
00000030: da1a 32bf 8b88 32be b26d 36bf 709f 81bd
00000040: cf41 0e3e c445 33bf 1e82 2fbf 1c75 f6be
00000050: 4294 193f 9db4 fb3e 04bb 24bf e970 25bf
00000060: 1b17 3bbe 258c 37bf bb2b 37bf 3b2b 2bbf
00000070: 2e13 ab3e 11c3 ad3e 2d6f 19bf 9a15 2c3f
00000080: 90af 32bf 727b a13e fe1b edbe 76d5 d63e
00000090: a25b 063f 30a0 11bf 4c2e 133f eb84 66be
000000a0: 7c49 21bf 2771 35bf 01fd aabe 994a 36bf
000000b0: 5818 18bf b9f1 1fbf 990c 1fbf f502 33bf
000000c0: bd65 063f a0ca 1f3f 1d54 17bf 7e2a b03e
000000d0: 7f26 e2bd e636 34bf bd09 60be 8bdf 233f
000000e0: fb33 dcbe 9618 ff3e e6f0 e43e 5967 15bf
000000f0: d824 cb3d 8a85 39bf e572 39bf 26d4 153f
00000100: f7ca 78bf cbfd 1bbf a5d2 0f3f ab9e 11bf
00000110: 6a2a 0dbf 84aa 29bf 1a78 a73e 35f2 2fbf
00000120: 6c3b 28bf 22cc 32bf 3c54 17bf 90a6 12bf
00000130: c802 30bf 559f 38bf d7c1 37bf 1607 093f
00000140: 3cf2 30bf 54ba 12be 2331 3b3f c2ac 253f
00000150: 6195 373f 55d4 17bf 9b2d 24bf 25da 20bf
00000160: beb1 1dbf e3fb 1abf 5075 10bf d77b 46be
00000170: 8012 173f 8892 e93c 7dad ecbe 2e6b 11bf
00000180: 7ade 3c3e fa88 37bf e26e 3a3e d17a c03e

fc1.weight f4 [100, 240]
-0.690431 -0.6880522 -0.7035552 -0.6787877 -0.66203964 -0.68583655 -0.73140913 -0.4226427
0.056675654 -0.5745501 -0.70576257 -0.19508755 -0.5068273 -0.45854613 -0.13008846 -0.2004806
-0.58076197 -0.7360378 -0.7418883 -0.6253145 -0.7288426 -0.37529615 -0.5505806 -0.52372015
-0.48818958 -0.61638784 -0.38659263 0.040319484 0.28765675 0.18360019 -0.2540706 -0.6015926
-0.539581 -0.35128424 -0.034578186 0.032888174 -0.61465186 -0.35905898 -0.4320412 -0.5783308
-0.36988652 -0.70247453 -0.7216298 -0.4963744 -0.07847839 -0.33322933 -0.3122946 -0.55519366
-0.62057173 0.12712735 0.14110802 0.09099829 -0.18598525 -0.4341759 -0.5129871 -0.55030966
-0.73082054 -0.73698837 -0.6461964 -0.78577167 0.13201548 -0.54330546 -0.6573918 0.09048465
0.18912116 -0.019757401 -0.56350315 -0.257615 0.04831778 0.24123234 -0.28090727 -0.5478332
-0.68110937 -0.7022221 0.020608624 0.10561441 -0.56732655 0.11266686 -0.07612164 -0.37539613
-0.6133674 -0.64139956 -0.63071585 -0.607209 -0.627889 -0.6585929 -0.6484305 -0.7195328
-0.66365725 -0.6892269 -0.60807866 -0.6047161 -0.62131643 -0.6522448 -0.618459 -0.6689564
-0.66089016 -0.54598105 -0.71046305 -0.614498 -0.63913095 -0.6959833 -0.74290806 -0.7375586
-0.64277303 -0.7038809 -0.6807757 -0.73646045 -0.6657004 -0.7223413 -0.6390514 -0.5979432
-0.49358365 -0.50374496 -0.6241373 -0.7056273 -0.6557352 -0.6954366 -0.7315227 -0.7553963
-0.7218001 -0.6621025 -0.62856853 -0.6509717 -0.7178071 -0.73127013 -0.6636094 -0.52081954
-0.5688488 -0.5714252 -0.72202486 -0.70223 -0.6732277 -0.7371877 -0.64921045 -0.64408356
-0.7031062 -0.62965643 -0.64352554 -0.6915069 -0.70784837 -0.7371921 -0.59839123 -0.6510499
-0.45003545 -0.63695717 -0.68111247 -0.6409678 -0.71682537 -0.6521293 -0.68721783 -0.72547746
-0.7020977 -0.59681135 -0.7221058 -0.73241925 -0.7195484 -0.695751 -0.57358927 -0.6102401
-0.17239363 -0.5720963 -0.610925 -0.21650454 -0.38950482 -0.22186592 -0.6262066 -0.59300494
-0.38608107 -0.6587944 -0.5794174 -0.17766114 -0.39285633 -0.67254823 -0.63946277 -0.08291913
0.064465806 -0.57149565 -0.62287736 -0.4459264 -0.48195383 -0.075275265 -0.690038 -0.62278163
-0.5601742 -0.63791996 0.049958594 -0.5938628 -0.42820555 -0.57706386 -0.31620952 0.15832317
-0.32597247 -0.5605655 -0.6985012 -0.30158192 -0.14510107 -0.41918164 -0.5414707 -0.57439405
-0.551242 -0.20333517 -0.6804839 -0.1960896 -0.50889903 -0.57650256 -0.111191496 -0.20264165
-0.27057302 -0.66073895 -0.724067 -0.5192897 -0.18319069 -0.11638721 -0.6708141 -0.1061749
-0.26022115 -0.70719534 -0.38853648 -0.660335 -0.2774178 -0.2998253 -0.3746586 -0.23193614
-0.19973552 -0.6373773 -0.6092178 -0.3158236 -0.055465564 -0.50030494 -0.6652272 -0.13992009
-0.57087004 -0.5333246 -0.21590874 -0.49439117 -0.5405606 -0.27813056 -0.4029578 -0.088001
0.06555516 0.05291923 0.13208039 0.1290352 -0.050320487 -0.10681311 -0.060053334 0.10273456
0.2853713 0.09966923 -0.49509597 -0.12332609 0.19114436 0.25716925 0.14718331 0.068841666
00000000: 16c0 30bf 3024 30bf 321c 34bf 08c5 2dbf
00000010: 6e7b 29bf fc92 2fbf a13d 3bbf a064 d8be
00000020: bb24 683d b715 13bf dbac 34bf 08c5 47be
00000030: 6fbf 01bf 8fc6 eabe e935 05be c94a 4dbe
00000040: d1ac 14bf f96c 3cbf 64ec 3dbf 9c14 20bf
00000050: 6e95 3abf d126 c0be daf2 0cbf 8612 06bf
00000060: fcf3 f9be 98cb 1dbf 78ef c5be 0b26 253d
00000070: bf47 933e b001 3c3e 8b15 82be f901 1abf
00000080: fb21 0abf 87db b3be dba1 0dbd c0b5 063d
00000090: d359 1dbf 94d6 b7be 8134 ddbe 7d0d 14bf
000000a0: c461 bdbe 5fd5 33bf bbbc 38bf c924 febe
000000b0: 47b9 a0bd 099d aabe 14e5 9fbe 2c21 0ebf
000000c0: cadd 1ebf ac2d 023e 9f7e 103e 505d ba3d
000000d0: eb72 3ebe 4e4c debe 1f53 03bf 18e1 0cbf
000000e0: 0e17 3bbf 45ab 3cbf 216d 25bf 5528 49bf
000000f0: 112f 073e 1116 0bbf d44a 28bf 0450 b93d
00000100: faa8 413e 46da a1bc be41 10bf 1de6 83be
00000110: dde8 453d 9c05 773e 14d3 8fbe cc3e 0cbf
00000120: 2f5d 2ebf d4c4 33bf 6bd3 a83c 5e4c d83d
00000130: 503c 11bf e2bd e63d aae5 9bbd ec33 c0be
00000140: a505 1dbf c332 24bf 9876 21bf 0d72 1bbf
00000150: 55bd 20bf 8b99 28bf 8bff 25bf 4d33 38bf
00000160: 71e5 29bf 2d71 30bf 0bab 1bbf adce 1abf
00000170: 980e 1fbf 84f9 26bf 5453 1ebf ba40 2bbf
00000180: 1930 29bf 6ac5 0bbf e8e0 35bf be4f 1dbf
00000190: 169e 23bf f62b 32bf 392f 3ebf a4d0 3cbf
000001a0: c68c 24bf 8a31 34bf 5147 2ebf ac88 3cbf
000001b0: 576b 2abf 5ceb 38bf df98 23bf ce12 19bf
000001c0: ffb6 fcbe 6ef5 00bf 76c7 1fbf fea3 34bf
000001d0: 43de 27bf 2208 32bf 1245 3bbf a761 41bf
000001e0: e4c7 38bf 8d7f 29bf dee9 20bf 15a6 26bf
000001f0: 35c2 37bf 8534 3bbf 4ee2 29bf 6e54 05bf
00000200: 13a0 11bf ec48 12bf 9fd6 38bf 58c5 33bf
00000210: a758 2cbf 55b8 3cbf a832 26bf a9e2 24bf
00000220: c5fe 33bf 2a31 21bf 17be 24bf 9906 31bf
00000230: 8d35 35bf 9fb8 3cbf 2b30 19bf 35ab 26bf
00000240: 0c6b e6be a00f 23bf 635d 2ebf 7716 24bf
00000250: de81 37bf f2f1 26bf 82ed 2fbf e4b8 39bf
00000260: adbc 33bf a1c8 18bf eddb 38bf d47f 3bbf
00000270: 5334 38bf bd1c 32bf bfd6 12bf b238 1cbf
00000280: f587 30be e774 12bf 9565 1cbf 5eb3 5dbe
00000290: 2d6d c7be d230 63be 134f 20bf 2ccf 17bf
000002a0: 6bac c5be c0a6 28bf b354 14bf cdec 35be
000002b0: 7724 c9be 1f2c 2cbf d5b3 23bf 81d1 a9bd
000002c0: a606 843d 8a4d 12bf e474 1fbf 7750 e4be
000002d0: a7c2 f6be eb29 9abd 55a6 30bf 9e6e 1fbf
000002e0: 9467 0fbf b94e 23bf 62a1 4c3d 6407 18bf
000002f0: c23d dbbe 75ba 13bf 37e6 a1be 781f 223e
00000300: dde5 a6be 3881 0fbf fad0 32bf f268 9abe
00000310: 6095 14be fa9e d6be d39d 0abf 7d0b 13bf
00000320: 321e 0dbf 1837 50be 3134 2ebf b6cb 48be
00000330: 3547 02bf ac95 13bf 5eb8 e3bd 4b81 4fbe
00000340: 8c88 8abe 3026 29bf 745c 39bf 2bf0 04bf
00000350: 5796 3bbe 6b5c eebd 79ba 2bbf 3a72 d9bd
00000360: b53b 85be c10a 35bf 41ee c6be b70b 29bf
00000370: b509 8ebe b482 99be 41d3 bfbe ab80 6dbe
00000380: 7887 4cbe 292b 23bf b3f5 1bbf a2b3 a1be
00000390: dc2f 63bd fc13 00bf 544c 2abf 3647 0fbe
000003a0: 8a24 12bf f687 08bf 2e17 5dbe d720 fdbe
000003b0: 2e62 0abf 2167 8ebe 7c50 cebe de39 b4bd
000003c0: c941 863d d6c1 583d 1540 073e ce21 043e
000003d0: db1c 4ebd d5c0 dabd 7cfa 75bd 7f66 d23d
000003e0: 301c 923e 621f cc3d 387d fdbe 6492 fcbd
000003f0: 59bb 433e b0ab 833e 39b7 163e dcfc 8c3d

fc1.bias f4 [100]
-0.10372324 -0.66200995 -0.7361619 -0.5425063 -0.42678404 -0.3529432 0.07398725 -0.6913837
-0.50446135 -0.66858065 0.13921645 -0.1757743 -0.54022014 -0.5238601 -0.3314607 0.02054516
-0.5801914 -0.6650027 -0.63120854 -0.0031842631 -0.5277067 -0.3800825 -0.52453774 -0.6008724
-0.4932909 -0.39182243 -0.36284867 -0.37705344 -0.15380792 -0.5621573 -0.71219605 0.21375555
-0.68223786 -0.45162073 -0.73244256 -0.59468883 -0.4121675 -0.38266504 -0.18849646 0.32374915
-0.7555386 -0.28558412 -0.6603722 -0.73747855 -0.07740631 -0.66573256 -0.5468106 -0.48989448
-0.09604823 -0.067809224 0.114028774 -0.39520058 -0.6381992 -0.63549495 -0.22295725 0.44191658
0.2234679 -0.3723765 -0.2160696 -0.7054225 -0.48981026 -0.096923105 -0.5658541 -0.5785744
-0.6537253 -0.6930695 -0.56393284 -0.6884154 -0.6696616 -0.5462995 0.476696 0.4349626
-0.16560714 -0.46039692 0.17111333 -0.6549834 0.074125424 -0.49706188 -0.7048931 -0.4698728
-0.7120289 -0.6383324 -0.45278513 0.3333715 -0.41951463 -0.09967363 -0.47685975 -0.6710969
-0.69813704 -0.6970299 0.05411761 -0.7415183 0.062219862 -0.59712213 -0.6648448 0.08203574
-0.05809248 -0.6386085 -0.6448704 -0.563964
00000000: da6c d4bd 7c79 29bf 1b75 3cbf b1e1 0abf
00000010: 7083 dabe f9b4 b4be a186 973d 86fe 30bf
00000020: 6124 01bf 1a28 2bbf c28e 0e3e 2efe 33be
00000030: de4b 0abf b21b 06bf 38b5 a9be 534e a83c
00000040: 6c87 14bf 9e3d 2abf e296 21bf 12af 50bb
00000050: c917 07bf 2c9a c2be 1b48 06bf c6d2 19bf
00000060: a090 fcbe f39c c8be 4dc7 b9be 260d c1be
00000070: d37f 1dbe 8ae9 0fbf 7b52 36bf bce2 5a3e
00000080: 24a7 2ebf d53a e7be 5b81 3bbf 873d 18bf
00000090: 9e07 d3be acec c3be 3705 41be 73c2 a53e
000000a0: fa6a 41bf 1538 92be 270e 29bf 65cb 3cbf
000000b0: 3387 9ebd 736d 2abf c8fb 0bbf 73d3 fabe
000000c0: efb4 c4bd 90df 8abd eb87 e93d bb57 cabe
000000d0: 0661 23bf ccaf 22bf e84e 64be e442 e23e
000000e0: c5d4 643e 22a8 bebe 5941 5dbe 9296 34bf
000000f0: 69c8 fabe 9f7f c6bd d0db 10bf 741d 14bf
00000100: 8b5a 27bf 016d 31bf e75d 10bf fe3b 30bf
00000110: f16e 2bbf 49da 0bbf 8011 f43e 6bb3 de3e
00000120: eb94 29be 25b9 ebbe 5538 2f3e feac 27bf
00000130: 12cf 973d e57e febe e073 34bf 2b93 f0be
00000140: 8747 36bf c169 23bf 74d3 e7be abaf aa3e
00000150: 9fca d6be b021 ccbd f626 f4be 02cd 2bbf
00000160: 1cb9 32bf 8d70 32bf 6daa 5d3d 25d4 3dbf
00000170: 41da 7e3d ffdc 18bf 4533 2abf 5b02 a83d
00000180: 61f2 6dbd d97b 23bf 3a16 25bf f25f 10bf

fc2.0.0.weight f4 [100, 100]
-0.7096146 0.37060288 -0.2441171 0.51901585 -0.027236141 -0.3030409 -0.31619102 -0.20135188
-0.57801354 -0.4977498 -0.5496784 0.44322973 -0.6898082 -0.4618928 -0.557701 -0.5829057
-0.68592536 -0.5640009 0.23544261 -0.64865184 -0.5760394 -0.6375641 -0.517299 -0.68493176
-0.6157008 -0.6599368 -0.7127597 -0.6547966 -0.47591504 -0.6054889 -0.48384836 -0.49731445
-0.52061474 -0.67611855 -0.6087695 -0.514299 -0.61889106 -0.6210246 -0.7233345 -0.7157159
-0.63440216 -0.694234 -0.13591999 -0.5202319 -0.64887065 0.5730116 -0.5145693 -0.53562605
-0.33359542 -0.6973368 -0.52454185 -0.58927006 -0.19074392 -0.5384251 -0.6182124 -0.55472636
-0.6525724 -0.56988853 0.0014321244 0.4742473 -0.630386 -0.55298924 -0.575825 -0.62668306
0.55620635 -0.5728396 -0.53779256 -0.39418447 0.10376704 -0.6934518 -0.64095664 -0.64804286
-0.7370824 -0.6983496 0.58232623 -0.52223325 -0.69722134 0.084391914 -0.5856216 -0.61356944
-0.6203108 -0.5548407 -0.5268453 -0.51140904 -0.5651819 -0.6531632 -0.35394445 -0.6899976
-0.13041522 -0.540985 0.18330719 -0.67210376 -0.58404213 -0.515739 -0.30783856 -0.0014350764
-0.62899977 -0.56184274 -0.61487424 -0.6168613 -0.682985 -0.69774985 -0.72447944 -0.63642746
-0.5592491 -0.7267351 -0.6644956 -0.6251359 -0.57284904 -0.61192125 -0.6503335 0.5278218
-0.5960441 -0.52799803 -0.7209838 -0.6650849 -0.6720616 -0.72004294 -0.6231385 -0.6448156
-0.54283386 -0.55040056 -0.5832398 -0.6664441 0.44950026 -0.69630295 -0.59041727 -0.5362236
-0.67994124 -0.5888599 -0.721014 -0.57911414 -0.5577833 -0.65923566 -0.6233156 -0.5823079
-0.6032229 -0.6117982 -0.5511143 -0.6698016 -0.66058207 -0.7135031 -0.5558265 -0.6157265
-0.56540763 -0.7218771 -0.6613616 -0.6225467 -0.6544598 -0.70501983 -0.66641873 -0.68813306
-0.6249158 -0.6628303 0.56163555 -0.5606397 -0.7175351 -0.597369 -0.66755664 -0.66068876
-0.6425217 -0.7112232 -0.5385691 -0.64148104 -0.5367586 -0.6809623 -0.553831 -0.7060617
-0.62688935 -0.61394 -0.5815986 -0.55304563 -0.63531864 -0.6575691 -0.5781798 -0.6741202
-0.6881355 -0.59185964 -0.575635 -0.6468386 -0.61889875 -0.6241901 -0.6559043 -0.5438888
-0.700486 -0.6802591 -0.70954835 -0.67985654 -0.56082356 -0.6812425 -0.59243125 -0.59895194
-0.5690831 -0.6863246 -0.6332163 -0.5429911 -0.71455926 -0.67331797 -0.6212662 -0.6689666
-0.8763487 -0.7069648 -0.33681947 -0.54344815 -0.89873344 -0.16689283 -0.45095184 -0.30487737
-0.22129308 -0.6355619 -0.30039927 -0.6725841 -0.45247257 -0.19533657 0.35170385 -0.78479224
0.65649444 -0.60612136 -0.29794782 -0.64921314 -0.32124862 -0.6483607 -0.65592104 -0.685255
0.05869363 -0.66196924 -0.69741064 -0.71606076 -0.8368167 -0.59996355 -0.6924161 -0.39536095
-0.54331076 -0.35846198 0.0023733482 -0.30794236 -0.23412457 -0.64178896 -0.7638391 -0.677624
-0.6023616 -0.5970707 0.17509574 -0.6567198 0.5350114 -0.5601419 0.42329246 -0.65248746
-0.3076056 -0.2543737 -0.59258527 -0.11435609 -0.77715504 -0.6527253 -0.5935079 -0.35405204
00000000: 4da9 35bf a9bf bd3e d5f9 79be 39de 043f
00000010: 541e dfbc 2d28 9bbe cae3 a1be 302f 4ebe
00000020: b2f8 13bf 10d9 febe b9b7 0cbf 02ef e23e
00000030: 4597 30bf 377d ecbe 7ec5 0ebf 4f39 15bf
00000040: ce98 2fbf 5d62 10bf de17 713e 0c0e 26bf
00000050: 5177 13bf 6737 23bf b56d 04bf b057 2fbf
00000060: 919e 1dbf 9ef1 28bf 6b77 36bf c0a0 27bf
00000070: 23ab f3be 5201 1bbf f9ba f7be 00a0 febe
00000080: 0247 05bf 1b16 2dbf 51d8 1bbf 19a9 03bf
00000090: a56f 1ebf 78fb 1ebf 732c 39bf 2839 37bf
000000a0: 2e68 22bf 52b9 31bf 9c2e 0bbe eb2d 05bf
000000b0: 631c 26bf e3b0 123f d0ba 03bf ca1e 09bf
000000c0: 05cd aabe aa84 32bf 6048 06bf 67da 16bf
000000d0: 6052 43be 3ad6 09bf 2b43 1ebf 8c02 0ebf
000000e0: fc0e 27bf 37e4 11bf 1fb6 bb3a 8bd0 f23e
000000f0: fa60 21bf b490 0dbf 4469 13bf 4d6e 20bf
00000100: 8a63 0e3f 9ea5 12bf c6ac 09bf 8cd2 c9be
00000110: d083 d43d 0f86 31bf bc15 24bf 23e6 25bf
00000120: 6fb1 3cbf 0ac7 32bf 5513 153f 14b1 05bf
00000130: 197d 32bf abd5 ac3d 4ceb 15bf e312 1dbf
00000140: b0cc 1ebf 0a0a 0ebf 55df 06bf b4eb 02bf
00000150: c3af 10bf b435 27bf 3538 b5be afa3 30bf
00000160: 918b 05be fe7d 0abf e1b4 3b3e fe0e 2cbf
00000170: c983 15bf 7907 04bf 049d 9dbe 2c19 bcba
00000180: 2106 21bf edd4 0fbf 6668 1dbf 9fea 1dbf
00000190: 1bd8 2ebf bc9f 32bf 7c77 39bf e9ec 22bf
000001a0: f32a 0fbf 500b 3abf 621c 2abf e808 20bf
000001b0: 3ca6 12bf dfa6 1cbf 427c 26bf 541f 073f
000001c0: 5996 18bf e12a 07bf 6592 38bf 0143 2abf
000001d0: 3b0c 2cbf bc54 38bf 0186 1fbf a312 25bf
000001e0: 29f7 0abf 0de7 0cbf 344f 15bf 159c 2abf
000001f0: e624 e63e e940 32bf 9625 17bf f345 09bf
00000200: a110 2ebf 86bf 16bf 6094 38bf d340 14bf
00000210: e3ca 0ebf abc3 28bf 9c91 1fbf 2112 15bf
00000220: d16c 1abf cf9e 1cbf d415 0dbf 1e78 2bbf
00000230: e81b 29bf 24a8 36bf a54a 0ebf 40a0 1dbf
00000240: 8ebe 10bf f0cc 38bf fe4e 29bf 385f 1fbf
00000250: ad8a 27bf 2e7c 34bf 6b9a 2abf 7d29 30bf
00000260: 7bfa 1fbf 3faf 29bf 59c7 0f3f 1586 0fbf
00000270: 61b0 37bf 2ded 18bf fee4 2abf e622 29bf
00000280: 4d7c 24bf b912 36bf aadf 09bf 1a38 24bf
00000290: 0369 09bf 8c53 2ebf dec7 0dbf 76c0 34bf
000002a0: d27b 20bf 2c2b 1dbf a5e3 14bf 6694 0dbf
000002b0: 3ea4 22bf 7356 28bf 9703 14bf 2493 2cbf
000002c0: a629 30bf 1d84 17bf d15c 13bf 3797 25bf
000002d0: 2670 1ebf ecca 1fbf 58e9 27bf 4c3c 0bbf
000002e0: 0d53 33bf 7625 2ebf f6a4 35bf 140b 2ebf
000002f0: 2292 0fbf e965 2ebf 93a9 17bf ea54 19bf
00000300: 6eaf 11bf f8b2 2fbf 771a 22bf 7701 0bbf
00000310: 5bed 36bf 915e 2cbf 4d0b 1fbf 6541 2bbf
00000320: 6358 60bf a5fb 34bf 9a73 acbe 6b1f 0bbf
00000330: 6513 66bf f4e5 2abe 29e3 e6be e318 9cbe
00000340: a79a 62be 2fb4 22bf efcd 99be 792e 2cbf
00000350: 7caa e7be 4f06 48be 8712 b43e 25e8 48bf
00000360: 0510 283f c52a 1bbf 9e8c 98be d532 26bf
00000370: b37a a4be f8fa 25bf 71ea 27bf df6c 2fbf
00000380: bb68 703d d176 29bf 8189 32bf c24f 37bf
00000390: 9f39 56bf 3697 19bf 2e42 31bf c06c cabe
000003a0: 6a16 0bbf 5488 b7be 2d8a 1b3b 9faa 9dbe
000003b0: 5abe 6fbe 484c 24bf f68a 43bf c478 2dbf
000003c0: 5f34 1abf a0d9 18bf 4c4c 333e ca1e 28bf
000003d0: 82f6 083f 7665 0fbf cab9 d83e 6b09 27bf
000003e0: 7b7e 9dbe 453d 82be abb3 17bf 8733 eabd
000003f0: a2f3 46bf 0119 27bf 22f0 17bf 4f46 b5be

fc2.0.0.bias f4 [100]
0.63096315 -0.6253882 0.16168372 -0.876013 -0.7397243 -0.43171927 0.28331134 -0.5966555
0.33589068 -0.5746577 0.03261995 -0.69914585 -0.6957222 -0.174349 -0.7126113 -0.063292384
0.13892291 -0.7002833 -0.6855792 -0.48136222 0.5999185 0.49161234 -0.64347863 -0.6462541
-0.18270533 -0.7169822 -0.715511 -0.6686284 0.3341307 0.33937886 -0.59935266 0.6722046
-0.6979914 0.31539494 -0.4631042 0.41959733 0.5248357 -0.5688505 0.5749252 -0.22511642
-0.63002753 -0.7087578 -0.33396152 -0.71207577 -0.59412146 -0.62478215 -0.621286 -0.6992639
0.5249899 0.62418556 -0.5911272 0.3440742 -0.11042499 -0.7039627 -0.21878715 0.64012975
-0.43008408 0.49823445 0.4471504 -0.5836082 0.09919137 -0.7246939 -0.7244094 0.5852684
-0.971847 -0.6093413 0.56180793 -0.56882733 -0.55142844 -0.6627581 0.32708818 -0.68728954
-0.6571567 -0.6984273 -0.59112906 -0.57285404 -0.68754244 -0.7211812 -0.7178015 0.5352644
-0.6911962 -0.14328891 0.7312185 0.6471673 0.7171231 -0.5930837 -0.6413209 -0.6283286
-0.6159934 -0.605406 -0.56429005 -0.19383179 0.59012604 0.028512254 -0.4622611 -0.5680417
0.18444243 -0.71693385 0.18206361 0.375937
00000000: cd86 213f 7119 20bf 6b90 253e 6342 60bf
00000010: 925e 3dbf 4f0a ddbe 2f0e 913e 6abe 18bf
00000020: ddf9 ab3e c41c 13bf 7f9c 053d 39fb 32bf
00000030: da1a 32bf 8b88 32be b26d 36bf 709f 81bd
00000040: cf41 0e3e c445 33bf 1e82 2fbf 1c75 f6be
00000050: 4294 193f 9db4 fb3e 04bb 24bf e970 25bf
00000060: 1b17 3bbe 258c 37bf bb2b 37bf 3b2b 2bbf
00000070: 2e13 ab3e 11c3 ad3e 2d6f 19bf 9a15 2c3f
00000080: 90af 32bf 727b a13e fe1b edbe 76d5 d63e
00000090: a25b 063f 30a0 11bf 4c2e 133f eb84 66be
000000a0: 7c49 21bf 2771 35bf 01fd aabe 994a 36bf
000000b0: 5818 18bf b9f1 1fbf 990c 1fbf f502 33bf
000000c0: bd65 063f a0ca 1f3f 1d54 17bf 7e2a b03e
000000d0: 7f26 e2bd e636 34bf bd09 60be 8bdf 233f
000000e0: fb33 dcbe 9618 ff3e e6f0 e43e 5967 15bf
000000f0: d824 cb3d 8a85 39bf e572 39bf 26d4 153f
00000100: f7ca 78bf cbfd 1bbf a5d2 0f3f ab9e 11bf
00000110: 6a2a 0dbf 84aa 29bf 1a78 a73e 35f2 2fbf
00000120: 6c3b 28bf 22cc 32bf 3c54 17bf 90a6 12bf
00000130: c802 30bf 559f 38bf d7c1 37bf 1607 093f
00000140: 3cf2 30bf 54ba 12be 2331 3b3f c2ac 253f
00000150: 6195 373f 55d4 17bf 9b2d 24bf 25da 20bf
00000160: beb1 1dbf e3fb 1abf 5075 10bf d77b 46be
00000170: 8012 173f 8892 e93c 7dad ecbe 2e6b 11bf
00000180: 7ade 3c3e fa88 37bf e26e 3a3e d17a c03e

fc2.1.0.weight f4 [100, 100]
-0.7096146 0.37060288 -0.2441171 0.51901585 -0.027236141 -0.3030409 -0.31619102 -0.20135188
-0.57801354 -0.4977498 -0.5496784 0.44322973 -0.6898082 -0.4618928 -0.557701 -0.5829057
-0.68592536 -0.5640009 0.23544261 -0.64865184 -0.5760394 -0.6375641 -0.517299 -0.68493176
-0.6157008 -0.6599368 -0.7127597 -0.6547966 -0.47591504 -0.6054889 -0.48384836 -0.49731445
-0.52061474 -0.67611855 -0.6087695 -0.514299 -0.61889106 -0.6210246 -0.7233345 -0.7157159
-0.63440216 -0.694234 -0.13591999 -0.5202319 -0.64887065 0.5730116 -0.5145693 -0.53562605
-0.33359542 -0.6973368 -0.52454185 -0.58927006 -0.19074392 -0.5384251 -0.6182124 -0.55472636
-0.6525724 -0.56988853 0.0014321244 0.4742473 -0.630386 -0.55298924 -0.575825 -0.62668306
0.55620635 -0.5728396 -0.53779256 -0.39418447 0.10376704 -0.6934518 -0.64095664 -0.64804286
-0.7370824 -0.6983496 0.58232623 -0.52223325 -0.69722134 0.084391914 -0.5856216 -0.61356944
-0.6203108 -0.5548407 -0.5268453 -0.51140904 -0.5651819 -0.6531632 -0.35394445 -0.6899976
-0.13041522 -0.540985 0.18330719 -0.67210376 -0.58404213 -0.515739 -0.30783856 -0.0014350764
-0.62899977 -0.56184274 -0.61487424 -0.6168613 -0.682985 -0.69774985 -0.72447944 -0.63642746
-0.5592491 -0.7267351 -0.6644956 -0.6251359 -0.57284904 -0.61192125 -0.6503335 0.5278218
-0.5960441 -0.52799803 -0.7209838 -0.6650849 -0.6720616 -0.72004294 -0.6231385 -0.6448156
-0.54283386 -0.55040056 -0.5832398 -0.6664441 0.44950026 -0.69630295 -0.59041727 -0.5362236
-0.67994124 -0.5888599 -0.721014 -0.57911414 -0.5577833 -0.65923566 -0.6233156 -0.5823079
-0.6032229 -0.6117982 -0.5511143 -0.6698016 -0.66058207 -0.7135031 -0.5558265 -0.6157265
-0.56540763 -0.7218771 -0.6613616 -0.6225467 -0.6544598 -0.70501983 -0.66641873 -0.68813306
-0.6249158 -0.6628303 0.56163555 -0.5606397 -0.7175351 -0.597369 -0.66755664 -0.66068876
-0.6425217 -0.7112232 -0.5385691 -0.64148104 -0.5367586 -0.6809623 -0.553831 -0.7060617
-0.62688935 -0.61394 -0.5815986 -0.55304563 -0.63531864 -0.6575691 -0.5781798 -0.6741202
-0.6881355 -0.59185964 -0.575635 -0.6468386 -0.61889875 -0.6241901 -0.6559043 -0.5438888
-0.700486 -0.6802591 -0.70954835 -0.67985654 -0.56082356 -0.6812425 -0.59243125 -0.59895194
-0.5690831 -0.6863246 -0.6332163 -0.5429911 -0.71455926 -0.67331797 -0.6212662 -0.6689666
-0.8763487 -0.7069648 -0.33681947 -0.54344815 -0.89873344 -0.16689283 -0.45095184 -0.30487737
-0.22129308 -0.6355619 -0.30039927 -0.6725841 -0.45247257 -0.19533657 0.35170385 -0.78479224
0.65649444 -0.60612136 -0.29794782 -0.64921314 -0.32124862 -0.6483607 -0.65592104 -0.685255
0.05869363 -0.66196924 -0.69741064 -0.71606076 -0.8368167 -0.59996355 -0.6924161 -0.39536095
-0.54331076 -0.35846198 0.0023733482 -0.30794236 -0.23412457 -0.64178896 -0.7638391 -0.677624
-0.6023616 -0.5970707 0.17509574 -0.6567198 0.5350114 -0.5601419 0.42329246 -0.65248746
-0.3076056 -0.2543737 -0.59258527 -0.11435609 -0.77715504 -0.6527253 -0.5935079 -0.35405204
00000000: 4da9 35bf a9bf bd3e d5f9 79be 39de 043f
00000010: 541e dfbc 2d28 9bbe cae3 a1be 302f 4ebe
00000020: b2f8 13bf 10d9 febe b9b7 0cbf 02ef e23e
00000030: 4597 30bf 377d ecbe 7ec5 0ebf 4f39 15bf
00000040: ce98 2fbf 5d62 10bf de17 713e 0c0e 26bf
00000050: 5177 13bf 6737 23bf b56d 04bf b057 2fbf
00000060: 919e 1dbf 9ef1 28bf 6b77 36bf c0a0 27bf
00000070: 23ab f3be 5201 1bbf f9ba f7be 00a0 febe
00000080: 0247 05bf 1b16 2dbf 51d8 1bbf 19a9 03bf
00000090: a56f 1ebf 78fb 1ebf 732c 39bf 2839 37bf
000000a0: 2e68 22bf 52b9 31bf 9c2e 0bbe eb2d 05bf
000000b0: 631c 26bf e3b0 123f d0ba 03bf ca1e 09bf
000000c0: 05cd aabe aa84 32bf 6048 06bf 67da 16bf
000000d0: 6052 43be 3ad6 09bf 2b43 1ebf 8c02 0ebf
000000e0: fc0e 27bf 37e4 11bf 1fb6 bb3a 8bd0 f23e
000000f0: fa60 21bf b490 0dbf 4469 13bf 4d6e 20bf
00000100: 8a63 0e3f 9ea5 12bf c6ac 09bf 8cd2 c9be
00000110: d083 d43d 0f86 31bf bc15 24bf 23e6 25bf
00000120: 6fb1 3cbf 0ac7 32bf 5513 153f 14b1 05bf
00000130: 197d 32bf abd5 ac3d 4ceb 15bf e312 1dbf
00000140: b0cc 1ebf 0a0a 0ebf 55df 06bf b4eb 02bf
00000150: c3af 10bf b435 27bf 3538 b5be afa3 30bf
00000160: 918b 05be fe7d 0abf e1b4 3b3e fe0e 2cbf
00000170: c983 15bf 7907 04bf 049d 9dbe 2c19 bcba
00000180: 2106 21bf edd4 0fbf 6668 1dbf 9fea 1dbf
00000190: 1bd8 2ebf bc9f 32bf 7c77 39bf e9ec 22bf
000001a0: f32a 0fbf 500b 3abf 621c 2abf e808 20bf
000001b0: 3ca6 12bf dfa6 1cbf 427c 26bf 541f 073f
000001c0: 5996 18bf e12a 07bf 6592 38bf 0143 2abf
000001d0: 3b0c 2cbf bc54 38bf 0186 1fbf a312 25bf
000001e0: 29f7 0abf 0de7 0cbf 344f 15bf 159c 2abf
000001f0: e624 e63e e940 32bf 9625 17bf f345 09bf
00000200: a110 2ebf 86bf 16bf 6094 38bf d340 14bf
00000210: e3ca 0ebf abc3 28bf 9c91 1fbf 2112 15bf
00000220: d16c 1abf cf9e 1cbf d415 0dbf 1e78 2bbf
00000230: e81b 29bf 24a8 36bf a54a 0ebf 40a0 1dbf
00000240: 8ebe 10bf f0cc 38bf fe4e 29bf 385f 1fbf
00000250: ad8a 27bf 2e7c 34bf 6b9a 2abf 7d29 30bf
00000260: 7bfa 1fbf 3faf 29bf 59c7 0f3f 1586 0fbf
00000270: 61b0 37bf 2ded 18bf fee4 2abf e622 29bf
00000280: 4d7c 24bf b912 36bf aadf 09bf 1a38 24bf
00000290: 0369 09bf 8c53 2ebf dec7 0dbf 76c0 34bf
000002a0: d27b 20bf 2c2b 1dbf a5e3 14bf 6694 0dbf
000002b0: 3ea4 22bf 7356 28bf 9703 14bf 2493 2cbf
000002c0: a629 30bf 1d84 17bf d15c 13bf 3797 25bf
000002d0: 2670 1ebf ecca 1fbf 58e9 27bf 4c3c 0bbf
000002e0: 0d53 33bf 7625 2ebf f6a4 35bf 140b 2ebf
000002f0: 2292 0fbf e965 2ebf 93a9 17bf ea54 19bf
00000300: 6eaf 11bf f8b2 2fbf 771a 22bf 7701 0bbf
00000310: 5bed 36bf 915e 2cbf 4d0b 1fbf 6541 2bbf
00000320: 6358 60bf a5fb 34bf 9a73 acbe 6b1f 0bbf
00000330: 6513 66bf f4e5 2abe 29e3 e6be e318 9cbe
00000340: a79a 62be 2fb4 22bf efcd 99be 792e 2cbf
00000350: 7caa e7be 4f06 48be 8712 b43e 25e8 48bf
00000360: 0510 283f c52a 1bbf 9e8c 98be d532 26bf
00000370: b37a a4be f8fa 25bf 71ea 27bf df6c 2fbf
00000380: bb68 703d d176 29bf 8189 32bf c24f 37bf
00000390: 9f39 56bf 3697 19bf 2e42 31bf c06c cabe
000003a0: 6a16 0bbf 5488 b7be 2d8a 1b3b 9faa 9dbe
000003b0: 5abe 6fbe 484c 24bf f68a 43bf c478 2dbf
000003c0: 5f34 1abf a0d9 18bf 4c4c 333e ca1e 28bf
000003d0: 82f6 083f 7665 0fbf cab9 d83e 6b09 27bf
000003e0: 7b7e 9dbe 453d 82be abb3 17bf 8733 eabd
000003f0: a2f3 46bf 0119 27bf 22f0 17bf 4f46 b5be

fc2.1.0.bias f4 [100]
0.63096315 -0.6253882 0.16168372 -0.876013 -0.7397243 -0.43171927 0.28331134 -0.5966555
0.33589068 -0.5746577 0.03261995 -0.69914585 -0.6957222 -0.174349 -0.7126113 -0.063292384
0.13892291 -0.7002833 -0.6855792 -0.48136222 0.5999185 0.49161234 -0.64347863 -0.6462541
-0.18270533 -0.7169822 -0.715511 -0.6686284 0.3341307 0.33937886 -0.59935266 0.6722046
-0.6979914 0.31539494 -0.4631042 0.41959733 0.5248357 -0.5688505 0.5749252 -0.22511642
-0.63002753 -0.7087578 -0.33396152 -0.71207577 -0.59412146 -0.62478215 -0.621286 -0.6992639
0.5249899 0.62418556 -0.5911272 0.3440742 -0.11042499 -0.7039627 -0.21878715 0.64012975
-0.43008408 0.49823445 0.4471504 -0.5836082 0.09919137 -0.7246939 -0.7244094 0.5852684
-0.971847 -0.6093413 0.56180793 -0.56882733 -0.55142844 -0.6627581 0.32708818 -0.68728954
-0.6571567 -0.6984273 -0.59112906 -0.57285404 -0.68754244 -0.7211812 -0.7178015 0.5352644
-0.6911962 -0.14328891 0.7312185 0.6471673 0.7171231 -0.5930837 -0.6413209 -0.6283286
-0.6159934 -0.605406 -0.56429005 -0.19383179 0.59012604 0.028512254 -0.4622611 -0.5680417
0.18444243 -0.71693385 0.18206361 0.375937
00000000: cd86 213f 7119 20bf 6b90 253e 6342 60bf
00000010: 925e 3dbf 4f0a ddbe 2f0e 913e 6abe 18bf
00000020: ddf9 ab3e c41c 13bf 7f9c 053d 39fb 32bf
00000030: da1a 32bf 8b88 32be b26d 36bf 709f 81bd
00000040: cf41 0e3e c445 33bf 1e82 2fbf 1c75 f6be
00000050: 4294 193f 9db4 fb3e 04bb 24bf e970 25bf
00000060: 1b17 3bbe 258c 37bf bb2b 37bf 3b2b 2bbf
00000070: 2e13 ab3e 11c3 ad3e 2d6f 19bf 9a15 2c3f
00000080: 90af 32bf 727b a13e fe1b edbe 76d5 d63e
00000090: a25b 063f 30a0 11bf 4c2e 133f eb84 66be
000000a0: 7c49 21bf 2771 35bf 01fd aabe 994a 36bf
000000b0: 5818 18bf b9f1 1fbf 990c 1fbf f502 33bf
000000c0: bd65 063f a0ca 1f3f 1d54 17bf 7e2a b03e
000000d0: 7f26 e2bd e636 34bf bd09 60be 8bdf 233f
000000e0: fb33 dcbe 9618 ff3e e6f0 e43e 5967 15bf
000000f0: d824 cb3d 8a85 39bf e572 39bf 26d4 153f
00000100: f7ca 78bf cbfd 1bbf a5d2 0f3f ab9e 11bf
00000110: 6a2a 0dbf 84aa 29bf 1a78 a73e 35f2 2fbf
00000120: 6c3b 28bf 22cc 32bf 3c54 17bf 90a6 12bf
00000130: c802 30bf 559f 38bf d7c1 37bf 1607 093f
00000140: 3cf2 30bf 54ba 12be 2331 3b3f c2ac 253f
00000150: 6195 373f 55d4 17bf 9b2d 24bf 25da 20bf
00000160: beb1 1dbf e3fb 1abf 5075 10bf d77b 46be
00000170: 8012 173f 8892 e93c 7dad ecbe 2e6b 11bf
00000180: 7ade 3c3e fa88 37bf e26e 3a3e d17a c03e

fc2.2.0.weight f4 [100, 100]
-0.7096146 0.37060288 -0.2441171 0.51901585 -0.027236141 -0.3030409 -0.31619102 -0.20135188
-0.57801354 -0.4977498 -0.5496784 0.44322973 -0.6898082 -0.4618928 -0.557701 -0.5829057
-0.68592536 -0.5640009 0.23544261 -0.64865184 -0.5760394 -0.6375641 -0.517299 -0.68493176
-0.6157008 -0.6599368 -0.7127597 -0.6547966 -0.47591504 -0.6054889 -0.48384836 -0.49731445
-0.52061474 -0.67611855 -0.6087695 -0.514299 -0.61889106 -0.6210246 -0.7233345 -0.7157159
-0.63440216 -0.694234 -0.13591999 -0.5202319 -0.64887065 0.5730116 -0.5145693 -0.53562605
-0.33359542 -0.6973368 -0.52454185 -0.58927006 -0.19074392 -0.5384251 -0.6182124 -0.55472636
-0.6525724 -0.56988853 0.0014321244 0.4742473 -0.630386 -0.55298924 -0.575825 -0.62668306
0.55620635 -0.5728396 -0.53779256 -0.39418447 0.10376704 -0.6934518 -0.64095664 -0.64804286
-0.7370824 -0.6983496 0.58232623 -0.52223325 -0.69722134 0.084391914 -0.5856216 -0.61356944
-0.6203108 -0.5548407 -0.5268453 -0.51140904 -0.5651819 -0.6531632 -0.35394445 -0.6899976
-0.13041522 -0.540985 0.18330719 -0.67210376 -0.58404213 -0.515739 -0.30783856 -0.0014350764
-0.62899977 -0.56184274 -0.61487424 -0.6168613 -0.682985 -0.69774985 -0.72447944 -0.63642746
-0.5592491 -0.7267351 -0.6644956 -0.6251359 -0.57284904 -0.61192125 -0.6503335 0.5278218
-0.5960441 -0.52799803 -0.7209838 -0.6650849 -0.6720616 -0.72004294 -0.6231385 -0.6448156
-0.54283386 -0.55040056 -0.5832398 -0.6664441 0.44950026 -0.69630295 -0.59041727 -0.5362236
-0.67994124 -0.5888599 -0.721014 -0.57911414 -0.5577833 -0.65923566 -0.6233156 -0.5823079
-0.6032229 -0.6117982 -0.5511143 -0.6698016 -0.66058207 -0.7135031 -0.5558265 -0.6157265
-0.56540763 -0.7218771 -0.6613616 -0.6225467 -0.6544598 -0.70501983 -0.66641873 -0.68813306
-0.6249158 -0.6628303 0.56163555 -0.5606397 -0.7175351 -0.597369 -0.66755664 -0.66068876
-0.6425217 -0.7112232 -0.5385691 -0.64148104 -0.5367586 -0.6809623 -0.553831 -0.7060617
-0.62688935 -0.61394 -0.5815986 -0.55304563 -0.63531864 -0.6575691 -0.5781798 -0.6741202
-0.6881355 -0.59185964 -0.575635 -0.6468386 -0.61889875 -0.6241901 -0.6559043 -0.5438888
-0.700486 -0.6802591 -0.70954835 -0.67985654 -0.56082356 -0.6812425 -0.59243125 -0.59895194
-0.5690831 -0.6863246 -0.6332163 -0.5429911 -0.71455926 -0.67331797 -0.6212662 -0.6689666
-0.8763487 -0.7069648 -0.33681947 -0.54344815 -0.89873344 -0.16689283 -0.45095184 -0.30487737
-0.22129308 -0.6355619 -0.30039927 -0.6725841 -0.45247257 -0.19533657 0.35170385 -0.78479224
0.65649444 -0.60612136 -0.29794782 -0.64921314 -0.32124862 -0.6483607 -0.65592104 -0.685255
0.05869363 -0.66196924 -0.69741064 -0.71606076 -0.8368167 -0.59996355 -0.6924161 -0.39536095
-0.54331076 -0.35846198 0.0023733482 -0.30794236 -0.23412457 -0.64178896 -0.7638391 -0.677624
-0.6023616 -0.5970707 0.17509574 -0.6567198 0.5350114 -0.5601419 0.42329246 -0.65248746
-0.3076056 -0.2543737 -0.59258527 -0.11435609 -0.77715504 -0.6527253 -0.5935079 -0.35405204
00000000: 4da9 35bf a9bf bd3e d5f9 79be 39de 043f
00000010: 541e dfbc 2d28 9bbe cae3 a1be 302f 4ebe
00000020: b2f8 13bf 10d9 febe b9b7 0cbf 02ef e23e
00000030: 4597 30bf 377d ecbe 7ec5 0ebf 4f39 15bf
00000040: ce98 2fbf 5d62 10bf de17 713e 0c0e 26bf
00000050: 5177 13bf 6737 23bf b56d 04bf b057 2fbf
00000060: 919e 1dbf 9ef1 28bf 6b77 36bf c0a0 27bf
00000070: 23ab f3be 5201 1bbf f9ba f7be 00a0 febe
00000080: 0247 05bf 1b16 2dbf 51d8 1bbf 19a9 03bf
00000090: a56f 1ebf 78fb 1ebf 732c 39bf 2839 37bf
000000a0: 2e68 22bf 52b9 31bf 9c2e 0bbe eb2d 05bf
000000b0: 631c 26bf e3b0 123f d0ba 03bf ca1e 09bf
000000c0: 05cd aabe aa84 32bf 6048 06bf 67da 16bf
000000d0: 6052 43be 3ad6 09bf 2b43 1ebf 8c02 0ebf
000000e0: fc0e 27bf 37e4 11bf 1fb6 bb3a 8bd0 f23e
000000f0: fa60 21bf b490 0dbf 4469 13bf 4d6e 20bf
00000100: 8a63 0e3f 9ea5 12bf c6ac 09bf 8cd2 c9be
00000110: d083 d43d 0f86 31bf bc15 24bf 23e6 25bf
00000120: 6fb1 3cbf 0ac7 32bf 5513 153f 14b1 05bf
00000130: 197d 32bf abd5 ac3d 4ceb 15bf e312 1dbf
00000140: b0cc 1ebf 0a0a 0ebf 55df 06bf b4eb 02bf
00000150: c3af 10bf b435 27bf 3538 b5be afa3 30bf
00000160: 918b 05be fe7d 0abf e1b4 3b3e fe0e 2cbf
00000170: c983 15bf 7907 04bf 049d 9dbe 2c19 bcba
00000180: 2106 21bf edd4 0fbf 6668 1dbf 9fea 1dbf
00000190: 1bd8 2ebf bc9f 32bf 7c77 39bf e9ec 22bf
000001a0: f32a 0fbf 500b 3abf 621c 2abf e808 20bf
000001b0: 3ca6 12bf dfa6 1cbf 427c 26bf 541f 073f
000001c0: 5996 18bf e12a 07bf 6592 38bf 0143 2abf
000001d0: 3b0c 2cbf bc54 38bf 0186 1fbf a312 25bf
000001e0: 29f7 0abf 0de7 0cbf 344f 15bf 159c 2abf
000001f0: e624 e63e e940 32bf 9625 17bf f345 09bf
00000200: a110 2ebf 86bf 16bf 6094 38bf d340 14bf
00000210: e3ca 0ebf abc3 28bf 9c91 1fbf 2112 15bf
00000220: d16c 1abf cf9e 1cbf d415 0dbf 1e78 2bbf
00000230: e81b 29bf 24a8 36bf a54a 0ebf 40a0 1dbf
00000240: 8ebe 10bf f0cc 38bf fe4e 29bf 385f 1fbf
00000250: ad8a 27bf 2e7c 34bf 6b9a 2abf 7d29 30bf
00000260: 7bfa 1fbf 3faf 29bf 59c7 0f3f 1586 0fbf
00000270: 61b0 37bf 2ded 18bf fee4 2abf e622 29bf
00000280: 4d7c 24bf b912 36bf aadf 09bf 1a38 24bf
00000290: 0369 09bf 8c53 2ebf dec7 0dbf 76c0 34bf
000002a0: d27b 20bf 2c2b 1dbf a5e3 14bf 6694 0dbf
000002b0: 3ea4 22bf 7356 28bf 9703 14bf 2493 2cbf
000002c0: a629 30bf 1d84 17bf d15c 13bf 3797 25bf
000002d0: 2670 1ebf ecca 1fbf 58e9 27bf 4c3c 0bbf
000002e0: 0d53 33bf 7625 2ebf f6a4 35bf 140b 2ebf
000002f0: 2292 0fbf e965 2ebf 93a9 17bf ea54 19bf
00000300: 6eaf 11bf f8b2 2fbf 771a 22bf 7701 0bbf
00000310: 5bed 36bf 915e 2cbf 4d0b 1fbf 6541 2bbf
00000320: 6358 60bf a5fb 34bf 9a73 acbe 6b1f 0bbf
00000330: 6513 66bf f4e5 2abe 29e3 e6be e318 9cbe
00000340: a79a 62be 2fb4 22bf efcd 99be 792e 2cbf
00000350: 7caa e7be 4f06 48be 8712 b43e 25e8 48bf
00000360: 0510 283f c52a 1bbf 9e8c 98be d532 26bf
00000370: b37a a4be f8fa 25bf 71ea 27bf df6c 2fbf
00000380: bb68 703d d176 29bf 8189 32bf c24f 37bf
00000390: 9f39 56bf 3697 19bf 2e42 31bf c06c cabe
000003a0: 6a16 0bbf 5488 b7be 2d8a 1b3b 9faa 9dbe
000003b0: 5abe 6fbe 484c 24bf f68a 43bf c478 2dbf
000003c0: 5f34 1abf a0d9 18bf 4c4c 333e ca1e 28bf
000003d0: 82f6 083f 7665 0fbf cab9 d83e 6b09 27bf
000003e0: 7b7e 9dbe 453d 82be abb3 17bf 8733 eabd
000003f0: a2f3 46bf 0119 27bf 22f0 17bf 4f46 b5be

fc2.2.0.bias f4 [100]
0.63096315 -0.6253882 0.16168372 -0.876013 -0.7397243 -0.43171927 0.28331134 -0.5966555
0.33589068 -0.5746577 0.03261995 -0.69914585 -0.6957222 -0.174349 -0.7126113 -0.063292384
0.13892291 -0.7002833 -0.6855792 -0.48136222 0.5999185 0.49161234 -0.64347863 -0.6462541
-0.18270533 -0.7169822 -0.715511 -0.6686284 0.3341307 0.33937886 -0.59935266 0.6722046
-0.6979914 0.31539494 -0.4631042 0.41959733 0.5248357 -0.5688505 0.5749252 -0.22511642
-0.63002753 -0.7087578 -0.33396152 -0.71207577 -0.59412146 -0.62478215 -0.621286 -0.6992639
0.5249899 0.62418556 -0.5911272 0.3440742 -0.11042499 -0.7039627 -0.21878715 0.64012975
-0.43008408 0.49823445 0.4471504 -0.5836082 0.09919137 -0.7246939 -0.7244094 0.5852684
-0.971847 -0.6093413 0.56180793 -0.56882733 -0.55142844 -0.6627581 0.32708818 -0.68728954
-0.6571567 -0.6984273 -0.59112906 -0.57285404 -0.68754244 -0.7211812 -0.7178015 0.5352644
-0.6911962 -0.14328891 0.7312185 0.6471673 0.7171231 -0.5930837 -0.6413209 -0.6283286
-0.6159934 -0.605406 -0.56429005 -0.19383179 0.59012604 0.028512254 -0.4622611 -0.5680417
0.18444243 -0.71693385 0.18206361 0.375937
00000000: cd86 213f 7119 20bf 6b90 253e 6342 60bf
00000010: 925e 3dbf 4f0a ddbe 2f0e 913e 6abe 18bf
00000020: ddf9 ab3e c41c 13bf 7f9c 053d 39fb 32bf
00000030: da1a 32bf 8b88 32be b26d 36bf 709f 81bd
00000040: cf41 0e3e c445 33bf 1e82 2fbf 1c75 f6be
00000050: 4294 193f 9db4 fb3e 04bb 24bf e970 25bf
00000060: 1b17 3bbe 258c 37bf bb2b 37bf 3b2b 2bbf
00000070: 2e13 ab3e 11c3 ad3e 2d6f 19bf 9a15 2c3f
00000080: 90af 32bf 727b a13e fe1b edbe 76d5 d63e
00000090: a25b 063f 30a0 11bf 4c2e 133f eb84 66be
000000a0: 7c49 21bf 2771 35bf 01fd aabe 994a 36bf
000000b0: 5818 18bf b9f1 1fbf 990c 1fbf f502 33bf
000000c0: bd65 063f a0ca 1f3f 1d54 17bf 7e2a b03e
000000d0: 7f26 e2bd e636 34bf bd09 60be 8bdf 233f
000000e0: fb33 dcbe 9618 ff3e e6f0 e43e 5967 15bf
000000f0: d824 cb3d 8a85 39bf e572 39bf 26d4 153f
00000100: f7ca 78bf cbfd 1bbf a5d2 0f3f ab9e 11bf
00000110: 6a2a 0dbf 84aa 29bf 1a78 a73e 35f2 2fbf
00000120: 6c3b 28bf 22cc 32bf 3c54 17bf 90a6 12bf
00000130: c802 30bf 559f 38bf d7c1 37bf 1607 093f
00000140: 3cf2 30bf 54ba 12be 2331 3b3f c2ac 253f
00000150: 6195 373f 55d4 17bf 9b2d 24bf 25da 20bf
00000160: beb1 1dbf e3fb 1abf 5075 10bf d77b 46be
00000170: 8012 173f 8892 e93c 7dad ecbe 2e6b 11bf
00000180: 7ade 3c3e fa88 37bf e26e 3a3e d17a c03e

fc2.3.0.weight f4 [100, 100]
-0.7096146 0.37060288 -0.2441171 0.51901585 -0.027236141 -0.3030409 -0.31619102 -0.20135188
-0.57801354 -0.4977498 -0.5496784 0.44322973 -0.6898082 -0.4618928 -0.557701 -0.5829057
-0.68592536 -0.5640009 0.23544261 -0.64865184 -0.5760394 -0.6375641 -0.517299 -0.68493176
-0.6157008 -0.6599368 -0.7127597 -0.6547966 -0.47591504 -0.6054889 -0.48384836 -0.49731445
-0.52061474 -0.67611855 -0.6087695 -0.514299 -0.61889106 -0.6210246 -0.7233345 -0.7157159
-0.63440216 -0.694234 -0.13591999 -0.5202319 -0.64887065 0.5730116 -0.5145693 -0.53562605
-0.33359542 -0.6973368 -0.52454185 -0.58927006 -0.19074392 -0.5384251 -0.6182124 -0.55472636
-0.6525724 -0.56988853 0.0014321244 0.4742473 -0.630386 -0.55298924 -0.575825 -0.62668306
0.55620635 -0.5728396 -0.53779256 -0.39418447 0.10376704 -0.6934518 -0.64095664 -0.64804286
-0.7370824 -0.6983496 0.58232623 -0.52223325 -0.69722134 0.084391914 -0.5856216 -0.61356944
-0.6203108 -0.5548407 -0.5268453 -0.51140904 -0.5651819 -0.6531632 -0.35394445 -0.6899976
-0.13041522 -0.540985 0.18330719 -0.67210376 -0.58404213 -0.515739 -0.30783856 -0.0014350764
-0.62899977 -0.56184274 -0.61487424 -0.6168613 -0.682985 -0.69774985 -0.72447944 -0.63642746
-0.5592491 -0.7267351 -0.6644956 -0.6251359 -0.57284904 -0.61192125 -0.6503335 0.5278218
-0.5960441 -0.52799803 -0.7209838 -0.6650849 -0.6720616 -0.72004294 -0.6231385 -0.6448156
-0.54283386 -0.55040056 -0.5832398 -0.6664441 0.44950026 -0.69630295 -0.59041727 -0.5362236
-0.67994124 -0.5888599 -0.721014 -0.57911414 -0.5577833 -0.65923566 -0.6233156 -0.5823079
-0.6032229 -0.6117982 -0.5511143 -0.6698016 -0.66058207 -0.7135031 -0.5558265 -0.6157265
-0.56540763 -0.7218771 -0.6613616 -0.6225467 -0.6544598 -0.70501983 -0.66641873 -0.68813306
-0.6249158 -0.6628303 0.56163555 -0.5606397 -0.7175351 -0.597369 -0.66755664 -0.66068876
-0.6425217 -0.7112232 -0.5385691 -0.64148104 -0.5367586 -0.6809623 -0.553831 -0.7060617
-0.62688935 -0.61394 -0.5815986 -0.55304563 -0.63531864 -0.6575691 -0.5781798 -0.6741202
-0.6881355 -0.59185964 -0.575635 -0.6468386 -0.61889875 -0.6241901 -0.6559043 -0.5438888
-0.700486 -0.6802591 -0.70954835 -0.67985654 -0.56082356 -0.6812425 -0.59243125 -0.59895194
-0.5690831 -0.6863246 -0.6332163 -0.5429911 -0.71455926 -0.67331797 -0.6212662 -0.6689666
-0.8763487 -0.7069648 -0.33681947 -0.54344815 -0.89873344 -0.16689283 -0.45095184 -0.30487737
-0.22129308 -0.6355619 -0.30039927 -0.6725841 -0.45247257 -0.19533657 0.35170385 -0.78479224
0.65649444 -0.60612136 -0.29794782 -0.64921314 -0.32124862 -0.6483607 -0.65592104 -0.685255
0.05869363 -0.66196924 -0.69741064 -0.71606076 -0.8368167 -0.59996355 -0.6924161 -0.39536095
-0.54331076 -0.35846198 0.0023733482 -0.30794236 -0.23412457 -0.64178896 -0.7638391 -0.677624
-0.6023616 -0.5970707 0.17509574 -0.6567198 0.5350114 -0.5601419 0.42329246 -0.65248746
-0.3076056 -0.2543737 -0.59258527 -0.11435609 -0.77715504 -0.6527253 -0.5935079 -0.35405204
00000000: 4da9 35bf a9bf bd3e d5f9 79be 39de 043f
00000010: 541e dfbc 2d28 9bbe cae3 a1be 302f 4ebe
00000020: b2f8 13bf 10d9 febe b9b7 0cbf 02ef e23e
00000030: 4597 30bf 377d ecbe 7ec5 0ebf 4f39 15bf
00000040: ce98 2fbf 5d62 10bf de17 713e 0c0e 26bf
00000050: 5177 13bf 6737 23bf b56d 04bf b057 2fbf
00000060: 919e 1dbf 9ef1 28bf 6b77 36bf c0a0 27bf
00000070: 23ab f3be 5201 1bbf f9ba f7be 00a0 febe
00000080: 0247 05bf 1b16 2dbf 51d8 1bbf 19a9 03bf
00000090: a56f 1ebf 78fb 1ebf 732c 39bf 2839 37bf
000000a0: 2e68 22bf 52b9 31bf 9c2e 0bbe eb2d 05bf
000000b0: 631c 26bf e3b0 123f d0ba 03bf ca1e 09bf
000000c0: 05cd aabe aa84 32bf 6048 06bf 67da 16bf
000000d0: 6052 43be 3ad6 09bf 2b43 1ebf 8c02 0ebf
000000e0: fc0e 27bf 37e4 11bf 1fb6 bb3a 8bd0 f23e
000000f0: fa60 21bf b490 0dbf 4469 13bf 4d6e 20bf
00000100: 8a63 0e3f 9ea5 12bf c6ac 09bf 8cd2 c9be
00000110: d083 d43d 0f86 31bf bc15 24bf 23e6 25bf
00000120: 6fb1 3cbf 0ac7 32bf 5513 153f 14b1 05bf
00000130: 197d 32bf abd5 ac3d 4ceb 15bf e312 1dbf
00000140: b0cc 1ebf 0a0a 0ebf 55df 06bf b4eb 02bf
00000150: c3af 10bf b435 27bf 3538 b5be afa3 30bf
00000160: 918b 05be fe7d 0abf e1b4 3b3e fe0e 2cbf
00000170: c983 15bf 7907 04bf 049d 9dbe 2c19 bcba
00000180: 2106 21bf edd4 0fbf 6668 1dbf 9fea 1dbf
00000190: 1bd8 2ebf bc9f 32bf 7c77 39bf e9ec 22bf
000001a0: f32a 0fbf 500b 3abf 621c 2abf e808 20bf
000001b0: 3ca6 12bf dfa6 1cbf 427c 26bf 541f 073f
000001c0: 5996 18bf e12a 07bf 6592 38bf 0143 2abf
000001d0: 3b0c 2cbf bc54 38bf 0186 1fbf a312 25bf
000001e0: 29f7 0abf 0de7 0cbf 344f 15bf 159c 2abf
000001f0: e624 e63e e940 32bf 9625 17bf f345 09bf
00000200: a110 2ebf 86bf 16bf 6094 38bf d340 14bf
00000210: e3ca 0ebf abc3 28bf 9c91 1fbf 2112 15bf
00000220: d16c 1abf cf9e 1cbf d415 0dbf 1e78 2bbf
00000230: e81b 29bf 24a8 36bf a54a 0ebf 40a0 1dbf
00000240: 8ebe 10bf f0cc 38bf fe4e 29bf 385f 1fbf
00000250: ad8a 27bf 2e7c 34bf 6b9a 2abf 7d29 30bf
00000260: 7bfa 1fbf 3faf 29bf 59c7 0f3f 1586 0fbf
00000270: 61b0 37bf 2ded 18bf fee4 2abf e622 29bf
00000280: 4d7c 24bf b912 36bf aadf 09bf 1a38 24bf
00000290: 0369 09bf 8c53 2ebf dec7 0dbf 76c0 34bf
000002a0: d27b 20bf 2c2b 1dbf a5e3 14bf 6694 0dbf
000002b0: 3ea4 22bf 7356 28bf 9703 14bf 2493 2cbf
000002c0: a629 30bf 1d84 17bf d15c 13bf 3797 25bf
000002d0: 2670 1ebf ecca 1fbf 58e9 27bf 4c3c 0bbf
000002e0: 0d53 33bf 7625 2ebf f6a4 35bf 140b 2ebf
000002f0: 2292 0fbf e965 2ebf 93a9 17bf ea54 19bf
00000300: 6eaf 11bf f8b2 2fbf 771a 22bf 7701 0bbf
00000310: 5bed 36bf 915e 2cbf 4d0b 1fbf 6541 2bbf
00000320: 6358 60bf a5fb 34bf 9a73 acbe 6b1f 0bbf
00000330: 6513 66bf f4e5 2abe 29e3 e6be e318 9cbe
00000340: a79a 62be 2fb4 22bf efcd 99be 792e 2cbf
00000350: 7caa e7be 4f06 48be 8712 b43e 25e8 48bf
00000360: 0510 283f c52a 1bbf 9e8c 98be d532 26bf
00000370: b37a a4be f8fa 25bf 71ea 27bf df6c 2fbf
00000380: bb68 703d d176 29bf 8189 32bf c24f 37bf
00000390: 9f39 56bf 3697 19bf 2e42 31bf c06c cabe
000003a0: 6a16 0bbf 5488 b7be 2d8a 1b3b 9faa 9dbe
000003b0: 5abe 6fbe 484c 24bf f68a 43bf c478 2dbf
000003c0: 5f34 1abf a0d9 18bf 4c4c 333e ca1e 28bf
000003d0: 82f6 083f 7665 0fbf cab9 d83e 6b09 27bf
000003e0: 7b7e 9dbe 453d 82be abb3 17bf 8733 eabd
000003f0: a2f3 46bf 0119 27bf 22f0 17bf 4f46 b5be
