figs/diff_batch_size/mlp_8/mlp_model_dict.pt (torch, 182421 bytes, 8 tensors)

fc1.weight f4 [100, 240]
0.14002924 -0.43569285 -0.2239066 -2.1892529 0.50941133 -0.721733 -1.5244406 0.3668131
0.733842 1.3470459 1.5605911 -0.9420117 -0.36650267 1.1328609 -2.1136274 -1.3742176
2.2079895 1.8292582 -1.8454497 -2.2532017 -1.2970583 -2.0977504 -2.0374503 2.0191026
-0.8190802 2.289741 2.2369282 -0.4434736 1.4369117 -2.1092665 -1.6928942 -0.6012445
2.1830049 -0.08489683 2.065913 1.8958988 -1.8447183 -2.398766 -0.2901074 2.1349578
2.2122343 1.2617346 2.272595 0.2004955 -2.009352 -0.47958276 -2.0776494 -1.8595836
-1.00214 -1.9473568 1.8937824 2.077259 0.9601021 2.018578 -2.0551293 -2.336763
-2.0152314 2.3490067 -1.2344995 -2.0855486 1.8833239 -0.79353416 -1.3618838 -2.2139015
1.5648239 2.1299543 1.9401251 -0.7753095 1.0831586 0.8344018 0.24136402 0.052382212
1.637426 -0.5667551 -2.0413926 -1.9790263 -0.87116563 1.6720775 -0.9705865 2.3024368
-1.8215257 -1.5151962 0.8754168 2.1764698 2.2092938 2.291665 2.2549143 1.5841168
-1.5928417 -2.2383564 -2.4409537 1.7025131 1.9293272 1.3653301 -2.0586061 -2.0641508
-2.2058985 -2.154442 -2.0603275 0.977497 2.2461934 2.4458263 2.3057117 -1.918
1.057814 -2.3019059 -2.1686466 -1.6572134 0.1674601 0.91666114 -1.0499842 0.23224722
-2.14514 -2.0555978 -0.11112626 1.3421336 2.2780545 2.3226058 2.2543116 2.2239897
-2.3979719 -2.461839 -2.3855445 -0.8834372 1.0573176 2.3519602 2.411212 1.2771566
-2.1884468 -2.4259188 -2.2192912 1.0955716 0.4294715 1.6592034 2.152 1.373659
-2.4420931 -2.446149 -2.236838 2.1722474 1.3843364 2.1934407 2.387546 0.72437584
-2.2979808 -2.1378686 -1.9350511 -1.9458071 -0.50223064 -0.8933719 -1.9551514 -1.1061062
-1.5353843 -1.193141 -1.737686 1.5979882 2.4282446 2.0955682 -0.66595334 -1.1504167
-1.893231 1.4128417 1.7481863 -2.1451623 -0.29228276 0.5375236 2.09334 2.161894
2.0687153 -0.13719429 0.77370894 -2.2996178 -2.3463066 -2.3688393 -1.231105 -1.4019697
0.30132985 2.4643493 2.32706 2.2990403 0.14723624 -0.91363764 -1.5433817 -0.32697347
0.0025732042 -0.80485016 -0.7945494 -0.9002061 -2.5539625 -2.5075264 -1.2745398 2.039315
2.4299924 2.5061858 2.2836063 2.4348752 0.49031648 -1.8801526 -2.3503036 -2.2300057
-0.34377584 -2.1647818 0.37091604 -1.7900509 -2.2475076 2.0702698 -0.51741296 2.2621186
2.0069237 2.2032342 2.3766892 0.0026605318 -0.2921749 -2.5062761 -2.3381598 -2.4366505
-1.7845207 -0.17541686 1.1807452 -1.0534189 0.8699896 1.9964206 1.3928803 0.66069186
2.3889146 -1.4484572 -2.0600593 -2.3749402 -2.4703052 -2.0190747 -2.230698 -1.7911518
-1.4621159 1.1831021 -1.4193659 -1.9626155 2.309236 2.3692281 2.36517 0.52827466
0.7705557 1.4194833 -0.05446865 0.052649684 0.6783015 -0.117725514 1.9054418 1.3567617
0.91598296 -0.8677808 0.038545467 -0.5404998 0.22754025 -0.61824083 0.6340335 1.1953752
00000000: d363 0f3e 2213 dfbe c647 65be b81c 0cc0
00000010: c868 023f 7ec3 38bf df20 c3bf edce bb3e
00000020: 12dd 3b3f 006c ac3f 73c1 c73f ae27 71bf
00000030: 3da6 bbbe 9601 913f ac45 07c0 5de6 afbf
00000040: b34f 0d40 2225 ea3f b237 ecbf 7534 10c0
00000050: 0206 a6bf 8b41 06c0 9665 02c0 fa38 0140
00000060: 3daf 51bf 1e8b 1240 d529 0f40 f90e e3be
00000070: b9ec b73f 39fe 06c0 c2b0 d8bf 29eb 19bf
00000080: 5ab6 0b40 64de adbd eb37 0440 d0ac f23f
00000090: bb1f ecbf 6285 19c0 f588 94be 26a3 0840
000000a0: 3f95 0d40 8580 a13f 3272 1140 b14e 4d3e
000000b0: 3999 00c0 df8b f5be 35f8 04c0 d606 eebf
000000c0: 2046 80bf fd42 f9bf 7667 f23f d0f1 0440
000000d0: 40c9 753f 6230 0140 3d87 03c0 868d 15c0
000000e0: 8df9 00c0 2056 1640 1404 9ebf a179 05c0
000000f0: c210 f13f 0e25 4bbf 3552 aebf 90b0 0dc0
00000100: 264c c83f 2c51 0840 0556 f83f af7a 46bf
00000110: f1a4 8a3f 5b9b 553f 2128 773e bb8e 563d
00000120: 2d97 d13f dd16 11bf 2da6 02c0 bc50 fdbf
00000130: b604 5fbf a306 d63f 5b78 78bf 205b 1340
00000140: c127 e9bf f3f1 c1bf 511b 603f 484b 0b40
00000150: 1265 0d40 a4aa 1240 8450 1040 57c4 ca3f
00000160: 3de2 cbbf 3b41 0fc0 9638 1cc0 f3eb d93f
00000170: 32f4 f63f 23c3 ae3f 34c0 03c0 0c1b 04c0
00000180: 712d 0dc0 61e2 09c0 68dc 03c0 3e3d 7a3f
00000190: a2c1 0f40 6b88 1c40 c890 1340 0681 f5bf
000001a0: 7366 873f 6d52 13c0 1bcb 0ac0 921f d4bf
000001b0: a97a 2b3e 4eaa 6a3f e265 86bf 37d2 6d3e
000001c0: f949 09c0 ea8e 03c0 2a96 e3bd 09cb ab3f
000001d0: a5cb 1140 93a5 1440 a446 1040 d955 0e40
000001e0: 5f78 19c0 c58e 1dc0 c3ac 18c0 f128 62bf
000001f0: 2f56 873f 8486 1640 4c51 1a40 de79 a33f
00000200: 830f 0cc0 4142 1bc0 de08 0ec0 b13b 8c3f
00000210: b0e3 db3e c760 d43f 5eba 0940 0fd4 af3f
00000220: 414b 1cc0 b58d 1cc0 5b28 0fc0 1a06 0b40
00000230: ef31 b13f 5561 0c40 8ecd 1840 b270 393f
00000240: 1e12 13c0 d7d2 08c0 c1af f7bf 3510 f9bf
00000250: 3092 00bf 05b4 64bf 6742 fabf e394 8dbf
00000260: 7987 c4bf d8b8 98bf 7f6c debf e18a cc3f
00000270: 5c68 1b40 ca1d 0640 eb7b 2abf db40 93bf
00000280: 6555 f2bf ffd7 b43f 92c4 df3f 574a 09c0
00000290: 16a6 95be 269b 093f 48f9 0540 795c 0a40
000002a0: d565 0440 a97c 0cbe ca11 463f f02c 13c0
000002b0: e329 16c0 109b 17c0 d994 9dbf be73 b3bf
000002c0: e847 9a3e e6b7 1d40 8dee 1440 7a23 1340
000002d0: 19c5 163e 28e4 69bf 888d c5bf 1169 a7be
000002e0: 34a3 283b a90a 4ebf 9767 4bbf e873 66bf
000002f0: 1f74 23c0 507b 20c0 1f24 a3bf 2384 0240
00000300: ff84 1b40 5965 2040 9b26 1240 ffd4 1b40
00000310: c30a fb3e d7a8 f0bf 606b 16c0 6ab8 0ec0
00000320: 6303 b0be c98b 0ac0 b5e8 bd3e 6320 e5bf
00000330: 2ad7 0fc0 4d7f 0440 2d75 04bf 8dc6 1040
00000340: 7071 0040 ca01 0d40 ad1b 1840 515c 2e3b
00000350: f397 95be d466 20c0 69a4 15c0 15f2 1bc0
00000360: 2d6b e4bf 7aa0 33be a922 973f 6ed6 86bf
00000370: a3b7 5e3f b68a ff3f e749 b23f 1a23 293f
00000380: fae3 1840 0c67 b9bf 03d8 03c0 05ff 17c0
00000390: 7b19 1ec0 8538 01c0 c2c3 0ec0 7644 e5bf
000003a0: 9d26 bbbf e46f 973f c8ad b5bf fc36 fbbf
000003b0: 86ca 1340 6fa1 1740 f25e 1740 023d 073f
000003c0: 2343 453f a1b1 b53f 851a 5fbd 32a7 573d
000003d0: 2ba5 2d3f 131a f1bd 84e5 f33f 5eaa ad3f
000003e0: dc7d 6a3f e226 5ebf dae1 1d3d 325e 0abf
000003f0: 5000 693e 0845 1ebf 0550 223f 0e02 993f

fc1.bias f4 [100]
-2.0213404 -1.9474868 -2.4631193 -2.364822 -2.305669 -2.02448 -2.102999 -1.9891495
-2.3715613 -2.3636224 -2.274565 0.14299439 -2.2536523 -2.26915 -2.1809866 -2.262815
-0.9342154 -1.060332 -0.41310027 -2.36997 -2.298555 -0.9667674 -2.02459 0.3295419
-2.4458144 -2.3839068 -2.391468 -2.4682772 -0.15036526 -2.2447119 -2.3915405 -2.1433277
-2.222832 -1.9323505 -2.410946 -2.3706276 -2.1295893 -1.8052893 -1.2775832 -2.3880274
-2.4301865 -2.3518026 -2.2245033 -2.105034 -1.8079098 -2.0320423 -2.3597176 -2.156107
-2.3543692 -2.2338984 -0.8371453 -2.1291335 -2.2652717 -2.4604943 -2.1827602 -1.2051015
-2.5337975 -1.9186635 -2.2998512 -2.3380296 -2.3309724 -2.1933823 -2.2648988 -2.437586
1.8927648 -2.3665903 -2.1032536 -2.3526046 -1.9992474 -2.3671286 -1.7976899 -1.9453961
-2.2413678 -2.3490617 -2.371951 -2.4748557 -1.6502746 -2.381293 -2.129935 -2.298479
-0.24332915 -2.2274733 -2.3184464 -2.194143 -2.3157878 -2.3224456 -1.7012203 -2.3951569
-2.24889 -2.1705246 -2.331456 -2.0479572 -0.20488116 -2.422879 -2.3173068 -2.3897095
-2.3412385 -2.2681744 -1.9183321 -1.8351333
00000000: a45d 01c0 3f47 f9bf bfa3 1dc0 3e59 17c0
00000010: 1590 13c0 1591 01c0 8997 06c0 739c febf
00000020: a9c7 17c0 9745 17c0 7992 11c0 1f6d 123e
00000030: d73b 10c0 c139 11c0 4995 0bc0 f6d1 10c0
00000040: be28 6fbf f5b8 87bf e181 d3be 97ad 17c0
00000050: 861b 13c0 117e 77bf e292 01c0 b7b9 a83e
00000060: 3988 1cc0 ee91 18c0 d00d 19c0 41f8 1dc0
00000070: 5af9 19be 5ca9 0fc0 000f 19c0 482c 09c0
00000080: e142 0ec0 4357 f7bf f04c 1ac0 5db8 17c0
00000090: 314b 08c0 b813 e7bf d987 a3bf 71d5 18c0
000000a0: 2d88 1bc0 ef83 16c0 435e 0ec0 e1b8 06c0
000000b0: 9769 e7bf fb0c 02c0 9d05 17c0 a8fd 09c0
000000c0: fcad 16c0 31f8 0ec0 284f 56bf b943 08c0
000000d0: 36fa 10c0 bd78 1dc0 58b2 0bc0 c440 9abf
000000e0: bd29 22c0 c496 f5bf c330 13c0 47a2 15c0
000000f0: a72e 15c0 6060 0cc0 1af4 10c0 6901 1cc0
00000100: 1e46 f23f 3776 17c0 b59b 06c0 1391 16c0
00000110: 57e7 ffbf 097f 17c0 b41a e6bf bd02 f9bf
00000120: 9272 0fc0 0757 16c0 0cce 17c0 0964 1ec0
00000130: 333c d3bf 1b67 18c0 db50 08c0 481a 13c0
00000140: 472b 79be ec8e 0ec0 6d61 14c0 d76c 0cc0
00000150: de35 14c0 f3a2 14c0 96c1 d9bf 404a 19c0
00000160: d0ed 0fc0 e0e9 0ac0 9336 15c0 bb11 03c0
00000170: 5ecc 51be 7310 1bc0 c14e 14c0 00f1 18c0
00000180: dad6 15c0 c529 11c0 e88b f5bf a6e5 eabf

fc2.weight f4 [100, 100]
0.0064951396 -0.9879081 -2.3283627 -2.1802664 -2.1799378 -2.3662827 -2.3389525 -2.3551939
-2.24406 -2.202648 2.3704743 -2.2395413 -2.2705483 -2.33796 0.5675425 -2.3271
-2.3423712 -2.1875217 -2.3082814 -2.2322547 -2.2997832 -1.3411828 -2.229398 -2.294506
-2.3036313 -2.3601842 -2.2679594 -2.243215 -2.3414452 -2.2212563 -2.2923906 2.6277072
-2.3310282 -2.2996848 -2.2902513 -2.2678766 -2.1990373 -2.2591295 -2.2587461 -2.3486118
-2.3142588 -2.3250837 2.3021195 -2.286306 -0.37547162 -1.1156161 -2.1896436 -2.185607
-2.3515024 -2.2670553 -2.3132114 -2.3267028 -2.1880074 -2.3735232 -2.2291324 -2.3598797
-2.3433125 -2.272781 -2.227328 -2.3455403 -2.2632573 -2.3465033 -2.3285007 -2.2939062
0.082739875 -2.2237992 -2.3208199 -2.3325813 -2.266953 -2.3181436 -1.9397057 -2.1749833
-2.204421 -2.3482077 -2.2447267 -2.3248293 1.3742772 -2.2676907 0.057474244 -2.243536
-1.3297113 -2.3331943 -2.3646834 -2.2170205 -2.2746425 -2.3338568 -2.1773324 -2.1914785
-2.224121 0.7075275 -2.186305 -2.2130675 -2.2252913 -2.2225537 -2.2359672 -2.2414007
-2.3222497 -2.4176376 -2.134288 -2.2467515 -2.3114634 -2.2192101 -2.0098062 -2.3199112
-2.3049705 -2.304531 -0.995943 -2.1534324 -2.3642416 2.3298948 2.364651 -2.36589
-2.2582018 -2.165661 -1.9523208 2.29701 -2.2743347 2.1642365 -1.1554347 -2.2945592
-1.4172783 -1.2325606 2.2423406 -2.16065 -2.3199186 -2.3499618 -2.0142703 -2.2787392
-0.56779563 -2.3413985 -2.2052333 -1.9297545 2.220655 -1.6567448 -2.2341087 -2.2677505
-2.196936 -2.2062633 -2.267341 -2.193166 2.2572773 -2.2569644 1.1681906 -1.952719
-0.89509684 -1.1072927 -2.2945135 2.4647005 -2.2856555 0.36330107 -2.2443101 -2.3092132
2.1613703 -2.3027902 -1.2278531 -0.40673125 2.2931073 -2.3425713 -2.2745407 -2.1908717
-2.269359 -2.2787788 -2.1961064 -1.5014307 1.0977737 -2.2380064 2.095971 -2.2922702
-2.3169086 0.48628092 -2.368444 -2.2869549 -2.2836394 -2.119624 -2.2886066 -2.137381
-2.238753 -2.2657049 1.9867853 -2.2423267 -2.3182151 -2.2028546 -2.3564005 -2.2484584
2.4106715 -2.339349 -2.3537915 -2.3508632 -2.1696272 1.2097237 -2.275829 -2.2363253
-2.3489766 -2.2010713 -2.3442817 2.103869 -2.2767813 -1.8917897 -1.8740416 -2.0781672
-1.7357706 -2.0316808 -2.045548 -2.2067797 -2.1842036 -2.283561 -2.1504765 -1.0392066
-1.990525 -2.164177 2.0993369 -2.2312143 -2.235488 -2.1929333 -1.5263989 2.22835
-2.3495784 2.35135 2.2972689 -2.1870904 -1.8346907 0.35290614 2.0853205 -2.3551674
-2.219685 2.2035093 -2.2884703 -2.2304616 -2.0604887 -2.3851736 -2.2194183 2.1145728
-2.1761441 2.3253005 -2.2467284 -2.2319987 -2.1899533 -2.2134573 -2.1988883 -2.298679
-1.7555499 -0.8435292 2.2656782 2.2872581 -2.11959 -2.2197146 -2.218072 -2.158592
-2.2950866 -2.1800957 -2.197314 -2.2962456 -2.2576535 -2.3198202 -1.2192011 -2.2547276
00000000: 2ed5 d43b 8ce7 7cbf e503 15c0 7c89 0bc0
00000010: 1a84 0bc0 2d71 17c0 66b1 15c0 7fbb 16c0
00000020: ae9e 0fc0 2ff8 0cc0 dab5 1740 a554 0fc0
00000030: aa50 11c0 23a1 15c0 774a 113f 35ef 14c0
00000040: 69e9 15c0 5b00 0cc0 e2ba 13c0 43dd 0ec0
00000050: a62f 13c0 e1ab abbf 75ae 0ec0 30d9 12c0
00000060: b26e 13c0 420d 17c0 3f26 11c0 d690 0fc0
00000070: 3dda 15c0 1029 0ec0 87b6 12c0 5b2c 2840
00000080: 912f 15c0 092e 13c0 7a93 12c0 e424 11c0
00000090: 07bd 0cc0 9495 10c0 4c8f 10c0 a84f 16c0
000000a0: d11c 14c0 2cce 14c0 ed55 1340 d652 12c0
000000b0: d13d c0be 82cc 8ebf 1f23 0cc0 fce0 0bc0
000000c0: 047f 16c0 6f17 11c0 a80b 14c0 b3e8 14c0
000000d0: 5008 0cc0 cee7 17c0 1baa 0ec0 4508 17c0
000000e0: d5f8 15c0 3e75 11c0 8b8c 0ec0 551d 16c0
000000f0: 35d9 10c0 1c2d 16c0 2806 15c0 5ccf 12c0
00000100: 8673 a93d ba52 0ec0 5088 14c0 0349 15c0
00000110: c215 11c0 775c 14c0 4748 f8bf ed32 0bc0
00000120: 3c15 0dc0 0949 16c0 9aa9 0fc0 01ca 14c0
00000130: 51e8 af3f d821 11c0 1d6a 6b3d 1896 0fc0
00000140: fb33 aabf 0e53 15c0 f956 17c0 aae3 0dc0
00000150: be93 11c0 e95d 15c0 6a59 0bc0 2f41 0cc0
00000160: 0058 0ec0 8620 353f 6cec 0bc0 e6a2 0dc0
00000170: 2c6b 0ec0 523e 0ec0 161a 0fc0 1c73 0fc0
00000180: bd9f 14c0 93ba 1ac0 2d98 08c0 c7ca 0fc0
00000190: 04ef 13c0 8a07 0ec0 aaa0 00c0 6d79 14c0
000001a0: a384 13c0 707d 13c0 1ff6 7ebf d6d1 09c0
000001b0: bc4f 17c0 ff1c 1540 7156 1740 be6a 17c0
000001c0: 6186 10c0 319a 0ac0 a6e5 f9bf 3602 1340
000001d0: b38e 11c0 da82 0a40 49e5 93bf 0fda 12c0
000001e0: 6069 b5bf 8cc4 9dbf 8282 0f40 1748 0ac0
000001f0: 8c79 14c0 c665 16c0 cee9 00c0 ddd6 11c0
00000200: 0e5b 11bf 79d9 15c0 8b22 0dc0 3202 f7bf
00000210: 361f 0e40 3710 d4bf a3fb 0ec0 d322 11c0
00000220: 999a 0cc0 6b33 0dc0 1d1c 11c0 d55c 0cc0
00000230: 3b77 1040 1b72 10c0 4587 953f b2f2 f9bf
00000240: 1125 65bf c4bb 8dbf 4fd9 12c0 a7bd 1d40
00000250: 2e48 12c0 9902 ba3e c7a2 0fc0 26ca 13c0
00000260: e453 0a40 ea60 13c0 4a2a 9dbf 143f d0be
00000270: 45c2 1240 b0ec 15c0 1392 11c0 3e37 0cc0
00000280: 2e3d 11c0 83d7 11c0 028d 0cc0 e22e c0bf
00000290: d983 8c3f 7f3b 0fc0 6424 0640 8eb4 12c0
000002a0: 3b48 14c0 d0f9 f83e 9694 17c0 785d 12c0
000002b0: 2627 12c0 eba7 07c0 8878 12c0 daca 08c0
000002c0: bb47 0fc0 4f01 11c0 fb4e fe3f 4882 0fc0
000002d0: a35d 14c0 92fb 0cc0 44cf 16c0 bee6 0fc0
000002e0: 7148 1a40 e5b7 15c0 85a4 16c0 8b74 16c0
000002f0: 2cdb 0ac0 3ad8 9a3f 2fa7 11c0 f41f 0fc0
00000300: a255 16c0 5ade 0cc0 b608 16c0 caa5 0640
00000310: c9b6 11c0 2a26 f2bf 98e0 efbf b100 05c0
00000320: bb2d debf 0f07 02c0 42ea 02c0 e13b 0dc0
00000330: fec9 0bc0 dd25 12c0 68a1 09c0 b904 85bf
00000340: 86c9 febf e081 0ac0 895b 0640 37cc 0ec0
00000350: 3c12 0fc0 0559 0cc0 0a61 c3bf 499d 0e40
00000360: 7e5f 16c0 857c 1640 7406 1340 4af9 0bc0
00000370: 25d7 eabf 1db0 b43e e475 0540 10bb 16c0
00000380: 520f 0ec0 4c06 0d40 4c76 12c0 e2bf 0ec0
00000390: 0cdf 03c0 afa6 18c0 f30a 0ec0 2955 0740
000003a0: f245 0bc0 b9d1 1440 66ca 0fc0 11d9 0ec0
000003b0: 3228 0cc0 49a9 0dc0 96ba 0cc0 8f1d 13c0
000003c0: dcb5 e0bf 88f1 57bf df00 1140 7062 1240
000003d0: 5da7 07c0 ce0f 0ec0 e4f4 0dc0 5f26 0ac0
000003e0: b3e2 12c0 b086 0bc0 cba0 0cc0 b0f5 12c0
000003f0: 657d 10c0 ef77 14c0 c80e 9cbf 754d 10c0

fc2.bias f4 [100]
-1.9592557 -2.4818225 -1.4504663 -2.3125954 -2.229769 -2.012123 -2.339768 -1.2229804
-0.26444048 -1.9375606 -2.2527096 -2.125536 -0.92102087 1.5650507 -2.3546696 2.3330889
-2.307604 -2.3836622 -0.19937488 -2.2906544 -2.0216565 -1.847155 -1.9394156 2.3173714
-2.3489165 -1.7478721 -2.1700814 -2.0500484 -2.3569317 -2.216419 -2.4151876 0.8789791
-2.0192626 -2.2592857 -2.4062688 -2.0802546 2.3010712 -2.1846492 -1.9130964 -1.2639698
-2.0984678 -1.9569757 -1.5235615 2.3144903 -2.236136 -2.1340055 -2.2174468 -0.7840261
-2.072858 -1.9684182 -2.3836734 -2.420472 -1.7679044 1.9670054 -2.3681026 -1.7385377
0.75142497 -2.1975079 2.1812012 -2.3345473 -2.100858 -1.9677937 -1.1191862 -2.0803862
-2.2750287 -2.2783082 -0.46023154 -2.1512125 -2.1115582 -1.035362 -1.9017999 -2.4223723
-2.1501365 -1.6210093 1.8721048 -2.2080026 0.2584665 -2.047439 -0.89344937 -2.232094
-2.3449981 -2.227071 -2.3024743 1.6496012 -2.0033202 -2.2854445 -0.2437373 -2.0387309
-2.372624 -2.281078 -1.1661757 -1.5512803 -2.026955 0.05913277 -1.9941388 -2.175052
-1.6117048 -2.3335748 -2.3060732 1.5414816
00000000: e4c8 fabf 2ed6 1ec0 e1a8 b9bf 9001 14c0
00000010: 89b4 0ec0 a0c6 00c0 c2be 15c0 9f8a 9cbf
00000020: be64 87be fc01 f8bf 652c 10c0 c808 08c0
00000030: 06c8 6bbf 9553 c83f e8b2 16c0 5451 1540
00000040: c9af 13c0 ec8d 18c0 ee28 4cbe 159a 12c0
00000050: d262 01c0 936f ecbf c53e f8bf d04f 1440
00000060: a654 16c0 46ba dfbf 9de2 0ac0 fe33 03c0
00000070: f8d7 16c0 cfd9 0dc0 6f92 1ac0 c604 613f
00000080: 993b 01c0 2398 10c0 4f00 1ac0 e422 05c0
00000090: c044 1340 4bd1 0bc0 58e0 f4bf c3c9 a1bf
000000a0: 4c4d 06c0 2e7e fabf 1004 c3bf 9c20 1440
000000b0: da1c 0fc0 8c93 08c0 a6ea 0dc0 efb5 48bf
000000c0: b5a9 04c0 21f5 fbbf 1b8e 18c0 03e9 1ac0
000000d0: b14a e2bf d5c6 fb3f fe8e 17c0 6788 debf
000000e0: 635d 403f f8a3 0cc0 cd98 0b40 3969 15c0
000000f0: 7574 06c0 aae0 fbbf 7e41 8fbf 0c25 05c0
00000100: 129a 11c0 cdcf 11c0 78a3 ebbe 77ad 09c0
00000110: c523 07c0 be86 84bf 2e6e f3bf 2608 1bc0
00000120: d69b 09c0 3c7d cfbf 21a1 ef3f ea4f 0dc0
00000130: b955 843e 3e09 03c0 19b9 64bf a1da 0ec0
00000140: 7314 16c0 5588 0ec0 bd5b 13c0 2226 d33f
00000150: 6636 00c0 b944 12c0 4596 79be 917a 02c0
00000160: 12d9 17c0 2ffd 11c0 3f45 95bf 5a90 c6bf
00000170: a1b9 01c0 3435 723d f13f ffbf 0d34 0bc0
00000180: 584c cebf 4a59 15c0 b496 13c0 454f c53f

fc3.weight f4 [100, 100]
-0.14303383 1.7707502 -2.1398332 2.2321906 2.1280115 -2.1162388 0.4814025 2.2722063
1.4669081 2.0904233 2.227928 -0.9975995 1.188738 -1.1342034 0.13190663 0.26742104
2.017401 -2.233389 -1.9564283 1.6888953 0.58199835 -2.2840064 2.2104948 -0.1998005
-2.2666786 -2.055736 -1.5211979 -2.270324 0.23422635 -2.1328237 -1.810518 -0.078517735
1.832286 2.2090197 -1.909333 -0.82489735 -0.33327475 -1.432793 -1.7493039 2.049635
1.4943784 -2.3514764 2.3035624 0.28441554 -2.1663363 -2.229765 1.9045188 -0.58200485
-1.9682269 -2.1774685 -2.2143245 2.2153604 -1.742405 -2.0627165 -1.6763448 -0.767519
-1.8176252 -2.3328428 1.2629288 2.2673695 1.3743455 -2.327102 -0.6726799 1.7490582
0.536497 1.0910678 -0.15605082 2.2310126 -1.0988343 -2.112891 2.2307353 0.14206408
2.0616183 -0.15919504 1.8657501 1.771943 2.1524704 1.593449 -0.2530953 2.079732
-2.3083262 2.134067 2.26408 -1.8634919 2.2369475 2.2244442 -0.82902044 -1.6600757
-1.9553064 2.2166576 0.5315762 -0.19415991 0.7176721 2.5134068 -1.0576704 -1.0595858
-2.0853367 -1.8877289 2.201716 -0.84770936 -0.09313835 -0.0589602 1.0216261 -2.2773669
-2.240023 -2.216476 0.09110867 -2.18156 -2.3211772 -2.2786868 -0.023745973 0.87970996
1.2900494 -2.227976 -2.2585142 -0.0021181894 1.8162521 -2.2563486 -2.1512184 0.0037704604
-2.339423 -0.019657096 -2.3702083 1.0015614 -2.2782872 -2.26104 -2.3141882 -0.09239698
-2.3033042 0.08807932 0.001783478 -2.3510704 -2.2638986 -2.2745068 -2.2486088 1.0872387
-0.07316452 -0.9590192 -2.3409212 -2.3691351 1.0420707 -2.184858 -2.2424436 1.8825132
0.020378575 -2.2970417 -2.2903934 1.3358148 -2.2029543 -0.08320718 -2.2637136 -2.224267
-2.2886252 -2.2422192 -2.3107502 -2.3356557 -2.3667061 -2.1905205 -2.1917853 -0.019617423
-1.1982157 -1.5542696 -2.104868 -2.3553958 -0.002977718 -1.9242167 0.09074252 -0.022475239
-2.4856355 1.1583736 -2.2782621 -2.3550677 1.6787292 -0.02525496 1.7107095 -1.4912783
0.030057544 -0.08185389 -2.3080666 -2.1994185 0.026928157 -2.3533442 0.013017234 -2.2573285
-2.2339354 -0.030729182 -2.2943802 -2.3422406 -2.262614 -2.2643096 -2.3622663 -2.3532593
-2.3039567 0.015560362 -2.3449638 -0.024776323 1.2417911 0.008656919 -0.059385456 -0.34430125
1.2827868 0.55298036 2.1541865 -1.6194727 -2.2159514 2.2306294 -0.45554957 -1.2964572
2.3765802 -2.3692324 1.1175618 0.99576354 0.62656724 -0.27050683 -2.308616 0.57453364
-0.40377215 2.364405 0.042917732 -2.2763894 2.2255738 -1.9444808 -0.727949 2.1022942
0.23016958 1.6375053 -2.045468 -2.0706568 -0.6827284 -2.1889365 2.479563 0.15284784
1.2704331 -2.28298 -2.1196032 -1.6632245 -1.385757 1.4258504 -2.0991228 -1.3002472
0.43534192 -0.8340627 2.1641436 2.0517967 2.23284 -0.2755647 -1.6722234 -2.2777207
1.9002883 -0.91140187 -2.3316114 -1.3215877 2.3044884 -1.5494658 -2.2062938 2.398374
00000000: 7677 12be f1a7 e23f 07f3 08c0 36dc 0e40
00000010: 5731 0840 7570 07c0 637a f63e d46b 1140
00000020: a5c3 bb3f 7fc9 0540 5f96 0e40 ae62 7fbf
00000030: 9128 983f 942d 91bf 8812 073e 69eb 883e
00000040: 191d 0140 d8ef 0ec0 3e6c fabf b92d d83f
00000050: d8fd 143f 292d 12c0 bf78 0d40 8198 4cbe
00000060: 4311 11c0 2e91 03c0 9db6 c2bf fd4c 11c0
00000070: 08d9 6f3e 2f80 08c0 0ebf e7bf e8cd a0bd
00000080: 5988 ea3f 9460 0d40 0665 f4bf 792c 53bf
00000090: fda2 aabe c365 b7bf 31e9 dfbf 382d 0340
000000a0: cb47 bf3f 977e 16c0 916d 1340 ea9e 913e
000000b0: 41a5 0ac0 78b4 0ec0 46c7 f33f 45fe 14bf
000000c0: dcee fbbf a55b 0bc0 7eb7 0dc0 77c8 0d40
000000d0: 2107 dfbf 8c03 04c0 7792 d6bf 207c 44bf
000000e0: f1a7 e8bf 4c4d 15c0 a7a7 a13f 951c 1140
000000f0: 8eea af3f 3def 14c0 c034 2cbf 24e1 df3f
00000100: de57 093f 1ca8 8b3f c9cb 1fbe e9c8 0e40
00000110: 9aa6 8cbf 9b39 07c0 5ec4 0e40 3f79 113e
00000120: 8ef1 0340 0604 23be e6d0 ee3f 07cf e23f
00000130: 13c2 0940 23f6 cb3f b595 81be 541a 0540
00000140: 9ebb 13c0 8e94 0840 b0e6 1040 e786 eebf
00000150: 262a 0f40 4b5d 0e40 af3a 54bf 5c7d d4bf
00000160: 7b47 fabf b8dd 0d40 6115 083f dbd1 46be
00000170: 5cb9 373f a8db 2040 be61 87bf 82a0 87bf
00000180: 2876 05c0 1aa1 f1bf eae8 0c40 7b03 59bf
00000190: 52bf bebd 4080 71bd a5c4 823f 61c0 11c0
000001a0: 895c 0fc0 beda 0dc0 2f97 ba3d ae9e 0bc0
000001b0: 2b8e 14c0 01d6 11c0 ea86 c2bc ac34 613f
000001c0: 5720 a53f 2997 0ec0 7f8b 10c0 52d1 0abb
000001d0: f37a e83f 0468 10c0 90ad 09c0 d419 773b
000001e0: 1bb9 15c0 eb07 a1bc 7eb1 17c0 2a33 803f
000001f0: 75cf 11c0 e1b4 10c0 a91b 14c0 a13a bdbd
00000200: 5669 13c0 ee62 b43d 97c3 e93a f077 16c0
00000210: b7e3 10c0 8591 11c0 35e9 0fc0 a32a 8b3f
00000220: 48d7 95bd 4882 75bf a7d1 15c0 e99f 17c0
00000230: 9362 853f b7d4 0bc0 3284 0fc0 31f6 f03f
00000240: f8f0 a63c bb02 13c0 ce95 12c0 fbfb aa3f
00000250: 34fd 0cc0 8768 aabd afe0 10c0 645a 0ec0
00000260: d678 12c0 8580 0fc0 55e3 13c0 627b 15c0
00000270: 1d78 17c0 7d31 0cc0 3646 0cc0 b8b4 a0bc
00000280: 225f 99bf 4ef2 c6bf 28b6 06c0 cebe 16c0
00000290: d125 43bb bc4c f6bf 37d7 b93d fe1d b8bc
000002a0: a714 1fc0 9645 943f 0ccf 11c0 6eb9 16c0
000002b0: 99e0 d63f 7de3 cebc 87f8 da3f 35e2 bebf
000002c0: 3d3b f63c 03a3 a7bd 5db7 13c0 46c3 0cc0
000002d0: 7098 dc3c 319d 16c0 3d46 553c 1278 10c0
000002e0: ccf8 0ec0 c4bb fbbc 20d7 12c0 45e7 15c0
000002f0: abce 10c0 73ea 10c0 5f2f 17c0 cd9b 16c0
00000300: 0774 13c0 e3f0 7e3c e313 16c0 b7f7 cabc
00000310: 03f3 9e3f c0d5 0d3c 2a3e 73bd 4148 b0be
00000320: 5c32 a43f 1f90 0d3f 31de 0940 e24a cfbf
00000330: 26d2 0dc0 a2c2 0e40 cb3d e9be 4ff2 a5bf
00000340: e419 1840 81a1 17c0 440c 8f3f 5cea 7e3f
00000350: b666 203f df7f 8abe 5dc0 13c0 a314 133f
00000360: 39bb cebe 6952 1740 81ca 2f3d 5db0 11c0
00000370: cd6f 0e40 bfe4 f8bf de5a 3abf fd8b 0640
00000380: 93b1 6b3e c699 d13f f3e8 02c0 a485 04c0
00000390: 4ac7 2ebf 8917 0cc0 29b1 1e40 2584 1c3e
000003a0: 8d9d a23f 581c 12c0 94a7 07c0 8ae4 d4bf
000003b0: 7c60 b1bf 4482 b63f 0758 06c0 806e a6bf
000003c0: 23e5 de3e 2285 55bf 5481 0a40 a350 0340
000003d0: dae6 0e40 d116 8dbe 6b0b d6bf 2dc6 11c0
000003e0: a63c f33f a251 69bf 1f39 15c0 c929 a9bf
000003f0: bd7c 1340 e554 c6bf eb33 0dc0 f67e 1940

fc3.bias f4 [100]
2.4184554 -2.4383626 -0.5365672 0.004725798 -2.1760607 -2.1818697 -1.8827641 1.0840002
-2.357796 -1.4987785 -2.2893667 -2.295045 -2.2903469 -0.11630621 -2.2034893 -1.7009097
-2.2123487 -2.205681 -2.1571035 -1.9546778 -1.7010634 -2.3613327 -2.2043781 -2.2218559
-2.525259 -1.3308926 -2.6717827 -2.083971 -2.3384962 -2.1459565 -2.475253 -1.8848996
-2.367311 -2.3002374 -2.2728145 -2.314038 -2.1275403 -2.127681 -2.4285176 -2.2993982
-0.7799739 -2.2345135 -2.2829847 -0.6028075 -1.5040737 0.65503746 -1.7753322 -1.9638988
-0.95727974 -2.320257 -2.2674146 -2.3519137 -1.7426271 -2.201244 -2.2628758 -2.3622694
-2.354457 -2.3528707 -2.1186018 -1.4472702 -2.2285223 -2.2998526 0.89580655 0.12756747
-2.122462 -2.4492176 0.13569252 2.1976895 -1.9149868 -0.96808404 -2.3305361 -1.3620535
-1.5970416 -2.1574466 -2.2715766 0.06042255 -0.8781461 -1.6376133 -2.3656995 -2.110525
-2.4090369 -1.5854218 -1.9158881 -1.5763152 -1.7626315 0.4006018 -2.3613389 -1.7314247
-1.2790774 -2.392181 1.9436165 -0.28590074 1.8107054 -1.5839194 -1.8849587 1.7020572
1.820832 2.4208734 -2.2935607 -2.4799266
00000000: f9c7 1a40 220e 1cc0 785c 09bf deda 9a3b
00000010: 9444 0bc0 c1a3 0bc0 6afe f0bf 85c0 8a3f
00000020: 21e6 16c0 f9d7 bfbf fc84 12c0 04e2 12c0
00000030: 0b95 12c0 f331 eebd f805 0dc0 69b7 d9bf
00000040: 1f97 0dc0 e129 0dc0 fc0d 0ac0 e232 fabf
00000050: 72bc d9bf 1320 17c0 8814 0dc0 e332 0ec0
00000060: d89d 21c0 b05a aabf 7dfe 2ac0 c85f 05c0
00000070: eca9 15c0 5a57 09c0 8c6a 1ec0 6444 f1bf
00000080: 0682 17c0 1737 13c0 cb75 11c0 3319 14c0
00000090: 9f29 08c0 ed2b 08c0 d56c 1bc0 5729 13c0
000000a0: 5fac 47bf 4502 0fc0 6c1c 12c0 9851 1abf
000000b0: 7d85 c0bf 89b0 273f 163e e3bf 0961 fbbf
000000c0: 4910 75bf 177f 14c0 521d 11c0 c185 16c0
000000d0: 680e dfbf 2fe1 0cc0 f5d2 10c0 6c2f 17c0
000000e0: 6caf 16c0 6f95 16c0 2c97 07c0 2640 b9bf
000000f0: 1ca0 0ec0 c930 13c0 9453 653f 0ca1 023e
00000100: 6bd6 07c0 fbbf 1cc0 fbf2 0a3e f2a6 0c40
00000110: 4a1e f5bf 5bd4 77bf 8127 15c0 c557 aebf
00000120: dc6b ccbf 9b13 0ac0 8361 11c0 a37d 773d
00000130: 2fce 60bf 509d d1bf 9f67 17c0 d712 07c0
00000140: a92d 1ac0 1aef cabf d23b f5bf b2c4 c9bf
00000150: e99d e1bf ae1b cd3e 2d20 17c0 539f ddbf
00000160: cfb8 a3bf 7e19 19c0 6dc8 f83f 9561 92be
00000170: 32c5 e73f dfbd cabf 5446 f1bf 03dd d93f
00000180: 0611 e93f 97ef 1a40 b3c9 12c0 1eb7 1ec0

fc4.weight f4 [6, 100]
0.4224704 -0.93251485 0.08580868 -2.4869144 1.8126515 -2.3004057 1.9843236 2.121553
2.1671586 -1.7611829 -2.357369 1.0054988 -2.3716395 -1.5572574 -2.0730066 -1.4550129
2.252693 -2.192495 -1.4916357 -1.3401006 2.0903838 -2.4208097 -2.1853082 -2.2481086
1.1921734 -1.8161654 0.004039234 0.77405506 2.336858 1.2284777 -2.4094696 2.1275601
2.350032 2.1832361 -2.1527615 -2.2713327 -1.0189995 1.9681468 -0.123724855 2.1717277
0.188708 -2.0732405 -2.303303 1.3128313 0.6346249 1.9287415 2.1900148 1.3995568
1.9003788 -2.17514 -0.65669525 -2.2813423 2.1307151 -1.5010955 -2.1778011 -0.27376994
2.2098598 -2.2107217 2.2445793 1.5182455 -2.2076752 -2.184697 -1.0544105 0.7460225
-1.9226383 -1.4012973 1.9989783 2.1660917 2.2673364 -1.8618608 2.2236795 -0.4612508
-1.982362 2.1578536 -1.5766747 -1.9705421 -2.2779546 2.1142597 -1.9322499 2.1065373
-2.354843 1.8036797 1.7243702 2.052696 2.2118626 0.023209667 -2.1706662 2.0954828
-1.3088534 1.6926494 -1.6715015 -1.2868916 -0.98256433 1.9535338 -1.7180984 2.0321047
-1.7863013 0.5691674 0.8891185 0.91556925 1.2030461 0.80472845 0.26110893 0.680692
2.1398447 2.2026565 -2.2928395 -2.211127 -1.898998 -2.2328138 2.192943 1.9407951
1.6997341 1.9574118 2.2376268 -2.2219136 -2.2614818 2.303615 -1.6641911 -2.000565
0.75938314 1.6584681 2.270278 2.236275 -1.2400353 1.9451616 -1.8159637 -1.3328662
-2.198434 1.7778704 0.05888958 1.768574 -2.3077748 -2.2600222 -2.0823395 2.2357023
1.7003586 -1.5881512 0.15290818 -2.256681 -0.1686422 1.3406086 2.1841755 2.1023855
1.3428808 2.0245316 2.33393 -2.1243327 1.639033 -1.7196265 -0.1844035 -2.16727
-2.3741632 1.6075069 2.2607052 1.9745839 -2.1884615 2.3129952 -2.0825737 1.5008348
2.228517 2.2946794 1.8203126 -1.0965997 2.051195 1.8146241 -2.2610476 1.5124483
-2.1398716 1.7733058 -2.2554622 1.9032927 -1.7205119 -2.1400514 1.6898795 -1.6378571
-0.4908375 -2.1356509 1.6894128 2.2773716 -2.2068477 -2.1614707 -2.344133 -2.1803472
-2.131709 -0.106640644 -2.275829 2.0429676 1.5251026 -1.6233709 1.4282905 -0.5653423
1.9839762 -2.2633343 -2.094737 -2.2156146 1.9665236 -0.4191676 2.1568403 0.37590876
-1.4836805 0.7632278 -0.050844695 -1.7453979 -1.919961 -2.344762 -2.3789308 -2.1418662
1.7785492 -2.344403 -2.2095551 0.11097953 -2.1880288 -2.131601 -2.015022 -2.2149093
2.1029096 2.2575717 2.3512201 2.2704096 -2.2442062 1.2484813 -2.3423107 -2.2689393
-2.457105 -2.367495 -2.442508 2.050892 1.5329446 -1.8198667 -2.3501606 -2.2363417
-2.2673852 -2.2480602 -2.3793776 -2.201462 -2.2767675 -2.3284972 1.8848517 -2.1203504
-1.2719208 -0.88820016 2.2022738 0.8775617 -0.056024265 -2.3822842 -2.2120483 1.9357355
-2.2650442 2.1599562 0.3020276 2.2236483 -2.3457005 -2.4417303 -2.3516192 1.893653
00000000: 0a4e d83e 4bb9 6ebf 76bc af3d 9b29 1fc0
00000010: f704 e83f d939 13c0 51fe fd3f 86c7 0740
00000020: bab2 0a40 716e e1bf 22df 16c0 2fb4 803f
00000030: f1c8 17c0 3654 c7bf 24ac 04c0 dd3d babf
00000040: 1f2c 1040 d751 0cc0 ebed bebf 6b88 abbf
00000050: d9c8 0540 8cee 1ac0 17dc 0bc0 03e1 0fc0
00000060: 2399 983f 1c78 e8bf 8d5b 843b 7928 463f
00000070: 158f 1540 c23e 9d3f c034 1ac0 f229 0840
00000080: ed66 1640 24ba 0b40 d8c6 09c0 845d 11c0
00000090: 936e 82bf 3cec fb3f 7563 fdbd 96fd 0a40
000000a0: ac3c 413e f9af 04c0 5169 13c0 db0a a83f
000000b0: c776 223f 00e1 f63f 3429 0c40 ad24 b33f
000000c0: 9d3f f33f 7e35 0bc0 2e1d 28bf 8301 12c0
000000d0: a35d 0840 e623 c0bf 1861 0bc0 932b 8cbe
000000e0: 586e 0d40 777c 0dc0 30a7 0f40 de55 c23f
000000f0: 8d4a 0dc0 13d2 0bc0 ecf6 86bf 55fb 3e3f
00000100: 0319 f6bf b65d b3bf 85de ff3f 3fa1 0a40
00000110: 0a1c 1140 7451 eebf c450 0e40 1129 ecbe
00000120: 0abe fdbf 461a 0a40 7ad0 c9bf b93a fcbf
00000130: 02ca 11c0 0850 0740 f753 f7bf 82d1 0640
00000140: bfb5 16c0 fade e63f 2ab8 dc3f 5f5f 0340
00000150: 288f 0d40 3322 be3c 32ec 0ac0 641c 0640
00000160: 8288 a7bf bca8 d83f c3f3 d5bf ddb8 a4bf
00000170: 5689 7bbf 650d fa3f a6ea dbbf 010e 0240
00000180: 85a5 e4bf f4b4 113f 459d 633f bf62 6a3f
00000190: 6afd 993f af02 4e3f 12b0 853e d541 2e3f
000001a0: 37f3 0840 53f8 0c40 e2bd 12c0 1b83 0dc0
000001b0: 5e12 f3bf 6ce6 0ec0 2e59 0c40 f96b f83f
000001c0: e390 d93f 788c fa3f 4735 0f40 d533 0ec0
000001d0: 1ebc 10c0 6e6e 1340 3704 d5bf 4209 00c0
000001e0: ef66 423f af48 d43f 3c4c 1140 211f 0f40
000001f0: 7ab9 9ebf 0efb f83f 8071 e8bf 5c9b aabf
00000200: 25b3 0cc0 4291 e33f 3336 713d a260 e23f
00000210: 95b2 13c0 34a4 10c0 0d45 05c0 bf15 0f40
00000220: 5aa5 d93f 8a48 cbbf f693 1c3e 766d 10c0
00000230: 8ab0 2cbe 1099 ab3f 88c9 0b40 7c8d 0640
00000240: 85e3 ab3f ed91 0140 1c5f 1540 11f5 07c0
00000250: d5cb d13f b91c dcbf 45d4 3cbe 8db4 0ac0
00000260: 4af2 17c0 c9c2 cd3f 65af 1040 2abf fc3f
00000270: c10f 0cc0 1d08 1440 e348 05c0 5b1b c03f
00000280: 06a0 0e40 07dc 1240 0100 e93f 615d 8cbf
00000290: c746 0340 9a45 e83f 01b5 10c0 e897 c13f
000002a0: a8f3 08c0 affb e23f 7e59 10c0 189f f33f
000002b0: bc39 dcbf 9af6 08c0 f94d d83f 4da5 d1bf
000002c0: 0e4f fbbe 81ae 08c0 ae3e d83f 75c0 1140
000002d0: fe3c 0dc0 8955 0ac0 4606 16c0 cf8a 0bc0
000002e0: ec6d 08c0 6966 dabd 2fa7 11c0 fbbf 0240
000002f0: 9036 c33f 9eca cfbf 39d2 b63f 46ba 10bf
00000300: eff2 fd3f 78da 10c0 2c10 06c0 a1cc 0dc0
00000310: 0cb7 fb3f 239d d6be ac09 0a40 1d77 c03e
00000320: 3ee9 bdbf e662 433f 8742 50bd 3369 dfbf
00000330: 48c1 f5bf 9510 16c0 6740 18c0 5614 09c0
00000340: 80a7 e33f b30a 16c0 5a69 0dc0 3c49 e33d
00000350: aa08 0cc0 276c 08c0 1ff6 00c0 13c1 0dc0
00000360: 1296 0640 0e7c 1040 647a 1640 644e 1140
00000370: 13a1 0fc0 3cce 9f3f 6be8 15c0 4d36 11c0
00000380: 3541 1dc0 0a85 17c0 0d52 1cc0 d141 0340
00000390: 8737 c43f 64f1 e8bf 0869 16c0 3920 0fc0
000003a0: d71c 11c0 38e0 0fc0 b947 18c0 c1e4 0cc0
000003b0: 8fb6 11c0 1906 15c0 d242 f13f d2b3 07c0
000003c0: 4dce a2bf 1661 63bf 0ef2 0c40 e2a7 603f
000003d0: b379 65bd 5877 18c0 3392 0dc0 2ec6 f73f
000003e0: 7cf6 10c0 b93c 0a40 5da3 9a3e 4150 0e40
000003f0: f51f 16c0 4f45 1cc0 ee80 16c0 3963 f23f

fc4.bias f4 [6]
0.03258201 -1.0862061 -0.46288976 -1.729698 0.28207302 0.68177
00000000: b774 053d cd08 8bbf e3ff ecbe be66 ddbf
00000010: e06b 903e 7b88 2e3f
