figs/nostopping/mlp/mlp_model_dict.pt (torch, 141967 bytes, 10 tensors)

group.0.weight f4 [100, 100]
000000 1e 47 b2 bf 9a 87 b2 bf b0 bc d9 bf 55 ea 8a 3f
       -1.3927953 -1.3947632 -1.7010708 1.0852762
000010 de 1c c1 bf f6 36 99 bf bd e3 bb bf 6b ac be bf
       -1.5086935 -1.1969898 -1.4678875 -1.4896368
000020 0c 26 bf bf bd 20 c3 bf 51 77 ae bf a8 c6 b1 bf
       -1.4933486 -1.5244366 -1.3630162 -1.388875
000030 8a 23 a9 3f 66 a8 cd 3f 80 97 bf bf cc 58 c6 bf
       1.3213971 1.6067016 -1.4968109 -1.5495849
000040 ce ec c4 bf 2b 8c 00 bf 8f cc b7 bf 0d 1a b5 bf
       -1.5384767 -0.5021388 -1.4359301 -1.4148575
000050 da b3 9d bf f4 8c b5 3f 6b 4b a6 bf df a7 b9 bf
       -1.2320511 1.418364 -1.2991766 -1.4504355
000060 d5 50 bf bf 9f 43 b6 bf 3b 95 b4 bf 52 5d b8 bf
       -1.4946543 -1.4239386 -1.4108042 -1.4403479
000070 ab a7 c1 bf 00 62 c6 bf 52 33 c3 bf 71 39 aa bf
       -1.5129293 -1.5498657 -1.5250037 -1.329878
000080 f7 70 b3 bf 65 d4 b9 bf 99 05 c0 bf 12 e3 b1 bf
       -1.4018849 -1.4517943 -1.5001708 -1.3897421
000090 2c 19 bc bf 84 ad c3 bf 0b 84 be bf b0 87 be bf
       -1.4695182 -1.5287328 -1.4884046 -1.4885159
0000a0 1e 93 c0 bf 33 61 b9 3f 98 69 b2 bf 40 a5 c0 bf
       -1.5044897 1.4482788 -1.3938475 -1.505043
0000b0 2c e8 93 bf ed e2 bd bf 5e f3 bc bf 21 41 b5 bf
       -1.1555228 -1.4834877 -1.476177 -1.4160501
0000c0 74 21 b0 bf e1 f2 59 bf cd cf ad bf 73 be b0 bf
       -1.3760209 -0.8513623 -1.3579041 -1.380812
0000d0 14 aa ba bf b6 f2 b3 3f da 48 c6 bf 34 e6 b0 bf
       -1.4583154 1.4058444 -1.5490983 -1.3820252
0000e0 16 6d c4 bf 27 8d b4 bf 7d 5c c8 bf 3c 0f b3 bf
       -1.534579 -1.4105576 -1.5653225 -1.3989024
0000f0 b3 71 b0 bf 29 30 b0 bf fe 57 b5 bf ff bf b8 bf
       -1.3784698 -1.3764697 -1.4167478 -1.4433593
000100 e6 cb b1 bf 62 61 5c bf ce c5 b8 bf 72 ca a9 bf
       -1.389035 -0.86086094 -1.4435365 -1.3264906
000110 d6 87 c8 bf 24 05 c3 bf 65 d1 c4 bf 89 89 b5 bf
       -1.5666454 -1.5235944 -1.5376402 -1.4182597
000120 86 d3 b2 bf 39 da b1 bf 7c 3d b7 bf 33 25 c0 bf
       -1.3970802 -1.3894721 -1.4315639 -1.5011352
000130 73 9f ba bf 9c 8f b7 3f 78 0b bc bf d6 50 b1 bf
       -1.457991 1.4340701 -1.4691 -1.3852794
000140 3d 91 b3 bf 6d e1 b0 bf 77 39 c4 bf 58 b6 c4 bf
       -1.4028698 -1.3818794 -1.5330037 -1.5368147
000150 95 3d c1 3f 16 a8 ba bf 90 af bc bf d0 f1 be bf
       1.5096918 -1.4582546 -1.4741077 -1.4917545
000160 0a 15 9a bf be e5 ae bf 8e c5 c6 bf 15 40 b4 3f
       -1.2037671 -1.3663862 -1.5529039 1.4082056
000170 f9 db bf bf 11 fb ba 3f 41 02 7f bf 1b cd b3 bf
       -1.4989005 1.4607869 -0.99612814 -1.4046968
000180 f2 a1 af bf 36 d6 c7 bf 93 8c ad bf 07 b6 c0 bf
       -1.3721297 -1.5612247 -1.3558525 -1.505555
000190 7a f3 b5 bf d4 7d b8 bf bf 23 c8 bf 78 62 c3 bf
       -1.4214928 -1.44134 -1.5635909 -1.5264425
0001a0 46 bc ba bf 0a f9 b2 bf a1 63 c6 bf 28 2c ce 3f
       -1.4588706 -1.3982251 -1.5499154 1.6107225
0001b0 2a 75 b4 bf c2 ed bc bf 86 eb c5 3f e6 32 ad bf
       -1.4098256 -1.4760058 1.5462501 -1.3531158
0001c0 b5 17 b3 bf 23 78 b7 bf c0 4f bf bf e3 e3 b0 bf
       -1.399161 -1.4333538 -1.4946213 -1.3819546
0001d0 d8 fd c6 bf 5f aa c3 bf 5d 75 b4 bf 3a 86 af bf
       -1.5546217 -1.5286368 -1.4098316 -1.3712838
0001e0 26 af c3 bf 1b 25 c8 3f fe 45 fc be c5 1a be bf
       -1.5287826 1.5636324 -0.4927215 -1.485192
0001f0 65 5c ba bf 06 93 ad bf dd c5 af bf b8 a8 b9 bf
       -1.4559447 -1.3560493 -1.3732258 -1.4504614
000200 23 a3 af bf 32 71 bf bf c0 46 c0 bf cf d0 b8 bf
       -1.372166 -1.495642 -1.5021591 -1.4438723
000210 1c b9 ae bf a2 11 c0 bf 28 f4 c1 bf 34 26 ac bf
       -1.3650241 -1.5005381 -1.5152636 -1.3449159
000220 6b 3a ae bf 69 b5 ba bf 2e bf 60 bf ad 6c b5 bf
       -1.3611578 -1.4586612 -0.8779172 -1.417379
000230 5d 69 b5 bf 52 69 b8 bf fe bd b7 bf 22 d3 ae bf
       -1.4172779 -1.4407141 -1.4354856 -1.3658183
000240 3d c6 bb bf e2 88 bb bf 05 a6 bc bf 81 c8 b3 bf
       -1.4669873 -1.4651148 -1.4738165 -1.4045564
000250 21 b6 ad bf b3 fa c0 bf c7 cc ac bf 2c 06 c9 bf
       -1.3571206 -1.5076507 -1.3499993 -1.5705009
000260 98 98 b0 bf eb 95 b4 bf 1a 3e c3 bf aa 5b c3 bf
       -1.3796568 -1.4108251 -1.5253327 -1.5262349
000270 b0 1c bf 3f e1 31 c7 bf 09 41 b0 bf 0d 4c b8 bf
       1.493063 -1.5562097 -1.3769847 -1.4398209
000280 0b c2 b0 bf 9f a6 c0 bf 6d 2c b3 bf f8 b7 be bf
       -1.3809217 -1.5050849 -1.3997933 -1.4899893
000290 a4 d4 c0 bf f4 f6 b2 bf b1 8a af bf 4b 81 c5 bf
       -1.5064893 -1.3981614 -1.37142 -1.5430082
0002a0 55 3d b1 bf 2e 1b b5 bf 67 88 bb bf f6 fd b1 3f
       -1.3846842 -1.414892 -1.4651002 1.3905628
0002b0 2e 1b b2 bf 41 42 c8 bf 9c 98 b2 bf 7e a5 c3 bf
       -1.3914545 -1.5645219 -1.3952823 -1.5284879
0002c0 07 39 be bf ff 22 af bf 4b de bd bf b8 1a bd bf
       -1.4861153 -1.3682555 -1.4833463 -1.4773779
0002d0 14 fa 56 bf 53 8a bb bf be 3c b4 bf 9e ac bd bf
       -0.8397534 -1.4651588 -1.4081037 -1.4818304
0002e0 f5 78 b5 bf 5b 1a b9 bf a9 2e bd 3f 43 47 b4 3f
       -1.4177538 -1.4461168 1.4779865 1.4084247
0002f0 bd 9e c4 bf 90 7d b8 bf 2a f4 bb bf 6b 43 c3 bf
       -1.5360943 -1.4413319 -1.4683888 -1.5254949
000300 b6 5f ba bf 0b 4d ba bf 26 ac b4 bf c8 e4 bf bf
       -1.4560459 -1.4554762 -1.4115036 -1.4991693
000310 5d 99 0a bf 56 8a c6 bf b5 94 b4 bf ce cc b6 bf
       -0.54140264 -1.5510967 -1.4107882 -1.4281251
000320 30 ce 1f 3f 8a 08 8a 3d 9c 87 81 bf 84 48 e9 3e
       0.6242399 0.0673991 -1.011951 0.45563138
000330 d3 44 16 bf a0 45 34 bf b5 2e 58 bf fe 35 75 3f
       -0.5869877 -0.7041874 -0.8444627 0.9578551
000340 87 17 a2 bf 84 a7 d9 3f b2 3b 3b 3f ca 06 11 bf
       -1.266343 1.7004247 0.7313796 -0.56650984
000350 f1 1c be 3f 94 20 60 be d8 61 13 3f a4 c0 a9 be
       1.4852582 -0.21887428 0.5757117 -0.33154786
000360 73 7a f4 be 00 76 6d bf 16 ed d4 3f 1e de 33 3e
       -0.4774967 -0.9275818 1.6634853 0.175652
000370 68 9a 69 3d 6e 1e 3c bf e2 31 98 bd c8 ab a0 3f
       0.05703202 -0.7348393 -0.074313894 1.2552423
000380 35 21 dd 3f 4f 62 91 bf 9b 3f f4 3e 78 f2 bd be
       1.7275759 -1.1358126 0.47704777 -0.3709905
000390 1a 3c 2d bf c4 dc 14 be 46 cc 1c bf f3 6a 5f 3f
       -0.6766983 -0.1453734 -0.61249197 0.87272567
0003a0 66 f8 43 3f 45 1b c2 3f b3 b5 b8 3e a5 27 4e 3f
       0.765509 1.5164572 0.36076126 0.8052924
0003b0 65 8c a4 3f 66 bf b7 bd c9 ed e2 3f 00 3d 0e bf
       1.2855345 -0.08972053 1.7728816 -0.5556183
0003c0 32 31 84 bf da 79 f6 bd d8 be 49 bf d7 51 e5 3e
       -1.0327513 -0.1203496 -0.7880683 0.44789
0003d0 74 07 6e be ec 50 b0 3d f8 cc 2b bf 9d aa 37 3f
       -0.2324503 0.086091846 -0.6710963 0.7174471
0003e0 c2 65 72 3f bc 65 16 bf 1c 32 25 3d 9c f2 a9 bd
       0.9468652 -0.58748984 0.04033099 -0.08298227
0003f0 69 d6 ee 3e f7 ce 41 bd 5e 51 dd 3f e6 fa cb 3e
       0.46647957 -0.047316518 1.7290456 0.39839858

group.0.bias f4 [100]
000000 af bd 9d bd a6 0b c4 bf 14 12 77 bf ca 13 ab bf
       -0.07702195 -1.5316055 -0.9651196 -1.3365414
000010 56 c6 6a bf ab f2 6a be cc a3 bc bf 8b 11 14 bf
       -0.91708887 -0.22944133 -1.4737487 -0.5783927
000020 12 45 ba bf 73 36 b8 bf e7 92 ba bf de 95 fe be
       -1.4552329 -1.4391617 -1.4576081 -0.49723715
000030 bc 38 c4 bf a9 fe 16 3f 5b 16 97 bf a4 6d bd bf
       -1.5329814 0.5898233 -1.1803697 -1.4799085
000040 6d fd bb bf c2 7a 57 bf ea 26 24 3e af b0 1c bf
       -1.4686714 -0.8417169 0.1603047 -0.612071
000050 ff cb 69 bf 74 30 99 bf cb 29 ad bf df 71 b5 bf
       -0.913269 -1.1967912 -1.3528379 -1.4175376
000060 6d 13 bd bf 37 6f af bf aa bf 14 bf e8 81 21 bd
       -1.4771553 -1.3705815 -0.58104956 -0.03943053
000070 b7 ab 46 bf bd 34 1d bf ac 87 9a 3f 2a 5e 31 bf
       -0.77605766 -0.614086 1.2072654 -0.6928431
000080 80 ed c3 bf 83 3b 89 bf c7 18 d1 3c 95 fd d4 bf
       -1.5306854 -1.0721287 0.02552451 -1.6639887
000090 40 1d 00 3f fb f4 15 bf 31 33 98 bf 7c 32 17 be
       0.5004463 -0.58576936 -1.1890622 -0.14765352
0000a0 bc 52 33 bf 2e 77 bf bf ee 1f b7 bf 15 db 37 bf
       -0.7004812 -1.4958246 -1.4306619 -0.7181867
0000b0 51 bf a8 3f 96 60 c7 bf a5 3e b6 3f cb f3 ba bf
       1.3183385 -1.5576351 1.4237868 -1.460565
0000c0 da da b6 bf 01 8a 30 bf 4b 13 fa 3e 22 37 bb bf
       -1.4285538 -0.6896058 0.48842844 -1.46262
0000d0 57 16 bb 3f 6c 66 c4 bf b2 8e bf 3f c3 56 ad bf
       1.4616193 -1.5343757 1.4965422 -1.3542103
0000e0 f0 cb c6 bf e0 8f 9f 3f cd 68 06 3f e0 d1 a0 bf
       -1.5530987 1.2465782 0.52503663 -1.2564049
0000f0 56 7e 9c bf 18 ad aa 3f bf 98 be bf 5f 18 c1 bf
       -1.2226055 1.3334074 -1.4890364 -1.5085562
000100 a7 f5 33 bf 4e 5a ae bf e6 61 7c bf ef 78 ab bf
       -0.7029671 -1.3621309 -0.9858688 -1.3396281
000110 c7 63 b4 bf a2 95 b5 bf 94 13 bc 3f 20 a8 17 bf
       -1.409295 -1.4186289 1.4693475 -0.59240913
000120 bb 39 bf bf 9d a5 bd bd a7 b7 54 bf 75 7b be be
       -1.4939493 -0.09260104 -0.8309273 -0.37203565
000130 c6 b8 01 bf f2 68 ac 3f 2f 06 b5 bf 07 27 ec be
       -0.50672567 1.3469527 -1.4142512 -0.46123526
000140 22 e0 96 bf fa e7 9f bf f9 2c 16 3f cc 1d 21 3f
       -1.178715 -1.2492669 0.5866237 0.6293609
000150 74 19 44 bf 83 7d b9 bf 1e 0a b4 bf 5f 91 c0 bf
       -0.7660134 -1.4491428 -1.4065588 -1.5044364
000160 62 4f 9e 3f 3c 67 bb bf 01 3c b0 bf 58 dc 93 3f
       1.2367976 -1.464088 -1.3768312 1.1551619
000170 b8 e2 af bf c6 6a b1 bf da bf 74 3e 4b 6f 55 3e
       -1.3741064 -1.386071 0.2390131 0.20843236
000180 ee 3d 37 bf cc 89 96 bf 42 5b d1 3f f8 06 c8 3f
       -0.7157887 -1.1760802 1.6355975 1.5627127

fc1.weight f4 [100, 240]
000000 40 a4 9c 3f ae 01 62 3f c1 fa 88 bf 17 63 8b bf
       1.2237625 0.88283813 -1.0701524 -1.0889615
000010 95 bf 8d bf 77 a7 80 bf a5 83 76 3f f4 30 7c 3f
       -1.1074091 -1.0051106 0.96294624 0.98512197
000020 86 3e 80 3f 2f a5 a8 3f 67 0a 47 3f 96 7b 09 3f
       1.0019081 1.317541 0.7775025 0.537042
000030 eb 07 0a bf 40 d7 90 3e 4c 99 de be a3 65 46 bf
       -0.5391833 0.28289223 -0.4347633 -0.77498835
000040 95 f1 dc bd 9f bb a6 bf 53 ea 2d bf d4 66 32 bf
       -0.107882656 -1.3026007 -0.67935675 -0.69688153
000050 74 63 95 3f 14 ff 9a 3f d4 07 8e 3f 47 df 78 3f
       1.1670976 1.2109094 1.1096139 0.97215694
000060 96 5f 04 bf 70 54 0a 3f 71 51 2d 3f 0c 46 ae 3f
       -0.5170835 0.5403509 0.67702395 1.3615127
000070 57 0b bd 3f 22 f0 f6 bd 6a 3f 46 bf 9a 63 a0 bf
       1.4769086 -0.120575204 -0.7744051 -1.2530396
000080 8f 4f b5 bf c5 5d a2 bf b4 a4 a1 bf bd b8 64 3f
       -1.4164904 -1.2684866 -1.2628388 0.8934439
000090 7b e9 af 3f ca bb 45 3f cf 56 f8 be e4 b2 dd 3e
       1.3743128 0.7723967 -0.4850373 0.43300545
0000a0 06 50 57 3f f2 d7 b7 3f d3 64 5e 3e db 3c ac 3f
       0.8410648 1.4362776 0.21718149 1.3456072
0000b0 e4 bc a9 3e e1 7b 31 bf 5d 10 3b be a7 fc af be
       0.33151925 -0.6932965 -0.18267961 -0.34372446
0000c0 d8 09 77 3f 18 03 a9 3f eb 5d 89 3e ab 0d 86 bf
       0.96499395 1.3204069 0.26829466 -1.0472921
0000d0 ef 3c 66 bf da e9 73 bf 94 c9 4f 3f 12 1d 8f 3f
       -0.8993673 -0.95278704 0.8116696 1.1180747
0000e0 6b d4 31 3f 94 da 0c 3b 64 21 e6 3e 10 61 a1 3f
       0.6946475 0.0021492587 0.4494735 1.2607746
0000f0 06 00 cc bd 90 04 81 3e 45 8f 30 3f 0b 86 d7 3e
       -0.09960942 0.25198793 0.6896861 0.42094454
000100 ba 73 ef be 4a a2 59 bf 15 87 6a bf 69 ae 70 bf
       -0.4676798 -0.8501326 -0.9161237 -0.9401613
000110 01 bb b8 3f 16 a2 96 3f ea 9e 51 3f 1f 3c 8f 3f
       1.4432069 1.1768215 0.8188311 1.1190223
000120 84 3d 9d 3f c5 d9 63 bf ea a5 bb bd 2f fb 98 bc
       1.2284398 -0.89004165 -0.09162505 -0.018674461
000130 16 b6 86 bf 72 d4 68 bf 31 81 5e bf 22 47 86 bf
       -1.0524318 -0.90949166 -0.8691588 -1.0490458
000140 60 5b c1 bf 8b bc bc bf 9d 25 bd bf 1c 21 c6 bf
       -1.510601 -1.4745039 -1.4777104 -1.5478854
000150 e9 f6 be bf 56 57 af bf 64 2c ba bf cd 5b a4 bf
       -1.4919101 -1.3698528 -1.4544797 -1.2840515
000160 54 de 6a bf 5b 11 1b 3f 79 15 a6 bf 2d 56 b4 bf
       -0.91745496 0.6057336 -1.2975303 -1.4088799
000170 30 0b b4 bf 41 15 b9 bf b8 a9 bc bf cb c9 c6 bf
       -1.4065914 -1.4459611 -1.4739294 -1.5530332
000180 ce fe c2 bf dd 92 be bf ec d0 b8 bf ff a5 af bf
       -1.523401 -1.4888569 -1.4438758 -1.3722533
000190 2d 47 9f bf a0 b4 b3 bf 6d 69 b9 bf 17 e0 b4 bf
       -1.2443596 -1.4039497 -1.4485298 -1.4130887
0001a0 b0 66 c0 bf 06 e0 b2 bf cc 7b d3 3d 9c 6d be bf
       -1.5031338 -1.3974617 0.10326347 -1.48772
0001b0 5c 4e b6 bf 15 02 bf bf 1a 50 bb bf 2c e5 c8 bf
       -1.4242663 -1.492251 -1.463382 -1.5694938
0001c0 87 92 b3 bf 03 12 b8 bf 99 14 92 bf 5a 85 14 bf
       -1.4029092 -1.4380497 -1.1412536 -0.5801598
0001d0 4f 38 a6 bf 93 36 b6 bf 3f e8 b7 bf 88 34 b8 bf
       -1.2985934 -1.4235405 -1.4367751 -1.4391031
0001e0 64 ed b3 bf 74 ac a8 bf b8 25 95 3e 78 d5 94 bf
       -1.4056821 -1.3177629 0.2913034 -1.1627645
0001f0 07 e9 c1 bf e1 b1 c0 bf ff ea b5 bf fc a5 ba bf
       -1.5149239 -1.5054284 -1.421234 -1.4581904
000200 b7 fb a3 bf f4 4b ab bd b7 4f 2c 3f e7 a6 7c 3e
       -1.2811192 -0.08364096 0.67309135 0.24673043
000210 35 2b b6 bf a8 66 c1 bf 53 ee ad bf e1 ab 3e bd
       -1.4231936 -1.5109453 -1.3588356 -0.046550635
000220 25 b1 ab 3e 0d c1 af bf 2e ad ba bf e7 97 c1 bf
       0.33533588 -1.373079 -1.45841 -1.5124482
000230 b6 70 c0 bf f0 a8 bc bf 80 b6 ab bf 76 e2 54 bf
       -1.5034397 -1.4739056 -1.341507 -0.8315805
000240 b1 ac c2 3c c9 fc 92 bf bb 25 b8 bf 2d 96 bf bf
       0.023763986 -1.1483394 -1.4386514 -1.4967705
000250 5f 9a b9 bf b7 c5 ab bf 56 86 f2 3a 0c f2 9f bf
       -1.4500235 -1.3419713 0.001850317 -1.2495742
000260 a7 6e a9 3e 60 ab 6f bf 59 15 bc bf d9 67 b4 bf
       0.33092234 -0.9362087 -1.4694015 -1.4094192
000270 3a 45 bc bf 49 f2 ad bf f6 3b 4e be f6 93 50 bf
       -1.4708626 -1.3589565 -0.20140061 -0.8147577
000280 6b 3a bc bf b7 7b c4 bf cd 36 c9 bf 72 10 92 bf
       -1.4705328 -1.5350255 -1.5719849 -1.1411269
000290 e1 0a 32 be 0c 08 a7 3e 19 4d 2c 3f 1a 53 67 3d
       -0.17386962 0.32623327 0.6730514 0.056475736
0002a0 e0 d3 bd bf 46 3e 4b bf 00 73 bb bf 10 90 87 bf
       -1.4830284 -0.79391897 -1.464447 -1.0590839
0002b0 b9 9f a2 bf b7 f7 c3 bf 03 ba ce bf 3b 12 d1 bf
       -1.2704993 -1.5309972 -1.6150516 -1.6333688
0002c0 4c a9 ba bf c6 87 c3 bf f8 f6 c0 bf a7 90 0d bf
       -1.4582915 -1.527581 -1.5075369 -0.55298847
0002d0 55 af 69 bf 0a 67 8d 3e 57 a0 a7 bf 0a 7e c8 bf
       -0.9128316 0.27617675 -1.3095807 -1.5663464
0002e0 fd 16 c4 bf 36 e1 2f 3e 8b b2 c4 bf c7 8f c3 bf
       -1.5319515 0.17175755 -1.5366987 -1.5278252
0002f0 44 e9 bb bf 21 7f c8 bf f3 2e c2 bf e6 5c c8 bf
       -1.4680562 -1.5663797 -1.5170578 -1.565335
000300 4e c8 c9 bf e7 98 4e be 3d 13 a7 bf 94 89 dc be
       -1.5764253 -0.20175515 -1.3052746 -0.43073714
000310 1c 66 b6 3e 42 56 c1 bf 04 9f ac bf 93 39 bf bf
       0.35624778 -1.5104449 -1.3486028 -1.4939445
000320 2a 59 47 3e e0 50 9c bf 94 e3 c6 bf 4d 1a 39 3c
       0.19467607 -1.2212181 -1.5538201 0.0112977745
000330 69 3b c2 bf 23 b5 c9 bf a6 3b be bf 89 d5 ad bf
       -1.517438 -1.5758404 -1.4861953 -1.3580791
000340 2e a5 c1 bf 24 bc 89 bf 37 20 c1 bf a0 9e bd bf
       -1.5128534 -1.0760541 -1.5087956 -1.4814034
000350 ea 43 b3 bf b5 77 3c 3e 6b 46 14 3f b2 2c af bf
       -1.4005101 0.1840504 0.5791995 -1.3685515
000360 41 84 c4 bf 97 ed cd bf 6f f0 c5 bf 86 ca c6 bf
       -1.5352861 -1.6088132 -1.5464 -1.5530555
000370 a6 49 82 bf 6d 60 a7 bf 55 14 b6 bf 55 28 bd bf
       -1.0178726 -1.3076302 -1.4224955 -1.4777933
000380 88 81 c3 bf 4b 03 3f 3c 6f e8 c6 bf 9e 73 c4 bf
       -1.5273905 0.0116585 -1.5539683 -1.5347784
000390 88 5b 0d 3e 03 2f 3d bf 0c e0 9d bf f4 ef c7 bf
       0.13804448 -0.7389986 -1.2333999 -1.5620103
0003a0 7b 27 c5 bf 60 78 c1 bd 58 6e ca bf c5 5d c8 bf
       -1.5402673 -0.09446788 -1.5814924 -1.5653616
0003b0 30 2f be bf 99 51 ba bf 8f 7d bf bf 11 47 c0 bf
       -1.485815 -1.4556152 -1.4960192 -1.5021688
0003c0 69 05 a8 3f bd d9 47 bf 21 6f 84 bf a5 6c 5f bf
       1.3126651 -0.7806662 -1.0346414 -0.87275153
0003d0 3c ca 77 bf 5f 53 89 bf 22 32 97 3e b1 63 88 be
       -0.9679296 -1.0728568 0.29530436 -0.26638559
0003e0 d5 72 67 3f aa fd 09 3f f6 ae 9c 3e 4e 81 12 3f
       0.90409595 0.53902686 0.30602235 0.57228553
0003f0 e1 04 f7 bd 8c fc 55 3d 15 52 88 bf c4 25 8f bf
       -0.120614775 0.0522428 -1.065005 -1.11834

fc1.bias f4 [100]
000000 1c a1 c2 bf d1 2b cf bf 18 c7 bf bf be 54 bf bf
       -1.5205417 -1.6185247 -1.4982634 -1.4947736
000010 4a 0e b0 bf 00 ff af be af 8d d0 bf bf 14 95 bf
       -1.3754361 -0.34374237 -1.6293238 -1.1646956
000020 5a f8 68 bf 8c 5c b2 bf 59 85 cc bf 62 98 bf bf
       -0.91003954 -1.3934493 -1.5978194 -1.4968379
000030 57 5f 98 bf 25 a9 bc bf 1f da 13 bf 28 c4 bf bf
       -1.1904095 -1.4739119 -0.577547 -1.4981737
000040 1c e1 ab bf 2e 32 b6 bf 4f 61 b9 bf c2 4d cc bf
       -1.3428073 -1.4234064 -1.4482821 -1.596123
000050 05 d9 cd bf aa 69 b8 bf 34 2e a7 bf b8 65 b8 bf
       -1.6081854 -1.4407246 -1.3060975 -1.4406042
000060 67 57 5a bf 08 53 62 bf 78 83 c6 bf f1 53 be bf
       -0.85289615 -0.88407946 -1.5508871 -1.4869367
000070 c6 12 65 bf fe 81 5a 3e f0 08 b9 bf e3 c6 55 bf
       -0.8948177 0.2133865 -1.4455853 -0.835066
000080 a0 87 c0 bf 17 87 48 bf fe 41 bf bf 42 92 9c bf
       -1.504139 -0.7833113 -1.4942014 -1.2232134
000090 06 70 cc bf 6f d8 b7 bf 80 e7 51 bf f2 de a7 bf
       -1.5971687 -1.4362925 -0.81993866 -1.3114913
0000a0 04 65 ba bf be 9f c5 bf 78 14 b3 bf 25 a7 c8 bf
       -1.4562078 -1.5439374 -1.3990622 -1.5676008
0000b0 6a e1 96 bf c2 f8 b8 bf 68 59 bb bf 38 37 c1 bf
       -1.1787541 -1.4450915 -1.463666 -1.5094976
0000c0 c5 a8 bf bf 4c cf b2 bf 4e 3d a7 bf 42 ae c4 bf
       -1.4973379 -1.3969512 -1.3065584 -1.5365679
0000d0 71 e7 c5 bf 4f c8 af bf 41 88 98 bf cf 0c 2e be
       -1.5461255 -1.3733004 -1.1916581 -0.16997074
0000e0 a2 b6 d9 bf 31 66 f4 be f2 b5 9a bf 48 81 c9 bf
       -1.700886 -0.47734216 -1.2086775 -1.5742579
0000f0 16 5a b0 bf 97 af ca bf 85 d7 c4 bf f0 16 bf bf
       -1.3777492 -1.5834836 -1.5378271 -1.4928875
000100 d9 71 b1 bf ab 1e cb bf a0 13 ca bf 19 dd 5a bf
       -1.3862869 -1.5868734 -1.5787239 -0.8549362
000110 17 09 c0 bf 7d 24 c1 bf 51 21 b3 bf 22 53 9f bf
       -1.5002774 -1.508926 -1.3994542 -1.2447245
000120 93 96 c9 bf f6 3e 82 bf 36 32 b4 bf ae 9a c4 bf
       -1.5749077 -1.0175464 -1.4077823 -1.5359704
000130 d6 f8 ad bf d5 dd 9d bf 75 40 b6 bf 01 39 ca bf
       -1.3591564 -1.2333323 -1.4238421 -1.5798646
000140 6c ba ad 3e 29 e2 33 bf 81 7a a5 bf f1 d0 e1 3c
       0.3393129 -0.7026697 -1.292801 0.027565451
000150 3f 31 a0 be 4f 6b a6 bf b5 79 b7 bf 05 d1 34 bf
       -0.31287572 -1.3001498 -1.4334017 -0.7063144
000160 f4 81 57 bf 29 ab 84 bf 0c d0 b1 bf 91 1b a8 bf
       -0.8418267 -1.0364734 -1.3891616 -1.3133413
000170 21 b6 c9 bf 3f 4b 7e bf f8 d7 96 bf 99 fb bc bf
       -1.5758706 -0.99333566 -1.1784658 -1.4764282
000180 2c c6 f7 be cb 19 43 3f e7 89 b1 bf 57 32 a7 bf
       -0.4839338 0.7621123 -1.387021 -1.3062238

fc2.0.0.weight f4 [100, 100]
000000 1e 47 b2 bf 9a 87 b2 bf b0 bc d9 bf 55 ea 8a 3f
       -1.3927953 -1.3947632 -1.7010708 1.0852762
000010 de 1c c1 bf f6 36 99 bf bd e3 bb bf 6b ac be bf
       -1.5086935 -1.1969898 -1.4678875 -1.4896368
000020 0c 26 bf bf bd 20 c3 bf 51 77 ae bf a8 c6 b1 bf
       -1.4933486 -1.5244366 -1.3630162 -1.388875
000030 8a 23 a9 3f 66 a8 cd 3f 80 97 bf bf cc 58 c6 bf
       1.3213971 1.6067016 -1.4968109 -1.5495849
000040 ce ec c4 bf 2b 8c 00 bf 8f cc b7 bf 0d 1a b5 bf
       -1.5384767 -0.5021388 -1.4359301 -1.4148575
000050 da b3 9d bf f4 8c b5 3f 6b 4b a6 bf df a7 b9 bf
       -1.2320511 1.418364 -1.2991766 -1.4504355
000060 d5 50 bf bf 9f 43 b6 bf 3b 95 b4 bf 52 5d b8 bf
       -1.4946543 -1.4239386 -1.4108042 -1.4403479
000070 ab a7 c1 bf 00 62 c6 bf 52 33 c3 bf 71 39 aa bf
       -1.5129293 -1.5498657 -1.5250037 -1.329878
000080 f7 70 b3 bf 65 d4 b9 bf 99 05 c0 bf 12 e3 b1 bf
       -1.4018849 -1.4517943 -1.5001708 -1.3897421
000090 2c 19 bc bf 84 ad c3 bf 0b 84 be bf b0 87 be bf
       -1.4695182 -1.5287328 -1.4884046 -1.4885159
0000a0 1e 93 c0 bf 33 61 b9 3f 98 69 b2 bf 40 a5 c0 bf
       -1.5044897 1.4482788 -1.3938475 -1.505043
0000b0 2c e8 93 bf ed e2 bd bf 5e f3 bc bf 21 41 b5 bf
       -1.1555228 -1.4834877 -1.476177 -1.4160501
0000c0 74 21 b0 bf e1 f2 59 bf cd cf ad bf 73 be b0 bf
       -1.3760209 -0.8513623 -1.3579041 -1.380812
0000d0 14 aa ba bf b6 f2 b3 3f da 48 c6 bf 34 e6 b0 bf
       -1.4583154 1.4058444 -1.5490983 -1.3820252
0000e0 16 6d c4 bf 27 8d b4 bf 7d 5c c8 bf 3c 0f b3 bf
       -1.534579 -1.4105576 -1.5653225 -1.3989024
0000f0 b3 71 b0 bf 29 30 b0 bf fe 57 b5 bf ff bf b8 bf
       -1.3784698 -1.3764697 -1.4167478 -1.4433593
000100 e6 cb b1 bf 62 61 5c bf ce c5 b8 bf 72 ca a9 bf
       -1.389035 -0.86086094 -1.4435365 -1.3264906
000110 d6 87 c8 bf 24 05 c3 bf 65 d1 c4 bf 89 89 b5 bf
       -1.5666454 -1.5235944 -1.5376402 -1.4182597
000120 86 d3 b2 bf 39 da b1 bf 7c 3d b7 bf 33 25 c0 bf
       -1.3970802 -1.3894721 -1.4315639 -1.5011352
000130 73 9f ba bf 9c 8f b7 3f 78 0b bc bf d6 50 b1 bf
       -1.457991 1.4340701 -1.4691 -1.3852794
000140 3d 91 b3 bf 6d e1 b0 bf 77 39 c4 bf 58 b6 c4 bf
       -1.4028698 -1.3818794 -1.5330037 -1.5368147
000150 95 3d c1 3f 16 a8 ba bf 90 af bc bf d0 f1 be bf
       1.5096918 -1.4582546 -1.4741077 -1.4917545
000160 0a 15 9a bf be e5 ae bf 8e c5 c6 bf 15 40 b4 3f
       -1.2037671 -1.3663862 -1.5529039 1.4082056
000170 f9 db bf bf 11 fb ba 3f 41 02 7f bf 1b cd b3 bf
       -1.4989005 1.4607869 -0.99612814 -1.4046968
000180 f2 a1 af bf 36 d6 c7 bf 93 8c ad bf 07 b6 c0 bf
       -1.3721297 -1.5612247 -1.3558525 -1.505555
000190 7a f3 b5 bf d4 7d b8 bf bf 23 c8 bf 78 62 c3 bf
       -1.4214928 -1.44134 -1.5635909 -1.5264425
0001a0 46 bc ba bf 0a f9 b2 bf a1 63 c6 bf 28 2c ce 3f
       -1.4588706 -1.3982251 -1.5499154 1.6107225
0001b0 2a 75 b4 bf c2 ed bc bf 86 eb c5 3f e6 32 ad bf
       -1.4098256 -1.4760058 1.5462501 -1.3531158
0001c0 b5 17 b3 bf 23 78 b7 bf c0 4f bf bf e3 e3 b0 bf
       -1.399161 -1.4333538 -1.4946213 -1.3819546
0001d0 d8 fd c6 bf 5f aa c3 bf 5d 75 b4 bf 3a 86 af bf
       -1.5546217 -1.5286368 -1.4098316 -1.3712838
0001e0 26 af c3 bf 1b 25 c8 3f fe 45 fc be c5 1a be bf
       -1.5287826 1.5636324 -0.4927215 -1.485192
0001f0 65 5c ba bf 06 93 ad bf dd c5 af bf b8 a8 b9 bf
       -1.4559447 -1.3560493 -1.3732258 -1.4504614
000200 23 a3 af bf 32 71 bf bf c0 46 c0 bf cf d0 b8 bf
       -1.372166 -1.495642 -1.5021591 -1.4438723
000210 1c b9 ae bf a2 11 c0 bf 28 f4 c1 bf 34 26 ac bf
       -1.3650241 -1.5005381 -1.5152636 -1.3449159
000220 6b 3a ae bf 69 b5 ba bf 2e bf 60 bf ad 6c b5 bf
       -1.3611578 -1.4586612 -0.8779172 -1.417379
000230 5d 69 b5 bf 52 69 b8 bf fe bd b7 bf 22 d3 ae bf
       -1.4172779 -1.4407141 -1.4354856 -1.3658183
000240 3d c6 bb bf e2 88 bb bf 05 a6 bc bf 81 c8 b3 bf
       -1.4669873 -1.4651148 -1.4738165 -1.4045564
000250 21 b6 ad bf b3 fa c0 bf c7 cc ac bf 2c 06 c9 bf
       -1.3571206 -1.5076507 -1.3499993 -1.5705009
000260 98 98 b0 bf eb 95 b4 bf 1a 3e c3 bf aa 5b c3 bf
       -1.3796568 -1.4108251 -1.5253327 -1.5262349
000270 b0 1c bf 3f e1 31 c7 bf 09 41 b0 bf 0d 4c b8 bf
       1.493063 -1.5562097 -1.3769847 -1.4398209
000280 0b c2 b0 bf 9f a6 c0 bf 6d 2c b3 bf f8 b7 be bf
       -1.3809217 -1.5050849 -1.3997933 -1.4899893
000290 a4 d4 c0 bf f4 f6 b2 bf b1 8a af bf 4b 81 c5 bf
       -1.5064893 -1.3981614 -1.37142 -1.5430082
0002a0 55 3d b1 bf 2e 1b b5 bf 67 88 bb bf f6 fd b1 3f
       -1.3846842 -1.414892 -1.4651002 1.3905628
0002b0 2e 1b b2 bf 41 42 c8 bf 9c 98 b2 bf 7e a5 c3 bf
       -1.3914545 -1.5645219 -1.3952823 -1.5284879
0002c0 07 39 be bf ff 22 af bf 4b de bd bf b8 1a bd bf
       -1.4861153 -1.3682555 -1.4833463 -1.4773779
0002d0 14 fa 56 bf 53 8a bb bf be 3c b4 bf 9e ac bd bf
       -0.8397534 -1.4651588 -1.4081037 -1.4818304
0002e0 f5 78 b5 bf 5b 1a b9 bf a9 2e bd 3f 43 47 b4 3f
       -1.4177538 -1.4461168 1.4779865 1.4084247
0002f0 bd 9e c4 bf 90 7d b8 bf 2a f4 bb bf 6b 43 c3 bf
       -1.5360943 -1.4413319 -1.4683888 -1.5254949
000300 b6 5f ba bf 0b 4d ba bf 26 ac b4 bf c8 e4 bf bf
       -1.4560459 -1.4554762 -1.4115036 -1.4991693
000310 5d 99 0a bf 56 8a c6 bf b5 94 b4 bf ce cc b6 bf
       -0.54140264 -1.5510967 -1.4107882 -1.4281251
000320 30 ce 1f 3f 8a 08 8a 3d 9c 87 81 bf 84 48 e9 3e
       0.6242399 0.0673991 -1.011951 0.45563138
000330 d3 44 16 bf a0 45 34 bf b5 2e 58 bf fe 35 75 3f
       -0.5869877 -0.7041874 -0.8444627 0.9578551
000340 87 17 a2 bf 84 a7 d9 3f b2 3b 3b 3f ca 06 11 bf
       -1.266343 1.7004247 0.7313796 -0.56650984
000350 f1 1c be 3f 94 20 60 be d8 61 13 3f a4 c0 a9 be
       1.4852582 -0.21887428 0.5757117 -0.33154786
000360 73 7a f4 be 00 76 6d bf 16 ed d4 3f 1e de 33 3e
       -0.4774967 -0.9275818 1.6634853 0.175652
000370 68 9a 69 3d 6e 1e 3c bf e2 31 98 bd c8 ab a0 3f
       0.05703202 -0.7348393 -0.074313894 1.2552423
000380 35 21 dd 3f 4f 62 91 bf 9b 3f f4 3e 78 f2 bd be
       1.7275759 -1.1358126 0.47704777 -0.3709905
000390 1a 3c 2d bf c4 dc 14 be 46 cc 1c bf f3 6a 5f 3f
       -0.6766983 -0.1453734 -0.61249197 0.87272567
0003a0 66 f8 43 3f 45 1b c2 3f b3 b5 b8 3e a5 27 4e 3f
       0.765509 1.5164572 0.36076126 0.8052924
0003b0 65 8c a4 3f 66 bf b7 bd c9 ed e2 3f 00 3d 0e bf
       1.2855345 -0.08972053 1.7728816 -0.5556183
0003c0 32 31 84 bf da 79 f6 bd d8 be 49 bf d7 51 e5 3e
       -1.0327513 -0.1203496 -0.7880683 0.44789
0003d0 74 07 6e be ec 50 b0 3d f8 cc 2b bf 9d aa 37 3f
       -0.2324503 0.086091846 -0.6710963 0.7174471
0003e0 c2 65 72 3f bc 65 16 bf 1c 32 25 3d 9c f2 a9 bd
       0.9468652 -0.58748984 0.04033099 -0.08298227
0003f0 69 d6 ee 3e f7 ce 41 bd 5e 51 dd 3f e6 fa cb 3e
       0.46647957 -0.047316518 1.7290456 0.39839858

fc2.0.0.bias f4 [100]
000000 af bd 9d bd a6 0b c4 bf 14 12 77 bf ca 13 ab bf
       -0.07702195 -1.5316055 -0.9651196 -1.3365414
000010 56 c6 6a bf ab f2 6a be cc a3 bc bf 8b 11 14 bf
       -0.91708887 -0.22944133 -1.4737487 -0.5783927
000020 12 45 ba bf 73 36 b8 bf e7 92 ba bf de 95 fe be
       -1.4552329 -1.4391617 -1.4576081 -0.49723715
000030 bc 38 c4 bf a9 fe 16 3f 5b 16 97 bf a4 6d bd bf
       -1.5329814 0.5898233 -1.1803697 -1.4799085
000040 6d fd bb bf c2 7a 57 bf ea 26 24 3e af b0 1c bf
       -1.4686714 -0.8417169 0.1603047 -0.612071
000050 ff cb 69 bf 74 30 99 bf cb 29 ad bf df 71 b5 bf
       -0.913269 -1.1967912 -1.3528379 -1.4175376
000060 6d 13 bd bf 37 6f af bf aa bf 14 bf e8 81 21 bd
       -1.4771553 -1.3705815 -0.58104956 -0.03943053
000070 b7 ab 46 bf bd 34 1d bf ac 87 9a 3f 2a 5e 31 bf
       -0.77605766 -0.614086 1.2072654 -0.6928431
000080 80 ed c3 bf 83 3b 89 bf c7 18 d1 3c 95 fd d4 bf
       -1.5306854 -1.0721287 0.02552451 -1.6639887
000090 40 1d 00 3f fb f4 15 bf 31 33 98 bf 7c 32 17 be
       0.5004463 -0.58576936 -1.1890622 -0.14765352
0000a0 bc 52 33 bf 2e 77 bf bf ee 1f b7 bf 15 db 37 bf
       -0.7004812 -1.4958246 -1.4306619 -0.7181867
0000b0 51 bf a8 3f 96 60 c7 bf a5 3e b6 3f cb f3 ba bf
       1.3183385 -1.5576351 1.4237868 -1.460565
0000c0 da da b6 bf 01 8a 30 bf 4b 13 fa 3e 22 37 bb bf
       -1.4285538 -0.6896058 0.48842844 -1.46262
0000d0 57 16 bb 3f 6c 66 c4 bf b2 8e bf 3f c3 56 ad bf
       1.4616193 -1.5343757 1.4965422 -1.3542103
0000e0 f0 cb c6 bf e0 8f 9f 3f cd 68 06 3f e0 d1 a0 bf
       -1.5530987 1.2465782 0.52503663 -1.2564049
0000f0 56 7e 9c bf 18 ad aa 3f bf 98 be bf 5f 18 c1 bf
       -1.2226055 1.3334074 -1.4890364 -1.5085562
000100 a7 f5 33 bf 4e 5a ae bf e6 61 7c bf ef 78 ab bf
       -0.7029671 -1.3621309 -0.9858688 -1.3396281
000110 c7 63 b4 bf a2 95 b5 bf 94 13 bc 3f 20 a8 17 bf
       -1.409295 -1.4186289 1.4693475 -0.59240913
000120 bb 39 bf bf 9d a5 bd bd a7 b7 54 bf 75 7b be be
       -1.4939493 -0.09260104 -0.8309273 -0.37203565
000130 c6 b8 01 bf f2 68 ac 3f 2f 06 b5 bf 07 27 ec be
       -0.50672567 1.3469527 -1.4142512 -0.46123526
000140 22 e0 96 bf fa e7 9f bf f9 2c 16 3f cc 1d 21 3f
       -1.178715 -1.2492669 0.5866237 0.6293609
000150 74 19 44 bf 83 7d b9 bf 1e 0a b4 bf 5f 91 c0 bf
       -0.7660134 -1.4491428 -1.4065588 -1.5044364
000160 62 4f 9e 3f 3c 67 bb bf 01 3c b0 bf 58 dc 93 3f
       1.2367976 -1.464088 -1.3768312 1.1551619
000170 b8 e2 af bf c6 6a b1 bf da bf 74 3e 4b 6f 55 3e
       -1.3741064 -1.386071 0.2390131 0.20843236
000180 ee 3d 37 bf cc 89 96 bf 42 5b d1 3f f8 06 c8 3f
       -0.7157887 -1.1760802 1.6355975 1.5627127

fc2.1.0.weight f4 [100, 100]
000000 1e 47 b2 bf 9a 87 b2 bf b0 bc d9 bf 55 ea 8a 3f
       -1.3927953 -1.3947632 -1.7010708 1.0852762
000010 de 1c c1 bf f6 36 99 bf bd e3 bb bf 6b ac be bf
       -1.5086935 -1.1969898 -1.4678875 -1.4896368
000020 0c 26 bf bf bd 20 c3 bf 51 77 ae bf a8 c6 b1 bf
       -1.4933486 -1.5244366 -1.3630162 -1.388875
000030 8a 23 a9 3f 66 a8 cd 3f 80 97 bf bf cc 58 c6 bf
       1.3213971 1.6067016 -1.4968109 -1.5495849
000040 ce ec c4 bf 2b 8c 00 bf 8f cc b7 bf 0d 1a b5 bf
       -1.5384767 -0.5021388 -1.4359301 -1.4148575
000050 da b3 9d bf f4 8c b5 3f 6b 4b a6 bf df a7 b9 bf
       -1.2320511 1.418364 -1.2991766 -1.4504355
000060 d5 50 bf bf 9f 43 b6 bf 3b 95 b4 bf 52 5d b8 bf
       -1.4946543 -1.4239386 -1.4108042 -1.4403479
000070 ab a7 c1 bf 00 62 c6 bf 52 33 c3 bf 71 39 aa bf
       -1.5129293 -1.5498657 -1.5250037 -1.329878
000080 f7 70 b3 bf 65 d4 b9 bf 99 05 c0 bf 12 e3 b1 bf
       -1.4018849 -1.4517943 -1.5001708 -1.3897421
000090 2c 19 bc bf 84 ad c3 bf 0b 84 be bf b0 87 be bf
       -1.4695182 -1.5287328 -1.4884046 -1.4885159
0000a0 1e 93 c0 bf 33 61 b9 3f 98 69 b2 bf 40 a5 c0 bf
       -1.5044897 1.4482788 -1.3938475 -1.505043
0000b0 2c e8 93 bf ed e2 bd bf 5e f3 bc bf 21 41 b5 bf
       -1.1555228 -1.4834877 -1.476177 -1.4160501
0000c0 74 21 b0 bf e1 f2 59 bf cd cf ad bf 73 be b0 bf
       -1.3760209 -0.8513623 -1.3579041 -1.380812
0000d0 14 aa ba bf b6 f2 b3 3f da 48 c6 bf 34 e6 b0 bf
       -1.4583154 1.4058444 -1.5490983 -1.3820252
0000e0 16 6d c4 bf 27 8d b4 bf 7d 5c c8 bf 3c 0f b3 bf
       -1.534579 -1.4105576 -1.5653225 -1.3989024
0000f0 b3 71 b0 bf 29 30 b0 bf fe 57 b5 bf ff bf b8 bf
       -1.3784698 -1.3764697 -1.4167478 -1.4433593
000100 e6 cb b1 bf 62 61 5c bf ce c5 b8 bf 72 ca a9 bf
       -1.389035 -0.86086094 -1.4435365 -1.3264906
000110 d6 87 c8 bf 24 05 c3 bf 65 d1 c4 bf 89 89 b5 bf
       -1.5666454 -1.5235944 -1.5376402 -1.4182597
000120 86 d3 b2 bf 39 da b1 bf 7c 3d b7 bf 33 25 c0 bf
       -1.3970802 -1.3894721 -1.4315639 -1.5011352
000130 73 9f ba bf 9c 8f b7 3f 78 0b bc bf d6 50 b1 bf
       -1.457991 1.4340701 -1.4691 -1.3852794
000140 3d 91 b3 bf 6d e1 b0 bf 77 39 c4 bf 58 b6 c4 bf
       -1.4028698 -1.3818794 -1.5330037 -1.5368147
000150 95 3d c1 3f 16 a8 ba bf 90 af bc bf d0 f1 be bf
       1.5096918 -1.4582546 -1.4741077 -1.4917545
000160 0a 15 9a bf be e5 ae bf 8e c5 c6 bf 15 40 b4 3f
       -1.2037671 -1.3663862 -1.5529039 1.4082056
000170 f9 db bf bf 11 fb ba 3f 41 02 7f bf 1b cd b3 bf
       -1.4989005 1.4607869 -0.99612814 -1.4046968
000180 f2 a1 af bf 36 d6 c7 bf 93 8c ad bf 07 b6 c0 bf
       -1.3721297 -1.5612247 -1.3558525 -1.505555
000190 7a f3 b5 bf d4 7d b8 bf bf 23 c8 bf 78 62 c3 bf
       -1.4214928 -1.44134 -1.5635909 -1.5264425
0001a0 46 bc ba bf 0a f9 b2 bf a1 63 c6 bf 28 2c ce 3f
       -1.4588706 -1.3982251 -1.5499154 1.6107225
0001b0 2a 75 b4 bf c2 ed bc bf 86 eb c5 3f e6 32 ad bf
       -1.4098256 -1.4760058 1.5462501 -1.3531158
0001c0 b5 17 b3 bf 23 78 b7 bf c0 4f bf bf e3 e3 b0 bf
       -1.399161 -1.4333538 -1.4946213 -1.3819546
0001d0 d8 fd c6 bf 5f aa c3 bf 5d 75 b4 bf 3a 86 af bf
       -1.5546217 -1.5286368 -1.4098316 -1.3712838
0001e0 26 af c3 bf 1b 25 c8 3f fe 45 fc be c5 1a be bf
       -1.5287826 1.5636324 -0.4927215 -1.485192
0001f0 65 5c ba bf 06 93 ad bf dd c5 af bf b8 a8 b9 bf
       -1.4559447 -1.3560493 -1.3732258 -1.4504614
000200 23 a3 af bf 32 71 bf bf c0 46 c0 bf cf d0 b8 bf
       -1.372166 -1.495642 -1.5021591 -1.4438723
000210 1c b9 ae bf a2 11 c0 bf 28 f4 c1 bf 34 26 ac bf
       -1.3650241 -1.5005381 -1.5152636 -1.3449159
000220 6b 3a ae bf 69 b5 ba bf 2e bf 60 bf ad 6c b5 bf
       -1.3611578 -1.4586612 -0.8779172 -1.417379
000230 5d 69 b5 bf 52 69 b8 bf fe bd b7 bf 22 d3 ae bf
       -1.4172779 -1.4407141 -1.4354856 -1.3658183
000240 3d c6 bb bf e2 88 bb bf 05 a6 bc bf 81 c8 b3 bf
       -1.4669873 -1.4651148 -1.4738165 -1.4045564
000250 21 b6 ad bf b3 fa c0 bf c7 cc ac bf 2c 06 c9 bf
       -1.3571206 -1.5076507 -1.3499993 -1.5705009
000260 98 98 b0 bf eb 95 b4 bf 1a 3e c3 bf aa 5b c3 bf
       -1.3796568 -1.4108251 -1.5253327 -1.5262349
000270 b0 1c bf 3f e1 31 c7 bf 09 41 b0 bf 0d 4c b8 bf
       1.493063 -1.5562097 -1.3769847 -1.4398209
000280 0b c2 b0 bf 9f a6 c0 bf 6d 2c b3 bf f8 b7 be bf
       -1.3809217 -1.5050849 -1.3997933 -1.4899893
000290 a4 d4 c0 bf f4 f6 b2 bf b1 8a af bf 4b 81 c5 bf
       -1.5064893 -1.3981614 -1.37142 -1.5430082
0002a0 55 3d b1 bf 2e 1b b5 bf 67 88 bb bf f6 fd b1 3f
       -1.3846842 -1.414892 -1.4651002 1.3905628
0002b0 2e 1b b2 bf 41 42 c8 bf 9c 98 b2 bf 7e a5 c3 bf
       -1.3914545 -1.5645219 -1.3952823 -1.5284879
0002c0 07 39 be bf ff 22 af bf 4b de bd bf b8 1a bd bf
       -1.4861153 -1.3682555 -1.4833463 -1.4773779
0002d0 14 fa 56 bf 53 8a bb bf be 3c b4 bf 9e ac bd bf
       -0.8397534 -1.4651588 -1.4081037 -1.4818304
0002e0 f5 78 b5 bf 5b 1a b9 bf a9 2e bd 3f 43 47 b4 3f
       -1.4177538 -1.4461168 1.4779865 1.4084247
0002f0 bd 9e c4 bf 90 7d b8 bf 2a f4 bb bf 6b 43 c3 bf
       -1.5360943 -1.4413319 -1.4683888 -1.5254949
000300 b6 5f ba bf 0b 4d ba bf 26 ac b4 bf c8 e4 bf bf
       -1.4560459 -1.4554762 -1.4115036 -1.4991693
000310 5d 99 0a bf 56 8a c6 bf b5 94 b4 bf ce cc b6 bf
       -0.54140264 -1.5510967 -1.4107882 -1.4281251
000320 30 ce 1f 3f 8a 08 8a 3d 9c 87 81 bf 84 48 e9 3e
       0.6242399 0.0673991 -1.011951 0.45563138
000330 d3 44 16 bf a0 45 34 bf b5 2e 58 bf fe 35 75 3f
       -0.5869877 -0.7041874 -0.8444627 0.9578551
000340 87 17 a2 bf 84 a7 d9 3f b2 3b 3b 3f ca 06 11 bf
       -1.266343 1.7004247 0.7313796 -0.56650984
000350 f1 1c be 3f 94 20 60 be d8 61 13 3f a4 c0 a9 be
       1.4852582 -0.21887428 0.5757117 -0.33154786
000360 73 7a f4 be 00 76 6d bf 16 ed d4 3f 1e de 33 3e
       -0.4774967 -0.9275818 1.6634853 0.175652
000370 68 9a 69 3d 6e 1e 3c bf e2 31 98 bd c8 ab a0 3f
       0.05703202 -0.7348393 -0.074313894 1.2552423
000380 35 21 dd 3f 4f 62 91 bf 9b 3f f4 3e 78 f2 bd be
       1.7275759 -1.1358126 0.47704777 -0.3709905
000390 1a 3c 2d bf c4 dc 14 be 46 cc 1c bf f3 6a 5f 3f
       -0.6766983 -0.1453734 -0.61249197 0.87272567
0003a0 66 f8 43 3f 45 1b c2 3f b3 b5 b8 3e a5 27 4e 3f
       0.765509 1.5164572 0.36076126 0.8052924
0003b0 65 8c a4 3f 66 bf b7 bd c9 ed e2 3f 00 3d 0e bf
       1.2855345 -0.08972053 1.7728816 -0.5556183
0003c0 32 31 84 bf da 79 f6 bd d8 be 49 bf d7 51 e5 3e
       -1.0327513 -0.1203496 -0.7880683 0.44789
0003d0 74 07 6e be ec 50 b0 3d f8 cc 2b bf 9d aa 37 3f
       -0.2324503 0.086091846 -0.6710963 0.7174471
0003e0 c2 65 72 3f bc 65 16 bf 1c 32 25 3d 9c f2 a9 bd
       0.9468652 -0.58748984 0.04033099 -0.08298227
0003f0 69 d6 ee 3e f7 ce 41 bd 5e 51 dd 3f e6 fa cb 3e
       0.46647957 -0.047316518 1.7290456 0.39839858

fc2.1.0.bias f4 [100]
000000 af bd 9d bd a6 0b c4 bf 14 12 77 bf ca 13 ab bf
       -0.07702195 -1.5316055 -0.9651196 -1.3365414
000010 56 c6 6a bf ab f2 6a be cc a3 bc bf 8b 11 14 bf
       -0.91708887 -0.22944133 -1.4737487 -0.5783927
000020 12 45 ba bf 73 36 b8 bf e7 92 ba bf de 95 fe be
       -1.4552329 -1.4391617 -1.4576081 -0.49723715
000030 bc 38 c4 bf a9 fe 16 3f 5b 16 97 bf a4 6d bd bf
       -1.5329814 0.5898233 -1.1803697 -1.4799085
000040 6d fd bb bf c2 7a 57 bf ea 26 24 3e af b0 1c bf
       -1.4686714 -0.8417169 0.1603047 -0.612071
000050 ff cb 69 bf 74 30 99 bf cb 29 ad bf df 71 b5 bf
       -0.913269 -1.1967912 -1.3528379 -1.4175376
000060 6d 13 bd bf 37 6f af bf aa bf 14 bf e8 81 21 bd
       -1.4771553 -1.3705815 -0.58104956 -0.03943053
000070 b7 ab 46 bf bd 34 1d bf ac 87 9a 3f 2a 5e 31 bf
       -0.77605766 -0.614086 1.2072654 -0.6928431
000080 80 ed c3 bf 83 3b 89 bf c7 18 d1 3c 95 fd d4 bf
       -1.5306854 -1.0721287 0.02552451 -1.6639887
000090 40 1d 00 3f fb f4 15 bf 31 33 98 bf 7c 32 17 be
       0.5004463 -0.58576936 -1.1890622 -0.14765352
0000a0 bc 52 33 bf 2e 77 bf bf ee 1f b7 bf 15 db 37 bf
       -0.7004812 -1.4958246 -1.4306619 -0.7181867
0000b0 51 bf a8 3f 96 60 c7 bf a5 3e b6 3f cb f3 ba bf
       1.3183385 -1.5576351 1.4237868 -1.460565
0000c0 da da b6 bf 01 8a 30 bf 4b 13 fa 3e 22 37 bb bf
       -1.4285538 -0.6896058 0.48842844 -1.46262
0000d0 57 16 bb 3f 6c 66 c4 bf b2 8e bf 3f c3 56 ad bf
       1.4616193 -1.5343757 1.4965422 -1.3542103
0000e0 f0 cb c6 bf e0 8f 9f 3f cd 68 06 3f e0 d1 a0 bf
       -1.5530987 1.2465782 0.52503663 -1.2564049
0000f0 56 7e 9c bf 18 ad aa 3f bf 98 be bf 5f 18 c1 bf
       -1.2226055 1.3334074 -1.4890364 -1.5085562
000100 a7 f5 33 bf 4e 5a ae bf e6 61 7c bf ef 78 ab bf
       -0.7029671 -1.3621309 -0.9858688 -1.3396281
000110 c7 63 b4 bf a2 95 b5 bf 94 13 bc 3f 20 a8 17 bf
       -1.409295 -1.4186289 1.4693475 -0.59240913
000120 bb 39 bf bf 9d a5 bd bd a7 b7 54 bf 75 7b be be
       -1.4939493 -0.09260104 -0.8309273 -0.37203565
000130 c6 b8 01 bf f2 68 ac 3f 2f 06 b5 bf 07 27 ec be
       -0.50672567 1.3469527 -1.4142512 -0.46123526
000140 22 e0 96 bf fa e7 9f bf f9 2c 16 3f cc 1d 21 3f
       -1.178715 -1.2492669 0.5866237 0.6293609
000150 74 19 44 bf 83 7d b9 bf 1e 0a b4 bf 5f 91 c0 bf
       -0.7660134 -1.4491428 -1.4065588 -1.5044364
000160 62 4f 9e 3f 3c 67 bb bf 01 3c b0 bf 58 dc 93 3f
       1.2367976 -1.464088 -1.3768312 1.1551619
000170 b8 e2 af bf c6 6a b1 bf da bf 74 3e 4b 6f 55 3e
       -1.3741064 -1.386071 0.2390131 0.20843236
000180 ee 3d 37 bf cc 89 96 bf 42 5b d1 3f f8 06 c8 3f
       -0.7157887 -1.1760802 1.6355975 1.5627127

fc4.weight f4 [6, 100]
000000 e0 9f 35 3f cf 08 b7 3f 6d 43 ed 3c 64 ce 9c bf
       0.70947075 1.4299563 0.028962815 -1.2250485
000010 b7 68 9a 3e 01 32 6b 3f 89 de 02 3d 01 f9 0f be
       0.30158016 0.91873175 0.031950507 -0.14059831
000020 82 07 af 3f 03 be c3 bf 18 26 6b bd 85 91 27 bf
       1.3674166 -1.5292362 -0.057409376 -0.6545642
000030 0a 15 87 bf dc b8 c0 bf 59 64 af 3f f6 0f af bf
       -1.0553296 -1.5056415 1.3702499 -1.3676746
000040 68 d5 9f bf 3b 8f 4c 3f d9 bf 69 3d 33 12 19 bf
       -1.2487001 0.7990605 0.057067726 -0.59793395
000050 3b 52 28 3f 45 b9 a5 bf 88 58 5f 3f 40 ec a8 3f
       0.65750474 -1.2947165 0.8724446 1.3197098
000060 13 bf b2 3f e0 23 9e 3f 85 70 9e 3f eb 1c 0c bf
       1.3964561 1.2354698 1.2378088 -0.54731625
000070 54 f2 26 3f 4a bf 1c 3f dd 32 22 3f 81 55 a8 3f
       0.65213513 0.61229384 0.6335886 1.3151094
000080 bf ca b5 3f a7 88 9c bf 3e 6a 1e bd ed f5 ab 3f
       1.4202498 -1.2229203 -0.03867554 1.3434426
000090 1d 67 92 3e 26 1b 66 3f 0a a8 a9 3f c8 48 b3 3f
       0.28594294 0.89885175 1.3254406 1.4006586
0000a0 82 58 39 bf 53 95 b8 3f 99 14 a7 bf 0b 5e b6 3f
       -0.7240068 1.442057 -1.3053161 1.424745
0000b0 1d 5c 3d 3e 1a fc c0 bd 77 b1 b4 bf e2 40 b6 bf
       0.1849217 -0.094230846 -1.4116658 -1.4238551
0000c0 d8 e9 95 3f ec 73 d2 bf eb db 19 bf e3 af 9c bf
       1.1711988 -1.6441627 -0.60101193 -1.2241176
0000d0 7d 1a b0 3e c9 28 f4 be 77 70 b7 be fb b8 a8 bf
       0.3439521 -0.47687367 -0.3582799 -1.3181452
0000e0 b7 a0 76 bc 66 81 a3 3e 0d 79 01 3f 8b c4 97 3f
       -0.015052966 0.3193466 0.50575334 1.1856855
0000f0 a8 7c 6b bf 0b e8 a6 3e d1 4b 11 bf 37 13 37 be
       -0.91987085 0.3259891 -0.5675631 -0.17878424
000100 e6 99 a5 3f 2e 4f 63 bf 3e b0 66 3f 29 25 4d 3f
       1.2937591 -0.88792694 0.90112674 0.80134827
000110 7a e4 b5 bf 21 89 aa bd 23 46 a6 3f ff f1 bc 3f
       -1.421035 -0.083269365 1.2990154 1.4761351
000120 ea 46 ba 3f fc 30 29 bf a8 11 a2 3f 6c c7 a1 3f
       1.4552891 -0.6609037 1.2661638 1.2638984
000130 bf af eb be a5 b7 90 3f 33 f5 89 bf 95 3b c0 be
       -0.4603252 1.1306044 -1.0777954 -0.37545457
000140 41 04 88 bf 81 66 72 3f 02 45 b1 bf cf a5 24 bf
       -1.0626298 0.9468766 -1.3849185 -0.64315504
000150 13 54 96 3f c4 e6 b3 bf a4 89 b3 bf ff 67 d5 be
       1.1744407 -1.4054799 -1.402638 -0.41680905
000160 60 c3 b8 bf 6a 03 98 3f 08 35 6b bf da 56 fe 3e
       -1.4434624 1.1876042 -0.91877794 0.49675637
000170 27 9c b5 3f d6 ea b0 3f 91 72 25 be 32 1a 8a bf
       1.4188279 1.3821666 -0.16156985 -1.0789244
000180 a2 26 99 3f 2b 49 b2 3f 86 2b a8 3f 10 f2 c7 3e
       1.1964915 1.3928579 1.3138282 0.39051867
000190 97 a3 6a 3f a7 9b b5 3f 52 6f 55 3f 22 a5 ab 3f
       0.9165587 1.4188126 0.83372986 1.340977
0001a0 15 8b 18 3f 93 95 5b 3f e2 75 be 3f 21 29 f4 be
       0.5958722 0.8577511 1.4879725 -0.4768763
0001b0 5e b5 b7 3f 8f 2f b6 3f 62 a3 ad 3f 36 5d cb bf
       1.4352224 1.4233264 1.3565485 -1.5887821
0001c0 05 b3 0f bf 21 a5 c9 3f 81 0a 52 3f 0c e1 b3 3f
       -0.5613254 1.5753518 0.8204728 1.4053054
0001d0 5a 25 3d 3f f3 00 7a 3f 08 84 98 3f bd 5a 41 bf
       0.7388512 0.976577 1.1915293 -0.7552908
0001e0 36 cb aa bd 69 bc b0 3f dd c4 b7 bf d7 3e 4d 3f
       -0.08339541 1.3807498 -1.4356953 0.8017401
0001f0 5c 27 c5 3f 0d c1 8a bf 30 b5 89 3f 73 ce 94 3f
       1.5402637 -1.0840164 1.0758419 1.1625503
000200 83 c1 31 bf d7 c4 fd bd 36 69 65 bd de 04 8f 3f
       -0.694359 -0.1239106 -0.05600854 1.117336
000210 7c 0c b7 3f 4d 9e 99 3f 7a 12 22 bf c2 78 a1 3f
       1.4300685 1.2001435 -0.63309443 1.2614977
000220 31 04 fa be 72 eb 2b 3f 8e 6e ae bf dc 7d 2b 3f
       -0.48831323 0.67156136 -1.3627489 0.6698892
000230 f7 3e 5b bf cc 1e b7 bf 32 77 b2 3f c4 c3 60 3e
       -0.8564295 -1.4306273 1.3942626 0.21949679
000240 47 c0 e0 3e b3 c0 2c 3d df d4 bc 3f c5 a8 b0 3f
       0.43896696 0.04217596 1.4752463 1.3801504
000250 f5 39 41 3f 91 3e ba 3f 71 c0 13 3f 8d 90 80 3f
       0.7547906 1.4550344 0.5771552 1.0044113
000260 da 2b cd 3d 60 6c 6d be 8c 41 f6 3d 62 d9 60 bf
       0.1001813 -0.23185873 0.12024221 -0.878317
000270 07 65 b8 bf b2 a9 0d 3f d6 95 26 3f 10 c5 b7 3f
       -1.4405831 0.5533706 0.6507238 1.4357014
000280 50 61 92 3f 32 53 67 be e2 d6 55 3f 06 5a 97 bf
       1.1435947 -0.2259033 0.8353101 -1.1824348
000290 1a f2 f8 be cc 5d bc 3f 7d 5c 3a 3f 8a ac 33 3f
       -0.4862221 1.4716125 0.72797376 0.7018515
0002a0 1c e1 b1 3f da c4 37 3f 57 2a c8 bf d3 b6 a8 bf
       1.3896823 0.71784747 -1.5637921 -1.3180794
0002b0 1e c1 bf 3f ba 80 50 3f c1 c2 8f bf b2 45 a2 bf
       1.498081 0.8144642 -1.1231309 -1.2677519
0002c0 dc ab 8b 3f c6 8c 08 3f cd a6 81 3f b2 f6 82 3f
       1.0911822 0.53339803 1.0129029 1.0231535
0002d0 64 d6 be bf 48 4c 45 3f 57 f5 0b 3f 07 d4 8a 3f
       -1.4909177 0.7706952 0.54671234 1.0845956
0002e0 7a d0 f7 be f0 2c be 3f 9b b4 ad 3f 8b 1c 11 bf
       -0.48401242 1.4857464 1.3570741 -0.5668418
0002f0 0c b1 a5 3f 51 9b 3d bf e9 93 15 3f 1e da 95 3f
       1.2944655 -0.7406512 0.5842882 1.1707189
000300 87 c8 c0 3f e3 ef ad bf df 7b 7d 3f db 9a b3 3f
       1.5061196 -1.3588833 0.9901714 1.4031633
000310 c6 ea b6 bf 46 cc 41 3e 9f 62 72 bf ac fc a1 3e
       -1.4290397 0.1892558 -0.94681734 0.31638086
000320 69 9c c6 bf eb 20 a7 bf d5 bf 68 bd 61 20 c6 bf
       -1.5516483 -1.3056921 -0.05682357 -1.5478631
000330 20 b3 79 3f 23 30 be bf 67 b7 b7 bf 7b e5 35 3f
       0.9753895 -1.485844 -1.4352845 0.71053284
000340 8f 00 c1 3f d3 d4 bd bf a4 a1 c3 3f 0c bb 84 3d
       1.5078295 -1.4830574 1.5283704 0.06480989
000350 c7 7c 66 3f ec 5d 5c 3f 4e 9d ac 3f 23 60 c4 bf
       0.90034145 0.86080813 1.3485506 -1.5341839
000360 71 42 c8 bf 7c c3 64 3f 8c 3f c4 bf 4d 73 b5 bf
       -1.5645276 0.89360785 -1.5331893 -1.4175812
000370 01 62 dd 3e 0a 6c c4 bf 96 d8 44 bf 1b f2 bf 3f
       0.43238834 -1.5345471 -0.76892984 1.499576
000380 e2 ca b0 bf 4e 20 91 bf f5 5a c8 bf 56 e3 9f bf
       -1.3811915 -1.1337984 -1.5652758 -1.2491252
000390 c5 57 f3 3d c2 cb 64 be 20 0f 97 bf 4e c8 c1 bf
       0.11881975 -0.22343352 -1.1801491 -1.5139253
0003a0 ac f8 bd bf 3f a3 07 3f 55 4a 00 3f 87 6c c0 bf
       -1.4841514 0.5298347 0.5011342 -1.503312
0003b0 7a 7b 2e bd 30 76 14 3f 24 5a 9d bc 09 5f cb bf
       -0.042598225 0.5799284 -0.019208021 -1.5888377
0003c0 3b d1 bd bf 5c 7d bf bf c4 fb b5 bf 5d e8 b1 bf
       -1.4829477 -1.4960132 -1.4217458 -1.3899037
0003d0 76 f3 02 bc 0f 9e 67 bc 86 d5 a0 bf 89 ca c4 3f
       -0.007992616 -0.014136805 -1.2565162 1.5374309
0003e0 9b b6 b9 3e 9f 75 bd 3f e6 85 c3 bf 1a 07 ab 3f
       0.3627213 1.480152 -1.5275238 1.3361542
0003f0 e6 87 8d be d0 71 c4 3f 20 f2 c0 bf 7f 7c a9 bd
       -0.27642745 1.5347233 -1.5073891 -0.08275699

fc4.bias f4 [6]
000000 24 6d 02 bf b8 d2 53 bf 9e 1d be bf fd 7c b9 bf
       -0.50947785 -0.82743406 -1.4852788 -1.4491268
000010 43 85 f1 be 87 8e af 3f
       -0.47171983 1.3715371
