figs/diff_activation_functions/mlp_sigmoid/mlp_model_dict.pt (torch, 182421 bytes, 8 tensors)

fc1.weight f4 [100, 240]
000000 cc 32 25 3f 0b 25 ca 3e 8b e3 0a 3f 04 fb 90 be
       0.64530635 0.39481387 0.54253453 -0.2831651
000010 52 f0 08 bf a3 d0 42 bf 73 66 46 bf 09 a1 60 3e
       -0.534917 -0.76099604 -0.77500075 0.2193643
000020 93 6f 22 3f 55 78 14 3f 34 9e 0f 3f 5b f3 b9 3e
       0.634515 0.5799611 0.56100774 0.36318478
000030 05 39 23 bf ae c2 b1 be 85 b4 14 bf 4b 47 8c 3e
       -0.6375888 -0.3471884 -0.5808795 0.27398142
000040 ae 61 27 3f 68 38 4f 3e 02 84 12 3f 6b ab f0 bd
       0.6538342 0.20236361 0.5723268 -0.117514454
000050 3c 61 84 3e 4c 8d 8c be f6 62 39 bf 6e 77 13 bf
       0.25855434 -0.2745155 -0.7241663 -0.5760411
000060 3f d2 69 be de 6d 03 3f 74 3c 24 3f 82 d7 38 3f
       -0.22834109 0.5133952 0.64154744 0.7220384
000070 b2 55 26 3f c3 68 a9 3e 37 fe 38 bf cf d2 32 bf
       0.6497451 0.3308774 -0.722629 -0.6985292
000080 91 81 ba be 32 3b 21 bf ea 09 6a 3e 1e 8f db 3e
       -0.36426976 -0.6298095 0.22855344 0.42882627
000090 f7 6a b6 3e 81 01 24 bf 54 05 2a bf f1 04 b5 be
       0.35628483 -0.64064795 -0.6641438 -0.35355332
0000a0 a9 5c 8c 3e 3d 63 ff 3e 8c 00 44 3f 3a 87 45 3f
       0.27414444 0.498804 0.76563334 0.77159464
0000b0 94 b6 34 3f 4c dd 19 bf 63 63 40 bf f8 39 15 bf
       0.7059109 -0.601033 -0.7515165 -0.5829158
0000c0 eb c6 08 bf bf 43 06 bf b2 6d 35 3e 29 6c d5 3e
       -0.53428525 -0.5244712 0.17717627 0.41684082
0000d0 69 78 79 3e dd 96 1e 3f c6 32 0c 3f 8d 4e 22 3f
       0.24362339 0.6194895 0.54764974 0.6340111
0000e0 b5 9c 0d 3f 8d 63 35 3f f6 58 17 3f d2 a9 14 bf
       0.5531724 0.7085503 0.5912012 -0.58071625
0000f0 9f 89 f9 be 6f 0b 01 bf aa 1b 58 bf ee 75 09 bf
       -0.4873781 -0.5040807 -0.8441721 -0.5369557
000100 98 5b 15 bf 27 94 41 bf 76 bd 0c bf cf e1 2b bf
       -0.58342886 -0.7561669 -0.54976594 -0.6714143
000110 fb 96 ff 3e 04 46 33 3f 60 90 2d 3f ae 9a 1f 3f
       0.49919876 0.7002871 0.67798424 0.623454
000120 e2 be d1 bd a4 66 d1 be 69 a5 26 bf f8 7a 26 bf
       -0.10241486 -0.4089862 -0.65096146 -0.65031385
000130 fe ec a5 be 2e 3a 10 3f b7 91 5b be 7e 79 1c bf
       -0.32407373 0.56338775 -0.21442305 -0.6112288
000140 cd 90 77 be fe 55 73 bf af 52 59 bf 16 39 20 bf
       -0.24176331 -0.9505309 -0.8489179 -0.62587106
000150 3d 70 ec 3e 00 e4 43 3f 34 dc 25 3f 0c 89 79 3e
       0.4617938 0.76519775 0.6478913 0.24368685
000160 7e 34 41 bf d1 ba 6a bf 46 9f 84 bf 76 9f 9d be
       -0.7547072 -0.9169131 -1.0361106 -0.30785722
000170 23 38 18 3f b5 1f 0c 3f b5 21 56 3e ef c5 ae be
       0.5946066 0.5473588 0.20911296 -0.34135386
000180 96 c8 5b bf 1e 1c 69 bf 5d 4f 59 bf 87 90 10 3f
       -0.85852945 -0.9105853 -0.84886724 0.5647053
000190 3f 46 40 3f 0b 73 24 3f d9 f3 7e 3e 71 17 23 bf
       0.7510719 0.6423804 0.24897708 -0.63707644
0001a0 6d 20 5b bf f7 57 5f bf 44 9b 9c be 76 22 e6 3e
       -0.8559635 -0.872436 -0.30587208 0.44948167
0001b0 5d 3b 06 3f eb 37 68 be 03 5f 3c bf 88 b8 50 bf
       0.5243433 -0.22677581 -0.73582476 -0.8153157
0001c0 85 b6 52 bf 8f 21 fc 3e 9e d0 28 3f 6b 9e 2a 3f
       -0.8230975 0.49244353 0.65943325 0.66647977
0001d0 2d 10 9d 3e 1c f8 43 bf ba d2 4a bf 23 e3 49 bf
       0.30676404 -0.7655046 -0.79227793 -0.7886221
0001e0 94 cf ae be c9 24 0c 3f 7a 37 15 3f 10 40 93 bd
       -0.34142745 0.5474363 0.58287776 -0.07189953
0001f0 fe 54 6d bf bb 63 6e bf 79 34 4c bf 3b 83 cd bd
       -0.9270781 -0.93120927 -0.79767567 -0.10034796
000200 44 b6 27 3f 7e aa 4c 3f 3c 40 0a 3f 27 e1 46 bf
       0.6551249 0.7994765 0.54004264 -0.77687305
000210 6c 33 76 bf ca 29 78 bf bc 16 43 bf 29 98 b3 3e
       -0.96172214 -0.96938765 -0.76206565 0.35077026
000220 45 82 40 3f 8c 57 34 3f de 66 a6 be 7a e8 5c bf
       0.75198776 0.70446086 -0.32500356 -0.8629223
000230 30 07 80 bf af 95 5a bf 51 cc bd be a0 8f 47 3f
       -1.0002193 -0.8538465 -0.37069944 0.7795353
000240 ff f9 47 3f d1 da 3b 3f 57 7a 24 bf 8c 9a 4e bf
       0.7811584 0.7338076 -0.64249176 -0.8070457
000250 8e 50 6d bf 6c f8 4a bf 1b c0 30 be f2 79 2b 3f
       -0.9270104 -0.7928531 -0.17260782 0.6698295
000260 f2 f7 32 3f 36 19 48 3e 66 c9 62 bf b7 60 5a bf
       0.69909585 0.19540867 -0.8858856 -0.85303825
000270 b8 29 28 bf b1 2e c8 bd dd 82 03 3f 80 0f 28 3f
       -0.6568866 -0.09774531 0.51371557 0.6564865
000280 48 cc d2 3e 28 74 ff 3e b7 52 b5 3e 70 b0 e4 be
       0.4117148 0.49893308 0.3541467 -0.4466586
000290 cb d4 27 bf ac 8f 3b bd 54 7c 47 bd ff dd 88 3e
       -0.6555907 -0.045791313 -0.048702553 0.2673187
0002a0 22 ea 04 3f 19 62 04 3f 8c 32 0f 3f 95 d4 af be
       0.5191976 0.51712185 0.55936503 -0.34341875
0002b0 76 21 eb be cb 94 72 bf b0 ed 23 bf 68 1e ee 3e
       -0.45923966 -0.9475829 -0.6403456 0.46507573
0002c0 c7 7f c7 3e bb a7 a1 3e 50 96 31 3f 10 81 45 3e
       0.38964674 0.3157328 0.69369984 0.19287515
0002d0 f7 89 45 bf 5c e0 25 3e 80 55 fb 3e 20 a5 19 3f
       -0.7716364 0.16198868 0.4908867 0.60017586
0002e0 7d c3 0b 3f f5 3d b1 3e 75 6a aa be 4e 8a 1c be
       0.54595166 0.34617582 -0.33284345 -0.15287134
0002f0 55 6f 10 bf bf 26 d2 3c 0e 83 d5 3e 3e 00 0a 3f
       -0.5641988 0.025653241 0.4170155 0.5390662
000300 6f 0f 0d 3f 6e 44 ce 3e 99 a6 54 bf da c0 12 bd
       0.55101675 0.40286583 -0.8306671 -0.03582845
000310 2e ca cf 3e 66 6d f8 3e 7c fe 0a 3f 4d 20 20 bd
       0.40583938 0.48520964 0.5429456 -0.039093304
000320 65 b0 cb be 78 28 40 bf c9 01 67 bf 7f 16 a2 3e
       -0.39783016 -0.7506175 -0.902371 0.31657788
000330 ed 23 15 3f 0c 97 02 3f 1e 8d ce 3e 73 7d 3c be
       0.58257943 0.5101173 0.4034204 -0.1840723
000340 c5 a0 6d bf dd 96 87 bf 6f 42 8f 3e bb 2f 05 3f
       -0.9282344 -1.0592915 0.27980372 0.52025956
000350 f1 7b 1e 3f 0e 17 08 3f 0b b3 18 3e 4f dd 81 bf
       0.6190787 0.5316018 0.1491205 -1.0145663
000360 92 f0 84 bf 92 d3 76 bf 0d ba 37 3f 7c f4 ad 3e
       -1.0385916 -0.9641658 0.71768266 0.3397559
000370 3c 12 0e 3f 33 7e d0 3e 93 63 f0 be 7b 0d 7f bf
       0.55496573 0.40721282 -0.4695097 -0.99629945
000380 75 57 bc bd 1e a4 84 be 1b 19 cc 3e 83 96 01 3f
       -0.091963686 -0.2590646 0.39862904 0.5062029
000390 82 0e 8b 3e 4c 5d c0 3e 5e b7 71 bf ae bb 90 be
       0.27159506 0.3757118 -0.9442042 -0.28268188
0003a0 17 81 e1 3e 93 b0 c0 3e 97 2c c8 3e 7e 9e 5f 3d
       0.440438 0.37634715 0.3909652 0.05459451
0003b0 e7 4b ba 3e 4b 92 d5 3b 86 c7 a9 bc 6f 71 c7 3c
       0.36386034 0.0065176836 -0.020725023 0.024346082
0003c0 43 be f6 bd a6 bd 92 bd 49 e3 95 be 44 d2 67 be
       -0.12048008 -0.07165079 -0.29274967 -0.22638804
0003d0 2d 36 29 be cc c7 17 3e 8a 27 b8 3e a2 f7 97 be
       -0.16524573 0.1482231 0.35967666 -0.29681116
0003e0 d4 bb ea bd 67 9d a4 be 61 a0 15 bf a5 eb 1e bf
       -0.114616066 -0.32151338 -0.58447844 -0.62078315
0003f0 25 a0 d1 bc fc e1 da bc 8e 0e 05 3f 73 9b 0c 3f
       -0.025589058 -0.026719086 0.51975334 0.54924697

fc1.bias f4 [100]
000000 62 40 2e be 14 03 ca 3d 53 56 c5 3c 12 72 50 bf
       -0.17016748 0.09863868 0.024089014 -0.8142406
000010 6e 26 87 be 5d 76 9e bd 9a 82 68 bf 14 03 45 bf
       -0.26396507 -0.0773742 -0.9082428 -0.7695782
000020 26 95 f7 be 37 a3 6d be 0d 09 8d be 7a 10 5a be
       -0.4835598 -0.23206793 -0.27545968 -0.21295348
000030 c2 3c 8c 3e 43 b7 04 bf bc e0 6d bf aa de 8c be
       0.27390105 -0.51842135 -0.9292104 -0.2751363
000040 0c 0a 1c be 2f fb 92 be 6d d6 dc be dd 48 25 be
       -0.15238208 -0.28707263 -0.43132344 -0.16141076
000050 96 17 f4 3e a7 78 44 bf 7a 3a 5c bf 67 a4 24 3f
       0.47674245 -0.767466 -0.8602673 0.6431336
000060 cf 5b 07 be 99 83 af be 2a 52 1b bf 7f 94 03 be
       -0.13218616 -0.3428009 -0.6067225 -0.12849616
000070 e2 29 72 bf dc f7 d4 be e0 ba 5a bf 9d c8 94 be
       -0.9459516 -0.41595352 -0.854414 -0.29059306
000080 72 f0 02 3f 56 8b 27 be c4 ce cd bd 83 10 a4 be
       0.5114814 -0.16361746 -0.10049203 -0.32043847
000090 ca 7f fb 3e a1 0e 4e 3f 2a b2 5e bf 7a a6 10 bf
       0.49120933 0.8049107 -0.86990607 -0.56504023
0000a0 a6 ee c7 be 9e a0 50 be ab 0c 61 be b0 8e 64 bf
       -0.39049262 -0.2037377 -0.21977489 -0.89280224
0000b0 76 5c 21 be d0 54 cc 3e c4 f7 99 be f2 82 dc be
       -0.15757927 0.39908457 -0.30071843 -0.43068653
0000c0 3f bb e3 be b3 08 28 bf b5 21 97 be d4 81 83 be
       -0.44478795 -0.65638274 -0.29517904 -0.25684988
0000d0 c2 3f a9 3e dd 39 46 be 9b 3f 58 bf 49 18 69 bf
       0.33056456 -0.1935801 -0.84472054 -0.9105268
0000e0 09 ea 48 be ea cf 5e be 8b ea dc be 54 e8 de be
       -0.19620527 -0.21759 -0.43147692 -0.43536627
0000f0 ad 6a 4a bf fe 0f 44 bf 30 d1 65 bf 8c f7 8b be
       -0.79069024 -0.765869 -0.8977232 -0.273373
000100 b7 03 3b be d2 14 44 be 64 66 8c be 6e 67 63 bf
       -0.18263136 -0.19148567 -0.27421868 -0.88829696
000110 df 43 5c bf 15 29 44 3f e2 ab 36 be 36 5e 8c be
       -0.86041063 0.76625186 -0.17839006 -0.27415627
000120 6f 80 3d bf c8 f5 d8 3e 58 d9 25 3c e4 eb 87 3c
       -0.740241 0.42375016 0.01012262 0.016591974
000130 12 89 0b 3d f7 e1 a4 be c7 61 f8 bd b1 b2 e2 bd
       0.034066267 -0.32203647 -0.121280245 -0.11069239
000140 5f 93 4d bf 81 16 93 bd 1e dc c9 be 62 91 c2 bd
       -0.80302995 -0.07182027 -0.3942575 -0.09500386
000150 88 05 44 3f 80 76 1d bf fd ac 7a be 4c 9f 51 bf
       0.7657094 -0.6150894 -0.24480052 -0.8188369
000160 7f 30 b1 be 2d be 5b bf 00 ae e2 3e 65 2b c1 3e
       -0.34607312 -0.8583706 0.44273376 0.3772842
000170 e3 04 b7 3e 5b cb b0 3d 02 b2 83 bd e6 aa 77 be
       0.35745916 0.08632537 -0.06430437 -0.24186286
000180 91 5b 3f bf d5 b8 6d be 75 58 0f bf 01 ee 33 be
       -0.74749094 -0.23215039 -0.5599435 -0.1757126

fc2.weight f4 [100, 100]
000000 95 18 22 bf 6d d4 47 bf 22 c7 4f bf 14 22 4b bf
       -0.6331876 -0.7805851 -0.8116323 -0.79348874
000010 4b cc ec 3e 8e ea c7 be e0 d7 34 bf ae 5e 5c bf
       0.46249613 -0.3904614 -0.706419 -0.8608197
000020 7b 2a 2e bf f0 e3 30 bf db 9d 4c bf 91 1f 32 bf
       -0.6803357 -0.69097805 -0.7992837 -0.69579417
000030 9b ae 4e bf d1 22 59 bf 11 e6 4e bf 21 9c 0e bf
       -0.80735177 -0.8481875 -0.80819803 -0.55706984
000040 00 27 3f bf ae 12 47 bf 59 63 2d bf f3 be 36 bf
       -0.74668884 -0.7776288 -0.6772972 -0.71385115
000050 44 11 41 bf de f6 48 bf b8 a9 42 bf 7d 31 3f bf
       -0.7541697 -0.7850169 -0.7604022 -0.7468489
000060 66 b4 3a bf 64 c6 24 bf 1e e9 4d bf a8 39 1b bf
       -0.72931516 -0.6436522 -0.80433834 -0.6063485
000070 78 d1 37 bf 86 46 44 bf fb 7e 49 bf fe 89 4b bf
       -0.71804 -0.7667011 -0.7870938 -0.79507434
000080 b5 2a 50 bf cd 86 34 bf f4 3b 2c bf 7c 72 37 bf
       -0.81315166 -0.7051819 -0.6727898 -0.71659064
000090 55 c3 42 bf 36 6d 3b bf 0f c6 30 bf 84 7b 44 bf
       -0.76079303 -0.7321352 -0.69052213 -0.7675097
0000a0 c3 d8 43 bf e5 42 29 bf a4 c4 3b bf eb 49 5b bf
       -0.7650263 -0.661177 -0.73346925 -0.85659665
0000b0 26 ea 16 bf 11 34 3e bf db 15 34 bf f2 a2 2a bf
       -0.5895103 -0.742982 -0.7034585 -0.66654885
0000c0 00 40 36 bf da f3 4d bf 71 10 40 bf d5 d3 30 bf
       -0.71191406 -0.8045021 -0.7502509 -0.6907323
0000d0 09 0a 5c bf 3c 4e 3b bf 69 e5 5d bf f6 11 35 bf
       -0.8595281 -0.7316625 -0.8667818 -0.7073053
0000e0 4b 33 3d bf ce 59 ec be 51 ee 37 bf cb 48 23 bf
       -0.7390639 -0.46162266 -0.71848017 -0.6378295
0000f0 73 3d 33 bf 76 5e 5b bf d8 4c 2f bf 72 a0 29 bf
       -0.7001564 -0.8569101 -0.6847663 -0.66260445
000100 ba b8 25 bf e4 da 27 bf 78 05 58 bf 19 4c 57 bf
       -0.64734995 -0.65568376 -0.84383345 -0.8410049
000110 4c 6f 4d bf f7 22 31 bf d2 b6 2f bf 79 86 28 bf
       -0.8024795 -0.6919398 -0.68638337 -0.6583019
000120 76 ba 32 bf f6 9f 43 bf 56 ee 2d bf db 02 5c bf
       -0.69815767 -0.76415956 -0.67941797 -0.8594186
000130 4f 43 36 bf 31 dc 34 bf fd 27 51 bf 48 2d 3a bf
       -0.71196455 -0.70648485 -0.8170164 -0.72725344
000140 ec 83 4f bf 46 d7 28 bf 02 63 36 bf b7 0e 59 bf
       -0.8106067 -0.6595348 -0.71244824 -0.8478808
000150 1a 2f 2b bf 9b c0 3d bf ae 72 44 bf 4f 87 44 bf
       -0.66868746 -0.7412202 -0.7673749 -0.76768965
000160 63 a0 39 bf 4e 46 3b bf 37 63 3c bf 8a d9 56 bf
       -0.72510356 -0.7315415 -0.7358889 -0.8392569
000170 0f b9 3a bf 9e 95 2e bf 3d 58 34 bf 20 1f 2b bf
       -0.72938627 -0.6819705 -0.7044714 -0.6684437
000180 ce 6e 58 bf 95 ab 36 bf 51 b5 44 bf 48 d8 26 bf
       -0.84544075 -0.71355563 -0.76839167 -0.6517377
000190 9b 95 3d bf 08 e3 7e 3e 84 0a cd 3e 86 b8 3c bf
       -0.74056405 0.24891293 0.40047085 -0.7371906
0001a0 c0 24 48 bf bd b3 59 bf ff 9a 59 bf 4a 49 36 bf
       -0.78181076 -0.85039884 -0.8500213 -0.7120558
0001b0 8e 4e 41 bf 1a cb 34 bf 8b b7 2f bf 9d f0 19 bf
       -0.7551049 -0.7062241 -0.6863944 -0.6013277
0001c0 86 7a 05 3d 80 81 23 bf 28 62 3b bf bb 3f 4b bf
       0.03258755 -0.63869476 -0.7319665 -0.7939412
0001d0 d8 64 4b bf 5f 35 37 bf c8 f6 2e bf dc 42 3c bf
       -0.7945075 -0.7156581 -0.6834531 -0.7353952
0001e0 ee ba 70 bf 76 d7 48 bf d3 d8 73 bf 79 46 3d bf
       -0.9403523 -0.7845377 -0.9525272 -0.7393566
0001f0 ff f7 93 3e de 5a 2f bf 9c 30 66 bf 83 5f 44 bf
       0.28900144 -0.6849803 -0.8991792 -0.7670824
000200 82 82 25 bf 6a b3 2f bf 68 16 4a bf 86 17 59 bf
       -0.64652264 -0.6863314 -0.7894044 -0.8480152
000210 9e 54 68 bf 0d c1 2f bf c6 7e 22 bf a3 42 2e bf
       -0.90754116 -0.6865395 -0.6347469 -0.6807043
000220 ac 3a 55 bf a7 18 2a bd 7d c1 4f bf 35 0d ba bd
       -0.8329265 -0.041527417 -0.81154615 -0.0908455
000230 64 8a 2e bf b7 10 55 bf 51 0d 35 bf c9 c9 8a be
       -0.6817992 -0.8322863 -0.70723444 -0.27107075
000240 a1 aa 58 bf 8e 59 b8 3e d4 32 28 bf 4c 99 35 bf
       -0.8463536 0.36005825 -0.6570256 -0.7093704
000250 4f da 42 bf 8e 58 14 bf 97 a3 55 bf 40 5b 35 bf
       -0.7611436 -0.57947624 -0.83452743 -0.7084236
000260 13 09 92 3e 4a 96 52 bf a1 d6 46 bf fb a5 54 bf
       0.28522548 -0.8226057 -0.7767125 -0.83065766
000270 ac 04 29 bf 25 96 1d bf fd e6 32 bf aa f5 56 bf
       -0.66022754 -0.6155723 -0.6988371 -0.83968604
000280 48 aa 76 bf 8f eb 35 bf 53 2a 41 bf f1 7e 45 bf
       -0.9635358 -0.7106256 -0.75455207 -0.7714682
000290 e6 6c 56 bf f5 a6 3b bf 7b 7f 36 bf 64 f4 68 bf
       -0.83759916 -0.7330163 -0.7128827 -0.9099791
0002a0 8e 43 59 bf 11 a3 66 bf b3 cd 4f bf f5 d3 4e bf
       -0.84868705 -0.9009257 -0.8117325 -0.8079217
0002b0 8e 0e 3e bf 67 16 ae 3e 86 89 eb 3e 37 b3 b4 3e
       -0.7424096 0.34001467 0.4600336 0.3529298
0002c0 8f 6f 82 3e b9 bc 4b bf 65 3e 1d bf a5 6d c4 3e
       0.25475737 -0.7958484 -0.6142333 0.38364902
0002d0 c2 58 2f bf 95 9d 3a bf 8a d7 39 bf dd 3b cd 3e
       -0.6849481 -0.728967 -0.7259451 0.40084735
0002e0 dd 37 69 3e d6 dd 6b bf 83 3f 24 bf 9b 7d 2e be
       0.22775216 -0.9213537 -0.6415941 -0.17040102
0002f0 45 cd 44 bf c2 99 3e bf f3 ec 5c bf 5d 11 94 3e
       -0.76875716 -0.74453366 -0.86299056 0.28919497
000300 86 25 c3 3e 2d 4b c2 3e d2 9f 34 bf 6b 66 51 bf
       0.38114566 0.3794798 -0.70556366 -0.817969
000310 a2 bb 3a bf c9 4d 45 bf 79 40 57 bf a2 28 48 bf
       -0.72942555 -0.77071816 -0.8408275 -0.78187
000320 d3 94 3c bf 28 be 2e bf c6 bd 45 bf 95 00 49 bf
       -0.7366459 -0.68258905 -0.77242696 -0.78516513
000330 a4 e1 17 bf 5f b0 25 bf bc 4c 48 bf bb c6 3f bf
       -0.59328675 -0.64722246 -0.7824209 -0.74912614
000340 5f 51 42 bf d6 0f 2e bf 94 09 21 bf fc dc 02 bf
       -0.7590541 -0.67992914 -0.6290524 -0.51118445
000350 4a 03 39 bf 7d 1f 28 bf 29 7d 40 bf 6b 32 36 bf
       -0.72270644 -0.6567305 -0.7519098 -0.7117068
000360 a2 b5 25 bf 9a fb 3e bf a9 3b 49 bf 4d 43 3a bf
       -0.64730275 -0.74602664 -0.7860666 -0.7275894
000370 e0 8c 3e bf fc d6 31 bf 0a 4a 3d bf b3 b5 50 bf
       -0.7443371 -0.69468665 -0.739411 -0.8152725
000380 3d e8 2d bf 4b 75 47 bf 7c 54 34 bf de 94 d9 be
       -0.6793249 -0.7791335 -0.7044141 -0.4249639
000390 09 83 28 bf b9 95 28 bf ac 11 44 bf 8d 5d 2c bf
       -0.65824944 -0.6585346 -0.76589465 -0.6733025
0003a0 a5 72 34 bf c2 15 11 bf b5 f7 1c bf ca 5c 31 bf
       -0.70487434 -0.56673825 -0.6131547 -0.6928221
0003b0 1b 54 39 bf eb 0e 21 bf 61 65 25 bf 8d eb 47 bf
       -0.7239396 -0.6291339 -0.64607817 -0.78093797
0003c0 7e ab 3a bf 82 d5 0c bf 1d eb 13 bf eb 34 2c bf
       -0.72917926 -0.5501329 -0.5778063 -0.67268246
0003d0 3f 9a 13 bf 43 dc 2d bf 04 ba 3b bf f2 f3 3c bf
       -0.57657236 -0.6791422 -0.7333071 -0.7380973
0003e0 9b 2c 33 bf e4 02 48 bf 75 5d 2b bf 57 6d 48 bf
       -0.6998994 -0.7812941 -0.6693948 -0.7829184
0003f0 66 a2 33 bf 08 3b 33 bf db 19 30 bf 64 a4 51 bf
       -0.70169675 -0.7001195 -0.6878945 -0.81891465

fc2.bias f4 [100]
000000 46 aa 4e bf 52 da 7c be 3d 26 3a bf 07 be cd be
       -0.80728567 -0.24692658 -0.72714597 -0.40184042
000010 2a 65 f0 bc de c1 05 3f aa e8 03 3f ea 48 4c bf
       -0.029345114 0.5224894 0.5152689 -0.7979876
000020 59 f7 23 bf 5a f5 5a bf 2e 2d 59 bf 15 ce 4f bf
       -0.640493 -0.85530627 -0.84834564 -0.8117383
000030 22 ad 45 bf 34 d0 f3 be 17 15 2b 3f 88 0a 38 bf
       -0.77217305 -0.47619784 0.66829056 -0.7189107
000040 8c e9 3b bf fd c3 52 bf d3 7f 54 bc 64 13 a2 3e
       -0.7340324 -0.82330304 -0.012969929 0.3165542
000050 2b de a4 be 4d be e9 3e 5b 16 e5 be 13 4b 42 3e
       -0.3220075 0.45653 -0.44743618 0.18973951
000060 81 03 b2 3e ec 72 c0 be 51 30 34 bf fd 50 2e 3f
       0.34768298 -0.37587678 -0.70386225 0.6809233
000070 4c 48 19 bf 2a a1 7d bd 9d 75 22 be 3e eb 94 3e
       -0.5987594 -0.061921276 -0.15865178 0.29085726
000080 2e 81 29 3f ff 20 f4 3d 80 1a ac be 62 a9 d6 3e
       0.6621274 0.11920356 -0.33613968 0.41926104
000090 68 17 67 bd 80 b2 bf be 71 9f 91 3d 9d b4 21 bd
       -0.056418806 -0.37440872 0.07110489 -0.039478887
0000a0 f2 50 83 3e 0e 07 04 3d 40 63 66 3d b0 6f 43 bf
       0.25647694 0.03223329 0.056246996 -0.76342297
0000b0 81 87 af be 99 82 4a be 97 8e ff 3e db 41 8b bd
       -0.3428307 -0.19776382 0.49913475 -0.0679967
0000c0 8d d6 c3 be 18 c6 ca 3e 5a 98 90 bd 0b da 19 be
       -0.38249627 0.3960426 -0.07060309 -0.15024583
0000d0 06 20 30 bf 65 db d5 be b3 99 05 bf e3 b6 47 be
       -0.68798864 -0.41768947 -0.5218765 -0.1950336
0000e0 c9 88 0d bf 83 9c 17 bf f7 4f 92 be 00 c1 42 bf
       -0.5528684 -0.5922319 -0.28576633 -0.76075745
0000f0 22 c5 46 be 84 75 22 bf 8d 92 d5 3e df b9 3b bf
       -0.19411138 -0.63460565 0.41713372 -0.7333049
000100 82 29 2b be 87 36 24 bf 23 3c 8c be a0 bc 43 3f
       -0.16715053 -0.641457 -0.2738963 0.76459694
000110 73 1e ae 3e a4 32 2f bf 45 6b 5b 3e a7 73 fb bd
       0.34007606 -0.68436646 0.21427639 -0.12277918
000120 bb eb fb be a1 11 32 3f ad 18 b7 bd 85 79 a4 be
       -0.49203286 0.6955815 -0.089402534 -0.32123962
000130 8e 9d 2b bf f6 fd 31 bf 0d 1c 0a bf 3c 52 35 bf
       -0.67037284 -0.6952814 -0.5394905 -0.70828605
000140 82 f8 e8 3e f9 56 01 3f f8 a8 f6 3e 1e 72 f1 3e
       0.45502096 0.50523335 0.48175788 0.47157377
000150 0e 6f c8 be ea f4 e8 3e 51 ca 48 bf d7 15 27 bf
       -0.39147228 0.45499355 -0.7843371 -0.652677
000160 eb b6 27 bf 8d 91 06 bf b3 58 0b 3e 4b 4a 2c be
       -0.65513486 -0.5256584 0.13608055 -0.16825216
000170 6b f8 c7 be c3 74 00 be d2 98 eb be ba 77 5c be
       -0.39056715 -0.12544541 -0.4601503 -0.21530047
000180 49 44 56 bf 16 35 2c 3e 1c eb 2f be d1 14 3d bf
       -0.83697945 0.16817126 -0.17179531 -0.7385989

fc3.weight f4 [100, 100]
000000 bb 57 11 3f a5 57 a7 3d 8d 11 28 bf 4d 1f 4d bd
       0.5677449 0.08171014 -0.6565178 -0.05007868
000010 ac d5 4a bf a7 4f 4c bf eb 61 41 bf 98 0f 0b bf
       -0.7923229 -0.7980904 -0.75540036 -0.5432067
000020 ca 20 ba be 55 1a 20 3f 02 bc 36 3f 13 af 17 3f
       -0.3635314 0.6254018 0.7138063 0.5925152
000030 15 df 29 3f 9d d8 2b bf 5d 7e 4a bf 25 d8 17 bf
       0.6635602 -0.671274 -0.79099065 -0.59314185
000040 a9 af 49 bf a4 0f 0c 3f f9 4a 44 3f 87 63 2c bf
       -0.7878366 0.54711366 0.766769 -0.67339367
000050 77 0d 8f be 0d 3d 4c bf 29 e7 17 bf 69 27 1e 3f
       -0.2793996 -0.79780656 -0.593371 0.61778885
000060 76 f4 3f bf 46 18 13 bf 08 0c 28 3f 85 04 3b bf
       -0.7498239 -0.57458913 0.6564336 -0.7305377
000070 70 b6 2c bf 32 3f f5 3d b7 7e 3c bf b8 24 bc 3e
       -0.6746588 0.11974944 -0.7363085 0.36746764
000080 4b 3c 23 bf 5e b4 13 bf 5a d5 1c bf 43 63 31 bf
       -0.63763875 -0.57697093 -0.6126305 -0.69292086
000090 e4 86 50 bf 49 a7 43 bf 52 56 3f bf 2c dd bd 3e
       -0.81455827 -0.7642713 -0.7474109 0.37082803
0000a0 f0 09 0c 3f aa 67 0e 3f 7d b6 e1 3e 88 8f 17 bf
       0.54702663 0.5562693 0.4408454 -0.59203386
0000b0 ea d4 23 bf 65 c7 35 bf 40 ec 24 bf 3b fa 3c bf
       -0.63996756 -0.71007377 -0.6442299 -0.7381932
0000c0 6e fd 75 3e 5a 28 bc 3e 31 e4 05 bf a1 18 21 bf
       0.24022457 0.36749536 -0.5230132 -0.62928206
0000d0 b1 9a e5 3e 5b bb e0 3e e9 80 28 bf 56 1d 3d 3f
       0.44844583 0.4389294 -0.658217 0.7387289
0000e0 1c 22 45 bf ca 4c 30 bf 14 a1 06 bf 37 f4 15 3f
       -0.7700517 -0.6886717 -0.52589536 0.5857577
0000f0 05 cb 30 bf 3b 87 28 bf d0 6a 2b bf 35 f9 b2 3e
       -0.69059783 -0.65831345 -0.6695986 0.34955755
000100 5c 29 1d be 88 cf 05 3f 72 84 31 bf ae 54 54 bf
       -0.15347809 0.5226979 -0.6934272 -0.8294171
000110 91 46 24 bf 69 dd 1d 3f fa 92 dc 3e 1e d9 e5 3e
       -0.64170176 0.6166597 0.43080884 0.4489221
000120 bf 46 4f bf cf 35 47 bf 62 13 53 bf 7a 23 4c bf
       -0.80967325 -0.7781648 -0.8245145 -0.7974163
000130 33 3e 26 bf 7a 5a 38 3f bd 5d 2b bf 82 b3 23 3f
       -0.6493866 0.72013056 -0.6693991 0.6394578
000140 30 e4 30 bf c8 2c ec ba 81 94 c6 be 50 a2 2c bf
       -0.69098186 -0.0018018717 -0.38785174 -0.6743517
000150 3c 18 32 bf 75 c4 3b bf 5d dd 3d 3f 75 3d 05 3f
       -0.6956823 -0.73346645 0.741659 0.520469
000160 d3 f9 c7 3e 2b 11 27 bf b9 87 61 be b4 bc 32 bf
       0.39057788 -0.6526057 -0.2202443 -0.6981919
000170 bc 3f 4e bf 60 6c 1f bf c4 aa 02 bf 09 bb 26 bf
       -0.80566 -0.6227474 -0.5104182 -0.65129143
000180 46 00 09 3f c1 97 09 3e 4e 8b 8a be 48 2b 18 3f
       0.5351604 0.13436796 -0.27059406 0.5944104
000190 3b ae 39 bf df bf 36 bf 32 9c 2e bf 64 86 45 bf
       -0.7253148 -0.7138652 -0.68207085 -0.7715819
0001a0 ce 73 34 bf e8 e1 31 bf a5 5d 31 bf f7 59 4d bf
       -0.70489204 -0.6948533 -0.69283515 -0.802154
0001b0 21 eb 4b bf c3 90 2f bf 3e 60 5c bf 43 3a 3c bf
       -0.79655653 -0.68580264 -0.86084354 -0.735264
0001c0 70 ac 47 bf 41 3a 33 bf 83 a5 3d bf b5 ad 1d bf
       -0.77997494 -0.70010763 -0.74080676 -0.6159318
0001d0 93 f2 28 bf 38 a7 4e bf f7 02 ae be 23 09 0c be
       -0.6599514 -0.80723906 -0.33986637 -0.1367536
0001e0 a8 51 26 bf c8 40 32 bf 83 1d 37 bf 7f 24 4e bf
       -0.6496835 -0.696301 -0.71529406 -0.8052444
0001f0 e4 04 33 bf 31 de d4 3e 98 8e 47 bf 6f 4b 3b bf
       -0.6992934 0.4157577 -0.77951956 -0.7316198
000200 ba d0 3c bf ee f5 1c bf 3d d8 0a bf 6d bd 3a bf
       -0.7375599 -0.6131276 -0.54236203 -0.7294529
000210 20 16 e9 be f5 b3 4c bf 28 98 2d bf d3 b3 25 bf
       -0.45524693 -0.7996209 -0.67810297 -0.64727515
000220 fe 91 4a bf e4 79 45 bf 45 7b b6 bc 23 59 9b be
       -0.79129016 -0.77139115 -0.022275576 -0.30341443
000230 1f 63 43 bf 79 01 3b bf 19 4e 52 bf 2a 1b 50 bf
       -0.7632312 -0.7304912 -0.8215042 -0.8129145
000240 d5 be 31 3e e2 42 45 bf ab 5f 30 bf a1 8c 5a bf
       0.17357953 -0.7705518 -0.6889598 -0.8537083
000250 e6 71 26 bf 2e d6 47 bf 53 0e 40 bf 71 30 28 bf
       -0.65017545 -0.7806119 -0.7502186 -0.65698916
000260 d4 47 33 bf 1e 37 16 bf 8b d5 e2 be fe 44 27 bf
       -0.70031476 -0.5867785 -0.44303545 -0.6533965
000270 29 f2 48 bf 61 75 36 bf 15 19 46 bf de b0 51 bf
       -0.7849451 -0.71272856 -0.7738202 -0.819105
000280 9c 2e 43 bf 0b 97 5d bf 3f fa 3d bf 98 4c 4c bf
       -0.76242995 -0.865586 -0.7420997 -0.7980437
000290 1b 49 16 bf af 94 2b bf bb b3 24 bf df ad bd 3c
       -0.587053 -0.6702375 -0.64336747 0.023154197
0002a0 eb b5 6b be f6 db 36 bf 49 e6 2f bf c8 77 54 bf
       -0.23018615 -0.71429384 -0.6871076 -0.8299527
0002b0 2c a4 32 bf 19 2b 57 bf 63 fd 26 3e af 2e 1f bf
       -0.69781756 -0.84050137 0.16307597 -0.6218061
0002c0 60 69 58 bf 70 d4 2e bf 26 67 59 bf 87 7d 2f bf
       -0.8453579 -0.68292904 -0.8492302 -0.68550915
0002d0 e0 22 52 bf b3 83 2d bf c3 66 40 bf 71 76 34 bf
       -0.82084465 -0.6777908 -0.751568 -0.7049323
0002e0 19 1e 73 be 14 6a 2b bf df 75 36 bf ea 0b 47 bf
       -0.2374195 -0.6695874 -0.71273607 -0.77752554
0002f0 f3 28 2d bf b8 b0 26 bf 52 67 29 bf 90 84 f4 bd
       -0.6764061 -0.651134 -0.6617328 -0.11939347
000300 b4 63 4f bf c9 32 3d bf f9 7d 3c bf e5 ad 55 bf
       -0.8101151 -0.73905617 -0.7362972 -0.83468467
000310 86 45 4a bf 1c c9 01 bf 5b ca f7 be 88 98 31 bf
       -0.79012334 -0.50697494 -0.48396572 -0.6937337
000320 f1 c0 56 bf d8 8c 32 bf c7 fa 4b bf 45 f2 5b bf
       -0.83888155 -0.6974616 -0.7967953 -0.8591655
000330 8e 27 f0 be 1c 87 3a bf 2b c0 2a bf 86 b8 2f bf
       -0.46905178 -0.7286241 -0.66699475 -0.68640935
000340 d3 f9 11 bf ba 5b 31 bf 94 e3 27 bf 3b a9 49 bf
       -0.57021827 -0.6928059 -0.6558163 -0.7877385
000350 eb e4 34 bf 5e 9a 5b bf 90 d4 5f bf fb a3 4c bf
       -0.706618 -0.8578242 -0.8743372 -0.79937714
000360 7a d8 47 bf 6f e5 2a bf 0f b6 51 bf 56 20 3e bf
       -0.7806469 -0.6675634 -0.81918424 -0.7426809
000370 37 20 47 bf 98 fb 55 bf 03 28 31 3e a0 ef 3b bf
       -0.7778353 -0.83587027 0.1730042 -0.73412514
000380 ab 49 44 bf 37 37 46 bf bf 85 4e bf cd 9f aa be
       -0.7667491 -0.77428 -0.8067283 -0.33325043
000390 02 ff 4e bf e9 44 46 bf a6 e1 c5 bd 91 b7 3c bf
       -0.8085786 -0.774489 -0.0966218 -0.737176
0003a0 20 be 55 bf 92 e9 30 bf 08 73 34 bf b0 b5 10 bf
       -0.8349323 -0.691064 -0.70488024 -0.56527233
0003b0 46 6c 0d bf ac 12 5e bf 0d 1d 2b bf 81 03 42 bf
       -0.5524334 -0.8674724 -0.668412 -0.75786597
0003c0 88 a1 5b bf de 1c 2e bf 5e 82 2c bf 4a 1e 51 bf
       -0.8579335 -0.680128 -0.67386425 -0.8168684
0003d0 24 6e 33 bf 52 7b 0e bf e2 51 2c bf e4 35 59 bf
       -0.70089936 -0.5565692 -0.67312443 -0.84847856
0003e0 7b 4d 54 bf 55 d3 57 bf 44 ae 3f bf 86 44 2d bf
       -0.82930726 -0.8430684 -0.74875283 -0.67682683
0003f0 5d 17 29 bf 11 8f 42 bf b0 ad 3a bf bb ca 59 bf
       -0.66051275 -0.7599955 -0.72921276 -0.8507497

fc3.bias f4 [100]
000000 9f c9 1f bf 77 dd 0a bf ff 63 2d bf 1f 50 35 bf
       -0.62417024 -0.5424418 -0.67730707 -0.7082538
000010 80 0d aa 3e 94 b1 d4 3e ad 06 42 bf 76 7d 19 bf
       0.33213425 0.4154173 -0.75791436 -0.59957063
000020 51 f5 07 bf ec b0 1c bf 77 d2 ab be 8d a9 36 bf
       -0.531087 -0.6120746 -0.3355901 -0.71352464
000030 1f f2 39 bf 69 4c b0 be 6b 32 52 bf fd e7 46 bf
       -0.7263507 -0.34433296 -0.8210818 -0.77697736
000040 89 a5 3a bf 6b ba c6 bd bc 92 48 bf 67 70 3c bf
       -0.72908837 -0.09703525 -0.783489 -0.7360901
000050 89 6b 31 bf 53 ea 11 bf 33 b5 32 bf 99 1a 25 bf
       -0.6930471 -0.56998175 -0.6980774 -0.6449371
000060 7f ed 57 bf 31 1c 3e bf a3 fe 36 bf 4a 1c 47 bf
       -0.84346765 -0.74261767 -0.71482295 -0.7777754
000070 47 ea 2c bf 89 cc 2b bf 93 dd ef 3e e0 18 4d bf
       -0.6754498 -0.6710897 0.46848735 -0.8011608
000080 23 45 36 bf fd fa a1 3d 0f c9 4a bf 0b 0e 2f bf
       -0.71199244 0.079092 -0.7921304 -0.683808
000090 b7 4e 33 bf 2e d6 ce be 12 c4 1b bf 67 bf 46 bf
       -0.70041984 -0.4039778 -0.60846055 -0.77635807
0000a0 3c 46 26 bf bd 53 2d bf 6a c2 f8 be 37 38 30 bf
       -0.6495092 -0.677059 -0.48585826 -0.6883578
0000b0 e4 8d 37 bf 71 22 1a bf 45 aa 1e bf 45 4a 25 bf
       -0.7170088 -0.60208803 -0.6197856 -0.6456645
0000c0 cb fd 21 bf 01 cf 19 bf 3e e7 42 bf e2 fc 3b bf
       -0.6327788 -0.6008149 -0.761341 -0.73432744
0000d0 12 39 42 bf 20 2c 21 bf 57 59 4e bf 95 4e 22 bf
       -0.7586833 -0.62957954 -0.8060507 -0.63401157
0000e0 ff a5 0b bf 31 3f 2e bf 12 e0 50 bf e2 8f 94 bd
       -0.54550165 -0.6806517 -0.81591904 -0.07254006
0000f0 60 25 53 bf 1c de 29 bf 33 64 2b bf 97 f1 46 bf
       -0.82478905 -0.66354537 -0.66949767 -0.77712387
000100 aa 20 b1 bd 46 26 2a bf 87 84 44 bf fb 15 5d be
       -0.08648808 -0.6646465 -0.7676472 -0.21590416
000110 e9 c5 41 bf 87 d4 9b be 66 8d 1a bf 73 46 36 bf
       -0.7569261 -0.30435583 -0.60372007 -0.71201247
000120 85 9a ef be 87 9a 0d bf 00 79 47 bf d2 fd 45 bc
       -0.46797577 -0.55313915 -0.77919006 -0.012084441
000130 05 f3 84 be 60 78 0e bf 6c 3e 46 bf 5b 71 2d be
       -0.2596666 -0.5565243 -0.77439 -0.16937773
000140 f3 b8 50 bf ac 3b 1b bf fb 15 28 bf e5 ba ce be
       -0.8153221 -0.6063793 -0.6565854 -0.40376964
000150 09 4f 4a bf 62 36 36 bf f3 5f 33 bf 29 5c 3c bf
       -0.7902685 -0.7117673 -0.7006828 -0.73578125
000160 c7 55 0e bf 0e a1 29 bf db 85 45 bf c1 96 2b bf
       -0.55599636 -0.66261375 -0.7715737 -0.6702691
000170 44 66 c7 3e 39 09 e8 bd 2c 00 1d bf f6 b5 33 bf
       0.3894521 -0.11329884 -0.6132839 -0.70199525
000180 a6 63 35 bf a0 8d 0c 3f e8 6f 21 bf 67 53 48 bf
       -0.70855176 0.549036 -0.6306138 -0.7825226

fc4.weight f4 [6, 100]
000000 ec 86 f8 be 96 81 8c 3d b3 eb 09 3f 9f 5c 9e be
       -0.48540437 0.06860654 0.53875273 -0.3093004
000010 73 5a 17 3f 56 43 8d bd b3 85 c9 be 6a 76 7b 3e
       0.5912239 -0.06897609 -0.39359817 0.2455689
000020 be 30 ee be 99 64 c5 be 7f d1 5d 3e a8 c0 cc 3e
       -0.46521562 -0.38553312 0.21661948 0.39990735
000030 f8 00 c0 3e 42 2e ee 3e 2c 8f 19 bf 8b 5a 1d 3f
       0.3750074 0.46519667 -0.5998409 0.6146628
000040 07 4b 1b 3f 33 1f e6 be 09 1e 2e 3f 9b 3d 1c 3f
       0.6066136 -0.44945678 0.6801458 0.610315
000050 85 fc 1d 3f b8 b2 ff 3e 5f 71 20 3f f9 a4 1e 3f
       0.6171344 0.4994104 0.6267299 0.6197048
000060 7d a2 89 3e 2b e9 07 bf d7 0b 01 3f e8 7e e5 be
       0.2688178 -0.5309016 0.5040869 -0.44823384
000070 34 67 04 bf c1 a4 04 bf 30 f9 c9 3e ac b0 08 bf
       -0.51719975 -0.51813895 0.39447927 -0.5339458
000080 cc 57 19 bf 60 9a 00 3f 51 4c be 3e b8 36 07 bf
       -0.5989959 0.5023556 0.371676 -0.5281787
000090 68 d8 0f 3f 54 b3 4b 3e 1f 3e 4f 3e e5 48 0c 3f
       0.56189585 0.19892627 0.20238541 0.5479873
0000a0 11 1d 02 3f 91 a3 00 3f 1f 9e b7 be ae c0 b6 3e
       0.508256 0.5024958 -0.35862824 0.35693878
0000b0 33 4a f5 be 06 c5 ca be 63 f2 fd 3e e5 33 c5 3d
       -0.47908172 -0.39603442 0.4959899 0.09629039
0000c0 a4 1d 1a bf dc e5 f2 3e c8 a8 cd 3e b5 46 ac 3e
       -0.6020148 0.47440994 0.40167832 0.33647695
0000d0 72 93 04 bf 00 a1 ed 3e 81 cf 30 bf 45 3a a4 3e
       -0.51787484 0.46411896 -0.69066626 0.32075706
0000e0 7d 7b 20 3e eb ed 05 bf 87 4a db 3e 54 30 6a be
       0.15672107 -0.5231616 0.42830297 -0.22869998
0000f0 d5 9b 28 3f f7 5b c6 be e9 1e a0 3e 18 d6 cd 3e
       0.6586278 -0.3874204 0.31273583 0.40202403
000100 91 98 8b 3e 50 0d 1f 3f 17 17 ef be 49 71 08 3f
       0.27264836 0.6212969 -0.46697304 0.5329786
000110 8f f2 00 bf b0 55 59 3d 00 0e 0e be cd cf 29 bf
       -0.50370115 0.053060234 -0.13872528 -0.66332704
000120 dd 49 1f bf c1 5b 9d be 5f bd 27 3f 31 80 6c 3d
       -0.6222208 -0.30734065 0.6552333 0.05773944
000130 40 d2 47 bd 8a 7d ed be 12 1b f0 be d1 d3 1a 3f
       -0.048784494 -0.4638484 -0.46895653 0.60479456
000140 bb fa ec be 84 62 0d 3f 16 bc ef 3e de b4 04 bf
       -0.46285042 0.5522845 0.46823186 -0.5183848
000150 6a fd d9 be 2c e5 2b 3f fb f0 db be 7a ba 05 bf
       -0.42576152 0.67146564 -0.4295729 -0.52237666
000160 78 67 82 be 23 97 cf 3e 81 f7 e2 be be 1c 25 3f
       -0.25469565 0.40544996 -0.44329455 0.6449698
000170 27 a5 6f be f5 71 c7 bd f1 d7 13 bf 9c 69 07 bf
       -0.23402844 -0.097385325 -0.57751375 -0.5289552
000180 fc 54 b5 be c7 47 02 3f 7d 61 12 bf 8f 03 6f bc
       -0.354164 0.50890774 -0.57180005 -0.014588251
000190 59 ec 02 3f d0 4e 28 3f 74 5f ef 3d 95 64 25 bf
       0.5114189 0.6574526 0.11688128 -0.646066
0001a0 2a 1d 3b bf 9f 3a 36 3f 8e e9 11 3f b4 35 3d 3f
       -0.73091376 0.711832 0.56997 0.7391007
0001b0 b4 c2 e3 3e 57 5d 97 be e9 96 3d 3f 8e 88 2a 3f
       0.44484484 -0.295634 0.74058396 0.66614616
0001c0 90 09 1e 3f c7 6c 43 bf a9 9c 20 3f 8f f6 41 3f
       0.6173334 -0.76337856 0.62739044 0.75766844
0001d0 f1 6e 11 bf 83 ab 09 3f ad 9c 46 bf ec e8 fd be
       -0.5680991 0.5377733 -0.7758282 -0.49591768
0001e0 3f 0f 6d 3e 49 02 73 be 4e fb 3b bf 6f 53 d8 3e
       0.23150347 -0.2373134 -0.73430336 0.42251155
0001f0 da f9 2c 3f 46 4c c0 be 64 cd be 3e e1 2d 1c bf
       0.67568743 -0.37558192 0.37266076 -0.61007506
000200 52 e7 37 3f 02 ab 4c 3f bf 15 e4 be 04 e3 1d 3f
       0.7183734 0.7994844 -0.4454784 0.61674523
000210 66 69 e9 be b0 06 0e bf 55 d9 1d 3f 59 03 80 be
       -0.45588225 -0.55478954 0.6165975 -0.25002554
000220 ee af 3b bf ed 7e 22 3f e5 cd 22 3f 8b 1f 3b bf
       -0.7331532 0.63474923 0.6359542 -0.73095006
000230 c4 d9 07 bf ae e5 d6 be c1 33 42 bf a9 b2 2b 3f
       -0.5306666 -0.41972107 -0.7586022 0.6706949
000240 fb 5c 1c bf e8 7d 8c 3e 43 ff 3c 3f 1b 35 38 bf
       -0.61079377 0.2743981 0.73827 -0.7195603
000250 74 12 23 3f 55 85 2c 3f 05 6c 1d 3f 1e 6e 2c 3f
       0.6370003 0.6739095 0.6149295 0.67355525
000260 63 82 14 bf 63 48 04 bf bc 4d 24 3f a4 0c 02 bf
       -0.58011454 -0.51672953 0.64181113 -0.5080054
000270 06 52 fd be 75 db e8 be 32 15 3d 3f a1 cf e6 bd
       -0.4947664 -0.45479932 0.73860466 -0.11270071
000280 58 02 2a bf e2 8d 3e 3f e4 53 22 bf 61 15 41 bf
       -0.66409826 0.74435246 -0.63409257 -0.75423247
000290 b4 38 42 3f 07 78 41 bf ae 02 e0 be c4 4a 0f 3f
       0.7586777 -0.7557377 -0.43752044 0.5597346
0002a0 f8 bc 18 bf 3f 2e 22 bf 2a 5a 22 bf 20 e1 1d 3f
       -0.59663343 -0.63351816 -0.6341883 0.6167164
0002b0 85 4a 18 3f 1d d8 04 bf 50 3f 1e bf e4 10 45 3f
       0.5948871 -0.5189226 -0.6181536 0.769789
0002c0 ca 66 3f bf d6 02 0e 3f 2c 29 2b 3f ad f5 3b bf
       -0.7476622 0.5547308 0.668597 -0.73421746
0002d0 7b c8 5c 3f 6c d0 21 3f d3 ff 12 bf 5a cc b7 bd
       0.8624341 0.6320865 -0.57421607 -0.08974524
0002e0 5e 18 0c bf ee 44 21 bf 1f 60 25 bf ed 17 ec be
       -0.5472468 -0.62995803 -0.64599794 -0.46112004
0002f0 98 fb e0 be 65 2e 21 3f f5 21 0e 3f 4b 31 c4 3e
       -0.4394195 0.6296142 0.55520564 0.38318858
000300 b1 5b 34 3f 11 a6 34 bf 23 ee 20 3f 6f 61 cb 3e
       0.7045241 -0.705659 0.6286337 0.39722773
000310 20 d7 11 bf ee 14 f7 be 5c 29 2a 3f 20 38 4f 3f
       -0.5696888 -0.48258156 0.6646936 0.80945015
000320 e8 29 18 bf 8d 52 57 bf 77 e9 36 bf 0c 6a 25 3f
       -0.59438944 -0.8411034 -0.7144999 0.6461494
000330 e4 3c 37 bf f7 b0 2f bf 8f f0 2f bf d0 63 46 bf
       -0.71577287 -0.686294 -0.6872644 -0.7749605
000340 aa 82 5a bf c4 d3 4a bf 52 13 45 bf 8a 45 50 bf
       -0.8535563 -0.7922938 -0.76982605 -0.8135611
000350 d3 98 2b bf c1 b6 33 3f a3 88 34 bf 91 19 38 bf
       -0.67030066 0.70200735 -0.7052099 -0.7191401
000360 b0 f4 2d bf 59 5b 38 bf d6 98 18 bf d3 1c 1a bf
       -0.6795149 -0.72014385 -0.5960821 -0.6020023
000370 b4 98 30 bf 9e c7 38 bf b3 2e 2f bf 30 b3 2e bf
       -0.68983006 -0.7217959 -0.6843063 -0.6824217
000380 4b 70 22 bf 54 7c 31 3f 7f b3 42 bf a2 3c 5b 3f
       -0.63452595 0.69330335 -0.7605514 0.85639393
000390 dd 95 da be c6 bc 3f bf 02 f3 3d bf 9d 09 37 bf
       -0.42692462 -0.7489742 -0.74198925 -0.71499044
0003a0 30 7f 3f 3f 1d 09 28 3f d7 75 37 bf 4d 1d 42 bf
       0.7480345 0.65638906 -0.71664184 -0.7582596
0003b0 fb 9e 2f bf 81 c5 4d bf 2e 6d 4c bf 6b c5 20 bf
       -0.6860196 -0.8037949 -0.79854095 -0.62801236
0003c0 dc 3e 1b 3f 20 b4 1b bf f7 cc 32 bf 38 f0 2e bf
       0.6064279 -0.60821724 -0.69844 -0.68335295
0003d0 85 a5 66 3f fc 1f 4c 3f dc 1f 32 bf d1 93 25 bf
       0.9009631 0.79736304 -0.69579864 -0.64678675
0003e0 a5 79 4e bf 36 64 3d bf fe cb 39 bf 6c 80 27 bf
       -0.80654365 -0.73981035 -0.7257689 -0.6543033
0003f0 95 de 00 bf 70 f0 46 bf 9f d2 29 bf 41 4b 36 be
       -0.50339633 -0.7771063 -0.6633701 -0.17802145

fc4.bias f4 [6]
000000 81 47 f6 3e 21 91 0b bf 58 79 1e 3f a4 33 a5 3e
       0.48101428 -0.54518324 0.61903906 0.3226596
000010 f5 8d 18 3f aa 38 ea be
       0.5959161 -0.45746356
