figs/augmentation/gaussian-noise/mlp/mlp_model_dict.pt (torch, 141967 bytes, 10 tensors)

group.0.weight f4 [100, 100]
-0.067087024 0.43918705 -0.2923899 -0.2541484 0.34059918 -0.45509002 0.29100868 -0.18886842
-0.09034979 -0.17261054 -0.37393537 0.36695728 0.19183697 0.38728297 0.4373621 0.42068154
-0.4880425 0.20967774 0.31549647 -0.30922055 -0.4099922 0.30856395 -0.290347 -0.51802653
-0.3767542 -0.36889982 -0.22911528 -0.024899265 0.4635671 -0.14180733 -0.10692025 0.35948372
-0.26843113 -0.23991852 -0.19768031 0.4788313 0.20452322 0.32956445 -0.2421231 0.41772792
-0.15848798 -0.21594402 -0.07409678 -0.17019 0.32660955 -0.36312753 -0.3067799 0.30034983
0.43201673 0.124913774 0.52313346 -0.16591886 0.4901304 0.06008127 0.6235459 -0.34616163
0.28782687 0.46285623 0.59114164 0.45115343 0.07317071 -0.32241 -0.23596177 -0.06367187
-0.043586917 0.44980517 0.033546627 0.44915026 0.5006341 0.21487992 -0.28384075 0.22126873
0.4981025 0.6054477 -0.21060388 0.32780072 -0.23101427 -0.33158854 -0.44842255 -0.33389693
0.3564311 0.50309473 -0.40001485 0.39811414 -0.38863 0.48113742 -0.0055346675 -0.45289227
0.11560097 -0.49333158 0.36527255 -0.41770053 0.43931052 -0.25975737 0.40189418 -0.16105694
0.014424517 0.44634768 -0.05952247 -0.061642572 -0.40437514 0.33805212 0.33103454 -0.42234582
-0.09193894 -0.41857985 -0.33483922 -0.4604913 -0.046758734 -0.37221444 -0.4772553 0.14499249
0.0692142 -0.4808883 0.37257344 -0.2705143 -0.352044 -0.4349555 0.400051 -0.33602315
-0.4349826 -0.34895584 -0.44461823 -0.44985655 -0.2981597 -0.37048155 -0.36765897 0.56764567
-0.046630707 -0.43326306 -0.45131058 -0.38540488 -0.3107116 -0.30196148 -0.371813 0.45419577
-0.44785985 -0.4978468 -0.37589353 -0.2713584 -0.32997966 -0.41565016 -0.3547337 -0.36919522
-0.4405799 -0.38658884 0.041101173 -0.35305998 -0.33481556 -0.45073414 -0.3546722 -0.42936996
0.2814184 0.0040237475 0.5386808 0.3787778 -0.32366717 0.4550206 0.4175048 -0.4661166
-0.47149494 -0.406319 -0.42087668 -0.20352736 -0.29963014 0.38684186 -0.37268606 -0.41494352
0.018295968 -0.21324681 0.10524844 0.49341947 -0.33112156 0.29069394 -0.44787294 -0.4119802
-0.4311732 -0.3740153 -0.13887453 0.52257043 0.50537676 -0.10312006 -0.1803847 0.04835787
-0.31295115 -0.36993238 -0.45965505 -0.43724266 -0.42209083 -0.33587402 -0.49291322 0.07379965
-0.4226385 -0.1086673 0.3622178 0.29081494 -0.32124287 -0.46205342 -0.28997108 0.100311816
-0.31312034 -0.33064675 0.4024809 -0.4928981 0.4945292 -0.10441036 -0.4989956 -0.43921942
-0.4305427 -0.36814514 -0.36181787 -0.47692052 -0.03952094 -0.32486194 0.38453704 0.28661612
-0.27598456 -0.46482453 -0.42041063 -0.5286781 -0.37063333 -0.4425918 -0.5021118 -0.44695246
-0.44887945 -0.475713 -0.36559078 -0.48873752 0.55789155 -0.121463716 -0.4855283 0.37916285
-0.5137619 -0.36800256 -0.43861905 -0.5149645 -0.36767516 -0.40432292 -0.37626058 -0.41041535
-0.4029313 -0.2484258 0.051693387 -0.4239613 -0.5185458 -0.41318402 0.3246782 -0.43007976
-0.5037285 -0.29230335 -0.51384526 -0.4630297 -0.41146222 0.34931764 0.4032015 0.3408543
00000000: ec64 89bd 20dd e03e 21b4 95be bd1f 82be
00000010: 0463 ae3e 8f01 e9be 17ff 943e b966 41be
00000020: 5009 b9bd d1c0 30be 7574 bfbe d3e1 bb3e
00000030: e970 443e f449 c63e eded df3e 9263 d73e
00000040: b5e0 f9be c3b5 563e c188 a13e 2852 9ebe
00000050: 7fea d1be 18fc 9d3e 5da8 94be 639d 04bf
00000060: ede5 c0be 70e0 bcbe 329d 6abe 8bf9 cbbc
00000070: ab58 ed3e f135 11be 01f9 dabd 400e b83e
00000080: ce6f 89be 33ad 75be b56c 4abe 6029 f53e
00000090: 896e 513e acbc a83e 1eef 77be 6fe0 d53e
000000a0: ac4a 22be 6e20 5dbe 0dc0 97bd 4a46 2ebe
000000b0: 5e39 a73e daeb b9be 4112 9dbe 74c7 993e
000000c0: 4c31 dd3e cbd2 ff3d 13ec 053f a2e6 29be
000000d0: 5ff2 fa3e c717 763d b4a0 1f3f 193c b1be
000000e0: 0b5e 933e 7efb ec3e 0f55 173f 95fd e63e
000000f0: 86da 953d ec12 a5be f69f 71be 6666 82bd
00000100: 3288 32bd dd4c e63e 3068 093d 06f7 e53e
00000110: 8e29 003f 7b09 5c3e 9353 91be 4594 623e
00000120: 4a07 ff3e 9ffe 1a3f 8ba8 57be 7fd5 a73e
00000130: 018f 6cbe f9c5 a9be a497 e5be 8af4 aabe
00000140: 237e b63e d1ca 003f bfce ccbe 9ed5 cb3e
00000150: 83fa c6be a557 f63e 285c b5bb 7fe1 e7be
00000160: 34c0 ec3d f595 fcbe 0105 bb3e d8dc d5be
00000170: 4fed e03e ebfe 84be 13c5 cd3e 1cec 24be
00000180: cf54 6c3c af87 e43e d5cd 73bd ec7c 7cbd
00000190: 420a cfbe 2b15 ad3e 5c7d a93e b63d d8be
000001a0: 7c4a bcbd 1950 d6be 0c70 abbe 84c5 ebbe
000001b0: 1686 3fbd e492 bebe cf5a f4be e978 143e
000001c0: 2dc0 8d3d fe36 f6be f2c1 be3e da80 8abe
000001d0: 1c3f b4be 7db2 debe 7cd3 cc3e 3a0b acbe
000001e0: 0ab6 debe 57aa b2be 00a5 e3be 9953 e6be
000001f0: 63a8 98be c2af bdbe cc3d bcbe 3a51 113f
00000200: d7ff 3ebd a8d4 ddbe 2e12 e7be ca53 c5be
00000210: 9715 9fbe b29a 9abe 465e bebe 598c e83e
00000220: e34d e5be c7e5 febe 1e75 c0be 7def 8abe
00000230: 18f3 a8be 19d0 d4be a89f b5be 2807 bdbe
00000240: b093 e1be f9ee c5be b459 283d 47c4 b4be
00000250: f26c abbe a0c6 e6be 9897 b5be 61d6 dbbe
00000260: 1316 903e a4d9 833b fce6 093f 2aef c13e
00000270: b4b7 a5be 76f8 e83e 30c3 d53e d6a6 eebe
00000280: c967 f1be 0b09 d0be 267d d7be 7a69 50be
00000290: 1f69 99be 2310 c63e b5d0 bebe 7a73 d4be
000002a0: 6de1 953c 5f5d 5abe 7e8c d73d 7aa1 fc3e
000002b0: c488 a9be d6d5 943e 9a4f e5be 12ef d2be
000002c0: bcc2 dcbe ef7e bfbe 2035 0ebe 2dc7 053f
000002d0: 5f60 013f 9c30 d3bd c4b6 38be e712 463d
000002e0: 223b a0be c767 bdbe e857 ebbe 45de dfbe
000002f0: 4a1c d8be aef7 abbe 1f5f fcbe 4524 973d
00000300: 1364 d8be f68c debd 9d74 b93e b2e5 943e
00000310: f279 a4be 4492 ecbe 1777 94be 4870 cd3d
00000320: 4f51 a0be 884a a9be fa11 ce3e 245d fcbe
00000330: ee32 fd3e 19d5 d5bd 5a7c ffbe 5ee1 e0be
00000340: 1870 dcbe 857d bcbe 3140 b9be ed2e f4be
00000350: b6e0 21bd 4e54 a6be 0ae2 c43e 59bf 923e
00000360: d94d 8dbe 7bfd edbe 1040 d7be 7357 07bf
00000370: a7c3 bdbe 649b e2be 668a 00bf f4d6 e4be
00000380: 87d3 e5be a890 f3be b72e bbbe ce3b fabe
00000390: fbd1 0e3f f8c1 f8bd 2a97 f8be a221 c23e
000003a0: e685 03bf d56a bcbe ad92 e0be b7d4 03bf
000003b0: eb3f bcbe 6a03 cfbe 3aa5 c0be f621 d2be
000003c0: 034d cebe 5563 7ebe 72bc 533d 7511 d9be
000003d0: 6bbf 04bf db8c d3be 393c a63e 6a33 dcbe
000003e0: 5af4 00bf c9a8 95be 5d8b 03bf 3b12 edbe
000003f0: 2dab d2be c3d9 b23e 6d70 ce3e 7484 ae3e

group.0.bias f4 [100]
0.11749595 -0.39487365 -0.42532688 0.11622504 -0.5833445 -0.47227886 0.35632756 0.29595912
0.4407095 0.38138226 -0.20249678 0.1799774 -0.4767196 -0.26555297 -0.4025857 -0.48841333
-0.21105169 0.33603635 -0.4415451 -0.102401875 0.48435667 -0.16428435 0.2707173 0.028776115
-0.40653104 0.50600123 -0.24982703 -0.34843105 -0.49820876 -0.42378384 0.44835317 -0.49897036
0.1288355 -0.4038544 0.30696872 -0.46351376 -0.39221978 0.08006638 -0.34361127 0.060276303
-0.44219404 -0.4718725 -0.39165053 -0.54225105 -0.06922406 -0.54857206 -0.29715055 0.041277174
-0.12512524 -0.53924 -0.50374573 -0.05374815 -0.39726394 0.15409572 -0.35508648 -0.4574776
0.38398626 -0.122594185 -0.345828 -0.27542123 -0.35218075 0.36344546 -0.29183844 0.46309906
-0.45336142 -0.5198854 -0.4109631 -0.14724728 -0.35045028 -0.34765804 0.39951783 0.026984427
0.1064086 -0.36707675 0.38325265 -0.40844405 -0.31897348 0.3882008 0.0007855295 0.46146777
0.05016114 -0.5191659 0.34304315 0.18163317 -0.3469306 -0.07262547 -0.42227307 0.49480873
-0.48112658 -0.45228058 0.40434533 -0.4933789 -0.3011867 0.2643656 -0.45801938 -0.48215994
0.46861377 -0.38734937 0.45959163 -0.43250924
00000000: b7a1 f03d e12c cabe 72c4 d9be 6507 ee3d
00000010: 1156 15bf 89ce f1be 9170 b63e f487 973e
00000020: ada4 e13e 8944 c33e 515b 4fbe ff4b 383e
00000030: 9714 f4be 8ff6 87be b61f cebe 5011 fabe
00000040: ef1d 58be f50c ac3e 3312 e2be 13b8 d1bd
00000050: 99fd f73e 283a 28be 759b 8a3e e3bb eb3c
00000060: d624 d0be 4c89 013f a8d2 7fbe 8e65 b2be
00000070: 3815 ffbe 32fa d8be 8c8e e53e 0b79 ffbe
00000080: 74ed 033e 01c6 cebe 012b 9d3e ad51 edbe
00000090: 08d1 c8be d8f9 a33d d1ed afbe 49e4 763d
000000a0: 4267 e2be 4699 f1be 6b86 c8be f7d0 0abf
000000b0: 58c5 8dbd 386f 0cbf 1e24 98be 4112 293d
000000c0: d520 00be a20b 0abf 7bf5 00bf 0527 5cbd
000000d0: 2e66 cbbe 45cb 1d3e e5cd b5be 813a eabe
000000e0: d999 c43e a912 fbbd 5e10 b1be 0304 8dbe
000000f0: 0951 b4be 8615 ba3e d96b 95be 521b ed3e
00000100: fd1e e8be 3617 05bf c169 d2be fec7 16be
00000110: 386e b3be 3c00 b2be 9a8d cc3e 720e dd3c
00000120: c1ec d93d 7cf1 bbbe b139 c43e 941f d1be
00000130: 7e50 a3be 41c2 c63e feeb 4d3a 8145 ec3e
00000140: c475 4d3d 0ee8 04bf 5aa3 af3e 0cfe 393e
00000150: e3a0 b1be aabc 94bd 2d34 d8be 9257 fd3e
00000160: 3956 f6be 5291 e7be 5a06 cf3e 299c fcbe
00000170: 2535 9abe ee5a 873e 8481 eabe abdd f6be
00000180: 25ee ef3e a852 c6be 984f eb3e da71 ddbe

fc1.weight f4 [100, 240]
0.33171165 -0.5134771 -0.17261034 -0.4886928 -0.038729396 0.3474517 0.19912572 0.33009443
0.2022939 -0.22893605 -0.4623923 -0.15194951 0.31033167 0.46423507 0.37917438 0.3592961
-0.24823236 -0.58912575 -0.32734314 -0.12953518 0.0874989 0.5094142 0.262618 0.38133135
-0.5090181 -0.14685266 -0.36760926 0.2795076 0.107207194 0.4340903 0.20188041 0.23627482
-0.54431367 -0.5436022 -0.44402903 -0.21675141 0.124024406 0.014897193 0.426631 0.31912565
-0.50915027 -0.50162375 0.29566342 -0.46258584 -0.39787504 0.257988 0.41776013 0.31546333
-0.044632815 -0.5020864 -0.53157556 -0.5368142 -0.48682663 0.3210831 0.32858092 0.39371976
-0.10040683 -0.57415336 -0.51618916 -0.55289096 -0.2425357 0.49015212 0.43103707 0.17084378
-0.5295765 -0.5188155 -0.5372606 -0.530244 -0.04363452 0.42361146 0.34891403 -0.15676014
-0.36530763 -0.48017922 -0.09068187 0.19946884 0.44304872 0.35002536 -0.008593872 -0.41324162
-0.2878405 0.0882957 0.23370329 0.4001987 -0.481191 -0.44100323 -0.46359822 -0.43070138
-0.07005302 -0.42931888 -0.39448515 -0.4066948 -0.3941827 -0.44237596 -0.2868376 -0.20982142
0.43621588 -0.27415153 -0.37660718 -0.4775379 -0.3171046 -0.37736398 -0.08766992 -0.17496884
0.189823 -0.420153 -0.51391655 -0.5176163 -0.31500265 0.20186356 -0.35534528 -0.43510404
-0.33570933 -0.23550636 -0.45513925 -0.44200248 -0.29643565 -0.28062135 0.37360632 0.29251632
-0.46889883 -0.45700315 -0.39872882 -0.3167389 -0.39877954 -0.17830573 -0.10726723 0.26296005
-0.031266708 -0.29626068 -0.3766096 -0.38236782 -0.20503046 -0.20099376 -0.19688395 -0.30350026
-0.49566844 -0.46798843 -0.33264914 -0.39390633 0.05201423 -0.34242544 0.3320676 0.08198171
-0.44254985 0.23121406 -0.015548323 -0.36678645 0.36106724 0.30193302 -0.055363182 -0.32715502
-0.47713715 -0.50264573 -0.4774787 -0.33782315 -0.4153164 -0.15968353 0.45981523 -0.41070926
-0.48435146 -0.45288387 0.12179873 -0.42377546 -0.3365189 -0.3571537 -0.39972332 -0.44548535
-0.1890714 -0.4421605 -0.4617892 -0.46784392 -0.3513681 -0.030492516 -0.4680337 -0.48004565
-0.46994895 -0.4441836 -0.3581225 -0.42858136 -0.2965142 -0.48848486 -0.28675863 -0.46497384
-0.23262025 -0.44810364 -0.4449385 -0.4818348 -0.34138158 -0.35988644 -0.47771102 -0.35094738
-0.32958847 -0.4736425 0.53445953 -0.3227733 -0.33562312 -0.39517283 -0.4550749 -0.3590059
-0.2175267 -0.35941258 -0.34209216 -0.48418197 -0.34715664 -0.31827477 -0.41577828 -0.033390917
-0.1502851 -0.44205695 -0.40072593 -0.31916702 -0.40985617 -0.38700956 -0.41177684 0.33463246
-0.39620724 -0.46421915 -0.3184583 0.50334626 0.33888555 -0.33759224 -0.4578923 -0.41343197
-0.39077356 -0.3186087 -0.38874525 -0.41175944 -0.43960583 -0.49370325 -0.47041056 -0.45324138
-0.38521278 -0.35562736 -0.3313387 -0.47176218 -0.49024472 -0.4373649 -0.42503983 -0.34648514
0.30880085 0.46393004 -0.30699885 -0.5870004 0.087002285 -0.4811549 -0.3755925 0.20457006
0.29457456 0.5139418 0.3681463 -0.13027956 -0.4979149 0.18563743 0.48782218 0.4707843
00000000: 1cd6 a93e 3c73 03bf c4c0 30be f135 fabe
00000010: b7a2 1ebd 30e5 b13e 9de7 4b3e 2302 a93e
00000020: 2226 4f3e 366e 6abe afbe ecbe a798 1bbe
00000030: cbe3 9e3e 38b0 ed3e 2523 c23e a9f5 b73e
00000040: a030 7ebe f2d0 16bf 8599 a7be dfa4 04be
00000050: a032 b33d f868 023f de75 863e dd3d c33e
00000060: 034f 02bf 8b60 16be 4837 bcbe 9f1b 8f3e
00000070: 728f db3d 1541 de3e bdb9 4e3e 07f2 713e
00000080: 2458 0bbf 8429 0bbf c657 e3be 15f4 5dbe
00000090: 8200 fe3d 5b13 743c 616f da3e 7064 a33e
000000a0: ac57 02bf 6a6a 00bf 3261 973e 0dd8 ecbe
000000b0: 47b6 cbbe 0117 843e a8e4 d53e 6984 a13e
000000c0: e6d0 36bd bc88 00bf 5615 08bf a86c 09bf
000000d0: 5741 f9be 0165 a43e c23b a83e a395 c93e
000000e0: 19a2 cdbd b7fb 12bf f924 04bf 438a 0dbf
000000f0: 475b 78be 38f5 fa3e e4b0 dc3e acf1 2e3e
00000100: 5392 07bf 18d1 04bf e989 09bf 12be 07bf
00000110: 1cba 32bd 9ae3 d83e dca4 b23e bb85 20be
00000120: 9a09 bbbe 0dda f5be 6bb7 b9bd 8f41 4c3e
00000130: 48d7 e23e 8636 b33e 50cd 0cbc 6894 d3be
00000140: d45f 93be 60d4 b43d ea4f 6f3e d8e6 cc3e
00000150: ab5e f6be 2dcb e1be bf5c edbe e484 dcbe
00000160: f577 8fbd afcf dbbe f5f9 c9be 4d3a d0be
00000170: 51d2 c9be 1a7f e2be 61dc 92be 6ddb 56be
00000180: b057 df3e 975d 8cbe a8d2 c0be d97f f4be
00000190: 895b a2be da35 c1be 498c b3bd 082b 33be
000001a0: f660 423e 4b1e d7be 0990 03bf 8082 04bf
000001b0: 0748 a1be 52b5 4e3e d1ef b5be f5c5 debe
000001c0: 18e2 abbe 9428 71be 0308 e9be 264e e2be
000001d0: 6ac6 97be 9aad 8fbe 5449 bf3e b3c4 953e
000001e0: 8213 f0be 51fc e9be 2f26 ccbe 9a2b a2be
000001f0: d52c ccbe c795 36be ecae dbbd b3a2 863e
00000200: 8511 00bd 7baf 97be f9d2 c0be b7c5 c3be
00000210: 81f3 51be 4fd1 4dbe f29b 49be 6364 9bbe
00000220: 41c8 fdbe 2e9c efbe fd50 aabe 17ae c9be
00000230: e00c 553d 6352 afbe c404 aa3e 07e6 a73d
00000240: e595 e2be 61c3 6c3e 65be 7ebc 6fcb bbbe
00000250: cedd b83e f796 9a3e 81c4 62bd dd80 a7be
00000260: 524b f4be 64ad 00bf 1778 f4be 28f7 acbe
00000270: 5aa4 d4be 1484 23be e76c eb3e 7c48 d2be
00000280: eafc f7be 65e0 e7be 9d71 f93d 19f9 d8be
00000290: 354c acbe dadc b6be 89a8 ccbe a816 e4be
000002a0: ef9b 41be dc62 e2be a26f ecbe 3d89 efbe
000002b0: 85e6 b3be 71cb f9bc 1da2 efbe 8bc8 f5be
000002c0: 269d f0be 086c e3be d55b b7be 046f dbbe
000002d0: b6d0 97be b01a fabe 07d2 92be 0d11 eebe
000002e0: 0134 6ebe d76d e5be fbce e3be 0db3 f6be
000002f0: 91c9 aebe 0943 b8be 8a96 f4be 60af b3be
00000300: d2bf a8be 4581 f2be 57d2 083f 8b42 a5be
00000310: cbd6 abbe 1854 cabe 94ff e8be 9fcf b7be
00000320: 52bf 5ebe ed04 b8be b426 afbe b3e6 f7be
00000330: 84be b1be e9f4 a2be e4e0 d4be eac4 08bd
00000340: 56e4 19be 4a55 e2be f32b cdbe dc69 a3be
00000350: abd8 d1be 1e26 c6be 6ad4 d2be f254 ab3e
00000360: addb cabe 22ae edbe f70c a3be 4ddb 003f
00000370: 6882 ad3e e4d8 acbe dc70 eabe 5bad d3be
00000380: 7913 c8be ae20 a3be 9e09 c7be 22d2 d2be
00000390: 0414 e1be acc6 fcbe a7d9 f0be 410f e8be
000003a0: 9c3a c5be ca14 b6be 3aa5 a9be d08a f1be
000003b0: 5b01 fbbe 4bee dfbe d29e d9be 8066 b1be
000003c0: 251b 9e3e 3d88 ed3e f42e 9dbe a945 16bf
000003d0: 412e b23d ef59 f6be a94d c0be d07a 513e
000003e0: 7ad2 963e b191 033f ac7d bc3e 0168 05be
000003f0: b4ee febe bd17 3e3e d4c3 f93e a40a f13e

fc1.bias f4 [100]
-0.17547102 -0.2534078 -0.370883 -0.16726866 -0.3502305 -0.4019247 -0.35005286 -0.46959227
-0.47741538 -0.37823018 -0.26998797 -0.44107738 -0.5074651 -0.42347777 -0.2152243 -0.20848665
-0.4924921 -0.35775873 -0.1258638 -0.4250487 -0.459952 -0.537094 -0.43310413 -0.3943759
-0.31048924 -0.4724469 -0.3856381 -0.23247449 -0.25028193 -0.44127986 -0.395822 -0.5131213
-0.2866388 -0.40823695 -0.41960087 -0.17586881 -0.38783002 -0.45664927 -0.22380692 -0.3617167
-0.23702759 -0.38669968 -0.30522183 -0.3644254 -0.2780386 -0.3796685 -0.33695257 -0.11379036
-0.34461358 -0.38152692 -0.27087754 -0.2343594 -0.23153941 0.04177066 -0.17388678 -0.41430175
-0.07583012 -0.2555471 -0.06339471 -0.35612884 -0.44053835 -0.50558245 -0.3667407 0.019571923
-0.2934495 -0.51246643 -0.45496684 -0.3247725 -0.2786249 -0.32763013 -0.31732467 -0.3059739
0.04650147 -0.3457164 -0.46975568 -0.29889655 -0.36410537 -0.40472433 -0.4257768 -0.09322973
-0.35403284 -0.28560933 -0.17183547 -0.36231115 -0.5120345 -0.15605721 -0.4192019 -0.36744857
-0.33267102 -0.39013252 -0.44305897 -0.28645656 -0.3691976 -0.26539233 -0.0033494183 -0.42772225
-0.36023423 -0.38302746 -0.20868292 -0.32105556
00000000: adae 33be abbe 81be 60e4 bdbe 7a48 2bbe
00000010: 6951 b3be 13c9 cdbe 213a b3be 666e f0be
00000020: ca6f f4be 63a7 c1be dd3b 8abe e5d4 e1be
00000030: 3ce9 01bf 14d2 d8be c263 5cbe 867d 55be
00000040: ed27 fcbe 272c b7be 71e2 00be fc9f d9be
00000050: d47e ebbe fe7e 09bf d3bf ddbe a3eb c9be
00000060: 72f8 9ebe 8fe4 f1be 5b72 c5be cb0d 6ebe
00000070: f424 80be 6fef e1be 2ea9 cabe eb5b 03bf
00000080: 52c2 92be 6f04 d1be edd5 d6be f416 34be
00000090: a891 c6be efcd e9be a42d 65be ee32 b9be
000000a0: 5cb7 72be 80fd c5be 0946 9cbe f795 babe
000000b0: 135b 8ebe e963 c2be 0c85 acbe ec0a e9bd
000000c0: 3171 b0be 7f57 c3be 76b0 8abe e9fb 6fbe
000000d0: ab18 6dbe b617 2b3d 600f 32be 5c1f d4be
000000e0: d24c 9bbd 12d7 82be 16d5 81bd 8556 b6be
000000f0: 3e8e e1be da6d 01bf 70c5 bbbe 4c55 a03c
00000100: 033f 96be 0031 03bf 6af1 e8be 9548 a6be
00000110: eca7 8ebe 23bf a7be 6178 a2be 9ca8 9cbe
00000120: 5378 3e3d bd01 b1be d183 f0be f808 99be
00000130: 056c babe 0738 cfbe 6bff d9be 3bef bebd
00000140: cb43 b5be 633b 92be a3f5 2fbe d980 b9be
00000150: b114 03bf 76cd 1fbe a2a1 d6be 3822 bcbe
00000160: db53 aabe 73bf c7be a0d8 e2be 6faa 92be
00000170: 7807 bdbe 81e1 87be ea81 5bbb 69fe dabe
00000180: 9f70 b8be 2d1c c4be fab0 55be 6561 a4be

fc2.0.0.weight f4 [100, 100]
-0.067087024 0.43918705 -0.2923899 -0.2541484 0.34059918 -0.45509002 0.29100868 -0.18886842
-0.09034979 -0.17261054 -0.37393537 0.36695728 0.19183697 0.38728297 0.4373621 0.42068154
-0.4880425 0.20967774 0.31549647 -0.30922055 -0.4099922 0.30856395 -0.290347 -0.51802653
-0.3767542 -0.36889982 -0.22911528 -0.024899265 0.4635671 -0.14180733 -0.10692025 0.35948372
-0.26843113 -0.23991852 -0.19768031 0.4788313 0.20452322 0.32956445 -0.2421231 0.41772792
-0.15848798 -0.21594402 -0.07409678 -0.17019 0.32660955 -0.36312753 -0.3067799 0.30034983
0.43201673 0.124913774 0.52313346 -0.16591886 0.4901304 0.06008127 0.6235459 -0.34616163
0.28782687 0.46285623 0.59114164 0.45115343 0.07317071 -0.32241 -0.23596177 -0.06367187
-0.043586917 0.44980517 0.033546627 0.44915026 0.5006341 0.21487992 -0.28384075 0.22126873
0.4981025 0.6054477 -0.21060388 0.32780072 -0.23101427 -0.33158854 -0.44842255 -0.33389693
0.3564311 0.50309473 -0.40001485 0.39811414 -0.38863 0.48113742 -0.0055346675 -0.45289227
0.11560097 -0.49333158 0.36527255 -0.41770053 0.43931052 -0.25975737 0.40189418 -0.16105694
0.014424517 0.44634768 -0.05952247 -0.061642572 -0.40437514 0.33805212 0.33103454 -0.42234582
-0.09193894 -0.41857985 -0.33483922 -0.4604913 -0.046758734 -0.37221444 -0.4772553 0.14499249
0.0692142 -0.4808883 0.37257344 -0.2705143 -0.352044 -0.4349555 0.400051 -0.33602315
-0.4349826 -0.34895584 -0.44461823 -0.44985655 -0.2981597 -0.37048155 -0.36765897 0.56764567
-0.046630707 -0.43326306 -0.45131058 -0.38540488 -0.3107116 -0.30196148 -0.371813 0.45419577
-0.44785985 -0.4978468 -0.37589353 -0.2713584 -0.32997966 -0.41565016 -0.3547337 -0.36919522
-0.4405799 -0.38658884 0.041101173 -0.35305998 -0.33481556 -0.45073414 -0.3546722 -0.42936996
0.2814184 0.0040237475 0.5386808 0.3787778 -0.32366717 0.4550206 0.4175048 -0.4661166
-0.47149494 -0.406319 -0.42087668 -0.20352736 -0.29963014 0.38684186 -0.37268606 -0.41494352
0.018295968 -0.21324681 0.10524844 0.49341947 -0.33112156 0.29069394 -0.44787294 -0.4119802
-0.4311732 -0.3740153 -0.13887453 0.52257043 0.50537676 -0.10312006 -0.1803847 0.04835787
-0.31295115 -0.36993238 -0.45965505 -0.43724266 -0.42209083 -0.33587402 -0.49291322 0.07379965
-0.4226385 -0.1086673 0.3622178 0.29081494 -0.32124287 -0.46205342 -0.28997108 0.100311816
-0.31312034 -0.33064675 0.4024809 -0.4928981 0.4945292 -0.10441036 -0.4989956 -0.43921942
-0.4305427 -0.36814514 -0.36181787 -0.47692052 -0.03952094 -0.32486194 0.38453704 0.28661612
-0.27598456 -0.46482453 -0.42041063 -0.5286781 -0.37063333 -0.4425918 -0.5021118 -0.44695246
-0.44887945 -0.475713 -0.36559078 -0.48873752 0.55789155 -0.121463716 -0.4855283 0.37916285
-0.5137619 -0.36800256 -0.43861905 -0.5149645 -0.36767516 -0.40432292 -0.37626058 -0.41041535
-0.4029313 -0.2484258 0.051693387 -0.4239613 -0.5185458 -0.41318402 0.3246782 -0.43007976
-0.5037285 -0.29230335 -0.51384526 -0.4630297 -0.41146222 0.34931764 0.4032015 0.3408543
00000000: ec64 89bd 20dd e03e 21b4 95be bd1f 82be
00000010: 0463 ae3e 8f01 e9be 17ff 943e b966 41be
00000020: 5009 b9bd d1c0 30be 7574 bfbe d3e1 bb3e
00000030: e970 443e f449 c63e eded df3e 9263 d73e
00000040: b5e0 f9be c3b5 563e c188 a13e 2852 9ebe
00000050: 7fea d1be 18fc 9d3e 5da8 94be 639d 04bf
00000060: ede5 c0be 70e0 bcbe 329d 6abe 8bf9 cbbc
00000070: ab58 ed3e f135 11be 01f9 dabd 400e b83e
00000080: ce6f 89be 33ad 75be b56c 4abe 6029 f53e
00000090: 896e 513e acbc a83e 1eef 77be 6fe0 d53e
000000a0: ac4a 22be 6e20 5dbe 0dc0 97bd 4a46 2ebe
000000b0: 5e39 a73e daeb b9be 4112 9dbe 74c7 993e
000000c0: 4c31 dd3e cbd2 ff3d 13ec 053f a2e6 29be
000000d0: 5ff2 fa3e c717 763d b4a0 1f3f 193c b1be
000000e0: 0b5e 933e 7efb ec3e 0f55 173f 95fd e63e
000000f0: 86da 953d ec12 a5be f69f 71be 6666 82bd
00000100: 3288 32bd dd4c e63e 3068 093d 06f7 e53e
00000110: 8e29 003f 7b09 5c3e 9353 91be 4594 623e
00000120: 4a07 ff3e 9ffe 1a3f 8ba8 57be 7fd5 a73e
00000130: 018f 6cbe f9c5 a9be a497 e5be 8af4 aabe
00000140: 237e b63e d1ca 003f bfce ccbe 9ed5 cb3e
00000150: 83fa c6be a557 f63e 285c b5bb 7fe1 e7be
00000160: 34c0 ec3d f595 fcbe 0105 bb3e d8dc d5be
00000170: 4fed e03e ebfe 84be 13c5 cd3e 1cec 24be
00000180: cf54 6c3c af87 e43e d5cd 73bd ec7c 7cbd
00000190: 420a cfbe 2b15 ad3e 5c7d a93e b63d d8be
000001a0: 7c4a bcbd 1950 d6be 0c70 abbe 84c5 ebbe
000001b0: 1686 3fbd e492 bebe cf5a f4be e978 143e
000001c0: 2dc0 8d3d fe36 f6be f2c1 be3e da80 8abe
000001d0: 1c3f b4be 7db2 debe 7cd3 cc3e 3a0b acbe
000001e0: 0ab6 debe 57aa b2be 00a5 e3be 9953 e6be
000001f0: 63a8 98be c2af bdbe cc3d bcbe 3a51 113f
00000200: d7ff 3ebd a8d4 ddbe 2e12 e7be ca53 c5be
00000210: 9715 9fbe b29a 9abe 465e bebe 598c e83e
00000220: e34d e5be c7e5 febe 1e75 c0be 7def 8abe
00000230: 18f3 a8be 19d0 d4be a89f b5be 2807 bdbe
00000240: b093 e1be f9ee c5be b459 283d 47c4 b4be
00000250: f26c abbe a0c6 e6be 9897 b5be 61d6 dbbe
00000260: 1316 903e a4d9 833b fce6 093f 2aef c13e
00000270: b4b7 a5be 76f8 e83e 30c3 d53e d6a6 eebe
00000280: c967 f1be 0b09 d0be 267d d7be 7a69 50be
00000290: 1f69 99be 2310 c63e b5d0 bebe 7a73 d4be
000002a0: 6de1 953c 5f5d 5abe 7e8c d73d 7aa1 fc3e
000002b0: c488 a9be d6d5 943e 9a4f e5be 12ef d2be
000002c0: bcc2 dcbe ef7e bfbe 2035 0ebe 2dc7 053f
000002d0: 5f60 013f 9c30 d3bd c4b6 38be e712 463d
000002e0: 223b a0be c767 bdbe e857 ebbe 45de dfbe
000002f0: 4a1c d8be aef7 abbe 1f5f fcbe 4524 973d
00000300: 1364 d8be f68c debd 9d74 b93e b2e5 943e
00000310: f279 a4be 4492 ecbe 1777 94be 4870 cd3d
00000320: 4f51 a0be 884a a9be fa11 ce3e 245d fcbe
00000330: ee32 fd3e 19d5 d5bd 5a7c ffbe 5ee1 e0be
00000340: 1870 dcbe 857d bcbe 3140 b9be ed2e f4be
00000350: b6e0 21bd 4e54 a6be 0ae2 c43e 59bf 923e
00000360: d94d 8dbe 7bfd edbe 1040 d7be 7357 07bf
00000370: a7c3 bdbe 649b e2be 668a 00bf f4d6 e4be
00000380: 87d3 e5be a890 f3be b72e bbbe ce3b fabe
00000390: fbd1 0e3f f8c1 f8bd 2a97 f8be a221 c23e
000003a0: e685 03bf d56a bcbe ad92 e0be b7d4 03bf
000003b0: eb3f bcbe 6a03 cfbe 3aa5 c0be f621 d2be
000003c0: 034d cebe 5563 7ebe 72bc 533d 7511 d9be
000003d0: 6bbf 04bf db8c d3be 393c a63e 6a33 dcbe
000003e0: 5af4 00bf c9a8 95be 5d8b 03bf 3b12 edbe
000003f0: 2dab d2be c3d9 b23e 6d70 ce3e 7484 ae3e

fc2.0.0.bias f4 [100]
0.11749595 -0.39487365 -0.42532688 0.11622504 -0.5833445 -0.47227886 0.35632756 0.29595912
0.4407095 0.38138226 -0.20249678 0.1799774 -0.4767196 -0.26555297 -0.4025857 -0.48841333
-0.21105169 0.33603635 -0.4415451 -0.102401875 0.48435667 -0.16428435 0.2707173 0.028776115
-0.40653104 0.50600123 -0.24982703 -0.34843105 -0.49820876 -0.42378384 0.44835317 -0.49897036
0.1288355 -0.4038544 0.30696872 -0.46351376 -0.39221978 0.08006638 -0.34361127 0.060276303
-0.44219404 -0.4718725 -0.39165053 -0.54225105 -0.06922406 -0.54857206 -0.29715055 0.041277174
-0.12512524 -0.53924 -0.50374573 -0.05374815 -0.39726394 0.15409572 -0.35508648 -0.4574776
0.38398626 -0.122594185 -0.345828 -0.27542123 -0.35218075 0.36344546 -0.29183844 0.46309906
-0.45336142 -0.5198854 -0.4109631 -0.14724728 -0.35045028 -0.34765804 0.39951783 0.026984427
0.1064086 -0.36707675 0.38325265 -0.40844405 -0.31897348 0.3882008 0.0007855295 0.46146777
0.05016114 -0.5191659 0.34304315 0.18163317 -0.3469306 -0.07262547 -0.42227307 0.49480873
-0.48112658 -0.45228058 0.40434533 -0.4933789 -0.3011867 0.2643656 -0.45801938 -0.48215994
0.46861377 -0.38734937 0.45959163 -0.43250924
00000000: b7a1 f03d e12c cabe 72c4 d9be 6507 ee3d
00000010: 1156 15bf 89ce f1be 9170 b63e f487 973e
00000020: ada4 e13e 8944 c33e 515b 4fbe ff4b 383e
00000030: 9714 f4be 8ff6 87be b61f cebe 5011 fabe
00000040: ef1d 58be f50c ac3e 3312 e2be 13b8 d1bd
00000050: 99fd f73e 283a 28be 759b 8a3e e3bb eb3c
00000060: d624 d0be 4c89 013f a8d2 7fbe 8e65 b2be
00000070: 3815 ffbe 32fa d8be 8c8e e53e 0b79 ffbe
00000080: 74ed 033e 01c6 cebe 012b 9d3e ad51 edbe
00000090: 08d1 c8be d8f9 a33d d1ed afbe 49e4 763d
000000a0: 4267 e2be 4699 f1be 6b86 c8be f7d0 0abf
000000b0: 58c5 8dbd 386f 0cbf 1e24 98be 4112 293d
000000c0: d520 00be a20b 0abf 7bf5 00bf 0527 5cbd
000000d0: 2e66 cbbe 45cb 1d3e e5cd b5be 813a eabe
000000e0: d999 c43e a912 fbbd 5e10 b1be 0304 8dbe
000000f0: 0951 b4be 8615 ba3e d96b 95be 521b ed3e
00000100: fd1e e8be 3617 05bf c169 d2be fec7 16be
00000110: 386e b3be 3c00 b2be 9a8d cc3e 720e dd3c
00000120: c1ec d93d 7cf1 bbbe b139 c43e 941f d1be
00000130: 7e50 a3be 41c2 c63e feeb 4d3a 8145 ec3e
00000140: c475 4d3d 0ee8 04bf 5aa3 af3e 0cfe 393e
00000150: e3a0 b1be aabc 94bd 2d34 d8be 9257 fd3e
00000160: 3956 f6be 5291 e7be 5a06 cf3e 299c fcbe
00000170: 2535 9abe ee5a 873e 8481 eabe abdd f6be
00000180: 25ee ef3e a852 c6be 984f eb3e da71 ddbe

fc2.1.0.weight f4 [100, 100]
-0.067087024 0.43918705 -0.2923899 -0.2541484 0.34059918 -0.45509002 0.29100868 -0.18886842
-0.09034979 -0.17261054 -0.37393537 0.36695728 0.19183697 0.38728297 0.4373621 0.42068154
-0.4880425 0.20967774 0.31549647 -0.30922055 -0.4099922 0.30856395 -0.290347 -0.51802653
-0.3767542 -0.36889982 -0.22911528 -0.024899265 0.4635671 -0.14180733 -0.10692025 0.35948372
-0.26843113 -0.23991852 -0.19768031 0.4788313 0.20452322 0.32956445 -0.2421231 0.41772792
-0.15848798 -0.21594402 -0.07409678 -0.17019 0.32660955 -0.36312753 -0.3067799 0.30034983
0.43201673 0.124913774 0.52313346 -0.16591886 0.4901304 0.06008127 0.6235459 -0.34616163
0.28782687 0.46285623 0.59114164 0.45115343 0.07317071 -0.32241 -0.23596177 -0.06367187
-0.043586917 0.44980517 0.033546627 0.44915026 0.5006341 0.21487992 -0.28384075 0.22126873
0.4981025 0.6054477 -0.21060388 0.32780072 -0.23101427 -0.33158854 -0.44842255 -0.33389693
0.3564311 0.50309473 -0.40001485 0.39811414 -0.38863 0.48113742 -0.0055346675 -0.45289227
0.11560097 -0.49333158 0.36527255 -0.41770053 0.43931052 -0.25975737 0.40189418 -0.16105694
0.014424517 0.44634768 -0.05952247 -0.061642572 -0.40437514 0.33805212 0.33103454 -0.42234582
-0.09193894 -0.41857985 -0.33483922 -0.4604913 -0.046758734 -0.37221444 -0.4772553 0.14499249
0.0692142 -0.4808883 0.37257344 -0.2705143 -0.352044 -0.4349555 0.400051 -0.33602315
-0.4349826 -0.34895584 -0.44461823 -0.44985655 -0.2981597 -0.37048155 -0.36765897 0.56764567
-0.046630707 -0.43326306 -0.45131058 -0.38540488 -0.3107116 -0.30196148 -0.371813 0.45419577
-0.44785985 -0.4978468 -0.37589353 -0.2713584 -0.32997966 -0.41565016 -0.3547337 -0.36919522
-0.4405799 -0.38658884 0.041101173 -0.35305998 -0.33481556 -0.45073414 -0.3546722 -0.42936996
0.2814184 0.0040237475 0.5386808 0.3787778 -0.32366717 0.4550206 0.4175048 -0.4661166
-0.47149494 -0.406319 -0.42087668 -0.20352736 -0.29963014 0.38684186 -0.37268606 -0.41494352
0.018295968 -0.21324681 0.10524844 0.49341947 -0.33112156 0.29069394 -0.44787294 -0.4119802
-0.4311732 -0.3740153 -0.13887453 0.52257043 0.50537676 -0.10312006 -0.1803847 0.04835787
-0.31295115 -0.36993238 -0.45965505 -0.43724266 -0.42209083 -0.33587402 -0.49291322 0.07379965
-0.4226385 -0.1086673 0.3622178 0.29081494 -0.32124287 -0.46205342 -0.28997108 0.100311816
-0.31312034 -0.33064675 0.4024809 -0.4928981 0.4945292 -0.10441036 -0.4989956 -0.43921942
-0.4305427 -0.36814514 -0.36181787 -0.47692052 -0.03952094 -0.32486194 0.38453704 0.28661612
-0.27598456 -0.46482453 -0.42041063 -0.5286781 -0.37063333 -0.4425918 -0.5021118 -0.44695246
-0.44887945 -0.475713 -0.36559078 -0.48873752 0.55789155 -0.121463716 -0.4855283 0.37916285
-0.5137619 -0.36800256 -0.43861905 -0.5149645 -0.36767516 -0.40432292 -0.37626058 -0.41041535
-0.4029313 -0.2484258 0.051693387 -0.4239613 -0.5185458 -0.41318402 0.3246782 -0.43007976
-0.5037285 -0.29230335 -0.51384526 -0.4630297 -0.41146222 0.34931764 0.4032015 0.3408543
00000000: ec64 89bd 20dd e03e 21b4 95be bd1f 82be
00000010: 0463 ae3e 8f01 e9be 17ff 943e b966 41be
00000020: 5009 b9bd d1c0 30be 7574 bfbe d3e1 bb3e
00000030: e970 443e f449 c63e eded df3e 9263 d73e
00000040: b5e0 f9be c3b5 563e c188 a13e 2852 9ebe
00000050: 7fea d1be 18fc 9d3e 5da8 94be 639d 04bf
00000060: ede5 c0be 70e0 bcbe 329d 6abe 8bf9 cbbc
00000070: ab58 ed3e f135 11be 01f9 dabd 400e b83e
00000080: ce6f 89be 33ad 75be b56c 4abe 6029 f53e
00000090: 896e 513e acbc a83e 1eef 77be 6fe0 d53e
000000a0: ac4a 22be 6e20 5dbe 0dc0 97bd 4a46 2ebe
000000b0: 5e39 a73e daeb b9be 4112 9dbe 74c7 993e
000000c0: 4c31 dd3e cbd2 ff3d 13ec 053f a2e6 29be
000000d0: 5ff2 fa3e c717 763d b4a0 1f3f 193c b1be
000000e0: 0b5e 933e 7efb ec3e 0f55 173f 95fd e63e
000000f0: 86da 953d ec12 a5be f69f 71be 6666 82bd
00000100: 3288 32bd dd4c e63e 3068 093d 06f7 e53e
00000110: 8e29 003f 7b09 5c3e 9353 91be 4594 623e
00000120: 4a07 ff3e 9ffe 1a3f 8ba8 57be 7fd5 a73e
00000130: 018f 6cbe f9c5 a9be a497 e5be 8af4 aabe
00000140: 237e b63e d1ca 003f bfce ccbe 9ed5 cb3e
00000150: 83fa c6be a557 f63e 285c b5bb 7fe1 e7be
00000160: 34c0 ec3d f595 fcbe 0105 bb3e d8dc d5be
00000170: 4fed e03e ebfe 84be 13c5 cd3e 1cec 24be
00000180: cf54 6c3c af87 e43e d5cd 73bd ec7c 7cbd
00000190: 420a cfbe 2b15 ad3e 5c7d a93e b63d d8be
000001a0: 7c4a bcbd 1950 d6be 0c70 abbe 84c5 ebbe
000001b0: 1686 3fbd e492 bebe cf5a f4be e978 143e
000001c0: 2dc0 8d3d fe36 f6be f2c1 be3e da80 8abe
000001d0: 1c3f b4be 7db2 debe 7cd3 cc3e 3a0b acbe
000001e0: 0ab6 debe 57aa b2be 00a5 e3be 9953 e6be
000001f0: 63a8 98be c2af bdbe cc3d bcbe 3a51 113f
00000200: d7ff 3ebd a8d4 ddbe 2e12 e7be ca53 c5be
00000210: 9715 9fbe b29a 9abe 465e bebe 598c e83e
00000220: e34d e5be c7e5 febe 1e75 c0be 7def 8abe
00000230: 18f3 a8be 19d0 d4be a89f b5be 2807 bdbe
00000240: b093 e1be f9ee c5be b459 283d 47c4 b4be
00000250: f26c abbe a0c6 e6be 9897 b5be 61d6 dbbe
00000260: 1316 903e a4d9 833b fce6 093f 2aef c13e
00000270: b4b7 a5be 76f8 e83e 30c3 d53e d6a6 eebe
00000280: c967 f1be 0b09 d0be 267d d7be 7a69 50be
00000290: 1f69 99be 2310 c63e b5d0 bebe 7a73 d4be
000002a0: 6de1 953c 5f5d 5abe 7e8c d73d 7aa1 fc3e
000002b0: c488 a9be d6d5 943e 9a4f e5be 12ef d2be
000002c0: bcc2 dcbe ef7e bfbe 2035 0ebe 2dc7 053f
000002d0: 5f60 013f 9c30 d3bd c4b6 38be e712 463d
000002e0: 223b a0be c767 bdbe e857 ebbe 45de dfbe
000002f0: 4a1c d8be aef7 abbe 1f5f fcbe 4524 973d
00000300: 1364 d8be f68c debd 9d74 b93e b2e5 943e
00000310: f279 a4be 4492 ecbe 1777 94be 4870 cd3d
00000320: 4f51 a0be 884a a9be fa11 ce3e 245d fcbe
00000330: ee32 fd3e 19d5 d5bd 5a7c ffbe 5ee1 e0be
00000340: 1870 dcbe 857d bcbe 3140 b9be ed2e f4be
00000350: b6e0 21bd 4e54 a6be 0ae2 c43e 59bf 923e
00000360: d94d 8dbe 7bfd edbe 1040 d7be 7357 07bf
00000370: a7c3 bdbe 649b e2be 668a 00bf f4d6 e4be
00000380: 87d3 e5be a890 f3be b72e bbbe ce3b fabe
00000390: fbd1 0e3f f8c1 f8bd 2a97 f8be a221 c23e
000003a0: e685 03bf d56a bcbe ad92 e0be b7d4 03bf
000003b0: eb3f bcbe 6a03 cfbe 3aa5 c0be f621 d2be
000003c0: 034d cebe 5563 7ebe 72bc 533d 7511 d9be
000003d0: 6bbf 04bf db8c d3be 393c a63e 6a33 dcbe
000003e0: 5af4 00bf c9a8 95be 5d8b 03bf 3b12 edbe
000003f0: 2dab d2be c3d9 b23e 6d70 ce3e 7484 ae3e

fc2.1.0.bias f4 [100]
0.11749595 -0.39487365 -0.42532688 0.11622504 -0.5833445 -0.47227886 0.35632756 0.29595912
0.4407095 0.38138226 -0.20249678 0.1799774 -0.4767196 -0.26555297 -0.4025857 -0.48841333
-0.21105169 0.33603635 -0.4415451 -0.102401875 0.48435667 -0.16428435 0.2707173 0.028776115
-0.40653104 0.50600123 -0.24982703 -0.34843105 -0.49820876 -0.42378384 0.44835317 -0.49897036
0.1288355 -0.4038544 0.30696872 -0.46351376 -0.39221978 0.08006638 -0.34361127 0.060276303
-0.44219404 -0.4718725 -0.39165053 -0.54225105 -0.06922406 -0.54857206 -0.29715055 0.041277174
-0.12512524 -0.53924 -0.50374573 -0.05374815 -0.39726394 0.15409572 -0.35508648 -0.4574776
0.38398626 -0.122594185 -0.345828 -0.27542123 -0.35218075 0.36344546 -0.29183844 0.46309906
-0.45336142 -0.5198854 -0.4109631 -0.14724728 -0.35045028 -0.34765804 0.39951783 0.026984427
0.1064086 -0.36707675 0.38325265 -0.40844405 -0.31897348 0.3882008 0.0007855295 0.46146777
0.05016114 -0.5191659 0.34304315 0.18163317 -0.3469306 -0.07262547 -0.42227307 0.49480873
-0.48112658 -0.45228058 0.40434533 -0.4933789 -0.3011867 0.2643656 -0.45801938 -0.48215994
0.46861377 -0.38734937 0.45959163 -0.43250924
00000000: b7a1 f03d e12c cabe 72c4 d9be 6507 ee3d
00000010: 1156 15bf 89ce f1be 9170 b63e f487 973e
00000020: ada4 e13e 8944 c33e 515b 4fbe ff4b 383e
00000030: 9714 f4be 8ff6 87be b61f cebe 5011 fabe
00000040: ef1d 58be f50c ac3e 3312 e2be 13b8 d1bd
00000050: 99fd f73e 283a 28be 759b 8a3e e3bb eb3c
00000060: d624 d0be 4c89 013f a8d2 7fbe 8e65 b2be
00000070: 3815 ffbe 32fa d8be 8c8e e53e 0b79 ffbe
00000080: 74ed 033e 01c6 cebe 012b 9d3e ad51 edbe
00000090: 08d1 c8be d8f9 a33d d1ed afbe 49e4 763d
000000a0: 4267 e2be 4699 f1be 6b86 c8be f7d0 0abf
000000b0: 58c5 8dbd 386f 0cbf 1e24 98be 4112 293d
000000c0: d520 00be a20b 0abf 7bf5 00bf 0527 5cbd
000000d0: 2e66 cbbe 45cb 1d3e e5cd b5be 813a eabe
000000e0: d999 c43e a912 fbbd 5e10 b1be 0304 8dbe
000000f0: 0951 b4be 8615 ba3e d96b 95be 521b ed3e
00000100: fd1e e8be 3617 05bf c169 d2be fec7 16be
00000110: 386e b3be 3c00 b2be 9a8d cc3e 720e dd3c
00000120: c1ec d93d 7cf1 bbbe b139 c43e 941f d1be
00000130: 7e50 a3be 41c2 c63e feeb 4d3a 8145 ec3e
00000140: c475 4d3d 0ee8 04bf 5aa3 af3e 0cfe 393e
00000150: e3a0 b1be aabc 94bd 2d34 d8be 9257 fd3e
00000160: 3956 f6be 5291 e7be 5a06 cf3e 299c fcbe
00000170: 2535 9abe ee5a 873e 8481 eabe abdd f6be
00000180: 25ee ef3e a852 c6be 984f eb3e da71 ddbe

fc4.weight f4 [6, 100]
0.27547652 0.3074088 -0.4309254 0.36961147 -0.43027034 -0.4127468 0.23684557 0.006658329
0.31068054 -0.11192001 -0.07739813 0.21609834 0.49448183 -0.14077365 -0.42181185 0.27767017
-0.35099483 0.19646506 -0.7657064 -0.42771795 0.16862372 -0.3135743 -0.4821792 0.37567544
-0.42221 0.3583632 -0.2081195 0.26455462 0.28615704 -0.39567742 0.18285526 -0.48690733
0.35376325 -0.34716138 0.19261475 -0.06822626 0.31872916 -0.024017101 -0.1749756 0.23119831
0.40356818 0.36683625 0.29521364 0.42222747 -0.085448176 -0.55339277 -0.4274728 0.00034143619
-0.24426432 -0.14927956 -0.28416836 0.31718776 -0.42584738 -0.13682586 -0.36575913 0.35357136
0.39083657 0.3537571 -0.51128113 -0.23618875 0.013804165 0.2834862 -0.44488582 0.25763628
-0.36351892 -0.43726715 0.34886432 -0.24336395 -0.36928853 -0.4513107 -0.532448 0.20979427
0.23180884 -0.5080657 0.12614398 0.3196623 0.3130366 0.17301123 0.39562762 0.31516153
-0.30570847 -0.3786977 -0.13658471 -0.21477383 -0.49463484 0.32238895 0.33179644 -0.16260405
-0.4516436 0.4683818 0.19438598 -0.52818674 0.33501333 0.10093959 0.3348352 0.038793027
0.27411237 -0.40692386 0.27666953 -0.50012094 0.27844158 -0.37039632 0.34251112 0.22724307
-0.62147385 0.34581387 -0.48965287 0.3485983 -0.41682187 0.3253465 0.1443734 -0.24888572
0.42670637 0.004818698 0.35826683 0.3210175 0.18347399 0.19432677 -0.5923657 0.2315182
-0.32295346 0.14072084 0.020981418 -0.3301081 0.39276803 -0.07967323 0.36610729 -0.49443465
0.20719709 0.41830996 0.22076516 -0.27468264 -0.4286908 0.391063 0.21195394 0.44091138
-0.37148747 0.27720052 0.33825266 -0.22031602 0.3973478 -0.25169846 0.31855583 0.30949232
-0.5093815 -0.066688865 -0.48254785 -0.48991108 0.25583103 0.29514977 -0.25505784 -0.2581364
0.4503621 0.19147165 -0.16161528 -0.3423917 -0.43468788 -0.31720766 0.3399233 0.11111781
0.032834474 -0.3735887 0.2838347 0.32514268 0.32607973 0.37338397 -0.38429555 0.2214969
0.32866943 0.42137316 0.3947286 -0.25946438 0.30954435 0.33988258 0.28083652 -0.30423525
0.42375687 -0.1646469 0.39732295 0.2584481 -0.034295112 0.3240583 0.15108462 0.053003527
-0.3660807 0.37141436 -0.45629758 0.2248614 0.47188023 -0.4559758 0.061030854 0.34544793
-0.31201422 0.3255505 -0.0040201773 0.009468306 0.3818214 0.3396901 -0.1873789 0.35611966
-0.5355421 -0.40476874 -0.39612624 -0.39803067 -0.46453303 -0.33765113 -0.45994475 -0.37901625
-0.43486443 -0.5240819 0.38382086 -0.44049722 -0.3316464 -0.28118563 -0.47200203 -0.40647876
0.24823539 -0.41749695 0.36007243 -0.5160367 -0.48696366 0.20640206 0.33142245 -0.4785504
-0.4300791 -0.49831125 -0.35003838 -0.45300546 -0.42629498 -0.32007286 -0.35918593 -0.38707682
0.45104134 -0.34994373 -0.5279153 0.35591885 -0.33715808 -0.48203662 -0.54009545 -0.43689793
0.23749779 -0.36917707 0.49173474 -0.37002826 0.18051802 -0.52702636 0.0512838 -0.42005163
0.42418182 -0.33100188 -0.13535136 -0.39168426 -0.3805917 0.2263387 0.42409998 -0.4012221
00000000: 420b 8d3e b064 9d3e 41a2 dcbe b73d bd3e
00000010: 654c dcbe 8c53 d3be a587 723e 1d2e da3b
00000020: 8511 9f3e 5136 e5bd e982 9ebd e248 5d3e
00000030: b92c fd3e f826 10be b9f7 d7be c92a 8e3e
00000040: 98b5 b3be 232e 493e 5605 44bf d9fd dabe
00000050: b2ab 2c3e d08c a0be 31e0 f6be 8858 c03e
00000060: e92b d8be 627b b73e 471d 55be b473 873e
00000070: 2d83 923e 3b96 cabe 693e 3b3e eb4b f9be
00000080: 7520 b53e 23bf b1be cd3c 453e 36ba 8bbd
00000090: 7830 a33e 83bf c4bc ce2c 33be 40bf 6c3e
000000a0: 7da0 ce3e f6d1 bb3e 3e26 973e 332e d83e
000000b0: 74ff aebd 26ab 0dbf b7dd dabe ca02 b339
000000c0: 6d20 7abe bedc 18be 847e 91be 6f66 a23e
000000d0: ab08 dabe 141c 0cbe c844 bbbe 4e07 b53e
000000e0: bb1b c83e a71f b53e 52e3 02bf 77db 71be
000000f0: dd2a 623c 1a25 913e 13c8 e3be e7e8 833e
00000100: 271f babe 7be1 dfbe 589e b23e 6634 79be
00000110: 6313 bdbe 3212 e7be 834e 08bf 4fd4 563e
00000120: 4c5f 6d3e 9810 02bf e32b 013e c7aa a33e
00000130: 5546 a03e db29 313e b48f ca3e da5c a13e
00000140: d285 9cbe aae4 c1be dddc 0bbe aced 5bbe
00000150: c740 fdbe 2a10 a53e 39e1 a93e ad81 26be
00000160: d43d e7be bdcf ef3e 1e0d 473e 3f37 07bf
00000170: de86 ab3e 6ab9 ce3d 856f ab3e 70e5 1e3d
00000180: 7558 8c3e 5358 d0be a1a7 8d3e ed07 00bf
00000190: e58f 8e3e 96a4 bdbe 9e5d af3e 68b2 683e
000001a0: e918 1fbf 840e b13e c8b3 fabe 7a7b b23e
000001b0: ad69 d5be d193 a63e 9fd6 133e e6db 7ebe
000001c0: 4279 da3e 2be6 9d3b c06e b73e 685c a43e
000001d0: 9be0 3b3e 99fd 463e 47a5 17bf 1b13 6d3e
000001e0: 285a a5be 2019 103e 39e1 ab3c ee03 a9be
000001f0: e418 c93e b82b a3bd 6a72 bb3e 8a26 fdbe
00000200: 792b 543e b92c d63e 4310 623e 34a3 8cbe
00000210: 5c7d dbbe 6939 c83e 740a 593e 23bf e13e
00000220: 9b33 bebe 3aed 8d3e 742f ad3e 869a 61be
00000230: 2c71 cb3e 9fde 80be c019 a33e c775 9e3e
00000240: d366 02bf 2c94 88bd 8310 f7be a0d5 fabe
00000250: 49fc 823e df1d 973e f196 82be 742a 84be
00000260: dc95 e63e 2511 443e 7a7e 25be f74d afbe
00000270: 698f debe 0b69 a2be 6d0a ae3e bc91 e33d
00000280: 717d 063d 0547 bfbe c852 913e 1a79 a63e
00000290: ecf3 a63e 2f2c bf3e 63c2 c4be 15d0 623e
000002a0: 5c47 a83e 39be d73e de19 ca3e 84d8 84be
000002b0: 997c 9e3e 1705 ae3e cec9 8f3e b9c4 9bbe
000002c0: a9f6 d83e 3299 28be ea6d cb3e 4f53 843e
000002d0: 0879 0cbd f8ea a53e edb5 1a3e 3a1a 593d
000002e0: ee6e bbbe 062a be3e d69f e9be 1142 663e
000002f0: 499a f13e a975 e9be 7dfb 793d 8dde b03e
00000300: 54c0 9fbe 8eae a63e b1bb 83bb f420 1b3c
00000310: 187e c33e dceb ad3e 41e0 3fbe 5155 b63e
00000320: 4919 09bf d93d cfbe 0fd1 cabe adca cbbe
00000330: 46d7 edbe 9ce0 acbe e17d ebbe 6b0e c2be
00000340: 8da6 debe 3b2a 06bf 2b84 c43e da88 e1be
00000350: 8fcd a9be 90f7 8fbe 40aa f1be fc1d d0be
00000360: 6b31 7e3e 29c2 d5be 6a5b b83e fb1a 04bf
00000370: 4d53 f9be 105b 533e 34b0 a93e 8f04 f5be
00000380: 5433 dcbe a722 ffbe 3b38 b3be 55f0 e7be
00000390: 5643 dabe 97e0 a3be 38e7 b7be ef2e c6be
000003a0: e4ee e63e d32b b3be 7525 07bf ff3a b63e
000003b0: fc9f acbe 81cd f6be b243 0abf 16b1 dfbe
000003c0: 9f32 733e c704 bdbe a8c4 fb3e 5874 bdbe
000003d0: b7d9 383e 33eb 06bf f60e 523d 0211 d7be
000003e0: 5c2e d93e 1479 a9be 8c99 0abe d78a c8be
000003f0: eadc c2be 55c5 673e a223 d93e fc6c cdbe

fc4.bias f4 [6]
-0.37792808 0.3060902 -0.33941278 -0.3558516 -0.42473978 0.41909027
00000000: ca7f c1be dbb7 9c3e 83c7 adbe 2e32 b6be
00000010: 7e77 d9be 0093 d63e
