figs/diff_hiddenlayers/2/mlp_model_dict.pt (torch, 141967 bytes, 10 tensors)

group.0.weight f4 [100, 100]
000000 d4 46 ca bf d0 bc d6 bf bd 57 e0 bf 71 d7 cc bf
       -1.5802865 -1.6776371 -1.7526776 -1.6003247
000010 60 f1 de bf 68 ce d6 bf 30 89 d5 bf 56 ea de bf
       -1.7417412 -1.678174 -1.6682491 -1.7415264
000020 6a e8 d6 bf 48 14 07 bf a2 46 db bf 0e b9 d7 bf
       -1.6789677 -0.5276532 -1.713093 -1.6853349
000030 f8 ce de bf b2 ef de bf 71 c4 cb bf 86 d8 cf bf
       -1.7406912 -1.7416899 -1.5919324 -1.6237953
000040 2d 33 ce bf 33 9d d2 bf c5 38 e1 bf a5 85 c8 bf
       -1.6109368 -1.6454223 -1.759545 -1.5665785
000050 b4 13 d0 bf fc 02 d2 bf cc 48 d4 bf 21 9c cf bf
       -1.6256013 -1.6407161 -1.6584716 -1.6219522
000060 5f 16 d9 bf ef 39 df bf 49 10 d1 bf 85 e5 cb bf
       -1.6959952 -1.7439555 -1.6333095 -1.5929419
000070 a6 8b c8 bf 55 c7 da bf 78 8b cf bf 00 ca dc bf
       -1.5667617 -1.7092081 -1.6214437 -1.7249146
000080 ca 73 e0 bf da cf d6 bf f7 7b da bf 74 86 d3 bf
       -1.7535336 -1.6782181 -1.7069081 -1.6525407
000090 4a d8 c8 bf d8 b0 de bf f7 0e d5 bf 41 5e cf bf
       -1.5691006 -1.7397718 -1.6645192 -1.6200639
0000a0 ec bc c7 bf e7 ae c8 bf 1c 72 9f bf b9 f7 cf bf
       -1.5604529 -1.5678376 -1.2456698 -1.6247474
0000b0 93 dd d1 bf 64 dc cd bf 0d f5 6a bd 7a 90 d0 bf
       -1.6395744 -1.6082883 -0.057362605 -1.6294091
0000c0 b0 8d da bf cf 89 d6 bf 77 a2 d3 bf 18 11 d8 bf
       -1.707449 -1.6760806 -1.6533955 -1.6880217
0000d0 73 27 d0 bf 1e 6e da bf 87 1f da bf d4 6b da bf
       -1.6262039 -1.7064855 -1.7040871 -1.7064157
0000e0 04 bc dc bf 9f 0b d7 bf e5 f3 d0 bf 6c ec cf bf
       -1.7244878 -1.6800421 -1.6324431 -1.6244025
0000f0 75 8e 9b bd 92 fe d6 bf 5f b2 dc bf c4 15 cf bf
       -0.07595531 -1.6796439 -1.7241935 -1.6178517
000100 d2 b7 d7 bf 44 08 d4 bf 09 1f d1 bf 01 cf d7 bf
       -1.6852973 -1.6565022 -1.6337596 -1.6860048
000110 75 64 e0 bf e6 aa d2 bf dc 3c db bf ef 36 df bf
       -1.7530657 -1.6458404 -1.7127948 -1.7438639
000120 1e 12 d4 bf 9f 4d e0 bf 56 69 dd bf cb cb df bf
       -1.6568029 -1.7523688 -1.7297771 -1.7484068
000130 0f 62 c8 bf 26 2c dc bf 23 2d e0 bf 8a f5 d3 bf
       -1.5654925 -1.7200973 -1.7513775 -1.6559308
000140 b5 41 d3 bf 04 e5 de bf 2a 17 db bf 2f ab 7e bf
       -1.6504427 -1.741364 -1.7116444 -0.99479955
000150 08 a7 cd bf 50 8b dd bf 43 5b cb bf 03 33 dd bf
       -1.6066599 -1.730814 -1.5887226 -1.7281193
000160 5b df da bf e4 61 d6 bf 3a 76 de bf ec 17 d5 bf
       -1.7099413 -1.6748624 -1.737983 -1.6647925
000170 9b ac d3 bf f6 44 dd bf 53 a2 d8 bf f5 99 cc bf
       -1.653705 -1.728667 -1.6924537 -1.5984484
000180 34 ad de bf 1a c2 d9 bf 55 02 e0 bf 88 8b df bf
       -1.7396607 -1.701236 -1.7500712 -1.7464457
000190 ac 4a c6 bf 33 2a cf bf d0 f1 cb 3f 5d 37 dd bf
       -1.5491538 -1.6184753 1.593317 -1.728252
0001a0 ea b5 d7 3f 14 16 d0 bf ed a6 d9 bf e5 f7 c9 bf
       1.6852391 -1.6256738 -1.7004067 -1.5778776
0001b0 05 50 ed 3f e2 f5 d8 bf c4 2d d0 bf 32 cc d7 bf
       1.8540045 -1.6950037 -1.6263967 -1.685919
0001c0 3a e3 dd bf b3 6a d5 bf 31 61 e1 bf c1 b3 bb bf
       -1.7334969 -1.6673187 -1.7607785 -1.4664232
0001d0 b6 36 de bf cd 35 db bf ed f8 d0 bf 41 0a d8 bf
       -1.7360446 -1.7125794 -1.6325966 -1.6878129
0001e0 ec 3b dc bf c9 e0 d0 3f 57 d0 df bf 81 47 ce bf
       -1.7205787 1.6318599 -1.7485455 -1.6115571
0001f0 70 75 cb bf 71 3d de 3f 7d db d8 bf f1 00 d8 bf
       -1.5895214 1.73625 -1.6941983 -1.6875287
000200 82 09 f3 3f d2 ff da bf 77 41 db bf 5e 59 e1 bf
       1.8987277 -1.710932 -1.7129353 -1.7605398
000210 6b 6b c9 bf 24 f5 d9 bf 6f 3e cd bf 4c 6d e0 bf
       -1.5735906 -1.7027936 -1.6034678 -1.7533355
000220 9c c6 c9 bf 8a 2a cf bf 4d bd d6 bf 5b d2 db bf
       -1.5763736 -1.6184857 -1.677652 -1.717357
000230 b1 2f cc bf 63 8a ca bf 14 57 d8 bf 30 5f d5 bf
       -1.5952054 -1.5823482 -1.6901574 -1.6669674
000240 69 f5 d3 bf 92 81 2d 3f 7e c6 d2 bf 68 91 aa bf
       -1.6559268 0.67775834 -1.6466825 -1.3325624
000250 2b e0 f0 be e1 3f cd bf 95 d9 d2 bf 37 98 dc bf
       -0.47046027 -1.6035119 -1.6472651 -1.7233952
000260 b7 6f d6 bf 1a 7a d6 bf f9 71 cd bf 13 cf 89 be
       -1.6752843 -1.6756012 -1.6050407 -0.26915798
000270 5d 17 cc bf d8 50 d4 bf 44 39 db bf 7b 2d cf bf
       -1.594463 -1.6587172 -1.7126851 -1.6185755
000280 59 25 da bf 59 ea df bf 4f 32 d9 bf 39 ba d6 bf
       -1.7042648 -1.7493392 -1.6968478 -1.6775581
000290 72 51 db bf b8 46 e0 bf fa 97 d2 bf bc fd d2 bf
       -1.713423 -1.7521582 -1.645263 -1.6483684
0002a0 38 87 cb bf 72 60 c9 bf 84 1a c9 bf 7a 96 e1 3f
       -1.590064 -1.5732558 -1.5711217 1.7624047
0002b0 f2 19 cb 3f 6a bc d8 bf 97 50 d5 bf c0 ad d3 bf
       1.5867293 -1.69325 -1.6665219 -1.6537399
0002c0 6f d0 12 3e fe 67 cb bf c6 a1 de bf 6d 06 c9 bf
       0.14337324 -1.5891111 -1.7393119 -1.5705086
0002d0 2c 61 cb bf c9 ea c9 bf 79 33 df bf bb 03 d1 bf
       -1.588903 -1.5774776 -1.7437583 -1.6329263
0002e0 1e 71 cf bf 69 21 d2 bf 88 67 d5 bf 3e 5f dd bf
       -1.6206396 -1.6416446 -1.667222 -1.7294691
0002f0 5c ee e1 bf 5a ca da bf e4 a4 cb 3f fa 34 df bf
       -1.7650867 -1.7093003 1.5909696 -1.7438042
000300 1e 16 b6 bf 90 1c cb bf 67 a1 cf bf 9d ed d6 3f
       -1.42255 -1.5868092 -1.6221131 1.6791264
000310 92 d2 df bf 41 96 cf bf 45 3b a9 be 1b 39 cf bf
       -1.7486136 -1.6217729 -0.33053032 -1.6189302
000320 9e 8e cf bf 5d 4b b2 bf 7c 46 c5 bf fa de cb bf
       -1.6215398 -1.3929249 -1.5412135 -1.5927422
000330 9b c5 ca bf 44 d5 dc bf 0d f1 e8 bf 45 ad d6 bf
       -1.5841554 -1.7252584 -1.8198563 -1.6771628
000340 e7 c9 c9 bf b8 c0 cb 3f 48 72 dc bf 80 9d c6 bf
       -1.5764741 1.5918188 -1.7222376 -1.5516815
000350 21 49 c9 bf 9d af cf bf 96 68 e1 bf 90 23 dc bf
       -1.5725442 -1.6225468 -1.7610042 -1.7198353
000360 13 03 c7 bf ef da e0 bf 75 8a d0 bf 74 13 d7 bf
       -1.5547813 -1.7566813 -1.6292254 -1.6802812
000370 ba 62 d6 bf 83 a4 d4 bf 6e f8 bf bf be 6a d5 bf
       -1.6748879 -1.6612705 -1.499769 -1.66732
000380 39 79 d3 bf 9a 9c d5 bf 88 ce d2 bf fb 17 d6 bf
       -1.6521369 -1.6688416 -1.6469278 -1.6726068
000390 30 a4 c1 bf 73 dd d6 bf 1e 32 db bf 7d 04 d7 bf
       -1.5128231 -1.6786331 -1.712467 -1.6798245
0003a0 ff 61 d4 bf 36 b7 d0 bf 0a f6 e4 3e 6a f4 d9 bf
       -1.6592406 -1.6305912 0.44718963 -1.7027714
0003b0 e6 07 d2 bf 53 b7 ce bf bc 53 cd bf 55 e7 ca bf
       -1.640866 -1.6149696 -1.6041179 -1.5851847
0003c0 67 d9 dd bf 35 27 ce bf 14 0a a1 bf a4 82 c6 bf
       -1.7331971 -1.6105715 -1.2581201 -1.5508618
0003d0 b4 b3 c9 bf ba 02 a6 3f ed 9d cf bf 9d 9d 8a 3e
       -1.5757966 1.2969582 -1.622007 0.27073374
0003e0 ba 23 c1 bf 3b 3b df bf 67 56 ce bf 8f 93 d8 bf
       -1.5089028 -1.7439951 -1.6120118 -1.6920031
0003f0 33 f6 ce bf 26 f8 d6 bf e1 d7 d3 bf d4 8c d0 bf
       -1.6168884 -1.6794479 -1.6550256 -1.6292977

group.0.bias f4 [100]
000000 f4 50 d3 bf 21 94 d3 bf 3a fc e5 bf db a3 9b be
       -1.650908 -1.652958 -1.7967598 -0.3039845
000010 61 2e cb bf 02 ee 57 bf af 5c a2 bf 36 cf da bf
       -1.5873529 -0.84347546 -1.2684535 -1.7094486
000020 b5 63 e1 bf 64 53 dd bf 7d e3 b2 bf 71 c4 24 be
       -1.7608553 -1.7291074 -1.3975674 -0.16090561
000030 83 77 b6 be fe 84 34 bd 28 73 ca bf 69 d9 d4 bf
       -0.35638055 -0.044072144 -1.5816393 -1.6628848
000040 e0 cc cb bf 7e ad dd bf 0b 74 cf bf 1a 52 c8 bf
       -1.5921898 -1.7318571 -1.6207289 -1.5650055
000050 ce 31 c1 bf 56 e8 e3 bf 53 f2 85 bf f6 45 15 3f
       -1.5093324 -1.7805278 -1.0464576 0.58309877
000060 f4 40 c7 3e 2a b3 db bf 13 cf cb bf c2 2a cf bf
       0.38916743 -1.7164052 -1.5922569 -1.6184924
000070 bb fe 89 bf 81 bd 1a bf 2b 45 55 bf 15 22 ed bf
       -1.0780863 -0.6044541 -0.83308667 -1.8526026
000080 38 d1 86 bf 43 a5 2d bf 53 7a 7d bf 37 c3 8e 3f
       -1.0532598 -0.67830294 -0.99014777 1.1153325
000090 b6 cb 57 bf c3 1d e4 bf ad fe c6 bf c3 07 b4 bf
       -0.84295213 -1.7821583 -1.5546471 -1.4064869
0000a0 34 16 3a 3f 58 ec 54 bf 48 ed aa bf 21 fd db bf
       0.7269013 -0.8317313 -1.3353662 -1.7186624
0000b0 4a e7 a3 bf 52 c4 db bf b0 5d 72 bf 75 4a 8a be
       -1.2804959 -1.7169287 -0.94674206 -0.2700993
0000c0 3b 09 d8 bf 11 b4 b7 bf 9c db 07 bf 17 4f 46 3f
       -1.6877817 -1.4351827 -0.5306947 0.7746443
0000d0 a7 f6 b6 bf ee dd df bf 8f ba a0 bf d1 e9 72 3f
       -1.4294022 -1.7489603 -1.2556933 0.94888026
0000e0 40 b8 96 bf 44 55 c2 bf 2a cb 13 bf 2e 1a 94 3f
       -1.1774979 -1.5182271 -0.5773188 1.157049
0000f0 2a 2d eb bf 2b 3f e0 bf 33 a6 cd bf a9 96 bc 3f
       -1.8373158 -1.7519277 -1.6066345 1.4733478
000100 90 57 a3 bf 03 86 9a bf 4b b2 8c bf f9 6e 44 bf
       -1.2761097 -1.2072147 -1.0991911 -0.7673183
000110 b2 81 ec bf 96 fa a1 bf 3b 34 d0 bf 79 05 8b bf
       -1.847708 -1.2654598 -1.626594 -1.0861045
000120 2f e2 c7 bf 6f ac d3 bf 65 6f da bf 8b d9 ba bf
       -1.5615901 -1.6536998 -1.7065245 -1.4597639
000130 49 64 ca bf a5 da dc bf 6c 2a c8 bf b4 8b 7b be
       -1.5811855 -1.7254225 -1.5637946 -0.24565011
000140 2b a3 d4 bf e3 93 c4 3f 5e ad bd bf d1 0c 66 be
       -1.6612295 1.5357631 -1.4818532 -0.22465827
000150 4d 18 e1 bf 35 a5 ba bf 4b c5 dc bf 7d 4c c8 bf
       -1.7585541 -1.4581667 -1.7247709 -1.5648342
000160 d6 10 be bf 5a 77 fd 3e c1 5e cf bf 3c 03 40 3f
       -1.4848888 0.4950512 -1.6200792 0.75004935
000170 2b 61 e7 bf ad 65 03 bf 9b 7f 99 bf 8a be a0 bf
       -1.8076528 -0.5132702 -1.1992067 -1.2558148
000180 e8 98 c5 bd 11 46 1f bf 04 ff cf bf e2 96 cf bf
       -0.09648305 -0.6221629 -1.62497 -1.6217921

fc1.weight f4 [100, 240]
000000 44 b6 a4 bf 7b b7 c6 3f 17 f1 d5 3f 51 d0 c3 3f
       -1.2868123 1.5524744 1.67142 1.5297948
000010 26 c0 86 bf 75 7d a8 bf e1 bb 17 bf 28 2b 27 bf
       -1.0527389 -1.3163286 -0.59271055 -0.65300226
000020 e1 90 8c bd 33 6c 9e 3f bd 75 dc 3f 7f 65 aa bf
       -0.06863571 1.237677 1.7223431 -1.3312224
000030 21 ec e3 bf ff 97 e0 bf 42 cb 3d be ee fb 5e 3f
       -1.7806436 -1.7546386 -0.18534568 0.87103164
000040 1c 26 b5 3e 06 b0 d0 3f 21 05 14 be 94 e8 ac bf
       0.35380638 1.6303718 -0.14455082 -1.3508477
000050 85 c6 d8 3f 7e 7d 88 3f db ee 9a 3e cb da 2e 3e
       1.6935583 1.0663297 0.30260357 0.1707565
000060 c9 50 da 3e 52 66 91 bf 85 a7 d7 be b5 2a 41 3f
       0.4263976 -1.1359351 -0.42119995 0.7545579
000070 a5 f6 42 3f 49 59 1e bf 0e f8 5a be c9 83 a7 3e
       0.761576 -0.6185499 -0.21383688 0.32717732
000080 79 0e 00 bf 16 cc d4 3f 50 fb df 3f 5b ab a2 3f
       -0.50022084 1.6624782 1.749857 1.2708544
000090 68 58 25 3e bf 6c e0 bf ae 18 f2 bf c4 af bb bf
       0.16147006 -1.7533187 -1.8913782 -1.4663014
0000a0 b6 27 00 3f c4 bf 5f 3f cb 01 52 3f ef d4 20 3f
       0.50060594 0.87401986 0.82033986 0.6282491
0000b0 c8 b3 ab be bb 30 d0 bf 7a be 18 bf 3b d0 e4 3f
       -0.335356 -1.6264871 -0.59665644 1.7876047
0000c0 d5 a2 e8 3f 80 a7 da 3f e2 13 01 3f eb fe b6 bf
       1.8174692 1.7082367 0.50420964 -1.4296545
0000d0 b4 e3 e9 bf ad 64 b4 bf c3 38 c4 bf 37 86 3e 3f
       -1.8272614 -1.4093224 -1.5329822 0.74423546
0000e0 dd c7 6f 3f cc b1 a5 3f e8 75 ae 3e 62 4d 73 be
       0.9366434 1.2944884 0.3407433 -0.23759988
0000f0 67 a1 8f bf e3 bb e2 3e 09 fa 1d 3f 9f 60 db 3f
       -1.1221131 0.4428397 0.6170965 1.7138861
000100 e0 b9 a2 3f f2 31 89 be f1 8c 6a bf 51 db e9 bf
       1.2712975 -0.26795918 -0.9162131 -1.8270055
000110 66 e6 aa bf da 08 c5 3e 78 93 b1 3f 9d 48 97 3f
       -1.3351562 0.38483316 1.3873129 1.1819035
000120 52 5f ae bf a6 0a ba bf ab ba 30 bf d3 e4 c7 bd
       -1.362284 -1.45345 -0.6903483 -0.09760442
000130 ce 93 1c be 79 f8 e4 3f 21 2e 48 3f 55 5e de bf
       -0.15290758 1.7888328 0.7819539 -1.7372538
000140 6c f4 ca 3f b9 cd f5 3e bf 32 a7 3f 98 be d1 bf
       1.5855842 0.48008516 1.3062361 -1.638629
000150 7d 77 d2 bf 91 85 cf bf 1b 4d d0 3e ff 92 f8 3e
       -1.6442715 -1.6212636 0.40683827 0.4854965
000160 b5 3b 81 3f d6 16 f3 be 5d 2a f3 be f6 23 be bf
       1.0096346 -0.4747836 -0.47493258 -1.4854724
000170 25 18 73 3f 08 77 7b 3f 21 4a c6 3f 61 fa b0 3f
       0.94958717 0.982285 1.5491372 1.382641
000180 19 ea 9f bf 96 6d e5 bf 81 c9 d7 bf 61 23 94 3f
       -1.2493316 -1.7924068 -1.6858369 1.1573297
000190 ea fa f0 3e 2f 9a 5c bf 40 d7 d4 bf 99 0d e8 bf
       0.47066432 -0.86172765 -1.6628189 -1.812915
0001a0 cc 42 df bf aa 57 0c bf 61 8f c8 3f 75 9b e0 3f
       -1.744226 -0.54821265 1.5668756 1.7547442
0001b0 27 cb 9e 3f 93 59 53 3e 73 a3 c4 bf d4 fe cf bf
       1.2405747 0.20639639 -1.5362381 -1.6249642
0001c0 e6 21 c9 3e 37 47 fb be 97 d8 18 3d b9 e0 5b be
       0.39283675 -0.4907777 0.03731593 -0.21472444
0001d0 68 01 9a bf b1 2d c4 bf 64 f1 aa bf e0 04 9b bf
       -1.2031679 -1.5326444 -1.3354917 -1.2110863
0001e0 d7 d9 ae be 2f f7 a3 3f 3b d9 da 3f d0 c1 52 bf
       -0.34150574 1.280981 1.7097543 -0.82326984
0001f0 ee cf d8 bf 7a e1 cb bf 85 d7 a2 bf 10 22 98 bf
       -1.6938455 -1.5928185 -1.2722021 -1.1885395
000200 46 2f f9 be ec e5 c4 bf 1f 83 8d bf 34 5b a6 bf
       -0.4866888 -1.5382667 -1.105564 -1.2996583
000210 d8 d2 e0 3e fc 4c 57 bf 75 65 e0 be 23 85 30 3f
       0.4391086 -0.84101844 -0.43827406 0.6895315
000220 55 ff 95 3f 40 81 e1 bf a9 f6 c8 bf 38 f5 7a bf
       1.1718546 -1.7617569 -1.5700275 -0.98030424
000230 aa fd 52 be 31 f5 e7 bd a6 4e b9 bf 49 88 aa bf
       -0.20604578 -0.113260634 -1.4477127 -1.3322841
000240 3f 8a 04 bf c0 2b 55 bf 1a 47 92 3e a1 c6 42 bf
       -0.51773447 -0.8326988 0.2856987 -0.76084334
000250 f4 5d ce bf b4 9c 99 bf c3 6e c8 bf 8a 41 de bf
       -1.6122422 -1.2000947 -1.5658802 -1.7363751
000260 09 82 d1 bf 8f 68 f0 be fd 74 ba 3d 10 d1 18 3f
       -1.6367809 -0.46954772 0.09104345 0.59694004
000270 35 65 12 bd ed 2d 14 bf ba 9d 1c be fd 7f a0 bf
       -0.03574105 -0.5788258 -0.15294543 -1.2539059
000280 ad 33 4c be c9 28 93 bf 37 f9 87 bf 56 8e ce be
       -0.19941588 -1.1496822 -1.0622929 -0.4034297
000290 a4 4e a9 be 04 5b c8 bf 6d 9d e2 bf c9 c1 84 bf
       -0.3306781 -1.5652776 -1.7704293 -1.0371639
0002a0 87 20 1a be 65 d0 d8 bf 8d f1 40 bd 30 d8 7c 3e
       -0.1505147 -1.6938597 -0.04710536 0.24691844
0002b0 d3 df 9a 3f 57 bd ce 3e 33 ff aa 3f 2d b0 80 bf
       1.2099556 0.4037883 1.3359131 -1.0053765
0002c0 db d0 e8 bf c5 8c d2 bf 49 37 65 bf 82 e7 6e bf
       -1.8188738 -1.644921 -0.89537483 -0.93322
0002d0 ed c7 16 3f 98 23 ea bf b2 d2 bd bf 10 ee 10 bf
       0.5889881 -1.8292112 -1.4829924 -0.56613255
0002e0 84 d1 bd bf 0d 29 da 3f 8e d0 5b bf 21 9b a4 3f
       -1.4829564 1.7043778 -0.85865104 1.2859842
0002f0 32 f8 b0 3f 18 7c dc bf 27 2f ed bf a6 1f 6e bf
       1.3825743 -1.722537 -1.8530015 -0.9301704
000300 26 0b 24 3f a2 88 dd bf 4f ae da bf dc 4d d6 bf
       0.6407951 -1.7307322 -1.7084445 -1.6742511
000310 72 be de bf d7 8d 3d 3f 8e da 35 bf 2b 02 54 3f
       -1.7401869 0.74044555 -0.71036613 0.8281581
000320 77 6b b3 3f 8f 89 5a bf c1 21 dc bf ce fe 05 bf
       1.4017171 -0.8536615 -1.7197801 -0.52341926
000330 ca 96 b2 bf 41 65 d2 bf ce 69 a9 3f 70 f4 c0 bf
       -1.3952267 -1.643715 1.3235414 -1.5074596
000340 30 f4 67 3f da 76 36 bf bc 79 00 3d 75 ec ca bf
       0.90606976 -0.71275103 0.031366095 -1.5853411
000350 51 86 4b 3f a9 c4 b4 3f a1 c9 ec be e0 9c 94 3f
       0.79501826 1.4122516 -0.4624758 1.1610374
000360 da 77 9a bf 34 1f eb bf 6a 69 e9 bf 52 a2 ea 3e
       -1.2067826 -1.8368897 -1.8235295 0.45826966
000370 f5 85 52 bf f6 17 80 bf 97 48 b1 3d 89 0d 79 bd
       -0.8223565 -1.0007312 0.086564235 -0.060803924
000380 63 a1 f4 bf 4b 4d d6 3f c4 b0 aa bf bc 14 a6 bf
       -1.9111751 1.6742338 -1.3335195 -1.2975078
000390 ec 69 25 bf 77 cf 0c 3f f4 7a ee 3d 63 2f 09 3f
       -0.6461475 0.55004066 0.11644545 0.5358793
0003a0 6c 69 47 bf c7 9f e5 bf 4a 1c 92 bd a5 f2 a7 3f
       -0.77895236 -1.7939385 -0.07134302 1.3120924
0003b0 1a d1 dd bf 04 0d cd bf a9 a4 cc bf 04 94 bd bf
       -1.7329438 -1.6019597 -1.598775 -1.4810796
0003c0 9b 98 c3 bf ad 73 cd bf ce c0 cf bf 98 69 8c bf
       -1.5280946 -1.6050926 -1.6230714 -1.0969725
0003d0 38 23 a0 3f ba eb d5 3f 51 bc cc 3f ef f6 6e bf
       1.2510748 1.6712563 1.599497 -0.9334554
0003e0 0d cc a9 bf bf f5 8d bf ab dc 93 3e 2c 97 c8 3f
       -1.3265396 -1.1090621 0.28879294 1.5671134
0003f0 f9 ef c7 3f 79 0c a6 3f 7b e4 b2 3f e8 cf b5 bf
       1.5620109 1.2972556 1.3975977 -1.4204073

fc1.bias f4 [100]
000000 1c 0a ec 3f f9 a7 d1 bf d2 3d ad bf d0 87 dd bf
       1.8440585 -1.6379386 -1.3534491 -1.7307072
000010 1c 8a 93 bf b8 9b d6 bf 2b 6a d6 bf b0 6b da bf
       -1.1526523 -1.6766272 -1.675115 -1.7064114
000020 45 ec cf bf 90 d7 ed bf 9a 78 de bf 52 6a 97 bf
       -1.6243979 -1.858141 -1.7380555 -1.1829321
000030 5a a1 d0 bf ca 36 db bf cc 0c 51 be a6 dc 26 be
       -1.629924 -1.7126095 -0.20415038 -0.16295108
000040 0f 89 dd bf 17 52 c0 bf 2a 21 ba bf 43 2a d6 bf
       -1.7307452 -1.5025052 -1.4541371 -1.6731647
000050 b3 a1 a5 bf 27 76 b2 bf d8 c4 c2 bf 73 68 d6 bf
       -1.2939972 -1.3942307 -1.5216322 -1.6750625
000060 76 51 6c bf 2c 7f c2 bf be 19 25 3e 15 82 cd bf
       -0.923118 -1.519506 0.16123101 -1.6055323
000070 d6 98 ec bf 62 75 e2 bf 22 c8 d6 bf 22 16 e3 bf
       -1.8484142 -1.7692072 -1.6779826 -1.7741129
000080 84 1c 87 bf ba 8b 1c 3f 2f a3 76 3f b1 6d da bf
       -1.0555577 0.61150706 0.9634275 -1.7064725
000090 0e d6 bd bf a5 53 de bf 04 29 bb bf e1 57 af bf
       -1.4830949 -1.7369276 -1.4621892 -1.3698694
0000a0 34 fc d6 bf f2 65 2b bf d2 28 a3 bf b1 10 d8 bf
       -1.6795716 -0.6695243 -1.2746832 -1.6880094
0000b0 3e 61 d0 bf 70 76 b2 bf b8 2c e4 bf 29 55 ba bf
       -1.6279676 -1.3942394 -1.7826147 -1.4557239
0000c0 e9 26 94 3f 61 f7 a3 bf 59 20 12 be 9d dc c5 bf
       1.1574374 -1.2809869 -0.14270152 -1.5457951
0000d0 33 a0 bf bf a9 de a5 bf a6 0a dc bf 72 ee 65 bf
       -1.4970764 -1.2958575 -1.719075 -0.89816964
0000e0 e6 d0 e3 bf 30 73 99 bf 8a e2 15 bf 35 db d6 bf
       -1.7798126 -1.1988277 -0.58548796 -1.6785647
0000f0 92 65 15 bf fa 2e de bf 0e 82 e4 bf cc 05 bd bf
       -0.5835811 -1.7358086 -1.785219 -1.4767394
000100 d8 55 70 3e df 73 c1 bf 52 d7 d6 bf 31 96 50 bf
       0.23470247 -1.5113486 -1.678446 -0.81479174
000110 b6 6f 18 bf c3 73 d4 bf 75 2b f2 bf 30 97 b5 bf
       -0.5954546 -1.6597828 -1.8919512 -1.4186764
000120 36 e8 e1 bf e3 db e4 bf bf 4d df bf 61 d8 ab bf
       -1.764899 -1.7879604 -1.7445601 -1.3425409
000130 42 d7 9a 3e 41 b5 d8 bf fb 9c d8 bf e7 c7 d9 bf
       0.30242354 -1.6930314 -1.6922907 -1.701413
000140 4d 49 c0 bf 09 b1 dc bf 0f fb 9d bf af ea 3e 3e
       -1.502237 -1.7241527 -1.2342242 0.18644212
000150 69 53 dd bf 3c 55 e9 3f ab da e5 bf 13 23 dc bf
       -1.729108 1.8229136 -1.7957357 -1.7198204
000160 19 d4 b4 bf bc 39 01 bf 05 53 dc bf 43 09 d9 bf
       -1.4127227 -0.5047872 -1.7212836 -1.6955951
000170 0c 52 c8 bf 15 fb aa bf 0b bf e8 bf 08 ea e3 bf
       -1.5650039 -1.3357874 -1.8183302 -1.7805796
000180 c6 fd 6e be 74 53 3c 3f 01 7f 80 be 49 70 ae bf
       -0.23338994 0.7356484 -0.25096896 -1.3628017

fc2.0.0.weight f4 [100, 100]
000000 d4 46 ca bf d0 bc d6 bf bd 57 e0 bf 71 d7 cc bf
       -1.5802865 -1.6776371 -1.7526776 -1.6003247
000010 60 f1 de bf 68 ce d6 bf 30 89 d5 bf 56 ea de bf
       -1.7417412 -1.678174 -1.6682491 -1.7415264
000020 6a e8 d6 bf 48 14 07 bf a2 46 db bf 0e b9 d7 bf
       -1.6789677 -0.5276532 -1.713093 -1.6853349
000030 f8 ce de bf b2 ef de bf 71 c4 cb bf 86 d8 cf bf
       -1.7406912 -1.7416899 -1.5919324 -1.6237953
000040 2d 33 ce bf 33 9d d2 bf c5 38 e1 bf a5 85 c8 bf
       -1.6109368 -1.6454223 -1.759545 -1.5665785
000050 b4 13 d0 bf fc 02 d2 bf cc 48 d4 bf 21 9c cf bf
       -1.6256013 -1.6407161 -1.6584716 -1.6219522
000060 5f 16 d9 bf ef 39 df bf 49 10 d1 bf 85 e5 cb bf
       -1.6959952 -1.7439555 -1.6333095 -1.5929419
000070 a6 8b c8 bf 55 c7 da bf 78 8b cf bf 00 ca dc bf
       -1.5667617 -1.7092081 -1.6214437 -1.7249146
000080 ca 73 e0 bf da cf d6 bf f7 7b da bf 74 86 d3 bf
       -1.7535336 -1.6782181 -1.7069081 -1.6525407
000090 4a d8 c8 bf d8 b0 de bf f7 0e d5 bf 41 5e cf bf
       -1.5691006 -1.7397718 -1.6645192 -1.6200639
0000a0 ec bc c7 bf e7 ae c8 bf 1c 72 9f bf b9 f7 cf bf
       -1.5604529 -1.5678376 -1.2456698 -1.6247474
0000b0 93 dd d1 bf 64 dc cd bf 0d f5 6a bd 7a 90 d0 bf
       -1.6395744 -1.6082883 -0.057362605 -1.6294091
0000c0 b0 8d da bf cf 89 d6 bf 77 a2 d3 bf 18 11 d8 bf
       -1.707449 -1.6760806 -1.6533955 -1.6880217
0000d0 73 27 d0 bf 1e 6e da bf 87 1f da bf d4 6b da bf
       -1.6262039 -1.7064855 -1.7040871 -1.7064157
0000e0 04 bc dc bf 9f 0b d7 bf e5 f3 d0 bf 6c ec cf bf
       -1.7244878 -1.6800421 -1.6324431 -1.6244025
0000f0 75 8e 9b bd 92 fe d6 bf 5f b2 dc bf c4 15 cf bf
       -0.07595531 -1.6796439 -1.7241935 -1.6178517
000100 d2 b7 d7 bf 44 08 d4 bf 09 1f d1 bf 01 cf d7 bf
       -1.6852973 -1.6565022 -1.6337596 -1.6860048
000110 75 64 e0 bf e6 aa d2 bf dc 3c db bf ef 36 df bf
       -1.7530657 -1.6458404 -1.7127948 -1.7438639
000120 1e 12 d4 bf 9f 4d e0 bf 56 69 dd bf cb cb df bf
       -1.6568029 -1.7523688 -1.7297771 -1.7484068
000130 0f 62 c8 bf 26 2c dc bf 23 2d e0 bf 8a f5 d3 bf
       -1.5654925 -1.7200973 -1.7513775 -1.6559308
000140 b5 41 d3 bf 04 e5 de bf 2a 17 db bf 2f ab 7e bf
       -1.6504427 -1.741364 -1.7116444 -0.99479955
000150 08 a7 cd bf 50 8b dd bf 43 5b cb bf 03 33 dd bf
       -1.6066599 -1.730814 -1.5887226 -1.7281193
000160 5b df da bf e4 61 d6 bf 3a 76 de bf ec 17 d5 bf
       -1.7099413 -1.6748624 -1.737983 -1.6647925
000170 9b ac d3 bf f6 44 dd bf 53 a2 d8 bf f5 99 cc bf
       -1.653705 -1.728667 -1.6924537 -1.5984484
000180 34 ad de bf 1a c2 d9 bf 55 02 e0 bf 88 8b df bf
       -1.7396607 -1.701236 -1.7500712 -1.7464457
000190 ac 4a c6 bf 33 2a cf bf d0 f1 cb 3f 5d 37 dd bf
       -1.5491538 -1.6184753 1.593317 -1.728252
0001a0 ea b5 d7 3f 14 16 d0 bf ed a6 d9 bf e5 f7 c9 bf
       1.6852391 -1.6256738 -1.7004067 -1.5778776
0001b0 05 50 ed 3f e2 f5 d8 bf c4 2d d0 bf 32 cc d7 bf
       1.8540045 -1.6950037 -1.6263967 -1.685919
0001c0 3a e3 dd bf b3 6a d5 bf 31 61 e1 bf c1 b3 bb bf
       -1.7334969 -1.6673187 -1.7607785 -1.4664232
0001d0 b6 36 de bf cd 35 db bf ed f8 d0 bf 41 0a d8 bf
       -1.7360446 -1.7125794 -1.6325966 -1.6878129
0001e0 ec 3b dc bf c9 e0 d0 3f 57 d0 df bf 81 47 ce bf
       -1.7205787 1.6318599 -1.7485455 -1.6115571
0001f0 70 75 cb bf 71 3d de 3f 7d db d8 bf f1 00 d8 bf
       -1.5895214 1.73625 -1.6941983 -1.6875287
000200 82 09 f3 3f d2 ff da bf 77 41 db bf 5e 59 e1 bf
       1.8987277 -1.710932 -1.7129353 -1.7605398
000210 6b 6b c9 bf 24 f5 d9 bf 6f 3e cd bf 4c 6d e0 bf
       -1.5735906 -1.7027936 -1.6034678 -1.7533355
000220 9c c6 c9 bf 8a 2a cf bf 4d bd d6 bf 5b d2 db bf
       -1.5763736 -1.6184857 -1.677652 -1.717357
000230 b1 2f cc bf 63 8a ca bf 14 57 d8 bf 30 5f d5 bf
       -1.5952054 -1.5823482 -1.6901574 -1.6669674
000240 69 f5 d3 bf 92 81 2d 3f 7e c6 d2 bf 68 91 aa bf
       -1.6559268 0.67775834 -1.6466825 -1.3325624
000250 2b e0 f0 be e1 3f cd bf 95 d9 d2 bf 37 98 dc bf
       -0.47046027 -1.6035119 -1.6472651 -1.7233952
000260 b7 6f d6 bf 1a 7a d6 bf f9 71 cd bf 13 cf 89 be
       -1.6752843 -1.6756012 -1.6050407 -0.26915798
000270 5d 17 cc bf d8 50 d4 bf 44 39 db bf 7b 2d cf bf
       -1.594463 -1.6587172 -1.7126851 -1.6185755
000280 59 25 da bf 59 ea df bf 4f 32 d9 bf 39 ba d6 bf
       -1.7042648 -1.7493392 -1.6968478 -1.6775581
000290 72 51 db bf b8 46 e0 bf fa 97 d2 bf bc fd d2 bf
       -1.713423 -1.7521582 -1.645263 -1.6483684
0002a0 38 87 cb bf 72 60 c9 bf 84 1a c9 bf 7a 96 e1 3f
       -1.590064 -1.5732558 -1.5711217 1.7624047
0002b0 f2 19 cb 3f 6a bc d8 bf 97 50 d5 bf c0 ad d3 bf
       1.5867293 -1.69325 -1.6665219 -1.6537399
0002c0 6f d0 12 3e fe 67 cb bf c6 a1 de bf 6d 06 c9 bf
       0.14337324 -1.5891111 -1.7393119 -1.5705086
0002d0 2c 61 cb bf c9 ea c9 bf 79 33 df bf bb 03 d1 bf
       -1.588903 -1.5774776 -1.7437583 -1.6329263
0002e0 1e 71 cf bf 69 21 d2 bf 88 67 d5 bf 3e 5f dd bf
       -1.6206396 -1.6416446 -1.667222 -1.7294691
0002f0 5c ee e1 bf 5a ca da bf e4 a4 cb 3f fa 34 df bf
       -1.7650867 -1.7093003 1.5909696 -1.7438042
000300 1e 16 b6 bf 90 1c cb bf 67 a1 cf bf 9d ed d6 3f
       -1.42255 -1.5868092 -1.6221131 1.6791264
000310 92 d2 df bf 41 96 cf bf 45 3b a9 be 1b 39 cf bf
       -1.7486136 -1.6217729 -0.33053032 -1.6189302
000320 9e 8e cf bf 5d 4b b2 bf 7c 46 c5 bf fa de cb bf
       -1.6215398 -1.3929249 -1.5412135 -1.5927422
000330 9b c5 ca bf 44 d5 dc bf 0d f1 e8 bf 45 ad d6 bf
       -1.5841554 -1.7252584 -1.8198563 -1.6771628
000340 e7 c9 c9 bf b8 c0 cb 3f 48 72 dc bf 80 9d c6 bf
       -1.5764741 1.5918188 -1.7222376 -1.5516815
000350 21 49 c9 bf 9d af cf bf 96 68 e1 bf 90 23 dc bf
       -1.5725442 -1.6225468 -1.7610042 -1.7198353
000360 13 03 c7 bf ef da e0 bf 75 8a d0 bf 74 13 d7 bf
       -1.5547813 -1.7566813 -1.6292254 -1.6802812
000370 ba 62 d6 bf 83 a4 d4 bf 6e f8 bf bf be 6a d5 bf
       -1.6748879 -1.6612705 -1.499769 -1.66732
000380 39 79 d3 bf 9a 9c d5 bf 88 ce d2 bf fb 17 d6 bf
       -1.6521369 -1.6688416 -1.6469278 -1.6726068
000390 30 a4 c1 bf 73 dd d6 bf 1e 32 db bf 7d 04 d7 bf
       -1.5128231 -1.6786331 -1.712467 -1.6798245
0003a0 ff 61 d4 bf 36 b7 d0 bf 0a f6 e4 3e 6a f4 d9 bf
       -1.6592406 -1.6305912 0.44718963 -1.7027714
0003b0 e6 07 d2 bf 53 b7 ce bf bc 53 cd bf 55 e7 ca bf
       -1.640866 -1.6149696 -1.6041179 -1.5851847
0003c0 67 d9 dd bf 35 27 ce bf 14 0a a1 bf a4 82 c6 bf
       -1.7331971 -1.6105715 -1.2581201 -1.5508618
0003d0 b4 b3 c9 bf ba 02 a6 3f ed 9d cf bf 9d 9d 8a 3e
       -1.5757966 1.2969582 -1.622007 0.27073374
0003e0 ba 23 c1 bf 3b 3b df bf 67 56 ce bf 8f 93 d8 bf
       -1.5089028 -1.7439951 -1.6120118 -1.6920031
0003f0 33 f6 ce bf 26 f8 d6 bf e1 d7 d3 bf d4 8c d0 bf
       -1.6168884 -1.6794479 -1.6550256 -1.6292977

fc2.0.0.bias f4 [100]
000000 f4 50 d3 bf 21 94 d3 bf 3a fc e5 bf db a3 9b be
       -1.650908 -1.652958 -1.7967598 -0.3039845
000010 61 2e cb bf 02 ee 57 bf af 5c a2 bf 36 cf da bf
       -1.5873529 -0.84347546 -1.2684535 -1.7094486
000020 b5 63 e1 bf 64 53 dd bf 7d e3 b2 bf 71 c4 24 be
       -1.7608553 -1.7291074 -1.3975674 -0.16090561
000030 83 77 b6 be fe 84 34 bd 28 73 ca bf 69 d9 d4 bf
       -0.35638055 -0.044072144 -1.5816393 -1.6628848
000040 e0 cc cb bf 7e ad dd bf 0b 74 cf bf 1a 52 c8 bf
       -1.5921898 -1.7318571 -1.6207289 -1.5650055
000050 ce 31 c1 bf 56 e8 e3 bf 53 f2 85 bf f6 45 15 3f
       -1.5093324 -1.7805278 -1.0464576 0.58309877
000060 f4 40 c7 3e 2a b3 db bf 13 cf cb bf c2 2a cf bf
       0.38916743 -1.7164052 -1.5922569 -1.6184924
000070 bb fe 89 bf 81 bd 1a bf 2b 45 55 bf 15 22 ed bf
       -1.0780863 -0.6044541 -0.83308667 -1.8526026
000080 38 d1 86 bf 43 a5 2d bf 53 7a 7d bf 37 c3 8e 3f
       -1.0532598 -0.67830294 -0.99014777 1.1153325
000090 b6 cb 57 bf c3 1d e4 bf ad fe c6 bf c3 07 b4 bf
       -0.84295213 -1.7821583 -1.5546471 -1.4064869
0000a0 34 16 3a 3f 58 ec 54 bf 48 ed aa bf 21 fd db bf
       0.7269013 -0.8317313 -1.3353662 -1.7186624
0000b0 4a e7 a3 bf 52 c4 db bf b0 5d 72 bf 75 4a 8a be
       -1.2804959 -1.7169287 -0.94674206 -0.2700993
0000c0 3b 09 d8 bf 11 b4 b7 bf 9c db 07 bf 17 4f 46 3f
       -1.6877817 -1.4351827 -0.5306947 0.7746443
0000d0 a7 f6 b6 bf ee dd df bf 8f ba a0 bf d1 e9 72 3f
       -1.4294022 -1.7489603 -1.2556933 0.94888026
0000e0 40 b8 96 bf 44 55 c2 bf 2a cb 13 bf 2e 1a 94 3f
       -1.1774979 -1.5182271 -0.5773188 1.157049
0000f0 2a 2d eb bf 2b 3f e0 bf 33 a6 cd bf a9 96 bc 3f
       -1.8373158 -1.7519277 -1.6066345 1.4733478
000100 90 57 a3 bf 03 86 9a bf 4b b2 8c bf f9 6e 44 bf
       -1.2761097 -1.2072147 -1.0991911 -0.7673183
000110 b2 81 ec bf 96 fa a1 bf 3b 34 d0 bf 79 05 8b bf
       -1.847708 -1.2654598 -1.626594 -1.0861045
000120 2f e2 c7 bf 6f ac d3 bf 65 6f da bf 8b d9 ba bf
       -1.5615901 -1.6536998 -1.7065245 -1.4597639
000130 49 64 ca bf a5 da dc bf 6c 2a c8 bf b4 8b 7b be
       -1.5811855 -1.7254225 -1.5637946 -0.24565011
000140 2b a3 d4 bf e3 93 c4 3f 5e ad bd bf d1 0c 66 be
       -1.6612295 1.5357631 -1.4818532 -0.22465827
000150 4d 18 e1 bf 35 a5 ba bf 4b c5 dc bf 7d 4c c8 bf
       -1.7585541 -1.4581667 -1.7247709 -1.5648342
000160 d6 10 be bf 5a 77 fd 3e c1 5e cf bf 3c 03 40 3f
       -1.4848888 0.4950512 -1.6200792 0.75004935
000170 2b 61 e7 bf ad 65 03 bf 9b 7f 99 bf 8a be a0 bf
       -1.8076528 -0.5132702 -1.1992067 -1.2558148
000180 e8 98 c5 bd 11 46 1f bf 04 ff cf bf e2 96 cf bf
       -0.09648305 -0.6221629 -1.62497 -1.6217921

fc2.1.0.weight f4 [100, 100]
000000 d4 46 ca bf d0 bc d6 bf bd 57 e0 bf 71 d7 cc bf
       -1.5802865 -1.6776371 -1.7526776 -1.6003247
000010 60 f1 de bf 68 ce d6 bf 30 89 d5 bf 56 ea de bf
       -1.7417412 -1.678174 -1.6682491 -1.7415264
000020 6a e8 d6 bf 48 14 07 bf a2 46 db bf 0e b9 d7 bf
       -1.6789677 -0.5276532 -1.713093 -1.6853349
000030 f8 ce de bf b2 ef de bf 71 c4 cb bf 86 d8 cf bf
       -1.7406912 -1.7416899 -1.5919324 -1.6237953
000040 2d 33 ce bf 33 9d d2 bf c5 38 e1 bf a5 85 c8 bf
       -1.6109368 -1.6454223 -1.759545 -1.5665785
000050 b4 13 d0 bf fc 02 d2 bf cc 48 d4 bf 21 9c cf bf
       -1.6256013 -1.6407161 -1.6584716 -1.6219522
000060 5f 16 d9 bf ef 39 df bf 49 10 d1 bf 85 e5 cb bf
       -1.6959952 -1.7439555 -1.6333095 -1.5929419
000070 a6 8b c8 bf 55 c7 da bf 78 8b cf bf 00 ca dc bf
       -1.5667617 -1.7092081 -1.6214437 -1.7249146
000080 ca 73 e0 bf da cf d6 bf f7 7b da bf 74 86 d3 bf
       -1.7535336 -1.6782181 -1.7069081 -1.6525407
000090 4a d8 c8 bf d8 b0 de bf f7 0e d5 bf 41 5e cf bf
       -1.5691006 -1.7397718 -1.6645192 -1.6200639
0000a0 ec bc c7 bf e7 ae c8 bf 1c 72 9f bf b9 f7 cf bf
       -1.5604529 -1.5678376 -1.2456698 -1.6247474
0000b0 93 dd d1 bf 64 dc cd bf 0d f5 6a bd 7a 90 d0 bf
       -1.6395744 -1.6082883 -0.057362605 -1.6294091
0000c0 b0 8d da bf cf 89 d6 bf 77 a2 d3 bf 18 11 d8 bf
       -1.707449 -1.6760806 -1.6533955 -1.6880217
0000d0 73 27 d0 bf 1e 6e da bf 87 1f da bf d4 6b da bf
       -1.6262039 -1.7064855 -1.7040871 -1.7064157
0000e0 04 bc dc bf 9f 0b d7 bf e5 f3 d0 bf 6c ec cf bf
       -1.7244878 -1.6800421 -1.6324431 -1.6244025
0000f0 75 8e 9b bd 92 fe d6 bf 5f b2 dc bf c4 15 cf bf
       -0.07595531 -1.6796439 -1.7241935 -1.6178517
000100 d2 b7 d7 bf 44 08 d4 bf 09 1f d1 bf 01 cf d7 bf
       -1.6852973 -1.6565022 -1.6337596 -1.6860048
000110 75 64 e0 bf e6 aa d2 bf dc 3c db bf ef 36 df bf
       -1.7530657 -1.6458404 -1.7127948 -1.7438639
000120 1e 12 d4 bf 9f 4d e0 bf 56 69 dd bf cb cb df bf
       -1.6568029 -1.7523688 -1.7297771 -1.7484068
000130 0f 62 c8 bf 26 2c dc bf 23 2d e0 bf 8a f5 d3 bf
       -1.5654925 -1.7200973 -1.7513775 -1.6559308
000140 b5 41 d3 bf 04 e5 de bf 2a 17 db bf 2f ab 7e bf
       -1.6504427 -1.741364 -1.7116444 -0.99479955
000150 08 a7 cd bf 50 8b dd bf 43 5b cb bf 03 33 dd bf
       -1.6066599 -1.730814 -1.5887226 -1.7281193
000160 5b df da bf e4 61 d6 bf 3a 76 de bf ec 17 d5 bf
       -1.7099413 -1.6748624 -1.737983 -1.6647925
000170 9b ac d3 bf f6 44 dd bf 53 a2 d8 bf f5 99 cc bf
       -1.653705 -1.728667 -1.6924537 -1.5984484
000180 34 ad de bf 1a c2 d9 bf 55 02 e0 bf 88 8b df bf
       -1.7396607 -1.701236 -1.7500712 -1.7464457
000190 ac 4a c6 bf 33 2a cf bf d0 f1 cb 3f 5d 37 dd bf
       -1.5491538 -1.6184753 1.593317 -1.728252
0001a0 ea b5 d7 3f 14 16 d0 bf ed a6 d9 bf e5 f7 c9 bf
       1.6852391 -1.6256738 -1.7004067 -1.5778776
0001b0 05 50 ed 3f e2 f5 d8 bf c4 2d d0 bf 32 cc d7 bf
       1.8540045 -1.6950037 -1.6263967 -1.685919
0001c0 3a e3 dd bf b3 6a d5 bf 31 61 e1 bf c1 b3 bb bf
       -1.7334969 -1.6673187 -1.7607785 -1.4664232
0001d0 b6 36 de bf cd 35 db bf ed f8 d0 bf 41 0a d8 bf
       -1.7360446 -1.7125794 -1.6325966 -1.6878129
0001e0 ec 3b dc bf c9 e0 d0 3f 57 d0 df bf 81 47 ce bf
       -1.7205787 1.6318599 -1.7485455 -1.6115571
0001f0 70 75 cb bf 71 3d de 3f 7d db d8 bf f1 00 d8 bf
       -1.5895214 1.73625 -1.6941983 -1.6875287
000200 82 09 f3 3f d2 ff da bf 77 41 db bf 5e 59 e1 bf
       1.8987277 -1.710932 -1.7129353 -1.7605398
000210 6b 6b c9 bf 24 f5 d9 bf 6f 3e cd bf 4c 6d e0 bf
       -1.5735906 -1.7027936 -1.6034678 -1.7533355
000220 9c c6 c9 bf 8a 2a cf bf 4d bd d6 bf 5b d2 db bf
       -1.5763736 -1.6184857 -1.677652 -1.717357
000230 b1 2f cc bf 63 8a ca bf 14 57 d8 bf 30 5f d5 bf
       -1.5952054 -1.5823482 -1.6901574 -1.6669674
000240 69 f5 d3 bf 92 81 2d 3f 7e c6 d2 bf 68 91 aa bf
       -1.6559268 0.67775834 -1.6466825 -1.3325624
000250 2b e0 f0 be e1 3f cd bf 95 d9 d2 bf 37 98 dc bf
       -0.47046027 -1.6035119 -1.6472651 -1.7233952
000260 b7 6f d6 bf 1a 7a d6 bf f9 71 cd bf 13 cf 89 be
       -1.6752843 -1.6756012 -1.6050407 -0.26915798
000270 5d 17 cc bf d8 50 d4 bf 44 39 db bf 7b 2d cf bf
       -1.594463 -1.6587172 -1.7126851 -1.6185755
000280 59 25 da bf 59 ea df bf 4f 32 d9 bf 39 ba d6 bf
       -1.7042648 -1.7493392 -1.6968478 -1.6775581
000290 72 51 db bf b8 46 e0 bf fa 97 d2 bf bc fd d2 bf
       -1.713423 -1.7521582 -1.645263 -1.6483684
0002a0 38 87 cb bf 72 60 c9 bf 84 1a c9 bf 7a 96 e1 3f
       -1.590064 -1.5732558 -1.5711217 1.7624047
0002b0 f2 19 cb 3f 6a bc d8 bf 97 50 d5 bf c0 ad d3 bf
       1.5867293 -1.69325 -1.6665219 -1.6537399
0002c0 6f d0 12 3e fe 67 cb bf c6 a1 de bf 6d 06 c9 bf
       0.14337324 -1.5891111 -1.7393119 -1.5705086
0002d0 2c 61 cb bf c9 ea c9 bf 79 33 df bf bb 03 d1 bf
       -1.588903 -1.5774776 -1.7437583 -1.6329263
0002e0 1e 71 cf bf 69 21 d2 bf 88 67 d5 bf 3e 5f dd bf
       -1.6206396 -1.6416446 -1.667222 -1.7294691
0002f0 5c ee e1 bf 5a ca da bf e4 a4 cb 3f fa 34 df bf
       -1.7650867 -1.7093003 1.5909696 -1.7438042
000300 1e 16 b6 bf 90 1c cb bf 67 a1 cf bf 9d ed d6 3f
       -1.42255 -1.5868092 -1.6221131 1.6791264
000310 92 d2 df bf 41 96 cf bf 45 3b a9 be 1b 39 cf bf
       -1.7486136 -1.6217729 -0.33053032 -1.6189302
000320 9e 8e cf bf 5d 4b b2 bf 7c 46 c5 bf fa de cb bf
       -1.6215398 -1.3929249 -1.5412135 -1.5927422
000330 9b c5 ca bf 44 d5 dc bf 0d f1 e8 bf 45 ad d6 bf
       -1.5841554 -1.7252584 -1.8198563 -1.6771628
000340 e7 c9 c9 bf b8 c0 cb 3f 48 72 dc bf 80 9d c6 bf
       -1.5764741 1.5918188 -1.7222376 -1.5516815
000350 21 49 c9 bf 9d af cf bf 96 68 e1 bf 90 23 dc bf
       -1.5725442 -1.6225468 -1.7610042 -1.7198353
000360 13 03 c7 bf ef da e0 bf 75 8a d0 bf 74 13 d7 bf
       -1.5547813 -1.7566813 -1.6292254 -1.6802812
000370 ba 62 d6 bf 83 a4 d4 bf 6e f8 bf bf be 6a d5 bf
       -1.6748879 -1.6612705 -1.499769 -1.66732
000380 39 79 d3 bf 9a 9c d5 bf 88 ce d2 bf fb 17 d6 bf
       -1.6521369 -1.6688416 -1.6469278 -1.6726068
000390 30 a4 c1 bf 73 dd d6 bf 1e 32 db bf 7d 04 d7 bf
       -1.5128231 -1.6786331 -1.712467 -1.6798245
0003a0 ff 61 d4 bf 36 b7 d0 bf 0a f6 e4 3e 6a f4 d9 bf
       -1.6592406 -1.6305912 0.44718963 -1.7027714
0003b0 e6 07 d2 bf 53 b7 ce bf bc 53 cd bf 55 e7 ca bf
       -1.640866 -1.6149696 -1.6041179 -1.5851847
0003c0 67 d9 dd bf 35 27 ce bf 14 0a a1 bf a4 82 c6 bf
       -1.7331971 -1.6105715 -1.2581201 -1.5508618
0003d0 b4 b3 c9 bf ba 02 a6 3f ed 9d cf bf 9d 9d 8a 3e
       -1.5757966 1.2969582 -1.622007 0.27073374
0003e0 ba 23 c1 bf 3b 3b df bf 67 56 ce bf 8f 93 d8 bf
       -1.5089028 -1.7439951 -1.6120118 -1.6920031
0003f0 33 f6 ce bf 26 f8 d6 bf e1 d7 d3 bf d4 8c d0 bf
       -1.6168884 -1.6794479 -1.6550256 -1.6292977

fc2.1.0.bias f4 [100]
000000 f4 50 d3 bf 21 94 d3 bf 3a fc e5 bf db a3 9b be
       -1.650908 -1.652958 -1.7967598 -0.3039845
000010 61 2e cb bf 02 ee 57 bf af 5c a2 bf 36 cf da bf
       -1.5873529 -0.84347546 -1.2684535 -1.7094486
000020 b5 63 e1 bf 64 53 dd bf 7d e3 b2 bf 71 c4 24 be
       -1.7608553 -1.7291074 -1.3975674 -0.16090561
000030 83 77 b6 be fe 84 34 bd 28 73 ca bf 69 d9 d4 bf
       -0.35638055 -0.044072144 -1.5816393 -1.6628848
000040 e0 cc cb bf 7e ad dd bf 0b 74 cf bf 1a 52 c8 bf
       -1.5921898 -1.7318571 -1.6207289 -1.5650055
000050 ce 31 c1 bf 56 e8 e3 bf 53 f2 85 bf f6 45 15 3f
       -1.5093324 -1.7805278 -1.0464576 0.58309877
000060 f4 40 c7 3e 2a b3 db bf 13 cf cb bf c2 2a cf bf
       0.38916743 -1.7164052 -1.5922569 -1.6184924
000070 bb fe 89 bf 81 bd 1a bf 2b 45 55 bf 15 22 ed bf
       -1.0780863 -0.6044541 -0.83308667 -1.8526026
000080 38 d1 86 bf 43 a5 2d bf 53 7a 7d bf 37 c3 8e 3f
       -1.0532598 -0.67830294 -0.99014777 1.1153325
000090 b6 cb 57 bf c3 1d e4 bf ad fe c6 bf c3 07 b4 bf
       -0.84295213 -1.7821583 -1.5546471 -1.4064869
0000a0 34 16 3a 3f 58 ec 54 bf 48 ed aa bf 21 fd db bf
       0.7269013 -0.8317313 -1.3353662 -1.7186624
0000b0 4a e7 a3 bf 52 c4 db bf b0 5d 72 bf 75 4a 8a be
       -1.2804959 -1.7169287 -0.94674206 -0.2700993
0000c0 3b 09 d8 bf 11 b4 b7 bf 9c db 07 bf 17 4f 46 3f
       -1.6877817 -1.4351827 -0.5306947 0.7746443
0000d0 a7 f6 b6 bf ee dd df bf 8f ba a0 bf d1 e9 72 3f
       -1.4294022 -1.7489603 -1.2556933 0.94888026
0000e0 40 b8 96 bf 44 55 c2 bf 2a cb 13 bf 2e 1a 94 3f
       -1.1774979 -1.5182271 -0.5773188 1.157049
0000f0 2a 2d eb bf 2b 3f e0 bf 33 a6 cd bf a9 96 bc 3f
       -1.8373158 -1.7519277 -1.6066345 1.4733478
000100 90 57 a3 bf 03 86 9a bf 4b b2 8c bf f9 6e 44 bf
       -1.2761097 -1.2072147 -1.0991911 -0.7673183
000110 b2 81 ec bf 96 fa a1 bf 3b 34 d0 bf 79 05 8b bf
       -1.847708 -1.2654598 -1.626594 -1.0861045
000120 2f e2 c7 bf 6f ac d3 bf 65 6f da bf 8b d9 ba bf
       -1.5615901 -1.6536998 -1.7065245 -1.4597639
000130 49 64 ca bf a5 da dc bf 6c 2a c8 bf b4 8b 7b be
       -1.5811855 -1.7254225 -1.5637946 -0.24565011
000140 2b a3 d4 bf e3 93 c4 3f 5e ad bd bf d1 0c 66 be
       -1.6612295 1.5357631 -1.4818532 -0.22465827
000150 4d 18 e1 bf 35 a5 ba bf 4b c5 dc bf 7d 4c c8 bf
       -1.7585541 -1.4581667 -1.7247709 -1.5648342
000160 d6 10 be bf 5a 77 fd 3e c1 5e cf bf 3c 03 40 3f
       -1.4848888 0.4950512 -1.6200792 0.75004935
000170 2b 61 e7 bf ad 65 03 bf 9b 7f 99 bf 8a be a0 bf
       -1.8076528 -0.5132702 -1.1992067 -1.2558148
000180 e8 98 c5 bd 11 46 1f bf 04 ff cf bf e2 96 cf bf
       -0.09648305 -0.6221629 -1.62497 -1.6217921

fc4.weight f4 [6, 100]
000000 b8 6b d0 bf f0 aa d6 3f b9 56 cb bf 6b 3a 93 3f
       -1.6282873 1.6770916 -1.5885841 1.1502203
000010 a8 2a 4a 3f 44 dd 87 3f 11 61 10 3f 32 d3 cc 3f
       0.7897134 1.06144 0.5639811 1.6001952
000020 c6 93 cc bf 37 93 c9 bf 93 79 c3 3f 7f a6 05 bf
       -1.5982597 -1.5748051 1.5271477 -0.5220718
000030 2d b4 95 bf 2a 04 fb bf 06 9c c8 3f e0 ee d8 bf
       -1.169561 -1.9610646 1.5672615 -1.6947899
000040 ec b9 ce bf 19 a9 c9 3f 8b fc db bf c9 b3 d6 bf
       -1.6150489 1.575473 -1.7186445 -1.6773616
000050 80 27 97 3f 42 91 d4 3f a4 22 82 3f 12 e1 a0 3d
       1.180893 1.6606829 1.0166821 0.07855429
000060 fd 18 7f 3f 08 27 c9 3f 2b 78 d1 bf 3c 0f cd bf
       0.99647504 1.5715036 -1.6364797 -1.6020274
000070 c8 76 0a 3f 01 ad 4b 3f c2 11 bc 3f 2b 17 0e 3d
       0.54087496 0.7956086 1.4692919 0.034690063
000080 af 2e 28 3f 4f 89 aa bf 95 c3 da bf 8d bc 1c bf
       0.65696234 -1.3323153 -1.7090937 -0.61225206
000090 f2 27 e6 be ce a2 a0 3e 5f c8 d7 bf 81 53 c6 bf
       -0.4495235 0.3137421 -1.6858023 -1.5494233
0000a0 e7 12 05 3e 0f 78 b6 be 8c 43 c6 3f d1 4a ce 3f
       0.12995492 -0.35638472 1.5489364 1.6116582
0000b0 92 50 dc bf b8 4e f5 bd 35 11 a5 3c e2 d0 b9 3e
       -1.7212088 -0.11977905 0.020149807 0.36292177
0000c0 c4 78 d7 bf 03 04 ac 3f c7 85 1e 3f 60 7c 14 3e
       -1.683373 1.3438724 0.6192288 0.1450057
0000d0 bb 17 b4 3f ee 3b d2 bf 19 26 25 bf 74 44 ca bf
       1.4069742 -1.6424539 -0.6451126 -1.580214
0000e0 34 64 88 bf d7 c4 90 3f 18 0e c3 bf d2 fe 1b 3d
       -1.065558 1.1310071 -1.5238676 0.038084812
0000f0 56 d5 d2 bf 54 55 c9 bd dc 3d cd bf 4c f4 18 3f
       -1.6471355 -0.09830728 -1.6034503 0.5974777
000100 0d 83 e0 bf 18 97 dd bf 41 f3 b0 3f 70 6f 98 3f
       -1.7539994 -1.7311735 1.3824235 1.1909008
000110 12 c0 dc bf 92 d5 74 3f 61 19 b3 bf 2e 82 20 3f
       -1.7246115 0.9563838 -1.399212 0.6269864
000120 ef 5c cc 3f 63 85 4e 3f a2 cf 9a 3f ba 88 cc 3f
       1.5965861 0.8067228 1.2094615 1.5979226
000130 c8 e4 d5 bf eb 39 9b 3f 78 26 bc bf 45 3e 7a 3e
       -1.6710443 1.212705 -1.469924 0.24437816
000140 70 33 d9 bf 82 4f 35 3f 29 a1 c7 3f 6c e8 c0 3d
       -1.6968822 0.70824444 1.5596057 0.09419331
000150 52 b6 4a 3f 3d 98 b5 bf 93 2a a7 bf 38 e8 9d 3f
       0.7918445 -1.4187084 -1.3059868 1.2336493
000160 48 22 c4 bd 8f ef 43 3f ae 04 a3 bf a8 c2 93 bf
       -0.09576851 0.7653741 -1.2735803 -1.1543779
000170 ef 53 01 3f 39 0e 1c 3f 66 f7 c7 3f 7d 77 c8 3f
       0.505187 0.609592 1.5622375 1.5661465
000180 36 7f b2 3c 6d f5 a8 3f e0 f2 d8 bf 41 5e d3 3f
       0.021789175 1.3199898 -1.694912 1.6513139
000190 7f 74 d5 3f a9 39 dd 3f 0c 10 d5 3f ad 57 99 3f
       1.6676177 1.7283221 1.6645522 1.1979882
0001a0 17 7a c5 3f 23 23 57 3f 1e 06 8b 3f d8 4b 6a bd
       1.5427884 0.8403799 1.0861242 -0.057201236
0001b0 85 fb c3 3f af 33 7c 3e 33 19 b2 bf 36 0b 21 bf
       1.5311133 0.2462909 -1.391394 -0.6290773
0001c0 64 48 97 3f 7f 21 96 3f 5e d3 ca bf 05 7f c8 3f
       1.1818967 1.1728972 -1.5845754 1.5663763
0001d0 8d 17 d2 3f 35 30 d4 3f 01 8c cd 3f 81 ce c1 3f
       1.6413437 1.6577212 1.6058351 1.5141145
0001e0 e3 55 c9 bf 8a b9 35 3e ab db 91 bf b8 81 45 3e
       -1.5729336 0.17746559 -1.1395162 0.19287765
0001f0 e9 5d 8b 3f 7f 23 cc bf be 6f c8 3f 85 28 ca 3f
       1.0888034 -1.5948333 1.5659101 1.5793616
000200 8e 82 d2 bf cd 44 71 3f 2b 01 47 3f 3f 75 3d bd
       -1.6446092 0.94245607 0.7773616 -0.046254393
000210 33 92 91 3f c1 38 bd 3f 18 55 c8 3f c8 43 b7 3f
       1.1372741 1.4782945 1.5650969 1.431756
000220 dc c2 07 bf aa 0e 52 be 5d d6 cb 3f 0c 71 ca 3f
       -0.53031707 -0.20513406 1.5924793 1.5815749
000230 89 6c a0 bd 4d 6f 83 3f f2 4b d3 bf c6 20 d9 bf
       -0.078332014 1.0268341 -1.6507552 -1.6963127
000240 05 4f cc 3f e7 86 99 3c 86 c1 08 3f e4 f6 9d bf
       1.5961615 0.018741084 0.53420293 -1.234097
000250 f4 11 d9 3f f4 2a 91 3f 26 4d 28 bf 77 1e 36 bf
       1.6958604 1.1341233 -0.6574272 -0.71140236
000260 bf f1 c1 3f 7e 06 80 3e b4 1d d0 bf e5 c4 bc 3f
       1.51519 0.25004953 -1.6259065 1.4747587
000270 4e 6c 8e 3f 1c 13 25 3f 26 26 c5 be 1b 03 e1 3e
       1.1126802 0.64482284 -0.38505667 0.43947682
000280 aa 19 cc bf 83 90 94 bd 0a 6c cb 3f af 64 8a bf
       -1.5945332 -0.07254126 1.5892346 -1.0811976
000290 ef fc c5 3f 47 f3 26 3c a1 c2 6e 3f 86 1d 79 3f
       1.5467814 0.010189838 0.9326573 0.97310674
0002a0 8e 6f 21 3f 9e 8c 6f 3f 7a b8 00 3f 1a f8 c0 bf
       0.63060844 0.9357394 0.5028149 -1.5075715
0002b0 84 05 cf 3d ae 20 b5 3f 1c 79 d3 bf c1 d2 d1 bf
       0.10108474 1.4150598 -1.6521335 -1.6392442
0002c0 04 e8 cc 3f ab 7d de bf e6 5c 34 3d d3 62 df bf
       1.6008306 -1.7382101 0.044033907 -1.7452034
0002d0 1a 30 da 3f 6d 9f 45 3e 42 78 8f bf eb 80 02 3f
       1.704593 0.19299097 -1.1208575 0.50977963
0002e0 4a 8e d7 3f 0d 9a a9 3f c9 db b1 3f b5 07 ae 3f
       1.6840298 1.3250138 1.3895198 1.3596102
0002f0 4b 99 5d 3e e9 2a 8b be a0 64 d1 bc 38 df 50 3f
       0.21640508 -0.27181175 -0.025560677 0.81590605
000300 ae 74 d5 3f 36 4f c9 3f 6b f4 d0 3f 4d aa ce bf
       1.6676233 1.5727298 1.632459 -1.6145722
000310 b6 8f 54 be 1d 6d a1 bf 8e a0 cb 3f 2d 62 dc bf
       -0.20757946 -1.2611424 1.5908372 -1.7217461
000320 e7 9c cb bf 9b 08 ca bf 7f bd d2 bf 2e 86 ba bf
       -1.5907258 -1.5783876 -1.646408 -1.4572198
000330 cb 00 27 3f b1 67 d6 bf 25 91 a4 bf cf 9c c3 bf
       0.65235585 -1.6750394 -1.2856795 -1.5282229
000340 e5 46 c3 bf a5 37 db bf ce fc d3 bf 0a d0 04 3f
       -1.525601 -1.7126356 -1.6561525 0.5187994
000350 66 0f be 3f 34 47 ec bf 0d e6 d8 bf 85 2e d6 bf
       1.4848449 -1.845923 -1.6945206 -1.6732947
000360 5f 73 d5 bf bc ab cf bf 72 86 d0 bf 98 fb d8 3f
       -1.6675833 -1.6224284 -1.629103 1.695178
000370 25 2f da bf f6 42 fb be 05 57 01 3f 56 43 ec bf
       -1.7045637 -0.49074525 0.50523406 -1.8458049
000380 4e e2 82 bf 42 9c c6 3f 70 e6 d7 bf c4 e0 df bf
       -1.0225313 1.5516436 -1.6867199 -1.7490468
000390 11 dc c3 3e d2 87 34 bf f0 88 d6 bf 30 2a 84 bd
       0.38253835 -0.70519745 -1.676054 -0.06453359
0003a0 bc 7c d0 bf 95 94 87 3f 72 b0 d7 bf 4b 53 db 3f
       -1.6288066 1.0592219 -1.6850722 1.7134794
0003b0 d2 c0 d4 bf 0d f0 d8 bf e1 87 dd bf b4 ea c3 bf
       -1.6621344 -1.6948258 -1.7307092 -1.5306001
0003c0 c0 5e 04 3e 60 34 33 3e cc 8c cc bf 4f c0 d1 bf
       0.1292677 0.17500448 -1.5980468 -1.6386813
0003d0 04 ea c6 3f 34 f3 ff 3e 5f 5b ea 3e 5c a9 ad 3e
       1.5540166 0.49990237 0.45772836 0.33918273
0003e0 95 37 cc bf 05 55 dd bf 32 6e d3 bf 06 5d 92 be
       -1.5954462 -1.7291571 -1.6518004 -0.28586596
0003f0 08 f8 46 3f ef 55 cc bf ed a1 cd bf 78 41 bb 3f
       0.77722216 -1.5963725 -1.6065041 1.4629354

fc4.bias f4 [6]
000000 bb 59 16 3e 9d 70 7d 3e 9b a9 c4 bf 8f a8 cb bf
       0.14682667 0.2474999 -1.536426 -1.5910815
000010 fe be af bd 4c ca 97 3f
       -0.08581351 1.1858611
