figs/default2/mlp_model_dict.pt (torch, 182421 bytes, 8 tensors)

fc1.weight f4 [100, 240]
00000000: 1f7b dabe 23dd d6be 695a ddbe 6232 ffbe
00000010: f20a e2be 40f4 eebe d842 edbe 9db4 a1be
00000020: e9f6 7ebe 3ac3 c5be 44db 06bf 56b5 e6be
00000030: f6d8 eabe da55 dfbe aabc bdbe f192 c7be
00000040: f8c2 f0be c758 f8be 238b fabe 5c30 aebe
00000050: 3b35 debe eabe fabe d98f c2be 5761 c6be
00000060: db09 debe 527a fabe 9a58 0bbf 1c1c d9be
00000070: 6937 dabe be5f f9be 162c 9bbe 9405 7bbe
00000080: 044a 82be b918 febe d96f 00bf 2b53 08bf
00000090: efbb e1be 10be e4be 4cf9 8dbe 0955 f7be
000000a0: 9ce9 0dbf 6b5d e4be df91 f7be 7e4d 94be
000000b0: 1a37 dcbe 76b8 02bf c574 08bf 3ac5 d9be
000000c0: eef3 06bf 68af f3be ee2b 99be 6146 b1be
000000d0: 4fd7 dfbe 83ac f7be b587 a4be 181b d9be
000000e0: 9f6b f0be f869 e9be 7940 06bf 40b4 0bbf
000000f0: 03e2 f9be 6773 07bf b3ca f2be e2f8 dcbe
00000100: 7d37 8cbe cb4e c9be 9ca8 d9be 4fee f7be
00000110: 032a fbbe aced 01bf 7c1f 0ebf 7d58 d1be
00000120: f8c1 fcbe 862f 0dbf 3d12 0abf c83e e1be
00000130: c82b 10bf 21f4 18bf fc1b 0bbf 3be7 09bf
00000140: a7e9 9abb 0192 a2bc fd78 cabb 9521 c13d
00000150: b505 b4be 901f 97be dd11 5cbe 1400 a63d
00000160: 5a1b 70be 5cc3 c8bd 166b 63be 8529 e8be
00000170: 115f a8be 7d9b aa3d c03f af3e 8285 0c3f
00000180: 875b 4b3e ae5f 4abe f57a 25be 247e 06bf
00000190: 1b0d d6be fc78 aabe 99af 3d3e ecc3 413e
000001a0: b6ef c6be 8b64 f6be 4bc4 b8be dc4d b9be
000001b0: 90d2 01be c24e ab3d 9749 7a3e be52 ba3e
000001c0: 09db 51bd 170d 31be 3d15 0dbf 4602 d7bd
000001d0: 104a 5dbe 14e5 c1bd 147d 34bd c0a8 71be
000001e0: ba9b 16be b47a a7be 5b08 ebbe 6da9 aebe
000001f0: d7d5 c8bb 385d d43e bf59 9a3e d62c 863e
00000200: dfae 673e 1aa7 45be 9723 f5be 8c17 ddbe
00000210: c871 c8be ffb3 793c fd6c d0be cacd 4dbd
00000220: 1595 31be 3201 11bf d854 0cbf a3b7 bcbe
00000230: 5c47 28be 3a41 8ebe cfac 86bd e2ec b93d
00000240: efd6 17be 8f16 fbbe 33d5 01bf 2eb8 e8be
00000250: 34e3 e7be 3dee 44be afaf 90be 70f7 13bf
00000260: f4a0 1bbf 7215 0dbf 7f79 f8be 01b3 8ebd
00000270: 8ba9 31be a620 10bd 1980 5c3d 0a12 39ba
00000280: a18e ecbe c9ea 1a3f ad08 94be 834b 8f3e
00000290: 3f57 2c3e 413c 39be 4714 b6bd bb1b 29be
000002a0: 06eb e4be 906f 12bf 968f 2dbf 71f9 9bbd
000002b0: d199 34be 8a6c 28bf 1fba c2bd dceb 193f
000002c0: 3dcb e23d 8873 3ebf a6c1 53be 70ef 7a3e
000002d0: 8efc 4f3e 78a4 f53e ec5d 1abf e193 6cbe
000002e0: 4646 3abe 46dc 13bf a6b7 c6be 8dcb 05bf
000002f0: 2dc1 11bf bb2f 5bbe 49d9 bfbe 860a 3fbf
00000300: 4636 9ebe 8352 663e 3d0d 093f 56e3 e53e
00000310: 011a 01bf c29c 28bf 86a1 00bf faca a4bd
00000320: 5b4a 3abf 0e10 8ebe 5b00 b03e 19e1 fd3e
00000330: d114 e4be 4b1c 08bf 88fd c2be db2a c9be
00000340: b7db 05bf 309d de3d 69b7 45bd e3b8 58bd
00000350: 0a23 86be c94a e5be 6277 d9be 236f 38be
00000360: eb36 fd3e 4ac1 8d3b 4f98 16be 1c2a 34bf
00000370: 810f 09bf 6443 1c3e a7bf 953e 1fb5 b2be
00000380: b52b 213f 457c 103f 7da9 8abe b2a3 9e3e
00000390: b7e6 11bf f1fe 0bbf d63f 08bf 7f12 f2be
000003a0: c48b 163d 071e 07bf 4ef8 483e 1f7c ec3e
000003b0: 10d1 003f 0748 8cbe 52f5 f63e c595 dcbd
000003c0: fb61 d53e 0730 a13e faaa b6be 5577 bb3d
000003d0: 9255 9e3e 39b5 d73e 774a 1b3e b2b7 0bbe
000003e0: 6501 d03e 362a 033f 191d 1abe 9ff4 a1bd
000003f0: 6ee5 7ebe fdb5 b1be b827 afbe 7e22 3fbe
-0.4267206 -0.4196559 -0.4323304 -0.49843127 -0.44148976 -0.46670723 -0.4634006 -0.3158311
-0.24898876 -0.3862551 -0.5267832 -0.45060223 -0.45868653 -0.43620187 -0.37058002 -0.38979295
-0.4702375 -0.48505232 -0.48934278 -0.3402127 -0.43399987 -0.4897378 -0.38000372 -0.3874614
-0.43366894 -0.48921448 -0.5443207 -0.42404258 -0.426204 -0.48705858 -0.30307072 -0.24513847
-0.25447094 -0.49628237 -0.50170666 -0.53251904 -0.44088694 -0.44676256 -0.2772926 -0.48307064
-0.55434585 -0.44602522 -0.48353478 -0.28965372 -0.4301079 -0.51062715 -0.53303176 -0.42533284
-0.5271596 -0.47594762 -0.29916328 -0.34624007 -0.43718955 -0.48373803 -0.32134786 -0.42403483
-0.46957108 -0.4558866 -0.5244213 -0.54571915 -0.48805246 -0.52910465 -0.47420272 -0.43158633
-0.27386084 -0.39317927 -0.4251145 -0.48424003 -0.4905549 -0.50753284 -0.5551679 -0.40887824
-0.49366736 -0.5515064 -0.5393408 -0.4399321 -0.56316805 -0.5974751 -0.54339576 -0.53868455
-0.0047275606 -0.01984501 -0.0061789737 0.094302334 -0.35160604 -0.29516268 -0.2149119 0.08105484
-0.23447934 -0.09802887 -0.22208819 -0.45344177 -0.3288503 0.08330438 0.34228325 0.54891217
0.19859134 -0.19763061 -0.16160186 -0.52536225 -0.41806874 -0.3329543 0.18524016 0.18922395
-0.3885476 -0.48123583 -0.3608726 -0.36192214 -0.1267798 0.08364631 0.24442135 0.36391252
-0.05123428 -0.1729015 -0.5511053 -0.104984805 -0.21610284 -0.09467521 -0.044064596 -0.2359953
-0.14707842 -0.32710803 -0.45904812 -0.34113637 -0.0061290073 0.4147737 0.30146596 0.26206082
0.22625302 -0.19302025 -0.47878715 -0.43182027 -0.39149308 0.015240668 -0.4070815 -0.050245084
-0.17342027 -0.5664245 -0.5481696 -0.36858854 -0.16433471 -0.2778414 -0.065759294 0.09078385
-0.14828084 -0.49040648 -0.5071594 -0.45453018 -0.4529053 -0.19231506 -0.28259036 -0.57799435
-0.6079247 -0.5511085 -0.48530194 -0.06967736 -0.17349832 -0.035187386 0.0538331 -0.0007059878
-0.46202567 0.60514504 -0.2891287 0.27987298 0.16830157 -0.18089391 -0.08890586 -0.16514485
-0.4471056 -0.5720148 -0.6779722 -0.076159365 -0.17636801 -0.6579062 -0.09508156 0.6012552
0.11073921 -0.74395037 -0.2067934 0.245054 0.20311186 0.47977042 -0.60299563 -0.23103286
-0.1819087 -0.57757986 -0.38811988 -0.5226372 -0.5693539 -0.21404926 -0.37470463 -0.7462543
-0.30900782 0.22492413 0.53535825 0.44900006 -0.50430304 -0.65864193 -0.50246465 -0.08046527
-0.7276971 -0.27746624 0.3437527 0.49585798 -0.44547132 -0.5316817 -0.38084054 -0.3929051
-0.52288383 0.10869825 -0.048270617 -0.052910697 -0.26198608 -0.4478362 -0.42473894 -0.18011145
0.49455962 0.0043260204 -0.14706539 -0.70376754 -0.5353928 0.15260082 0.29247782 -0.3490381
0.62957317 0.5643962 -0.27082434 0.30984265 -0.5699267 -0.54685885 -0.53222406 -0.47279736
0.036754385 -0.52780193 0.1962597 0.46188447 0.50319004 -0.27398703 0.4823404 -0.10770754
0.41676316 0.31481954 -0.3567732 0.0915362 0.3092466 0.4213045 0.15165125 -0.13644293
0.40626064 0.51236284 -0.15050162 -0.07907986 -0.24892208 -0.3470916 -0.3420999 -0.18665501

fc1.bias f4 [100]
00000000: a0d0 ffbe 185a a1be a084 c5be ae7d 9bbe
00000010: 97df a6be 7a89 dabe ec47 aebe eecb f5be
00000020: fe14 d8be 9684 d6be 9c1e 97be 6a42 e6be
00000030: 8db6 00bf 2da9 01bf 50ea c1be cff2 1abf
00000040: 266d f7be c7ff 0dbf cd79 e8be 5485 d0be
00000050: c771 02bf d678 e8be f467 28bf b1fa 9bbe
00000060: b4ae 49be ac8f dabe 822b c3be 8076 ddbe
00000070: 0a42 08bf e81a d5be 9da7 20bf 1444 d4be
00000080: b69f 13bf 0a7c edbe 0eda d9be 9af8 ecbe
00000090: 5bc3 02bf d4e1 0dbf d44e e9be a235 0fbf
000000a0: 753b 1bbd cfd9 fdbe 29c2 f4be 1f61 08bf
000000b0: 1bea 13bf 068c 1dbf df33 06bf 4dad e7be
000000c0: 3790 23bf 170b aabe 0075 f0be e6bf cfbe
000000d0: 741f e1be 66e6 b6be bd83 debe bdc5 f5be
000000e0: 2d2b cbbe ff43 12bf a36e 08bf 21c7 c0be
000000f0: 585e 14bf ad92 f3be 7d88 9cbe 7dc3 00bf
00000100: a06d c3be 946c efbe 5be0 5b3e 40a3 4b3e
00000110: 98b1 c2be ec4f c9be 51ea bebe 5813 e9be
00000120: fb40 00bf f559 27bf 3b71 f9be 9cf3 eebe
00000130: 553a f6be dc73 d2be f4d8 f3be 45f6 ffbe
00000140: ddaa d7be dc94 eabe a39a ddbe 5d16 06bf
00000150: 8851 86be c1bb ecbe 7d57 ddbe 6010 07bf
00000160: c097 cabe fbcc c5be a2bc f2be ccbb dcbe
00000170: 2f2b ebbe c1cd 06bf 7981 0fbf 29da 00bf
00000180: df78 f2be 0d75 03bf 6010 d7be b1e8 e9be
-0.49963856 -0.3151405 -0.38577747 -0.30369323 -0.3259246 -0.4268301 -0.34039247 -0.48007149
-0.42203516 -0.4189803 -0.2951554 -0.44972545 -0.5027855 -0.50648767 -0.3787408 -0.60526747
-0.4832546 -0.5546841 -0.45405427 -0.4072672 -0.5095486 -0.4540469 -0.6578362 -0.304647
-0.1969555 -0.42687738 -0.3811913 -0.4325447 -0.5322577 -0.4162209 -0.6275576 -0.4145819
-0.57665575 -0.46383697 -0.42549175 -0.46283418 -0.5107934 -0.5542271 -0.45567954 -0.5594121
-0.0378985 -0.49580237 -0.47804382 -0.53273195 -0.5777909 -0.61541784 -0.524229 -0.45249406
-0.6389193 -0.33211586 -0.46964264 -0.40576094 -0.4396931 -0.35722655 -0.43459883 -0.48002425
-0.39681378 -0.57135004 -0.5329382 -0.37651923 -0.5795646 -0.47572842 -0.30572882 -0.5029829
-0.38169575 -0.46762526 0.21472304 0.19886494 -0.38026118 -0.39318788 -0.37288144 -0.4552257
-0.5009915 -0.6537164 -0.487192 -0.46670234 -0.4809138 -0.4110402 -0.4762646 -0.49992576
-0.42122546 -0.45816696 -0.4328204 -0.52377874 -0.26234078 -0.46236995 -0.4323081 -0.5275936
-0.395689 -0.3863295 -0.4740954 -0.43112028 -0.45931384 -0.52657706 -0.56056935 -0.50332886
-0.47357842 -0.5135048 -0.4200468 -0.45685342

fc2.weight f4 [100, 100]
00000000: 8b1d f7be d184 e03d 57c8 0abf 695e e5be
00000010: 0645 07bf 7c3e 9b3e 35ef c6be 9e2a d7be
00000020: e94b 09bf b168 e23e cb05 28bf 023e afbe
00000030: 63c8 c6be 95c0 c5be c550 d9be d29c 95be
00000040: 70ae e5be d159 0abf 2f89 a3be ebe8 b43e
00000050: 1131 b73e 9ea3 cfbe 3fed 95be e3a9 e7be
00000060: e69a e1be d612 fc3e 2e28 16bf 7a09 09bf
00000070: ed10 f5be 490c f4be 3fea 14bf deb8 c6be
00000080: 0626 1ebf 6ab5 333d 88be e4be 47f5 573c
00000090: 37f7 f7be 6073 06bf 8fb4 dabe ecd3 e33e
000000a0: 4c0b e1be 95ff 01bf 7229 dabe 8982 08bf
000000b0: c95a ffbe 737d c43e 214b e7be e514 07bf
000000c0: a105 1abf d322 fabe 3227 06bf 871c efbe
000000d0: 6071 0cbf 2048 323e b338 ecbe 3925 04bf
000000e0: c804 e1be 6964 dabe 07a1 91be 6b08 fcbe
000000f0: 6c5c f6be a587 02bf 33ce 9839 99f2 08bf
00000100: c31a cabe 4be4 f2be b040 0bbf 76ea 0abf
00000110: 1c63 16bf 6d13 0abf bfeb efbe 8124 f23e
00000120: 3af5 16bf d083 1a3f 48c7 c8be 841f f93d
00000130: f77c 13bf 9ebb ddbe d150 e8be 55c7 6dbe
00000140: e62d e2be 2acc f1be ae2a c8be bff9 f2be
00000150: db82 04bf 019a a6be 6951 e1be e936 3a3e
00000160: 8f23 12bf cc65 b33e 586d f3be 906d c73e
00000170: 5a96 cc3e fc5a babe 5893 01bf 6e2c 0fbf
00000180: d815 f2be 84cf e6be 9159 d3be 68e4 9ebe
00000190: c0fb 9ebe 51d6 b6be a5d9 2d3f c2bc a83e
000001a0: 4236 21be a5bc 04bf e083 ad3e b047 e83e
000001b0: 53e9 8fbd 2aa4 e6be 64f1 fb3e 57bd adbe
000001c0: de10 fcbe f263 9e3d fa29 c73e f9c2 96bd
000001d0: cefe febe 9443 ee3e c492 0d3f f24b 4cbe
000001e0: 3f2b c6be d960 1e3f 32ea d63e c497 2e3f
000001f0: 0f44 f13e 871c e6be 00d5 233f cc6f be3e
00000200: 3c0a a63e 68d3 233e 24d8 08be 38e8 733e
00000210: ba06 94be 5338 0a3f a223 433e d832 043f
00000220: 346a 633d cd12 a9be 336f 3e3e dbc3 133f
00000230: 8b56 6dbe 61c7 e53e 718f 31be 9c42 143f
00000240: 6a06 bb3d 7a9a 76be 9d67 a2bd 79d2 f4bd
00000250: 0e1a 0bbe 2fe5 083f 8c6c 633e 09c2 c5be
00000260: b79c 64be c61e febe 6b51 153f c17a 54be
00000270: e357 253e 06a3 80bc 1361 7b3e 49fe 00be
00000280: b29a 5bbe 2859 dc3e dbd1 f0be 9586 b13d
00000290: 58f7 ca3e 9b12 343e 8331 01bf 0283 0dbf
000002a0: 161d 12bf ca2d 3e3e 30f8 7f3e fae8 fbbe
000002b0: a94f 6dbd 8809 d8be 93f4 58be 900b c93e
000002c0: 34df 6e3e d54a 003e 51eb f93b 9ef0 173e
000002d0: cfde 083f 3d27 c93e a1db 283f 589f f7be
000002e0: 16f1 0c3f f76d 123f 19dd f33e 7928 ddbe
000002f0: b6bb 0e3f 7e5b 97be dbd4 743e 2912 d0be
00000300: 51d7 9ebe 83e6 263d 605e 193f 827d 123f
00000310: da0d 693d e263 15be 69b1 1f3f 1b3a e83e
00000320: 20c6 febe 8177 e3be 8490 1c3f e5cb b4be
00000330: 7872 edbe 77f4 e2be c08b b13e 7635 01bf
00000340: e049 c3be cd76 11bf fad5 0ebe 7ebb f2be
00000350: 05ce f4be 9a86 1bbf 9b4d c7be 1d2d d1be
00000360: a32a ebbe eedc 16bf c096 223f aec8 febe
00000370: b04e f4be 4e47 cbbe 7aa5 fbbe f5c8 dd3e
00000380: f7bd 013f 19b9 bfbe 1d67 0d3f eb1a ff3e
00000390: 2da2 6cbe 3d12 c4be 0438 d3be c07d b8bc
000003a0: 2ee5 ddbe e6d2 e93e 9482 d5be 3646 c7be
000003b0: 6617 f2be 25b7 f0be 7cfd f1be f381 0fbf
000003c0: 3b37 e2be eb9a 7d3e e85f e1be 47c6 8f3e
000003d0: e86b 07bf 50e6 cfbe 1acd dbbe 3f8b 1bbf
000003e0: bf8a 12bf 2b24 0b3f 01ea edbe 4d08 f1be
000003f0: fb9b fdbe ea99 17bf e175 3dbe ccc1 b7be
-0.48264727 0.10962833 -0.54211944 -0.44798592 -0.52839696 0.3032111 -0.38854375 -0.42024702
-0.53631455 0.44220498 -0.6563384 -0.34226996 -0.38824758 -0.3862349 -0.42444435 -0.29221207
-0.44859648 -0.540433 -0.319406 0.35333952 0.35779622 -0.40554518 -0.29282567 -0.452468
-0.4406349 0.4923312 -0.5865506 -0.53530085 -0.47864476 -0.47665623 -0.5816993 -0.38812917
-0.6177677 0.04387418 -0.44676614 0.013181037 -0.48430797 -0.525198 -0.4271588 0.4449762
-0.4395393 -0.5078061 -0.42609745 -0.5332418 -0.4987395 0.3837696 -0.45174506 -0.5276626
-0.6016484 -0.48854694 -0.5240356 -0.46701452 -0.54860497 0.17410326 -0.46137008 -0.516193
-0.4394896 -0.42654732 -0.28443167 -0.49225172 -0.48117387 -0.5098823 0.0002914533 -0.53495175
-0.39473543 -0.474398 -0.5439558 -0.5426401 -0.5874498 -0.5393589 -0.46859547 0.47293475
-0.58967936 0.6035738 -0.3921454 0.12164214 -0.57612556 -0.43307203 -0.45374158 -0.2322057
-0.44175643 -0.47226077 -0.39095062 -0.47456166 -0.5176217 -0.3253937 -0.44007424 0.18185009
-0.5708551 0.35038602 -0.4754436 0.38950777 0.3995846 -0.3639754 -0.50615454 -0.5592717
-0.4728229 -0.45080197 -0.4127927 -0.31033635 -0.31051445 -0.35710385 0.67910224 0.3295651
-0.15743354 -0.5185035 0.33889675 0.45367193 -0.07026925 -0.45047122 0.49207604 -0.33933517
-0.4923162 0.07733907 0.38899213 -0.07361407 -0.49803776 0.46535933 0.5530207 -0.19950846
-0.3870487 0.6186653 0.41975552 0.68200326 0.47122237 -0.4494364 0.6399689 0.3719467
0.32429683 0.15998614 -0.13363701 0.23819053 -0.28911382 0.53992194 0.19056562 0.5164008
0.055521205 -0.33022156 0.18597107 0.57720727 -0.23177545 0.44878677 -0.17339875 0.5791414
0.09132083 -0.24082366 -0.07929919 -0.11954207 -0.13584158 0.53474706 0.22209376 -0.386246
-0.22325407 -0.49632853 0.5832736 -0.20749952 0.16146807 -0.015702736 0.2454875 -0.12597002
-0.2144573 0.4303677 -0.47035107 0.086682476 0.39641833 0.17585222 -0.50466174 -0.5527803
-0.5707563 0.18572155 0.2499702 -0.49201185 -0.057937298 -0.42194772 -0.21187048 0.39266634
0.23327333 0.12528546 0.007626929 0.14837882 0.5346498 0.3928775 0.6596013 -0.48363757
0.5505537 0.57199043 0.47629622 -0.4319494 0.55755174 -0.2956199 0.23909323 -0.40638855
-0.31023648 0.040747177 0.5990963 0.5722276 0.056897976 -0.14588884 0.6238008 0.4535683
-0.49760532 -0.44427112 0.61158013 -0.3531181 -0.46376395 -0.44327137 0.34676933 -0.504722
-0.381423 -0.568219 -0.13948813 -0.4740867 -0.4781343 -0.6075226 -0.38926396 -0.4085473
-0.45930967 -0.5893086 0.63511276 -0.4976248 -0.47716284 -0.3970284 -0.49149686 0.4331738
0.5068049 -0.37445906 0.55235463 0.49825224 -0.2310874 -0.38295165 -0.41253674 -0.0225209
-0.43338913 0.45668715 -0.41701186 -0.38920754 -0.47283477 -0.47014728 -0.47263706 -0.5605766
-0.44182763 0.24766128 -0.44018483 0.2808096 -0.52899027 -0.40605402 -0.42929918 -0.6075935
-0.5724296 0.5435206 -0.46467593 -0.47076645 -0.49533066 -0.5921923 -0.18501998 -0.35890043

fc2.bias f4 [100]
00000000: 6691 143e 0e54 02bf 4bc8 febe 9268 b6be
00000010: e53b 953d e134 d8be 716b b7be e3ca 4b3d
00000020: 79e2 f0be a6d3 983d ad2b b0be 50f9 a13c
00000030: 6b88 fdbe dd8b f9be eddc f4be e959 003f
00000040: 9624 0f3e 5bfa ccbe 773c f8be 501e c3be
00000050: 09ea 00bf 4b9c 98be 6846 5cbe 820b 00bf
00000060: 3346 08bf 5684 05bf 6794 cdbe 5bcf 96be
00000070: 551a 683e b50a 823e fd7b 18bf 6c0e 05bf
00000080: 62b1 b3be c630 d2be 2c42 f4be d122 203e
00000090: ec2c c4be 0294 173e 5b6c ad3e c0e1 f8be
000000a0: 2ded 143f bad7 183e d85f ddbe ef37 dbbe
000000b0: 2360 4dbd c359 dabe 8cdd 853e 0139 0abf
000000c0: 210b 17bf 4720 eebe b946 abbe a110 cdbe
000000d0: 49fb cabc 12d2 443d 955f c0bd a5eb ecbe
000000e0: cae2 aabd 9b0d e9be fae1 cabe 0e10 683e
000000f0: 241c d0be 1cfc d9be 0e53 9abd b058 11bf
00000100: 6b4b e6be 6d46 d2be a302 813d 53e7 b1bd
00000110: 9bb6 ccbe f75c f0be 2756 03be dd70 f63e
00000120: 24ad fbbe 4658 0bbf 13f0 10bf 4dd1 d7be
00000130: 6db7 06bf 891e f7be ea96 d93e 86b2 03bf
00000140: 6718 0fbf aabd 1abf 321a 95be 5d4d d5be
00000150: 00c4 b6be 057e fcbe 1967 cebe b9b1 d8be
00000160: 44ad a3be de96 a03e 8b00 2e3e dac6 d9be
00000170: 93f1 ab3e cbdf f03e 2c13 b1be 56a4 b03e
00000180: 1c8b 0ebf 7ac7 0ebf 59c0 dfbe 475a d1be
0.1450859 -0.5090951 -0.49762186 -0.35626656 0.072868146 -0.42227843 -0.3582416 0.049754035
-0.47047785 0.07462244 -0.34408322 0.019772202 -0.4951814 -0.4873952 -0.47824803 0.5013719
0.139788 -0.40034756 -0.4848363 -0.38109064 -0.5035711 -0.29806742 -0.21511233 -0.5001756
-0.53232116 -0.52155054 -0.40152285 -0.29455075 0.22666295 0.25398794 -0.5956419 -0.5197513
-0.3509627 -0.41052836 -0.47706735 0.15638281 -0.38315523 0.14802554 0.3387173 -0.48609734
0.581744 0.14926043 -0.43237185 -0.4281611 -0.05014051 -0.42646608 0.2614559 -0.5399323
-0.59001356 -0.46509 -0.33452395 -0.4005175 -0.024778025 0.0480519 -0.09393231 -0.46273533
-0.08344038 -0.45518193 -0.3962553 0.22662374 -0.4064647 -0.42575157 -0.07535373 -0.5677595
-0.44979414 -0.41069356 0.06299331 -0.086867 -0.39983067 -0.46945927 -0.12825833 0.48132983
-0.49155533 -0.5443157 -0.56616324 -0.4215187 -0.52623636 -0.48265484 0.4249795 -0.5144428
-0.5589661 -0.60445654 -0.29121548 -0.41660586 -0.3569641 -0.49314895 -0.40313032 -0.42323092
-0.3196813 0.31365103 0.16992395 -0.42534524 0.33582744 0.4704574 -0.3458494 0.34500378
-0.55681014 -0.5577313 -0.43701437 -0.4088919

fc3.weight f4 [100, 100]
00000000: 01cf 17bf 6d6d bbbe 9b7d 0a3f 88ab 94be
00000010: a0dc 52be 5304 14bf d3f2 fdbe 30b8 e3be
00000020: 9597 e4be 9297 8bbe 332b 06bf 91d0 d2be
00000030: 3566 abbe 4ca3 e9be 3f69 b1be 64e6 d2be
00000040: a7e0 16be f118 073f 4d24 0bbf db6a 883e
00000050: b1f1 21bf 45d4 00bf 6623 a5be 6397 d5be
00000060: 9b23 e43e c8d0 dc3e 0a51 c3be ae9c acbe
00000070: 3684 b1be 4755 c7be fced 193f 9646 113f
00000080: 8329 d3be 1bff aabe 0b5a ad3e ae6b 94be
00000090: 0768 39bd ce9b bdbe 211a b0be 7e8a 7dbe
000000a0: dc1f 66be 35af 96be fbb9 00bf 7928 fb3e
000000b0: ba64 8dbd a094 d2be 973b 9dbe e65b 0e3f
000000c0: f156 e83e 0332 503e ca9c 6fbd 55ce c6be
000000d0: 1633 e63e 433d 693e b3a7 b7be 80f5 c5be
000000e0: 6107 cdbe 5287 dd3d 6414 c2be 4690 f5be
000000f0: f8f0 8bbe 1de4 d53e 4ffb 01bf 7ae4 133f
00000100: 8094 b5be a31a b7be ee76 febe aee0 41be
00000110: 3b50 e3be 1e0f e9be 2f34 cebe 024d bdbe
00000120: 1bbf eb3d c545 f9be 8404 173f 8466 acbe
00000130: 8a42 ff3e 599f d4be 7c1e cdbe 85c1 febe
00000140: 8227 95be cbe5 033f 7bbf b9be 5632 02bf
00000150: 50a9 eabe eecb e83e 5b8a f3be 1039 ec3e
00000160: c19d ddbe fc50 11bf 4ece d5be 2717 b13e
00000170: f608 e1be 0d71 47be 0f8a e83e 8974 abbe
00000180: 77d1 dd3e 2c48 de3e 5fbd 00bf 3b11 d0be
00000190: 4cd6 bcbe fe3a a33e 5507 df3e 735a 033f
000001a0: b271 f8be b600 f33e 4033 7fbe e0c4 aebd
000001b0: f59f ef3e f896 e0bd c1c9 003f 4cdc 073f
000001c0: cadc f23e 4a90 fb3e 134f 193f eafa ddbd
000001d0: c0f6 193f 28a2 083f c8a2 82be 4597 d53e
000001e0: 36a8 c1be 5b0c 19bf df4c 143f f5bc dc3e
000001f0: 4850 df3e 93ee 083f b73b 093f 9d11 0bbf
00000200: 5b62 1cbf 84a0 b3be 8fd5 db3e 68f2 f23e
00000210: 8771 f93e fba4 ac3e ae62 d93e 3964 e1be
00000220: 38b0 f0be dded 06bf 6ee7 c9be d40f 25be
00000230: 7872 a4be 0dbf 923e 4e0e 8abe 2e09 f03e
00000240: f18a 5ebd 36cf 023f 9ff6 14bf fbb5 033f
00000250: 2323 0e3f 6ee8 ca3d a820 94be 32d5 ff3e
00000260: 8c5a 083f 092e cf3e 81e3 babe b8b6 fb3e
00000270: 6efa b03e 6508 053f 780a d63e 982c df3c
00000280: cd74 46bd f974 9a3e f3bd 14bf 9167 043f
00000290: 3974 7dbe 00e3 07bf 9b91 a83e be4e 67be
000002a0: 2f85 023f 0ae2 adbe 96dc b53d 0e03 b03e
000002b0: f785 c4be 70f3 193f 2856 07bf a49d 003f
000002c0: 5788 fb3e f1ba 46be c835 923e 0d3b 593e
000002d0: 7257 fcbe dee9 133f c0cc dabe d984 e1be
000002e0: 0c62 db3e 4bce 003f 1130 0cbf 684e adbc
000002f0: b7bc b7be 69e1 0bbe 1934 1cbf c0f1 173f
00000300: 9364 e13e 7232 0fbf 16e4 0fbf 387b ebbe
00000310: a3d3 d23e 353b 173f 95a8 06bf 76d8 f9be
00000320: dbca fbbe de43 10bf f452 a0be a268 1ebf
00000330: 94d3 efbe 9f2c d0be 8960 cc3e 3691 b7be
00000340: 8c0b f4be 6fd1 9e3d ff15 e73e 5e3f c1be
00000350: 7e57 0ebf ad3e febe a142 f5be 80f6 b7be
00000360: d70b dcbe 92fc a2be 6e79 f13e f63e cd3e
00000370: e708 d1be e4c4 f63e 88c4 debe cab8 f7be
00000380: e591 08bf 32cb 12bf 9045 f63d 1560 0fbf
00000390: 734b cabe 52a2 bdbe 5a3e dbbe 49f0 15bf
000003a0: 93e5 16bf 8054 0bbf 6109 02bf c2e2 d5be
000003b0: d11a c43e 5d4a 9fbe 228a bfbe 6826 d6be
000003c0: f0e5 f7be 5f0f 12bf fe93 ff3e ba68 04bf
000003d0: f6fb babe 80b8 c7be 1b6b bfbe 5020 1abf
000003e0: 6f1d fbbe f921 febe 3cb7 16bf cf20 85be
000003f0: 04fb b63e 656b d13c 62e1 b83e 4308 453e
-0.5930024 -0.36606923 0.5409791 -0.29037118 -0.20591974 -0.578191 -0.49599323 -0.4447646
-0.44646898 -0.27264076 -0.52409667 -0.4117475 -0.33476415 -0.45632398 -0.3465061 -0.411914
-0.14734136 0.5277243 -0.54352266 0.26644024 -0.63259417 -0.503239 -0.3225357 -0.4171706
0.44558415 0.43128037 -0.38147765 -0.33713287 -0.3467118 -0.3893225 0.6012876 0.5674833
-0.41242608 -0.33397755 0.3385776 -0.28988403 -0.045265224 -0.37032932 -0.34394935 -0.24759862
-0.22473091 -0.29430547 -0.50283784 0.49054316 -0.06903978 -0.41129017 -0.30709526 0.55608976
0.4537883 0.20331578 -0.058499135 -0.38829294 0.4496085 0.22777276 -0.35870132 -0.38663864
-0.40044692 0.10816826 -0.37906182 -0.47961634 -0.27332282 0.417756 -0.5077409 0.577705
-0.3546486 -0.3576251 -0.4970011 -0.18933365 -0.44397148 -0.45519346 -0.40274188 -0.36972815
0.1151106 -0.48686042 0.58991265 -0.33671963 0.49855453 -0.41527823 -0.4006232 -0.4975702
-0.29131705 0.5152251 -0.362789 -0.50858057 -0.458323 0.45468086 -0.47566494 0.46137285
-0.4328442 -0.567642 -0.4175896 0.34587976 -0.4395215 -0.19476719 0.4541783 -0.33487347
0.43323871 0.43414438 -0.5028896 -0.40638146 -0.36882246 0.31880945 0.4356028 0.5130989
-0.48524243 0.4746148 -0.24921894 -0.08533645 0.46801725 -0.10966295 0.5030785 0.5307052
0.47434074 0.4913352 0.5988628 -0.10838874 0.60142136 0.5337243 -0.25514817 0.41716972
-0.37823647 -0.5978448 0.57929796 0.43112913 0.43615937 0.53489035 0.5360674 -0.5432375
-0.6108758 -0.350834 0.4293637 0.47450566 0.48719427 0.3371962 0.424581 -0.44021776
-0.47009444 -0.527067 -0.3943438 -0.16119319 -0.32118583 0.28661385 -0.2696404 0.46882004
-0.054331724 0.5109743 -0.58188814 0.51449555 0.55522364 0.09907614 -0.28931165 0.49967343
0.53263164 0.4046481 -0.36501697 0.4916284 0.34566063 0.51965934 0.41804862 0.027242944
-0.048451234 0.30167368 -0.5810234 0.5172053 -0.24751367 -0.5308075 0.32923588 -0.22588632
0.5098447 -0.33961517 0.08879964 0.3437733 -0.38383457 0.6013708 -0.5286584 0.5024054
0.49127457 -0.1940725 0.28556657 0.21213932 -0.49285465 0.5777873 -0.42734337 -0.44046667
0.4284824 0.5031478 -0.54760844 -0.021155551 -0.35886165 -0.13660206 -0.61016995 0.59353256
0.44022045 -0.5593635 -0.56207407 -0.45992446 0.4117709 0.5907472 -0.52600986 -0.4879796
-0.49178204 -0.5635356 -0.31313288 -0.61878407 -0.4684111 -0.40659043 0.399174 -0.35852975
-0.4766506 0.0775479 0.4513397 -0.37743658 -0.5560225 -0.49657193 -0.47902396 -0.35930252
-0.42977783 -0.3183332 0.47162956 0.40087098 -0.40827104 0.4819709 -0.43509316 -0.4838317
-0.5334762 -0.573413 0.12024987 -0.56005985 -0.39510688 -0.37037903 -0.42821008 -0.5856977
-0.5894405 -0.5442581 -0.5079556 -0.41774565 0.3830171 -0.31111422 -0.37410074 -0.41826177
-0.48417616 -0.57054704 0.49917597 -0.517223 -0.36520356 -0.3900795 -0.37386402 -0.60205555
-0.49045894 -0.49635294 -0.58873343 -0.26001593 0.35738385 0.025563905 0.36109453 0.19241433

fc3.bias f4 [100]
00000000: e6cf 0e3f 09ac 203f 416c c3be 04c6 30bf
00000010: b76d b23e 91b3 0d3f 0a25 233f a3dd ff3e
00000020: 2d06 e2be f378 9ebe 7f42 01bf 934c 18bf
00000030: 2f5b a2bd 3d87 03bf 2688 363d b9e9 11bf
00000040: 5a8c e6be 9916 f13e f24a 143f 6e03 0d3f
00000050: d0da abbe 9b61 c8be b594 f7be cac0 10bf
00000060: cdb0 1e3f 893c 05bf de3a b63e b335 ed3e
00000070: 01be 03bf 2da1 123f 5788 99be 0ba0 08bf
00000080: 14ef cdbe fa1b 00bf 1b86 18bf c55c edbe
00000090: 27e6 0fbf 57e9 2abe 16d4 edbe 0941 acbe
000000a0: cf10 f33e c900 fdbe 7da1 08bf c477 cbbe
000000b0: 405c 0e3f 0fda 03bf fe1c d03e 1d34 3a3e
000000c0: fd7b 09bf 5f45 0ebf ed15 92be 391c 073f
000000d0: 5d63 8c3e a77a eabe ee50 fdbe 15f9 10bf
000000e0: f911 f3be 6839 e5be e6c2 0ebf 8b92 083f
000000f0: 3f1c dbbe 6f0a e83e b906 213f c431 03bf
00000100: 15b8 353f fd00 dc3e 8483 efbe 06e2 17bf
00000110: 7106 d73e 5f25 0e3f ff2d e83e 9fbf 333f
00000120: 6962 1e3f a2a7 c3be b959 da3d 5859 18bf
00000130: a877 dcbe 29bd fdbe ca90 d6be f136 05bf
00000140: 7929 933e ae14 fabe cef7 dd3e 7a7b 1c3f
00000150: 160f 96be d5a8 8ebe 463b dabe ecde dbbe
00000160: 70be 0dbf 1444 11bf 5388 0b3f da4b e6be
00000170: a43a 4abe be33 fcbe 4b3d 0c3f 4c2c d63e
00000180: d346 05bf 058f 06bd 6f9e d7be 9dcd 203f
0.5578598 0.62762505 -0.3816853 -0.6905215 0.3484933 0.5535212 0.6372839 0.49973783
-0.44145337 -0.30951652 -0.5049209 -0.59491843 -0.07927548 -0.5137823 0.044563435 -0.5699726
-0.45028955 0.47087553 0.5792686 0.5508336 -0.33565378 -0.39136967 -0.48355642 -0.5654417
0.61988527 -0.52045494 0.35591787 0.46330032 -0.514618 0.57277185 -0.29986832 -0.53369206
-0.40221465 -0.5004269 -0.5957963 -0.4635984 -0.5621056 -0.16690575 -0.4645087 -0.33643368
0.4747376 -0.49414662 -0.5337141 -0.3973981 0.5560951 -0.51504606 0.4064712 0.18183942
-0.53704816 -0.555746 -0.28532353 0.5277744 0.27419558 -0.457967 -0.49475807 -0.5663007
-0.4747465 -0.4477036 -0.5576614 0.53348607 -0.42794988 0.4532046 0.6290088 -0.5124781
0.7098401 0.42969504 -0.46780026 -0.5932926 0.41997102 0.55525774 0.45347592 0.70214266
0.6186891 -0.3821383 0.106616445 -0.5951133 -0.4306004 -0.4955838 -0.4190734 -0.5203696
0.2874258 -0.48843902 0.43353122 0.6112591 -0.29308385 -0.27863184 -0.42623347 -0.42943513
-0.5536871 -0.56744504 0.5450489 -0.44979745 -0.19748932 -0.49258226 0.54781026 0.4183067
-0.52061194 -0.032851238 -0.42113063 0.6281374

fc4.weight f4 [6, 100]
00000000: aaca eb3e 3a51 9f3d ced2 b0be 6074 13be
00000010: 9bd2 9b3e 950f 8f3d d7c7 fcbd 19d4 2d3e
00000020: 84d8 efbe df80 d53e 134d d53e 4fce 16bf
00000030: 15e8 32bf b85d ffbe eb14 853e bb36 0abf
00000040: c469 c4be eef8 a83e be33 03bd 2436 da3e
00000050: 82b8 843e af31 903e cf60 cbbe 480a 923e
00000060: 9825 233e fb2f 01bf a165 e8be 45d4 0cbe
00000070: 8664 04bf 3cc0 2f3e f0c7 be3e 3cac cdbe
00000080: e79f cfbe a54b 0bbf aa8e ddbe 5572 edbe
00000090: 69d5 04bf 3fcc 113e f2df b33e a1f9 98be
000000a0: fa0b af3e 24b1 14bf 51c7 e7be 5f6e a83e
000000b0: c35a fd3e 7502 e0be 41a8 e33d 6b4b 433e
000000c0: 4438 ffbe 16f3 d1be bda0 b5be 4823 993d
000000d0: 7b1f 203d 604c 063f 7fb2 013f c6c4 ed3e
000000e0: 64a4 ffbd a13d 79bd c2bf fa3e ef8b e7bc
000000f0: f9fc debe 472d df3e 68df d13e 25ec d2be
00000100: a9e6 113f 3416 e33e d34e 99be 2a4e db3e
00000110: ec99 91be 754c 013f 5302 2b3e 287d b73e
00000120: 8b21 ee3e 7a74 fbbe f2a2 0c3e 3137 ddbe
00000130: 53af 07bf b880 ae3e 3253 d93e c59e f4be
00000140: fb0e c93e 431a 063f b684 ac3e 4a01 0b3f
00000150: eb39 36bf dddc 75be 97b3 c33e 4287 f1be
00000160: 3df4 02bf 08c2 15bf b6db da3e cf82 dbbe
00000170: 4e5d 903e 3128 77be bfc1 81bd f4c6 933e
00000180: d4eb 16bf 6459 ca3e b4cf 06bf 6363 a13e
00000190: aa92 d7be 13c4 d33e 211a a03e 027a ecbd
000001a0: c64e 593e 5eae febe 7693 16bf eaff bd3e
000001b0: 7030 e73e 91e8 b4be d493 d1be bae2 e03e
000001c0: 1d35 e4bc 2d14 d43e 0545 db3d 49bc d33e
000001d0: de9f 76be 8403 0fbe 25cf 1cbf b7db 1bbf
000001e0: ca52 163e 0465 3fbe e301 0a3f 679d f8be
000001f0: 076f 0f3f e790 f53e d16a d03e 33c5 0dbf
00000200: 3919 d93e a434 993e f4ff 42bc 59ba d73e
00000210: b63d ec3e bcac ee3e bde9 cf3e c5ba de3e
00000220: 669d e83e 106b 8e3e a549 203e 64dc 7dbe
00000230: 0e6e c5bb 26e7 423e dd61 7c3d 44f2 e4be
00000240: 0512 fdbe 3856 013f b182 173e fe63 a83e
00000250: 3f95 d83e 984f ff3e 282b c8be 5bf9 debe
00000260: 1933 1ebf 8c11 02bf f608 fbbe 5d6f 0abf
00000270: 5fea 8fbe 6f10 16be 74e2 b6be 9437 0cbf
00000280: 47a7 b3be 5e93 f7be 1bad d03e d4e1 d83e
00000290: fc68 e93e fd29 a2be 17d6 113d 5106 ccbe
000002a0: c2a2 db3e 7514 ffbe 20fd bfbe 91fc d53e
000002b0: 93bc 0bbf 58e3 eb3e 828c 05bf afb9 e23e
000002c0: ab0a ca3e f509 6dbe 6abe e2be 70c0 cc3e
000002d0: 1494 d6be fbc2 e3be c408 bc3d c1e4 12bf
000002e0: be06 31be 2384 523e 941a 68be 3589 ed3e
000002f0: 5542 de3e 37eb de3e 49bf 11bf 9369 d33e
00000300: 209a 413e 28bc 973e 75bf 13bf a282 05bf
00000310: 2565 d03e 2bb2 433d 4345 f73e d1fb 0ebf
00000320: 4932 16bf a06d 13bf ecb1 09be 9661 39bf
00000330: bac3 0ebf 21f3 f6be bab2 383e 1d23 b93e
00000340: 8b43 f1be 7e7c de3e 7c42 093f 40f8 06bf
00000350: 9a09 013f 4700 06bf ee86 073e 1ff5 febe
00000360: 4b0a 043f c22f 09bf 4896 393e 02dd ebbe
00000370: d907 9c3e 509c ff3e 6c08 e7be 8ea7 f13e
00000380: 31f6 13bf 30a8 e1be 3cf2 ca3e 3fb1 42be
00000390: 751f e3be db18 013f 54cf 17bf 9c77 00bf
000003a0: fb9c febe bd1b d8be a850 f1be a02b 08bf
000003b0: 559d efbe fb33 f6be 0511 96be 3df6 13bf
000003c0: effc 98be d21c e63d f41e 15bf 1cc3 083f
000003d0: 212d 15bf c2a3 07bf 4b6b 68be 3f3e 1ebf
000003e0: df3b 09bf d779 d2be de7b 04bf 52bf f3be
000003f0: d830 1cbf b5ff 05bf 51e2 a1bd c61a d53e
0.46053058 0.077791646 -0.3453583 -0.14399862 0.30434117 0.06985394 -0.12342804 0.1697544
-0.46844876 0.41699883 0.41660365 -0.5890855 -0.6988538 -0.4987619 0.25992522 -0.5398976
-0.38361943 0.33002418 -0.032031767 0.4261943 0.25922018 0.28162906 -0.39722297 0.2852347
0.1593231 -0.5046384 -0.45390037 -0.1375285 -0.51715887 0.17163175 0.37261915 -0.40170467
-0.40551683 -0.544123 -0.43272907 -0.4637629 -0.5188814 0.1423807 0.35131794 -0.29877952
0.34188825 -0.58082795 -0.45269254 0.32896706 0.49483308 -0.43751875 0.11116076 0.19071738
-0.49847615 -0.41005772 -0.35474196 0.074774325 0.039092522 0.5246029 0.5066299 0.4643919
-0.12482527 -0.06084979 0.48974425 -0.028264968 -0.43552378 0.4358923 0.40990758 -0.4119579
0.56992584 0.44352877 -0.2994295 0.42833072 -0.28437746 0.5050729 0.16700105 0.35837674
0.46509966 -0.49112302 0.13734034 -0.4320617 -0.530019 0.3408258 0.42446285 -0.47777382
0.39269242 0.5238382 0.33695 0.5429884 -0.71182126 -0.24010034 0.38222954 -0.47173506
-0.5115393 -0.58499193 0.4274575 -0.42873237 0.28196186 -0.24136426 -0.06335782 0.28862727
-0.58953595 0.39521325 -0.5266068 0.3152114 -0.42104083 0.4136053 0.31269935 -0.11546709
0.21221456 -0.49742407 -0.5881876 0.3710931 0.45154142 -0.35333684 -0.40933096 0.4392298
-0.027857358 0.41421643 0.10706524 0.41354588 -0.24084422 -0.13966185 -0.6125358 -0.60882133
0.14680019 -0.18690878 0.5390913 -0.48557588 0.5602879 0.47962114 0.40706494 -0.5537903
0.42402056 0.29922974 -0.011901844 0.4213436 0.46140832 0.4661616 0.40608016 0.4350187
0.45432585 0.27816057 0.15653093 -0.24791104 -0.0060250824 0.19033489 0.061616767 -0.44716084
-0.4942781 0.50522184 0.14795949 0.32888788 0.42301366 0.49865413 -0.39095426 -0.43549618
-0.6179672 -0.50808024 -0.49030274 -0.54076177 -0.28108498 -0.14654706 -0.35719645 -0.54772305
-0.3508856 -0.4835462 0.4075707 0.42359793 0.4558791 -0.3167266 0.035604563 -0.3984857
0.42897612 -0.49820295 -0.37497807 0.41794255 -0.54584616 0.46071887 -0.5216752 0.4428229
0.39461264 -0.2314833 -0.442859 0.39990568 -0.4190985 -0.44484696 0.091813594 -0.573803
-0.17287728 0.20558219 -0.22666389 0.46393743 0.43409982 0.4353883 -0.56932503 0.41291484
0.1890645 0.2963574 -0.57714015 -0.52152455 0.40702167 0.047777336 0.4829503 -0.5585299
-0.5867048 -0.5758915 -0.13446778 -0.7241453 -0.55767405 -0.48232368 0.18036929 0.36159602
-0.47121844 0.43454355 0.5361707 -0.5272255 0.50405276 -0.52344173 0.13235065 -0.49796388
0.51578206 -0.535885 0.18123734 -0.46067053 0.30474737 0.49923944 -0.45123613 0.47198147
-0.57797533 -0.4407363 0.39637935 -0.19012927 -0.44359937 0.5042855 -0.5930073 -0.5018251
-0.49729142 -0.42208663 -0.47131848 -0.53191566 -0.46799722 -0.48086533 -0.2930986 -0.57797605
-0.29880473 0.11235966 -0.58250356 0.53422713 -0.58271986 -0.5298425 -0.22697179 -0.6181373
-0.5360698 -0.4110858 -0.51751506 -0.47606903 -0.6101203 -0.523433 -0.079044946 0.4162199

fc4.bias f4 [6]
00000000: 7539 e4be 2107 2c3e 5aeb 17bf 3e96 e9be
00000010: aae0 ebbe aaf9 023f
-0.44575086 0.16799594 -0.59343493 -0.45622438 -0.46069843 0.5116221
