figs/random-sampler/mlp-weighted/mlp_model_dict.pt (torch, 141967 bytes, 10 tensors)

group.0.weight f4 [100, 100]
00000000: 8279 99bf 932f b7bf 68a6 8ebf ed73 a9bf
00000010: 120e 81bf 16a2 673f 77a0 a0bf af0d 7bbf
00000020: 7f52 a4bf fc0e a6bf c521 4bbf b2b0 89be
00000030: 37af 97bf 4b3b 9ebf 931a b0bf dd16 9bbf
00000040: 16d1 adbf 4e7e 123d 1dd0 8bbf 4d6a 80bf
00000050: 5af7 5fbf 631e b0bf 6e0d 50bf 4f32 593f
00000060: 4400 0fbf 2662 9abf 3cb8 50bf 9f30 a8bf
00000070: 0087 44bf 6b16 36bd 95b6 f53e 1c52 923f
00000080: 140f 5b3f 6ef6 a0bf b1d0 85bf ac62 88bf
00000090: 37ec 8a3f 92a2 20bf 8aa3 84bf c358 9abf
000000a0: 76ae 34bf dac1 25bf fc1a 62bf b828 a6bf
000000b0: 97c0 9cbf 4f40 a4bf 341b 8cbf 0792 813f
000000c0: abaa 623f bf2a 86bf da8b 9fbf 1825 a4bf
000000d0: bec5 fdbd 2fea 9cbf d599 22bf c4b7 a5bf
000000e0: deaa a23f 12a1 b4bf 4358 85bf 15ce 9fbf
000000f0: 981d adbf 5bb7 2a3f a224 2f3e 2bd9 b7bf
00000100: 37c6 b1bf 723b 26bf 037c 17bf 62a1 f6be
00000110: 27de a7bf 6027 99bf c1f6 10bf dc7d 91bf
00000120: 292b 9dbf ca38 69bf 60b8 adbf 2530 99bf
00000130: 31b1 54bf 81b1 9dbf 8c74 9ebf 4484 8bbf
00000140: 3606 1ebf 37e5 9fbf f3bc b5bf bea7 103f
00000150: 7b22 2cbf e91f 0dbf aefc 3abf 1bd4 44bf
00000160: 0d05 adbf 1994 99bf cb28 99bf a00c c6be
00000170: c906 b8be cf97 893f 0184 32bf 9eab 823f
00000180: 7adf 94bf 56d5 933e 55f6 92bf 968a 973f
00000190: 4b2c 4abf 731a 93bf 4421 67bf 59f8 98bf
000001a0: e7ed a2bf b325 7cbf 6879 9bbf 49bc 86bf
000001b0: 6f5e a9bf 0bc4 9bbf 96f7 8fbf bed2 99bf
000001c0: a44f b4bf 779b adbe eea8 ae3f bffc 83bf
000001d0: 0b8f 8bbe 4eee 96bf 3f4e c83d d647 a8bf
000001e0: 543c 97bf 3a1e 98bf c6f0 aebf 8f3a 8fbf
000001f0: ba34 b1bf 26f8 773f de8f 9cbf 5e37 77bf
00000200: 06d2 99bf 8e52 96bf da96 953f 9d1e 94bf
00000210: 9264 92bf a1ad a3bf dad4 b2bf 9322 9abf
00000220: 0ca2 a2bf 3344 a1be 34bb 92bf 4b08 65bf
00000230: 80bb 8fbf 3429 87bf c1c3 a3bf 3a0c b3bf
00000240: 5b4a 9f3f 914c 77bf ec30 9abf 35f9 a7bf
00000250: 8d14 92bf 7bc3 a7bf 69a6 85bf f1c4 9dbf
00000260: 267d 8dbf 80ce 9e3f e469 933f 6ba6 83bf
00000270: 5835 aebf f92e ebbe 9ef6 97bf a816 423f
00000280: d770 89bf fed2 abbf de2b a3bf f1a9 9abf
00000290: a5bd a5bf a569 a3bf 981f acbf 3f4b babf
000002a0: 34af b1bf 0591 a3bf 759e 96bf 7108 833f
000002b0: 2934 a0bf 4f69 1cbf ab10 9cbf fc46 96bf
000002c0: 62ff 2cbd 3ed7 9bbf be0d 92bf 4633 a23f
000002d0: fb49 a6bf c151 8cbf c238 9ebf 21f2 8fbf
000002e0: 1673 98bf 44bc 9dbf 55c7 9bbf e839 9dbf
000002f0: 8652 aabf f3a2 963f 74e2 91bf 99e5 93bf
00000300: fd8f a2bf 32d2 943f 1397 9dbf e139 a3bf
00000310: 36c6 8c3e 312e abbf 0b03 9cbf 4694 9bbf
00000320: bc07 b1bf b8f8 3ebf d353 7a3f 06bc 9fbf
00000330: 4a99 8fbf 2c7b 51bf 2b2b 83bf a223 2ebf
00000340: 22c8 afbf c87f b0bf fd17 8fbe 0678 a1bf
00000350: 298a a3bf 2eb9 9ebf 2f22 91bf 0104 7cbf
00000360: 6d31 b7bf b712 933f 6684 9ebf 8963 a7bf
00000370: a47c 86bf 16f0 72bf d322 aabf b1bd 46bf
00000380: 81b3 adbf 7568 b5bf c41d b9bf a4f6 99bf
00000390: 4659 543f 3ae6 9fbf c438 d1be e95f a1bf
000003a0: 7b7d a1bf 401f 65bf 2017 8ebf dd2b 873f
000003b0: 3328 2bbf 0698 aabf 889b 96bf cfff 9e3f
000003c0: 45f4 7cbf fd37 4cbf 2d49 a2bf 6f90 8fbf
000003d0: 0b5e 7c3f 397a a2bf 316e a2bf e563 a33f
000003e0: 1e84 2dbf b90f 66bf cbb9 923f 30b1 a0bf
000003f0: 57b1 8d3f 2659 97bf 6a4c a93f 6150 a4bf
-1.1990206 -1.4311393 -1.1144533 -1.3238503 -1.0082419 0.904817 -1.254897 -0.98067755
-1.2837676 -1.2973323 -0.79348403 -0.2689262 -1.1850346 -1.2361845 -1.375811 -1.2116352
-1.3579433 0.035764985 -1.0922886 -1.003244 -0.87486804 -1.3759273 -0.8127049 0.8484239
-0.5585978 -1.2061203 -0.8153112 -1.3139838 -0.76768494 -0.044454973 0.47990862 1.1431308
0.8556988 -1.2575204 -1.0454313 -1.0655112 1.0853337 -0.6274806 -1.0362408 -1.2058338
-0.70578706 -0.6474892 -0.88322425 -1.2981176 -1.2246274 -1.2832125 -1.0945802 1.0122689
0.8854167 -1.0481795 -1.2464554 -1.282382 -0.12391232 -1.2258967 -0.6351598 -1.2946706
1.2708395 -1.4111655 -1.041756 -1.2484766 -1.3524656 0.6668603 0.17103818 -1.436315
-1.3888615 -0.64934456 -0.591736 -0.4817 -1.311467 -1.1965141 -0.56626517 -1.1366534
-1.2278796 -0.9110228 -1.3571892 -1.1967818 -0.8308287 -1.2319795 -1.2379317 -1.0899739
-0.6172823 -1.2491826 -1.4198288 0.56505954 -0.67240113 -0.55126816 -0.7304181 -0.7688615
-1.3517166 -1.1998321 -1.1965574 -0.38681507 -0.35942677 1.0749453 -0.6973267 1.0208623
-1.16307 0.288737 -1.1481425 1.1839168 -0.78973836 -1.1492447 -0.90285134 -1.195079
-1.2728852 -0.98495024 -1.2146425 -1.052621 -1.3231944 -1.2169203 -1.1247432 -1.2017438
-1.4086804 -0.33907673 1.3645303 -1.0311507 -0.2725757 -1.1791475 0.09780549 -1.3146923
-1.1815286 -1.1884224 -1.3667228 -1.1189746 -1.3844216 0.9686302 -1.2231405 -0.9656886
-1.2017219 -1.1743944 1.1686661 -1.1571842 -1.1436942 -1.2787362 -1.3971207 -1.2041801
-1.2705703 -0.31497344 -1.146338 -0.8946578 -1.1229095 -1.0559449 -1.2794114 -1.3988106
1.2444566 -0.96601206 -1.204618 -1.3122927 -1.1412522 -1.3106531 -1.0441409 -1.2325727
-1.1053817 1.2406769 1.151669 -1.0285162 -1.3610029 -0.45934275 -1.1872137 0.7581582
-1.0737561 -1.3423765 -1.2747762 -1.2083112 -1.29485 -1.2766615 -1.3447142 -1.4554213
-1.3881593 -1.2778631 -1.1767107 1.0236951 -1.2515918 -0.6109819 -1.2192587 -1.1740413
-0.04223574 -1.2175062 -1.1410444 1.2671897 -1.2991327 -1.0962449 -1.2361071 -1.1245767
-1.1910121 -1.2323079 -1.2170206 -1.2283297 -1.3306434 1.1768478 -1.1397233 -1.1554443
-1.2700192 1.1626647 -1.2311729 -1.2752038 0.27494973 -1.3373471 -1.2188429 -1.2154624
-1.3830485 -0.74598265 0.97784156 -1.2479255 -1.1218655 -0.8182857 -1.0247549 -0.6802312
-1.3732951 -1.3788996 -0.2794799 -1.2614753 -1.2776538 -1.2400262 -1.1338557 -0.9844361
-1.4311959 1.1490086 -1.2384155 -1.3077251 -1.0506787 -0.9489759 -1.3291878 -0.77633196
-1.3570405 -1.4172503 -1.4462209 -1.2028394 0.8294872 -1.2492135 -0.4086362 -1.2607394
-1.2616419 -0.8950081 -1.1100807 1.0560261 -0.66858214 -1.3327644 -1.1766214 1.2421817
-0.98810226 -0.7977293 -1.2678581 -1.1215953 0.98581 -1.2693549 -1.2689878 1.276486
-0.6777972 -0.8986774 1.146295 -1.2554073 1.1069745 -1.1824081 1.3226445 -1.283703

group.0.bias f4 [100]
00000000: a979 bebf db74 b2bf 5a30 98be a171 93bf
00000010: 318f 9bbf d275 2bbf 5277 97bf abea 95bf
00000020: a435 5f3f f9f7 aabf 0c9d b43e 345b 933f
00000030: 4462 8d3f f2a6 9fbf 1e65 9cbf 4114 6fbf
00000040: 06cc a8bf fadf a8bf 5c82 9cbf 39fc 8dbe
00000050: 19a9 98bf 9bfb 98bf 0611 0e3f 5cfb b7bf
00000060: 74d4 a7bf e459 4fbf 113b 84bf 776a b1bf
00000070: ad87 b0bf 9374 a13f ee2f 4dbf 0d27 a33f
00000080: a65f 123f 7ece 35bf 7cee a5bf e72d f2be
00000090: 8c1c 0bbf a35b 67be b10a 203f 8366 11bf
000000a0: ed8b 23be 154e adbf 0a4d 223f cd93 a6bf
000000b0: 02a8 9abf 0bad d8be 0dba a0bf 58e3 adbc
000000c0: 731c 62bf 8075 99bf 35a1 743f bb16 903f
000000d0: 18f2 76bf d954 a8bf df62 043f 1677 a5bf
000000e0: d46b 8bbf 035d 50bf 5126 96bf 588e 88bf
000000f0: 7aba 723f 9d18 95bf 7b8c 933f 583e b5bf
00000100: a076 953f 202b 3ebf 62a1 f5be 6337 46bf
00000110: 43f1 8dbf 6609 9dbf 1962 79bf e356 9fbf
00000120: 4f95 a43e 77cf 983f 6f7e 8ebf 1f68 973f
00000130: 7d3a cbbe f8f9 55bf ffba 8ebf 7937 afbf
00000140: 3896 a0bf b460 9fbf 664d 78bf 8dcc a2bf
00000150: a928 1fbf 90ca 33bf fe22 a8bf efaf a5bf
00000160: 3fc8 9f3f 1901 a2bf f08f a0bf 7c7b 71bf
00000170: 0236 6fbf b03c a3be e152 353e a82d 5abf
00000180: 17a3 33bf 8546 81bf af30 8ebf db1d 98bf
-1.4880878 -1.3941911 -0.2972439 -1.1519052 -1.2153074 -0.66976655 -1.1833289 -1.171224
0.87191224 -1.3356925 0.35276067 1.1512208 1.1045613 -1.2472823 -1.2218359 -0.9339028
-1.3187263 -1.3193352 -1.2227283 -0.27731493 -1.1926605 -1.1951784 0.55494726 -1.4373584
-1.311171 -0.8099654 -1.0330526 -1.3860615 -1.3791405 1.2613701 -0.8015126 1.2746292
0.571772 -0.7101821 -1.2963405 -0.47300646 -0.54340434 -0.2259355 0.62516314 -0.56797045
-0.15971346 -1.3539454 0.633988 -1.3013855 -1.2082522 -0.4231952 -1.2556778 -0.02122657
-0.8832466 -1.1988983 0.9555848 1.1256937 -0.96463156 -1.3150893 0.51713365 -1.2926967
-1.0892282 -0.81391925 -1.1730443 -1.066844 0.9481579 -1.1648136 1.1527246 -1.4159651
1.1676826 -0.74284554 -0.47974688 -0.77428263 -1.1089252 -1.2268493 -0.9741531 -1.2448391
0.32145163 1.1938313 -1.1132334 1.182865 -0.3969306 -0.8358455 -1.1150817 -1.3688804
-1.2545843 -1.2451386 -0.969931 -1.2718674 -0.6217142 -0.7023096 -1.3135679 -1.2944316
1.2482985 -1.2656585 -1.2543926 -0.9432905 -0.93441784 -0.31882238 0.17707397 -0.85225916
-0.7017073 -1.0099646 -1.1108607 -1.1884111

fc1.weight f4 [100, 240]
00000000: e23d 27bf 79eb 63bf 66ba aebd e0b2 4f3f
00000010: a94b 883f d8ea 813f d33c 8f3f 1ad1 5ebe
00000020: 6948 90bf cef3 94bf 624c e83d c6cd 0b3f
00000030: 2494 263f 5c8b 463f 6c6a b03e f138 82bf
00000040: 5299 61bf b45a 3a3f 797b 783f 2168 7a3f
00000050: 83e6 2f3f b042 8bbf 96a5 73bf c087 83bd
00000060: 4c56 68bf f598 13bf b2e6 89bf ddf8 223f
00000070: 7b24 073c ea67 3bbf ceac e4be 38e0 edbe
00000080: cc79 8fbf 1fea 31bf 7c0b 873e e0c4 953f
00000090: 83bc 563f ea4c 9ebe d67c 2e3d d5e4 a6bd
000000a0: f0e3 90bf a548 8c3d b1a5 e53d cdfc 483e
000000b0: cb51 b03e 2aa4 74be 72ce 18bf c4a9 afbf
000000c0: 4759 6dbf 2c49 233f 4d24 0b3f 1b13 92be
000000d0: dc09 9cbf 7544 a2bf 6a74 9fbf 7c76 95bf
000000e0: 73ab 9fbf 003e 573e e0ad 793e fee9 1ebe
000000f0: 8c47 c43e a469 043f bef9 373f 8bcc 243f
00000100: a64b 4abf 790d 1fbf cc6c 35bf 9d71 86bf
00000110: baf0 8ebf 8c81 9ebe a7ea c33e 394d 5abf
00000120: 5464 66bf 78e2 97bf 6f66 353e d29b 1c3f
00000130: 55bc aa3f 87d4 9d3f c4b3 413f ff9a 31bf
00000140: ed72 87bf 1199 93bf adfe a3bf 8d15 a2bf
00000150: 03e9 dbbc baa4 c93e b126 263f cf77 d93e
00000160: 809d a1bf 39c5 a4bf ba02 533f a01c 973f
00000170: be4e 223f 6f37 1b3f b5d5 613c a01f 8cbf
00000180: f073 a5bf df6d abbf d19f a3bf f476 d43d
00000190: aff1 fb3e d94e 863e 53c4 96bc ccce a0bf
000001a0: 0bb2 393f f73b f93d 77a5 8ebf 1fc0 e03e
000001b0: 9f5a 473e 69e4 043f c451 febe a006 85be
000001c0: c872 0dbf 00f3 6ebf 9291 ff3e f7b3 e73d
000001d0: a8f8 7dbf 9654 b93e 22d4 af3e f3e9 363f
000001e0: 2b18 3d3f df84 803e 4168 b7be d532 16bf
000001f0: 53b1 053f f919 1b3f df3c d0be 6728 b8be
00000200: 9589 91bf 4079 bbbe bcff e93d b891 423e
00000210: 65a6 903e 4e2c e73e e88c cc3d 01e7 293e
00000220: 501b f4bd a90a 7abe cc7a af3d 4dc7 3e3e
00000230: 448a 0bbe e946 0a3d 1160 563d 0f0b 57bf
00000240: 212d 6bbd 313c b43e 9717 ff3d 7bb2 d13e
00000250: 587c 353f 5b25 ff3e b349 703e e3a6 9ebe
00000260: 5df7 42bf 90fa 1abc 6830 1d3f 3bc7 3b3f
00000270: bc88 31be 6519 94bd 2baf bdbd c622 653e
00000280: c977 bdbf 0cc7 aabf 668d 7e3f 1781 65be
00000290: 9e31 52bf 1d3b 1b3f 25b8 023e 83d3 91be
000002a0: 8068 95bf 136b 8d3f 2682 af3f 5e4d 6dbe
000002b0: 0d67 913f 9d33 b4bf a06d 15bf c02e 06be
000002c0: 7b6f b83e a3a6 553f e805 babf 9028 01bf
000002d0: 726e 2d3f d0ab 92be ccf7 b3bf 6de9 93bf
000002e0: 15e4 833f 85de 39be c11b 9d3f 992e 173f
000002f0: 52df 2e3f c3cb bcbf 972b 933f 7bc5 4f3f
00000300: abb6 01bf c919 9ebf aa70 443f df50 9b3f
00000310: 3ec0 8bbe 4041 0bbe 5432 303f e929 21bf
00000320: 8778 aebf 05b8 323f 47eb 023f e16e acbf
00000330: b621 8ebf 350d 9ebf 1ed7 b8bf ed9c a53f
00000340: 6f47 a4be 4b45 813f b3db 873f 7e5e 51bf
00000350: ed85 8dbf 3037 19be a47b b13f 96a5 b3bf
00000360: 2f45 533f ed2e 9bbf 63b2 43bf cd66 a03f
00000370: 7f3b 203f 4ef3 ba3f 9bb6 c2be fe0b 94bf
00000380: e9aa bf3e d4d0 16be f924 a7bf b9d4 acbf
00000390: 17b5 0f3d 8f3a 9d3f 0af1 edbc 210f 7e3f
000003a0: 1a8a b1bf 96c7 95bf 50e7 b43e cb9a 583f
000003b0: 1cff 9e3f 4902 3fbf 7577 8bbf 6641 383c
000003c0: 8fe0 5b3f 4583 883f 7e9e 383e d7d3 be3e
000003d0: 5a98 c2be bae4 e9be 8322 653e fc2c 8d3f
000003e0: 6d04 443f b0b3 723f c197 903f 6988 3bbe
000003f0: f5e7 b0be 2aa0 303f 8c50 4f3f 6270 92be
-0.653288 -0.8903118 -0.085316464 0.81132317 1.064809 1.0149794 1.1190437 -0.21759453
-1.1272098 -1.1636903 0.11342694 0.5461086 0.65069795 0.77556396 0.34456193 -1.0173627
-0.88124573 0.7279465 0.97063404 0.9781514 0.6871111 -1.0879726 -0.9517454 -0.06422377
-0.9075668 -0.5765527 -1.0773528 0.63660985 0.008248444 -0.73205435 -0.4466309 -0.46460128
-1.1209044 -0.69497865 0.2637595 1.1700706 0.83881396 -0.30918056 0.04259952 -0.08149115
-1.1319561 0.06849793 0.11213244 0.19627686 0.34437403 -0.23890749 -0.5969001 -1.3723683
-0.9271435 0.63783526 0.54352266 -0.285302 -1.2190509 -1.2677141 -1.2457402 -1.1676784
-1.2474197 0.21019745 0.24382734 -0.15518948 0.38335836 0.51723695 0.7186545 0.6437461
-0.7902168 -0.6212993 -0.70869136 -1.0503422 -1.1167214 -0.3095821 0.38264963 -0.8527408
-0.8999684 -1.1865988 0.17714857 0.6117526 1.3338724 1.2330483 0.75664926 -0.6937713
-1.0581948 -1.1531087 -1.2812096 -1.2662827 -0.026844507 0.3938349 0.6490279 0.4247422
-1.262619 -1.2872688 0.82426035 1.1805611 0.634014 0.6063146 0.013783862 -1.0947151
-1.2926006 -1.3392905 -1.2783147 0.10374251 0.49207827 0.2623203 -0.018404162 -1.2563109
0.72537297 0.121696405 -1.1144246 0.43896577 0.19468163 0.51911026 -0.49671757 -0.25981617
-0.5525327 -0.9333954 0.4991575 0.113136224 -0.99207544 0.36197346 0.34341532 0.7145073
0.73865 0.25101373 -0.35821727 -0.58671314 0.522237 0.60586506 -0.4067144 -0.35968325
-1.1370112 -0.36615944 0.114257306 0.190009 0.2825195 0.4515099 0.09987813 0.16592027
-0.11919272 -0.24418129 0.085683435 0.18630715 -0.13626963 0.03375903 0.05233771 -0.8400125
-0.057416085 0.35202172 0.12455671 0.40956482 0.7089286 0.49833187 0.23465614 -0.309867
-0.76158696 -0.009459153 0.6140199 0.73350877 -0.17337316 -0.07231406 -0.09261926 0.22376546
-1.480218 -1.3341994 0.99434507 -0.22412525 -0.8210696 0.60637075 0.12765558 -0.28481683
-1.1672516 1.1048301 1.3711593 -0.23174044 1.1359574 -1.4078251 -0.583704 -0.13103771
0.36022553 0.8345739 -1.4533052 -0.5045252 0.6774665 -0.28646708 -1.4059997 -1.1555611
1.030398 -0.1815129 1.2274095 0.5905548 0.6830951 -1.4749683 1.1497678 0.81160706
-0.50669354 -1.2351619 0.7673441 1.2134055 -0.27295107 -0.1359911 0.68826795 -0.62954575
-1.3630532 0.6981204 0.51140255 -1.3471338 -1.1104038 -1.234778 -1.4440649 1.2938515
-0.3208575 1.0099272 1.0613922 -0.8178481 -1.1056496 -0.14962459 1.3865857 -1.4034908
0.8252744 -1.2123696 -0.7644407 1.2531372 0.62590784 1.4605501 -0.38029942 -1.156616
0.37435082 -0.14728099 -1.3058158 -1.3502418 0.03508481 1.2283496 -0.0290456 0.99241835
-1.387027 -1.1701534 0.35332727 0.84611195 1.2421603 -0.7461286 -1.089583 0.011246061
0.85889524 1.066506 0.1802921 0.37270996 -0.3800686 -0.45682317 0.22376446 1.1029353
0.76569253 0.9480543 1.1296312 -0.18313755 -0.3455197 0.6899439 0.8098228 -0.28601366

fc1.bias f4 [100]
00000000: d74c 4bbf fa72 a6bf c2c0 9ebf f8cf 6abf
00000010: 80f7 abbf e1cd a8bf b525 9bbf 1a9f a5bf
00000020: cecf f3be 778d 22bf f7e8 a9bf 5db8 9bbf
00000030: fa7d 62bf 1597 97bf aa37 b6bf 9ab2 a1bf
00000040: d930 cdbe e9e3 b1bf 0da0 adbf cb58 6dbf
00000050: 3428 a4bf 8c8a 9fbf 77d5 9cbf e2b8 34bf
00000060: 0200 a2bf 7704 63bf 14bc 86bf d5fe 58bf
00000070: a14c 24bf 0810 a3bf 719c 65bf 4c25 86bf
00000080: 05ad afbf 58ef 8fbf 9003 a7bf dd63 b63e
00000090: e161 abbf 462b a7bf a3c5 14bf 76f3 aebf
000000a0: 305a 2ebf c5df 98bf 07da a1bf e289 87bf
000000b0: c0b4 aabf f829 afbf 5d0d 95bf 7d2a b0bf
000000c0: 5492 9bbf 4855 63bf 1fbb a4bf c90c acbf
000000d0: dcda a8bf 625e b1bf 98c1 99bf ed45 1bbe
000000e0: 8b3b a4bf 5ad4 a8bf b328 a6bf 1936 87bf
000000f0: ceea 84bf 24da a7bf cd74 a6bf 9177 91bf
00000100: 89b5 3dbf a1a1 9cbf e8ff 8dbf 5a8c fdbe
00000110: dfdb 45be 0964 1abf 0e62 3fbf f885 a2bb
00000120: 9c15 ebbe 12d1 96bf b9dc 8bbf e542 b2bf
00000130: 2207 adbf 935d 47bf b8a6 adbf 25f3 09bf
00000140: 3ed4 60bf 3340 4ebf eca9 20bf cfb0 9fbf
00000150: 9637 adbf 425c 9bbf 4f7a 9dbf 4c11 abbf
00000160: f717 a4bf c732 b0bf c248 afbf 3040 a2bf
00000170: 4594 9fbf 7a80 b9bf 3eb9 9fbf 5cd5 9bbf
00000180: 1af4 91bf 1f9f 9b3d 7bb2 b2bf bb93 5dbf
-0.79414123 -1.3003838 -1.2402575 -0.91723585 -1.3434906 -1.3187829 -1.2120882 -1.2939179
-0.4761948 -0.6349711 -1.327422 -1.2165638 -0.88473475 -1.1842982 -1.4235737 -1.263263
-0.4007633 -1.3897678 -1.3564469 -0.9271361 -1.2824769 -1.2464156 -1.2252644 -0.7059461
-1.2656252 -0.8867869 -1.0526147 -0.8476384 -0.64179426 -1.2739267 -0.89691836 -1.0480132
-1.3724676 -1.1244917 -1.3047962 0.35623065 -1.3389245 -1.3060081 -0.5811407 -1.3668048
-0.68106365 -1.1943289 -1.2644662 -1.0588953 -1.333641 -1.3684683 -1.1644703 -1.3762966
-1.2154031 -0.88802004 -1.2869605 -1.3441402 -1.319179 -1.3856928 -1.2012205 -0.15163393
-1.2830671 -1.3189805 -1.298117 -1.0563384 -1.0384157 -1.3113446 -1.3004395 -1.1364614
-0.74105126 -1.2236825 -1.1093721 -0.49521142 -0.19322155 -0.6030889 -0.74758995 -0.004959818
-0.45914924 -1.1782553 -1.0926734 -1.3926665 -1.3517802 -0.7787716 -1.3566504 -0.53886634
-0.87823856 -0.8056671 -0.6275928 -1.2475833 -1.3532588 -1.213753 -1.2302951 -1.3364654
-1.2819813 -1.3765496 -1.3694079 -1.2675838 -1.2467123 -1.4492333 -1.2478406 -1.2174487
-1.1402619 0.07598709 -1.3960718 -0.86553544

fc2.0.0.weight f4 [100, 100]
00000000: 8279 99bf 932f b7bf 68a6 8ebf ed73 a9bf
00000010: 120e 81bf 16a2 673f 77a0 a0bf af0d 7bbf
00000020: 7f52 a4bf fc0e a6bf c521 4bbf b2b0 89be
00000030: 37af 97bf 4b3b 9ebf 931a b0bf dd16 9bbf
00000040: 16d1 adbf 4e7e 123d 1dd0 8bbf 4d6a 80bf
00000050: 5af7 5fbf 631e b0bf 6e0d 50bf 4f32 593f
00000060: 4400 0fbf 2662 9abf 3cb8 50bf 9f30 a8bf
00000070: 0087 44bf 6b16 36bd 95b6 f53e 1c52 923f
00000080: 140f 5b3f 6ef6 a0bf b1d0 85bf ac62 88bf
00000090: 37ec 8a3f 92a2 20bf 8aa3 84bf c358 9abf
000000a0: 76ae 34bf dac1 25bf fc1a 62bf b828 a6bf
000000b0: 97c0 9cbf 4f40 a4bf 341b 8cbf 0792 813f
000000c0: abaa 623f bf2a 86bf da8b 9fbf 1825 a4bf
000000d0: bec5 fdbd 2fea 9cbf d599 22bf c4b7 a5bf
000000e0: deaa a23f 12a1 b4bf 4358 85bf 15ce 9fbf
000000f0: 981d adbf 5bb7 2a3f a224 2f3e 2bd9 b7bf
00000100: 37c6 b1bf 723b 26bf 037c 17bf 62a1 f6be
00000110: 27de a7bf 6027 99bf c1f6 10bf dc7d 91bf
00000120: 292b 9dbf ca38 69bf 60b8 adbf 2530 99bf
00000130: 31b1 54bf 81b1 9dbf 8c74 9ebf 4484 8bbf
00000140: 3606 1ebf 37e5 9fbf f3bc b5bf bea7 103f
00000150: 7b22 2cbf e91f 0dbf aefc 3abf 1bd4 44bf
00000160: 0d05 adbf 1994 99bf cb28 99bf a00c c6be
00000170: c906 b8be cf97 893f 0184 32bf 9eab 823f
00000180: 7adf 94bf 56d5 933e 55f6 92bf 968a 973f
00000190: 4b2c 4abf 731a 93bf 4421 67bf 59f8 98bf
000001a0: e7ed a2bf b325 7cbf 6879 9bbf 49bc 86bf
000001b0: 6f5e a9bf 0bc4 9bbf 96f7 8fbf bed2 99bf
000001c0: a44f b4bf 779b adbe eea8 ae3f bffc 83bf
000001d0: 0b8f 8bbe 4eee 96bf 3f4e c83d d647 a8bf
000001e0: 543c 97bf 3a1e 98bf c6f0 aebf 8f3a 8fbf
000001f0: ba34 b1bf 26f8 773f de8f 9cbf 5e37 77bf
00000200: 06d2 99bf 8e52 96bf da96 953f 9d1e 94bf
00000210: 9264 92bf a1ad a3bf dad4 b2bf 9322 9abf
00000220: 0ca2 a2bf 3344 a1be 34bb 92bf 4b08 65bf
00000230: 80bb 8fbf 3429 87bf c1c3 a3bf 3a0c b3bf
00000240: 5b4a 9f3f 914c 77bf ec30 9abf 35f9 a7bf
00000250: 8d14 92bf 7bc3 a7bf 69a6 85bf f1c4 9dbf
00000260: 267d 8dbf 80ce 9e3f e469 933f 6ba6 83bf
00000270: 5835 aebf f92e ebbe 9ef6 97bf a816 423f
00000280: d770 89bf fed2 abbf de2b a3bf f1a9 9abf
00000290: a5bd a5bf a569 a3bf 981f acbf 3f4b babf
000002a0: 34af b1bf 0591 a3bf 759e 96bf 7108 833f
000002b0: 2934 a0bf 4f69 1cbf ab10 9cbf fc46 96bf
000002c0: 62ff 2cbd 3ed7 9bbf be0d 92bf 4633 a23f
000002d0: fb49 a6bf c151 8cbf c238 9ebf 21f2 8fbf
000002e0: 1673 98bf 44bc 9dbf 55c7 9bbf e839 9dbf
000002f0: 8652 aabf f3a2 963f 74e2 91bf 99e5 93bf
00000300: fd8f a2bf 32d2 943f 1397 9dbf e139 a3bf
00000310: 36c6 8c3e 312e abbf 0b03 9cbf 4694 9bbf
00000320: bc07 b1bf b8f8 3ebf d353 7a3f 06bc 9fbf
00000330: 4a99 8fbf 2c7b 51bf 2b2b 83bf a223 2ebf
00000340: 22c8 afbf c87f b0bf fd17 8fbe 0678 a1bf
00000350: 298a a3bf 2eb9 9ebf 2f22 91bf 0104 7cbf
00000360: 6d31 b7bf b712 933f 6684 9ebf 8963 a7bf
00000370: a47c 86bf 16f0 72bf d322 aabf b1bd 46bf
00000380: 81b3 adbf 7568 b5bf c41d b9bf a4f6 99bf
00000390: 4659 543f 3ae6 9fbf c438 d1be e95f a1bf
000003a0: 7b7d a1bf 401f 65bf 2017 8ebf dd2b 873f
000003b0: 3328 2bbf 0698 aabf 889b 96bf cfff 9e3f
000003c0: 45f4 7cbf fd37 4cbf 2d49 a2bf 6f90 8fbf
000003d0: 0b5e 7c3f 397a a2bf 316e a2bf e563 a33f
000003e0: 1e84 2dbf b90f 66bf cbb9 923f 30b1 a0bf
000003f0: 57b1 8d3f 2659 97bf 6a4c a93f 6150 a4bf
-1.1990206 -1.4311393 -1.1144533 -1.3238503 -1.0082419 0.904817 -1.254897 -0.98067755
-1.2837676 -1.2973323 -0.79348403 -0.2689262 -1.1850346 -1.2361845 -1.375811 -1.2116352
-1.3579433 0.035764985 -1.0922886 -1.003244 -0.87486804 -1.3759273 -0.8127049 0.8484239
-0.5585978 -1.2061203 -0.8153112 -1.3139838 -0.76768494 -0.044454973 0.47990862 1.1431308
0.8556988 -1.2575204 -1.0454313 -1.0655112 1.0853337 -0.6274806 -1.0362408 -1.2058338
-0.70578706 -0.6474892 -0.88322425 -1.2981176 -1.2246274 -1.2832125 -1.0945802 1.0122689
0.8854167 -1.0481795 -1.2464554 -1.282382 -0.12391232 -1.2258967 -0.6351598 -1.2946706
1.2708395 -1.4111655 -1.041756 -1.2484766 -1.3524656 0.6668603 0.17103818 -1.436315
-1.3888615 -0.64934456 -0.591736 -0.4817 -1.311467 -1.1965141 -0.56626517 -1.1366534
-1.2278796 -0.9110228 -1.3571892 -1.1967818 -0.8308287 -1.2319795 -1.2379317 -1.0899739
-0.6172823 -1.2491826 -1.4198288 0.56505954 -0.67240113 -0.55126816 -0.7304181 -0.7688615
-1.3517166 -1.1998321 -1.1965574 -0.38681507 -0.35942677 1.0749453 -0.6973267 1.0208623
-1.16307 0.288737 -1.1481425 1.1839168 -0.78973836 -1.1492447 -0.90285134 -1.195079
-1.2728852 -0.98495024 -1.2146425 -1.052621 -1.3231944 -1.2169203 -1.1247432 -1.2017438
-1.4086804 -0.33907673 1.3645303 -1.0311507 -0.2725757 -1.1791475 0.09780549 -1.3146923
-1.1815286 -1.1884224 -1.3667228 -1.1189746 -1.3844216 0.9686302 -1.2231405 -0.9656886
-1.2017219 -1.1743944 1.1686661 -1.1571842 -1.1436942 -1.2787362 -1.3971207 -1.2041801
-1.2705703 -0.31497344 -1.146338 -0.8946578 -1.1229095 -1.0559449 -1.2794114 -1.3988106
1.2444566 -0.96601206 -1.204618 -1.3122927 -1.1412522 -1.3106531 -1.0441409 -1.2325727
-1.1053817 1.2406769 1.151669 -1.0285162 -1.3610029 -0.45934275 -1.1872137 0.7581582
-1.0737561 -1.3423765 -1.2747762 -1.2083112 -1.29485 -1.2766615 -1.3447142 -1.4554213
-1.3881593 -1.2778631 -1.1767107 1.0236951 -1.2515918 -0.6109819 -1.2192587 -1.1740413
-0.04223574 -1.2175062 -1.1410444 1.2671897 -1.2991327 -1.0962449 -1.2361071 -1.1245767
-1.1910121 -1.2323079 -1.2170206 -1.2283297 -1.3306434 1.1768478 -1.1397233 -1.1554443
-1.2700192 1.1626647 -1.2311729 -1.2752038 0.27494973 -1.3373471 -1.2188429 -1.2154624
-1.3830485 -0.74598265 0.97784156 -1.2479255 -1.1218655 -0.8182857 -1.0247549 -0.6802312
-1.3732951 -1.3788996 -0.2794799 -1.2614753 -1.2776538 -1.2400262 -1.1338557 -0.9844361
-1.4311959 1.1490086 -1.2384155 -1.3077251 -1.0506787 -0.9489759 -1.3291878 -0.77633196
-1.3570405 -1.4172503 -1.4462209 -1.2028394 0.8294872 -1.2492135 -0.4086362 -1.2607394
-1.2616419 -0.8950081 -1.1100807 1.0560261 -0.66858214 -1.3327644 -1.1766214 1.2421817
-0.98810226 -0.7977293 -1.2678581 -1.1215953 0.98581 -1.2693549 -1.2689878 1.276486
-0.6777972 -0.8986774 1.146295 -1.2554073 1.1069745 -1.1824081 1.3226445 -1.283703

fc2.0.0.bias f4 [100]
00000000: a979 bebf db74 b2bf 5a30 98be a171 93bf
00000010: 318f 9bbf d275 2bbf 5277 97bf abea 95bf
00000020: a435 5f3f f9f7 aabf 0c9d b43e 345b 933f
00000030: 4462 8d3f f2a6 9fbf 1e65 9cbf 4114 6fbf
00000040: 06cc a8bf fadf a8bf 5c82 9cbf 39fc 8dbe
00000050: 19a9 98bf 9bfb 98bf 0611 0e3f 5cfb b7bf
00000060: 74d4 a7bf e459 4fbf 113b 84bf 776a b1bf
00000070: ad87 b0bf 9374 a13f ee2f 4dbf 0d27 a33f
00000080: a65f 123f 7ece 35bf 7cee a5bf e72d f2be
00000090: 8c1c 0bbf a35b 67be b10a 203f 8366 11bf
000000a0: ed8b 23be 154e adbf 0a4d 223f cd93 a6bf
000000b0: 02a8 9abf 0bad d8be 0dba a0bf 58e3 adbc
000000c0: 731c 62bf 8075 99bf 35a1 743f bb16 903f
000000d0: 18f2 76bf d954 a8bf df62 043f 1677 a5bf
000000e0: d46b 8bbf 035d 50bf 5126 96bf 588e 88bf
000000f0: 7aba 723f 9d18 95bf 7b8c 933f 583e b5bf
00000100: a076 953f 202b 3ebf 62a1 f5be 6337 46bf
00000110: 43f1 8dbf 6609 9dbf 1962 79bf e356 9fbf
00000120: 4f95 a43e 77cf 983f 6f7e 8ebf 1f68 973f
00000130: 7d3a cbbe f8f9 55bf ffba 8ebf 7937 afbf
00000140: 3896 a0bf b460 9fbf 664d 78bf 8dcc a2bf
00000150: a928 1fbf 90ca 33bf fe22 a8bf efaf a5bf
00000160: 3fc8 9f3f 1901 a2bf f08f a0bf 7c7b 71bf
00000170: 0236 6fbf b03c a3be e152 353e a82d 5abf
00000180: 17a3 33bf 8546 81bf af30 8ebf db1d 98bf
-1.4880878 -1.3941911 -0.2972439 -1.1519052 -1.2153074 -0.66976655 -1.1833289 -1.171224
0.87191224 -1.3356925 0.35276067 1.1512208 1.1045613 -1.2472823 -1.2218359 -0.9339028
-1.3187263 -1.3193352 -1.2227283 -0.27731493 -1.1926605 -1.1951784 0.55494726 -1.4373584
-1.311171 -0.8099654 -1.0330526 -1.3860615 -1.3791405 1.2613701 -0.8015126 1.2746292
0.571772 -0.7101821 -1.2963405 -0.47300646 -0.54340434 -0.2259355 0.62516314 -0.56797045
-0.15971346 -1.3539454 0.633988 -1.3013855 -1.2082522 -0.4231952 -1.2556778 -0.02122657
-0.8832466 -1.1988983 0.9555848 1.1256937 -0.96463156 -1.3150893 0.51713365 -1.2926967
-1.0892282 -0.81391925 -1.1730443 -1.066844 0.9481579 -1.1648136 1.1527246 -1.4159651
1.1676826 -0.74284554 -0.47974688 -0.77428263 -1.1089252 -1.2268493 -0.9741531 -1.2448391
0.32145163 1.1938313 -1.1132334 1.182865 -0.3969306 -0.8358455 -1.1150817 -1.3688804
-1.2545843 -1.2451386 -0.969931 -1.2718674 -0.6217142 -0.7023096 -1.3135679 -1.2944316
1.2482985 -1.2656585 -1.2543926 -0.9432905 -0.93441784 -0.31882238 0.17707397 -0.85225916
-0.7017073 -1.0099646 -1.1108607 -1.1884111

fc2.1.0.weight f4 [100, 100]
00000000: 8279 99bf 932f b7bf 68a6 8ebf ed73 a9bf
00000010: 120e 81bf 16a2 673f 77a0 a0bf af0d 7bbf
00000020: 7f52 a4bf fc0e a6bf c521 4bbf b2b0 89be
00000030: 37af 97bf 4b3b 9ebf 931a b0bf dd16 9bbf
00000040: 16d1 adbf 4e7e 123d 1dd0 8bbf 4d6a 80bf
00000050: 5af7 5fbf 631e b0bf 6e0d 50bf 4f32 593f
00000060: 4400 0fbf 2662 9abf 3cb8 50bf 9f30 a8bf
00000070: 0087 44bf 6b16 36bd 95b6 f53e 1c52 923f
00000080: 140f 5b3f 6ef6 a0bf b1d0 85bf ac62 88bf
00000090: 37ec 8a3f 92a2 20bf 8aa3 84bf c358 9abf
000000a0: 76ae 34bf dac1 25bf fc1a 62bf b828 a6bf
000000b0: 97c0 9cbf 4f40 a4bf 341b 8cbf 0792 813f
000000c0: abaa 623f bf2a 86bf da8b 9fbf 1825 a4bf
000000d0: bec5 fdbd 2fea 9cbf d599 22bf c4b7 a5bf
000000e0: deaa a23f 12a1 b4bf 4358 85bf 15ce 9fbf
000000f0: 981d adbf 5bb7 2a3f a224 2f3e 2bd9 b7bf
00000100: 37c6 b1bf 723b 26bf 037c 17bf 62a1 f6be
00000110: 27de a7bf 6027 99bf c1f6 10bf dc7d 91bf
00000120: 292b 9dbf ca38 69bf 60b8 adbf 2530 99bf
00000130: 31b1 54bf 81b1 9dbf 8c74 9ebf 4484 8bbf
00000140: 3606 1ebf 37e5 9fbf f3bc b5bf bea7 103f
00000150: 7b22 2cbf e91f 0dbf aefc 3abf 1bd4 44bf
00000160: 0d05 adbf 1994 99bf cb28 99bf a00c c6be
00000170: c906 b8be cf97 893f 0184 32bf 9eab 823f
00000180: 7adf 94bf 56d5 933e 55f6 92bf 968a 973f
00000190: 4b2c 4abf 731a 93bf 4421 67bf 59f8 98bf
000001a0: e7ed a2bf b325 7cbf 6879 9bbf 49bc 86bf
000001b0: 6f5e a9bf 0bc4 9bbf 96f7 8fbf bed2 99bf
000001c0: a44f b4bf 779b adbe eea8 ae3f bffc 83bf
000001d0: 0b8f 8bbe 4eee 96bf 3f4e c83d d647 a8bf
000001e0: 543c 97bf 3a1e 98bf c6f0 aebf 8f3a 8fbf
000001f0: ba34 b1bf 26f8 773f de8f 9cbf 5e37 77bf
00000200: 06d2 99bf 8e52 96bf da96 953f 9d1e 94bf
00000210: 9264 92bf a1ad a3bf dad4 b2bf 9322 9abf
00000220: 0ca2 a2bf 3344 a1be 34bb 92bf 4b08 65bf
00000230: 80bb 8fbf 3429 87bf c1c3 a3bf 3a0c b3bf
00000240: 5b4a 9f3f 914c 77bf ec30 9abf 35f9 a7bf
00000250: 8d14 92bf 7bc3 a7bf 69a6 85bf f1c4 9dbf
00000260: 267d 8dbf 80ce 9e3f e469 933f 6ba6 83bf
00000270: 5835 aebf f92e ebbe 9ef6 97bf a816 423f
00000280: d770 89bf fed2 abbf de2b a3bf f1a9 9abf
00000290: a5bd a5bf a569 a3bf 981f acbf 3f4b babf
000002a0: 34af b1bf 0591 a3bf 759e 96bf 7108 833f
000002b0: 2934 a0bf 4f69 1cbf ab10 9cbf fc46 96bf
000002c0: 62ff 2cbd 3ed7 9bbf be0d 92bf 4633 a23f
000002d0: fb49 a6bf c151 8cbf c238 9ebf 21f2 8fbf
000002e0: 1673 98bf 44bc 9dbf 55c7 9bbf e839 9dbf
000002f0: 8652 aabf f3a2 963f 74e2 91bf 99e5 93bf
00000300: fd8f a2bf 32d2 943f 1397 9dbf e139 a3bf
00000310: 36c6 8c3e 312e abbf 0b03 9cbf 4694 9bbf
00000320: bc07 b1bf b8f8 3ebf d353 7a3f 06bc 9fbf
00000330: 4a99 8fbf 2c7b 51bf 2b2b 83bf a223 2ebf
00000340: 22c8 afbf c87f b0bf fd17 8fbe 0678 a1bf
00000350: 298a a3bf 2eb9 9ebf 2f22 91bf 0104 7cbf
00000360: 6d31 b7bf b712 933f 6684 9ebf 8963 a7bf
00000370: a47c 86bf 16f0 72bf d322 aabf b1bd 46bf
00000380: 81b3 adbf 7568 b5bf c41d b9bf a4f6 99bf
00000390: 4659 543f 3ae6 9fbf c438 d1be e95f a1bf
000003a0: 7b7d a1bf 401f 65bf 2017 8ebf dd2b 873f
000003b0: 3328 2bbf 0698 aabf 889b 96bf cfff 9e3f
000003c0: 45f4 7cbf fd37 4cbf 2d49 a2bf 6f90 8fbf
000003d0: 0b5e 7c3f 397a a2bf 316e a2bf e563 a33f
000003e0: 1e84 2dbf b90f 66bf cbb9 923f 30b1 a0bf
000003f0: 57b1 8d3f 2659 97bf 6a4c a93f 6150 a4bf
-1.1990206 -1.4311393 -1.1144533 -1.3238503 -1.0082419 0.904817 -1.254897 -0.98067755
-1.2837676 -1.2973323 -0.79348403 -0.2689262 -1.1850346 -1.2361845 -1.375811 -1.2116352
-1.3579433 0.035764985 -1.0922886 -1.003244 -0.87486804 -1.3759273 -0.8127049 0.8484239
-0.5585978 -1.2061203 -0.8153112 -1.3139838 -0.76768494 -0.044454973 0.47990862 1.1431308
0.8556988 -1.2575204 -1.0454313 -1.0655112 1.0853337 -0.6274806 -1.0362408 -1.2058338
-0.70578706 -0.6474892 -0.88322425 -1.2981176 -1.2246274 -1.2832125 -1.0945802 1.0122689
0.8854167 -1.0481795 -1.2464554 -1.282382 -0.12391232 -1.2258967 -0.6351598 -1.2946706
1.2708395 -1.4111655 -1.041756 -1.2484766 -1.3524656 0.6668603 0.17103818 -1.436315
-1.3888615 -0.64934456 -0.591736 -0.4817 -1.311467 -1.1965141 -0.56626517 -1.1366534
-1.2278796 -0.9110228 -1.3571892 -1.1967818 -0.8308287 -1.2319795 -1.2379317 -1.0899739
-0.6172823 -1.2491826 -1.4198288 0.56505954 -0.67240113 -0.55126816 -0.7304181 -0.7688615
-1.3517166 -1.1998321 -1.1965574 -0.38681507 -0.35942677 1.0749453 -0.6973267 1.0208623
-1.16307 0.288737 -1.1481425 1.1839168 -0.78973836 -1.1492447 -0.90285134 -1.195079
-1.2728852 -0.98495024 -1.2146425 -1.052621 -1.3231944 -1.2169203 -1.1247432 -1.2017438
-1.4086804 -0.33907673 1.3645303 -1.0311507 -0.2725757 -1.1791475 0.09780549 -1.3146923
-1.1815286 -1.1884224 -1.3667228 -1.1189746 -1.3844216 0.9686302 -1.2231405 -0.9656886
-1.2017219 -1.1743944 1.1686661 -1.1571842 -1.1436942 -1.2787362 -1.3971207 -1.2041801
-1.2705703 -0.31497344 -1.146338 -0.8946578 -1.1229095 -1.0559449 -1.2794114 -1.3988106
1.2444566 -0.96601206 -1.204618 -1.3122927 -1.1412522 -1.3106531 -1.0441409 -1.2325727
-1.1053817 1.2406769 1.151669 -1.0285162 -1.3610029 -0.45934275 -1.1872137 0.7581582
-1.0737561 -1.3423765 -1.2747762 -1.2083112 -1.29485 -1.2766615 -1.3447142 -1.4554213
-1.3881593 -1.2778631 -1.1767107 1.0236951 -1.2515918 -0.6109819 -1.2192587 -1.1740413
-0.04223574 -1.2175062 -1.1410444 1.2671897 -1.2991327 -1.0962449 -1.2361071 -1.1245767
-1.1910121 -1.2323079 -1.2170206 -1.2283297 -1.3306434 1.1768478 -1.1397233 -1.1554443
-1.2700192 1.1626647 -1.2311729 -1.2752038 0.27494973 -1.3373471 -1.2188429 -1.2154624
-1.3830485 -0.74598265 0.97784156 -1.2479255 -1.1218655 -0.8182857 -1.0247549 -0.6802312
-1.3732951 -1.3788996 -0.2794799 -1.2614753 -1.2776538 -1.2400262 -1.1338557 -0.9844361
-1.4311959 1.1490086 -1.2384155 -1.3077251 -1.0506787 -0.9489759 -1.3291878 -0.77633196
-1.3570405 -1.4172503 -1.4462209 -1.2028394 0.8294872 -1.2492135 -0.4086362 -1.2607394
-1.2616419 -0.8950081 -1.1100807 1.0560261 -0.66858214 -1.3327644 -1.1766214 1.2421817
-0.98810226 -0.7977293 -1.2678581 -1.1215953 0.98581 -1.2693549 -1.2689878 1.276486
-0.6777972 -0.8986774 1.146295 -1.2554073 1.1069745 -1.1824081 1.3226445 -1.283703

fc2.1.0.bias f4 [100]
00000000: a979 bebf db74 b2bf 5a30 98be a171 93bf
00000010: 318f 9bbf d275 2bbf 5277 97bf abea 95bf
00000020: a435 5f3f f9f7 aabf 0c9d b43e 345b 933f
00000030: 4462 8d3f f2a6 9fbf 1e65 9cbf 4114 6fbf
00000040: 06cc a8bf fadf a8bf 5c82 9cbf 39fc 8dbe
00000050: 19a9 98bf 9bfb 98bf 0611 0e3f 5cfb b7bf
00000060: 74d4 a7bf e459 4fbf 113b 84bf 776a b1bf
00000070: ad87 b0bf 9374 a13f ee2f 4dbf 0d27 a33f
00000080: a65f 123f 7ece 35bf 7cee a5bf e72d f2be
00000090: 8c1c 0bbf a35b 67be b10a 203f 8366 11bf
000000a0: ed8b 23be 154e adbf 0a4d 223f cd93 a6bf
000000b0: 02a8 9abf 0bad d8be 0dba a0bf 58e3 adbc
000000c0: 731c 62bf 8075 99bf 35a1 743f bb16 903f
000000d0: 18f2 76bf d954 a8bf df62 043f 1677 a5bf
000000e0: d46b 8bbf 035d 50bf 5126 96bf 588e 88bf
000000f0: 7aba 723f 9d18 95bf 7b8c 933f 583e b5bf
00000100: a076 953f 202b 3ebf 62a1 f5be 6337 46bf
00000110: 43f1 8dbf 6609 9dbf 1962 79bf e356 9fbf
00000120: 4f95 a43e 77cf 983f 6f7e 8ebf 1f68 973f
00000130: 7d3a cbbe f8f9 55bf ffba 8ebf 7937 afbf
00000140: 3896 a0bf b460 9fbf 664d 78bf 8dcc a2bf
00000150: a928 1fbf 90ca 33bf fe22 a8bf efaf a5bf
00000160: 3fc8 9f3f 1901 a2bf f08f a0bf 7c7b 71bf
00000170: 0236 6fbf b03c a3be e152 353e a82d 5abf
00000180: 17a3 33bf 8546 81bf af30 8ebf db1d 98bf
-1.4880878 -1.3941911 -0.2972439 -1.1519052 -1.2153074 -0.66976655 -1.1833289 -1.171224
0.87191224 -1.3356925 0.35276067 1.1512208 1.1045613 -1.2472823 -1.2218359 -0.9339028
-1.3187263 -1.3193352 -1.2227283 -0.27731493 -1.1926605 -1.1951784 0.55494726 -1.4373584
-1.311171 -0.8099654 -1.0330526 -1.3860615 -1.3791405 1.2613701 -0.8015126 1.2746292
0.571772 -0.7101821 -1.2963405 -0.47300646 -0.54340434 -0.2259355 0.62516314 -0.56797045
-0.15971346 -1.3539454 0.633988 -1.3013855 -1.2082522 -0.4231952 -1.2556778 -0.02122657
-0.8832466 -1.1988983 0.9555848 1.1256937 -0.96463156 -1.3150893 0.51713365 -1.2926967
-1.0892282 -0.81391925 -1.1730443 -1.066844 0.9481579 -1.1648136 1.1527246 -1.4159651
1.1676826 -0.74284554 -0.47974688 -0.77428263 -1.1089252 -1.2268493 -0.9741531 -1.2448391
0.32145163 1.1938313 -1.1132334 1.182865 -0.3969306 -0.8358455 -1.1150817 -1.3688804
-1.2545843 -1.2451386 -0.969931 -1.2718674 -0.6217142 -0.7023096 -1.3135679 -1.2944316
1.2482985 -1.2656585 -1.2543926 -0.9432905 -0.93441784 -0.31882238 0.17707397 -0.85225916
-0.7017073 -1.0099646 -1.1108607 -1.1884111

fc4.weight f4 [6, 100]
00000000: 69f6 66be bacc 9ebf b637 55bf 46b8 8ebf
00000010: f9ba 3c3e eb64 3fbf 89c6 9a3f 5795 423f
00000020: 2720 903e 9dc0 e3bc 089d efbe 1350 7dbf
00000030: 46ac 36be 60c4 713f a314 25bf 316a acbd
00000040: fffa cdbe adf4 88bd cd14 5d3f 08e8 8c3f
00000050: bffe a03f 8ef7 993f 0f3a 8fbf e9b3 7abf
00000060: 8aa3 62bf 15d0 1a3f 61f9 7bbf 6965 803f
00000070: 9d75 dbbd 0543 29be deed 903f a71d 3fbf
00000080: ab25 bb3e 5914 913e bbaa 513f b2e6 943f
00000090: 165c 76bf 0b99 013f 92c7 09bf 37f1 6d3f
000000a0: 7372 09bf 2e6a 9f3f c2b7 a43e 2e63 8ebe
000000b0: daa0 9f3f 29c6 63bf fb20 a73f e719 023f
000000c0: dbba 94bf 7ae4 d7be c767 193f 73b5 9e3f
000000d0: ff27 39bf e448 8ebf f5e1 c83e d7ab f23e
000000e0: 0076 7abf 46cd 9b3f 7140 843f bcee f8bd
000000f0: a289 4cbf 44d7 84bf 3de8 853f 577f 95bf
00000100: 2b63 cebc af03 9a3c 13d1 43bf 9c3d 023f
00000110: 3837 9d3f 7539 963f d0fe 743f f703 9e3f
00000120: 5ac7 733f 0910 3dbf 36a8 9c3f 0a88 073f
00000130: 8915 eebd dc42 7c3f 36b1 9b3f 8b6b cfbd
00000140: c1fd a53f 6e84 103f 666a 67bf 259e 90bf
00000150: 3c74 f4be cf41 a9bf 9d71 6ebf 20b4 78bf
00000160: d270 943f 060f 70bf e052 26bf 2c12 ddbe
00000170: 0655 a1bd 4dc3 853f 71ee 6ebd 1eaa 9ebe
00000180: e3a3 793e d459 82bf 5f5d 9bbf 9e02 8abf
00000190: 8ede 1c3f 798d 75bf 42fe 9a3f 4b7c a63f
000001a0: f63b 68bf cea7 9dbf bda2 8dbf 2b10 adbf
000001b0: 0366 aebf 13fe b2bd e67b 6b3f a45d 6cbf
000001c0: 0507 993e 2af7 61be f40d 80bf 70ca 4b3e
000001d0: e1ad e03e 327a 583d 02bf a53f dd0d 993f
000001e0: af06 8b3f 9484 93bf d586 6a3e 87ab 2b3f
000001f0: 3171 9fbf 3c34 e5bd 845f 3ebf 8f89 92bf
00000200: d97e 6a3e d78e a1be 2f55 713f 7d79 9b3f
00000210: f440 0abf 0172 6cbf ef21 cebe 7923 823f
00000220: ec49 a73f 2c6c 61bf b145 8b3f f994 54bf
00000230: 348d 443e f105 9a3f 60f7 2ebf 908c a63f
00000240: 1371 9dbf 6359 9b3f 90d2 99bf d8a9 8e3e
00000250: 4e65 c4be 2f22 0dbd b06e 9abf 8268 83bf
00000260: b80c 4c3f dafa 90bf 9cb9 8c3f 0bd4 94bf
00000270: b682 953f 7602 9d3f 855d c83e 77fe 68be
00000280: d5e2 da3e 0d9a 80bf a599 2a3f 188a 983f
00000290: 74af 9bbf fcd7 5f3f ff5d 403f e61f 513e
000002a0: 1554 93bf f3f4 973f e713 9ebf f36b 893f
000002b0: e5da 9abf f0c8 74bf 2d35 83bf 5312 ea3e
000002c0: 4fa8 193f 404d 92bf da65 95bf bb64 4c3e
000002d0: 6757 97bf 6663 9f3f dc16 90bf e8ea 9a3f
000002e0: ca53 ca3e fb93 7fbf 7c95 5fbf 3c82 d43e
000002f0: c7e3 7b3f aa84 9c3f d333 a73f c3ff 17bd
00000300: 3d88 aebd 3f5f a73f ba19 1e3f a3f2 a23f
00000310: 2d0a 4a3f bc4f 3d3f 69d1 83bf e5f7 92bf
00000320: ec61 c1bf a78e 903f c33b 873f a9aa 91bf
00000330: bdef 973f f8db 9e3f 31d7 983f c8e1 993f
00000340: d7f3 403e be2c c5bc fbf1 883f b5b8 adbf
00000350: 5c53 003e 8e1f 5a3f b71b 9d3f 023c f93e
00000360: 64e4 05bf 0ac1 65bc 8691 17be c142 89bf
00000370: ab22 963f 5930 8ebf 9baf a73e cfce 14bf
00000380: 5041 993f ca30 1f3f be6a 863f f209 95bf
00000390: d221 9ebf 33c1 493f 33a4 afbf 877e 64bf
000003a0: b0b1 81be 9486 82be 0e62 66bf 988a b1bf
000003b0: b061 673f 75d0 203f 8658 a2bf f197 913f
000003c0: 5b27 763f 4883 a3bf a9d0 2b3f f38c 853f
000003d0: 6985 a13f 6074 a23f 286c 97bf a16e 99bd
000003e0: 293c 86bf 248e 3bbf 9dfd c3be 9775 903f
000003f0: fd47 7f3f 3ec6 933f ddcf 863f 849a 9d3f
-0.22554936 -1.2406228 -0.83288133 -1.1149986 0.184307 -0.74763364 1.2091838 0.76009125
0.2814953 -0.027801806 -0.46799493 -0.9895031 -0.17839155 0.9444027 -0.64484614 -0.08418692
-0.40230557 -0.06687293 0.86359864 1.100831 1.2577742 1.2028673 -1.1189593 -0.9793077
-0.8853079 0.6047376 -0.98427397 1.0030948 -0.10715792 -0.16529472 1.1322591 -0.7465462
0.36552176 0.28335837 0.8190114 1.1632903 -0.9623426 0.5062415 -0.53820145 0.9294619
-0.5369026 1.2454278 0.32171446 -0.27810043 1.2470963 -0.88974243 1.305694 0.50820774
-1.1619524 -0.421665 0.59923977 1.2399124 -0.72326654 -1.1115994 0.39234892 0.47396728
-0.97836304 1.217202 1.0332166 -0.1215491 -0.7989751 -1.0378194 1.0461498 -1.1679486
-0.025193771 0.018800585 -0.76490897 0.5087526 1.2282476 1.1736284 0.95701313 1.234496
0.9522606 -0.7385259 1.2238834 0.52941954 -0.11625201 0.9853952 1.2163455 -0.10127934
1.2968065 0.5645207 -0.90396726 -1.1298262 -0.4774493 -1.3223208 -0.9314211 -0.9714985
1.159693 -0.93772924 -0.6497021 -0.43177927 -0.07877545 1.0450226 -0.058332864 -0.30989164
0.24378924 -1.0183663 -1.213787 -1.0782049 0.6127709 -0.95918995 1.2108843 1.3006681
-0.90716493 -1.2316835 -1.1065289 -1.3520559 -1.3624882 -0.08739867 0.9198593 -0.92330384
0.29888168 -0.22066942 -1.0004258 0.19901443 0.4388266 0.05285091 1.2948916 1.1957356
1.0861415 -1.1524835 0.22902997 0.67058605 -1.2456418 -0.111916035 -0.74364495 -1.144823
0.22899951 -0.3155429 0.94270605 1.214645 -0.5400536 -0.92361456 -0.40260264 1.0167075
1.3069434 -0.8805568 1.0880643 -0.83039814 0.1919449 1.2033063 -0.68346214 1.3011646
-1.2300133 1.2136654 -1.2017384 0.27863955 -0.3835854 -0.03445643 -1.2065029 -1.0266268
0.7970691 -1.1326554 1.0994143 -1.162721 1.1680515 1.2266376 0.3913385 -0.2275332
0.42751184 -1.0047013 0.6664069 1.1917143 -1.2162919 0.8743894 0.75143427 0.20422325
-1.1510035 1.1871628 -1.2349824 1.0736068 -1.2098051 -0.95619106 -1.0250603 0.45717105
0.60022444 -1.1429825 -1.1671708 0.199603 -1.1823548 1.2452209 -1.1256976 1.2102938
0.3951705 -0.99835175 -0.8733747 0.4150561 0.98394436 1.2227986 1.306269 -0.037109148
-0.08522079 1.3075942 0.61758006 1.2730297 0.78921777 0.7394979 -1.0298282 -1.1481901
-1.5108008 1.1293534 1.0565113 -1.1380206 1.1870037 1.2410879 1.1940671 1.2022028
0.18843018 -0.024069186 1.0698847 -1.3571993 0.12531799 0.852044 1.2274083 0.48678595
-0.5230162 -0.014023075 -0.14801607 -1.0723497 1.172933 -1.1108505 0.32751164 -0.58128065
1.1973057 0.6218382 1.0501325 -1.164366 -1.2354071 0.78810424 -1.3721985 -0.89255565
-0.25330877 -0.254933 -0.8999337 -1.387042 0.90383434 0.6281808 -1.2683265 1.1374494
0.961538 -1.2774439 0.67115265 1.0433639 1.2618839 1.2691765 -1.1829882 -0.07491804
-1.048711 -0.73263764 -0.3827943 1.1285886 0.9971922 1.1544874 1.0532185 1.231278

fc4.bias f4 [6]
00000000: 9bcf 7d3f 432c ecbe 271b a0bf 6254 2ebf
00000010: 210d 883f 2081 4e3f
0.99144906 -0.4612752 -1.2508286 -0.6809751 1.0629007 0.8066578
