figs/model-downscaled/default/cnn/cnn_model_dict.pt (torch, 163035 bytes, 10 tensors)

conv1.weight f4 [50, 3, 3]
00000000: a548 fabf 89d2 133f a6b5 dfbf 5ae0 f1bf
00000010: a9f7 a2bf 5d1a cdbf 9359 11c0 c2b5 0b40
00000020: 6ba0 00c0 8001 6cba 4e8e 0a40 c3b3 c83f
00000030: 8c3f ae3d 465d a0bf 7412 f9be e8d1 0c40
00000040: e5e0 2c3f bc5d abbf f8d4 bb3f 5286 c4be
00000050: 9ea3 01c0 e54b 07c0 0217 cebf 9068 a3bf
00000060: ceee d8bf f57a f1bf c74a dd3f 867b 02c0
00000070: d771 bbbd e030 4f3d 9e58 553f 6d0d cfbf
00000080: 7dde eabf 8280 b33f cfcb e0bf 2310 9ebd
00000090: 14bc e5be 0310 8abf 93c2 30bf 26e8 693e
000000a0: a974 e93d ed8d bfbc fa35 9dbf 4fbe 9ebf
000000b0: 69a7 c8bf 100b 8b3f 7b90 c23f df5a 0dc0
000000c0: 3e80 12c0 3b6e e83e 67a9 5abe 0acb b6bf
000000d0: 5226 edbd 4065 09c0 f8f3 e43f 7b7b 443f
000000e0: f94f 6a3f e616 4a3e 2823 df3f 20c8 50bf
000000f0: 7797 17c0 f099 94be 7c42 933e aaf4 09c0
00000100: 42bd c43f 3fa4 923f 4921 e73f 57b7 9bbf
00000110: eaa4 16c0 3232 a0bf bbaa aebd 1b2a ddbf
00000120: 845c dcbf f9f5 10c0 b0fd a4bf 092e e1bf
00000130: 370e b1be 017f 32bf 24f4 29bf 6d45 e33f
00000140: 37ce f13f f7cb 0640 c5a8 a93f 540e 493f
00000150: 48c9 eebf fe49 c0bf 8547 efbf de17 ca3f
00000160: 33a0 933f 533f 09c0 fa89 9a3f 8ecf 05bf
00000170: 1021 0a3f fc4c c33f a3c7 e4bf 1f76 13c0
00000180: 8857 c43f 8c18 5c3f 129a 893f 8201 f43f
00000190: cc8e 68bf 35c1 fdbf c584 3e3d 29ab 743f
000001a0: 573e 04c0 cc98 eebf 3b7b 813f 0474 04c0
000001b0: 0d70 0dbf 738e 943f a454 5a3f 4180 f63f
000001c0: 8fbf d8bf 0afc 193e 9324 be3f af65 15c0
000001d0: 6583 93bf 3f94 d33f 2ec6 123f 87c4 14bf
000001e0: ef69 f73e a6ba 9dbe 29f8 65bf 04fa 0bc0
000001f0: 2306 14c0 9b8d 98bf 52ca 763f 50ce 973f
00000200: 7832 55bf 911c 853f aa24 41bf 2fae 09c0
00000210: 0cdf babd 6d02 86bf 3edc e53f 4165 77bd
00000220: 4bf3 fdbf bea1 c83f c27e c6bf 4d19 6cbf
00000230: 322a 1b3f e89a f9be 32dc e33f 573d d13e
00000240: 8a35 19bf 81e9 c9bf 682e 08c0 c2f2 78be
00000250: 31ce 6ebf 39a7 b4bf ad10 ddbf 3f10 0fc0
00000260: 8965 67bf 2a99 483f a024 ce3f 493c e23f
00000270: c9b6 77bf 00d6 2a3e 65ec c0bf 1423 0ec0
00000280: 2200 0abf 18fc 983f ccd8 953e 3352 083f
00000290: 9833 f2bf c147 b4be dc3f a93f be8c a63f
000002a0: 8e5b 713e 19b0 4ebf 5cb6 04c0 f41d c53f
000002b0: 5252 b93f e2d2 c0bf 9c5d e6be ceb1 c1bf
000002c0: 535d d5bf 65b2 a7bf f478 a53f 1d0d 04c0
000002d0: 41c9 d63f dfdc 8cbf 030e adbf ba83 26bf
000002e0: ebb2 51bd 19b8 0ac0 270a 87be 6f3b e8bf
000002f0: 745f 0bc0 fd1c b23f ebe9 c6bf e0b6 5abe
00000300: 42ac b7bf 69eb 16c0 cce1 16c0 d9fa 98bf
00000310: 38d0 d6be 873b 95be f79d 0d40 fd54 06c0
00000320: 9a7b d4bf bcc4 173f fe49 a9bf f13d dfbf
00000330: 6a54 ba3f ae0f 94be ee83 c83f 7cf2 c7bf
00000340: d680 993e 58ff 22bf 6f25 07c0 6ce5 d7bf
00000350: 8486 95bf 289b cebf 8ba8 ac3e 52db 633f
00000360: 07a0 19bf 87db cbbe aea3 743f e0fd cdbf
00000370: d3a7 f8bf 1eaa c6bf 7942 0bbd 88ae 8a3f
00000380: a9aa cabe 7eca 823d 86d2 85bf 87fe 883f
00000390: 7165 abbf a86b acbf a872 5b3f 9957 0cc0
000003a0: 588a a0bf 6d02 de3f ff9f 513f c514 293e
000003b0: 2ee9 1abf 2448 09c0 b696 b8bf c67b f23f
000003c0: 8e8f 003f d5f3 edbf 22e5 05c0 de20 6abf
000003d0: a351 9cbf 5180 e73f c68a d3bf 1c79 02c0
000003e0: 5bda f13f ca77 44bf 85b1 0cbf efc2 8f3f
000003f0: 3443 c1bf 97ca 78bf 96a0 ab3f c509 d7bf
-1.9553419 0.57743126 -1.747731 -1.8896592 -1.273183 -1.602367 -2.2710922 2.1829686
-2.0097911 -0.0009002909 2.1649356 1.5679859 0.08508214 -1.2528465 -0.4864689 2.2003117
0.6753066 -1.338798 1.4674368 -0.38383728 -2.0256114 -2.1140072 -1.6100771 -1.2766285
-1.6947877 -1.8865649 1.7288445 -2.0387893 -0.091525726 0.05058372 0.83338344 -1.6175972
-1.8349148 1.4023592 -1.7562197 -0.077179216 -0.44870055 -1.0786136 -0.69046897 0.22842464
0.11399204 -0.023383105 -1.2282097 -1.2401828 -1.567609 1.0862751 1.5200342 -2.2086713
-2.2890773 0.453966 -0.21353684 -1.4280713 -0.11579575 -2.1468048 1.7886953 0.76750916
0.9152828 0.19735298 1.7432604 -0.81555367 -2.3686197 -0.29023695 0.2876166 -2.155558
1.5370257 1.1456374 1.8057033 -1.2165326 -2.3538156 -1.2515318 -0.08528658 -1.7278475
-1.7215734 -2.265013 -1.2889919 -1.7592174 -0.34581158 -0.6972504 -0.66388154 1.7755562
1.8891057 2.106199 1.3254629 0.7853749 -1.8655176 -1.5022581 -1.8693701 1.5788534
1.1533264 -2.14449 1.2073357 -0.5226983 0.539567 1.5257869 -1.7873424 -2.3040845
1.5339212 0.85974956 1.0750144 1.906296 -0.9084289 -1.9824587 0.046513338 0.9557367
-2.066305 -1.864038 1.0115732 -2.069581 -0.552491 1.1605972 0.852854 1.925789
-1.6933459 0.15037552 1.4854912 -2.3343313 -1.1524473 1.6529616 0.5733365 -0.58112377
0.48323008 -0.30806464 -0.8983179 -2.1871347 -2.3128746 -1.1918215 0.96402466 1.1859837
-0.83280134 1.0399343 -0.7544657 -2.1512563 -0.09124574 -1.046949 1.7957838 -0.060399298
-1.9839872 1.567436 -1.5507433 -0.92226106 0.6061126 -0.48750997 1.7801573 0.4086711
-0.5984732 -1.5774385 -2.1278324 -0.24311355 -0.93283373 -1.4113532 -1.7270714 -2.2353666
-0.90389305 0.7835871 1.6104927 1.7674648 -0.96763283 0.16683197 -1.5072142 -2.220891
-0.5390645 1.1951933 0.29266965 0.53250426 -1.8921995 -0.35210994 1.3222613 1.3011701
0.23570082 -0.80737454 -2.0736303 1.5399766 1.4478247 -1.5064356 -0.44993293 -1.5132387
-1.6669105 -1.3101317 1.2927537 -2.0633004 1.6780168 -1.1004905 -1.3519901 -0.6504475
-0.05119602 -2.1674864 -0.26374933 -1.8143138 -2.177701 1.3915097 -1.5540136 -0.21358824
-1.4349444 -2.3581183 -2.3575315 -1.1951553 -0.41955733 -0.29146978 2.2127664 -2.0989373
-1.660022 0.5928457 -1.3225706 -1.7440778 1.4557011 -0.28918213 1.5665262 -1.5620875
0.29981107 -0.63670874 -2.1116598 -1.6866889 -1.1681676 -1.61411 0.33722338 0.8900653
-0.6000981 -0.39815924 0.95562255 -1.6093102 -1.9426216 -1.5520666 -0.03399894 1.0834513
-0.39583328 0.063862786 -1.0454872 1.0702676 -1.3390332 -1.3470354 0.85721827 -2.1928465
-1.2542219 1.734449 0.8188476 0.16511829 -0.60512054 -2.145028 -1.4420993 1.8944023
0.5021905 -1.8590037 -2.0921102 -0.914564 -1.2212414 1.8086034 -1.6526725 -2.038642
1.8894762 -0.76745284 -0.54958373 1.1231364 -1.5098634 -0.9718413 1.3408382 -1.6799856

conv1.bias f4 [50]
00000000: 4df6 eebf 9a56 bebf 9cda c6bf cdd1 04c0
00000010: 4efc febf dfce 31be 9fec cdbf cbd8 1bbf
00000020: 1e86 ccbf 0eff f6bf 8c8c 0f3d bc40 e7bf
00000030: 28ac b9bf 6a32 18bf e380 783f 8135 d4bf
00000040: cb28 34bf feef f7bf d5d9 fabf 6a1f 03c0
00000050: 96e2 e4bf 7127 f43e 360c edbf 291e fbbf
00000060: cd4c ffbf 19ac d2bf dc84 eb3e c53e 57be
00000070: 2a85 76bf fb3d 01c0 940f c3be 65d2 02c0
00000080: 18b7 b4bf a4e7 d4bf d384 01c0 65ea d5bf
00000090: febf f9be 8541 9bbf b2f8 abbf 097b e1bf
000000a0: 0f99 06bf 3d20 08c0 98c9 babf 071b d6bf
000000b0: 2280 d9bf 4208 e6bf de9f cbbf 2744 c1bf
000000c0: 3f0b e4bf 3512 a4bf
-1.8668915 -1.4870179 -1.5535464 -2.0753052 -1.9920747 -0.17364071 -1.6087836 -0.60877675
-1.5978429 -1.9296587 0.035046145 -1.806663 -1.4505663 -0.59451926 0.97071666 -1.6578828
-0.70374745 -1.9370115 -1.9597727 -2.0487924 -1.7881649 0.4768634 -1.8519351 -1.9618579
-1.9945313 -1.645877 0.459998 -0.21020038 -0.9629694 -2.019408 -0.38097823 -2.0440915
-1.4118376 -1.6633191 -2.023732 -1.6712157 -0.4877929 -1.212937 -1.3435271 -1.7615672
-0.525773 -2.1269677 -1.4592772 -1.6726998 -1.6992228 -1.797127 -1.5908163 -1.5098923
-1.7815932 -1.2818056

conv2.weight f4 [50, 50, 3]
00000000: ad6b f43f d255 d1bf 1b65 fe3f 97aa f93f
00000010: 9502 dbbf 6950 ce3f e0af e63f 0cb4 ddbf
00000020: fc82 e6bf 48ce f2bf 58af e0bf 8bf4 f5bf
00000030: 50cb e5bf 5639 e8bf 901e f4bf 8fef ddbf
00000040: afdb f6bf b3ef e0bf 0172 edbf 952c e8bf
00000050: ee70 e0bf 9931 e33f 240e f5bf f34b edbf
00000060: 0a35 f3bf 6ede edbf 7239 f2bf 9b77 f53f
00000070: 8428 c2bf 7963 e53f 4365 efbf 12ea f5bf
00000080: 446f f2bf 270b e1bf 1bff d0bf ca77 dfbf
00000090: 6f25 d9bf c402 e7bf 94d8 f4bf bc65 d9bf
000000a0: 7fcd f3bf 7fae eebf 5af0 f1bf 020d e9bf
000000b0: b1fa eabf ae5e e6bf f2d7 f6bf 203b f6bf
000000c0: 3be2 f2bf b507 eabf d797 eebf 59b0 e0bf
000000d0: 118d e7bf 4855 e9bf 56e9 dfbf e13e c9bf
000000e0: 2a94 c9bf 282f d8bf e1d2 c2bf 2a07 babf
000000f0: c6e0 eebf 5158 e0bf 73e9 eabf e866 f0bf
00000100: 4eb3 f8bf a5fe e8bf 7faf e6bf 4184 e7bf
00000110: 4551 f4bf a00f d3bf 112e dbbf 4dc9 edbf
00000120: 5ca4 e9bf c4b7 d3bf 566e dfbf e550 f2bf
00000130: 1e3a e9bf 9c52 e9bf 24f1 efbe 099c debf
00000140: c454 eabf 429d e5bf 4691 f53f bc55 c1bf
00000150: 00e5 f3bf 7683 cebf fa82 62bf a14e e4bf
00000160: fc04 ddbf edd2 f4bf 09e5 ebbf 75bf e8bf
00000170: 09e8 f4bf 2f28 f6bf ac56 fbbf 3d0b ecbf
00000180: 09f0 e0bf 1bb0 e3bf 0129 e6bf 8358 f7bf
00000190: d50c e9bf 0d8b f3bf f198 f7bf 5e59 ecbf
000001a0: 644c e3bf 61d1 e3bf 0863 eabf 4eb3 e2bf
000001b0: 240a efbf 98c9 f4bf beda ebbf 7c67 c7bf
000001c0: 0e8c edbf 58b2 f1bf bed2 f3bf 307b ecbf
000001d0: 1f0d f6bf 9caa f1bf 2818 dcbf f9ea e8bf
000001e0: 55d0 e7bf 7e3c f3bf aef3 f3bf 6b31 f2bf
000001f0: 45ea f1bf d783 f2bf 6b52 e6bf ca20 f6bf
00000200: f83f f0bf 4227 f7bf 0b90 eebf 7b0b ecbf
00000210: 308f efbf c73c edbf b593 e2bf c04e dbbf
00000220: 8005 efbf 348b f0bf a50e dfbf 277d ee3f
00000230: 9cbf e1bf 2002 f93f 92ed e83f 5106 ff3f
00000240: 7459 e7bf da12 e43f 585a b5bf 50d0 e5bf
00000250: 87cc c0bf 5db9 c2bf 8d68 efbf 1767 e83f
00000260: 89b1 ebbf 6643 e6bf f8da e8bf 55ec bcbf
00000270: 674b f5bf 54c4 f1bf 5e59 f6bf e910 f0bf
00000280: 57aa eebf 2542 e7bf 305b f0bf 211c edbf
00000290: 026c f7bf ddd3 e9bf 374d e9bf 3981 e5bf
000002a0: 825a f4bf 6831 f0bf 2e01 edbf 28cd e3bf
000002b0: e923 f5bf e9fb f8bf 9e10 ecbf a2c5 efbf
000002c0: ec94 ebbf d0d3 e3bf 34d2 e3bf 3f3b f63f
000002d0: 61cd eebf f399 ebbf e771 f9bf dd0d efbf
000002e0: 4403 ecbf 4f9f e5bf 2184 f5bf d383 f2bf
000002f0: 1fd3 fabf 6951 eabf cbea edbf 9809 f1bf
00000300: b248 f4bf 0bbe e8bf 39a7 f0bf fe8f fbbf
00000310: 56cb f4bf dd10 e9bf 20d3 e7bf 9ebb f6bf
00000320: 0837 ebbf b320 edbf 0ffb f2bf ed97 ecbf
00000330: cd6b edbf e816 e3bf b133 eabf bc67 ffbf
00000340: 5bd3 edbf 2bb6 fabf d31c f5bf 4493 f7bf
00000350: 0689 f1bf c67a f5bf af40 e9bf 88ed e9bf
00000360: fb62 ecbf 494e f7bf 5f69 fabf f448 f1bf
00000370: 8672 f1bf e752 f2bf 6dd6 e1bf fb6d dbbf
00000380: bc5a d9bf 8313 e9bf 5d13 eebf 2def f3bf
00000390: 468e fabf b8db f8bf aab9 f4bf 37cb c53f
000003a0: 68a1 dfbf e249 e8bf 760b eebf 732b f7bf
000003b0: d1f0 fabf b3b4 e1bf 8da1 e6bf b058 e0bf
000003c0: 8818 f0bf d667 fabf a796 e6bf c9b5 f5bf
000003d0: cb16 f8bf 9105 f9bf b8db e5bf e07b e6bf
000003e0: 82b7 eabf 3f8e ecbf 5dbf eebf 03a1 f1bf
000003f0: 5600 eabf 9c24 e5bf e041 e5bf 9161 e4bf
1.909536 -1.6354315 1.9874605 1.9505185 -1.7110163 1.6118289 1.8022423 -1.7320571
-1.8008723 -1.8969202 -1.7553511 -1.9215254 -1.7952671 -1.8142498 -1.9071827 -1.7338732
-1.9285792 -1.757315 -1.8550416 -1.8138605 -1.7534463 1.7749511 -1.914494 -1.8538803
-1.9000561 -1.8583505 -1.8923781 1.9177126 -1.5168614 1.7920982 -1.8702778 -1.9212058
-1.8940206 -1.7581528 -1.6327852 -1.7458432 -1.6964549 -1.8047719 -1.9128594 -1.6984172
-1.9047087 -1.8647002 -1.8901474 -1.8207095 -1.8357755 -1.7997644 -1.9284651 -1.9236794
-1.897529 -1.8283602 -1.8640088 -1.7553817 -1.8089925 -1.8229151 -1.7493083 -1.5722314
-1.5748341 -1.6889391 -1.5220605 -1.4533436 -1.8662345 -1.7526952 -1.8352493 -1.8781404
-1.942972 -1.8202711 -1.8022307 -1.8087236 -1.9087301 -1.6489143 -1.7123433 -1.8577057
-1.8253284 -1.6540456 -1.7455547 -1.8930937 -1.8220861 -1.8228335 -0.46863663 -1.7391368
-1.8307118 -1.7938616 1.9184959 -1.5104289 -1.905426 -1.6133869 -0.88481104 -1.7836496
-1.7267146 -1.912687 -1.8429271 -1.8183428 -1.9133312 -1.9231013 -1.9635825 -1.844093
-1.7573253 -1.7788118 -1.7981263 -1.9323887 -1.8207041 -1.902681 -1.9343549 -1.8464773
-1.7757688 -1.7798272 -1.8311472 -1.771097 -1.867497 -1.9124022 -1.842613 -1.5578456
-1.8558366 -1.8882551 -1.9048688 -1.8475094 -1.9222754 -1.8880191 -1.7194872 -1.8196708
-1.8110453 -1.9002836 -1.905874 -1.8921331 -1.8899618 -1.8946484 -1.7993902 -1.9228756
-1.8769522 -1.9308856 -1.8637708 -1.8441004 -1.8715572 -1.8534173 -1.7701327 -1.7133408
-1.8673553 -1.8792481 -1.7426344 1.8631943 -1.76366 1.9453773 1.8197501 1.9923803
-1.8074174 1.7818253 -1.4168196 -1.7954197 -1.5062417 -1.5212818 -1.8703781 1.815646
-1.8413554 -1.7989318 -1.8191824 -1.4759623 -1.9163636 -1.888804 -1.9246023 -1.875516
-1.8645734 -1.8067061 -1.8777828 -1.8524209 -1.9329836 -1.826778 -1.8226689 -1.7930061
-1.9090121 -1.8765078 -1.8515985 -1.7796984 -1.9151584 -1.9451877 -1.8442571 -1.8732188
-1.8404822 -1.7799015 -1.7798524 1.923683 -1.8656427 -1.8406357 -1.9487885 -1.8676106
-1.8438497 -1.7939242 -1.9180948 -1.894648 -1.9595679 -1.8306094 -1.8587278 -1.8831053
-1.9084685 -1.8182997 -1.8801032 -1.9653318 -1.9124553 -1.8208271 -1.8111305 -1.9276006
-1.8376169 -1.8525604 -1.8982867 -1.8483864 -1.8548523 -1.7741365 -1.8297025 -1.9953532
-1.8580126 -1.9586843 -1.9149421 -1.9341817 -1.8869941 -1.9178092 -1.8222865 -1.8275614
-1.8467706 -1.9320766 -1.9563407 -1.8850389 -1.8863075 -1.893155 -1.7643563 -1.7142938
-1.6980815 -1.820908 -1.8599659 -1.9057366 -1.9574668 -1.9442053 -1.911916 1.5452641
-1.7471132 -1.8147547 -1.8597248 -1.9310135 -1.9604741 -1.763327 -1.8018051 -1.7527065
-1.8757486 -1.9562938 -1.8014725 -1.9196101 -1.9381956 -1.9454824 -1.7957678 -1.8006554
-1.8337252 -1.848091 -1.865215 -1.8877262 -1.8281353 -1.7901797 -1.7910728 -1.7842275

conv2.bias f4 [50]
00000000: e6f0 ebbf b351 f5bf c474 e6bf 621c d3bf
00000010: 01af e8bf 890b 94bf 4f61 24bf 1be5 f7bf
00000020: eb17 e6bf d998 95be c668 f8bf 0775 fabf
00000030: e188 e7bf d2a1 ecbf 34cf e0bf e0de 9abf
00000040: 7d3e edbf a2e8 e8bf 96a1 cebf a3cd cabf
00000050: 5c14 8ebe 4ab7 eebf ca46 433e c44a f8bf
00000060: d7ed f6bf 99b7 f6bf 736c f5bf f8a8 ccbf
00000070: 0636 56bf 85c2 f3bf 14c7 17bf 2b16 ecbf
00000080: c4a6 01bf 30f0 f33e acb1 f6bf 5d77 b9bf
00000090: 7e7e dcbf 4deb b9bf fe7a efbf 9f8d f1bf
000000a0: 3dcb edbf 20ee fbbf 2ecd eabf df8d 00c0
000000b0: 5030 e2bf 1b34 f6bf 8009 f7bf 8450 f1bf
000000c0: 045f e1bf ac51 babf
-1.8432891 -1.9165558 -1.8004384 -1.6493037 -1.8178407 -1.156602 -0.6421098 -1.9366792
-1.7976049 -0.29218176 -1.9406974 -1.9566964 -1.8088647 -1.8486884 -1.7563233 -1.2099266
-1.8534695 -1.8195994 -1.6143062 -1.5844005 -0.27749908 -1.8649685 0.19069973 -1.9397817
-1.9291333 -1.927478 -1.9173721 -1.5989065 -0.83676183 -1.9043738 -0.59288144 -1.8444265
-0.5064509 0.47644186 -1.9272971 -1.4489552 -1.7226102 -1.4524933 -1.8709409 -1.8871344
-1.8577648 -1.9682045 -1.8343866 -2.0086591 -1.7670994 -1.9234651 -1.9299774 -1.8852696
-1.7607121 -1.4556174

conv3.weight f4 [80, 50, 3]
00000000: b440 f1bf 7a59 eabf 1e97 f0bf 5bec efbf
00000010: 2caa f2bf d130 e7bf c261 01bc 3b47 86bd
00000020: 1293 3bbd 81a5 edbf 82f6 f6bf c52e eebf
00000030: 49da f1bf 3de1 f4bf 58c8 e8bf 8fcd 18bd
00000040: 32ff 103d 429b b4bc 00d8 f6bf fb60 e6bf
00000050: 415d f8bf 3f08 e5bf 3a05 e9bf 33d5 ecbf
00000060: 9756 e8bf d7d3 f1bf 465f e7bf 824c e6bf
00000070: 9b1f f8bf 8c35 f5bf a24c a33d b529 e63c
00000080: 02ef 153c a5c5 f4bf 65f8 3e3d 870a f4bf
00000090: cd5a f8bf 004f edbf 4bf3 eabf f3d9 ecbf
000000a0: 4ab3 e9bf d821 e7bf a7c4 efbf b77a e8bf
000000b0: 8b1c f7bf 6c99 debf f65d 453c cd88 f0bf
000000c0: be94 f0bf cfef f5bf 16a5 f7bf d6ab afbf
000000d0: 1288 66bd 19fe efbf 9056 f3bf 9994 ecbf
000000e0: dc38 e8bf 9596 3bbc fc28 f6bf d23a e7bf
000000f0: 574f 4fbc ce20 e8bf 25b7 eebf 0405 db3c
00000100: f66d ebbf 7990 edbf 1c06 ebbf b25e f0bf
00000110: 22af f5bf 43b7 e5bf 5ee2 f1bf 2021 efbf
00000120: 5457 f8bf db67 efbf 1be8 e4bf 6792 e8bf
00000130: 21b8 f4bf 3947 f4bf d1d7 f1bf 449c e9bf
00000140: fe83 eabf 7ebf e9bf d2a9 e9bf af87 f6bf
00000150: ff0c e5bf b26b e8bf 8b1c f3bf 1b82 ecbf
00000160: 459b f3bf 2ad9 ecbf 9c50 ebbf 8f32 f0bf
00000170: 9081 f5bf 0450 623c 2e54 fa39 e340 7abd
00000180: 5566 efbf 68ab f8bf 243a e8bf 1311 0dbd
00000190: f965 bc3a 22a8 653d 2b2c fabc 48f1 6d3c
000001a0: 9cf1 dfbf 956a e8bf 26b6 e7bf 1758 f6bf
000001b0: 33f5 eabf a82b e9bf c99e eabf 9822 ecbf
000001c0: edb2 ebbf 2343 f7bf 9f10 f2bf c660 f4bf
000001d0: d489 e6bf 28d7 efbf 43d4 eabf 8f52 efbf
000001e0: 84f0 e9bf f9f8 f5bf 8661 ebbf 2243 9bbd
000001f0: 41dc 1dbd 1dfe a23d 7e04 51bc ffb4 043d
00000200: aff5 513c 613e f3bf b15a f0bf 9571 eebf
00000210: e0e7 f1bf 30ba f1bf 5cbf e7bf cc79 f2bf
00000220: d7c2 eabf 6984 f3bf 6597 3ebb 8540 60bd
00000230: f2bd ed3c fb8e f4bf 99df e8bf 0bf0 f0bf
00000240: 2924 ebbf d6ad e4bf 3c62 f4bf 672f e9bf
00000250: e5ac f5bf de36 e7bf 0a26 ebbf f508 e8bf
00000260: 8625 e7bf f8d7 e4bf 8803 eabf c565 f0bf
00000270: a9e6 8b3d 6d47 58bd 6a77 803d 3bc7 f3bf
00000280: ee5a e9bf 1203 e7bf f6a2 f2bf 9229 f4bf
00000290: c97e f7bf 6aa1 45bd aebf 993c b2ea 6bbd
000002a0: cb47 f3bf 8494 ecbf b6d9 edbf 32e2 f5bf
000002b0: 5c82 f7bf 84d9 f7bf ec64 efbf 1dd5 efbf
000002c0: b8e9 f4bf 284e ebbf 6613 eabf af82 ebbf
000002d0: b6b4 37bc 902f 81bc 6f81 95bc 89ea e9bf
000002e0: 5574 f5bf 0477 f0bf 9609 f6bf 1b68 f6bf
000002f0: db5c f4bf da47 f1bf 5386 f6bf 8a9b e5bf
00000300: 6151 f7bf 54d0 f6bf 50de efbf 4302 ecbf
00000310: f9b6 f6bf dac9 bc3c cd59 eabf c567 f0bf
00000320: e18d f8bf beab ef3f ef5a e7bf 9efb e7bf
00000330: 04be eebf 0c7c ecbf 4e9d f1bf e232 f4bf
00000340: 3903 f7bf 55c8 f8bf 963e f8bf b341 ecbf
00000350: 7b5d f1bf de82 f1bf d933 eebf 81f2 f0bf
00000360: 19b5 f8bf b2bf e8bf ccc7 e4bf 0eb4 ecbf
00000370: 9f89 eabf 45ec e5bf 4e54 eabf da85 f0bf
00000380: 0cad e6bf 45d9 f2bf b58d edbf 8cdf eabf
00000390: 57c0 f7bf 488c e4bf 978c e7bf fb4b e7bf
000003a0: 00e9 f5bf 93f1 efbf aeb5 e9bf bc99 eabf
000003b0: 5ced ebbf 5692 efbf 5db4 f2bf 1b93 e5bf
000003c0: 6d37 f7bf 600d f1bf 7667 e7bf bd2a c13c
000003d0: d823 08bd 48b8 8e3d 0e58 f3bf 96e7 f2bf
000003e0: 500e f6bf 7fcd 2abd 3fc7 b73c d164 773d
000003f0: aebf edbf 2d32 e83f c9b7 23bd be7a f2bf
-1.8847871 -1.8308556 -1.8796117 -1.8744005 -1.8958182 -1.8061773 -0.007896842 -0.06556555
-0.045794554 -1.8566133 -1.9293978 -1.8608023 -1.889474 -1.9131237 -1.818614 -0.03730541
0.035399623 -0.022046689 -1.9284668 -1.7998346 -1.9403459 -1.7893142 -1.820472 -1.8502563
-1.8151425 -1.8892773 -1.807595 -1.7992098 -1.9384645 -1.9156966 0.07973601 0.02809606
0.009151222 -1.9122816 0.046623606 -1.9065713 -1.940271 -1.8539734 -1.8355497 -1.8504013
-1.825784 -1.8057203 -1.8731889 -1.816245 -1.9305586 -1.7390571 0.012046328 -1.8791748
-1.8795393 -1.9213809 -1.9347255 -1.3724315 -0.05628211 -1.874942 -1.9010792 -1.8482848
-1.8142352 -0.011449476 -1.9231257 -1.8064826 -0.012653193 -1.8135011 -1.8649641 0.02673579
-1.8392932 -1.8559715 -1.836124 -1.8778899 -1.9194071 -1.7946552 -1.8897207 -1.8681984
-1.940165 -1.8703569 -1.7883333 -1.8169678 -1.9118692 -1.9084235 -1.8893987 -1.8250813
-1.8321531 -1.8261564 -1.825495 -1.9260157 -1.7894591 -1.8157866 -1.8993086 -1.8477205
-1.903176 -1.8503773 -1.8383975 -1.8765429 -1.9180164 0.0138130225 0.00047746435 -0.061097037
-1.8703104 -1.9427309 -1.8142743 -0.03444011 0.0014373652 0.056068547 -0.030538639 0.014522858
-1.7495608 -1.8157526 -1.8102462 -1.9245633 -1.8356079 -1.8216448 -1.8329707 -1.8448057
-1.8413979 -1.9317364 -1.8911322 -1.9092033 -1.8010812 -1.8737535 -1.8346027 -1.869707
-1.8276525 -1.9216605 -1.8389137 -0.07581164 -0.03854013 0.079586245 -0.012757419 0.032399174
0.012814923 -1.9003412 -1.8777677 -1.8628412 -1.8898888 -1.8884945 -1.8105273 -1.894342
-1.834071 -1.9024783 -0.0029081937 -0.05474903 0.029021237 -1.9106134 -1.8193237 -1.8823255
-1.837041 -1.786555 -1.9092479 -1.8217591 -1.9193388 -1.8063619 -1.8370984 -1.8127733
-1.8058326 -1.7878408 -1.8282328 -1.8781058 0.06831104 -0.052802492 0.062727764 -1.9045175
-1.8230875 -1.8047812 -1.8955982 -1.9075186 -1.9335567 -0.04824964 0.018768158 -0.05759687
-1.9006284 -1.8482823 -1.8582065 -1.9209654 -1.9336658 -1.9363256 -1.8702674 -1.8736912
-1.9133825 -1.8383226 -1.828717 -1.8399256 -0.011212518 -0.01576975 -0.018250195 -1.82747
-1.9176127 -1.8786321 -1.9221675 -1.925052 -1.9090837 -1.8850052 -1.9259742 -1.7938092
-1.932171 -1.9282327 -1.8739719 -1.843819 -1.9274589 0.02304547 -1.8308655 -1.8781668
-1.9418298 1.8724287 -1.8074626 -1.8123662 -1.8651738 -1.8475356 -1.887613 -1.9078028
-1.9297858 -1.9436136 -1.93941 -1.845755 -1.8856653 -1.8868062 -1.8609573 -1.8824006
-1.9430267 -1.8183501 -1.7873473 -1.8492448 -1.8323249 -1.7962729 -1.8306978 -1.8790848
-1.802156 -1.8972555 -1.855887 -1.8349471 -1.9355572 -1.785531 -1.808978 -1.8070062
-1.9211731 -1.8745598 -1.8258569 -1.8328166 -1.8431811 -1.8716533 -1.8961293 -1.7935518
-1.931379 -1.8832207 -1.8078449 0.02357995 -0.03323731 0.069687426 -1.9011247 -1.8976924
-1.9223118 -0.041699883 0.022433875 0.06039888 -1.8574121 1.8140312 -0.039970193 -1.8943708

conv3.bias f4 [80]
00000000: 36be f8bf 60b1 f1bf 8f25 f4bf 1af7 c8bf
00000010: ddde e7bf 7d9e f9bf 90c4 dabf d139 edbf
00000020: 7de7 f2bf 1518 e6bf b489 ebbf fe38 f4bf
00000030: b996 f1bf 0ea5 e4bf 2b87 d2bf cf3d f43f
00000040: 3de7 03c0 3d23 a0be 5f54 ebbf 6b91 2c3f
00000050: 8f2b f5bf f960 e9bf c885 e7bf 2023 f0bf
00000060: 36c9 ddbf 15f9 00c0 1ed9 e2bf 9083 f8bf
00000070: efc1 e9bf bbb0 f0bf 7819 01c0 658e 86bf
00000080: 5b8d c63f 5978 ecbf 2f99 01c0 6a4b ffbf
00000090: f9e0 e3bf 5410 a8bc c942 ea3e 901e 06c0
000000a0: ce81 ecbf 4ca3 ecbf f4be f1bf 9ee6 f8bf
000000b0: 0a58 e8bf efa7 f0bf 9bd3 f0bf 62b0 02c0
000000c0: f963 dcbf bb00 f6bf b0d6 a63f c946 f6bf
000000d0: d079 463e b5bc f5bf 3323 ebbf 0c8c efbf
000000e0: 6da4 abbe 65c6 febf b175 ab3f c30d 98bd
000000f0: c955 f5bf dcdc fdbf 5690 efbf 562d fabf
00000100: 29b0 f8bf 7574 f3bf 6755 d43e 06fd fabf
00000110: c131 ebbf 59bd 9abf dec6 683f b050 f4bf
00000120: 819a f0bf 1199 edbf 7f49 c2bf 3e48 ecbf
00000130: ca74 f3bf 02a3 e5bf 6d5a f1bf 76d8 fcbf
-1.9433048 -1.8882256 -1.9073962 -1.570041 -1.8114887 -1.9501492 -1.7091236 -1.8533269
-1.8976895 -1.7976099 -1.8401399 -1.9079893 -1.8874122 -1.7862871 -1.64475 1.9081362
-2.0609887 -0.31276885 -1.8385123 0.6740939 -1.9153918 -1.8232719 -1.8087702 -1.8760719
-1.732703 -2.0152028 -1.7722509 -1.941515 -1.8262309 -1.8803934 -2.0171795 -1.0512205
1.5511888 -1.8474227 -2.0249746 -1.994489 -1.7803031 -0.020515598 0.45754078 -2.0956154
-1.8477113 -1.8487334 -1.8886399 -1.9445379 -1.8151867 -1.8801249 -1.8814577 -2.0420156
-1.7218009 -1.9218973 1.3034267 -1.9240352 0.19382405 -1.9198214 -1.8370117 -1.8714614
-0.33523884 -1.9904295 1.3395292 -0.074245 -1.9166805 -1.9833026 -1.8715923 -1.9545085
-1.942876 -1.9019915 0.41471407 -1.9608467 -1.8374559 -1.2089034 0.9092845 -1.9087124
-1.8797151 -1.8562337 -1.5178679 -1.8459547 -1.9020016 -1.7940371 -1.8855721 -1.9753559

conv4.weight f4 [80, 80, 3]
00000000: 6607 f13c bb7a 0b3d 2f89 8cbc 116a 8c3c
00000010: 6cb0 203d 64c9 81bc 43e1 433d 3469 e53c
00000020: c9c0 e8ba f134 e9bf 2433 ebbf efe9 edbf
00000030: 401e fd3c 293a f63c 9faa 20bd 23e7 6cbc
00000040: dac3 e7bf 7a2f 263c 3b10 eebf 1ad5 f5bf
00000050: fca7 f1bf 49a1 f4bf 8367 e9bf ec27 f2bf
00000060: 6e2b f3bf 2f3d f2bf 9847 ebbf 7a5c eebf
00000070: c362 f6bf 3933 eabf 0eb3 efbf d0da e6bf
00000080: bc4c efbf 5a6a d5bc d9b1 213c a04a 5bbd
00000090: 7f5c e6bf 983d f6bf 850a eebf db32 e7bf
000000a0: 3272 edbf ac51 f1bf 7c7a 30bb b96b 1c3d
000000b0: 5a63 b63c 563e eebf 8057 f1bf b52d eebf
000000c0: 84ae 1c3d e18d b7bc a2cd 0e3d 49c3 7bbd
000000d0: d41a 65bd 2741 6b3d 6693 eebf 18c7 f1bf
000000e0: 32cf 77bd ad87 f2bf 064b ecbf 63f5 f4bf
000000f0: 8fe8 7abd 219f 73bb dd0b f0bc 869b f3bf
00000100: 1bd9 ebbf d363 f0bf f218 e7bf 6658 ebbf
00000110: 25fd ecbf 8e26 f4bf fb79 f2bf 1469 ecbf
00000120: 82f9 f2bf 3e36 e8bf ee8a e6bf e8cc 843c
00000130: 4e62 78bd 8925 fb3c c49a b5bc e431 92bb
00000140: 4124 f4bf 0228 36bd 6965 7bbd 7d97 7c3d
00000150: a6ea e6bf 0ddc efbf da7c e9bf 06e9 f1bf
00000160: 7e5f e8bf 0642 f3bf a5b8 a63c b541 753d
00000170: 4d19 1dbd 7aaa c6bc d652 0dbd 274f 4b3d
00000180: 2eaf e8bf 9851 3c3d 6af5 e6bf adbc e8bf
00000190: 1144 eabf ad7a eabf 7064 f1bf 2f39 f6bf
000001a0: c081 e9bf e1ae edbf 7c69 e8bf a919 7a3d
000001b0: 9d5d f1bf 454e eebf 1040 f4bf aa1e 04bd
000001c0: f646 efbf 4a5d 56bd 2f71 133c af50 03bd
000001d0: 204d 873c 0539 3f3c 308e 823c 437b 1abd
000001e0: 477e b4bc 140a 08bd b405 ad3c 49d7 81bc
000001f0: bd08 f6bf 14ed 0abd 214b 443d d6b3 783d
00000200: 4070 ebbf da66 e9bf 04a0 efbf a1aa ebbf
00000210: e5e9 eebf e627 f4bf fc5a f0bf 82d1 ecbf
00000220: dc8d ecbf ea35 f5bf d171 56bd 5c3c 0fbd
00000230: 757e 4d3c 997b f5bf 3a9f edbf c727 eabf
00000240: a5cd edbf edf4 f2bf e317 ebbf b64a f4bb
00000250: 1c50 0f3d ee15 a1bc 18ea 46bd f2f9 54bd
00000260: 5886 1e3d 7771 f3bf 5ec2 f3bf d131 ecbf
00000270: 6c09 f6bf 12b8 ecbf bf1f f2bf 4354 d83a
00000280: e8e7 8fbb b923 aebb 2aaa 013d b666 59bd
00000290: 5c77 71bc 2c4d 223d d108 e7bf d8ed e9bf
000002a0: 9d0d 44bd dfe5 a03c b8ad e4bf 3d31 28bd
000002b0: 6f9f ba3c 0baf 183c 49ac eabf b16c f1bf
000002c0: 4c96 eabf 75c3 c9bc 50f8 13bd d6f2 7cbd
000002d0: 58f5 f2bf 5c46 eabf 504b ecbf ed94 eebc
000002e0: 61b4 5cbd a375 7cbc 7978 efbf a77d f5bf
000002f0: c7bd eebf 9800 cbbc 2997 b4bb 0b46 773d
00000300: 6219 173d ee4c 8abc 6509 183d 4353 5cbd
00000310: 5b34 e3bc 7556 483d 6e12 e7bf 2634 e7bf
00000320: 988b eabf 94ec 70bd dad1 f1bf 442a 24bd
00000330: 8ce6 cabc ab6b 2fbd 2a57 b13c 103e eebf
00000340: 530a e9bf 1da7 e7bf ab1b eabf 5b10 f0bf
00000350: 8f84 efbf a183 3dbc 8e72 e8bc e30b 48bd
00000360: 3d99 f2bf 61b2 f0bf 8862 eebf 9f5c 403d
00000370: 2d12 9f3c ba24 2d3d 7bfe 403c f67e c33c
00000380: 64bb 14bc a9a2 e9bf 883b efbf d894 e7bf
00000390: 3cb5 f0bf f7b1 f2bf 26b7 e7bf 4e8d edbf
000003a0: 6c7d f0bf 6927 94bc e1a5 f1bf 5e34 e7bf
000003b0: 0e7b efbf 33bc a7bc 397b a5bc 852a 43bd
000003c0: a61f 243d 3135 0abc a601 7abd 4602 15bd
000003d0: 91c8 fb3b 5c79 4fbd 86c3 ecbf acd6 e6bf
000003e0: e575 eebf 4d66 efbf 9e12 f5bf 45e2 f0bf
000003f0: 582e a53c 5ee2 873b 74a0 733c 34bc f2bf
0.029422473 0.03405259 -0.017155258 0.01714042 0.03923075 -0.0158431 0.04782225 0.028004266
-0.001775765 -1.8219281 -1.8374982 -1.8587016 0.030898213 0.03005703 -0.039225217 -0.014459404
-1.8106644 0.010143155 -1.8598703 -1.9205658 -1.887939 -1.911172 -1.8234714 -1.8918433
-1.8997629 -1.8924922 -1.8381224 -1.8621972 -1.924889 -1.8296882 -1.8726518 -1.8035526
-1.8695292 -0.026051689 0.009869062 -0.053537965 -1.7996978 -1.9237547 -1.859696 -1.8062395
-1.8550475 -1.8853049 -0.0026928475 0.03818867 0.022264171 -1.8612773 -1.8854828 -1.8607699
0.03825237 -0.02240652 0.034864075 -0.061465535 -0.05593379 0.05743518 -1.8638732 -1.8888884
-0.06050033 -1.8947655 -1.8460395 -1.9137386 -0.06125694 -0.0037173706 -0.029302532 -1.9031837
-1.842563 -1.8780464 -1.8054488 -1.8386352 -1.8514754 -1.9074266 -1.8943475 -1.8469567
-1.8982394 -1.8141553 -1.8011148 0.016210988 -0.060640626 0.030657547 -0.022168525 -0.004461514
-1.9073564 -0.04447175 -0.06137601 0.061667908 -1.8040359 -1.8739029 -1.8241227 -1.8899238
-1.8154142 -1.9004524 0.020351717 0.059877116 -0.038354207 -0.024251211 -0.034502827 0.049636032
-1.8178461 0.04597625 -1.8043644 -1.8182579 -1.8302022 -1.8318688 -1.8858776 -1.9236201
-1.8242722 -1.8568994 -1.8157191 0.061059628 -1.8856694 -1.8617636 -1.908205 -0.032255806
-1.869353 -0.05233506 0.008999153 -0.032059368 0.016516268 0.011671309 0.01593694 -0.037715208
-0.02203287 -0.033212736 0.021120884 -0.015849726 -1.9221417 -0.0339175 0.04792321 0.06071838
-1.8393631 -1.8234513 -1.8720708 -1.8411447 -1.8665129 -1.9074676 -1.8777766 -1.8501437
-1.8480792 -1.9157078 -0.052354638 -0.034969673 0.012542357 -1.9178344 -1.8564217 -1.8293389
-1.8578383 -1.8980995 -1.8366665 -0.0074551953 0.034988508 -0.019663777 -0.048563093 -0.05199618
0.03870234 -1.9019002 -1.9043691 -1.8452703 -1.9221625 -1.8493674 -1.8915938 0.0016504604
-0.004391659 -0.005314317 0.03165642 -0.05307647 -0.01473793 0.039624378 -1.8049566 -1.8275709
-0.047864545 0.019640861 -1.7865515 -0.041062582 0.022781102 0.009319077 -1.8333827 -1.8861295
-1.8327117 -0.024629334 -0.03612548 -0.061755024 -1.8981123 -1.8302722 -1.8460484 -0.029123748
-0.05388296 -0.015408906 -1.870864 -1.9178971 -1.8651665 -0.024780557 -0.0055111838 0.060369533
0.03688944 -0.016882386 0.037118334 -0.053790342 -0.027734926 0.048910577 -1.8052499 -1.806279
-1.8323851 -0.05881937 -1.8892167 -0.04007937 -0.024768136 -0.04282729 0.021648008 -1.861269
-1.8206276 -1.8097874 -1.8289694 -1.8754991 -1.8712329 -0.011567027 -0.028374936 -0.04883946
-1.8953015 -1.8804437 -1.8623819 0.04696333 0.019417847 0.042271353 0.011779423 0.02386425
-0.0090778805 -1.8252765 -1.8690042 -1.8092299 -1.8805308 -1.896056 -1.8102767 -1.8558748
-1.8788276 -0.018085198 -1.8878747 -1.8062856 -1.8709428 -0.020475483 -0.020200359 -0.04764797
0.040069245 -0.008435533 -0.06103673 -0.03637912 0.0076838215 -0.050652847 -1.8497169 -1.8034263
-1.8629729 -1.8703095 -1.9146307 -1.8819052 0.0201637 0.004146858 0.014869798 -1.8963685

conv4.bias f4 [80]
00000000: cd08 f0bf 01c8 f5bf 6ca2 f33f 832a edbf
00000010: 993c efbf 183b 833c f720 f0bf 51b4 d2bf
00000020: 5d6a e9bf ef42 e9bf a7b2 cd3f c807 fcbf
00000030: 1393 febf 17ef efbf ffea 94be 652f f3bf
00000040: 0a49 f1bf babc e3bf a1b4 d53f 9f3a c63f
00000050: 0a10 eebf dd22 f5bf 791c ebbf c51f 8abf
00000060: 360f f43f b388 fdbf f85d 01c0 b343 7fbf
00000070: 98b5 e23f 641b e03f a801 07c0 c108 bfbf
00000080: cb12 f4bf 4146 aa3e 7a6d 31bf eeb1 dc3f
00000090: ef55 f5bf 5ddd f6bf 2347 ffbf 7732 efbf
000000a0: c3ea f2bf 8ea9 f5bf 3d91 f1bf adba dabf
000000b0: 1961 f73f 1140 edbf 5199 f9bf 2a89 ed3e
000000c0: 4381 683e abf9 6f3f f85d e2bf ef87 ff3f
000000d0: 3680 edbf 58e3 7ebf 74f7 e8bf 0f11 e9bf
000000e0: d805 bebf 7b9f f2bf 4c81 f7bf 0296 eabf
000000f0: de9a e8bf d174 f7bf d354 e13f 230d edbf
00000100: efc0 debf 4c5d f5bf 4872 f1bf 0da5 f4bf
00000110: f8d7 f2bf 9f09 993e 63e5 eeba 591e febf
00000120: 7ced ecbf 12d1 babf 0bf9 c5bf 8195 f4bf
00000130: a745 2c3f bf1b fd3e 523c fbbf 0677 fcbf
-1.8752686 -1.9201661 1.9033942 -1.8528599 -1.8690368 0.016019389 -1.876006 -1.6461278
-1.8235584 -1.8223552 1.6070145 -1.9689875 -1.9888633 -1.874484 -0.29085538 -1.8998839
-1.8850415 -1.779197 1.6695749 1.548664 -1.8598645 -1.9151264 -1.8368064 -1.0790945
1.9067142 -1.9807342 -2.0213604 -0.99712676 1.7711668 1.7508359 -2.109476 -1.4924546
-1.9068235 0.33256724 -0.6930767 1.72418 -1.916685 -1.9286305 -1.9943584 -1.8687276
-1.8977894 -1.9192369 -1.8872448 -1.7088219 1.9326507 -1.8535177 -1.9499913 0.4639371
0.2270556 0.9374034 -1.7684927 1.9963359 -1.8554752 -0.9956565 -1.8200517 -1.8208331
-1.4845533 -1.895492 -1.9336333 -1.8327029 -1.8172262 -1.9332525 1.7604011 -1.8519634
-1.7402629 -1.9169097 -1.8863001 -1.911287 -1.8972158 0.29890153 -0.0018226322 -1.9853011
-1.8509974 -1.4595053 -1.5466627 -1.9108125 0.6729378 0.4943523 -1.9627783 -1.9723823

linear.weight f4 [6, 80]
00000000: ddab e9bf 63bb f73f fdf4 043d 6066 d1bf
00000010: 0ae7 e33f a448 d1bf ab9f f6bf ce33 e83f
00000020: 01ae f33f 2611 e1bf 3138 bc3f f290 dabf
00000030: 6104 e1bf 8bf1 f6bf 9393 e53e c9fd 81be
00000040: 4499 f9bf 2a6e 06bf 76e7 9dbf bfb0 943f
00000050: 80c8 b8bd 12b2 eabf fa8f 02bf 6171 853f
00000060: df11 3fbe bbcf dcbe ae16 49be ed08 543f
00000070: e9fa e93f de18 ae3f 91c8 973f 364c e73f
00000080: d852 ee3f 166a 12bf 7c8f 963e 1688 e43f
00000090: 9ead e6bf 1727 ebbf 33db 7dbf 1b6c e43f
000000a0: 8115 e2bf a47b b33f ef17 df3f d6b3 e43f
000000b0: 9db4 d73f 5784 f2bf 9315 e13f 88c9 d03f
000000c0: 5808 943f 1b47 6d3f 79db 8dbf a34d e23f
000000d0: becf f5bf fad0 a8bf aa5b edbf 7d32 cc3f
000000e0: 071d d83f 3509 debf 1ec6 c7bf 40f5 edbf
000000f0: 0db5 f4bf 1240 c13f 5904 d73f 60bb ecbf
00000100: 0085 b5bf 89fc f7bf d5e5 ecbf d506 e3bf
00000110: 1166 d6bf 2344 e73f 78dd 9ebe 6d87 e0bf
00000120: 67fb e0bf 52c3 e03f caed acbf bbc3 de3f
00000130: 7dad 683f 31b2 ff3e f3bd b33e dbd6 d83f
00000140: 9837 e0bf c2cd e6bf b44f a2bd cd11 db3f
00000150: ef1a f13f 22c0 053f 3a08 e73f 1be7 e6bf
00000160: 6ce3 e6bf 8f74 f03f 5b1d dd3f a5cb e4bf
00000170: 74b4 893f 730d e1bf 7a59 403f 0244 c03f
00000180: d01e e23f 10c9 e83f fdd3 d93f 7157 913f
00000190: d6a8 993e e07f e73f 9ba2 df3e 3703 e93f
000001a0: ed91 dabf e7e4 f03e 6b2e f2bf a1dc e0bf
000001b0: 176c ebbf beff d43f 46fd ab3e 4093 debf
000001c0: fcc7 f5bf ef8d c43f 895d dcbf 0dd3 ddbf
000001d0: e502 e63f 3247 e6bf 5688 6c3f bd0e f43f
000001e0: d59f ed3f 1d4b de3f 1972 ea3f d688 e1bf
000001f0: f408 fdbf 8e48 e83f 9572 c5bf 96bc fabf
00000200: 8b1b eebf 6a16 d8bf 533e bf3f ba36 f9bf
00000210: 22cc ea3f 7ef9 2e3f b6e6 e33f 2a8d e7bf
00000220: 7b98 dfbf 3f2f ec3f 834e c8bf 9a8d e43f
00000230: 6fa5 ed3f 5f10 c4bf 54d7 6f3f e56a e43f
00000240: b469 ee3f fd04 e33f 4200 e7bf f8ac e63f
00000250: a2b6 cd3f 3455 ed3f eca5 1b3f 48d5 e63f
00000260: e2cc e63f bd1e efbf 9d3c b8bf 3db1 f23f
00000270: 3e49 d43f 2652 fe3e 7f18 5c3f eca1 f73f
00000280: d890 e1bf 2984 f0bf 90ae b5bf af00 e4bf
00000290: cdec ed3f 676c 69bf f7d4 e2bf bfed f8bf
000002a0: 0995 fbbf 87b5 eabf 6877 03c0 a250 f23f
000002b0: 0783 eebf 1241 e8bf 24ca f3bf 7bff 9bbd
000002c0: 7827 f5bf 8439 fbbf 7a08 febe f0fc efbf
000002d0: 8461 ea3f 8592 edbf ef82 07c0 0876 c0bf
000002e0: ece4 d6bd 455a e2bf bf8e fcbf cb42 d43f
000002f0: 0386 fabf 1aea febf 627e cdbf ace1 eebf
00000300: 68c0 e2bf 1cb4 213f 0daf bf3f 6e71 febf
00000310: dd74 f0bf e9cc e23f 6960 eabf 1366 e2bf
00000320: 632d fabf 120c f3bf ad76 ecbf fa8d ecbf
00000330: 1bb6 483f 94e2 e3bf aa38 d63f 304d fcbf
00000340: 7efc e13f 8a67 f5bf 85a0 fcbf 58a4 edbf
00000350: 3ed2 e9bf 05cd 06c0 e432 eabf 20f8 f7bf
00000360: ec2c ecbf e26f babf dfd7 ffbf 8839 e5bf
00000370: 79cc e8bf c262 e1bf 7cd7 e9bf 6508 e6bf
00000380: 7404 fabf f6eb e3bf afc2 ddbf 0991 e4bf
00000390: db06 f9bf 830d e9bf 3710 0ec0 ef48 e2bf
000003a0: 9f55 fbbf fd1e fcbf 1367 fabf e7fa ecbf
000003b0: 192b ffbf 0073 c2bf d2d5 e5bf 78a4 eabf
000003c0: 17c8 ebbf 966a f7bf 5eef dfbf 2cbe e7bf
000003d0: 9373 ecbf fe18 a5bf d799 e3bf b1b7 d73f
000003e0: 2808 dc3f 83f4 e7bf 0dac 01c0 fed4 d4bf
000003f0: 70b9 e9bf b334 dfbf cadb eabf 7865 023d
-1.8255574 1.9354061 0.0324602 -1.6359367 1.7804883 -1.6350293 -1.9267477 1.814081
1.9037477 -1.7583358 1.4704648 -1.7075484 -1.7579461 -1.9292463 0.44839153 -0.25388935
-1.9499898 -0.52511847 -1.2336261 1.1616439 -0.09022617 -1.8335593 -0.5100094 1.0425225
-0.18659161 -0.43127236 -0.19637558 0.8282612 1.8279697 1.3601339 1.1858083 1.8070133
1.8619032 -0.57193124 0.29406345 1.785403 -1.8021734 -1.8371304 -0.99162596 1.7845491
-1.7662812 1.4022107 1.7429179 1.7867382 1.6851994 -1.8946637 1.7584709 1.6311502
1.1565046 0.92686623 -1.1082603 1.7679943 -1.9204023 -1.3188775 -1.8543599 1.5952908
1.6883858 -1.734656 -1.5607336 -1.8590469 -1.9117752 1.5097678 1.6798202 -1.8494682
-1.4181213 -1.9373943 -1.8507639 -1.773646 -1.6749898 1.8067669 -0.31028342 -1.7541329
-1.7576722 1.7559607 -1.3510067 1.7403482 0.9088972 0.49940637 0.35105857 1.6940569
-1.7516966 -1.8031542 -0.079253584 1.7114807 1.8836344 0.52246296 1.8049386 -1.8039278
-1.8038154 1.8785571 1.7274584 -1.7874647 1.0758195 -1.7582229 0.7513653 1.5020754
1.7665653 1.818636 1.7017819 1.135481 0.30011624 1.8085899 0.43678746 1.8204106
-1.7075783 0.4704964 -1.8920416 -1.7567331 -1.8392361 1.6640546 0.3359167 -1.7388687
-1.9201655 1.5355815 -1.7216045 -1.7330033 1.7969633 -1.7990477 0.9239553 1.9066998
1.8564402 1.7366673 1.831607 -1.7619884 -1.9768357 1.8147142 -1.5425593 -1.9588802
-1.8602155 -1.688184 1.4940895 -1.9469826 1.8343546 0.68349445 1.7804782 -1.8089955
-1.7468408 1.8451918 -1.564896 1.7855713 1.8566111 -1.5317496 0.9368794 1.7845122
1.8626008 1.7735897 -1.8046954 1.8021536 1.607136 1.8541627 0.6080005 1.8033838
1.8031275 -1.8681256 -1.4393498 1.8960339 1.6584852 0.4967205 0.8597488 1.934629
-1.7622328 -1.8790332 -1.4193897 -1.7812709 1.8587891 -0.91181034 -1.7721242 -1.9447554
-1.9654857 -1.8336648 -2.054163 1.8930857 -1.8633736 -1.8144858 -1.9046063 -0.076170884
-1.915267 -1.9626927 -0.49615842 -1.8749065 1.831101 -1.8560339 -2.1173666 -1.503602
-0.10492882 -1.7683798 -1.9731063 1.6582884 -1.9572147 -1.9915192 -1.6054194 -1.866262
-1.7714968 0.6316545 1.4975296 -1.9878366 -1.8785664 1.7718784 -1.8310672 -1.76874
-1.9545101 -1.8988059 -1.8473717 -1.8480828 0.7840287 -1.7803521 1.6736042 -1.9711056
1.765518 -1.9172223 -1.9736487 -1.8565779 -1.8267286 -2.1062634 -1.829678 -1.9372597
-1.8451209 -1.4565394 -1.9987754 -1.7908182 -1.81874 -1.7608263 -1.8268886 -1.7971312
-1.9532609 -1.7806385 -1.7325038 -1.7856761 -1.9455217 -1.8207248 -2.2197397 -1.7678508
-1.9635504 -1.9696957 -1.9562706 -1.8514069 -1.9935027 -1.5191345 -1.7955878 -1.8331442
-1.8420438 -1.9329402 -1.7494924 -1.8104911 -1.847277 -1.2898252 -1.7781323 1.6852933
1.7189989 -1.8121494 -2.0261261 -1.66275 -1.8259716 -1.7437958 -1.8348324 0.03183505

linear.bias f4 [6]
00000000: 4ae6 1b3f 8bee f1bf 75a2 d03f 561a 5ebf
00000010: 077d a23f e142 ee3f
0.6089827 -1.8900923 1.6299578 -0.86758935 1.2694405 1.861416
