figs/optimizer/adam-0.01-mlp/mlp_model_dict.pt (torch, 141967 bytes, 10 tensors)

group.0.weight f4 [100, 100]
0	0x3d213115	0.03935345
1	0xbc882114	-0.016617335
2	0xbdff6263	-0.12469938
3	0xbe05df0c	-0.13073367
4	0xbcd35721	-0.025798382
5	0xbe0a6d31	-0.13518216
6	0x3c426f71	0.01186739
7	0xbd75e94a	-0.060036935
8	0xbcefa7ab	-0.029254755
9	0x3c2553bc	0.010090765
10	0x329ba72f	1.8120401e-08
11	0xbc07e2b7	-0.008293799
12	0xbca3af61	-0.019981088
13	0xbd5cfb59	-0.05395064
14	0xbe3860a0	-0.1800561
15	0x323b74a9	1.0911358e-08
16	0x3b340340	0.0027467757
17	0xad3dada4	-1.0781962e-11
18	0xbd989599	-0.074504085
19	0xbe63fabe	-0.2226362
20	0xbc4a5f7b	-0.012351866
21	0x3cfede75	0.031111935
22	0xad10bfc3	-8.228032e-12
23	0xbe225e3b	-0.15856259
24	0xac80e7e1	-3.6637225e-12
25	0xbdeb754d	-0.11496983
26	0xbdb23095	-0.087006725
27	0xbccfd7fa	-0.02537154
28	0x35a228c8	1.208181e-06
29	0xbcbd3808	-0.023098007
30	0x3bf48e8b	0.0074632815
31	0xbc490a86	-0.012270575
32	0xbd80203c	-0.06256148
33	0xbe59905a	-0.21246472
34	0xbd98a726	-0.07453756
35	0xbcba0526	-0.022707533
36	0x2bab18ab	1.2157128e-12
37	0xbdad8704	-0.08473018
38	0xb7ed2be3	-2.8273038e-05
39	0xbd87fdb5	-0.06640188
40	0x3c952c29	0.018209534
41	0xbd87c8b3	-0.06630077
42	0xb2903365	-1.6787178e-08
43	0x3cafdc9e	0.021467503
44	0xbd92288f	-0.07136642
45	0xb9a49f9f	-0.00031399445
46	0xbe7745a8	-0.24147666
47	0xbdecbdad	-0.11559615
48	0xbc1c6611	-0.009545819
49	0xbe1870e3	-0.14886813
50	0xacc8915c	-5.70048e-12
51	0xbcd60f6f	-0.026130406
52	0x33944d4b	6.9058466e-08
53	0xbdb38821	-0.08766199
54	0x3ce81869	0.028331952
55	0x370cbda6	8.388806e-06
56	0xbd908ccd	-0.070581056
57	0x3cfda383	0.030961758
58	0x3cb5f53d	0.022211665
59	0x3cb214a7	0.021738363
60	0x3a9a9847	0.001179465
61	0xae39e2a4	-4.2265427e-11
62	0xbb1ba9d3	-0.0023752346
63	0xbd167402	-0.036731727
64	0x3cb9ebe8	0.022695497
65	0xbcf175c9	-0.02947511
66	0xba82e613	-0.000998678
67	0x3d3a2676	0.045446835
68	0xb6a4bae5	-4.9093383e-06
69	0xbdb0bb16	-0.08629434
70	0xbdcffec2	-0.10156013
71	0x3b3694a6	0.0027859597
72	0x3dc26bff	0.09493255
73	0xbb267fa5	-0.0025405672
74	0xbddac68c	-0.10682401
75	0xbe15de2f	-0.14635538
76	0x3adf5135	0.0017037751
77	0x3d321879	0.04348037
78	0xbdb92234	-0.09039727
79	0x3a507866	0.0007952511
80	0x3d6192e6	0.055071734
81	0xbc85c99d	-0.016331488
82	0xad2aef4b	-9.716515e-12
83	0xbddba9c1	-0.10725737
84	0xbd97874d	-0.073988535
85	0xbb1dbdf9	-0.0024069531
86	0x3d45bdbe	0.048276655
87	0x3a7bec4e	0.0009610102
88	0xbc84b798	-0.016200826
89	0xbd31cad0	-0.043406308
90	0xbd378145	-0.044801015
91	0xba494c6f	-0.0007678931
92	0x2f45b5e7	1.798167e-10
93	0xbd11a688	-0.035559207
94	0x3ccf8e17	0.025336308
95	0x30802cd7	9.32597e-10
96	0x3d50e6c8	0.05100134
97	0x3c5097fb	0.0127315475
98	0xbdab328c	-0.083592504
99	0xbde57c1d	-0.11205313
100	0xc351c869	-209.78285
101	0xc12029b1	-10.010179
102	0xc24e2c8d	-51.543507
103	0xc09df3fd	-4.9360337
104	0xc0281b5f	-2.6266706
105	0xc0f591fb	-7.67407
106	0xc351917f	-209.56834
107	0xc34eee5c	-206.93109
108	0xc25b2259	-54.783543
109	0xc10d3c48	-8.827217
110	0x40d34ab1	6.6028676
111	0xc09031f8	-4.5060997
112	0xc1be2d6a	-23.772175
113	0xc1a110da	-20.133228
114	0xbf59caa7	-0.8507485
115	0xc34377c7	-195.46788
116	0xbff885a8	-1.9415789
117	0xc14283de	-12.157194
118	0xc1803e10	-16.030304
119	0x3bba365f	0.005682751
120	0xc175af1b	-15.35525
121	0xc350301a	-208.1879
122	0xc11733dc	-9.450161
123	0xc1573b40	-13.451965
124	0xc32aec50	-170.9231
125	0xc16a5f64	-14.648289
126	0x3f8ff18b	1.1245588
127	0xc1897848	-17.183731
128	0xc1369bfd	-11.413083
129	0xbeee72a9	-0.46571854
130	0xc13117f7	-11.068351
131	0xc11e8cc7	-9.909369
132	0xc0282552	-2.6272779
133	0xc1353f0d	-11.327893
134	0xc1e4bb59	-28.591478
135	0xc18bbe84	-17.468025
136	0xc28f7481	-71.72755
137	0xbf365daa	-0.7123667
138	0xc15dd05a	-13.863367
139	0xc20e7378	-35.612762
140	0xc0f78bd3	-7.7358184
141	0xc0968686	-4.7039213
142	0xc0a826ac	-5.2547207
143	0xc1a0cee8	-20.101028
144	0xbf8e766a	-1.1129887
145	0x3f1c5180	0.6106186
146	0x3fa129aa	1.259084
147	0xc03983a3	-2.8986595
148	0xc0852e88	-4.16193
149	0xc0559175	-3.337003
150	0xc04c1e03	-3.1893318
151	0xc13fb3ed	-11.981427
152	0xc03f2173	-2.9864166
153	0xc09364ca	-4.6060534
154	0xc095e5f6	-4.6843214
155	0xc308e912	-136.91043
156	0xc34f3b43	-207.23149
157	0xc10d4430	-8.829147
158	0xc0eebec6	-7.460788
159	0xc0de4adf	-6.9466395
160	0xc2973fc6	-75.62456
161	0xbfc041f4	-1.5020127
162	0xc34f061f	-207.02391
163	0x3fb47a97	1.4099911
164	0xc0fc3b35	-7.8822274
165	0xc1acea4d	-21.614405
166	0xbfc0fd47	-1.5077294
167	0xc0054b3a	-2.0827165
168	0xc181fcce	-16.24844
169	0xc0e06daf	-7.013389
170	0xc12ae82f	-10.681685
171	0xc189f170	-17.24289
172	0xc18941c1	-17.157106
173	0xc0eb0146	-7.3439054
174	0xc34c0c36	-204.0477
175	0xc34e0ba6	-206.0455
176	0xc11df067	-9.871192
177	0x3f5d0849	0.8634077
178	0xc0f52901	-7.6612554
179	0xc1e88ad6	-29.067791
180	0xc06ddb06	-3.7164931
181	0xc3356960	-181.41162
182	0xc087d4ce	-4.244727
183	0xc057f6d6	-3.3744407
184	0xc1f52bd8	-30.646408
185	0xbf6b3d29	-0.918902
186	0xbfbc1d94	-1.4696527
187	0xc145e0c9	-12.367379
188	0xc14b707a	-12.71496
189	0xc1d6b10a	-26.836445
190	0xc34a9da7	-202.61583
191	0xc064eae6	-3.576837
192	0xc1ac2ecd	-21.522852
193	0xc1b15834	-22.168068
194	0xc328219e	-168.13132
195	0xc10aa02b	-8.6641035
196	0xc1cd6fa5	-25.679514
197	0xc03081de	-2.7579265
198	0xc1b7c471	-22.970919
199	0xc1adf554	-21.74479
200	0xc1229b00	-10.162842
201	0xc16d4f16	-14.831808
202	0xc12175e7	-10.091285
203	0xc0851b4b	-4.1595817
204	0xc1cb6f61	-25.429384
205	0xc0954392	-4.6644983
206	0x41e16124	28.172432
207	0xc19766e0	-18.925232
208	0xc12ef32b	-10.934367
209	0xc092bbce	-4.5854254
210	0x41143d2f	9.264937
211	0xc1a145a6	-20.159008
212	0xc15159b9	-13.084405
213	0xc2050f08	-33.26468
214	0xbe8749a9	-0.26423386
215	0xc20b0304	-34.752945
216	0xc1461d9d	-12.38223
217	0xc087e486	-4.246646
218	0x408b2417	4.3481555
219	0xc12838eb	-10.513896
220	0xc0173764	-2.3627558
221	0xc15a8350	-13.657059
222	0x3d221e93	0.03957994
223	0xbe8684f3	-0.26273307
224	0x41f0dd7c	30.108147
225	0xc18fa826	-17.957104
226	0xc025ddda	-2.5916657
227	0xc144ebe3	-12.30759
228	0xc07bf7c8	-3.9369984
229	0x4137ce40	11.487854
230	0xbfdf3aa6	-1.7439773
231	0xc0835f07	-4.10535
232	0xc0d6f4ed	-6.717398
233	0xc07e9b43	-3.9782264
234	0xc1c3935c	-24.446953
235	0xc08be45b	-4.3716254
236	0xc2144d3f	-37.075436
237	0xc0476ed6	-3.11614
238	0x416c067a	14.751581
239	0xc0cba818	-6.3642693
240	0xc1835af0	-16.419403
241	0xc115fd6e	-9.3743725
242	0xc10741a6	-8.453527
243	0x421d27ed	39.28899
244	0xbfea7cff	-1.8319396
245	0xc04af78d	-3.1713593
246	0x4181bf02	16.218266
247	0xc093387d	-4.6006455
248	0xc0c8dbfb	-6.276853
249	0xc0de65bf	-6.94992
250	0xc056a888	-3.3540363
251	0xc0ca9c93	-6.331613
252	0xc177dcf7	-15.4914465
253	0xc147b853	-12.482501
254	0xc102cdbc	-8.175228
255	0xc0d71c0a	-6.7221727

group.0.bias f4 [100]
0	0xbedd42b8	-0.43214965
1	0xc2ac194f	-86.04943
2	0xc29c64f7	-78.1972
3	0xc13cac2d	-11.792035
4	0xc3479a42	-199.60257
5	0xc3450f18	-197.05896
6	0xc0c1e7d1	-6.059548
7	0xbfaf33ac	-1.3687644
8	0xc2895a10	-68.6759
9	0xc15869d3	-13.525836
10	0x4122484c	10.142651
11	0xc2f81caf	-124.05602
12	0xc337fac6	-183.97958
13	0xc10a54a1	-8.645661
14	0xc053c0be	-3.308639
15	0xc23adfb3	-46.718456
16	0xbf8335c9	-1.0250789
17	0xc10b2a9e	-8.697905
18	0x43270e89	167.05678
19	0xbecc3685	-0.39885345
20	0xc045e31f	-3.0919874
21	0xc2f86b73	-124.20986
22	0xc32949a3	-169.28764
23	0xc30995f9	-137.58583
24	0xc176d7f4	-15.427723
25	0xc30e65f2	-142.39822
26	0xbf53401f	-0.82519716
27	0xc10a353a	-8.637995
28	0xc359fecd	-217.99532
29	0xc34b544b	-203.32927
30	0xbf6c8dc9	-0.92403847
31	0xc0233f9b	-2.5507572
32	0xc1067690	-8.403946
33	0xc0c95e67	-6.2927737
34	0xbfadb176	-1.3569782
35	0xc2590050	-54.250305
36	0xbfdb8e75	-1.715285
37	0xbeaf5663	-0.34245595
38	0xc1e56a8c	-28.677025
39	0xc18f2e82	-17.897709
40	0xc1ddfd3a	-27.748646
41	0xc001532c	-2.0207014
42	0xbf918863	-1.1369747
43	0xc0cfb2dc	-6.4905834
44	0xbfac649a	-1.3468201
45	0xbf7009b8	-0.9376483
46	0xc159d69f	-13.614898
47	0xc2bf339b	-95.60079
48	0xc162d4e2	-14.176973
49	0xc08b03d7	-4.3442187
50	0xc02df80b	-2.7182643
51	0xc1b7ddc1	-22.983278
52	0xc22f7ceb	-43.87199
53	0xc1256eb7	-10.33953
54	0xbed27e49	-0.41111973
55	0xc3448ace	-196.5422
56	0xc34b445d	-203.26704
57	0xc0f549aa	-7.665242
58	0xc049c5f4	-3.152707
59	0xc2793cc4	-62.30934
60	0xc340fd03	-192.98833
61	0xbfa5957f	-1.2936248
62	0xc08d1576	-4.4088697
63	0xc10e3e28	-8.890175
64	0xc14fe917	-12.994407
65	0x43378591	183.52174
66	0xc181e7af	-16.238127
67	0xc34a6da8	-202.42834
68	0xc27db62a	-63.427895
69	0xbf4a60aa	-0.7905375
70	0xc259d23c	-54.455307
71	0xc174c921	-15.299104
72	0xc1b4aea4	-22.585274
73	0xc10d454c	-8.829418
74	0xc1394a6f	-11.580672
75	0x40f0ec2a	7.5288286
76	0xc11ca970	-9.791367
77	0x4097c217	4.7424426
78	0xc34ca48e	-204.64279
79	0xc200610a	-32.094765
80	0xc095634e	-4.668372
81	0xc34297ee	-194.59348
82	0x40ac45ba	5.3835115
83	0xc20bf408	-34.98831
84	0xc2130c1e	-36.761833
85	0x403f2e20	2.9871902
86	0xc105e725	-8.368932
87	0xc344f59f	-196.95946
88	0xc25e52ca	-55.58085
89	0xc1642da6	-14.261145
90	0xbfec7c0c	-1.8475356
91	0xc0be37a1	-5.9442906
92	0xc3234dfa	-163.3046
93	0xbf4754d7	-0.7786383
94	0xc285af51	-66.842415
95	0xc1a400a7	-20.500319
96	0xc2633d32	-56.80976
97	0xc0648265	-3.5704587
98	0xc2e5f3fd	-114.97654
99	0xc08df2de	-4.435897

fc1.weight f4 [100, 240]
0	0x43676f43	231.43462
1	0x4368e070	232.87671
2	0x4343362e	195.21164
3	0x4331ef59	177.93495
4	0x432fcccf	175.80003
5	0x4332a6c1	178.65138
6	0x433324b9	179.14345
7	0x4349d273	201.82207
8	0x4337749d	183.45552
9	0x43325980	178.34961
10	0x43317a52	177.47781
11	0x4332a3f6	178.64047
12	0x43319362	177.57571
13	0x43349bbe	180.60837
14	0x43636bd0	227.42114
15	0x43683709	232.21498
16	0x4368cd00	232.80078
17	0x43665fa6	230.37363
18	0x4330cdd8	176.80408
19	0x432f4074	175.25177
20	0x4331fa3e	177.97751
21	0x433969ac	185.41278
22	0x433aaba4	186.67047
23	0x4355d28b	213.82243
24	0x433e2912	190.16043
25	0x43336922	179.41068
26	0x43325b4d	178.35664
27	0x4331d7d3	177.84306
28	0x4331ec1b	177.92229
29	0x43460dc2	198.05374
30	0x4364630e	228.38693
31	0x4369225e	233.13425
32	0x43685e38	232.36804
33	0x435490fd	212.56636
34	0x43306964	176.41168
35	0x432cb9f1	172.72633
36	0x4332a84b	178.6574
37	0x433bc5bc	187.7724
38	0xc2e30623	-113.511986
39	0x43559eb9	213.62001
40	0x434106a7	193.02599
41	0x43321e10	178.11743
42	0x4332ca0e	178.78928
43	0x433276e6	178.46445
44	0x4332fbc8	178.98352
45	0x4330c727	176.77794
46	0x434eb13a	206.69229
47	0x4368b943	232.72368
48	0x4368b280	232.69727
49	0x43574865	215.28279
50	0x428ea46b	71.32113
51	0x433200f0	178.00366
52	0x4334b921	180.72316
53	0xc2eea402	-119.32033
54	0x4332eaf9	178.91786
55	0x43570d4c	215.05194
56	0x43436127	195.3795
57	0x433d137b	189.0761
58	0x43330561	179.02101
59	0x4331d8a3	177.84624
60	0x43335339	179.32509
61	0x4359b7d8	217.71814
62	0xc2870061	-67.50074
63	0x43687639	232.4618
64	0x43643641	228.21193
65	0x4330e810	176.9065
66	0x432f929f	175.57274
67	0x43340df9	180.05458
68	0x4340a588	192.6466
69	0x433eec85	190.9239
70	0x436360c8	227.37805
71	0x42b7a793	91.82729
72	0x428aaea2	69.34108
73	0x4332c94e	178.78635
74	0x4332db51	178.8567
75	0x43325f56	178.3724
76	0x433548bd	181.28413
77	0x43621a91	226.10378
78	0x4368d397	232.82652
79	0x43688975	232.53694
80	0xc28a4476	-69.13371
81	0xc287d6c7	-67.91949
82	0xc281155e	-64.54173
83	0xc2839089	-65.782295
84	0xc287c80b	-67.89071
85	0xc293a284	-73.81741
86	0xc2f06a22	-120.20729
87	0xc2f05705	-120.16996
88	0xc28a94d5	-69.29069
89	0xc284e47d	-66.446266
90	0xc285b5b3	-66.85488
91	0xc28a24bf	-69.07177
92	0xc287f3bd	-67.97605
93	0xc2866372	-67.19423
94	0xc28509cb	-66.51913
95	0xc286d7ef	-67.421745
96	0xc287fa6a	-67.98909
97	0xc2870e17	-67.52752
98	0xc2848e04	-66.277374
99	0xc286db85	-67.42875
100	0xc2856996	-66.70622
101	0xc298fe5d	-76.4968
102	0xc2f06c94	-120.21207
103	0xc2ecd3cb	-118.41366
104	0xc288836e	-68.2567
105	0xc28388f5	-65.767494
106	0xc287b8d7	-67.861015
107	0xc28ac5b8	-69.38617
108	0xc28727c9	-67.577705
109	0xc28703ee	-67.507675
110	0xc28744c6	-67.63432
111	0xc285e1e2	-66.94118
112	0xc289aab0	-68.833374
113	0xc2878cbb	-67.774864
114	0xc285f129	-66.971016
115	0xc2843891	-66.11048
116	0xc283e2f4	-65.94327
117	0xc2c64291	-99.13001
118	0xc2ed0189	-118.503
119	0xc2edd1b8	-118.90961
120	0xc2835dbc	-65.683075
121	0xc284a2e2	-66.31813
122	0xc2851265	-66.53593
123	0xc289e19d	-68.94065
124	0xc288e2a0	-68.44263
125	0xc2861f3b	-67.061
126	0xc283d126	-65.90849
127	0xc2857036	-66.71916
128	0xc2897439	-68.727
129	0xc28c736a	-70.22542
130	0xc284ec8a	-66.46199
131	0xc284c3a6	-66.382126
132	0xc28531b3	-66.59707
133	0xc29b2c0d	-77.58604
134	0xc2f1d0a9	-120.90754
135	0xc2f34d19	-121.65058
136	0xc2870cb3	-67.5248
137	0xc284cf82	-66.40529
138	0xc2850dbc	-66.526825
139	0xc284bfea	-66.37483
140	0xc28627ae	-67.0775
141	0xc2869a56	-67.30144
142	0xc285e2c3	-66.942894
143	0xc288a028	-68.312805
144	0xc28bd706	-69.91997
145	0xc285b330	-66.849976
146	0xc2848ce6	-66.27519
147	0xc2846c19	-66.21113
148	0xc2880912	-68.017715
149	0xc2e5558c	-114.66708
150	0xc2f427a4	-122.07742
151	0xc28ee5b6	-71.448654
152	0xc284d8fc	-66.4238
153	0xc28984d8	-68.75946
154	0xc287d3d1	-67.913704
155	0xc28745b2	-67.63612
156	0xc287e601	-67.94923
157	0x4367998f	231.59984
158	0xc287d158	-67.908875
159	0xc28a1e91	-69.0597
160	0xc3368368	-182.5133
161	0xc294b647	-74.35601
162	0x42b9b107	92.84576
163	0x428cca5d	70.39524
164	0xc333aa3f	-179.66502
165	0xc3635ec4	-227.37018
166	0xc2f34b41	-121.64698
167	0xc2f32b45	-121.58451
168	0x43526690	210.40063
169	0xc2a01010	-80.03137
170	0xc3659016	-229.56284
171	0x4330ddf6	176.86703
172	0x433181de	177.5073
173	0xc367a1b0	-231.63159
174	0xc332d728	-178.84045
175	0xc334080f	-180.03148
176	0x42ec5c8a	118.18074
177	0xc3297129	-169.44203
178	0xc33aac5d	-186.6733
179	0xc3677c35	-231.48518
180	0xc34e25cb	-206.14763
181	0xc2f05dfd	-120.18357
182	0x4330b269	176.69691
183	0xc36621fd	-230.13277
184	0x42d94820	108.64087
185	0xc330ccf5	-176.80061
186	0xc3645df3	-228.36699
187	0x429021db	72.066124
188	0x428b2e10	69.589966
189	0xc335a1a5	-181.63142
190	0xc28fa38e	-71.81944
191	0xc2975d29	-75.68195
192	0xc3357575	-181.45882
193	0x42cfc6d0	103.888306
194	0xc2971347	-75.53765
195	0x42885073	68.15713
196	0x42a600c0	83.001465
197	0x42851317	66.537285
198	0xc3691f7a	-233.12296
199	0xc3660eb7	-230.05748
200	0x42ebbba2	117.86647
201	0x42e12e90	112.59094
202	0xc34d5bb7	-205.35826
203	0xc2e33c97	-113.61834
204	0xc2ded43b	-111.41451
205	0xc3678e90	-231.55688
206	0x42f17c7d	120.74314
207	0xc33296ac	-178.58856
208	0xc335a432	-181.64139
209	0xc33a311c	-186.19183
210	0xc3460724	-198.0279
211	0xc2f19fe3	-120.81228
212	0xc2cdf8c5	-102.98588
213	0x4289897f	68.76855
214	0x43303979	176.2245
215	0xc3697128	-233.44202
216	0xc333afc9	-179.68666
217	0xc36539ed	-229.22627
218	0xc362f6b2	-226.96365
219	0xc36417ca	-228.09293
220	0x4289f178	68.97162
221	0xc3315453	-177.32939
222	0x42f6ad98	123.33905
223	0x42ef8631	119.76209
224	0x42e716dd	115.544655
225	0xc2bef068	-95.46954
226	0xc3611517	-225.08238
227	0xc34d5bda	-205.3588
228	0xc36715ef	-231.08568
229	0xc368f880	-232.9707
230	0x4286b89f	67.36059
231	0x42edb843	118.859886
232	0xc35e212d	-222.1296
233	0xc2ae2b03	-87.08401
234	0x4292d56f	73.41686
235	0xc36831e0	-232.19482
236	0xc3596192	-217.38113
237	0x4360eab0	224.91675
238	0x42f1b86a	120.86018
239	0xc2ea6799	-117.20234
240	0x425abea4	54.686172
241	0x425925d6	54.28695
242	0x42597dcd	54.372852
243	0x425dda6a	55.463295
244	0x4259348a	54.301308
245	0x425d5dc5	55.34157
246	0x42641664	57.021866
247	0x42692e84	58.295425
248	0x426232a6	56.54946
249	0x4261035f	56.253292
250	0x425aa7e4	54.663956
251	0x425e4282	55.56495
252	0x42654280	57.31494
253	0x426da456	59.410484
254	0x42605b1c	56.088974
255	0x425a9f71	54.655704

fc1.bias f4 [100]
0	0xc2876aff	-67.70898
1	0x4268ba82	58.182137
2	0x42511b8d	52.276905
3	0x4034f163	2.827233
4	0x40970a4e	4.720008
5	0xc3208498	-160.51794
6	0xc319f272	-153.94705
7	0xc31e2802	-158.15628
8	0xc3638f30	-227.55933
9	0x3d8d840c	0.069099516
10	0xc283aaa9	-65.83332
11	0x41fab0ae	31.33627
12	0xc323e33a	-163.8876
13	0xc325f7b0	-165.96753
14	0x426e7187	59.610867
15	0x4369e682	233.90042
16	0x4220c412	40.191475
17	0xc28aceaa	-69.40364
18	0x427a1e32	62.529488
19	0xc297fad2	-75.98988
20	0x426ac1f7	58.68942
21	0xc216497b	-37.57176
22	0x41e1a85b	28.207205
23	0xc3614b5b	-225.29436
24	0xc31d358f	-157.20921
25	0x4251e661	52.47498
26	0xc1cb8f26	-25.444897
27	0x41eae0dc	29.359795
28	0x43516ce6	209.42538
29	0x420576b1	33.36591
30	0x4218eae6	38.229393
31	0x421f5373	39.831493
32	0xc26832da	-58.04966
33	0x4362cc8d	226.79903
34	0xc294e3fa	-74.44527
35	0x4359a641	217.64943
36	0xbf26d437	-0.65167564
37	0x42f759ad	123.67515
38	0x435516ec	213.08954
39	0x427c1aca	63.02616
40	0x426f77a7	59.866848
41	0xc11961bb	-9.58636
42	0x421aac03	38.66798
43	0x426fc1c9	59.939243
44	0x4201086f	32.258236
45	0x420e8db0	35.638367
46	0x412705ad	10.438886
47	0x41868919	16.816942
48	0xbf17e1aa	-0.5932871
49	0xc2e5d3d5	-114.913734
50	0x4214cd20	37.200317
51	0x424b1fc8	50.781036
52	0x41bac1fb	23.344717
53	0xc3477341	-199.45021
54	0x41cae627	25.36238
55	0x415cf3e1	13.809541
56	0xc0a09ecf	-5.019386
57	0xc32a3c25	-170.23494
58	0x412a9cd7	10.663291
59	0x4213d608	36.959015
60	0x41689ff2	14.539049
61	0x41b40822	22.503971
62	0x42a63a7d	83.114235
63	0x435b3454	219.2044
64	0xc100f464	-8.059666
65	0x435923ac	217.13934
66	0xc187b150	-16.961578
67	0x41c2066a	24.253132
68	0x4288eed4	68.46646
69	0xc316ec1f	-150.92235
70	0x42673542	57.80201
71	0xc236038f	-45.503475
72	0x424451e5	49.079975
73	0xbf556d61	-0.83370024
74	0xc283b0e4	-65.84549
75	0xc2c04814	-96.14078
76	0x423d3b89	47.30814
77	0x41b98757	23.191084
78	0xc267c299	-57.940037
79	0xc10ec392	-8.922747
80	0x425c31d1	55.04865
81	0xc277755f	-61.86462
82	0xc17d144b	-15.817454
83	0x42a67229	83.22297
84	0x4257ac12	53.918037
85	0xc0cf2911	-6.473763
86	0x42034d2f	32.825375
87	0xc1e4473f	-28.534788
88	0xc265896a	-57.384193
89	0x4364a029	228.62563
90	0xc28aa6f3	-69.32607
91	0xc11f9a38	-9.975151
92	0xc2492ef1	-50.29584
93	0xc3271d5f	-167.11473
94	0x42996d34	76.71329
95	0xc293680b	-73.70321
96	0x41043b80	8.264526
97	0x41cd958d	25.698023
98	0x42461131	49.51679
99	0x42955515	74.666176

fc2.0.0.weight f4 [100, 100]
0	0x3d213115	0.03935345
1	0xbc882114	-0.016617335
2	0xbdff6263	-0.12469938
3	0xbe05df0c	-0.13073367
4	0xbcd35721	-0.025798382
5	0xbe0a6d31	-0.13518216
6	0x3c426f71	0.01186739
7	0xbd75e94a	-0.060036935
8	0xbcefa7ab	-0.029254755
9	0x3c2553bc	0.010090765
10	0x329ba72f	1.8120401e-08
11	0xbc07e2b7	-0.008293799
12	0xbca3af61	-0.019981088
13	0xbd5cfb59	-0.05395064
14	0xbe3860a0	-0.1800561
15	0x323b74a9	1.0911358e-08
16	0x3b340340	0.0027467757
17	0xad3dada4	-1.0781962e-11
18	0xbd989599	-0.074504085
19	0xbe63fabe	-0.2226362
20	0xbc4a5f7b	-0.012351866
21	0x3cfede75	0.031111935
22	0xad10bfc3	-8.228032e-12
23	0xbe225e3b	-0.15856259
24	0xac80e7e1	-3.6637225e-12
25	0xbdeb754d	-0.11496983
26	0xbdb23095	-0.087006725
27	0xbccfd7fa	-0.02537154
28	0x35a228c8	1.208181e-06
29	0xbcbd3808	-0.023098007
30	0x3bf48e8b	0.0074632815
31	0xbc490a86	-0.012270575
32	0xbd80203c	-0.06256148
33	0xbe59905a	-0.21246472
34	0xbd98a726	-0.07453756
35	0xbcba0526	-0.022707533
36	0x2bab18ab	1.2157128e-12
37	0xbdad8704	-0.08473018
38	0xb7ed2be3	-2.8273038e-05
39	0xbd87fdb5	-0.06640188
40	0x3c952c29	0.018209534
41	0xbd87c8b3	-0.06630077
42	0xb2903365	-1.6787178e-08
43	0x3cafdc9e	0.021467503
44	0xbd92288f	-0.07136642
45	0xb9a49f9f	-0.00031399445
46	0xbe7745a8	-0.24147666
47	0xbdecbdad	-0.11559615
48	0xbc1c6611	-0.009545819
49	0xbe1870e3	-0.14886813
50	0xacc8915c	-5.70048e-12
51	0xbcd60f6f	-0.026130406
52	0x33944d4b	6.9058466e-08
53	0xbdb38821	-0.08766199
54	0x3ce81869	0.028331952
55	0x370cbda6	8.388806e-06
56	0xbd908ccd	-0.070581056
57	0x3cfda383	0.030961758
58	0x3cb5f53d	0.022211665
59	0x3cb214a7	0.021738363
60	0x3a9a9847	0.001179465
61	0xae39e2a4	-4.2265427e-11
62	0xbb1ba9d3	-0.0023752346
63	0xbd167402	-0.036731727
64	0x3cb9ebe8	0.022695497
65	0xbcf175c9	-0.02947511
66	0xba82e613	-0.000998678
67	0x3d3a2676	0.045446835
68	0xb6a4bae5	-4.9093383e-06
69	0xbdb0bb16	-0.08629434
70	0xbdcffec2	-0.10156013
71	0x3b3694a6	0.0027859597
72	0x3dc26bff	0.09493255
73	0xbb267fa5	-0.0025405672
74	0xbddac68c	-0.10682401
75	0xbe15de2f	-0.14635538
76	0x3adf5135	0.0017037751
77	0x3d321879	0.04348037
78	0xbdb92234	-0.09039727
79	0x3a507866	0.0007952511
80	0x3d6192e6	0.055071734
81	0xbc85c99d	-0.016331488
82	0xad2aef4b	-9.716515e-12
83	0xbddba9c1	-0.10725737
84	0xbd97874d	-0.073988535
85	0xbb1dbdf9	-0.0024069531
86	0x3d45bdbe	0.048276655
87	0x3a7bec4e	0.0009610102
88	0xbc84b798	-0.016200826
89	0xbd31cad0	-0.043406308
90	0xbd378145	-0.044801015
91	0xba494c6f	-0.0007678931
92	0x2f45b5e7	1.798167e-10
93	0xbd11a688	-0.035559207
94	0x3ccf8e17	0.025336308
95	0x30802cd7	9.32597e-10
96	0x3d50e6c8	0.05100134
97	0x3c5097fb	0.0127315475
98	0xbdab328c	-0.083592504
99	0xbde57c1d	-0.11205313
100	0xc351c869	-209.78285
101	0xc12029b1	-10.010179
102	0xc24e2c8d	-51.543507
103	0xc09df3fd	-4.9360337
104	0xc0281b5f	-2.6266706
105	0xc0f591fb	-7.67407
106	0xc351917f	-209.56834
107	0xc34eee5c	-206.93109
108	0xc25b2259	-54.783543
109	0xc10d3c48	-8.827217
110	0x40d34ab1	6.6028676
111	0xc09031f8	-4.5060997
112	0xc1be2d6a	-23.772175
113	0xc1a110da	-20.133228
114	0xbf59caa7	-0.8507485
115	0xc34377c7	-195.46788
116	0xbff885a8	-1.9415789
117	0xc14283de	-12.157194
118	0xc1803e10	-16.030304
119	0x3bba365f	0.005682751
120	0xc175af1b	-15.35525
121	0xc350301a	-208.1879
122	0xc11733dc	-9.450161
123	0xc1573b40	-13.451965
124	0xc32aec50	-170.9231
125	0xc16a5f64	-14.648289
126	0x3f8ff18b	1.1245588
127	0xc1897848	-17.183731
128	0xc1369bfd	-11.413083
129	0xbeee72a9	-0.46571854
130	0xc13117f7	-11.068351
131	0xc11e8cc7	-9.909369
132	0xc0282552	-2.6272779
133	0xc1353f0d	-11.327893
134	0xc1e4bb59	-28.591478
135	0xc18bbe84	-17.468025
136	0xc28f7481	-71.72755
137	0xbf365daa	-0.7123667
138	0xc15dd05a	-13.863367
139	0xc20e7378	-35.612762
140	0xc0f78bd3	-7.7358184
141	0xc0968686	-4.7039213
142	0xc0a826ac	-5.2547207
143	0xc1a0cee8	-20.101028
144	0xbf8e766a	-1.1129887
145	0x3f1c5180	0.6106186
146	0x3fa129aa	1.259084
147	0xc03983a3	-2.8986595
148	0xc0852e88	-4.16193
149	0xc0559175	-3.337003
150	0xc04c1e03	-3.1893318
151	0xc13fb3ed	-11.981427
152	0xc03f2173	-2.9864166
153	0xc09364ca	-4.6060534
154	0xc095e5f6	-4.6843214
155	0xc308e912	-136.91043
156	0xc34f3b43	-207.23149
157	0xc10d4430	-8.829147
158	0xc0eebec6	-7.460788
159	0xc0de4adf	-6.9466395
160	0xc2973fc6	-75.62456
161	0xbfc041f4	-1.5020127
162	0xc34f061f	-207.02391
163	0x3fb47a97	1.4099911
164	0xc0fc3b35	-7.8822274
165	0xc1acea4d	-21.614405
166	0xbfc0fd47	-1.5077294
167	0xc0054b3a	-2.0827165
168	0xc181fcce	-16.24844
169	0xc0e06daf	-7.013389
170	0xc12ae82f	-10.681685
171	0xc189f170	-17.24289
172	0xc18941c1	-17.157106
173	0xc0eb0146	-7.3439054
174	0xc34c0c36	-204.0477
175	0xc34e0ba6	-206.0455
176	0xc11df067	-9.871192
177	0x3f5d0849	0.8634077
178	0xc0f52901	-7.6612554
179	0xc1e88ad6	-29.067791
180	0xc06ddb06	-3.7164931
181	0xc3356960	-181.41162
182	0xc087d4ce	-4.244727
183	0xc057f6d6	-3.3744407
184	0xc1f52bd8	-30.646408
185	0xbf6b3d29	-0.918902
186	0xbfbc1d94	-1.4696527
187	0xc145e0c9	-12.367379
188	0xc14b707a	-12.71496
189	0xc1d6b10a	-26.836445
190	0xc34a9da7	-202.61583
191	0xc064eae6	-3.576837
192	0xc1ac2ecd	-21.522852
193	0xc1b15834	-22.168068
194	0xc328219e	-168.13132
195	0xc10aa02b	-8.6641035
196	0xc1cd6fa5	-25.679514
197	0xc03081de	-2.7579265
198	0xc1b7c471	-22.970919
199	0xc1adf554	-21.74479
200	0xc1229b00	-10.162842
201	0xc16d4f16	-14.831808
202	0xc12175e7	-10.091285
203	0xc0851b4b	-4.1595817
204	0xc1cb6f61	-25.429384
205	0xc0954392	-4.6644983
206	0x41e16124	28.172432
207	0xc19766e0	-18.925232
208	0xc12ef32b	-10.934367
209	0xc092bbce	-4.5854254
210	0x41143d2f	9.264937
211	0xc1a145a6	-20.159008
212	0xc15159b9	-13.084405
213	0xc2050f08	-33.26468
214	0xbe8749a9	-0.26423386
215	0xc20b0304	-34.752945
216	0xc1461d9d	-12.38223
217	0xc087e486	-4.246646
218	0x408b2417	4.3481555
219	0xc12838eb	-10.513896
220	0xc0173764	-2.3627558
221	0xc15a8350	-13.657059
222	0x3d221e93	0.03957994
223	0xbe8684f3	-0.26273307
224	0x41f0dd7c	30.108147
225	0xc18fa826	-17.957104
226	0xc025ddda	-2.5916657
227	0xc144ebe3	-12.30759
228	0xc07bf7c8	-3.9369984
229	0x4137ce40	11.487854
230	0xbfdf3aa6	-1.7439773
231	0xc0835f07	-4.10535
232	0xc0d6f4ed	-6.717398
233	0xc07e9b43	-3.9782264
234	0xc1c3935c	-24.446953
235	0xc08be45b	-4.3716254
236	0xc2144d3f	-37.075436
237	0xc0476ed6	-3.11614
238	0x416c067a	14.751581
239	0xc0cba818	-6.3642693
240	0xc1835af0	-16.419403
241	0xc115fd6e	-9.3743725
242	0xc10741a6	-8.453527
243	0x421d27ed	39.28899
244	0xbfea7cff	-1.8319396
245	0xc04af78d	-3.1713593
246	0x4181bf02	16.218266
247	0xc093387d	-4.6006455
248	0xc0c8dbfb	-6.276853
249	0xc0de65bf	-6.94992
250	0xc056a888	-3.3540363
251	0xc0ca9c93	-6.331613
252	0xc177dcf7	-15.4914465
253	0xc147b853	-12.482501
254	0xc102cdbc	-8.175228
255	0xc0d71c0a	-6.7221727

fc2.0.0.bias f4 [100]
0	0xbedd42b8	-0.43214965
1	0xc2ac194f	-86.04943
2	0xc29c64f7	-78.1972
3	0xc13cac2d	-11.792035
4	0xc3479a42	-199.60257
5	0xc3450f18	-197.05896
6	0xc0c1e7d1	-6.059548
7	0xbfaf33ac	-1.3687644
8	0xc2895a10	-68.6759
9	0xc15869d3	-13.525836
10	0x4122484c	10.142651
11	0xc2f81caf	-124.05602
12	0xc337fac6	-183.97958
13	0xc10a54a1	-8.645661
14	0xc053c0be	-3.308639
15	0xc23adfb3	-46.718456
16	0xbf8335c9	-1.0250789
17	0xc10b2a9e	-8.697905
18	0x43270e89	167.05678
19	0xbecc3685	-0.39885345
20	0xc045e31f	-3.0919874
21	0xc2f86b73	-124.20986
22	0xc32949a3	-169.28764
23	0xc30995f9	-137.58583
24	0xc176d7f4	-15.427723
25	0xc30e65f2	-142.39822
26	0xbf53401f	-0.82519716
27	0xc10a353a	-8.637995
28	0xc359fecd	-217.99532
29	0xc34b544b	-203.32927
30	0xbf6c8dc9	-0.92403847
31	0xc0233f9b	-2.5507572
32	0xc1067690	-8.403946
33	0xc0c95e67	-6.2927737
34	0xbfadb176	-1.3569782
35	0xc2590050	-54.250305
36	0xbfdb8e75	-1.715285
37	0xbeaf5663	-0.34245595
38	0xc1e56a8c	-28.677025
39	0xc18f2e82	-17.897709
40	0xc1ddfd3a	-27.748646
41	0xc001532c	-2.0207014
42	0xbf918863	-1.1369747
43	0xc0cfb2dc	-6.4905834
44	0xbfac649a	-1.3468201
45	0xbf7009b8	-0.9376483
46	0xc159d69f	-13.614898
47	0xc2bf339b	-95.60079
48	0xc162d4e2	-14.176973
49	0xc08b03d7	-4.3442187
50	0xc02df80b	-2.7182643
51	0xc1b7ddc1	-22.983278
52	0xc22f7ceb	-43.87199
53	0xc1256eb7	-10.33953
54	0xbed27e49	-0.41111973
55	0xc3448ace	-196.5422
56	0xc34b445d	-203.26704
57	0xc0f549aa	-7.665242
58	0xc049c5f4	-3.152707
59	0xc2793cc4	-62.30934
60	0xc340fd03	-192.98833
61	0xbfa5957f	-1.2936248
62	0xc08d1576	-4.4088697
63	0xc10e3e28	-8.890175
64	0xc14fe917	-12.994407
65	0x43378591	183.52174
66	0xc181e7af	-16.238127
67	0xc34a6da8	-202.42834
68	0xc27db62a	-63.427895
69	0xbf4a60aa	-0.7905375
70	0xc259d23c	-54.455307
71	0xc174c921	-15.299104
72	0xc1b4aea4	-22.585274
73	0xc10d454c	-8.829418
74	0xc1394a6f	-11.580672
75	0x40f0ec2a	7.5288286
76	0xc11ca970	-9.791367
77	0x4097c217	4.7424426
78	0xc34ca48e	-204.64279
79	0xc200610a	-32.094765
80	0xc095634e	-4.668372
81	0xc34297ee	-194.59348
82	0x40ac45ba	5.3835115
83	0xc20bf408	-34.98831
84	0xc2130c1e	-36.761833
85	0x403f2e20	2.9871902
86	0xc105e725	-8.368932
87	0xc344f59f	-196.95946
88	0xc25e52ca	-55.58085
89	0xc1642da6	-14.261145
90	0xbfec7c0c	-1.8475356
91	0xc0be37a1	-5.9442906
92	0xc3234dfa	-163.3046
93	0xbf4754d7	-0.7786383
94	0xc285af51	-66.842415
95	0xc1a400a7	-20.500319
96	0xc2633d32	-56.80976
97	0xc0648265	-3.5704587
98	0xc2e5f3fd	-114.97654
99	0xc08df2de	-4.435897

fc2.1.0.weight f4 [100, 100]
0	0x3d213115	0.03935345
1	0xbc882114	-0.016617335
2	0xbdff6263	-0.12469938
3	0xbe05df0c	-0.13073367
4	0xbcd35721	-0.025798382
5	0xbe0a6d31	-0.13518216
6	0x3c426f71	0.01186739
7	0xbd75e94a	-0.060036935
8	0xbcefa7ab	-0.029254755
9	0x3c2553bc	0.010090765
10	0x329ba72f	1.8120401e-08
11	0xbc07e2b7	-0.008293799
12	0xbca3af61	-0.019981088
13	0xbd5cfb59	-0.05395064
14	0xbe3860a0	-0.1800561
15	0x323b74a9	1.0911358e-08
16	0x3b340340	0.0027467757
17	0xad3dada4	-1.0781962e-11
18	0xbd989599	-0.074504085
19	0xbe63fabe	-0.2226362
20	0xbc4a5f7b	-0.012351866
21	0x3cfede75	0.031111935
22	0xad10bfc3	-8.228032e-12
23	0xbe225e3b	-0.15856259
24	0xac80e7e1	-3.6637225e-12
25	0xbdeb754d	-0.11496983
26	0xbdb23095	-0.087006725
27	0xbccfd7fa	-0.02537154
28	0x35a228c8	1.208181e-06
29	0xbcbd3808	-0.023098007
30	0x3bf48e8b	0.0074632815
31	0xbc490a86	-0.012270575
32	0xbd80203c	-0.06256148
33	0xbe59905a	-0.21246472
34	0xbd98a726	-0.07453756
35	0xbcba0526	-0.022707533
36	0x2bab18ab	1.2157128e-12
37	0xbdad8704	-0.08473018
38	0xb7ed2be3	-2.8273038e-05
39	0xbd87fdb5	-0.06640188
40	0x3c952c29	0.018209534
41	0xbd87c8b3	-0.06630077
42	0xb2903365	-1.6787178e-08
43	0x3cafdc9e	0.021467503
44	0xbd92288f	-0.07136642
45	0xb9a49f9f	-0.00031399445
46	0xbe7745a8	-0.24147666
47	0xbdecbdad	-0.11559615
48	0xbc1c6611	-0.009545819
49	0xbe1870e3	-0.14886813
50	0xacc8915c	-5.70048e-12
51	0xbcd60f6f	-0.026130406
52	0x33944d4b	6.9058466e-08
53	0xbdb38821	-0.08766199
54	0x3ce81869	0.028331952
55	0x370cbda6	8.388806e-06
56	0xbd908ccd	-0.070581056
57	0x3cfda383	0.030961758
58	0x3cb5f53d	0.022211665
59	0x3cb214a7	0.021738363
60	0x3a9a9847	0.001179465
61	0xae39e2a4	-4.2265427e-11
62	0xbb1ba9d3	-0.0023752346
63	0xbd167402	-0.036731727
64	0x3cb9ebe8	0.022695497
65	0xbcf175c9	-0.02947511
66	0xba82e613	-0.000998678
67	0x3d3a2676	0.045446835
68	0xb6a4bae5	-4.9093383e-06
69	0xbdb0bb16	-0.08629434
70	0xbdcffec2	-0.10156013
71	0x3b3694a6	0.0027859597
72	0x3dc26bff	0.09493255
73	0xbb267fa5	-0.0025405672
74	0xbddac68c	-0.10682401
75	0xbe15de2f	-0.14635538
76	0x3adf5135	0.0017037751
77	0x3d321879	0.04348037
78	0xbdb92234	-0.09039727
79	0x3a507866	0.0007952511
80	0x3d6192e6	0.055071734
81	0xbc85c99d	-0.016331488
82	0xad2aef4b	-9.716515e-12
83	0xbddba9c1	-0.10725737
84	0xbd97874d	-0.073988535
85	0xbb1dbdf9	-0.0024069531
86	0x3d45bdbe	0.048276655
87	0x3a7bec4e	0.0009610102
88	0xbc84b798	-0.016200826
89	0xbd31cad0	-0.043406308
90	0xbd378145	-0.044801015
91	0xba494c6f	-0.0007678931
92	0x2f45b5e7	1.798167e-10
93	0xbd11a688	-0.035559207
94	0x3ccf8e17	0.025336308
95	0x30802cd7	9.32597e-10
96	0x3d50e6c8	0.05100134
97	0x3c5097fb	0.0127315475
98	0xbdab328c	-0.083592504
99	0xbde57c1d	-0.11205313
100	0xc351c869	-209.78285
101	0xc12029b1	-10.010179
102	0xc24e2c8d	-51.543507
103	0xc09df3fd	-4.9360337
104	0xc0281b5f	-2.6266706
105	0xc0f591fb	-7.67407
106	0xc351917f	-209.56834
107	0xc34eee5c	-206.93109
108	0xc25b2259	-54.783543
109	0xc10d3c48	-8.827217
110	0x40d34ab1	6.6028676
111	0xc09031f8	-4.5060997
112	0xc1be2d6a	-23.772175
113	0xc1a110da	-20.133228
114	0xbf59caa7	-0.8507485
115	0xc34377c7	-195.46788
116	0xbff885a8	-1.9415789
117	0xc14283de	-12.157194
118	0xc1803e10	-16.030304
119	0x3bba365f	0.005682751
120	0xc175af1b	-15.35525
121	0xc350301a	-208.1879
122	0xc11733dc	-9.450161
123	0xc1573b40	-13.451965
124	0xc32aec50	-170.9231
125	0xc16a5f64	-14.648289
126	0x3f8ff18b	1.1245588
127	0xc1897848	-17.183731
128	0xc1369bfd	-11.413083
129	0xbeee72a9	-0.46571854
130	0xc13117f7	-11.068351
131	0xc11e8cc7	-9.909369
132	0xc0282552	-2.6272779
133	0xc1353f0d	-11.327893
134	0xc1e4bb59	-28.591478
135	0xc18bbe84	-17.468025
136	0xc28f7481	-71.72755
137	0xbf365daa	-0.7123667
138	0xc15dd05a	-13.863367
139	0xc20e7378	-35.612762
140	0xc0f78bd3	-7.7358184
141	0xc0968686	-4.7039213
142	0xc0a826ac	-5.2547207
143	0xc1a0cee8	-20.101028
144	0xbf8e766a	-1.1129887
145	0x3f1c5180	0.6106186
146	0x3fa129aa	1.259084
147	0xc03983a3	-2.8986595
148	0xc0852e88	-4.16193
149	0xc0559175	-3.337003
150	0xc04c1e03	-3.1893318
151	0xc13fb3ed	-11.981427
152	0xc03f2173	-2.9864166
153	0xc09364ca	-4.6060534
154	0xc095e5f6	-4.6843214
155	0xc308e912	-136.91043
156	0xc34f3b43	-207.23149
157	0xc10d4430	-8.829147
158	0xc0eebec6	-7.460788
159	0xc0de4adf	-6.9466395
160	0xc2973fc6	-75.62456
161	0xbfc041f4	-1.5020127
162	0xc34f061f	-207.02391
163	0x3fb47a97	1.4099911
164	0xc0fc3b35	-7.8822274
165	0xc1acea4d	-21.614405
166	0xbfc0fd47	-1.5077294
167	0xc0054b3a	-2.0827165
168	0xc181fcce	-16.24844
169	0xc0e06daf	-7.013389
170	0xc12ae82f	-10.681685
171	0xc189f170	-17.24289
172	0xc18941c1	-17.157106
173	0xc0eb0146	-7.3439054
174	0xc34c0c36	-204.0477
175	0xc34e0ba6	-206.0455
176	0xc11df067	-9.871192
177	0x3f5d0849	0.8634077
178	0xc0f52901	-7.6612554
179	0xc1e88ad6	-29.067791
180	0xc06ddb06	-3.7164931
181	0xc3356960	-181.41162
182	0xc087d4ce	-4.244727
183	0xc057f6d6	-3.3744407
184	0xc1f52bd8	-30.646408
185	0xbf6b3d29	-0.918902
186	0xbfbc1d94	-1.4696527
187	0xc145e0c9	-12.367379
188	0xc14b707a	-12.71496
189	0xc1d6b10a	-26.836445
190	0xc34a9da7	-202.61583
191	0xc064eae6	-3.576837
192	0xc1ac2ecd	-21.522852
193	0xc1b15834	-22.168068
194	0xc328219e	-168.13132
195	0xc10aa02b	-8.6641035
196	0xc1cd6fa5	-25.679514
197	0xc03081de	-2.7579265
198	0xc1b7c471	-22.970919
199	0xc1adf554	-21.74479
200	0xc1229b00	-10.162842
201	0xc16d4f16	-14.831808
202	0xc12175e7	-10.091285
203	0xc0851b4b	-4.1595817
204	0xc1cb6f61	-25.429384
205	0xc0954392	-4.6644983
206	0x41e16124	28.172432
207	0xc19766e0	-18.925232
208	0xc12ef32b	-10.934367
209	0xc092bbce	-4.5854254
210	0x41143d2f	9.264937
211	0xc1a145a6	-20.159008
212	0xc15159b9	-13.084405
213	0xc2050f08	-33.26468
214	0xbe8749a9	-0.26423386
215	0xc20b0304	-34.752945
216	0xc1461d9d	-12.38223
217	0xc087e486	-4.246646
218	0x408b2417	4.3481555
219	0xc12838eb	-10.513896
220	0xc0173764	-2.3627558
221	0xc15a8350	-13.657059
222	0x3d221e93	0.03957994
223	0xbe8684f3	-0.26273307
224	0x41f0dd7c	30.108147
225	0xc18fa826	-17.957104
226	0xc025ddda	-2.5916657
227	0xc144ebe3	-12.30759
228	0xc07bf7c8	-3.9369984
229	0x4137ce40	11.487854
230	0xbfdf3aa6	-1.7439773
231	0xc0835f07	-4.10535
232	0xc0d6f4ed	-6.717398
233	0xc07e9b43	-3.9782264
234	0xc1c3935c	-24.446953
235	0xc08be45b	-4.3716254
236	0xc2144d3f	-37.075436
237	0xc0476ed6	-3.11614
238	0x416c067a	14.751581
239	0xc0cba818	-6.3642693
240	0xc1835af0	-16.419403
241	0xc115fd6e	-9.3743725
242	0xc10741a6	-8.453527
243	0x421d27ed	39.28899
244	0xbfea7cff	-1.8319396
245	0xc04af78d	-3.1713593
246	0x4181bf02	16.218266
247	0xc093387d	-4.6006455
248	0xc0c8dbfb	-6.276853
249	0xc0de65bf	-6.94992
250	0xc056a888	-3.3540363
251	0xc0ca9c93	-6.331613
252	0xc177dcf7	-15.4914465
253	0xc147b853	-12.482501
254	0xc102cdbc	-8.175228
255	0xc0d71c0a	-6.7221727

fc2.1.0.bias f4 [100]
0	0xbedd42b8	-0.43214965
1	0xc2ac194f	-86.04943
2	0xc29c64f7	-78.1972
3	0xc13cac2d	-11.792035
4	0xc3479a42	-199.60257
5	0xc3450f18	-197.05896
6	0xc0c1e7d1	-6.059548
7	0xbfaf33ac	-1.3687644
8	0xc2895a10	-68.6759
9	0xc15869d3	-13.525836
10	0x4122484c	10.142651
11	0xc2f81caf	-124.05602
12	0xc337fac6	-183.97958
13	0xc10a54a1	-8.645661
14	0xc053c0be	-3.308639
15	0xc23adfb3	-46.718456
16	0xbf8335c9	-1.0250789
17	0xc10b2a9e	-8.697905
18	0x43270e89	167.05678
19	0xbecc3685	-0.39885345
20	0xc045e31f	-3.0919874
21	0xc2f86b73	-124.20986
22	0xc32949a3	-169.28764
23	0xc30995f9	-137.58583
24	0xc176d7f4	-15.427723
25	0xc30e65f2	-142.39822
26	0xbf53401f	-0.82519716
27	0xc10a353a	-8.637995
28	0xc359fecd	-217.99532
29	0xc34b544b	-203.32927
30	0xbf6c8dc9	-0.92403847
31	0xc0233f9b	-2.5507572
32	0xc1067690	-8.403946
33	0xc0c95e67	-6.2927737
34	0xbfadb176	-1.3569782
35	0xc2590050	-54.250305
36	0xbfdb8e75	-1.715285
37	0xbeaf5663	-0.34245595
38	0xc1e56a8c	-28.677025
39	0xc18f2e82	-17.897709
40	0xc1ddfd3a	-27.748646
41	0xc001532c	-2.0207014
42	0xbf918863	-1.1369747
43	0xc0cfb2dc	-6.4905834
44	0xbfac649a	-1.3468201
45	0xbf7009b8	-0.9376483
46	0xc159d69f	-13.614898
47	0xc2bf339b	-95.60079
48	0xc162d4e2	-14.176973
49	0xc08b03d7	-4.3442187
50	0xc02df80b	-2.7182643
51	0xc1b7ddc1	-22.983278
52	0xc22f7ceb	-43.87199
53	0xc1256eb7	-10.33953
54	0xbed27e49	-0.41111973
55	0xc3448ace	-196.5422
56	0xc34b445d	-203.26704
57	0xc0f549aa	-7.665242
58	0xc049c5f4	-3.152707
59	0xc2793cc4	-62.30934
60	0xc340fd03	-192.98833
61	0xbfa5957f	-1.2936248
62	0xc08d1576	-4.4088697
63	0xc10e3e28	-8.890175
64	0xc14fe917	-12.994407
65	0x43378591	183.52174
66	0xc181e7af	-16.238127
67	0xc34a6da8	-202.42834
68	0xc27db62a	-63.427895
69	0xbf4a60aa	-0.7905375
70	0xc259d23c	-54.455307
71	0xc174c921	-15.299104
72	0xc1b4aea4	-22.585274
73	0xc10d454c	-8.829418
74	0xc1394a6f	-11.580672
75	0x40f0ec2a	7.5288286
76	0xc11ca970	-9.791367
77	0x4097c217	4.7424426
78	0xc34ca48e	-204.64279
79	0xc200610a	-32.094765
80	0xc095634e	-4.668372
81	0xc34297ee	-194.59348
82	0x40ac45ba	5.3835115
83	0xc20bf408	-34.98831
84	0xc2130c1e	-36.761833
85	0x403f2e20	2.9871902
86	0xc105e725	-8.368932
87	0xc344f59f	-196.95946
88	0xc25e52ca	-55.58085
89	0xc1642da6	-14.261145
90	0xbfec7c0c	-1.8475356
91	0xc0be37a1	-5.9442906
92	0xc3234dfa	-163.3046
93	0xbf4754d7	-0.7786383
94	0xc285af51	-66.842415
95	0xc1a400a7	-20.500319
96	0xc2633d32	-56.80976
97	0xc0648265	-3.5704587
98	0xc2e5f3fd	-114.97654
99	0xc08df2de	-4.435897

fc4.weight f4 [6, 100]
0	0xb60604c0	-1.997032e-06
1	0xc195b915	-18.715372
2	0xc31a68cc	-154.40936
3	0x407dbc43	3.9646156
4	0x4117b459	9.48153
5	0xc0e2324a	-7.068639
6	0xbd08f3f6	-0.033435784
7	0xbdbde37f	-0.09271907
8	0xc299e737	-76.95159
9	0xc11ab023	-9.668002
10	0xb96f025a	-0.00022793692
11	0xc11ff6a9	-9.99772
12	0xc068f773	-3.640103
13	0x4200b51e	32.176872
14	0x3d7894fd	0.06068896
15	0xc33c48e7	-188.28477
16	0xbe39c142	-0.18140128
17	0x3fd7e056	1.6865337
18	0xc18792b9	-16.946642
19	0xaf41473e	-1.7578558e-10
20	0xbe24f1e4	-0.16107899
21	0x428807c9	68.015205
22	0xc3180c07	-152.04698
23	0xc2fa47f9	-125.14057
24	0xbe2a2075	-0.16613944
25	0x432d1d29	173.1139
26	0xb6be6c1b	-5.6750264e-06
27	0x41156eab	9.339519
28	0xbfa97c79	-1.3241111
29	0xc24154de	-48.33288
30	0xbd12bf90	-0.03582722
31	0x3e150f07	0.14556514
32	0x3f824fd6	1.0180614
33	0xbe3638a5	-0.17795046
34	0xbead7269	-0.3387635
35	0xc098083b	-4.7510047
36	0xbe852536	-0.26004952
37	0xbc9eba2e	-0.019375887
38	0x41b9ebb6	23.240093
39	0xc0429955	-3.0406086
40	0xc06e3ff9	-3.7226546
41	0xbef9b5fd	-0.4877166
42	0x3370a5db	5.60302e-08
43	0xbf1c6f2b	-0.6110713
44	0x2f72c0ad	2.2078224e-10
45	0xad2cbd26	-9.8190674e-12
46	0xbf82bedf	-1.0214499
47	0x425a54b4	54.582718
48	0x4027faaa	2.6246743
49	0x3f412bff	0.7545776
50	0xb2966ac5	-1.7510851e-08
51	0x4047c57d	3.1214287
52	0xc2207857	-40.11752
53	0x3d5f0c08	0.054454833
54	0xbd5ecb8b	-0.054393332
55	0x411e6ce9	9.901589
56	0x43378864	183.53278
57	0x3fbdb50e	1.4820879
58	0xbcf6b78e	-0.030116823
59	0xc1dad193	-27.352331
60	0xc00f627c	-2.240386
61	0xbf2d32a3	-0.6765539
62	0x411d411e	9.828398
63	0xc056b372	-3.3547025
64	0x414339e6	12.201635
65	0xc16ec973	-14.924182
66	0xbe35feff	-0.17773055
67	0x41c0ccfb	24.100088
68	0x3fa0d1dc	1.2564044
69	0xb88981ca	-6.556844e-05
70	0xc0382b89	-2.8776572
71	0xc1666888	-14.40052
72	0x401a4476	2.4104285
73	0xbda82342	-0.0820985
74	0xba15cb90	-0.0005714232
75	0xbdd6714a	-0.10470827
76	0xbf402bfc	-0.75067115
77	0x3e9887c0	0.2979107
78	0x421e33de	39.55065
79	0xc1a61431	-20.75986
80	0x3faefde2	1.3671229
81	0xc271e96b	-60.477947
82	0xbf17a88a	-0.59241545
83	0x3e4df52f	0.20113061
84	0xc1b6a815	-22.832071
85	0xaf0a5ead	-1.2584662e-10
86	0x38c21676	9.2548245e-05
87	0xbf832416	-1.0245388
88	0xc0c8e10b	-6.277471
89	0xbe98d45d	-0.2984952
90	0xbc8f22a1	-0.017472567
91	0xbfdfd2d5	-1.7486216
92	0x42761089	61.516148
93	0xbd895447	-0.06705528
94	0x407fcb5e	3.9967875
95	0x3fd57e9c	1.6679263
96	0x405970f6	3.3975196
97	0x3db246b8	0.08704895
98	0x40fc774f	7.889564
99	0xbe5a6662	-0.21328118
100	0xaf5ecee4	-2.0264285e-10
101	0xc2d7908c	-107.78232
102	0x42d8794c	108.23691
103	0x428b664e	69.699814
104	0x402d42f8	2.7072124
105	0xc3493069	-201.1891
106	0x3e2c1a46	0.16806898
107	0x3eeef495	0.46670976
108	0x4286956e	67.291855
109	0x425d1761	55.27283
110	0xc11ac7ba	-9.673761
111	0xc0dc6fdb	-6.888654
112	0xc16b8c71	-14.721787
113	0xc241c566	-48.442772
114	0x3e82aae4	0.25521004
115	0x43450d24	197.05133
116	0x3f6855bf	0.9075584
117	0xbf03d2e7	-0.51493686
118	0xc32b38aa	-171.22134
119	0xacfcfb60	-7.190179e-12
120	0x3e0edd28	0.13951552
121	0x4353f31f	211.94969
122	0x42ed852d	118.76011
123	0x4224e45c	41.223007
124	0xc0ed94d6	-7.4244184
125	0x429d0cb9	78.52485
126	0x418c659b	17.549612
127	0x425be6db	54.975445
128	0x410b8abf	8.721374
129	0x4348250e	200.14474
130	0xbd4c9184	-0.049943462
131	0x3e97ac2d	0.29623547
132	0x40665c57	3.599386
133	0x3f79d239	0.975864
134	0x3df617f7	0.1201629
135	0x42efdb5c	119.92844
136	0xbfaccfe4	-1.3500943
137	0xbc9b7cbe	-0.01898038
138	0x40b18fe2	5.548814
139	0x428d51be	70.65965
140	0xc312f8f3	-146.97246
141	0x41ed8491	29.68973
142	0xac712296	-3.4267359e-12
143	0x3f9f9be7	1.2469453
144	0x3582e895	9.753445e-07
145	0xb70d68fb	-8.428698e-06
146	0xc232b967	-44.681057
147	0xc34b8541	-203.52052
148	0x42943b4a	74.1158
149	0x3fb4f5aa	1.4137471
150	0x2d8029eb	1.457053e-11
151	0x428c86a9	70.26301
152	0xc1e06fb8	-28.05455
153	0xbff53c79	-1.915908
154	0x3e8626dd	0.26201525
155	0x4284af86	66.34282
156	0x4125050d	10.313733
157	0xc1b99daf	-23.201994
158	0xc01d239c	-2.4552984
159	0xc2acfe6b	-86.49691
160	0xc2a097d4	-80.29654
161	0xc1f63c0d	-30.779322
162	0xc1cac61c	-25.346733
163	0x425805e6	54.00576
164	0x4238f133	46.235546
165	0x4305a5ae	133.64719
166	0xc2db93e8	-109.78888
167	0x41d1ee85	26.241465
168	0xc30374be	-131.45602
169	0x371595e2	8.915989e-06
170	0xc294eb9f	-74.4602
171	0xc15f5c61	-13.960053
172	0x429ec973	79.393456
173	0x3e7e37fd	0.24826045
174	0x4197ec06	18.990246
175	0x40417c35	3.023206
176	0x3eb43454	0.35196173
177	0xc11d7e4c	-9.843334
178	0x420c9b51	35.151676
179	0xc1a18723	-20.190985
180	0x3ff895c2	1.9420702
181	0x41c493fa	24.572254
182	0xc12ee0d8	-10.9298935
183	0xc204274c	-33.038376
184	0xc2943ba2	-74.11647
185	0x426155a5	56.333637
186	0x306d6561	8.6364166e-10
187	0xc25f0024	-55.750137
188	0xc2c8fa43	-100.48879
189	0x424c2ac9	51.041782
190	0xbce838f6	-0.028347474
191	0xc1e6d8b6	-28.855816
192	0x4186c2f8	16.8452
193	0xbcf71384	-0.030160673
194	0xc29a4b4c	-77.147064
195	0xc061c618	-3.5277157
196	0x41a9ae84	21.210213
197	0x3eaf1bfd	0.3420104
198	0x434d4f62	205.31009
199	0xbe961934	-0.29316103
200	0x321f1012	9.258672e-09
201	0x413f52e8	11.957741
202	0xc1367de4	-11.405735
203	0xc113332d	-9.199994
204	0xc011fb6f	-2.2809713
205	0x42a6b671	83.35633
206	0xbd12b9d5	-0.035821754
207	0xbdcae29d	-0.09906504
208	0x42ca8d00	101.27539
209	0xc11b5eb4	-9.710621
210	0x41801f10	16.015167
211	0xc20abda5	-34.6852
212	0xc0bbd561	-5.869797
213	0xc165bb11	-14.3581705
214	0xbdab84e2	-0.08374955
215	0x433b9c2c	187.61005
216	0xbe43151e	-0.19051024
217	0xc0044c4b	-2.0671566
218	0x42ccffea	102.49983
219	0x2c357bbe	2.5790338e-12
220	0xbe1abc34	-0.15110856
221	0xc341fb3a	-193.98135
222	0xc01755c6	-2.3646102
223	0x40c601e8	6.1877327
224	0x416f3044	14.949284
225	0x434504ee	197.01926
226	0xb15c9268	-3.2097436e-09
227	0xc16fc52f	-14.985641
228	0x4102a1f0	8.1645355
229	0xc239aed4	-46.42073
230	0xbcb555a4	-0.022135563
231	0xbdeedcdf	-0.116632216
232	0xc013ea25	-2.311166
233	0xbe40c54a	-0.1882526
234	0xbec9722b	-0.39344916
235	0xc0acfa8c	-5.4055843
236	0xbd26520d	-0.040605593
237	0xbc722e40	-0.014781535
238	0xc1073038	-8.449272
239	0xc081049c	-4.0318127
240	0x42dbfc9b	109.99337
241	0x40a02140	5.004059
242	0xb2bb6001	-2.1813323e-08
243	0xc020101b	-2.500983
244	0xaf84c785	-2.4152427e-10
245	0xb233a68b	-1.0457039e-08
246	0x42308cea	44.13761
247	0x43333144	179.19244
248	0xc0d6b270	-6.709282
249	0xbf1bfa2d	-0.6092861
250	0x33dd3aeb	1.03018316e-07
251	0xc1b3ebad	-22.490076
252	0x4293fd8b	73.9952
253	0xbf31ac02	-0.6940309
254	0xbd191b1f	-0.03737938
255	0x419152af	18.165373

fc4.bias f4 [6]
0	0xc00f7a71	-2.2418482
1	0x4132eade	11.182341
2	0x41292a28	10.572792
3	0x412f4cee	10.956282
4	0x4047eb1f	3.1237257
5	0x414802dd	12.500699
