figs/random/mlp/mlp_model_dict.pt (torch, 141967 bytes, 10 tensors)

group.0.weight f4 [100, 100]
0	0xbdaec4b3	-0.08533611
1	0x3cfa3cd3	0.030546581
2	0x3cd4547a	0.025919188
3	0xb9888e67	-0.0002604604
4	0xbdc12d7d	-0.09432504
5	0x3d94dde7	0.07268887
6	0xbb4e8c33	-0.003151667
7	0x3d5365e7	0.051610854
8	0xbd8027a0	-0.06257558
9	0x3d3f0890	0.046639025
10	0x3db70757	0.08936947
11	0xbc4d129a	-0.012516642
12	0x3d478c30	0.048717678
13	0xbd0c3c00	-0.034236908
14	0xbd2275d7	-0.039663162
15	0x3d4207ed	0.04737084
16	0xbd343667	-0.043997195
17	0x3db012f5	0.08597366
18	0xbc6c71a7	-0.014431394
19	0x3d87c6e5	0.06629733
20	0x3d609c2d	0.05483644
21	0xbc25f4da	-0.010129178
22	0x3d547b90	0.05187565
23	0xbdc195c0	-0.09452391
24	0x3d792afd	0.060832012
25	0xbc243680	-0.010022759
26	0x3d5cc8a7	0.053902294
27	0xbd4053dd	-0.04695498
28	0x3d0c0f5a	0.034194328
29	0x3cfbdfcd	0.030746365
30	0x3d7bab6d	0.06144278
31	0xbdad60eb	-0.08465751
32	0x3daead53	0.08529153
33	0x3c8a970d	0.01691773
34	0xbd2247c7	-0.039619233
35	0xbc388200	-0.011261463
36	0xbd5a3c5d	-0.053280223
37	0xbd3c23dd	-0.04593264
38	0x3a577ccd	0.0008220196
39	0xbd92034a	-0.071295336
40	0xbd5d21d7	-0.05398735
41	0x3c82bd93	0.015959537
42	0x3c960ae7	0.018315746
43	0xbc16654d	-0.009179425
44	0x3d1ba3e0	0.03799808
45	0xbd9bccdf	-0.076074354
46	0xbd48632d	-0.048922706
47	0x3d437afd	0.047724713
48	0x3cde0133	0.027100181
49	0x3dc33f75	0.09533588
50	0xbb95e3b3	-0.004574263
51	0xbd8c2bf3	-0.0684432
52	0x3c4b49da	0.012407744
53	0x3ce6f12d	0.028191173
54	0x3ce5aa67	0.028035356
55	0xbca148fa	-0.019688118
56	0xbcab46d3	-0.020907795
57	0x3da9f4f5	0.08298675
58	0xbbf619b3	-0.007510388
59	0xbda81d45	-0.08208708
60	0xb9eb2e67	-0.00044857265
61	0x3dab82ff	0.08374595
62	0xbc08e6e7	-0.008355833
63	0x3c95a673	0.018267846
64	0x3d7bb167	0.06144848
65	0x3dbacf1f	0.091215365
66	0x3c528ba7	0.0128506785
67	0x3c91a53a	0.017778981
68	0x3d76f333	0.060290527
69	0xbd99d4d0	-0.07511294
70	0xbd98d847	-0.07463127
71	0x3da255a8	0.07926494
72	0xbc2db067	-0.01060114
73	0x3d8e95d5	0.06962172
74	0xbdc79483	-0.09745123
75	0x3c9c9d80	0.01911807
76	0x3dbc47c2	0.09193374
77	0x3d797477	0.060902085
78	0xbc27de4d	-0.010245872
79	0xbca218f3	-0.019787287
80	0x3caa6a5a	0.020802666
81	0x3d906b6f	0.07051741
82	0x3cac571a	0.021037627
83	0x3d18abca	0.037273206
84	0x3d323c83	0.04351474
85	0xbc90cf0d	-0.017676855
86	0xbcfe7a2d	-0.031064117
87	0xbcf2a42d	-0.0296193
88	0x3d3faa93	0.04679353
89	0x3d85a49d	0.06525538
90	0xbd268230	-0.0406515
91	0x3d01c84a	0.03168515
92	0x3c541d80	0.0129464865
93	0xbb9b7180	-0.004743755
94	0xbd8ccb80	-0.06874752
95	0xbdca3708	-0.09873778
96	0x3d2af5c7	0.041738298
97	0x3db372c7	0.087621264
98	0xbd56bd30	-0.052426517
99	0xbd2ea52d	-0.042637993
100	0x3da319a2	0.079638734
101	0xbd997eef	-0.07494914
102	0xbda4b093	-0.08041491
103	0x3d9ef7f5	0.07762138
104	0xbd5bece0	-0.0536927
105	0x3db6609a	0.08905144
106	0x3c3f0580	0.011659026
107	0xbd3853a3	-0.045001637
108	0xbd47a27a	-0.048738934
109	0xbd9370c0	-0.0719924
110	0x3c395acd	0.0113131525
111	0x3bd932cd	0.0066283704
112	0x3beb6a1a	0.007184279
113	0xbd61d730	-0.05513686
114	0xbda97a00	-0.08275223
115	0x3d194350	0.03741771
116	0x3d7cd66a	0.06172792
117	0x3cb97893	0.022640502
118	0xbd94d0db	-0.072663985
119	0xbc85cbda	-0.016332556
120	0x3da2549f	0.079262964
121	0x3d445343	0.047930967
122	0x3c995687	0.018718017
123	0x3d615f80	0.055022717
124	0xbbb9df80	-0.005672395
125	0x3b220400	0.0024721622
126	0xbb3ab067	-0.0028486492
127	0xbd8ee74f	-0.06977712
128	0x3cebd0da	0.028786112
129	0x3d49d9c7	0.049279954
130	0xbd9e2757	-0.07722347
131	0xbda86ed5	-0.082242645
132	0x3d79d997	0.060998525
133	0x3cd8598d	0.026409889
134	0xbd6c2a87	-0.057657745
135	0xbc1b68da	-0.009485448
136	0x3bd232e7	0.0064147594
137	0xbd397b77	-0.04528376
138	0x3ca13da7	0.019682718
139	0x3c147567	0.009061194
140	0x3db6a8bd	0.08918903
141	0xbd98f11b	-0.07467862
142	0x3d4f8ff3	0.05067439
143	0x3d3c6257	0.04599222
144	0xbd8a7463	-0.0676048
145	0x3dae2ceb	0.08504661
146	0x3d24ba5a	0.04021678
147	0xbc1f9f4d	-0.00974257
148	0xbd5de283	-0.054171097
149	0xbd63fb3a	-0.05565951
150	0xbd4635dd	-0.04839121
151	0xbdad63a0	-0.084662676
152	0x3dbd5772	0.092451945
153	0x3d73a063	0.05947913
154	0x3dc8f48a	0.09812267
155	0xbd5fcf93	-0.054641318
156	0xbd513b57	-0.05108198
157	0xbdb00ff3	-0.08596792
158	0xbd15b1bd	-0.036546458
159	0x3d42dd33	0.047574233
160	0xbd873f07	-0.066038184
161	0xbd1dee8d	-0.038557578
162	0x3c66e773	0.014093268
163	0xbd018d60	-0.031628966
164	0xbd82f95a	-0.06395216
165	0xbd0ceb9d	-0.034404386
166	0xbdb8e275	-0.09027568
167	0xbcae140d	-0.021249795
168	0xbc7eed80	-0.015559554
169	0xbd74ac9d	-0.05973493
170	0xbd155f33	-0.036467742
171	0x3d861f6a	0.065489605
172	0xbc68ddf3	-0.014213073
173	0x3db712e0	0.08939147
174	0x3b2227cd	0.0024742961
175	0xbcfe2f67	-0.031028463
176	0x3dcc578f	0.09977638
177	0xbdbf2c40	-0.09334612
178	0x3c8862ad	0.016648615
179	0x3cc67f7a	0.024230707
180	0xbbffb167	-0.0078031304
181	0x3dc1c60d	0.09461603
182	0xbbd5a1cd	-0.0065195323
183	0xbdc090f2	-0.09402646
184	0x3d61e67d	0.05515145
185	0x3d0ee46d	0.034885813
186	0x3da16fcd	0.078826524
187	0xbd30efb0	-0.043197334
188	0xbdcbf56a	-0.099589184
189	0xbd88ca9b	-0.06679269
190	0xbce869c0	-0.028370738
191	0xbd8b7212	-0.068088666
192	0x3cf6f3a7	0.03014548
193	0xbd938c8d	-0.07204542
194	0x3c99d9c0	0.01878059
195	0x3da898ad	0.082322456
196	0xbdc0b46d	-0.094094135
197	0x3dc082d2	0.09399952
198	0x3d365460	0.04451406
199	0x3bd7e200	0.0065882206
200	0xbd4c4f0a	-0.049880065
201	0x3d1aa277	0.037752595
202	0xbd69eae7	-0.057108786
203	0xbd06d5d0	-0.03291875
204	0xbdbd4ecf	-0.09243547
205	0x3dab9097	0.08377188
206	0x3d9acd95	0.07558743
207	0xbd3167ba	-0.043311812
208	0xbdb89fbd	-0.09014843
209	0x3dc7b582	0.09751417
210	0x3da66a55	0.0812575
211	0x3d59fd9d	0.05322038
212	0x3d6baf2d	0.057540108
213	0xbcc84c8d	-0.024450565
214	0x3bf2f733	0.0074147223
215	0x3ba56c67	0.005048323
216	0x3dcba000	0.09942627
217	0xbda95ba2	-0.08269431
218	0x3cbb48a7	0.022861792
219	0x3d4b9b5d	0.049708713
220	0xbbce1767	-0.006289411
221	0xbcf7e4c0	-0.030260444
222	0xbd1f8a13	-0.038950037
223	0x3d025ed3	0.031828713
224	0xbd9a88db	-0.07545634
225	0xbc9838ad	-0.018581713
226	0x3d000b1a	0.031260587
227	0x3d79da4d	0.060999203
228	0xbd25ae9a	-0.040449716
229	0xbdb4e9e2	-0.08833672
230	0x3d7d5660	0.06184995
231	0x3d8d1d87	0.068903975
232	0x3c9d8140	0.01922667
233	0x3da1c9ca	0.07899816
234	0x3852599a	5.015135e-05
235	0xbd3d2613	-0.04617889
236	0xbd8f9748	-0.070112765
237	0x3d990503	0.07471659
238	0xbdc9b98b	-0.09849843
239	0x3b53a2cd	0.0032293082
240	0xbd33477a	-0.043769337
241	0x3d08fdc3	0.03344513
242	0xbd34810d	-0.044068385
243	0x3d784f70	0.060622633
244	0xbdbded0a	-0.09273727
245	0xbd8e7f2b	-0.06957849
246	0xbd91102d	-0.070831634
247	0x3db5e06b	0.08880695
248	0x3c73295a	0.014841402
249	0xbd1124c0	-0.03543544
250	0x3d1b16c3	0.037863504
251	0xbdb9f39b	-0.09079667
252	0xbd53347d	-0.05156373
253	0x3d86b795	0.06577984
254	0xbd41a850	-0.047279656
255	0x3d307a5a	0.043085434

group.0.bias f4 [100]
0	0xbd0deefa	-0.034651734
1	0x3d8a0ca2	0.06740691
2	0x3cc2bc53	0.02377144
3	0x3d188033	0.037231635
4	0xbd9b6ff2	-0.07589711
5	0x3cbf4ec0	0.02335298
6	0xbd9327ab	-0.071853004
7	0xbdc5c36d	-0.09656415
8	0xbd8d7ea8	-0.069089234
9	0x3dc853e7	0.09781628
10	0xbd7b76ca	-0.061392583
11	0xbc685eb3	-0.014182734
12	0xbdb6967a	-0.0891542
13	0x3d0a52e0	0.033770442
14	0xbd1b0b63	-0.037852656
15	0xbca3a1fa	-0.019974697
16	0xb9864b33	-0.000256145
17	0x3d080a6a	0.033213057
18	0xbcb0bcad	-0.021574343
19	0x3db1c0f2	0.086793795
20	0x3db4adba	0.08822198
21	0x3d02f750	0.031974137
22	0xbd8e2017	-0.069397144
23	0x3b6133cd	0.003436315
24	0xbdc39910	-0.09550679
25	0xbd3b2a8a	-0.045694865
26	0xbd0e362d	-0.034719635
27	0xbd0651a7	-0.032792713
28	0x3d9ed730	0.077558875
29	0x3d05929d	0.032610524
30	0xbd1e3193	-0.038621496
31	0xbda439bd	-0.08018825
32	0x3b28cecd	0.0025758028
33	0xbd423b87	-0.04742005
34	0xbd75cbd0	-0.060008824
35	0x3d93f8aa	0.07225163
36	0xbc8f8bcd	-0.017522717
37	0xbd812e7b	-0.063076936
38	0x3d2b26ea	0.04178516
39	0x3d916572	0.07099427
40	0x3d70f947	0.05883148
41	0x3d504f07	0.050856616
42	0xbca6ae4d	-0.020346785
43	0xbdb592e2	-0.08865906
44	0x3d58dd3d	0.052945364
45	0x3cf214ad	0.029550875
46	0xbd2ff843	-0.04296137
47	0xbd48359a	-0.048879243
48	0xbdbbc3d0	-0.09168208
49	0xbd0ae1cd	-0.033906747
50	0x3d0977c3	0.03356148
51	0x3b9f7267	0.0048659327
52	0x3dc37ef2	0.09545697
53	0x3dcab392	0.098975316
54	0xbd79e0ea	-0.06100551
55	0x3c964660	0.018344104
56	0x3d93968b	0.07206448
57	0xbd53ebd3	-0.05173857
58	0x3d1c55fd	0.038167942
59	0xbd60a75a	-0.0548471
60	0xbd3445dd	-0.04401194
61	0x3dccc875	0.09999172
62	0x3c233173	0.00996052
63	0x3db3421a	0.08752842
64	0xbce88db3	-0.02838788
65	0xbd67d85d	-0.056602824
66	0xbcecd200	-0.02890873
67	0x3d2a3b37	0.041560378
68	0x3d9849cb	0.0743595
69	0xbd31c037	-0.0433962
70	0x3dcc21d0	0.09967387
71	0xbd8cfb28	-0.06883842
72	0x3c55fae7	0.013060308
73	0x3d9280e2	0.07153489
74	0xbda8aebf	-0.08236455
75	0xbbaf6b67	-0.0053533795
76	0xbd2b0127	-0.041749146
77	0x3cfd83ed	0.030946696
78	0xbd144823	-0.036201607
79	0x3db662dd	0.089055754
80	0x3d2a2dd7	0.041547623
81	0x3caacc9a	0.020849515
82	0xbd22fc33	-0.039791297
83	0x3b7c0c00	0.00384593
84	0x3d88bd97	0.066767864
85	0xbb2b7e33	-0.002616775
86	0xbb8f5667	-0.0043743136
87	0xbd236a97	-0.039896574
88	0x3c541c4d	0.012946201
89	0xbbd7c933	-0.006585264
90	0xbd807115	-0.06271569
91	0x3db789cb	0.08961829
92	0x3db46452	0.08808197
93	0x3dadbfa3	0.084838174
94	0xbdb76928	-0.08955604
95	0xbdc52332	-0.096258536
96	0x3dc724ff	0.09723853
97	0x3ceba2d3	0.028764164
98	0xbd2b2990	-0.041787684
99	0x3b7aa967	0.0038247944

fc1.weight f4 [100, 240]
0	0xbd52a371	-0.0514254
1	0xbc6e3693	-0.014539379
2	0x3d833379	0.06406302
3	0xbd554251	-0.052065197
4	0xbc8ffb68	-0.017575935
5	0xbc90d479	-0.01767944
6	0xbd47a4df	-0.048741218
7	0xbd303f7d	-0.043029297
8	0xbcc94f7b	-0.024574032
9	0xbd707756	-0.058707558
10	0x3d040e50	0.032240212
11	0xbd4edb51	-0.050502125
12	0x3cc7a722	0.024371687
13	0xbc8e10c0	-0.017341971
14	0xbd2caa2e	-0.042154483
15	0xbbd91cdc	-0.0066257548
16	0xbacc2c7e	-0.0015577225
17	0xbd51afb2	-0.051192947
18	0x3c09bc51	0.008406715
19	0x3d3d6bba	0.046245314
20	0x3d534c1c	0.051586255
21	0x3d81c250	0.0633589
22	0x3d0fe513	0.03513057
23	0xbd14dc38	-0.03634283
24	0xbd76a392	-0.060214587
25	0x3cd452b9	0.025918351
26	0xbc4cbae3	-0.012495729
27	0x3d4356b2	0.0476901
28	0xbd48f7e7	-0.049064543
29	0xbd002cd6	-0.03129276
30	0xbd6a761c	-0.057241544
31	0x3d4198e4	0.04726495
32	0xbb294bb7	-0.0025832483
33	0x3d60ae44	0.054853693
34	0x3cbaf7e5	0.022823283
35	0x3d50b32f	0.050952133
36	0xbd5733d3	-0.052539658
37	0xbd48c0ae	-0.04901188
38	0x3d6479dc	0.055780277
39	0x3d50ba36	0.050958835
40	0xbb87de09	-0.0041463417
41	0xba84589a	-0.0010097206
42	0xbd5ded1f	-0.054181214
43	0xbaea7803	-0.001788855
44	0x3d316eea	0.043318667
45	0x3d6ae095	0.057343084
46	0xbd3ad155	-0.04560979
47	0xbb890483	-0.004181446
48	0xbd2cf464	-0.042225257
49	0xbd5ed206	-0.054399513
50	0xbc19b5e6	-0.009381747
51	0x3cb09d94	0.021559514
52	0x3d3ac9a3	0.045602452
53	0xbd71bcb1	-0.05901784
54	0x3d385f88	0.04501298
55	0x3d39a5d0	0.045324147
56	0xbcf00813	-0.029300725
57	0xbd1d4787	-0.038398292
58	0x3d204143	0.03912474
59	0xbc81f923	-0.015865868
60	0xbd372865	-0.044716258
61	0x3d59d410	0.053180754
62	0x3c8ee333	0.017442321
63	0x3d645094	0.055740908
64	0xbd6c2499	-0.05765209
65	0xbd51c7c5	-0.051215906
66	0x3d085887	0.03328755
67	0x3d5886eb	0.052863043
68	0x3cd75894	0.026287355
69	0xbd27612c	-0.040864155
70	0x3cdba5c7	0.026812447
71	0x3d0fa761	0.035071734
72	0x3c42b802	0.011884691
73	0x3d441d23	0.04787935
74	0x3cb6969a	0.02228861
75	0x3cf93f52	0.030425701
76	0x3cbe7189	0.023247497
77	0xbd251f5d	-0.040313113
78	0xbccde330	-0.025132746
79	0x3d5288ae	0.05139988
80	0xbcd6f302	-0.026238922
81	0x3d14db95	0.036342222
82	0xbd05ca40	-0.032663584
83	0x3c2e96cf	0.010656073
84	0xbd792e1c	-0.06083499
85	0x3b0e364d	0.0021699846
86	0x3bade075	0.0053062984
87	0x3d72f8a7	0.059319165
88	0xbc65ecfd	-0.014033553
89	0x3d26593e	0.04061245
90	0xbb580ad9	-0.003296545
91	0xbd696602	-0.056982048
92	0x3cf9535d	0.030435259
93	0xbc1c8bcb	-0.009554814
94	0xbd4aadd9	-0.0494822
95	0xbd07f037	-0.03318807
96	0xbcc289ad	-0.02374729
97	0xbd1e4149	-0.03863648
98	0xbd6f235e	-0.05838334
99	0x3c477c94	0.012175698
100	0xbbe52d80	-0.0069939494
101	0x3cbd59b2	0.02311406
102	0x3d1919b8	0.037378043
103	0xbbbe229f	-0.005802467
104	0x3d66f291	0.056383673
105	0x3c3fafa2	0.011699589
106	0x3d81d356	0.06339137
107	0x3c7b3eab	0.015334765
108	0xbc47245f	-0.012154668
109	0xbcbc1d3d	-0.02296316
110	0xbbb6685e	-0.0055666408
111	0xbd4b7834	-0.04967518
112	0xbc2d77b9	-0.010587626
113	0xbd2f3db6	-0.04278346
114	0xbcd41007	-0.025886549
115	0xbd6962a0	-0.05697882
116	0x3c9ea1f1	0.019364329
117	0x3b29bd74	0.0025900276
118	0xbc5734bc	-0.013135131
119	0x3ce45088	0.027870432
120	0x3ad8c355	0.0016537706
121	0x3d5d447d	0.054020394
122	0xbcbcd6e2	-0.023051683
123	0x3d5ae472	0.05344052
124	0x3d64f51a	0.05589781
125	0x3caaf18c	0.020867132
126	0xbca8c014	-0.020599402
127	0xbd6ecd9b	-0.05830155
128	0xbd4159fc	-0.047204956
129	0xbd518762	-0.0511545
130	0xbd4795df	-0.048726913
131	0xbd0a399e	-0.033746354
132	0x3d13367a	0.035940625
133	0xbb5fb420	-0.0034134462
134	0xbd6c615d	-0.05771004
135	0xbcd4b05a	-0.025962997
136	0xbca5129b	-0.020150473
137	0x3d5f959c	0.054586038
138	0x3d6e449d	0.058170903
139	0x3ad1f754	0.0016019144
140	0xbcbf568e	-0.023356702
141	0x3d4ec2b1	0.05047864
142	0xbd2ec2d7	-0.042666283
143	0x3cb6e83d	0.022327537
144	0xbb1eace2	-0.0024211933
145	0x3c6aa2df	0.014321058
146	0x3ac65965	0.0015132843
147	0x3d0e70f2	0.03477568
148	0xbc9f4050	-0.019439846
149	0x3d28243f	0.041050192
150	0x3c963a3d	0.018338317
151	0xbccde96b	-0.025135716
152	0x3d753ccf	0.059872445
153	0x3ad24b3e	0.0016044152
154	0x3d2e8f92	0.042617388
155	0xbd620494	-0.055180147
156	0xbd0711e2	-0.03297604
157	0x3bd878e8	0.00660621
158	0xbcc7fa31	-0.024411293
159	0xbc2d5fd7	-0.010581932
160	0xbd690ea3	-0.056898724
161	0xbccb89dc	-0.02484601
162	0xbcdbd0f6	-0.026833039
163	0x3cb92358	0.022599861
164	0xbc23055d	-0.009950009
165	0xbcfdcc06	-0.030981075
166	0x3ca82a7c	0.02052807
167	0x3d3024be	0.04300379
168	0x3d49a572	0.049230047
169	0xbc75c5cf	-0.0150007745
170	0x3cb0699a	0.02153473
171	0xbcb4dda9	-0.022078352
172	0x3cf50663	0.029910272
173	0x3c792141	0.015205682
174	0x3cc7d7cd	0.024394894
175	0x3d0c4ef8	0.034254998
176	0xbd1daf10	-0.03849703
177	0xbd49856a	-0.0491995
178	0xbd173277	-0.03691336
179	0x3ba8ac37	0.0051474827
180	0x3d09bd9e	0.0336281
181	0xbce39252	-0.027779732
182	0xbcb95135	-0.02262173
183	0xbcf1a778	-0.0294988
184	0xbc30bd8c	-0.010787379
185	0xbbcb2ba6	-0.0062002717
186	0xbd194922	-0.03742326
187	0xbcf0f616	-0.029414218
188	0x3c905b8a	0.017621774
189	0xbd3784f9	-0.044804547
190	0xbcfcb79f	-0.030849276
191	0xbcb11117	-0.021614594
192	0xbac93900	-0.001535207
193	0x3c4f4faf	0.012653275
194	0x3d11c693	0.035589766
195	0xbc403541	-0.011731447
196	0x3d838365	0.06421546
197	0x3caa51de	0.02079099
198	0xbc8d8fe4	-0.017280526
199	0xbd1c570e	-0.03816896
200	0xbc700f88	-0.01465214
201	0xbd489ee6	-0.048979662
202	0xbd56e321	-0.0524627
203	0xbd65f521	-0.056141976
204	0x3d036e34	0.03208752
205	0xbd35b0d4	-0.04435809
206	0xbc865fa5	-0.016403029
207	0x3cc3362b	0.02382954
208	0x3ccad67a	0.024760474
209	0x3bbf3f39	0.005836394
210	0xbd65de7d	-0.056120384
211	0x3c47816b	0.012176852
212	0x3c35dcb6	0.011099985
213	0xbd09bf3f	-0.033629652
214	0xbcdbeba3	-0.026845759
215	0x3c4cdab6	0.012503317
216	0x3d3c3afb	0.045954686
217	0x3d75f835	0.06005116
218	0xbd0e82d3	-0.034792732
219	0xbad8f6b6	-0.0016553018
220	0x3c8796b1	0.016551347
221	0xbd32839d	-0.043582547
222	0xbd593e9f	-0.053038236
223	0x3b8a7918	0.0042258613
224	0x3d0e3405	0.03471758
225	0x3d36b6c9	0.04460791
226	0xbd3a8835	-0.045540053
227	0x3d21165f	0.039327975
228	0x3cdf3ce3	0.027250713
229	0xbc91e2a9	-0.017808275
230	0xbd6cc172	-0.05780167
231	0x3d5fefb7	0.05467197
232	0x3d22426c	0.039614126
233	0x3c54acb9	0.012980633
234	0xbd5bb706	-0.05364134
235	0xbba11976	-0.0049163653
236	0xbc244857	-0.010027013
237	0xbd3799d5	-0.04482444
238	0x3cf8c077	0.030365212
239	0x3c9c7381	0.019098045
240	0xbcca80b4	-0.024719574
241	0xbbf7a048	-0.007556949
242	0xbd688aca	-0.056772985
243	0x3d0e5bbb	0.03475545
244	0x3ce669b2	0.028126571
245	0xbbceb42f	-0.0063081007
246	0x3d49170f	0.049094256
247	0x3caf93bb	0.021432748
248	0x3d772806	0.060340904
249	0x3cc6bab8	0.024258956
250	0xbb89d7fa	-0.0042066546
251	0xbcd5b381	-0.02608657
252	0xbd6658d1	-0.056237046
253	0x3d77253c	0.060338244
254	0x3c41a3c4	0.01181883
255	0xbcbcc95c	-0.023045234

fc1.bias f4 [100]
0	0xbd825239	-0.06363339
1	0xbce7a137	-0.028275115
2	0xbd497cf7	-0.04919144
3	0xbd80e767	-0.062941365
4	0x3d2856f8	0.041098565
5	0xbb9c8414	-0.004776487
6	0xbcc2fbd5	-0.023801723
7	0x3c0da173	0.0086444495
8	0xbd0482ec	-0.03235142
9	0x3d81bdfb	0.06335064
10	0x3c349169	0.011020997
11	0x3d6faf2d	0.05851667
12	0xbbd10734	-0.0063790325
13	0xbd82c72d	-0.06385646
14	0xbb744be7	-0.0037276687
15	0xbd30f046	-0.043197893
16	0x3d6c2d79	0.057660554
17	0xbd1b5ae2	-0.03792847
18	0x3d326d4a	0.043561257
19	0xbc83e265	-0.016099164
20	0x3b94a7ce	0.0045366054
21	0xbd1036b2	-0.03520841
22	0x3d44675c	0.047950134
23	0xbd0c4862	-0.034248717
24	0x3cde0b21	0.027104916
25	0x3c9ca9f4	0.019124009
26	0xbc8358df	-0.016033588
27	0x3bd4b288	0.006491009
28	0xbcf48407	-0.029848112
29	0xbcc08c1f	-0.023504315
30	0x3d22ae4f	0.039717015
31	0xbd5c7e89	-0.05383161
32	0xbc3c9520	-0.011510164
33	0x3c1073d3	0.008816677
34	0xbcc269b1	-0.023732038
35	0xbd40ca1d	-0.04706775
36	0xbbaa991e	-0.0052062413
37	0x3d29aa27	0.041422036
38	0x3cb283c8	0.021791354
39	0x3d3f04af	0.046635326
40	0x3d7b8e77	0.061415162
41	0x3c46b682	0.012128474
42	0x3d7b5ef3	0.061369848
43	0xbcab5764	-0.020915695
44	0x3d5cd8a8	0.053917557
45	0x3ca3eafc	0.02000951
46	0xbd78af0f	-0.060713824
47	0x3bf15ff7	0.007366176
48	0xbc9c662d	-0.01909169
49	0x3b9dede1	0.004819617
50	0xbc9e5bdf	-0.019330917
51	0x3c7101b9	0.014709883
52	0xbd4b7597	-0.04967269
53	0xbd1d73db	-0.038440567
54	0xbd7ac149	-0.061219487
55	0xbb3eb3bb	-0.0029098827
56	0x3d5a30ea	0.053269304
57	0xbd2e2b85	-0.042521972
58	0xbd18d731	-0.037314598
59	0x3d6707cc	0.05640392
60	0x3d0819ee	0.033227853
61	0xbd52ef86	-0.05149796
62	0x3d157593	0.03648908
63	0xbc93c78b	-0.018039485
64	0x3d448801	0.047981266
65	0xbcb16ab3	-0.021657323
66	0xbd72ca95	-0.05927523
67	0x3d56581d	0.052330125
68	0x3d6a194b	0.057153028
69	0xbd41cecc	-0.047316357
70	0xbd6e330d	-0.058154155
71	0x3d4d67c7	0.050147798
72	0x3c22561d	0.009908226
73	0xbc9a0671	-0.0188019
74	0xbd549d56	-0.05190786
75	0x3ce7a21e	0.028275546
76	0xbd128558	-0.035771698
77	0xbcd1868b	-0.02557685
78	0xbd655a21	-0.055994157
79	0xbd7704a1	-0.06030715
80	0xbd6289ea	-0.055307306
81	0xbd3d07ef	-0.046150144
82	0xba119aa0	-0.0005554352
83	0x3cd0b763	0.02547807
84	0x3d4de816	0.050270163
85	0xbcd2c41d	-0.02572828
86	0x3d6747fe	0.05646514
87	0xbb43004d	-0.0029754818
88	0x3d06dc2d	0.03292482
89	0xbd0d14dc	-0.03444372
90	0xbd086d25	-0.033307213
91	0x3d81b15b	0.06332656
92	0xbd0ad32e	-0.033892803
93	0xbcb30f36	-0.02185784
94	0x3d00734c	0.031359956
95	0x3d038c85	0.03211643
96	0xbd12e085	-0.03585865
97	0xbd153fad	-0.03643768
98	0x3d51fb38	0.05126497
99	0x3d290b4c	0.04127054

fc2.0.0.weight f4 [100, 100]
0	0xbdaec4b3	-0.08533611
1	0x3cfa3cd3	0.030546581
2	0x3cd4547a	0.025919188
3	0xb9888e67	-0.0002604604
4	0xbdc12d7d	-0.09432504
5	0x3d94dde7	0.07268887
6	0xbb4e8c33	-0.003151667
7	0x3d5365e7	0.051610854
8	0xbd8027a0	-0.06257558
9	0x3d3f0890	0.046639025
10	0x3db70757	0.08936947
11	0xbc4d129a	-0.012516642
12	0x3d478c30	0.048717678
13	0xbd0c3c00	-0.034236908
14	0xbd2275d7	-0.039663162
15	0x3d4207ed	0.04737084
16	0xbd343667	-0.043997195
17	0x3db012f5	0.08597366
18	0xbc6c71a7	-0.014431394
19	0x3d87c6e5	0.06629733
20	0x3d609c2d	0.05483644
21	0xbc25f4da	-0.010129178
22	0x3d547b90	0.05187565
23	0xbdc195c0	-0.09452391
24	0x3d792afd	0.060832012
25	0xbc243680	-0.010022759
26	0x3d5cc8a7	0.053902294
27	0xbd4053dd	-0.04695498
28	0x3d0c0f5a	0.034194328
29	0x3cfbdfcd	0.030746365
30	0x3d7bab6d	0.06144278
31	0xbdad60eb	-0.08465751
32	0x3daead53	0.08529153
33	0x3c8a970d	0.01691773
34	0xbd2247c7	-0.039619233
35	0xbc388200	-0.011261463
36	0xbd5a3c5d	-0.053280223
37	0xbd3c23dd	-0.04593264
38	0x3a577ccd	0.0008220196
39	0xbd92034a	-0.071295336
40	0xbd5d21d7	-0.05398735
41	0x3c82bd93	0.015959537
42	0x3c960ae7	0.018315746
43	0xbc16654d	-0.009179425
44	0x3d1ba3e0	0.03799808
45	0xbd9bccdf	-0.076074354
46	0xbd48632d	-0.048922706
47	0x3d437afd	0.047724713
48	0x3cde0133	0.027100181
49	0x3dc33f75	0.09533588
50	0xbb95e3b3	-0.004574263
51	0xbd8c2bf3	-0.0684432
52	0x3c4b49da	0.012407744
53	0x3ce6f12d	0.028191173
54	0x3ce5aa67	0.028035356
55	0xbca148fa	-0.019688118
56	0xbcab46d3	-0.020907795
57	0x3da9f4f5	0.08298675
58	0xbbf619b3	-0.007510388
59	0xbda81d45	-0.08208708
60	0xb9eb2e67	-0.00044857265
61	0x3dab82ff	0.08374595
62	0xbc08e6e7	-0.008355833
63	0x3c95a673	0.018267846
64	0x3d7bb167	0.06144848
65	0x3dbacf1f	0.091215365
66	0x3c528ba7	0.0128506785
67	0x3c91a53a	0.017778981
68	0x3d76f333	0.060290527
69	0xbd99d4d0	-0.07511294
70	0xbd98d847	-0.07463127
71	0x3da255a8	0.07926494
72	0xbc2db067	-0.01060114
73	0x3d8e95d5	0.06962172
74	0xbdc79483	-0.09745123
75	0x3c9c9d80	0.01911807
76	0x3dbc47c2	0.09193374
77	0x3d797477	0.060902085
78	0xbc27de4d	-0.010245872
79	0xbca218f3	-0.019787287
80	0x3caa6a5a	0.020802666
81	0x3d906b6f	0.07051741
82	0x3cac571a	0.021037627
83	0x3d18abca	0.037273206
84	0x3d323c83	0.04351474
85	0xbc90cf0d	-0.017676855
86	0xbcfe7a2d	-0.031064117
87	0xbcf2a42d	-0.0296193
88	0x3d3faa93	0.04679353
89	0x3d85a49d	0.06525538
90	0xbd268230	-0.0406515
91	0x3d01c84a	0.03168515
92	0x3c541d80	0.0129464865
93	0xbb9b7180	-0.004743755
94	0xbd8ccb80	-0.06874752
95	0xbdca3708	-0.09873778
96	0x3d2af5c7	0.041738298
97	0x3db372c7	0.087621264
98	0xbd56bd30	-0.052426517
99	0xbd2ea52d	-0.042637993
100	0x3da319a2	0.079638734
101	0xbd997eef	-0.07494914
102	0xbda4b093	-0.08041491
103	0x3d9ef7f5	0.07762138
104	0xbd5bece0	-0.0536927
105	0x3db6609a	0.08905144
106	0x3c3f0580	0.011659026
107	0xbd3853a3	-0.045001637
108	0xbd47a27a	-0.048738934
109	0xbd9370c0	-0.0719924
110	0x3c395acd	0.0113131525
111	0x3bd932cd	0.0066283704
112	0x3beb6a1a	0.007184279
113	0xbd61d730	-0.05513686
114	0xbda97a00	-0.08275223
115	0x3d194350	0.03741771
116	0x3d7cd66a	0.06172792
117	0x3cb97893	0.022640502
118	0xbd94d0db	-0.072663985
119	0xbc85cbda	-0.016332556
120	0x3da2549f	0.079262964
121	0x3d445343	0.047930967
122	0x3c995687	0.018718017
123	0x3d615f80	0.055022717
124	0xbbb9df80	-0.005672395
125	0x3b220400	0.0024721622
126	0xbb3ab067	-0.0028486492
127	0xbd8ee74f	-0.06977712
128	0x3cebd0da	0.028786112
129	0x3d49d9c7	0.049279954
130	0xbd9e2757	-0.07722347
131	0xbda86ed5	-0.082242645
132	0x3d79d997	0.060998525
133	0x3cd8598d	0.026409889
134	0xbd6c2a87	-0.057657745
135	0xbc1b68da	-0.009485448
136	0x3bd232e7	0.0064147594
137	0xbd397b77	-0.04528376
138	0x3ca13da7	0.019682718
139	0x3c147567	0.009061194
140	0x3db6a8bd	0.08918903
141	0xbd98f11b	-0.07467862
142	0x3d4f8ff3	0.05067439
143	0x3d3c6257	0.04599222
144	0xbd8a7463	-0.0676048
145	0x3dae2ceb	0.08504661
146	0x3d24ba5a	0.04021678
147	0xbc1f9f4d	-0.00974257
148	0xbd5de283	-0.054171097
149	0xbd63fb3a	-0.05565951
150	0xbd4635dd	-0.04839121
151	0xbdad63a0	-0.084662676
152	0x3dbd5772	0.092451945
153	0x3d73a063	0.05947913
154	0x3dc8f48a	0.09812267
155	0xbd5fcf93	-0.054641318
156	0xbd513b57	-0.05108198
157	0xbdb00ff3	-0.08596792
158	0xbd15b1bd	-0.036546458
159	0x3d42dd33	0.047574233
160	0xbd873f07	-0.066038184
161	0xbd1dee8d	-0.038557578
162	0x3c66e773	0.014093268
163	0xbd018d60	-0.031628966
164	0xbd82f95a	-0.06395216
165	0xbd0ceb9d	-0.034404386
166	0xbdb8e275	-0.09027568
167	0xbcae140d	-0.021249795
168	0xbc7eed80	-0.015559554
169	0xbd74ac9d	-0.05973493
170	0xbd155f33	-0.036467742
171	0x3d861f6a	0.065489605
172	0xbc68ddf3	-0.014213073
173	0x3db712e0	0.08939147
174	0x3b2227cd	0.0024742961
175	0xbcfe2f67	-0.031028463
176	0x3dcc578f	0.09977638
177	0xbdbf2c40	-0.09334612
178	0x3c8862ad	0.016648615
179	0x3cc67f7a	0.024230707
180	0xbbffb167	-0.0078031304
181	0x3dc1c60d	0.09461603
182	0xbbd5a1cd	-0.0065195323
183	0xbdc090f2	-0.09402646
184	0x3d61e67d	0.05515145
185	0x3d0ee46d	0.034885813
186	0x3da16fcd	0.078826524
187	0xbd30efb0	-0.043197334
188	0xbdcbf56a	-0.099589184
189	0xbd88ca9b	-0.06679269
190	0xbce869c0	-0.028370738
191	0xbd8b7212	-0.068088666
192	0x3cf6f3a7	0.03014548
193	0xbd938c8d	-0.07204542
194	0x3c99d9c0	0.01878059
195	0x3da898ad	0.082322456
196	0xbdc0b46d	-0.094094135
197	0x3dc082d2	0.09399952
198	0x3d365460	0.04451406
199	0x3bd7e200	0.0065882206
200	0xbd4c4f0a	-0.049880065
201	0x3d1aa277	0.037752595
202	0xbd69eae7	-0.057108786
203	0xbd06d5d0	-0.03291875
204	0xbdbd4ecf	-0.09243547
205	0x3dab9097	0.08377188
206	0x3d9acd95	0.07558743
207	0xbd3167ba	-0.043311812
208	0xbdb89fbd	-0.09014843
209	0x3dc7b582	0.09751417
210	0x3da66a55	0.0812575
211	0x3d59fd9d	0.05322038
212	0x3d6baf2d	0.057540108
213	0xbcc84c8d	-0.024450565
214	0x3bf2f733	0.0074147223
215	0x3ba56c67	0.005048323
216	0x3dcba000	0.09942627
217	0xbda95ba2	-0.08269431
218	0x3cbb48a7	0.022861792
219	0x3d4b9b5d	0.049708713
220	0xbbce1767	-0.006289411
221	0xbcf7e4c0	-0.030260444
222	0xbd1f8a13	-0.038950037
223	0x3d025ed3	0.031828713
224	0xbd9a88db	-0.07545634
225	0xbc9838ad	-0.018581713
226	0x3d000b1a	0.031260587
227	0x3d79da4d	0.060999203
228	0xbd25ae9a	-0.040449716
229	0xbdb4e9e2	-0.08833672
230	0x3d7d5660	0.06184995
231	0x3d8d1d87	0.068903975
232	0x3c9d8140	0.01922667
233	0x3da1c9ca	0.07899816
234	0x3852599a	5.015135e-05
235	0xbd3d2613	-0.04617889
236	0xbd8f9748	-0.070112765
237	0x3d990503	0.07471659
238	0xbdc9b98b	-0.09849843
239	0x3b53a2cd	0.0032293082
240	0xbd33477a	-0.043769337
241	0x3d08fdc3	0.03344513
242	0xbd34810d	-0.044068385
243	0x3d784f70	0.060622633
244	0xbdbded0a	-0.09273727
245	0xbd8e7f2b	-0.06957849
246	0xbd91102d	-0.070831634
247	0x3db5e06b	0.08880695
248	0x3c73295a	0.014841402
249	0xbd1124c0	-0.03543544
250	0x3d1b16c3	0.037863504
251	0xbdb9f39b	-0.09079667
252	0xbd53347d	-0.05156373
253	0x3d86b795	0.06577984
254	0xbd41a850	-0.047279656
255	0x3d307a5a	0.043085434

fc2.0.0.bias f4 [100]
0	0xbd0deefa	-0.034651734
1	0x3d8a0ca2	0.06740691
2	0x3cc2bc53	0.02377144
3	0x3d188033	0.037231635
4	0xbd9b6ff2	-0.07589711
5	0x3cbf4ec0	0.02335298
6	0xbd9327ab	-0.071853004
7	0xbdc5c36d	-0.09656415
8	0xbd8d7ea8	-0.069089234
9	0x3dc853e7	0.09781628
10	0xbd7b76ca	-0.061392583
11	0xbc685eb3	-0.014182734
12	0xbdb6967a	-0.0891542
13	0x3d0a52e0	0.033770442
14	0xbd1b0b63	-0.037852656
15	0xbca3a1fa	-0.019974697
16	0xb9864b33	-0.000256145
17	0x3d080a6a	0.033213057
18	0xbcb0bcad	-0.021574343
19	0x3db1c0f2	0.086793795
20	0x3db4adba	0.08822198
21	0x3d02f750	0.031974137
22	0xbd8e2017	-0.069397144
23	0x3b6133cd	0.003436315
24	0xbdc39910	-0.09550679
25	0xbd3b2a8a	-0.045694865
26	0xbd0e362d	-0.034719635
27	0xbd0651a7	-0.032792713
28	0x3d9ed730	0.077558875
29	0x3d05929d	0.032610524
30	0xbd1e3193	-0.038621496
31	0xbda439bd	-0.08018825
32	0x3b28cecd	0.0025758028
33	0xbd423b87	-0.04742005
34	0xbd75cbd0	-0.060008824
35	0x3d93f8aa	0.07225163
36	0xbc8f8bcd	-0.017522717
37	0xbd812e7b	-0.063076936
38	0x3d2b26ea	0.04178516
39	0x3d916572	0.07099427
40	0x3d70f947	0.05883148
41	0x3d504f07	0.050856616
42	0xbca6ae4d	-0.020346785
43	0xbdb592e2	-0.08865906
44	0x3d58dd3d	0.052945364
45	0x3cf214ad	0.029550875
46	0xbd2ff843	-0.04296137
47	0xbd48359a	-0.048879243
48	0xbdbbc3d0	-0.09168208
49	0xbd0ae1cd	-0.033906747
50	0x3d0977c3	0.03356148
51	0x3b9f7267	0.0048659327
52	0x3dc37ef2	0.09545697
53	0x3dcab392	0.098975316
54	0xbd79e0ea	-0.06100551
55	0x3c964660	0.018344104
56	0x3d93968b	0.07206448
57	0xbd53ebd3	-0.05173857
58	0x3d1c55fd	0.038167942
59	0xbd60a75a	-0.0548471
60	0xbd3445dd	-0.04401194
61	0x3dccc875	0.09999172
62	0x3c233173	0.00996052
63	0x3db3421a	0.08752842
64	0xbce88db3	-0.02838788
65	0xbd67d85d	-0.056602824
66	0xbcecd200	-0.02890873
67	0x3d2a3b37	0.041560378
68	0x3d9849cb	0.0743595
69	0xbd31c037	-0.0433962
70	0x3dcc21d0	0.09967387
71	0xbd8cfb28	-0.06883842
72	0x3c55fae7	0.013060308
73	0x3d9280e2	0.07153489
74	0xbda8aebf	-0.08236455
75	0xbbaf6b67	-0.0053533795
76	0xbd2b0127	-0.041749146
77	0x3cfd83ed	0.030946696
78	0xbd144823	-0.036201607
79	0x3db662dd	0.089055754
80	0x3d2a2dd7	0.041547623
81	0x3caacc9a	0.020849515
82	0xbd22fc33	-0.039791297
83	0x3b7c0c00	0.00384593
84	0x3d88bd97	0.066767864
85	0xbb2b7e33	-0.002616775
86	0xbb8f5667	-0.0043743136
87	0xbd236a97	-0.039896574
88	0x3c541c4d	0.012946201
89	0xbbd7c933	-0.006585264
90	0xbd807115	-0.06271569
91	0x3db789cb	0.08961829
92	0x3db46452	0.08808197
93	0x3dadbfa3	0.084838174
94	0xbdb76928	-0.08955604
95	0xbdc52332	-0.096258536
96	0x3dc724ff	0.09723853
97	0x3ceba2d3	0.028764164
98	0xbd2b2990	-0.041787684
99	0x3b7aa967	0.0038247944

fc2.1.0.weight f4 [100, 100]
0	0xbdaec4b3	-0.08533611
1	0x3cfa3cd3	0.030546581
2	0x3cd4547a	0.025919188
3	0xb9888e67	-0.0002604604
4	0xbdc12d7d	-0.09432504
5	0x3d94dde7	0.07268887
6	0xbb4e8c33	-0.003151667
7	0x3d5365e7	0.051610854
8	0xbd8027a0	-0.06257558
9	0x3d3f0890	0.046639025
10	0x3db70757	0.08936947
11	0xbc4d129a	-0.012516642
12	0x3d478c30	0.048717678
13	0xbd0c3c00	-0.034236908
14	0xbd2275d7	-0.039663162
15	0x3d4207ed	0.04737084
16	0xbd343667	-0.043997195
17	0x3db012f5	0.08597366
18	0xbc6c71a7	-0.014431394
19	0x3d87c6e5	0.06629733
20	0x3d609c2d	0.05483644
21	0xbc25f4da	-0.010129178
22	0x3d547b90	0.05187565
23	0xbdc195c0	-0.09452391
24	0x3d792afd	0.060832012
25	0xbc243680	-0.010022759
26	0x3d5cc8a7	0.053902294
27	0xbd4053dd	-0.04695498
28	0x3d0c0f5a	0.034194328
29	0x3cfbdfcd	0.030746365
30	0x3d7bab6d	0.06144278
31	0xbdad60eb	-0.08465751
32	0x3daead53	0.08529153
33	0x3c8a970d	0.01691773
34	0xbd2247c7	-0.039619233
35	0xbc388200	-0.011261463
36	0xbd5a3c5d	-0.053280223
37	0xbd3c23dd	-0.04593264
38	0x3a577ccd	0.0008220196
39	0xbd92034a	-0.071295336
40	0xbd5d21d7	-0.05398735
41	0x3c82bd93	0.015959537
42	0x3c960ae7	0.018315746
43	0xbc16654d	-0.009179425
44	0x3d1ba3e0	0.03799808
45	0xbd9bccdf	-0.076074354
46	0xbd48632d	-0.048922706
47	0x3d437afd	0.047724713
48	0x3cde0133	0.027100181
49	0x3dc33f75	0.09533588
50	0xbb95e3b3	-0.004574263
51	0xbd8c2bf3	-0.0684432
52	0x3c4b49da	0.012407744
53	0x3ce6f12d	0.028191173
54	0x3ce5aa67	0.028035356
55	0xbca148fa	-0.019688118
56	0xbcab46d3	-0.020907795
57	0x3da9f4f5	0.08298675
58	0xbbf619b3	-0.007510388
59	0xbda81d45	-0.08208708
60	0xb9eb2e67	-0.00044857265
61	0x3dab82ff	0.08374595
62	0xbc08e6e7	-0.008355833
63	0x3c95a673	0.018267846
64	0x3d7bb167	0.06144848
65	0x3dbacf1f	0.091215365
66	0x3c528ba7	0.0128506785
67	0x3c91a53a	0.017778981
68	0x3d76f333	0.060290527
69	0xbd99d4d0	-0.07511294
70	0xbd98d847	-0.07463127
71	0x3da255a8	0.07926494
72	0xbc2db067	-0.01060114
73	0x3d8e95d5	0.06962172
74	0xbdc79483	-0.09745123
75	0x3c9c9d80	0.01911807
76	0x3dbc47c2	0.09193374
77	0x3d797477	0.060902085
78	0xbc27de4d	-0.010245872
79	0xbca218f3	-0.019787287
80	0x3caa6a5a	0.020802666
81	0x3d906b6f	0.07051741
82	0x3cac571a	0.021037627
83	0x3d18abca	0.037273206
84	0x3d323c83	0.04351474
85	0xbc90cf0d	-0.017676855
86	0xbcfe7a2d	-0.031064117
87	0xbcf2a42d	-0.0296193
88	0x3d3faa93	0.04679353
89	0x3d85a49d	0.06525538
90	0xbd268230	-0.0406515
91	0x3d01c84a	0.03168515
92	0x3c541d80	0.0129464865
93	0xbb9b7180	-0.004743755
94	0xbd8ccb80	-0.06874752
95	0xbdca3708	-0.09873778
96	0x3d2af5c7	0.041738298
97	0x3db372c7	0.087621264
98	0xbd56bd30	-0.052426517
99	0xbd2ea52d	-0.042637993
100	0x3da319a2	0.079638734
101	0xbd997eef	-0.07494914
102	0xbda4b093	-0.08041491
103	0x3d9ef7f5	0.07762138
104	0xbd5bece0	-0.0536927
105	0x3db6609a	0.08905144
106	0x3c3f0580	0.011659026
107	0xbd3853a3	-0.045001637
108	0xbd47a27a	-0.048738934
109	0xbd9370c0	-0.0719924
110	0x3c395acd	0.0113131525
111	0x3bd932cd	0.0066283704
112	0x3beb6a1a	0.007184279
113	0xbd61d730	-0.05513686
114	0xbda97a00	-0.08275223
115	0x3d194350	0.03741771
116	0x3d7cd66a	0.06172792
117	0x3cb97893	0.022640502
118	0xbd94d0db	-0.072663985
119	0xbc85cbda	-0.016332556
120	0x3da2549f	0.079262964
121	0x3d445343	0.047930967
122	0x3c995687	0.018718017
123	0x3d615f80	0.055022717
124	0xbbb9df80	-0.005672395
125	0x3b220400	0.0024721622
126	0xbb3ab067	-0.0028486492
127	0xbd8ee74f	-0.06977712
128	0x3cebd0da	0.028786112
129	0x3d49d9c7	0.049279954
130	0xbd9e2757	-0.07722347
131	0xbda86ed5	-0.082242645
132	0x3d79d997	0.060998525
133	0x3cd8598d	0.026409889
134	0xbd6c2a87	-0.057657745
135	0xbc1b68da	-0.009485448
136	0x3bd232e7	0.0064147594
137	0xbd397b77	-0.04528376
138	0x3ca13da7	0.019682718
139	0x3c147567	0.009061194
140	0x3db6a8bd	0.08918903
141	0xbd98f11b	-0.07467862
142	0x3d4f8ff3	0.05067439
143	0x3d3c6257	0.04599222
144	0xbd8a7463	-0.0676048
145	0x3dae2ceb	0.08504661
146	0x3d24ba5a	0.04021678
147	0xbc1f9f4d	-0.00974257
148	0xbd5de283	-0.054171097
149	0xbd63fb3a	-0.05565951
150	0xbd4635dd	-0.04839121
151	0xbdad63a0	-0.084662676
152	0x3dbd5772	0.092451945
153	0x3d73a063	0.05947913
154	0x3dc8f48a	0.09812267
155	0xbd5fcf93	-0.054641318
156	0xbd513b57	-0.05108198
157	0xbdb00ff3	-0.08596792
158	0xbd15b1bd	-0.036546458
159	0x3d42dd33	0.047574233
160	0xbd873f07	-0.066038184
161	0xbd1dee8d	-0.038557578
162	0x3c66e773	0.014093268
163	0xbd018d60	-0.031628966
164	0xbd82f95a	-0.06395216
165	0xbd0ceb9d	-0.034404386
166	0xbdb8e275	-0.09027568
167	0xbcae140d	-0.021249795
168	0xbc7eed80	-0.015559554
169	0xbd74ac9d	-0.05973493
170	0xbd155f33	-0.036467742
171	0x3d861f6a	0.065489605
172	0xbc68ddf3	-0.014213073
173	0x3db712e0	0.08939147
174	0x3b2227cd	0.0024742961
175	0xbcfe2f67	-0.031028463
176	0x3dcc578f	0.09977638
177	0xbdbf2c40	-0.09334612
178	0x3c8862ad	0.016648615
179	0x3cc67f7a	0.024230707
180	0xbbffb167	-0.0078031304
181	0x3dc1c60d	0.09461603
182	0xbbd5a1cd	-0.0065195323
183	0xbdc090f2	-0.09402646
184	0x3d61e67d	0.05515145
185	0x3d0ee46d	0.034885813
186	0x3da16fcd	0.078826524
187	0xbd30efb0	-0.043197334
188	0xbdcbf56a	-0.099589184
189	0xbd88ca9b	-0.06679269
190	0xbce869c0	-0.028370738
191	0xbd8b7212	-0.068088666
192	0x3cf6f3a7	0.03014548
193	0xbd938c8d	-0.07204542
194	0x3c99d9c0	0.01878059
195	0x3da898ad	0.082322456
196	0xbdc0b46d	-0.094094135
197	0x3dc082d2	0.09399952
198	0x3d365460	0.04451406
199	0x3bd7e200	0.0065882206
200	0xbd4c4f0a	-0.049880065
201	0x3d1aa277	0.037752595
202	0xbd69eae7	-0.057108786
203	0xbd06d5d0	-0.03291875
204	0xbdbd4ecf	-0.09243547
205	0x3dab9097	0.08377188
206	0x3d9acd95	0.07558743
207	0xbd3167ba	-0.043311812
208	0xbdb89fbd	-0.09014843
209	0x3dc7b582	0.09751417
210	0x3da66a55	0.0812575
211	0x3d59fd9d	0.05322038
212	0x3d6baf2d	0.057540108
213	0xbcc84c8d	-0.024450565
214	0x3bf2f733	0.0074147223
215	0x3ba56c67	0.005048323
216	0x3dcba000	0.09942627
217	0xbda95ba2	-0.08269431
218	0x3cbb48a7	0.022861792
219	0x3d4b9b5d	0.049708713
220	0xbbce1767	-0.006289411
221	0xbcf7e4c0	-0.030260444
222	0xbd1f8a13	-0.038950037
223	0x3d025ed3	0.031828713
224	0xbd9a88db	-0.07545634
225	0xbc9838ad	-0.018581713
226	0x3d000b1a	0.031260587
227	0x3d79da4d	0.060999203
228	0xbd25ae9a	-0.040449716
229	0xbdb4e9e2	-0.08833672
230	0x3d7d5660	0.06184995
231	0x3d8d1d87	0.068903975
232	0x3c9d8140	0.01922667
233	0x3da1c9ca	0.07899816
234	0x3852599a	5.015135e-05
235	0xbd3d2613	-0.04617889
236	0xbd8f9748	-0.070112765
237	0x3d990503	0.07471659
238	0xbdc9b98b	-0.09849843
239	0x3b53a2cd	0.0032293082
240	0xbd33477a	-0.043769337
241	0x3d08fdc3	0.03344513
242	0xbd34810d	-0.044068385
243	0x3d784f70	0.060622633
244	0xbdbded0a	-0.09273727
245	0xbd8e7f2b	-0.06957849
246	0xbd91102d	-0.070831634
247	0x3db5e06b	0.08880695
248	0x3c73295a	0.014841402
249	0xbd1124c0	-0.03543544
250	0x3d1b16c3	0.037863504
251	0xbdb9f39b	-0.09079667
252	0xbd53347d	-0.05156373
253	0x3d86b795	0.06577984
254	0xbd41a850	-0.047279656
255	0x3d307a5a	0.043085434

fc2.1.0.bias f4 [100]
0	0xbd0deefa	-0.034651734
1	0x3d8a0ca2	0.06740691
2	0x3cc2bc53	0.02377144
3	0x3d188033	0.037231635
4	0xbd9b6ff2	-0.07589711
5	0x3cbf4ec0	0.02335298
6	0xbd9327ab	-0.071853004
7	0xbdc5c36d	-0.09656415
8	0xbd8d7ea8	-0.069089234
9	0x3dc853e7	0.09781628
10	0xbd7b76ca	-0.061392583
11	0xbc685eb3	-0.014182734
12	0xbdb6967a	-0.0891542
13	0x3d0a52e0	0.033770442
14	0xbd1b0b63	-0.037852656
15	0xbca3a1fa	-0.019974697
16	0xb9864b33	-0.000256145
17	0x3d080a6a	0.033213057
18	0xbcb0bcad	-0.021574343
19	0x3db1c0f2	0.086793795
20	0x3db4adba	0.08822198
21	0x3d02f750	0.031974137
22	0xbd8e2017	-0.069397144
23	0x3b6133cd	0.003436315
24	0xbdc39910	-0.09550679
25	0xbd3b2a8a	-0.045694865
26	0xbd0e362d	-0.034719635
27	0xbd0651a7	-0.032792713
28	0x3d9ed730	0.077558875
29	0x3d05929d	0.032610524
30	0xbd1e3193	-0.038621496
31	0xbda439bd	-0.08018825
32	0x3b28cecd	0.0025758028
33	0xbd423b87	-0.04742005
34	0xbd75cbd0	-0.060008824
35	0x3d93f8aa	0.07225163
36	0xbc8f8bcd	-0.017522717
37	0xbd812e7b	-0.063076936
38	0x3d2b26ea	0.04178516
39	0x3d916572	0.07099427
40	0x3d70f947	0.05883148
41	0x3d504f07	0.050856616
42	0xbca6ae4d	-0.020346785
43	0xbdb592e2	-0.08865906
44	0x3d58dd3d	0.052945364
45	0x3cf214ad	0.029550875
46	0xbd2ff843	-0.04296137
47	0xbd48359a	-0.048879243
48	0xbdbbc3d0	-0.09168208
49	0xbd0ae1cd	-0.033906747
50	0x3d0977c3	0.03356148
51	0x3b9f7267	0.0048659327
52	0x3dc37ef2	0.09545697
53	0x3dcab392	0.098975316
54	0xbd79e0ea	-0.06100551
55	0x3c964660	0.018344104
56	0x3d93968b	0.07206448
57	0xbd53ebd3	-0.05173857
58	0x3d1c55fd	0.038167942
59	0xbd60a75a	-0.0548471
60	0xbd3445dd	-0.04401194
61	0x3dccc875	0.09999172
62	0x3c233173	0.00996052
63	0x3db3421a	0.08752842
64	0xbce88db3	-0.02838788
65	0xbd67d85d	-0.056602824
66	0xbcecd200	-0.02890873
67	0x3d2a3b37	0.041560378
68	0x3d9849cb	0.0743595
69	0xbd31c037	-0.0433962
70	0x3dcc21d0	0.09967387
71	0xbd8cfb28	-0.06883842
72	0x3c55fae7	0.013060308
73	0x3d9280e2	0.07153489
74	0xbda8aebf	-0.08236455
75	0xbbaf6b67	-0.0053533795
76	0xbd2b0127	-0.041749146
77	0x3cfd83ed	0.030946696
78	0xbd144823	-0.036201607
79	0x3db662dd	0.089055754
80	0x3d2a2dd7	0.041547623
81	0x3caacc9a	0.020849515
82	0xbd22fc33	-0.039791297
83	0x3b7c0c00	0.00384593
84	0x3d88bd97	0.066767864
85	0xbb2b7e33	-0.002616775
86	0xbb8f5667	-0.0043743136
87	0xbd236a97	-0.039896574
88	0x3c541c4d	0.012946201
89	0xbbd7c933	-0.006585264
90	0xbd807115	-0.06271569
91	0x3db789cb	0.08961829
92	0x3db46452	0.08808197
93	0x3dadbfa3	0.084838174
94	0xbdb76928	-0.08955604
95	0xbdc52332	-0.096258536
96	0x3dc724ff	0.09723853
97	0x3ceba2d3	0.028764164
98	0xbd2b2990	-0.041787684
99	0x3b7aa967	0.0038247944

fc4.weight f4 [6, 100]
0	0xbcdcf34d	-0.026971484
1	0x3c59355a	0.013257349
2	0xbcc5cd5a	-0.02414577
3	0xbd35b56a	-0.044362463
4	0x3d811c28	0.063041985
5	0xbce9e027	-0.028549267
6	0x3dbcb248	0.09213692
7	0x3d042113	0.032258105
8	0xbd1c8aed	-0.038218427
9	0xbd745be3	-0.059657943
10	0xbdabd0e3	-0.08389451
11	0xbc7d3040	-0.015453398
12	0xbbd5329a	-0.0065062763
13	0x3d1c96c3	0.038229715
14	0xbdbcf97b	-0.09227272
15	0xbd4f6cad	-0.05064075
16	0xbc3c2173	-0.011482584
17	0x3da52a15	0.08064667
18	0x3d55fb07	0.05224135
19	0x3db453ff	0.088050835
20	0xbdb3de33	-0.087826155
21	0x3d137893	0.03600366
22	0xbd23bce0	-0.039975047
23	0x3c7390f3	0.014866102
24	0xbd203143	-0.03910948
25	0x3d583f07	0.052794483
26	0xbdcb3973	-0.09923067
27	0x3cd12a7a	0.02553295
28	0x3db83f82	0.08996488
29	0xbd0e34c7	-0.0347183
30	0x3da8f8f8	0.08250612
31	0xbcadcb27	-0.021215035
32	0xbd07353a	-0.033009745
33	0xbd0036ed	-0.03130238
34	0xbb361333	-0.002778244
35	0x3cb7a9ad	0.022419775
36	0x3d51d033	0.051223945
37	0xbbb16f9a	-0.0054149153
38	0xbdb0443a	-0.08606763
39	0x3daa7d00	0.08324623
40	0x3d2aff2d	0.04174726
41	0xbd5cbbda	-0.053890087
42	0x3c345500	0.011006594
43	0x3d32d5da	0.043660976
44	0x3d8f3a8b	0.06993588
45	0xbdb80c68	-0.08986741
46	0xbda2f488	-0.07956797
47	0xbb9f1a33	-0.004855418
48	0xbdc2d758	-0.0951373
49	0x3ca82227	0.020524098
50	0x3bba2fe7	0.00568198
51	0x3cc38a0d	0.023869539
52	0x3d5cf630	0.05394572
53	0x3d585440	0.052814722
54	0x3b355e9a	0.0027674795
55	0x3da6bd6d	0.08141599
56	0x3d1f7210	0.038927138
57	0xbcfd5747	-0.030925406
58	0x3c5ccae7	0.01347611
59	0xbd8ba7ea	-0.068191364
60	0x3db28db5	0.08718435
61	0xbccf4c73	-0.025305009
62	0xbdc5674f	-0.09638845
63	0xbc58f10d	-0.013241065
64	0xbd2032da	-0.039110996
65	0x3c444e5a	0.011981571
66	0x3c2c9a00	0.010534763
67	0xbd76c75d	-0.06024872
68	0xbd27e687	-0.040991332
69	0x3d5df627	0.054189827
70	0x3db4abe2	0.088218465
71	0xbd5ef033	-0.05442829
72	0x3d0559b7	0.032556262
73	0xbbe5b5e7	-0.00701021
74	0x3d115977	0.03548571
75	0xbdb897ad	-0.09013305
76	0xbda6cd0d	-0.08144579
77	0xbccc5aa7	-0.02494557
78	0x3d1a96ed	0.03774159
79	0x3daa8460	0.0832603
80	0x3c433e27	0.011916674
81	0xb9a14b33	-0.0003076434
82	0x3da5e4f8	0.08100313
83	0xbc92699a	-0.01787262
84	0x3be50b9a	0.0069899084
85	0xbd721d67	-0.05911007
86	0xbc7b8e1a	-0.015353704
87	0xbd3986f3	-0.045294713
88	0xbc4ea7a7	-0.012613214
89	0xbdc52bf8	-0.09627527
90	0xbd898ac3	-0.0671592
91	0x3caf1aad	0.021375025
92	0xbd17032d	-0.036868263
93	0xbdc0428f	-0.09387695
94	0x3c886673	0.016650414
95	0x3da02a98	0.07820624
96	0x39ad1e67	0.00033019783
97	0x3ca3937a	0.019967783
98	0xbd6db10a	-0.058030166
99	0x3d410a1a	0.047128774
100	0xbd764ee0	-0.060133815
101	0x3c2445b3	0.010026383
102	0xbd5c060a	-0.053716697
103	0xbd3dc323	-0.046328675
104	0xbd89912d	-0.06717143
105	0x3d47e520	0.048802495
106	0xbc306eda	-0.010768617
107	0x3d70f177	0.05882403
108	0xbd8c8f9d	-0.068633296
109	0x3d96acd0	0.0735718
110	0x3d2d083d	0.042244185
111	0xbbdb424d	-0.0066912533
112	0xbbe0bd00	-0.006858468
113	0xbdae216a	-0.08502467
114	0xbd3d0063	-0.046142947
115	0x3bc5bc00	0.0060343742
116	0x3d39102a	0.04518143
117	0x3d7c3747	0.061576154
118	0x3d30a983	0.04313041
119	0xbc463d40	-0.012099564
120	0x3c284be7	0.010272003
121	0xbd05a52a	-0.032628216
122	0x3d1afe17	0.037839975
123	0x3d4c29fa	0.04984472
124	0xbd7ea4c3	-0.062168848
125	0x3da8d1db	0.08243152
126	0x3d131597	0.03590926
127	0x3c57ba4d	0.013166976
128	0xbc22a21a	-0.009926343
129	0x3d72051a	0.059086896
130	0xbd504eba	-0.05085633
131	0x3dc4fbf0	0.09618366
132	0xbd818b83	-0.06325438
133	0x3d72fa2d	0.059320617
134	0xbd1431e0	-0.036180377
135	0x3dbff585	0.09373001
136	0x3d34c770	0.04413551
137	0x3c38839a	0.011261845
138	0xbbbcbd9a	-0.005759907
139	0x3da1d4c3	0.07901909
140	0xbd299b60	-0.041407943
141	0xbd8a1fe5	-0.06744365
142	0x3ca58ee7	0.020209743
143	0xbd7a7597	-0.0611473
144	0x3dcafecd	0.09911881
145	0x3daa0a9b	0.08302804
146	0xbd609fbd	-0.05483984
147	0xbda93575	-0.08262149
148	0xbb333233	-0.0027343153
149	0xbc421d4d	-0.011847806
150	0xbd504cd3	-0.050854515
151	0x3da3a36d	0.07990155
152	0x3d43c847	0.04779842
153	0x3d8b350a	0.06797226
154	0xbd323900	-0.04351139
155	0xbd2c43ed	-0.042056967
156	0xbd6e791a	-0.05822096
157	0x3ccd03c0	0.025026202
158	0xbd6b7e63	-0.05749358
159	0x3cde05e7	0.027102424
160	0xbdc78670	-0.09742439
161	0xbc26625a	-0.010155285
162	0x3dbb89fa	0.09157176
163	0x3d7bb427	0.061451104
164	0x3cdff900	0.027340412
165	0x3dbdd2bb	0.09268709
166	0x3d742730	0.059607685
167	0x3d8c6f7f	0.06857204
168	0xbcc665cd	-0.024218464
169	0xbc944473	-0.018099045
170	0xbd1a1e2d	-0.037626434
171	0xbd2496ca	-0.040182866
172	0xbd877855	-0.066147484
173	0xbd9e4de8	-0.07729703
174	0xbdab84f0	-0.08374965
175	0x3db9f867	0.09080582
176	0x3d9acd33	0.0755867
177	0xbc97a61a	-0.01851182
178	0xbd5a2d97	-0.053266134
179	0xbcb8f9a7	-0.022579981
180	0x3bf2cf4d	0.007409966
181	0xbdc479ab	-0.09593519
182	0x3dc6f757	0.09715145
183	0xbdb01d67	-0.08599358
184	0x3ce5d24d	0.02805438
185	0x3d248040	0.04016137
186	0x3cfdf26d	0.030999387
187	0xbd7f5a00	-0.06234169
188	0x3d16df90	0.0368343
189	0xbccde693	-0.02513436
190	0xbcc4a293	-0.024003303
191	0x3cd53c07	0.0260296
192	0x3dc80928	0.097673714
193	0xbd0ef813	-0.03490455
194	0xbbc24367	-0.005928445
195	0x3c2b0927	0.010439194
196	0xbd4db13d	-0.050217856
197	0xbd14d870	-0.036339223
198	0x3d99bc47	0.07506614
199	0xbdbf91c5	-0.09353975
200	0x3d49395a	0.04912696
201	0xbdc15ac3	-0.094411395
202	0xbd8d278f	-0.06892311
203	0xbda04a5a	-0.078266814
204	0x3db8d365	0.09024695
205	0x3aabf467	0.0013119102
206	0x3daf869d	0.08570597
207	0xbbd13933	-0.0063849925
208	0x3d6f2663	0.058386218
209	0xbc23a1a7	-0.009987271
210	0x3d826a42	0.06367923
211	0x3db14172	0.08655061
212	0xbd2eeef3	-0.04270835
213	0x3d83bfe5	0.06433085
214	0xbd7ebb13	-0.062190127
215	0xbd108cc3	-0.03529049
216	0xbda55f4f	-0.08074819
217	0x3c45e240	0.012077868
218	0x3c86b600	0.016444206
219	0x3daecfbb	0.08535715
220	0x3dacc3d2	0.08435787
221	0xbd008b90	-0.031383097
222	0x3dacfdf0	0.08446872
223	0x3cdcb6c0	0.02694261
224	0xbd9d76c5	-0.07688669
225	0xbd960745	-0.07325605
226	0xbcf521d3	-0.029923355
227	0xbc583167	-0.013195372
228	0x3da6283d	0.081131436
229	0x3cf19653	0.029490625
230	0x3c256c1a	0.010096574
231	0xbd4515e0	-0.048116565
232	0xbdc50c4b	-0.09621485
233	0x3d0efef7	0.034911122
234	0x3d37bbea	0.044856943
235	0x3d6f0b63	0.05836047
236	0x3d738d2d	0.059460808
237	0x3d756f4a	0.059920587
238	0xbd174463	-0.036930453
239	0x3aa544cd	0.0012609005
240	0x3d9a8fd7	0.075469665
241	0xbda182a2	-0.07886244
242	0xbdc37d35	-0.09545366
243	0x3c895ead	0.016768778
244	0xbcda2de0	-0.026633203
245	0xbd1e6987	-0.038674857
246	0xbdab5297	-0.08365362
247	0x3cd21f20	0.025649607
248	0xbd919502	-0.07108499
249	0x3dc9733d	0.09836433
250	0x3db08c18	0.08620471
251	0xbd0f6aa7	-0.03501382
252	0xbdca20a3	-0.09869506
253	0xbd097af3	-0.03356452
254	0xbd452bb3	-0.048137378
255	0x3c10ad33	0.008830356

fc4.bias f4 [6]
0	0xbd86951b	-0.06571408
1	0x3d92660a	0.07148369
2	0xbd64f497	-0.05589732
3	0xbd9461af	-0.07245194
4	0x3ccab5a0	0.024744809
5	0xbdc36b98	-0.09542006
