figs/random-sampler/mlp-random/mlp_model_dict.pt (torch, 141967 bytes, 10 tensors)

group.0.weight f4 [100, 100]
00000000: a115 e8bf 2c8b c0bf 7d99 fabf 0ce2 d3bf
00000010: 649d e73f b226 e5bf c0bf e2bf 127e 00c0
00000020: 2c74 e4bf 7aea f9bf f896 e8bf 3572 e13f
00000030: abc1 6d3e da2e e5bf 47fe e2bf 5c14 ae3e
00000040: 2292 f33f b707 f2bf 3bdb f0bf 20fd 8bbf
00000050: 746a 0bbd 0082 d6bf f323 e5bf 8fee e4bf
00000060: 5dfc e4bf 6558 a43f f347 f8bf 3a6a f2bf
00000070: 6ae9 e8bf e026 f0bf cb2d f1bf 5ba1 f0bf
00000080: de2f 08c0 28df e5bf c126 f5bf 675b c0be
00000090: 9bab f8bf 9919 b3bf 5d59 efbf 9003 f5bf
000000a0: 141e 7cbf a729 f0bf 54f4 e4bf fd45 f2bf
000000b0: 3f57 fcbf 9142 edbf 4abe f3bf 589b e5bf
000000c0: 6dd1 e1bf 5332 f1bf c3bd e7bf 9437 e1bf
000000d0: 3ace f7bf 24bd e3bf cce9 8b3f 407c f4bf
000000e0: d35c f0bf 414e ebbf c2c7 ecbf 13cd fbbf
000000f0: 7ab6 f2bf 816c dfbf 38be fdbf c087 e9bf
00000100: c484 f9bf 4ef0 f7bf 777c f3bf 5afd e6bf
00000110: bf57 f8bf 05cb fbbf fb64 f3bf 07c6 ec3e
00000120: 42fd e3bf 2006 f8bf 80c3 edbf 9ace eebf
00000130: 31d6 dbbf 9246 2dbf 0fe2 f5bf 1d19 eabf
00000140: 262f f8bf ec79 e9bf 3def ecbf ec5a eebf
00000150: 0490 e3bf dda9 e6bf 4bc4 f8bf 3d4a f5bf
00000160: dc96 f5bf c9a5 f0bf 91c6 eebf 6c80 443f
00000170: c309 cdbf 86c4 e4bf c183 26bf d347 78bf
00000180: 0760 f1bf eaa4 f9bf 9f20 78bf d516 fabf
00000190: 9171 ddbf 7988 f0bf 09ac ffbf 1813 f0bf
000001a0: d646 ebbf fa9a f2bf 8810 dbbf 1126 0140
000001b0: ba34 af3f 44b5 fabf 4035 d2bf 9731 e7bf
000001c0: 9960 0040 f584 dc3f 07c1 a93f 74f9 fcbf
000001d0: d345 d33f 2020 dabf 2ec8 71bf 62f4 58bf
000001e0: 0226 e8bf 0984 d9bf 25c3 f3bf 1efa eebf
000001f0: cd75 e33f 2b25 663e 6898 e9bf cc91 fa3f
00000200: 8701 eabf fdcd dabf bfc5 c7bf 461f 64bf
00000210: ca23 f2bf b8ec e53f fcb0 b8be be1b a1bf
00000220: 90b1 0b3f 7510 eebf f7d2 b9bf 1efb 0040
00000230: 8d49 f6bf bae3 ae3f 04ff b4bf a82e b3bf
00000240: 1749 d6bf c8c7 fbbf 3860 f33f afcb f2bf
00000250: 85ef ed3f d864 f8bf 4f78 f2bf 59a0 b5bf
00000260: d5ed e6bf 9e06 5dbf aac9 d6bf 7106 9cbf
00000270: c58c d1bf f9a1 0ebf dfac e33f 6fa0 c9bf
00000280: 9851 d73f 9147 e8bf 2793 a4bf 5c18 6ebf
00000290: bd6a ff3f 0cb8 f0bf cd81 d4bf be4b d1bf
000002a0: 3f75 ac3f d608 bf3f 185e f5bf 9b2d 90bf
000002b0: d85a e9bf 41fb e7bf 2b90 f3bf 23a6 df3f
000002c0: a387 e8bf 617a e9bf c731 febf 7fd4 debf
000002d0: 4774 b4bf 5d99 fabf 9e40 fabf ab37 c3bf
000002e0: d5dd f3bf 33b8 cabf 4b38 d1bf c44f f8bf
000002f0: b401 00c0 d7cb f7bf 892b ec3f 4928 aebf
00000300: 19c9 e4bf c21a f3bf 3119 ff3f a5ad 553e
00000310: 1025 9ebf 3da5 f03f 9c9e eebf ae18 e5bf
00000320: e5ba fabf 648a e7bf 4281 efbf 02d0 eebf
00000330: 835b f7bf 6c41 fbbf 1779 e5bf 2ed1 eebf
00000340: 598b f5bf c207 eabf 2d12 f9bf 8324 f4bf
00000350: 15ba e6bf 854c e4bf 94c9 f8bf 17bd efbf
00000360: 0473 fabf 9030 ecbf 15d5 e6bf b449 fbbf
00000370: 457a e2bf 5d25 f4bf 91f3 f1bf 801c f9bf
00000380: e64c ecbf d143 f4bf 862b eebf d118 e7bf
00000390: 556d eebf cfb3 e6bf 5622 f6bf d06e f1bf
000003a0: d13f f2bf 270f eebf 7638 ecbf 5918 edbf
000003b0: 6897 ecbf d007 f1bf 8ada fabf 1116 e6bf
000003c0: 89e0 e2bf 7bb8 e3bf 8830 f8bf f12e f6bf
000003d0: accc e3bf 7448 f1bf c2e0 e6bf 4cb6 f7bf
000003e0: 5bbd e8bf a168 e7bf f3a1 e6bf 9c69 fabf
000003f0: 1b0d eebf 31d1 efbf bc13 e6bf 0181 f3bf
-1.8131601 -1.5042472 -1.9578091 -1.6553359 1.8094907 -1.7902434 -1.7714767 -2.0076947
-1.7847953 -1.9524682 -1.8171072 1.7612978 0.2321841 -1.7904923 -1.7733849 0.33999908
1.9028971 -1.8908604 -1.8816904 -1.0936623 -0.03403707 -1.6758423 -1.7901596 -1.7885302
-1.7889515 1.2839476 -1.9396957 -1.8938668 -1.8196232 -1.8761864 -1.88421 -1.8799242
-2.1279216 -1.7958727 -1.9152452 -0.37569734 -1.942737 -1.3992187 -1.8699147 -1.9141712
-0.98483396 -1.8762711 -1.7887063 -1.8927609 -1.9714125 -1.853594 -1.9042447 -1.7938032
-1.7642037 -1.8843483 -1.8104786 -1.7595086 -1.935981 -1.7792096 1.0930724 -1.9100418
-1.8778328 -1.8383256 -1.8498461 -1.9671959 -1.8961937 -1.7454988 -1.9823675 -1.8244553
-1.9493642 -1.937021 -1.9022359 -1.8046067 -1.9401778 -1.9671332 -1.9015192 0.46244833
-1.7811663 -1.9376869 -1.8575287 -1.86568 -1.7174741 -0.67685807 -1.9209613 -1.8288914
-1.9389389 -1.8240333 -1.851051 -1.8621497 -1.7778325 -1.8020588 -1.9434904 -1.9163281
-1.9186664 -1.8800594 -1.8654348 0.76758456 -1.6018604 -1.7872474 -0.6504479 -0.96984595
-1.885743 -1.9503453 -0.96924776 -1.9538218 -1.7300283 -1.8791648 -1.9974376 -1.8755827
-1.8380992 -1.8953545 -1.711442 2.0179484 1.3687966 -1.9586568 -1.6422501 -1.8062009
2.0058959 1.7228075 1.3262032 -1.9763627 1.6505684 -1.7041054 -0.94446075 -0.847479
-1.8136599 -1.6993419 -1.9043928 -1.867008 1.7770325 0.22475116 -1.8249636 1.9575744
-1.8281716 -1.7094113 -1.5607222 -0.8911022 -1.8917172 1.7962866 -0.36072528 -1.2586591
0.54567814 -1.8598772 -1.4517506 2.015327 -1.9241196 1.3663247 -1.4140325 -1.3998613
-1.6741055 -1.9670343 1.9013739 -1.8968409 1.858872 -1.9405775 -1.8942965 -1.4189559
-1.804133 -0.8633822 -1.6780293 -1.2189466 -1.6371084 -0.557159 1.7787131 -1.5752085
1.6821775 -1.814684 -1.2857407 -0.9300592 1.9954449 -1.8806167 -1.6602112 -1.635124
1.3473281 1.4924572 -1.916934 -1.1263918 -1.8230848 -1.8123552 -1.9028372 1.7472576
-1.8166393 -1.8240472 -1.9858941 -1.7408599 -1.4097985 -1.9578053 -1.955097 -1.5251364
-1.9052073 -1.5837463 -1.6345304 -1.9399343 -2.000104 -1.9359082 1.8450786 -1.3606044
-1.787387 -1.8992541 1.9929563 0.20867021 -1.235506 1.8800427 -1.8642154 -1.7898157
-1.9588286 -1.8089108 -1.8711321 -1.8657229 -1.9324802 -1.962934 -1.7927579 -1.8657587
-1.918315 -1.8283617 -1.9458672 -1.9073642 -1.8025538 -1.7835852 -1.9436517 -1.8729581
-1.956635 -1.845232 -1.8033777 -1.9631867 -1.7693564 -1.9073902 -1.8902456 -1.9461823
-1.8460968 -1.9083196 -1.8607032 -1.8054448 -1.8627115 -1.8023623 -1.9229228 -1.8861942
-1.8925725 -1.8598374 -1.845473 -1.8523055 -1.8483706 -1.8830509 -1.9597943 -1.7975484
-1.7724773 -1.7790674 -1.938981 -1.9233075 -1.7796836 -1.8850236 -1.8037341 -1.9352508
-1.8182787 -1.8078805 -1.8018173 -1.956348 -1.859775 -1.8735715 -1.7974772 -1.9023744

group.0.bias f4 [100]
00000000: 63b2 eabf c2d1 d3bf 37be eebf 8701 fcbf
00000010: 65b7 d1be 51d3 f9bf 7b28 93bf 29d8 e1bf
00000020: a58c dfbf 9805 70bf 2dbb b0bf 07a3 ecbf
00000030: b358 eabf 412a f7bf a643 dfbf 919a 82bf
00000040: 6686 bfbf 71de 9a3f c873 a5bf 0a7e fcbf
00000050: 7254 923e 2e28 cbbf d8ae 403f 488e f0bf
00000060: 5f36 fcbf 7d07 eebf db1c dabf e81f f2bf
00000070: 0a63 833f 5f72 f7bf d6fb e2bf 51d6 163d
00000080: 8193 dcbf 25ca 223f 3e76 f93f 176e 67bf
00000090: 4520 f1bf 0824 cbbf e8b1 e5bf 3b95 36bf
000000a0: 1230 f5bf 2b17 13bf 14dd 9fbf 90bc bcbf
000000b0: b3d5 e13f ad79 efbf 20e6 56bf beb6 b9bf
000000c0: 5d74 00c0 e70a d7bf b726 c5bf 516f 89bf
000000d0: 230f d8bf 9624 b03f 36d6 a9bf 9c94 f4bf
000000e0: e6b1 b1bf 7c1d c8bf e93a 69bf 16db 02bf
000000f0: 71a7 eebf b74d b4be 065d fabf 253d c8bf
00000100: 4ad9 fdbf b36a 93bf 83dd e1bf b248 74bf
00000110: 618d cdbe 620a b5bf d2df 53bf 5e10 e3bf
00000120: b874 2b3f ad16 4abf 5999 bcbf ebcc f8bf
00000130: 884a 96bf 1907 f4bf 4186 f2bf 0f0f fcbf
00000140: cc17 f6bf 8a18 a8bf 8cc6 b1bf e125 ecbf
00000150: cf52 e7bf 5af1 90bf fd7f ffbf 6316 1cbf
00000160: ffda dcbf c9a0 f4bf b70c efbf 4b24 b6be
00000170: c627 f4bf 8bd3 c03e be6f cdbf c81f f0bf
00000180: 5fb5 d3bf 8459 fa3d ad48 00c0 d8d8 89bf
-1.8335689 -1.6548388 -1.8651799 -1.9687966 -0.4096023 -1.9517614 -1.1496729 -1.7644092
-1.7464796 -0.93758535 -1.3807122 -1.8487252 -1.8308319 -1.930977 -1.744252 -1.020342
-1.496289 1.2099134 -1.2925959 -1.9725964 0.28580052 -1.5871637 0.7526679 -1.8793421
-1.9704093 -1.8596035 -1.7040056 -1.8915987 1.0264599 -1.9331778 -1.7733104 0.03682548
-1.7232515 0.635897 1.948921 -0.9040236 -1.8837973 -1.5870371 -1.7944918 -0.7132146
-1.9155295 -0.57457227 -1.2489343 -1.4745045 1.7643341 -1.8709008 -0.8394489 -1.4508893
-2.0071023 -1.6800202 -1.540244 -1.0737096 -1.6879619 1.3761165 -1.3268497 -1.9107852
-1.3882415 -1.5633998 -0.91105515 -0.5111555 -1.8644849 -0.35215542 -1.9559639 -1.564366
-1.9831936 -1.1516937 -1.7645725 -0.95423424 -0.40146926 -1.4143794 -0.827634 -1.773937
0.66974974 -0.7894085 -1.4734298 -1.9437536 -1.1741495 -1.9064666 -1.8947221 -1.9692096
-1.9226012 -1.3132489 -1.3888717 -1.844906 -1.8072146 -1.1323655 -1.9960934 -0.6097166
-1.7254332 -1.9111568 -1.8675755 -0.35574564 -1.9074638 0.37661394 -1.6049726 -1.8759699
-1.6539725 0.12224105 -2.0044358 -1.07693

fc1.weight f4 [100, 240]
00000000: 29f1 bd3f cc5f d13f 07e1 5cbe 2e8f 04bf
00000010: 1045 e6be 71eb 4ebf fba1 a2bf 843f cabf
00000020: 2683 fabe 3e84 74bf 0231 51bf 9ef3 b8bf
00000030: d5d6 203f cac4 4c3f cbd7 5f3f 87fa 6f3f
00000040: 7bea 473f eea5 853f f072 03bd b1f4 78bf
00000050: 7a46 54bf b953 91bf d554 67bf 7148 9cbf
00000060: cb89 793f 0786 a33f c769 10bf 5a15 b0bf
00000070: 340f 2cbf 58cd 80bf 004a 75bf 47bc e03f
00000080: 2238 c93f 9a74 fd3f 0679 aa3f b221 10bf
00000090: 4788 a2bf 4b9c d1bf 3bd8 70bf 100d 65bf
000000a0: 4b24 c03f 1660 9d3f c2d8 b33f e799 cbbf
000000b0: 0335 fbbf 2f15 febf ae4d ddbe bfb9 923f
000000c0: 9aa7 cd3f 33a2 dc3f 917c fc3f e501 c6be
000000d0: 0e56 b7bf e2f2 cabf 33e5 21bf 6039 1fbf
000000e0: f33d 80be 3af9 573e 427f febe e9c3 f8bf
000000f0: 7ea9 f6bf 7f5c b3bf a325 da3f a6cc 423f
00000100: f118 63bd c222 e23f ac7a b33f 186c 533f
00000110: c72e 293f e964 19bf 563b e4be 7d53 b13f
00000120: 5f0c 96be e452 f53e 3c95 d1be 2c95 613f
00000130: 517e 55bf 3442 68bf bfd2 7b3e 878a d53f
00000140: b64a f3bf 016e edbf 8d87 f0bf 8ed5 d4bf
00000150: aa69 f2bf bee4 e4bf 86e4 c9bf 879e 4f3f
00000160: 6aa2 bc3f 3e00 dbbf eee4 80bf 2800 7ebf
00000170: 0ac7 97bf d6a3 c6bf e064 e8bf 06ff f73e
00000180: 3009 e6bf edff 95bf c190 f0bf 7537 f3bf
00000190: 20cd fabf 8ddf e0bf 1883 803f 8b67 e43e
000001a0: f63e 973f 715d e1bf 5db8 d8bf cfa2 d3bf
000001b0: 6982 f6bf d741 f3bf ff0d fbbf 002d e2bf
000001c0: 0e68 a93f 0dc9 9cbf 0970 adbf 6b09 dabf
000001d0: 798b 00c0 0864 febf 3024 bc3f e4b4 ed3e
000001e0: e71a 1e3f 1d24 693f 6da1 33bf 9ac3 dcbf
000001f0: 5dab f2bf f81c edbf 469d fcbf c3f9 383f
00000200: 0d3b d7bf 9128 e9bf bcc0 eabf f060 fabf
00000210: 9575 f3bf d98d f0bf 28a2 f03d 3504 7a3f
00000220: b0f2 103f ae08 0fbf 9de9 d2bf 6051 f2bf
00000230: 0aa4 d6bf 0065 f7bf ce63 efbf 9c7a f1bf
00000240: 336b dcbf b602 383f 771d e1bf eff7 ecbf
00000250: 2a46 efbf 2199 fcbf f474 fbbf f313 cabf
00000260: 5204 813f acce 6c3f 4221 503f 0182 f5bf
00000270: f48b 00c0 f92b fdbf 4bad edbf fb01 fabf
00000280: 58d8 04c0 e154 00c0 f8d4 c13f 7ca4 dfbf
00000290: bed5 ddbf 8f5c 09c0 0848 03c0 6d5b efbf
000002a0: 30bf bfbf d53e 03c0 6885 d6bf 11e2 d8bf
000002b0: d194 fcbf f9a7 013f f5df 083f d524 dfbf
000002c0: b8cd 08c0 f554 0fbf 92e9 f1be abab f8bf
000002d0: 0389 fcbf 90fd eabf 18f3 eabf c940 7cbe
000002e0: 6d34 06c0 5c74 07c0 1ff0 393e 841a c9bf
000002f0: 63f2 e1bf 24e9 ebbf 9b68 a53e 9ade f53e
00000300: 030f 02c0 417e 06c0 926a b2be 4d4e 05c0
00000310: 9a24 f0bf 3df6 783e 558b b8bf eccd 01c0
00000320: e8d5 05c0 9d54 a6bf ba4d 01c0 3c5b f9bf
00000330: 97ed 93bf f611 acbf 5668 0f3e 6b55 b53e
00000340: f4ba 033f 4169 c2bf 98be c53e a7fd 883f
00000350: 57d1 a7bf 9386 fcbf 5c57 03c0 27b7 fcbf
00000360: e477 fabf 0c86 06c0 9f45 00c0 1832 06c0
00000370: 4075 fdbf ed00 00c0 7103 afbd 4d13 cb3e
00000380: b0e0 de3e 5ae7 233e 8dd1 00c0 e444 d3bf
00000390: 0985 7a3f 2131 abbf 4d99 69bf b629 00c0
000003a0: 80ad bdbf d5c0 03c0 bf36 03c0 dc36 05c0
000003b0: 1340 763f 1e4d 74bf 46d1 ca3f 7f38 613f
000003c0: 1f64 da3f 912f 883f 8bbf a9bf 537e ffbf
000003d0: fc86 04c0 66a0 f2bf fd2e 5fbf 2644 fc3f
000003e0: aaa2 d93f f911 e7bf 37d4 e8bf 8a36 ccbf
000003f0: f130 f5bf 760e e6bf 9b59 d53f 78dc df3f
1.4839221 1.635736 -0.21570216 -0.51780975 -0.44974566 -0.80828005 -1.2705683 -1.5800633
-0.48928183 -0.95514286 -0.81715405 -1.4449346 0.6282781 0.79987776 0.8743865 0.9374165
0.78092164 1.0441263 -0.032092035 -0.9724837 -0.8292004 -1.1353675 -0.9036382 -1.2209607
0.9747588 1.2775277 -0.56411403 -1.3756516 -0.672107 -1.0062666 -0.9581604 1.7557458
1.5720255 1.9801209 1.3318183 -0.56301415 -1.2697839 -1.6375822 -0.9407994 -0.89473057
1.5011076 1.2294948 1.4050524 -1.5906342 -1.9625553 -1.9850215 -0.43223327 1.1462935
1.6066773 1.7236999 1.9725515 -0.3867332 -1.4323137 -1.5855372 -0.63240355 -0.6219692
-0.25047264 0.21091166 -0.49706465 -1.9434787 -1.9270475 -1.4012603 1.7042736 0.7609352
-0.055443708 1.7666857 1.4021811 0.8258681 0.66087 -0.599196 -0.4457652 1.3853604
-0.29306313 0.47914803 -0.4093417 0.88118243 -0.8339587 -0.9072602 0.24592112 1.66829
-1.9007175 -1.8549196 -1.8791367 -1.6627672 -1.8938496 -1.7882307 -1.5772865 0.8110127
1.4737065 -1.7109449 -1.0069864 -0.9921899 -1.1857617 -1.5518749 -1.8155785 0.48436755
-1.7971554 -1.1718727 -1.8794175 -1.9001299 -1.9593849 -1.7568222 1.0040007 0.44610247
1.1816089 -1.7606641 -1.6931263 -1.653406 -1.9258548 -1.9004468 -1.9613646 -1.7669983
1.323488 -1.2248856 -1.3549815 -1.7034124 -2.0085127 -1.9874277 1.4698544 0.4642707
0.617598 0.9107073 -0.7016819 -1.7247193 -1.8958546 -1.8524466 -1.9735496 0.72256106
-1.6814896 -1.8215505 -1.8340068 -1.9560833 -1.9020258 -1.8793288 0.11749679 0.9766267
0.5662031 -0.5587262 -1.6477543 -1.8931084 -1.6768811 -1.9327698 -1.8702333 -1.8865542
-1.7220215 0.71879137 -1.7587117 -1.8513163 -1.8693287 -1.9734231 -1.9645066 -1.5787338
1.0079443 0.92502856 0.8130075 -1.9180299 -2.008542 -1.9779044 -1.856851 -1.9531854
-2.0757046 -2.0051806 1.5143118 -1.7472072 -1.7330854 -2.1462743 -2.0512714 -1.8699776
-1.4980221 -2.05071 -1.6759462 -1.694399 -1.9732915 0.5064693 0.5346673 -1.7433115
-2.137556 -0.5598901 -0.47248513 -1.9427389 -1.9729313 -1.8358631 -1.8355436 -0.24634089
-2.0969498 -2.116477 0.18158005 -1.5711217 -1.7652096 -1.8430524 0.3230637 0.48021394
-2.0321662 -2.101456 -0.34846932 -2.082904 -1.876117 0.24312682 -1.4417521 -2.0281935
-2.0911808 -1.2994572 -2.020369 -1.9480968 -1.1556882 -1.3442981 0.14004645 0.3541673
0.5145714 -1.5188371 0.38621974 1.0702409 -1.311076 -1.9728569 -2.052207 -1.9743394
-1.9567838 -2.1019316 -2.0042493 -2.0968075 -1.9801407 -2.0000565 -0.08545578 0.39663163
0.43530798 0.16006222 -2.01279 -1.6505399 0.97859246 -1.3374368 -0.91249543 -2.0025458
-1.4818573 -2.0586445 -2.0502164 -2.0814734 0.9619152 -0.9543017 1.5845115 0.8797683
1.7061805 1.0639516 -1.3261579 -1.9960426 -2.0707388 -1.89552 -0.87181073 1.9708297
1.7002766 -1.805236 -1.8189763 -1.5954144 -1.9155561 -1.7973163 1.666797 1.7489157

fc1.bias f4 [100]
00000000: d289 fabf 91cf 1abe 6ed1 fdbf 5cb1 06c0
00000010: ac06 dcbf e84b fcbf 822c fabf 196a d9bf
00000020: 1a79 e5bf f1d5 823f 7dff eebf ee15 f1bf
00000030: 866e 843e 7182 cdbf 8bd5 efbf 884f d5bf
00000040: d3ba e5bf 6a6c f4bf 3c60 c6bf 248c a3bf
00000050: 4153 f4bf c70e c5bf b813 cfbf 16a0 e8bf
00000060: 996f bcbf 835c a7bf 4ff6 e7bf 1d09 d3bf
00000070: 56ae dabf 718a 07c0 f65d fbbf 9988 40bf
00000080: d9d5 e4bf 0cde cdbf 42a4 cbbf df5d 82bf
00000090: 4f33 cebf b27b 1dbf c149 f0bf b79b b3bf
000000a0: 8b49 a5bf 8f15 d0bf ccbc febf 26b3 c6bf
000000b0: 4792 f1bf d38a f1bf 0199 f8bf 372d febf
000000c0: 78d8 04c0 e950 f8bf 87bc f8bf cde6 f9bf
000000d0: 2a8d d5bf c68f d7bf 906d b4bf 631b 8cbf
000000e0: 72eb c9bf 1e6a 243e 518b fdbf d4c2 dabe
000000f0: 8038 f2bf 1685 f8bf de93 fdbf 34e3 f9bf
00000100: 68b6 c2bf 3ae6 16bf 78c9 fdbf ec6e 00c0
00000110: ef48 a4bf 9483 eabf 32b0 f8bf 70d9 92bf
00000120: 516f efbf e9c4 f9bf 5381 c8bf b41b fcbf
00000130: f4d4 ff3d e157 073e 26f8 c1bf d8e8 efbf
00000140: ccbf 3bbf 0547 d1bf ac83 e2bf 8e40 70bf
00000150: cc31 e8bf 834b f2bf 9187 fabf 3561 afbf
00000160: 6bc8 ccbf b79e fdbf b795 eabf af90 dabf
00000170: 8ae7 89bf 455d 633e fc78 bbbf 2d96 ecbf
00000180: a5d3 e0bf 682a debf 32e5 c43d e602 dbbf
-1.957331 -0.15118243 -1.9829538 -2.1045752 -1.7189536 -1.9710665 -1.9544833 -1.6985503
-1.7927582 1.022154 -1.8671719 -1.8834817 0.25865573 -1.6055433 -1.8737043 -1.6664896
-1.7947639 -1.9095585 -1.5498118 -1.2777143 -1.9087907 -1.5395135 -1.6177893 -1.8173854
-1.4721557 -1.3075107 -1.8122042 -1.6487156 -1.7084453 -2.1178248 -1.963805 -0.7520843
-1.7877761 -1.6083388 -1.5909503 -1.0184897 -1.6109408 -0.6151687 -1.8772508 -1.4031895
-1.2913069 -1.6256579 -1.9901366 -1.5523422 -1.8872765 -1.8870491 -1.9421693 -1.9857548
-2.0757122 -1.9399692 -1.9432534 -1.952356 -1.6683705 -1.6840751 -1.4095936 -1.0945858
-1.5774977 0.16056105 -1.9808141 -0.42726767 -1.8923492 -1.9415615 -1.981075 -1.9522462
-1.5211916 -0.5894505 -1.9827108 -2.0067701 -1.2834758 -1.8321404 -1.942877 -1.1472607
-1.8705846 -1.9513217 -1.5664467 -1.9695954 0.124917895 0.13217117 -1.5153854 -1.8742933
-0.73339534 -1.6349798 -1.7696433 -0.938485 -1.8140197 -1.8929294 -1.9572622 -1.370154
-1.5998663 -1.9814061 -1.8326939 -1.7075404 -1.0773785 0.22203548 -1.4646297 -1.848333
-1.7564589 -1.7356691 0.09614028 -1.711026

fc2.0.0.weight f4 [100, 100]
00000000: a115 e8bf 2c8b c0bf 7d99 fabf 0ce2 d3bf
00000010: 649d e73f b226 e5bf c0bf e2bf 127e 00c0
00000020: 2c74 e4bf 7aea f9bf f896 e8bf 3572 e13f
00000030: abc1 6d3e da2e e5bf 47fe e2bf 5c14 ae3e
00000040: 2292 f33f b707 f2bf 3bdb f0bf 20fd 8bbf
00000050: 746a 0bbd 0082 d6bf f323 e5bf 8fee e4bf
00000060: 5dfc e4bf 6558 a43f f347 f8bf 3a6a f2bf
00000070: 6ae9 e8bf e026 f0bf cb2d f1bf 5ba1 f0bf
00000080: de2f 08c0 28df e5bf c126 f5bf 675b c0be
00000090: 9bab f8bf 9919 b3bf 5d59 efbf 9003 f5bf
000000a0: 141e 7cbf a729 f0bf 54f4 e4bf fd45 f2bf
000000b0: 3f57 fcbf 9142 edbf 4abe f3bf 589b e5bf
000000c0: 6dd1 e1bf 5332 f1bf c3bd e7bf 9437 e1bf
000000d0: 3ace f7bf 24bd e3bf cce9 8b3f 407c f4bf
000000e0: d35c f0bf 414e ebbf c2c7 ecbf 13cd fbbf
000000f0: 7ab6 f2bf 816c dfbf 38be fdbf c087 e9bf
00000100: c484 f9bf 4ef0 f7bf 777c f3bf 5afd e6bf
00000110: bf57 f8bf 05cb fbbf fb64 f3bf 07c6 ec3e
00000120: 42fd e3bf 2006 f8bf 80c3 edbf 9ace eebf
00000130: 31d6 dbbf 9246 2dbf 0fe2 f5bf 1d19 eabf
00000140: 262f f8bf ec79 e9bf 3def ecbf ec5a eebf
00000150: 0490 e3bf dda9 e6bf 4bc4 f8bf 3d4a f5bf
00000160: dc96 f5bf c9a5 f0bf 91c6 eebf 6c80 443f
00000170: c309 cdbf 86c4 e4bf c183 26bf d347 78bf
00000180: 0760 f1bf eaa4 f9bf 9f20 78bf d516 fabf
00000190: 9171 ddbf 7988 f0bf 09ac ffbf 1813 f0bf
000001a0: d646 ebbf fa9a f2bf 8810 dbbf 1126 0140
000001b0: ba34 af3f 44b5 fabf 4035 d2bf 9731 e7bf
000001c0: 9960 0040 f584 dc3f 07c1 a93f 74f9 fcbf
000001d0: d345 d33f 2020 dabf 2ec8 71bf 62f4 58bf
000001e0: 0226 e8bf 0984 d9bf 25c3 f3bf 1efa eebf
000001f0: cd75 e33f 2b25 663e 6898 e9bf cc91 fa3f
00000200: 8701 eabf fdcd dabf bfc5 c7bf 461f 64bf
00000210: ca23 f2bf b8ec e53f fcb0 b8be be1b a1bf
00000220: 90b1 0b3f 7510 eebf f7d2 b9bf 1efb 0040
00000230: 8d49 f6bf bae3 ae3f 04ff b4bf a82e b3bf
00000240: 1749 d6bf c8c7 fbbf 3860 f33f afcb f2bf
00000250: 85ef ed3f d864 f8bf 4f78 f2bf 59a0 b5bf
00000260: d5ed e6bf 9e06 5dbf aac9 d6bf 7106 9cbf
00000270: c58c d1bf f9a1 0ebf dfac e33f 6fa0 c9bf
00000280: 9851 d73f 9147 e8bf 2793 a4bf 5c18 6ebf
00000290: bd6a ff3f 0cb8 f0bf cd81 d4bf be4b d1bf
000002a0: 3f75 ac3f d608 bf3f 185e f5bf 9b2d 90bf
000002b0: d85a e9bf 41fb e7bf 2b90 f3bf 23a6 df3f
000002c0: a387 e8bf 617a e9bf c731 febf 7fd4 debf
000002d0: 4774 b4bf 5d99 fabf 9e40 fabf ab37 c3bf
000002e0: d5dd f3bf 33b8 cabf 4b38 d1bf c44f f8bf
000002f0: b401 00c0 d7cb f7bf 892b ec3f 4928 aebf
00000300: 19c9 e4bf c21a f3bf 3119 ff3f a5ad 553e
00000310: 1025 9ebf 3da5 f03f 9c9e eebf ae18 e5bf
00000320: e5ba fabf 648a e7bf 4281 efbf 02d0 eebf
00000330: 835b f7bf 6c41 fbbf 1779 e5bf 2ed1 eebf
00000340: 598b f5bf c207 eabf 2d12 f9bf 8324 f4bf
00000350: 15ba e6bf 854c e4bf 94c9 f8bf 17bd efbf
00000360: 0473 fabf 9030 ecbf 15d5 e6bf b449 fbbf
00000370: 457a e2bf 5d25 f4bf 91f3 f1bf 801c f9bf
00000380: e64c ecbf d143 f4bf 862b eebf d118 e7bf
00000390: 556d eebf cfb3 e6bf 5622 f6bf d06e f1bf
000003a0: d13f f2bf 270f eebf 7638 ecbf 5918 edbf
000003b0: 6897 ecbf d007 f1bf 8ada fabf 1116 e6bf
000003c0: 89e0 e2bf 7bb8 e3bf 8830 f8bf f12e f6bf
000003d0: accc e3bf 7448 f1bf c2e0 e6bf 4cb6 f7bf
000003e0: 5bbd e8bf a168 e7bf f3a1 e6bf 9c69 fabf
000003f0: 1b0d eebf 31d1 efbf bc13 e6bf 0181 f3bf
-1.8131601 -1.5042472 -1.9578091 -1.6553359 1.8094907 -1.7902434 -1.7714767 -2.0076947
-1.7847953 -1.9524682 -1.8171072 1.7612978 0.2321841 -1.7904923 -1.7733849 0.33999908
1.9028971 -1.8908604 -1.8816904 -1.0936623 -0.03403707 -1.6758423 -1.7901596 -1.7885302
-1.7889515 1.2839476 -1.9396957 -1.8938668 -1.8196232 -1.8761864 -1.88421 -1.8799242
-2.1279216 -1.7958727 -1.9152452 -0.37569734 -1.942737 -1.3992187 -1.8699147 -1.9141712
-0.98483396 -1.8762711 -1.7887063 -1.8927609 -1.9714125 -1.853594 -1.9042447 -1.7938032
-1.7642037 -1.8843483 -1.8104786 -1.7595086 -1.935981 -1.7792096 1.0930724 -1.9100418
-1.8778328 -1.8383256 -1.8498461 -1.9671959 -1.8961937 -1.7454988 -1.9823675 -1.8244553
-1.9493642 -1.937021 -1.9022359 -1.8046067 -1.9401778 -1.9671332 -1.9015192 0.46244833
-1.7811663 -1.9376869 -1.8575287 -1.86568 -1.7174741 -0.67685807 -1.9209613 -1.8288914
-1.9389389 -1.8240333 -1.851051 -1.8621497 -1.7778325 -1.8020588 -1.9434904 -1.9163281
-1.9186664 -1.8800594 -1.8654348 0.76758456 -1.6018604 -1.7872474 -0.6504479 -0.96984595
-1.885743 -1.9503453 -0.96924776 -1.9538218 -1.7300283 -1.8791648 -1.9974376 -1.8755827
-1.8380992 -1.8953545 -1.711442 2.0179484 1.3687966 -1.9586568 -1.6422501 -1.8062009
2.0058959 1.7228075 1.3262032 -1.9763627 1.6505684 -1.7041054 -0.94446075 -0.847479
-1.8136599 -1.6993419 -1.9043928 -1.867008 1.7770325 0.22475116 -1.8249636 1.9575744
-1.8281716 -1.7094113 -1.5607222 -0.8911022 -1.8917172 1.7962866 -0.36072528 -1.2586591
0.54567814 -1.8598772 -1.4517506 2.015327 -1.9241196 1.3663247 -1.4140325 -1.3998613
-1.6741055 -1.9670343 1.9013739 -1.8968409 1.858872 -1.9405775 -1.8942965 -1.4189559
-1.804133 -0.8633822 -1.6780293 -1.2189466 -1.6371084 -0.557159 1.7787131 -1.5752085
1.6821775 -1.814684 -1.2857407 -0.9300592 1.9954449 -1.8806167 -1.6602112 -1.635124
1.3473281 1.4924572 -1.916934 -1.1263918 -1.8230848 -1.8123552 -1.9028372 1.7472576
-1.8166393 -1.8240472 -1.9858941 -1.7408599 -1.4097985 -1.9578053 -1.955097 -1.5251364
-1.9052073 -1.5837463 -1.6345304 -1.9399343 -2.000104 -1.9359082 1.8450786 -1.3606044
-1.787387 -1.8992541 1.9929563 0.20867021 -1.235506 1.8800427 -1.8642154 -1.7898157
-1.9588286 -1.8089108 -1.8711321 -1.8657229 -1.9324802 -1.962934 -1.7927579 -1.8657587
-1.918315 -1.8283617 -1.9458672 -1.9073642 -1.8025538 -1.7835852 -1.9436517 -1.8729581
-1.956635 -1.845232 -1.8033777 -1.9631867 -1.7693564 -1.9073902 -1.8902456 -1.9461823
-1.8460968 -1.9083196 -1.8607032 -1.8054448 -1.8627115 -1.8023623 -1.9229228 -1.8861942
-1.8925725 -1.8598374 -1.845473 -1.8523055 -1.8483706 -1.8830509 -1.9597943 -1.7975484
-1.7724773 -1.7790674 -1.938981 -1.9233075 -1.7796836 -1.8850236 -1.8037341 -1.9352508
-1.8182787 -1.8078805 -1.8018173 -1.956348 -1.859775 -1.8735715 -1.7974772 -1.9023744

fc2.0.0.bias f4 [100]
00000000: 63b2 eabf c2d1 d3bf 37be eebf 8701 fcbf
00000010: 65b7 d1be 51d3 f9bf 7b28 93bf 29d8 e1bf
00000020: a58c dfbf 9805 70bf 2dbb b0bf 07a3 ecbf
00000030: b358 eabf 412a f7bf a643 dfbf 919a 82bf
00000040: 6686 bfbf 71de 9a3f c873 a5bf 0a7e fcbf
00000050: 7254 923e 2e28 cbbf d8ae 403f 488e f0bf
00000060: 5f36 fcbf 7d07 eebf db1c dabf e81f f2bf
00000070: 0a63 833f 5f72 f7bf d6fb e2bf 51d6 163d
00000080: 8193 dcbf 25ca 223f 3e76 f93f 176e 67bf
00000090: 4520 f1bf 0824 cbbf e8b1 e5bf 3b95 36bf
000000a0: 1230 f5bf 2b17 13bf 14dd 9fbf 90bc bcbf
000000b0: b3d5 e13f ad79 efbf 20e6 56bf beb6 b9bf
000000c0: 5d74 00c0 e70a d7bf b726 c5bf 516f 89bf
000000d0: 230f d8bf 9624 b03f 36d6 a9bf 9c94 f4bf
000000e0: e6b1 b1bf 7c1d c8bf e93a 69bf 16db 02bf
000000f0: 71a7 eebf b74d b4be 065d fabf 253d c8bf
00000100: 4ad9 fdbf b36a 93bf 83dd e1bf b248 74bf
00000110: 618d cdbe 620a b5bf d2df 53bf 5e10 e3bf
00000120: b874 2b3f ad16 4abf 5999 bcbf ebcc f8bf
00000130: 884a 96bf 1907 f4bf 4186 f2bf 0f0f fcbf
00000140: cc17 f6bf 8a18 a8bf 8cc6 b1bf e125 ecbf
00000150: cf52 e7bf 5af1 90bf fd7f ffbf 6316 1cbf
00000160: ffda dcbf c9a0 f4bf b70c efbf 4b24 b6be
00000170: c627 f4bf 8bd3 c03e be6f cdbf c81f f0bf
00000180: 5fb5 d3bf 8459 fa3d ad48 00c0 d8d8 89bf
-1.8335689 -1.6548388 -1.8651799 -1.9687966 -0.4096023 -1.9517614 -1.1496729 -1.7644092
-1.7464796 -0.93758535 -1.3807122 -1.8487252 -1.8308319 -1.930977 -1.744252 -1.020342
-1.496289 1.2099134 -1.2925959 -1.9725964 0.28580052 -1.5871637 0.7526679 -1.8793421
-1.9704093 -1.8596035 -1.7040056 -1.8915987 1.0264599 -1.9331778 -1.7733104 0.03682548
-1.7232515 0.635897 1.948921 -0.9040236 -1.8837973 -1.5870371 -1.7944918 -0.7132146
-1.9155295 -0.57457227 -1.2489343 -1.4745045 1.7643341 -1.8709008 -0.8394489 -1.4508893
-2.0071023 -1.6800202 -1.540244 -1.0737096 -1.6879619 1.3761165 -1.3268497 -1.9107852
-1.3882415 -1.5633998 -0.91105515 -0.5111555 -1.8644849 -0.35215542 -1.9559639 -1.564366
-1.9831936 -1.1516937 -1.7645725 -0.95423424 -0.40146926 -1.4143794 -0.827634 -1.773937
0.66974974 -0.7894085 -1.4734298 -1.9437536 -1.1741495 -1.9064666 -1.8947221 -1.9692096
-1.9226012 -1.3132489 -1.3888717 -1.844906 -1.8072146 -1.1323655 -1.9960934 -0.6097166
-1.7254332 -1.9111568 -1.8675755 -0.35574564 -1.9074638 0.37661394 -1.6049726 -1.8759699
-1.6539725 0.12224105 -2.0044358 -1.07693

fc2.1.0.weight f4 [100, 100]
00000000: a115 e8bf 2c8b c0bf 7d99 fabf 0ce2 d3bf
00000010: 649d e73f b226 e5bf c0bf e2bf 127e 00c0
00000020: 2c74 e4bf 7aea f9bf f896 e8bf 3572 e13f
00000030: abc1 6d3e da2e e5bf 47fe e2bf 5c14 ae3e
00000040: 2292 f33f b707 f2bf 3bdb f0bf 20fd 8bbf
00000050: 746a 0bbd 0082 d6bf f323 e5bf 8fee e4bf
00000060: 5dfc e4bf 6558 a43f f347 f8bf 3a6a f2bf
00000070: 6ae9 e8bf e026 f0bf cb2d f1bf 5ba1 f0bf
00000080: de2f 08c0 28df e5bf c126 f5bf 675b c0be
00000090: 9bab f8bf 9919 b3bf 5d59 efbf 9003 f5bf
000000a0: 141e 7cbf a729 f0bf 54f4 e4bf fd45 f2bf
000000b0: 3f57 fcbf 9142 edbf 4abe f3bf 589b e5bf
000000c0: 6dd1 e1bf 5332 f1bf c3bd e7bf 9437 e1bf
000000d0: 3ace f7bf 24bd e3bf cce9 8b3f 407c f4bf
000000e0: d35c f0bf 414e ebbf c2c7 ecbf 13cd fbbf
000000f0: 7ab6 f2bf 816c dfbf 38be fdbf c087 e9bf
00000100: c484 f9bf 4ef0 f7bf 777c f3bf 5afd e6bf
00000110: bf57 f8bf 05cb fbbf fb64 f3bf 07c6 ec3e
00000120: 42fd e3bf 2006 f8bf 80c3 edbf 9ace eebf
00000130: 31d6 dbbf 9246 2dbf 0fe2 f5bf 1d19 eabf
00000140: 262f f8bf ec79 e9bf 3def ecbf ec5a eebf
00000150: 0490 e3bf dda9 e6bf 4bc4 f8bf 3d4a f5bf
00000160: dc96 f5bf c9a5 f0bf 91c6 eebf 6c80 443f
00000170: c309 cdbf 86c4 e4bf c183 26bf d347 78bf
00000180: 0760 f1bf eaa4 f9bf 9f20 78bf d516 fabf
00000190: 9171 ddbf 7988 f0bf 09ac ffbf 1813 f0bf
000001a0: d646 ebbf fa9a f2bf 8810 dbbf 1126 0140
000001b0: ba34 af3f 44b5 fabf 4035 d2bf 9731 e7bf
000001c0: 9960 0040 f584 dc3f 07c1 a93f 74f9 fcbf
000001d0: d345 d33f 2020 dabf 2ec8 71bf 62f4 58bf
000001e0: 0226 e8bf 0984 d9bf 25c3 f3bf 1efa eebf
000001f0: cd75 e33f 2b25 663e 6898 e9bf cc91 fa3f
00000200: 8701 eabf fdcd dabf bfc5 c7bf 461f 64bf
00000210: ca23 f2bf b8ec e53f fcb0 b8be be1b a1bf
00000220: 90b1 0b3f 7510 eebf f7d2 b9bf 1efb 0040
00000230: 8d49 f6bf bae3 ae3f 04ff b4bf a82e b3bf
00000240: 1749 d6bf c8c7 fbbf 3860 f33f afcb f2bf
00000250: 85ef ed3f d864 f8bf 4f78 f2bf 59a0 b5bf
00000260: d5ed e6bf 9e06 5dbf aac9 d6bf 7106 9cbf
00000270: c58c d1bf f9a1 0ebf dfac e33f 6fa0 c9bf
00000280: 9851 d73f 9147 e8bf 2793 a4bf 5c18 6ebf
00000290: bd6a ff3f 0cb8 f0bf cd81 d4bf be4b d1bf
000002a0: 3f75 ac3f d608 bf3f 185e f5bf 9b2d 90bf
000002b0: d85a e9bf 41fb e7bf 2b90 f3bf 23a6 df3f
000002c0: a387 e8bf 617a e9bf c731 febf 7fd4 debf
000002d0: 4774 b4bf 5d99 fabf 9e40 fabf ab37 c3bf
000002e0: d5dd f3bf 33b8 cabf 4b38 d1bf c44f f8bf
000002f0: b401 00c0 d7cb f7bf 892b ec3f 4928 aebf
00000300: 19c9 e4bf c21a f3bf 3119 ff3f a5ad 553e
00000310: 1025 9ebf 3da5 f03f 9c9e eebf ae18 e5bf
00000320: e5ba fabf 648a e7bf 4281 efbf 02d0 eebf
00000330: 835b f7bf 6c41 fbbf 1779 e5bf 2ed1 eebf
00000340: 598b f5bf c207 eabf 2d12 f9bf 8324 f4bf
00000350: 15ba e6bf 854c e4bf 94c9 f8bf 17bd efbf
00000360: 0473 fabf 9030 ecbf 15d5 e6bf b449 fbbf
00000370: 457a e2bf 5d25 f4bf 91f3 f1bf 801c f9bf
00000380: e64c ecbf d143 f4bf 862b eebf d118 e7bf
00000390: 556d eebf cfb3 e6bf 5622 f6bf d06e f1bf
000003a0: d13f f2bf 270f eebf 7638 ecbf 5918 edbf
000003b0: 6897 ecbf d007 f1bf 8ada fabf 1116 e6bf
000003c0: 89e0 e2bf 7bb8 e3bf 8830 f8bf f12e f6bf
000003d0: accc e3bf 7448 f1bf c2e0 e6bf 4cb6 f7bf
000003e0: 5bbd e8bf a168 e7bf f3a1 e6bf 9c69 fabf
000003f0: 1b0d eebf 31d1 efbf bc13 e6bf 0181 f3bf
-1.8131601 -1.5042472 -1.9578091 -1.6553359 1.8094907 -1.7902434 -1.7714767 -2.0076947
-1.7847953 -1.9524682 -1.8171072 1.7612978 0.2321841 -1.7904923 -1.7733849 0.33999908
1.9028971 -1.8908604 -1.8816904 -1.0936623 -0.03403707 -1.6758423 -1.7901596 -1.7885302
-1.7889515 1.2839476 -1.9396957 -1.8938668 -1.8196232 -1.8761864 -1.88421 -1.8799242
-2.1279216 -1.7958727 -1.9152452 -0.37569734 -1.942737 -1.3992187 -1.8699147 -1.9141712
-0.98483396 -1.8762711 -1.7887063 -1.8927609 -1.9714125 -1.853594 -1.9042447 -1.7938032
-1.7642037 -1.8843483 -1.8104786 -1.7595086 -1.935981 -1.7792096 1.0930724 -1.9100418
-1.8778328 -1.8383256 -1.8498461 -1.9671959 -1.8961937 -1.7454988 -1.9823675 -1.8244553
-1.9493642 -1.937021 -1.9022359 -1.8046067 -1.9401778 -1.9671332 -1.9015192 0.46244833
-1.7811663 -1.9376869 -1.8575287 -1.86568 -1.7174741 -0.67685807 -1.9209613 -1.8288914
-1.9389389 -1.8240333 -1.851051 -1.8621497 -1.7778325 -1.8020588 -1.9434904 -1.9163281
-1.9186664 -1.8800594 -1.8654348 0.76758456 -1.6018604 -1.7872474 -0.6504479 -0.96984595
-1.885743 -1.9503453 -0.96924776 -1.9538218 -1.7300283 -1.8791648 -1.9974376 -1.8755827
-1.8380992 -1.8953545 -1.711442 2.0179484 1.3687966 -1.9586568 -1.6422501 -1.8062009
2.0058959 1.7228075 1.3262032 -1.9763627 1.6505684 -1.7041054 -0.94446075 -0.847479
-1.8136599 -1.6993419 -1.9043928 -1.867008 1.7770325 0.22475116 -1.8249636 1.9575744
-1.8281716 -1.7094113 -1.5607222 -0.8911022 -1.8917172 1.7962866 -0.36072528 -1.2586591
0.54567814 -1.8598772 -1.4517506 2.015327 -1.9241196 1.3663247 -1.4140325 -1.3998613
-1.6741055 -1.9670343 1.9013739 -1.8968409 1.858872 -1.9405775 -1.8942965 -1.4189559
-1.804133 -0.8633822 -1.6780293 -1.2189466 -1.6371084 -0.557159 1.7787131 -1.5752085
1.6821775 -1.814684 -1.2857407 -0.9300592 1.9954449 -1.8806167 -1.6602112 -1.635124
1.3473281 1.4924572 -1.916934 -1.1263918 -1.8230848 -1.8123552 -1.9028372 1.7472576
-1.8166393 -1.8240472 -1.9858941 -1.7408599 -1.4097985 -1.9578053 -1.955097 -1.5251364
-1.9052073 -1.5837463 -1.6345304 -1.9399343 -2.000104 -1.9359082 1.8450786 -1.3606044
-1.787387 -1.8992541 1.9929563 0.20867021 -1.235506 1.8800427 -1.8642154 -1.7898157
-1.9588286 -1.8089108 -1.8711321 -1.8657229 -1.9324802 -1.962934 -1.7927579 -1.8657587
-1.918315 -1.8283617 -1.9458672 -1.9073642 -1.8025538 -1.7835852 -1.9436517 -1.8729581
-1.956635 -1.845232 -1.8033777 -1.9631867 -1.7693564 -1.9073902 -1.8902456 -1.9461823
-1.8460968 -1.9083196 -1.8607032 -1.8054448 -1.8627115 -1.8023623 -1.9229228 -1.8861942
-1.8925725 -1.8598374 -1.845473 -1.8523055 -1.8483706 -1.8830509 -1.9597943 -1.7975484
-1.7724773 -1.7790674 -1.938981 -1.9233075 -1.7796836 -1.8850236 -1.8037341 -1.9352508
-1.8182787 -1.8078805 -1.8018173 -1.956348 -1.859775 -1.8735715 -1.7974772 -1.9023744

fc2.1.0.bias f4 [100]
00000000: 63b2 eabf c2d1 d3bf 37be eebf 8701 fcbf
00000010: 65b7 d1be 51d3 f9bf 7b28 93bf 29d8 e1bf
00000020: a58c dfbf 9805 70bf 2dbb b0bf 07a3 ecbf
00000030: b358 eabf 412a f7bf a643 dfbf 919a 82bf
00000040: 6686 bfbf 71de 9a3f c873 a5bf 0a7e fcbf
00000050: 7254 923e 2e28 cbbf d8ae 403f 488e f0bf
00000060: 5f36 fcbf 7d07 eebf db1c dabf e81f f2bf
00000070: 0a63 833f 5f72 f7bf d6fb e2bf 51d6 163d
00000080: 8193 dcbf 25ca 223f 3e76 f93f 176e 67bf
00000090: 4520 f1bf 0824 cbbf e8b1 e5bf 3b95 36bf
000000a0: 1230 f5bf 2b17 13bf 14dd 9fbf 90bc bcbf
000000b0: b3d5 e13f ad79 efbf 20e6 56bf beb6 b9bf
000000c0: 5d74 00c0 e70a d7bf b726 c5bf 516f 89bf
000000d0: 230f d8bf 9624 b03f 36d6 a9bf 9c94 f4bf
000000e0: e6b1 b1bf 7c1d c8bf e93a 69bf 16db 02bf
000000f0: 71a7 eebf b74d b4be 065d fabf 253d c8bf
00000100: 4ad9 fdbf b36a 93bf 83dd e1bf b248 74bf
00000110: 618d cdbe 620a b5bf d2df 53bf 5e10 e3bf
00000120: b874 2b3f ad16 4abf 5999 bcbf ebcc f8bf
00000130: 884a 96bf 1907 f4bf 4186 f2bf 0f0f fcbf
00000140: cc17 f6bf 8a18 a8bf 8cc6 b1bf e125 ecbf
00000150: cf52 e7bf 5af1 90bf fd7f ffbf 6316 1cbf
00000160: ffda dcbf c9a0 f4bf b70c efbf 4b24 b6be
00000170: c627 f4bf 8bd3 c03e be6f cdbf c81f f0bf
00000180: 5fb5 d3bf 8459 fa3d ad48 00c0 d8d8 89bf
-1.8335689 -1.6548388 -1.8651799 -1.9687966 -0.4096023 -1.9517614 -1.1496729 -1.7644092
-1.7464796 -0.93758535 -1.3807122 -1.8487252 -1.8308319 -1.930977 -1.744252 -1.020342
-1.496289 1.2099134 -1.2925959 -1.9725964 0.28580052 -1.5871637 0.7526679 -1.8793421
-1.9704093 -1.8596035 -1.7040056 -1.8915987 1.0264599 -1.9331778 -1.7733104 0.03682548
-1.7232515 0.635897 1.948921 -0.9040236 -1.8837973 -1.5870371 -1.7944918 -0.7132146
-1.9155295 -0.57457227 -1.2489343 -1.4745045 1.7643341 -1.8709008 -0.8394489 -1.4508893
-2.0071023 -1.6800202 -1.540244 -1.0737096 -1.6879619 1.3761165 -1.3268497 -1.9107852
-1.3882415 -1.5633998 -0.91105515 -0.5111555 -1.8644849 -0.35215542 -1.9559639 -1.564366
-1.9831936 -1.1516937 -1.7645725 -0.95423424 -0.40146926 -1.4143794 -0.827634 -1.773937
0.66974974 -0.7894085 -1.4734298 -1.9437536 -1.1741495 -1.9064666 -1.8947221 -1.9692096
-1.9226012 -1.3132489 -1.3888717 -1.844906 -1.8072146 -1.1323655 -1.9960934 -0.6097166
-1.7254332 -1.9111568 -1.8675755 -0.35574564 -1.9074638 0.37661394 -1.6049726 -1.8759699
-1.6539725 0.12224105 -2.0044358 -1.07693

fc4.weight f4 [6, 100]
00000000: 4f27 f0bf 5c6d c83e f39d eabf 759c fc3b
00000010: 8264 8a3e 7b76 4abf d13e 7c3f 51bb 15bd
00000020: 2618 f93d 7e7b 503f c81c 55be d415 a9bf
00000030: 0ba7 e4bf 43c2 e7bf 0f72 c53f e232 82bf
00000040: b27f ee3f 1873 593e 0762 68bf c7cb 403a
00000050: f567 d7bf cdfb 9f3f 4fbd 0a3f 64e2 fcbf
00000060: 4b02 f13f 5d65 e53f 6bb2 db3f 421b e73f
00000070: ca05 523e d910 82bf 40da e7bf 11b8 2e3f
00000080: b553 45bf f6e5 a03f 16e2 ecbf c10f 4abf
00000090: f596 d7bf b2d5 6a3f be82 14bf b3e0 823f
000000a0: 80bb e2bf 7881 dfbf 3e10 e23f ab12 a7bf
000000b0: f051 7d3f 1770 e93f 4c01 983f 24b6 ba3e
000000c0: e87f ebbf 81a1 69bf 5670 c63f 1fb5 0cbf
000000d0: 8fdb f03f 768a 12bd fe74 c0bf 51c4 e4bf
000000e0: 4ea6 a2bf 51ac b93f 0e29 d03f 618c 243e
000000f0: 2147 e3bf f7bf e53f 4645 9fbd 9adb dc3f
00000100: ffa1 e9bf d351 6f3f ce0d df3f 6383 fdbf
00000110: c80a 9c3e 49f8 df3f 711e af3f 0423 f7bf
00000120: 17c3 25bf 9ba6 133f f787 8abf a964 e2bf
00000130: 82cd c5bf a3ce 97bf b586 80bf e146 e93f
00000140: 5b6b f7bf 01b6 f7bf 94d2 e43f 76c8 d93f
00000150: 8bb7 efbf b5fc 24bf 1682 b9be a823 01bf
00000160: d48d b6bf ecb3 fcbf 5b81 eebf dad1 d03d
00000170: fff5 edbf 186b fabe eb54 873f 6fa3 e4bf
00000180: 3ed0 b9bf 0351 da3d cfd1 f4bf f021 353f
00000190: a00d e63f 8516 e7bf d488 f03f 6543 95bd
000001a0: ab37 ebbf cbaa a2be 59ac f2bf 2f86 77bc
000001b0: 9f93 5fbf bf7f 38bf b884 b23f 2726 a7bf
000001c0: 4f3a be3f 0f49 c0bf c7a2 a7bf 299b b83f
000001d0: b50f e6bf b2c0 c03e ab5d 8a3f 4a99 e93c
000001e0: 92e7 bc3f 920a d63f a909 14bf 63d5 f9bf
000001f0: d7b9 f1bf d4bc dfbf 0725 98bf 0431 eabf
00000200: 31ae 85bf 3270 bd3e d9d5 e43f 56cf c33f
00000210: 1ebd e6bd 5b24 6d3f 7ba9 203f cbe6 de3f
00000220: 4f49 8fbf 423a 12be dfa0 75bf 1bb2 ee3f
00000230: 85df ed3f dcc8 a8bf b4f1 d9bf abbb e13f
00000240: cff6 a9bf 5b54 e2bf b5bd ca3f 8894 eabf
00000250: d1bb a23f 7698 cebf 0add d93f c555 66bf
00000260: e8c7 b73f ed2e 053f f9f1 aebf 754d f33f
00000270: 663a 80bf 0b69 d4bf 6d0d e8bf 7da2 38bf
00000280: a4c7 ea3f c250 ca3e e1af 9b3d bc3a d93f
00000290: fe4e f9bf 1473 08bf fb41 913f 3380 a13f
000002a0: 2093 e33e b0bd bd3f 4b4b c33f 462d ea3f
000002b0: 434e cfbf de83 453f 4219 853f 9c3a f53f
000002c0: 6dd5 85bf c8eb da3f 4ede 8a3f 95d4 dbbf
000002d0: d7f4 e63f 9d26 963f a328 edbf 98a4 e4bf
000002e0: 3ec3 efbf 260f 8dbf 3c63 51bf d11d 703f
000002f0: a398 e7bf c8cc cabf 2089 94bf d4fb eb3f
00000300: 308d e93f 0930 1d3f c211 80bf c10d e63f
00000310: d64a 713f e61f 28bf c0c8 3b3f 242a 86bf
00000320: 384f f6bf 7522 b9bd 795f f1bf 652e a73c
00000330: f65f 63bf 045d 7e3f 30bd edbf 114c f9bc
00000340: 53e0 fbbf 38ef e6bf a72c fcbf 617e bf3f
00000350: 4cb8 efbf 8f98 f1bf 0bd3 a33f 1d6e dc3e
00000360: 86e0 db3f b7c8 20be 8093 9ebf 4057 a7bd
00000370: 6203 f1bf ca3a 843f 5489 21bf 9625 e63f
00000380: 1167 f2bf 7cdc f33f fd12 ae3e 74e9 f2bf
00000390: 6ffd ef3d 2716 573d eb77 e7bf 3ceb 8a3f
000003a0: 2425 ae3f ce8b fb3e b806 f63f 2a9f edbf
000003b0: 019d 903f 46a2 08bf 026c c23f 5e71 f2bf
000003c0: ae0c f2bf b53c dd3f 748c ecbf ee9c f3bf
000003d0: 9b87 eebf 1da4 e8bf 32db eabf c8d4 b5bf
000003e0: c1c2 a2bf 84aa d13f fe60 f3bf 925d a13f
000003f0: 208c e3bf 5a90 ec3e e547 f3bf fe57 e9bf
-1.8761996 0.39145935 -1.8329452 0.007709081 0.27029806 -0.79087037 0.9853335 -0.036555592
0.12162809 0.81438434 -0.2081176 -1.3209786 -1.7863477 -1.8106159 1.5425433 -1.0171778
1.863272 0.21235311 -0.9077458 0.0007354584 -1.68286 1.2498719 0.5419511 -1.9756589
1.8828825 1.7921559 1.7163824 1.8055193 0.20510021 -1.0161391 -1.811348 0.68249613
-0.7708085 1.2570179 -1.8506496 -0.7893029 -1.6842943 0.91732323 -0.58011997 1.0224823
-1.771347 -1.7461386 1.7661207 -1.3052572 0.9895315 1.8237332 1.1875396 0.36467087
-1.8398409 -0.9126206 1.5503032 -0.5496387 1.8817004 -0.035776578 -1.5035703 -1.7872411
-1.2707002 1.4505712 1.6262529 0.16069175 -1.7756082 1.7949208 -0.07776885 1.7254517
-1.8252562 0.9348423 1.7426088 -1.9805721 0.30476975 1.7497646 1.3681165 -1.9307561
-0.6475081 0.57676095 -1.0822743 -1.7686969 -1.5453341 -1.1859936 -1.0041109 1.8224756
-1.9329637 -1.9352418 1.7876763 1.7014301 -1.8727888 -0.644481 -0.3623206 -0.5044503
-1.4262033 -1.9742408 -1.8633226 0.10196276 -1.8590697 -0.4890983 1.057279 -1.7862376
-1.4516675 0.10659983 -1.9126529 0.7075491 1.7972908 -1.8053747 1.8791757 -0.07288245
-1.8376364 -0.3177093 -1.8958846 -0.015107675 -0.87334627 -0.72069925 1.3946753 -1.3058518
1.4861544 -1.5022296 -1.3096551 1.4422351 -1.7973543 0.37647015 1.0809835 0.028515477
1.475817 1.6721976 -0.5782724 -1.9518245 -1.8884839 -1.7479501 -1.18863 -1.8296208
-1.0443784 0.3699966 1.7877761 1.5297649 -0.1126654 0.926336 0.62758607 1.7414182
-1.1194247 -0.14280036 -0.95948595 1.8648103 1.8583838 -1.3186297 -1.7026887 1.7635397
-1.3278445 -1.7681993 1.5839144 -1.8326578 1.2713567 -1.6140277 1.7020581 -0.89974624
1.4357882 0.5202473 -1.3667594 1.9008013 -1.0017822 -1.6594557 -1.8129097 -0.7212294
1.8342175 0.39514738 0.076019056 1.6971049 -1.9477232 -0.53300595 1.1348261 1.2617248
0.44448185 1.4823513 1.5257353 1.8295066 -1.6195759 0.7715434 1.0398333 1.9158511
-1.0455757 1.7103205 1.0849092 -1.717425 1.8043469 1.1730534 -1.8528026 -1.786273
-1.8731458 -1.1020248 -0.81792045 0.93795496 -1.8093456 -1.5843744 -1.1604347 1.8436227
1.8246212 0.6140142 -1.0005419 1.7972947 0.94254816 -0.65673673 0.73353195 -1.048161
-1.9242926 -0.09039775 -1.8857261 0.020407865 -0.888183 0.9936068 -1.857336 -0.03043178
-1.9677833 -1.8041754 -1.9701127 1.4960443 -1.8728118 -1.8874682 1.279878 0.4305276
1.7177894 -0.15701567 -1.2388763 -0.081709385 -1.8829157 1.0330441 -0.6310017 1.798022
-1.8937703 1.9051661 0.33998862 -1.8977494 0.117182605 0.05251136 -1.8083471 1.0853038
1.3605084 0.491301 1.92208 -1.8564198 1.1297914 -0.5337261 1.5189211 -1.8940847
-1.891012 1.7284151 -1.8480363 -1.9032266 -1.8635134 -1.8175083 -1.8348143 -1.4205561
-1.2715684 1.6380162 -1.9013975 1.260668 -1.7777138 0.46203882 -1.9006315 -1.8229978

fc4.bias f4 [6]
00000000: a0cb 743e 6440 8fbf 8662 efbf 1445 f2bf
00000010: 7cbf 093e 0320 f93f
0.23905802 -1.1191525 -1.8701942 -1.8927331 0.13451952 1.9462894
