figs/diff_batch_size/mlp_128/mlp_model_dict.pt (torch, 182421 bytes, 8 tensors)

fc1.weight f4 [100, 240]
-0.3548425 -0.22816525 0.05525044 0.24409564 0.30321664 -0.1859385 -0.31989923 -0.16080786
-0.24220009 0.11220741 0.14074746 0.42144257 0.38728538 0.12205071 -0.32370043 -0.34978327
-0.3443495 0.033215366 0.1321284 0.31268862 0.26324415 -0.26466313 -0.14803593 0.27594537
0.26736572 0.07390834 0.2240263 0.36234236 0.17743813 0.06426516 -0.24093333 -0.26202464
-0.31883487 -0.35157272 -0.27707785 -0.22048084 0.13026673 0.2769575 0.3468497 0.3151771
-0.13481836 -0.35887972 -0.28716016 -0.04712113 0.246479 0.3133859 0.091440596 -0.41075322
-0.4699249 -0.4423374 -0.23856016 0.25810528 0.22374837 0.26234883 0.19192493 0.09322192
-0.35192508 -0.16312025 -0.19022444 -0.16375329 -0.034584023 -0.019878833 -0.26580805 -0.10798174
-0.12461349 -0.31046972 -0.30046314 -0.02524158 0.28748474 0.29689947 0.3561614 0.2826013
0.018822623 -0.26779884 -0.35092178 -0.23082012 -0.31347308 0.23381111 0.28994867 0.14818606
-0.16352701 -0.18307668 -0.36467752 -0.3828274 -0.3477101 -0.27053717 -0.17990796 -0.15547581
-0.15140152 -0.338569 -0.35317597 -0.4117282 -0.43838215 -0.23838803 -0.17433752 0.046532407
-0.1046889 -0.4161002 -0.4570372 -0.40668687 -0.32354668 -0.14249961 0.18158124 0.021254618
-0.20529744 -0.45911685 -0.4588565 -0.39607593 -0.26711643 0.1895232 -0.0014382411 -0.11964145
-0.34292895 -0.3982856 -0.43752778 -0.41579688 -0.14206633 0.18044347 0.14819808 -0.32635933
-0.4448257 -0.37077895 -0.2856875 -0.16698027 -0.12740107 -0.105177015 -0.15288651 -0.30711883
-0.41857463 -0.3566147 -0.2711913 0.2004022 0.2553308 -0.09297034 -0.3333189 -0.36164173
-0.359147 -0.27895144 -0.10555986 0.22162433 -0.14362001 -0.2871076 -0.3353817 -0.33249435
-0.34366715 -0.09497977 0.08123517 -0.04284549 -0.25055525 -0.28372794 -0.45135495 -0.40070936
-0.30428925 -0.21368267 -0.08964975 -0.21578406 -0.29572433 -0.29895708 -0.4096453 -0.1945124
-0.37700152 0.43353897 0.22867554 0.098710686 -0.43355414 -0.15441251 -0.29395294 0.34743342
0.23026937 -0.040569007 0.13593313 0.2864847 0.23056929 -0.3205739 -0.39105237 0.3699377
0.0789674 -0.21541344 0.08089778 0.22659363 0.33238563 0.019709926 -0.32972628 -0.41522744
-0.32826364 -0.08461836 0.27350152 0.40197468 0.40532553 -0.19475965 -0.21462798 -0.43861824
0.22422896 0.31549639 0.30043668 0.31648812 -0.4362612 -0.2651674 -0.34328142 -0.39214197
-0.16288513 0.21536693 0.40326384 0.45959726 -0.30414855 -0.17870562 -0.44700518 0.29495728
0.3192702 0.4166487 -0.4621136 -0.34758055 -0.43837556 -0.4916617 0.25535566 0.2251718
0.19902235 0.3384813 -0.396149 -0.409607 -0.31667534 0.33746824 0.36333096 0.21793537
-0.06989481 -0.3881273 -0.50676763 -0.48905647 0.3179561 0.29571736 0.3936195 0.3309715
-0.43507916 -0.50905365 -0.4435311 0.3661153 0.3073803 0.37693825 0.19298366 -0.46861035
-0.3177216 -0.33260053 0.3375647 0.17260173 -0.06289564 -0.30744752 -0.21815608 -0.2874731
-0.28060177 0.044950932 0.30975878 0.16706316 -0.29497233 -0.30372983 -0.33029035 -0.20230399
00000000: ebad b5be 27a4 69be 494e 623d 35f4 793e
00000010: 363f 9b3e aa66 3ebe d5c9 a3be d1aa 24be
00000020: 4d03 78be 00cd e53d 1a20 103e 52c7 d73e
00000030: 454a c63e b9f5 f93d 10bc a5be cb16 b3be
00000040: 944e b0be d60c 083d ab4c 073e b918 a03e
00000050: f0c7 863e ed81 87be bb96 17be b648 8d3e
00000060: 29e4 883e 415d 973d 2667 653e f084 b93e
00000070: 57b2 353e 749d 833d 3ab7 76be 1828 86be
00000080: 533e a3be 5701 b4be 26dd 8dbe bbc5 61be
00000090: a464 053e 60cd 8d3e 4996 b13e e55e a13e
000000a0: d30d 0abe 15bf b7be a806 93be 1602 41bd
000000b0: fe64 7c3e 1e74 a03e 3545 bb3d 3f4e d2be
000000c0: ff99 f0be 0c7a e2be 1d49 74be 6026 843e
000000d0: 4b1e 653e 9652 863e f887 443e 22eb be3d
000000e0: 862f b4be ff08 27be 32ca 42be f1ae 27be
000000f0: faa7 0dbd efd8 a2bc fe17 88be 8825 ddbd
00000100: 5c35 ffbd e3f5 9ebe 4ed6 99be 6ec7 cebc
00000110: 3331 933e 3503 983e c95a b63e 1eb1 903e
00000120: e731 9a3c ee1c 89be 05ac b3be 1c5c 6cbe
00000130: 8b7f a0be 2e6c 6f3e 2774 943e 16be 173e
00000140: a073 27be 7478 3bbe 03b7 babe f401 c4be
00000150: 0f07 b2be d983 8abe cb39 38be 0d35 1fbe
00000160: 0009 1bbe ea58 adbe 7bd3 b4be 0ace d2be
00000170: a073 e0be fe1b 74be 8985 32be c498 3e3d
00000180: 2267 d6bd 160b d5be c800 eabe 4339 d0be
00000190: e9a7 a5be 6beb 11be 6ff0 393e 2a1e ae3c
000001a0: 7e39 52be 5d11 ebbe 3def eabe 77ca cabe
000001b0: 7cc3 88be 5f12 423e 5d83 bcba 9406 f5bd
000001c0: 6294 afbe 17ec cbbe a403 e0be 54e3 d4be
000001d0: d679 11be 2cc6 383e 3dc1 173e 9218 a7be
000001e0: 32c0 e3be bdd6 bdbe a245 92be e0fc 2abe
000001f0: 6d75 02be 0c67 d7bd 488e 1cbe ae3e 9dbe
00000200: 6a4f d6be 3496 b6be 96d9 8abe 3c36 4d3e
00000210: b8ba 823e 3c67 bebd c6a8 aabe 1b29 b9be
00000220: 1ee2 b7be b9d2 8ebe c52f d8bd 7df1 623e
00000230: 2011 13be c4ff 92be 26b7 abbe b33c aabe
00000240: 24f5 afbe c184 c2bd a05e a63d c17e 2fbd
00000250: c748 80be ca44 91be ff17 e7be c729 cdbe
00000260: cdcb 9bbe a1cf 5abe 4a9a b7bd 7ff6 5cbe
00000270: 2e69 97be e710 99be 07bd d1be 422e 47be
00000280: 5806 c1be d2f8 dd3e ec29 6a3e d428 ca3d
00000290: cffa ddbe 501e 1ebe 0081 96be cbe2 b13e
000002a0: bccb 6b3e b02b 26bd 0e32 0b3e 1fae 923e
000002b0: 5b1a 6c3e 4322 a4be 0438 c8be 7968 bd3e
000002c0: a9b9 a13d 5795 5cbe bcad a53d 2908 683e
000002d0: 732e aa3e b676 a13c e2d1 a8be b198 d4be
000002e0: 2c12 a8be 644c adbd 6408 8c3e a0cf cd3e
000002f0: d486 cf3e 136f 47be 70c7 5bbe 9292 e0be
00000300: 479c 653e be88 a13e d6d2 993e bb0a a23e
00000310: a15d dfbe 05c4 87be 95c2 afbe d5c6 c8be
00000320: 5ccb 26be 2689 5c3e 9978 ce3e 5550 eb3e
00000330: 5cb9 9bbe 9bfe 36be dddd e4be a404 973e
00000340: 6277 a33e fa52 d53e 279a ecbe 14f6 b1be
00000350: c372 e0be 15bb fbbe fabd 823e 7093 663e
00000360: 84cc 4b3e 6c4d ad3e 0bd4 cabe 02b8 d1be
00000370: 4523 a2be a3c8 ac3e 8406 ba3e 732a 5f3e
00000380: 0325 8fbd 9fb8 c6be 86bb 01bf 9c65 fabe
00000390: 24cb a23e 4468 973e 7f88 c93e 1975 a93e
000003a0: b2c2 debe 5751 02bf 8216 e3be 7773 bb3e
000003b0: f360 9d3e 0dfe c03e 829d 453e b2ed efbe
000003c0: 68ac a2be 9e4a aabe 48d5 ac3e 82be 303e
000003d0: 6ecf 80bd c369 9dbe 4f64 5fbe ad2f 93be
000003e0: 09ab 8fbe 781e 383d b498 9e3e 9b12 2b3e
000003f0: 9d06 97be 7a82 9bbe d11b a9be c728 4fbe

fc1.bias f4 [100]
-0.16875307 -0.24523905 -0.24680172 -0.24851762 -0.2668662 -0.2544008 -0.33167273 -0.26428065
-0.28294465 -0.24993351 -0.3187555 -0.26028106 -0.13001904 -0.1429537 -0.32090536 -0.43262234
-0.33117646 -0.31447262 -0.2670639 -0.34319603 -0.3518712 -0.34929568 -0.25875822 -0.35682416
-0.36417243 -0.28281134 -0.3075122 -0.31112778 0.39784682 -0.42782333 -0.31353155 -0.31484103
-0.18378244 -0.16116595 -0.3250458 -0.34090763 -0.38274863 -0.29890522 -0.31662133 -0.26031914
-0.3132004 -0.31519923 -0.31854373 -0.44116056 -0.2587668 -0.25333947 -0.190196 -0.27009657
-0.28136384 -0.2826724 -0.15074287 -0.40898204 -0.34524632 -0.29091787 -0.2528683 -0.13776214
-0.25485736 -0.44596618 -0.19705628 -0.17704199 -0.2816937 -0.23374061 -0.32623008 -0.2433102
-0.38707468 -0.34928316 -0.14766356 -0.37478024 -0.3675806 -0.28894514 -0.35374346 -0.39869034
-0.2508754 -0.24958739 -0.14831269 -0.26381195 0.21545584 -0.24295811 -0.36849526 -0.3370051
-0.2548086 -0.2138126 -0.32643434 -0.20817183 -0.34061506 -0.2597293 -0.35495728 -0.40609768
-0.1429145 -0.1895527 -0.2597018 -0.3782358 -0.31783983 -0.3112297 -0.27880156 -0.13741389
-0.29280633 -0.31326917 -0.1617823 -0.33048308
00000000: 9bcd 2cbe f21f 7bbe 97b9 7cbe 677b 7ebe
00000010: b0a2 88be d240 82be 02d1 a9be cb4f 87be
00000020: 1fde 90be 92ee 7fbe ec33 a3be 8f43 85be
00000030: b623 05be 7462 12be b54d a4be ad80 ddbe
00000040: f68f a9be 8e02 a1be 99bc 88be 64b7 afbe
00000050: 7628 b4be e2d6 b2be f57b 84be a8b1 b6be
00000060: cf74 babe a6cc 90be 3d72 9dbe 244c 9fbe
00000070: 94b2 cb3e a90b dbbe 3587 a0be d832 a1be
00000080: 7731 3cbe b008 25be 676c a6be 728b aebe
00000090: a1f7 c3be 1b0a 99be 311c a2be 8d48 85be
000000a0: ce5b a0be cb61 a1be 2a18 a3be ccdf e1be
000000b0: 157d 84be b6b5 81be bdc2 42be 194a 8abe
000000c0: ec0e 90be 70ba 90be 575c 1abe 1866 d1be
000000d0: 20c4 b0be 30f3 94be f477 81be 8511 0dbe
000000e0: aa7c 82be ae55 e4be 1fc9 49be 7f4a 35be
000000f0: 283a 90be b359 6fbe a107 a7be 4f26 79be
00000100: a72e c6be 3ed5 b2be 1e35 17be 32e3 bfbe
00000110: 8633 bcbe 9ef0 93be dd1d b5be 2421 ccbe
00000120: be72 80be d693 7fbe 48df 17be 5c12 87be
00000130: 75a0 5c3e 03ca 78be 69ab bcbe ef8b acbe
00000140: 4676 82be b1f1 5abe 6722 a7be ff2a 55be
00000150: 1965 aebe 3dfb 84be f6bc b5be 09ec cfbe
00000160: 2e58 12be 1a1a 42be a2f7 84be 1fa8 c1be
00000170: e7bb a2be 8059 9fbe 14bf 8ebe 3ab6 0cbe
00000180: b6ea 95be d164 a0be 42aa 25be 1435 a9be

fc2.weight f4 [100, 100]
-0.32152763 -0.16272981 0.025866473 0.05445208 -0.46166903 -0.25666204 -0.32387617 -0.39310667
-0.35252073 0.19679472 -0.2461701 -0.2404289 -0.33089072 -0.41376716 -0.20022996 0.037741914
0.30685 -0.15373981 0.022655504 0.055953484 -0.26046044 -0.2635459 -0.11253502 -0.28959417
-0.44833058 -0.119783744 -0.26892272 -0.47078416 -0.33733594 -0.24108526 -0.28500065 0.2935402
-0.3858343 -0.35956702 -0.38182932 -0.2576757 -0.1942571 0.17405997 -0.24735296 -0.34411845
-0.25833747 -0.17197576 -0.19428368 -0.39531156 -0.32009393 0.09306119 -0.39696437 -0.37371513
-0.39924806 -0.10671852 -0.16310807 -0.10564206 -0.3504874 -0.20606449 -0.19461633 -0.348769
-0.3700261 0.1088834 -0.30686808 -0.33949485 -0.084936894 -0.49517277 0.027930778 0.19859006
-0.40690523 0.04017779 -0.15892984 -0.3475907 -0.355806 0.25984278 -0.19204031 0.05181544
-0.0876499 -0.43833405 -0.36297524 -0.34753126 -0.41876683 -0.2914203 -0.27301154 -0.13447389
-0.23697875 -0.48020744 -0.1617422 -0.37632594 -0.20310122 -0.48174882 -0.08683501 0.067529194
-0.28666887 -0.29179844 0.050742712 -0.24634004 -0.35449213 0.14273255 -0.3687753 -0.28796703
0.24326926 0.23160893 -0.3869707 -0.06752891 -0.02528906 0.35180172 -0.3176071 -0.42370468
0.10257945 -0.3005613 -0.17402548 -0.41005152 0.4389579 -0.29867637 -0.16604681 0.23498507
-0.16788402 0.35344183 0.24785385 -0.16935723 -0.22557026 0.09156385 -0.2480071 -0.3820407
-0.29365668 -0.46329898 0.023782447 -0.34054506 0.13212596 -0.2224332 0.16115157 -0.44193998
-0.36190796 0.2404248 -0.33661717 -0.25476196 0.23244376 -0.36027583 -0.21554896 -0.44357184
-0.09448967 0.31976557 -0.27406088 0.35456926 -0.30319387 -0.33979613 -0.32612255 0.22545873
0.20268975 -0.4000535 -0.0031624972 0.32232437 0.18575424 0.15362673 -0.28568512 -0.22819807
-0.29668987 -0.29174384 0.42106432 0.1692363 0.08085291 -0.33201444 -0.2981649 -0.18224476
-0.2038243 0.22184071 -0.21578108 -0.18014938 -0.22921196 -0.21496032 0.25417653 -0.26745614
0.3320494 0.11423567 -0.25154206 -0.39321706 -0.24102698 0.25134885 0.17821631 -0.3794256
-0.36769885 -0.32176623 -0.23180032 0.2323712 0.41280124 0.38008037 0.16214927 0.4201188
-0.15226357 -0.28459296 0.32485256 -0.25046194 -0.2013998 0.23208395 -0.24881956 -0.28400046
-0.3444326 -0.25199407 0.30669883 0.13264705 -0.23549324 0.19435044 0.44687146 -0.18191068
0.3692327 -0.090223566 -0.11301946 0.1306277 0.43039188 -0.15389766 -0.30617958 0.49596852
0.41632438 0.059488397 -0.121545576 -0.19983016 0.17895228 0.42590612 -0.10747761 -0.26979586
-0.2945937 0.0997027 0.3704942 -0.27966172 -0.19938003 -0.17840819 -0.054213475 -0.23767404
0.3437562 -0.19333284 -0.22969869 -0.04581826 -0.20657735 0.06175676 0.35634634 0.3051225
0.42369124 -0.21019994 0.053059928 -0.17967428 -0.29548213 0.21591163 -0.42242157 0.47353774
-0.23820005 0.0811677 0.4203516 0.036487292 0.41792265 0.4710509 0.48760968 0.45587462
0.083872184 -0.19372858 0.45504713 0.19880761 -0.30891773 0.13034557 0.40514538 0.34640834
00000000: 459f a4be a5a2 26be ede5 d33c 2509 5f3d
00000010: e25f ecbe 3569 83be 19d3 a5be 4745 c9be
00000020: 997d b4be 8e84 493e 0414 7cbe fe32 76be
00000030: 826a a9be 4ad9 d3be 1509 4dbe 4497 1a3d
00000040: 711b 9d3e f86d 1dbe 0998 b93c 7b2f 653d
00000050: 125b 85be 7def 86be c378 e6bd b045 94be
00000060: 968b e5be 2e51 f5bd 3db0 89be 9f0a f1be
00000070: 4cb7 acbe 0edf 76be 9beb 91be e74a 963e
00000080: 138c c5be 2b19 b8be 227f c3be 12ee 83be
00000090: 55eb 46be c73c 323e 184a 7dbe 4b30 b0be
000000a0: cf44 84be 6a1a 30be 4df2 46be 4766 cabe
000000b0: 5ae3 a3be dd96 be3d ea3e cbbe 9757 bfbe
000000c0: 3e6a ccbe 3d8f dabd cd05 27be dd5a d8bd
000000d0: 1673 b3be 9202 53be 8149 47be da91 b2be
000000e0: 1074 bdbe 43fe de3d d01d 9dbe 45d2 adbe
000000f0: 65f3 adbd 4987 fdbe 16cf e43c 315b 4b3e
00000100: e255 d0be 7791 243d 81be 22be 69f7 b1be
00000110: 342c b6be 1d0a 853e 37a6 44be 6d3c 543d
00000120: ca81 b3bd 526d e0be e4d7 b9be 9eef b1be
00000130: 9b68 d6be 0b35 95be 2bc8 8bbe 86b3 09be
00000140: 8faa 72be c0dd f5be bf9f 25be cbad c0be
00000150: c4f9 4fbe c8a7 f6be 8ed6 b1bd bf4c 8a3d
00000160: 43c6 92be 9b66 95be 97d7 4f3d 9040 7cbe
00000170: fe7f b5be 7b28 123e 1ed0 bcbe 6a70 93be
00000180: 941b 793e e42a 6d3e 0621 c6be 994c 8abd
00000190: 012b cfbc 5b1f b43e 669d a2be d2ef d8be
000001a0: 2d15 d23d 2ce3 99be bc33 32be 46f2 d1be
000001b0: 17bf e03e 1cec 98be 2d08 2abe ed9f 703e
000001c0: cae9 2bbe 54f6 b43e 66cd 7d3e fb6b 2dbe
000001d0: e4fb 66be d485 bb3d 93f5 7dbe d79a c3be
000001e0: 2b5a 96be 8635 edbe 68d3 c23c ec5b aebe
000001f0: 074c 073e 87c5 63be eb04 253e f545 e2be
00000200: 004c b9be eb31 763e 1659 acbe 2970 82be
00000210: bd05 6e3e 1376 b8be deb8 5cbe d91b e3be
00000220: cd83 c1bd 50b8 a33e b551 8cbe 1a8a b53e
00000230: 3a3c 9bbe c2f9 adbe 89f9 a6be a7de 663e
00000240: e78d 4f3e d0d3 ccbe e641 4fbb b307 a53e
00000250: 5c36 3e3e 5350 1d3e 5245 92be c1ac 69be
00000260: bce7 97be 735f 95be be95 d73e 484c 2d3e
00000270: 3696 a53d ccfd a9be 12a9 98be 5f9e 3abe
00000280: 51b7 50be 362a 633e b7f5 5cbe 1479 38be
00000290: 8ab6 6abe 8f1e 5cbe 6d23 823e 03f0 88be
000002a0: 6102 aa3e 64f4 e93d 1fca 80be bf53 c9be
000002b0: c7cf 76be ccb0 803e 567e 363e 1244 c2be
000002c0: 0643 bcbe 8bbe a4be 105d 6dbe b7f2 6d3e
000002d0: af5a d33e e599 c23e 750a 263e d019 d73e
000002e0: fbea 1bbe 2bb6 91be 1353 a63e 8c3c 80be
000002f0: c03b 4ebe 6aa7 6d3e 8eca 7ebe 8268 91be
00000300: 7859 b0be 5e05 81be a107 9d3e a1d4 073e
00000310: 2425 71be cd03 473e 56cc e43e cb46 3abe
00000320: 120c bd3e 22c7 b8bd bf76 e7bd 45c3 053e
00000330: 535c dc3e 5997 1dbe 92c3 9cbe 96ef fd3e
00000340: 7828 d53e 1baa 733d e3ec f8bd 47a0 4cbe
00000350: 443f 373e 5e10 da3e 391d dcbd af22 8abe
00000360: fcd4 96be ee30 cc3d 6ab1 bd3e d22f 8fbe
00000370: 472a 4cbe a3b0 36be f30e 5ebd d360 73be
00000380: d000 b03e 0bf9 45be 2236 6bbe eeab 3bbd
00000390: 0389 53be a8f4 7c3d 0773 b63e 0439 9c3e
000003a0: 0fee d83e a73e 57be 5e55 593d 89fc 37be
000003b0: 6f49 97be f017 5d3e a447 d8be 8a73 f23e
000003c0: b7ea 73be 403b a63d 5338 d73e b373 153d
000003d0: f5f9 d53e 952d f13e faa7 f93e 6668 e93e
000003e0: 2ec5 ab3d c960 46be f0fb e83e 3994 4b3e
000003f0: 772a 9ebe 4f79 053e 376f cf3e 6f5c b13e

fc2.bias f4 [100]
0.23542303 -0.26806757 0.19350132 0.33768797 -0.32557407 0.11354684 -0.17496435 -0.40992102
0.004489498 -0.16705932 -0.2690265 -0.34886542 -0.3361808 0.10641756 0.32621023 -0.310846
-0.20818482 -0.14315797 -0.2753509 -0.325628 -0.26597664 -0.17150828 -0.26444915 -0.29665765
-0.35818863 -0.08904702 -0.41398248 -0.31648135 0.23461969 -0.31398344 -0.048121758 0.0059100217
-0.11115811 -0.19389269 -0.19240864 0.21766815 0.020630438 -0.31547982 -0.19782244 -0.22826093
0.406754 -0.39006826 -0.22880308 0.067385726 -0.27082285 -0.3331416 0.090855494 -0.051590715
-0.32504258 0.1811035 -0.36172578 -0.2391499 0.2390109 0.23756458 -0.2406462 -0.1984613
-0.13960892 0.3311243 -0.28983212 -0.14447038 -0.32529458 -0.04965076 -0.19830666 -0.14773694
-0.43737832 -0.062210124 -0.13513544 0.3038621 -0.2983626 -0.021579394 -0.14935616 0.3023669
-0.4137088 -0.17148665 -0.11272534 0.3487026 -0.33440402 -0.32109466 -0.4406935 -0.27901363
-0.17408752 -0.28305528 -0.15444739 0.46966308 0.03723417 -0.2221122 -0.16408646 0.27992266
-0.36979198 -0.2871114 -0.26066342 -0.29379398 -0.18740502 -0.3955381 -0.35480115 -0.22153242
-0.26069516 -0.08258859 0.0102252485 -0.33183345
00000000: bc12 713e 2740 89be 3625 463e 70e5 ac3e
00000010: a5b1 a6be 3f8b e83d db29 33be 2be1 d1be
00000020: a41c 933b 9911 2bbe d7bd 89be 7d9e b2be
00000030: e41f acbe 73f1 d93d 0705 a73e 3527 9fbe
00000040: 672e 55be 0198 12be cbfa 8cbe b7b8 a6be
00000050: 172e 88be de9f 2fbe e165 87be 83e3 97be
00000060: 8064 b7be 495e b6bd 83f5 d3be d809 a2be
00000070: 2540 703e 70c2 a0be 521b 45bd dba8 c13b
00000080: dda6 e3bd ce8b 46be c506 45be 66e4 5e3e
00000090: 2a01 a93c 9286 a1be f791 4abe 3cbd 69be
000000a0: 0f42 d03e 07b7 c7be 5b4b 6abe 8701 8a3d
000000b0: 4ba9 8abe 8991 aabe 7212 ba3d c950 53bd
000000c0: fb6b a6be 3273 393e 1f34 b9be b6e3 74be
000000d0: 46bf 743e 2144 733e f56b 76be 7039 4bbe
000000e0: a4f5 0ebe 2089 a93e e064 94be 0bf0 13be
000000f0: 038d a6be 985e 4bbd e710 4bbe 5a48 17be
00000100: 0df0 dfbe 0bd0 7ebd f260 0abe d093 9b3e
00000110: fcc2 98be 45c7 b0bc d2f0 18be d6cf 9a3e
00000120: a4d1 d3be 329a 2fbe 8bdc e6bd 2689 b23e
00000130: 0137 abbe 8566 a4be 94a2 e1be e0da 8ebe
00000140: 0044 32be 9fec 90be 7527 1ebe ae77 f03e
00000150: db82 183d 6171 63be 4806 28be 0652 8f3e
00000160: 6055 bdbe 4400 93be ad75 85be 2a6c 96be
00000170: 1ae7 3fbe f883 cabe 7fa8 b5be 65d9 62be
00000180: d679 85be 3524 a9bd cd87 273c 13e6 a9be

fc3.weight f4 [100, 100]
-0.34274563 0.38822678 0.09497141 -0.3464756 0.30265364 -0.22600085 0.43407857 -0.23234311
0.34616238 -0.1796039 0.23664857 0.2711729 0.29850784 0.050095115 -0.040380705 0.22230604
0.23688523 0.15343808 0.24355581 0.2102018 0.3241509 0.24487673 0.19220978 0.39822242
-0.19838697 0.3703507 -0.15273048 0.2863895 -0.029822662 0.15892601 -0.50914925 -0.07029003
-0.19696954 0.24930266 0.21510904 -0.29661697 0.028906273 0.24465239 0.26431704 0.023742838
-0.3957183 0.4208889 0.47404063 0.09316109 -0.37926787 0.32283473 0.31430572 0.1536859
0.36269587 -0.3685455 -0.3064948 -0.20887512 -0.3260555 0.17934358 0.12487507 0.2999959
0.27256897 -0.20889817 -0.42234725 -0.28340235 0.31300092 -0.41812533 0.3918142 0.26840144
-0.019103376 -0.05082347 0.38994476 -0.2788888 0.06716692 0.33825716 -0.43359864 0.10744753
-0.15655863 0.02023058 -0.35287642 -0.29257444 0.4170653 0.31819457 0.40553916 0.32573584
0.17878771 0.31257296 0.24369363 0.42733508 -0.3256148 -0.24869213 0.453601 0.2844414
0.2296409 0.2620468 -0.2586184 0.29046243 -0.03905736 0.31032184 0.25196934 0.33308995
0.39138743 0.4059148 -0.046473518 0.17047666 -0.34797147 -0.22885573 -0.30766237 -0.41598073
-0.24895518 -0.25667718 -0.28822294 -0.2671047 -0.29919112 -0.3272061 -0.3298478 -0.364488
-0.41526404 -0.36935747 -0.2678955 -0.37988308 -0.30593884 -0.25601333 -0.2410715 -0.21573988
-0.32645437 -0.29682404 -0.23676318 -0.36529636 -0.33244464 -0.3112468 -0.37445337 -0.23829643
-0.22467473 -0.31684533 -0.35645133 -0.3637919 -0.36874545 -0.3763086 -0.28490198 -0.32575616
-0.28519642 -0.22908084 -0.37397918 -0.32730627 -0.3752848 -0.32507738 -0.34998542 -0.34861344
-0.23824304 -0.4029768 -0.38279217 -0.26044974 -0.35157508 -0.36928454 -0.3222591 -0.39796558
-0.29523218 -0.30513698 -0.27833068 -0.34798703 -0.25148153 -0.3148287 -0.3146038 -0.2906517
-0.28958282 -0.31016117 -0.37844422 -0.23120725 -0.41686222 -0.40457428 -0.37482342 -0.34182024
-0.30942705 -0.32714644 -0.33920744 -0.34110987 -0.2337512 -0.28754094 -0.32325187 -0.3520577
-0.30946052 -0.30203393 -0.22350623 -0.25315684 -0.37317544 -0.30260515 -0.26497313 -0.39126855
-0.26451105 -0.28592196 -0.3043575 -0.24882057 -0.2770764 -0.38660082 -0.3456546 -0.37784338
-0.24723446 -0.4173756 -0.3448013 -0.30626985 -0.32468325 -0.22334194 -0.3640966 -0.3618081
-0.38182223 0.31840706 0.29548076 -0.4243664 0.41003498 -0.32621133 0.19016384 -0.19825195
0.2321916 -0.15106572 0.30136606 0.3820218 0.28656778 0.03421715 -0.34541738 -0.08458286
0.31314752 -0.18878621 -0.24572814 -0.3899819 -0.25907794 -0.12572008 0.30532348 0.38868713
-0.22927088 -0.17278112 -0.17297319 0.2593315 -0.27860728 0.4377892 0.25979567 -0.34957284
-0.31835255 -0.20841596 -0.082093515 -0.37903872 0.19098316 0.33558455 -0.23335405 -0.3746366
-0.36531565 -0.068623506 0.15443793 0.40386888 -0.40564469 -0.25512534 -0.2908412 0.33041522
-0.32469556 -0.406259 -0.27268988 0.3450561 -0.30201173 0.22601336 -0.32835028 0.026495857
00000000: 5b7c afbe a9c5 c63e 5f80 c23d 4065 b1be
00000010: 6bf5 9a3e c46c 67be 8c3f de3e 5aeb 6dbe
00000020: 323c b13e 16ea 37be 0154 723e 2dd7 8a3e
00000030: 05d6 983e 8930 4d3d 3d66 25bd 32a4 633e
00000040: 0b92 723e df1e 1d3e b266 793e 243f 573e
00000050: 1bf7 a53e f7c0 7a3e a4d2 443e cfe3 cb3e
00000060: f425 4bbe 9b9e bd3e 6165 1cbe a5a1 923e
00000070: a84e f4bc 80bd 223e 9b57 02bf 38f4 8fbd
00000080: 62b2 49be 3249 7f3e 8b45 5c3e 2ede 97be
00000090: d9cc ec3c 2886 7a3e 9054 873e 5780 c23c
000000a0: 979b cabe c07e d73e 74b5 f23e 3ecb be3d
000000b0: 662f c2be 984a a53e aeec a03e d65f 1d3e
000000c0: 46b3 b93e ffb1 bcbe e3ec 9cbe 5ce3 55be
000000d0: bff0 a6be d8a5 373e 80be ff3d 1099 993e
000000e0: 298e 8b3e 67e9 55be e63d d8be 1d1a 91be
000000f0: a841 a03e 8614 d6be df9b c83e ea6b 893e
00000100: af7e 9cbc 452c 50bd d7a6 c73e 83ca 8ebe
00000110: cf8e 893d 0b30 ad3e a400 debe 730d dc3d
00000120: e850 20be 9aba a53c 38ac b4be 51cc 95be
00000130: 9589 d53e 66ea a23e d4a2 cf3e d9c6 a63e
00000140: 2014 373e 9009 a03e d38a 793e aacb da3e
00000150: fcb6 a6be 26a9 7ebe 643e e83e 4ea2 913e
00000160: fc26 6b3e 002b 863e a269 84be 7eb7 943e
00000170: 9cfa 1fbd 81e2 9e3e 2002 813e c48a aa3e
00000180: ef63 c83e 11d4 cf3e 045b 3ebd 6f91 2e3e
00000190: 5129 b2be 2859 6abe ec85 9dbe 6dfb d4be
000001a0: 1bee 7ebe 316b 83be f591 93be f2c1 88be
000001b0: 942f 99be 8f87 a7be d0e1 a8be 2c9e babe
000001c0: 7d9d d4be 6c1c bdbe 9929 89be 0980 c2be
000001d0: 04a4 9cbe 2e14 83be 73db 76be eaea 5cbe
000001e0: 0725 a7be 52f9 97be 0c72 72be 2008 bbbe
000001f0: 2f36 aabe be5b 9fbe 5ab8 bfbe fb03 74be
00000200: 2211 66be 8d39 a2be ca80 b6be ef42 babe
00000210: 34cc bcbe 85ab c0be acde 91be 83c9 a6be
00000220: 4405 92be 2b94 6abe 337a bfbe b094 a7be
00000230: 5425 c0be 8b70 a6be 4a31 b3be 767d b2be
00000240: fcf5 73be fa52 cebe 56fd c3be ab59 85be
00000250: a601 b4be dd12 bdbe 25ff a4be 25c2 cbbe
00000260: ac28 97be ea3a 9cbe 5c81 8ebe 5b2b b2be
00000270: 30c2 80be 3a31 a1be c013 a1be 4dd0 94be
00000280: 3344 94be 72cd 9ebe 71c3 c1be 98c1 6cbe
00000290: f76e d5be 5c24 cfbe dbe8 bfbe 1003 afbe
000002a0: 396d 9ebe bd7f a7be 99ac adbe f4a5 aebe
000002b0: 795c 6fbe 9138 93be 4581 a5be e840 b4be
000002c0: 9c71 9ebe 31a4 9abe d1de 64be c69d 81be
000002d0: da10 bfbe 10ef 9abe 8faa 87be 5a54 c8be
000002e0: fe6d 87be 5d64 92be bfd4 9bbe d2ca 7ebe
000002f0: f5dc 8dbe 8bf0 c5be a4f9 b0be b074 c1be
00000300: 082b 7dbe 41b2 d5be cc89 b0be 67cf 9cbe
00000310: e23c a6be c0b3 64be df6a babe e93e b9be
00000320: 347e c3be 4006 a33e 4149 973e 8e46 d9be
00000330: 1bf0 d13e 2c05 a7be 4fba 423e 8f02 4bbe
00000340: a3c3 6d3e f9b0 1abe a74c 9a3e 5d98 c33e
00000350: 03b9 923e 4827 0c3d 8cda b0be c739 adbd
00000360: df54 a03e 2c51 41be 28a0 7bbe b5ab c7be
00000370: dda5 84be c4bc 00be 5c53 9c3e 0002 c73e
00000380: fcc5 6abe 89ed 30be e21f 31be 19c7 843e
00000390: 9da5 8ebe e825 e03e f003 853e 36fb b2be
000003a0: 1bff a2be fe6a 55be a520 a8bd 5d11 c2be
000003b0: 1791 433e bdd1 ab3e 5df4 6ebe 5ed0 bfbe
000003c0: a70a bbbe 7b8a 8cbd fa24 1e3e e7c7 ce3e
000003d0: a9b0 cfbe ca9f 82be 23e9 94be 2f2c a93e
000003e0: 7f3e a6be 2e01 d0be 029e 8bbe 31ab b03e
000003f0: 48a1 9abe 0c70 673e 871d a8be d70d d93c

fc3.bias f4 [100]
0.2924173 -0.25162843 0.046592467 -0.22801916 0.3286456 0.44726935 -0.284899 0.32077047
-0.2177551 -0.27293777 -0.017614024 -0.25550514 -0.042005155 -0.21554896 0.37500703 0.17707105
0.20088263 0.4192892 -0.35808203 0.3766845 -0.3109499 -0.3708675 -0.2559776 -0.22621356
-0.2745473 -0.2203639 0.44433382 0.08248198 -0.30500293 -0.041216273 0.43335885 -0.30287424
-0.26594302 -0.3642553 0.38137645 -0.36593366 -0.21498615 -0.29834685 0.4367333 -0.37264872
-0.3804846 0.30721372 -0.3737623 -0.23507057 -0.2187878 -0.38846093 -0.31155255 0.26698914
-0.28149962 -0.28589395 0.45939937 -0.39130056 0.38480735 -0.3681087 0.44811973 0.10716123
-0.27750054 -0.28442153 0.02012864 -0.32370278 0.39662242 -0.3645936 0.35659266 -0.42341265
-0.27528918 0.37338847 0.24300964 -0.33603254 -0.18229966 0.31411582 0.29997772 0.4123724
-0.24946219 -0.3756565 0.3890392 -0.40222317 -0.2540461 -0.38581285 -0.38412943 0.3026251
-0.2187731 -0.4059212 0.30948043 0.35511747 -0.15825936 -0.2583489 -0.28252396 -0.30074844
-0.12090425 -0.14914832 -0.18965426 0.22635019 -0.18507417 -0.2923773 -0.3040878 -0.080808595
-0.40811074 0.2863725 -0.4423075 -0.2293945
00000000: b8b7 953e 71d5 80be bed7 3e3d db7d 69be
00000010: 3c44 a83e 7d00 e53e 48de 91be 073c a43e
00000020: 31fb 5ebe 80be 8bbe 494b 90bc 92d1 82be
00000030: 990d 2cbd deb8 5cbe ec00 c03e 1d52 353e
00000040: 2db4 4d3e 13ad d63e 8756 b7be cadc c03e
00000050: d334 9fbe 58e2 bdbe 7f0f 83be 87a4 67be
00000060: 7791 8cbe 13a7 61be b97f e33e 50ec a83d
00000070: 5829 9cbe 65d2 28bd 36e1 dd3e 5512 9bbe
00000080: af29 88be ac7f babe c643 c33e a85b bbbe
00000090: 5425 5cbe ebc0 98be 829b df3e d0cb bebe
000000a0: e1ce c2be 1e4b 9d3e c65d bfbe 57b6 70be
000000b0: e909 60be 5ae4 c6be d183 9fbe cdb2 883e
000000c0: b820 90be b160 92be 6536 eb3e 8c58 c8be
000000d0: 7805 c53e be78 bcbe f36f e53e 5977 db3d
000000e0: 8d14 8ebe b39f 91be d1e4 a43c 5fbc a5be
000000f0: 1812 cb3e 03ac babe 5093 b63e 8bc9 d8be
00000100: b4f2 8cbe c62c bf3e 85d7 783e 750c acbe
00000110: c3ac 3abe cad3 a03e ae96 993e 7a22 d33e
00000120: 0473 7fbe 0c56 c0be 2530 c73e 32f0 cdbe
00000130: 5512 82be 4389 c5be 9dac c4be adf1 9a3e
00000140: 0e06 60be e7d4 cfbe 3874 9e3e f5d1 b53e
00000150: be0e 22be 4f46 84be fba6 90be b3fb 99be
00000160: a69c f7bd 56ba 18be ba34 42be 58c8 673e
00000170: 1584 3dbe 7ab2 95be 65b1 9bbe fa7e a5bd
00000180: e4f3 d0be 6b9f 923e 2176 e2be 64e6 6abe

fc4.weight f4 [6, 100]
0.24383077 -0.29645938 0.3414062 -0.388549 0.29128498 0.025270686 -0.23564205 -0.15831822
0.19374621 -0.30482814 0.06908617 -0.35905635 0.022011358 -0.36208633 0.1620856 0.0027422349
-0.3222459 0.29595843 0.2811088 0.24144626 -0.3308257 -0.2644022 -0.037628535 -0.23575838
-0.27500376 0.026951442 0.18049006 0.33649513 -0.28245845 0.22199227 0.25259516 -0.40178055
-0.38195443 0.035970002 0.27028027 0.22438416 0.130114 -0.24608609 0.08028984 0.28763244
-0.24786639 0.23685226 -0.20904107 -0.38223282 -0.45803446 0.25056994 0.24368481 0.14048938
-0.35971737 0.23295401 0.17640164 0.24366365 0.0066345017 0.22544493 0.15941152 0.16682842
0.33872426 0.4296721 0.16894054 -0.2747595 0.016365431 -0.32399714 0.17276438 0.24846971
-0.25081787 0.17689465 0.263033 -0.29222876 0.35086894 0.2521027 0.2680864 0.09277315
-0.33566228 -0.26003906 0.23765446 -0.3675942 -0.24898817 -0.3799752 -0.32119155 0.014968051
-0.0066670445 0.29769814 0.18736684 0.15098815 -0.06625593 -0.233839 0.15147744 -0.2306485
-0.44743046 0.34418774 0.2901516 -0.11374525 0.22863278 -0.057338294 -0.26990363 0.27135873
-0.35231844 0.09786588 -0.25802732 0.25497544 0.1496305 0.2739912 0.3040035 0.28866944
0.0066922395 -0.16862684 0.32141936 -0.28543442 -0.04326023 0.22935903 -0.039009415 -0.25951102
-0.1646586 -0.358621 0.028868077 -0.07220549 0.30683583 0.22550486 -0.16484769 0.17650467
0.23618802 0.3106247 0.011362489 0.30364713 0.31824654 0.30921525 -0.1172387 -0.20299761
0.2792754 0.08847327 -0.29307184 0.34156674 0.23923333 -0.013764307 -0.12060903 -0.28671598
-0.20877331 0.30118152 -0.3885379 0.13440411 0.31681228 -0.11547424 0.32840505 0.26788452
0.32935053 -0.24677618 -0.10214612 -0.20279965 0.33126578 -0.2501414 -0.39418733 -0.23860359
-0.055482894 -0.044980735 -0.34776682 -0.24913122 -0.2299588 -0.17293552 -0.19923933 0.27040088
-0.19510603 0.30670312 -0.09521001 8.662041e-05 0.24269962 -0.32487813 0.16378276 0.2810598
0.24045877 0.19601904 0.33060494 -0.016768834 0.2229187 0.22085385 -0.16011345 0.27327025
0.08783234 0.25148755 0.21933852 0.14022787 0.35072142 -0.2853415 -0.37628534 -0.40623572
-0.20523818 0.14718112 0.13061517 0.24709423 0.31911725 0.32537374 -0.23992826 0.17383815
-0.26120394 -0.1288998 0.100156724 0.12435494 -0.19637345 0.14778225 0.04749119 -0.27510345
-0.4641683 -0.38485685 -0.3136637 -0.33219483 -0.44095883 -0.31866065 -0.29824 -0.09987604
0.15758435 -0.39803773 0.24839804 0.3418525 0.18996912 0.33019567 -0.41250882 0.47197017
-0.373494 -0.30523494 0.283935 -0.34207177 -0.27362043 -0.29779366 0.21548918 -0.28354663
-0.36917335 -0.4403962 -0.32229096 0.20462471 -0.27170816 -0.084433846 -0.35336143 -0.25331855
-0.37413952 -0.4324185 -0.35313565 0.022104299 0.3980092 -0.33753413 -0.33164296 -0.25109082
-0.2191524 0.16747735 -0.22050641 -0.23916754 -0.2841023 0.2435587 -0.29908603 -0.43540654
-0.41237295 0.22940186 0.11301636 0.07175956 -0.44874313 -0.35080042 -0.42618248 -0.3964667
00000000: c6ae 793e 86c9 97be cbcc ae3e e5ef c6be
00000010: 4e23 953e 7804 cf3c 264c 71be 2c1e 22be
00000020: 6865 463e 6f12 9cbe 0d7d 8d3d 3cd6 b7be
00000030: 2a51 b43c 6163 b9be c4f9 253e 11b7 333b
00000040: 6afd a4be dd87 973e 7eed 8f3e b03d 773e
00000050: fc61 a9be ba5f 87be 6120 1abd a56a 71be
00000060: 4bcd 8cbe 45c9 dc3c 63d2 383e 1749 ac3e
00000070: 659e 90be f151 633e 2754 813e 2eb6 cdbe
00000080: 888f c3be 4855 133d 2d62 8a3e f6c4 653e
00000090: 9b3c 053e fefd 7bbe 006f a43d 8f44 933e
000000a0: b0d0 7dbe 6689 723e dd0e 56be 05b4 c3be
000000b0: 7e83 eabe b44a 803e 8388 793e 73dc 0f3e
000000c0: e02c b8be 7f8b 6e3e a2a2 343e f782 793e
000000d0: 3c66 d93b 09db 663e c63c 233e 12d5 2a3e
000000e0: 446d ad3e fbfd db3e c0fe 2c3e 47ad 8cbe
000000f0: cc10 863c f4e2 a5be 25e9 303e d86e 7e3e
00000100: 336b 80be df23 353e 43ac 863e 029f 95be
00000110: 18a5 b33e 9b13 813e 9f42 893e d9ff bd3d
00000120: eddb abbe d723 85be b15b 733e 4f35 bcbe
00000130: c1f6 7ebe 1c8c c2be 3873 a4be 8e3c 753c
00000140: 3977 dabb e46b 983e 18dd 3f3e a39c 1a3e
00000150: 30b1 87bd 7e73 6fbe e71c 1b3e 1f2f 6cbe
00000160: 9b15 e5be 6039 b03e c08e 943e 45f3 e8bd
00000170: b61e 6a3e 8fdb 6abd cf30 8abe 88ef 8a3e
00000180: 1563 b4be e86d c83d 281c 84be 248c 823e
00000190: bd38 193e 9348 8c3e 59a6 9b3e 7bcc 933e
000001a0: 934a db3b 84ac 2cbe 1491 a43e 7624 92be
000001b0: a431 31bd 18dd 6a3e 56c8 1fbd a1de 84be
000001c0: 449c 28be 2c9d b7be bf7c ec3c 79e0 93bd
000001d0: 9619 9d3e bfea 663e d5cd 28be a4bd 343e
000001e0: 46db 713e 330a 9f3e bc29 3a3c a377 9b3e
000001f0: 36f1 a23e 7651 9e3e d81a f0bd 9bde 4fbe
00000200: 2ffd 8e3e 7931 b53d 830d 96be d6e1 ae3e
00000210: 95f9 743e b083 61bc de01 f7bd 70cc 92be
00000220: acc8 55be 7734 9a3e 71ee c6be 3ba1 093e
00000230: 3835 a23e c27d ecbd b524 a83e 2928 893e
00000240: a2a0 a83e e5b2 7cbe fc31 d1bd b6aa 4fbe
00000250: ab9b a93e 8912 80be ecd2 c9be 8054 74be
00000260: 0842 63bd b83d 38bd 7e0e b2be 411c 7fbe
00000270: 527a 6bbe 0216 31be 6505 4cbe fc71 8a3e
00000280: e0c9 47be 3108 9d3e 77fd c2bd faa7 b538
00000290: 4086 783e 6d56 a6be abb6 273e 12e7 8f3e
000002a0: d33a 763e 37b9 483e 0d45 a93e cb5e 89bc
000002b0: cd44 643e 8327 623e c8f4 23be 14ea 8b3e
000002c0: 71e1 b33d fac2 803e 479a 603e e597 0f3e
000002d0: c291 b33e 4818 92be 79a8 c0be 21fe cfbe
000002e0: f529 52be a6b6 163e fcbf 053e 4506 7d3e
000002f0: 5663 a33e 6397 a63e c1af 75be a102 323e
00000300: 86bc 85be 4ffe 03be f81e cd3d cead fe3d
00000310: 1f16 49be 3b54 173e 1f86 423d 5cda 8cbe
00000320: 78a7 edbe f50b c5be 8798 a0be 7115 aabe
00000330: 5bc5 e1be 7d27 a3be eab2 98be cf8b ccbd
00000340: cb5d 213e 9acb cbbe 0e5c 7e3e 4a07 af3e
00000350: 4487 423e 680f a93e 5b34 d3be 13a6 f13e
00000360: 9b3a bfbe c147 9cbe ee5f 913e 0824 afbe
00000370: fa17 8cbe 6978 98be 32a9 5c3e 062d 91be
00000380: 4a04 bdbe 9c7b e1be 5203 a5be 2489 513e
00000390: 551d 8bbe a7eb acbd caeb b4be f8b2 81be
000003a0: 378f bfbe f565 ddbe 32ce b4be 1314 b53c
000003b0: ddc7 cb3e 46d1 acbe 1bcd a9be fa8e 80be
000003c0: 7d69 60be 2f7f 2b3e 6fcc 61be 56e8 74be
000003d0: db75 91be 7467 793e ce21 99be 9bed debe
000003e0: 8c22 d3be 52e8 6a3e 1f75 e73d adf6 923d
000003f0: a9c1 e5be 1d9c b3be 9734 dabe affd cabe

fc4.bias f4 [6]
-0.22846955 -0.087493375 -0.29286107 -0.36909497 -0.44248813 0.36960986
00000000: ecf3 69be ba2f b3bd e3f1 95be 04fa bcbe
00000010: ce8d e2be 813d bd3e
